ResultBackup/Backup/DroneAgentTrack12Fast/DroneAgent/DroneAgent-4899941.onnx (onnx, 659442 bytes, 10 tensors)

100 f4 [1, 512, 128]
0	0x3eda76ee	0.4266886
1	0xbe7c553e	-0.24641892
2	0xbe451d0f	-0.19249366
3	0x3c1c19af	0.009527608
4	0x3e27f238	0.16400993
5	0xbe971d0b	-0.29514346
6	0x3f1401fc	0.5781553
7	0x3cdb1353	0.026742613
8	0x3e88432c	0.26613748
9	0x3e8c0230	0.2734542
10	0x3e79ce2f	0.24395059
11	0x3ebd2ce9	0.36948326
12	0xbdb32f23	-0.08749225
13	0x3eafd278	0.34340262
14	0x3ec1ca66	0.3784973
15	0x3f13d5e4	0.57748246
16	0x3c02946d	0.007969958
17	0xbd805300	-0.06265831
18	0x3b316e74	0.0027073892
19	0x3b24a7f8	0.0025124531
20	0x3d785304	0.060626045
21	0xbe34abc5	-0.1764365
22	0xbda26959	-0.0793025
23	0x3ebb6631	0.36601403
24	0x3ed70de0	0.42002773
25	0xbd80f712	-0.06297125
26	0xbe275d2b	-0.16344135
27	0xbe068322	-0.1313596
28	0xbe202819	-0.15640296
29	0x3e169a21	0.14707233
30	0xbda6d196	-0.08145444
31	0x3e185dae	0.14879486
32	0x3ec257f8	0.3795774
33	0xbe585b25	-0.21128519
34	0x3dfba820	0.12287927
35	0xbe2d8640	-0.16945744
36	0x3e0b4d27	0.1360365
37	0xbd9e2a36	-0.07722895
38	0x3d43a140	0.0477612
39	0x3e36de68	0.17858279
40	0x3e20c235	0.15699084
41	0x3e572bef	0.21012853
42	0xbe1aae57	-0.15105568
43	0x3ee8479a	0.45367128
44	0x3e369815	0.17831452
45	0x3e9383b5	0.28811422
46	0xbe192cbd	-0.14958473
47	0x3e061dd6	0.13097319
48	0xbd091832	-0.03347034
49	0xbe78669a	-0.2425789
50	0xbe7934bb	-0.24336521
51	0xbe17a3a9	-0.14808525
52	0xbea9e971	-0.33185914
53	0x3d866a99	0.06563301
54	0xbde4b722	-0.11167742
55	0x3e75ba59	0.23996867
56	0x3e095e35	0.13414843
57	0xbf14f713	-0.58189505
58	0xbddff947	-0.10936218
59	0x3dd2136a	0.10257609
60	0xbe688c8b	-0.22709863
61	0x3d2b7803	0.0418625
62	0x3e72ce30	0.23711467
63	0x3eca8178	0.39551902
64	0x3d39c3e0	0.045352817
65	0x3e91c1fb	0.28468308
66	0x3d208110	0.039185584
67	0xbe283655	-0.16426976
68	0xbd8b6377	-0.06806081
69	0x3eedc958	0.46442676
70	0xbda634f8	-0.08115572
71	0xbe13e9f9	-0.14444722
72	0x3dda68a8	0.10664493
73	0x3e54517f	0.20734213
74	0x3cef700d	0.029228235
75	0x3eefbc47	0.46823332
76	0xbd84ffc3	-0.06494095
77	0xbe098533	-0.13429718
78	0x3eb0180e	0.34393352
79	0xbd9e9ea8	-0.07745105
80	0x3df53fa1	0.11975027
81	0x3b58be3c	0.0033072373
82	0xbea04114	-0.3129965
83	0x3e4abaca	0.19797817
84	0x3e8d6d30	0.27622366
85	0x3eee8c20	0.46591282
86	0xbed19984	-0.40937436
87	0x3e4ec5bc	0.20192617
88	0xbdd68330	-0.10474241
89	0xbd47fc3c	-0.048824534
90	0xbf095df7	-0.53659004
91	0x3d8e19da	0.069385245
92	0x3d98371d	0.07432387
93	0x3e91bb03	0.2846299
94	0x3dcefac4	0.101064235
95	0xbec9b2eb	-0.39394316
96	0x3e0c15c8	0.13680184
97	0x3e015c15	0.12632783
98	0xbdce767d	-0.100811936
99	0x3e1c5dcb	0.15270154
100	0x3e5a8338	0.21339118
101	0x3e89b840	0.26898384
102	0x3e0a2097	0.13488995
103	0x3e4e9ad6	0.20176253
104	0x3dafab75	0.08577625
105	0xbdef4a74	-0.11684123
106	0xbd9b5bd4	-0.07585874
107	0xbed03715	-0.40667024
108	0x3e9364ad	0.28787747
109	0x3e491dda	0.19640294
110	0x3d901c55	0.07036654
111	0x3f04c80f	0.51867765
112	0xbe9858c7	-0.29755232
113	0xbea74f62	-0.32677752
114	0xbded9e02	-0.11602403
115	0xbd180603	-0.03711511
116	0x3db655ea	0.089031056
117	0xbc725a4c	-0.014792036
118	0x3e990bb3	0.29891738
119	0x3cc0f539	0.023554431
120	0xbd4b4c10	-0.049633086
121	0x3e136d93	0.14397268
122	0xbd804949	-0.06263978
123	0x3e3a2de2	0.18181565
124	0x3c8ffa9a	0.01757555
125	0xbbd124fe	-0.0063825836
126	0x3e92a1b9	0.2863901
127	0x3eefb31f	0.46816346
128	0xbe6b408a	-0.22973838
129	0xbe969bae	-0.2941565
130	0xbc0eb822	-0.008710893
131	0x3d9d9f02	0.07696344
132	0xbc03f54d	-0.00805409
133	0x3dcf5c6c	0.1012505
134	0x3d5ccefa	0.053908326
135	0x3cbf02e3	0.023316806
136	0x3c2bb06c	0.010479074
137	0xbe711af7	-0.23545443
138	0xbe553cab	-0.20823924
139	0xbeb08a0f	-0.3448033
140	0xbe3e7e42	-0.18602851
141	0xbe8f6285	-0.28004852
142	0xbdabf49f	-0.08396267
143	0x3eba7db9	0.36424044
144	0x3e6f1d87	0.23351108
145	0x3ece5bad	0.40304318
146	0xbce42b3a	-0.027852643
147	0xbd2f9095	-0.042862494
148	0xbe36e473	-0.17860584
149	0xbe8caf3b	-0.2747744
150	0x3f03b670	0.5145025
151	0xbe25dec6	-0.16198263
152	0x3d953805	0.072860755
153	0xbd915018	-0.07095355
154	0xbe2e8618	-0.1704334
155	0x3dce53e9	0.10074598
156	0xbea4facc	-0.32222593
157	0x3ee710d0	0.45130014
158	0xbeadf92b	-0.33979163
159	0x3f4f1d05	0.80903655
160	0xbd31e9da	-0.04343591
161	0xbe07b91a	-0.13254204
162	0xbf101d9e	-0.5629519
163	0x3e1f9823	0.1558538
164	0xbd9ec8d5	-0.077531494
165	0x3e0ba097	0.13635479
166	0x3d6b1328	0.057391316
167	0xbe989da8	-0.29807782
168	0xbebd0774	-0.3691975
169	0x3e413a9b	0.18870012
170	0x3e0c4cd2	0.1370118
171	0xbef42957	-0.4768779
172	0xbcc4cf20	-0.024024546
173	0xbd6ea05c	-0.0582584
174	0xbe7d0c64	-0.24711758
175	0x3e522fe9	0.20526089
176	0xbccc36c5	-0.02492846
177	0x3df1682f	0.117874496
178	0x3d88ebcf	0.06685602
179	0x3ef4aefd	0.47789755
180	0x3f2b32fe	0.6687468
181	0xbed2be45	-0.4116079
182	0xbe4af4df	-0.19819973
183	0xbe2ec197	-0.17066036
184	0xbe9a8b2b	-0.30184302
185	0x3ec94d2f	0.393167
186	0x3d741f70	0.059600294
187	0x3d4b13b0	0.049579322
188	0xbe86adcc	-0.26304471
189	0xbd1d02a6	-0.038332604
190	0xbe3a0ab6	-0.18168148
191	0xbdf183f6	-0.11792748
192	0xbeb173c2	-0.3465863
193	0x3e96d18f	0.29456756
194	0xbed6d224	-0.419572
195	0xbe4091eb	-0.18805663
196	0xbdff0c51	-0.12453521
197	0xbea341f1	-0.31886247
198	0x3da78416	0.0817949
199	0x3e6e30e5	0.2326084
200	0xbd3e7bc0	-0.046504736
201	0xbf20e752	-0.62852967
202	0xbe9d1d6b	-0.30686507
203	0x3e17a422	0.14808705
204	0x3ca4b0a7	0.020103766
205	0x3eb8405b	0.359866
206	0x3e4c01bc	0.19922537
207	0x3eae1e39	0.34007433
208	0xbe0b982f	-0.13632272
209	0x3a6bf139	0.00090004836
210	0x3de30451	0.11084808
211	0x3eb11692	0.34587532
212	0x3b95336b	0.0045532486
213	0x39e5e725	0.000438505
214	0xbe887aa8	-0.2665608
215	0x3d40d9be	0.047082655
216	0x3e8ecf02	0.2789231
217	0xbe63ecfc	-0.22258371
218	0x3e98f3fb	0.29873642
219	0xbd6f33fa	-0.058399178
220	0x3df7bbf6	0.120963976
221	0xbe8e33d5	-0.2777392
222	0xbe93c11c	-0.28858268
223	0xbe2f2108	-0.17102444
224	0xbdb34e44	-0.08755162
225	0x3e1e2a3f	0.15445803
226	0x3e0ebe02	0.1393967
227	0xbd66b8d7	-0.05632862
228	0x3edaa812	0.42706352
229	0xbdad0848	-0.08448845
230	0xbb8a8e20	-0.0042283684
231	0x3eb0433a	0.3442629
232	0xbe9bb6f7	-0.3041303
233	0x3e2ad754	0.16683704
234	0xbe8dad4d	-0.2767128
235	0x3de78625	0.11304883
236	0xbe6d3412	-0.23164394
237	0xbe808c86	-0.2510721
238	0xbeaeb8eb	-0.34125456
239	0xbdb49bd0	-0.088187814
240	0xbd96efd9	-0.07369966
241	0xbda00160	-0.07812762
242	0xbe2c08ef	-0.16800283
243	0x3e1cf663	0.15328364
244	0x3e790289	0.24317373
245	0xbe783a56	-0.24241003
246	0xbdb68390	-0.08911812
247	0xbe891134	-0.26770937
248	0x3d6ce485	0.05783512
249	0xbd0ac1f6	-0.03387638
250	0xbe800963	-0.25007161
251	0x3d5f6210	0.05453688
252	0xbd28d0b1	-0.04121465
253	0xbd26c0d9	-0.040711258
254	0x3ec978df	0.3935003
255	0xbe39f1ce	-0.18158647

101 f4 [1, 512, 128]
0	0xbd7fb511	-0.062428538
1	0x3ede0cd2	0.43369156
2	0xbd395150	-0.04524356
3	0x3e8cb6b0	0.2748313
4	0x3e29ef6a	0.16595235
5	0x3df02fa4	0.11727837
6	0x3f032d80	0.512413
7	0xbf0498c0	-0.5179558
8	0x3dafeb20	0.085897684
9	0xbe158b47	-0.14603911
10	0xbe24bd73	-0.16087894
11	0xbd3388eb	-0.043831747
12	0xbeaa98f1	-0.3331981
13	0x3e2a5604	0.16634375
14	0x3ef9813a	0.48731405
15	0xbe9626f0	-0.29326582
16	0x3ec1d023	0.37854108
17	0xbf01e24c	-0.50735927
18	0xbe0fa7be	-0.14028832
19	0xbe36a9aa	-0.17838159
20	0x3d57d19b	0.05269013
21	0x3e00256c	0.12514275
22	0xbec1748f	-0.3778424
23	0xbec4adf9	-0.3841398
24	0xbb69536f	-0.0035602709
25	0x3e34fe2d	0.17675085
26	0x3d820791	0.063490994
27	0x3ecf605f	0.40503213
28	0xbe5b79db	-0.21433203
29	0x3db8ae08	0.09017569
30	0xbe579ddd	-0.21056314
31	0x3e98bc9a	0.29831392
32	0x3c1e5305	0.009663348
33	0xbd59acc9	-0.053143296
34	0xbe6759e6	-0.22592887
35	0x3d9fcb71	0.07802475
36	0x3e6f4ba4	0.23368698
37	0xbda37076	-0.079804346
38	0xbe6dde5c	-0.23229355
39	0xbe0576bf	-0.1303358
40	0xbdcf1d8f	-0.1011306
41	0x3e479421	0.194901
42	0xbe2cc823	-0.16873221
43	0x3e5807f4	0.21096784
44	0x3e36f59b	0.17867129
45	0x3ef18d08	0.4717791
46	0x3e7f0e89	0.24907888
47	0x3daa1a82	0.08305837
48	0x3da1c95d	0.07899735
49	0xbdbdc440	-0.09265947
50	0x3d8012e9	0.06253607
51	0x3e93cfa2	0.2886935
52	0xbe880372	-0.2656513
53	0x3e9dad7d	0.30796424
54	0xbcd08c0e	-0.025457408
55	0xbe79ba4d	-0.24387474
56	0x3e21488c	0.1575033
57	0x3efbb9bc	0.49165142
58	0x3e67c967	0.22635423
59	0xbbecf1d5	-0.007230977
60	0x3d5ddf15	0.054167826
61	0x3e1fdbe3	0.15611224
62	0xbdcff4ed	-0.10154138
63	0xbd8a8f38	-0.06765598
64	0xbd5b4aad	-0.053538013
65	0xbd810fd2	-0.063018456
66	0xbefcdcbf	-0.49387166
67	0x3e620ff1	0.22076394
68	0xbe6aa947	-0.22916137
69	0xbda6e286	-0.08148675
70	0x3e260943	0.1621447
71	0xbd65173e	-0.05593037
72	0xbe23b434	-0.15986711
73	0xbcb3891d	-0.021915967
74	0xbd48a47f	-0.048985
75	0x3e62947c	0.22126955
76	0x3cc79359	0.024362253
77	0xbd81a55e	-0.063303694
78	0x3e4a3697	0.19747387
79	0xbce09631	-0.027415367
80	0xbe2ebe23	-0.17064719
81	0x3ed94530	0.42435598
82	0x3d36bcf9	0.044613812
83	0x3e8b6cbb	0.27231392
84	0x3f3a12dc	0.7268503
85	0xbea6a6b8	-0.3254907
86	0x3da0bf5e	0.078490004
87	0x3da5c33b	0.08093878
88	0xbcd48354	-0.025941528
89	0xbb9667ef	-0.0045900266
90	0x3e85fb34	0.26168215
91	0xbe405a27	-0.1878439
92	0x3e0fe480	0.1405201
93	0xbde5fd57	-0.11229961
94	0xbe26a03d	-0.16272064
95	0x3cb30b9a	0.021856118
96	0x3e075e28	0.13219512
97	0x3d586053	0.052826237
98	0x3ea00d60	0.31260204
99	0x3daa7aa0	0.0832417
100	0x3e2e8bbd	0.17045493
101	0xbc994ff4	-0.018714882
102	0x3de43be9	0.111442395
103	0xbe375511	-0.17903544
104	0xbd616e89	-0.055037055
105	0x3df2924b	0.118443094
106	0xbf0fffc1	-0.56249624
107	0xbeb47fd8	-0.35253787
108	0x3ea4bc1e	0.32174772
109	0xbe065065	-0.13116606
110	0x3e1fa601	0.15590669
111	0xbbeb7caf	-0.0071864943
112	0x3e6a766c	0.22896737
113	0x3e80fdc8	0.2519362
114	0xbeab13b6	-0.33413476
115	0x3ec0bd3a	0.37644368
116	0xbe16b371	-0.14716889
117	0x3e6d6933	0.23184662
118	0xbeb7b4f1	-0.35880235
119	0xbdc9a3af	-0.09845673
120	0x3eab6947	0.33478758
121	0x3dd95c18	0.106132686
122	0xbe8239f8	-0.25434852
123	0xbe50c674	-0.20388204
124	0xb8563eee	-5.1080184e-05
125	0x3e0e8e3d	0.13921447
126	0x3e66b6ad	0.22530623
127	0xbc9db785	-0.019252548
128	0x3dd6ef0f	0.104948156
129	0x3db4bbac	0.08824858
130	0x3d5d0557	0.05396017
131	0xbdf6cc3e	-0.12050675
132	0x3df85e8e	0.1212741
133	0xbe0ae3b7	-0.13563429
134	0x3d610db5	0.054944713
135	0xbd9dfb09	-0.07713897
136	0xbe710525	-0.23537119
137	0xbda8fa6b	-0.082508884
138	0x3e06bb1f	0.13157319
139	0xbdfc5eb7	-0.12322753
140	0xbdd7db1d	-0.105398394
141	0xbeb4ab5d	-0.3528699
142	0xbe9c8927	-0.3057339
143	0x3e432b6b	0.19059531
144	0x3ede12a4	0.43373597
145	0xbd4d5d84	-0.05013801
146	0xbe8a0105	-0.26953903
147	0x3e632402	0.22181705
148	0xbda30c70	-0.07961357
149	0x3e93be7f	0.28856274
150	0x3d75258d	0.059850264
151	0x3dcef570	0.10105407
152	0x3e538bda	0.20658818
153	0x3f070280	0.5273819
154	0x3eb706da	0.35747415
155	0xbe9db657	-0.30803177
156	0x3ce6495b	0.02811115
157	0xbeabd18e	-0.33558315
158	0xbe870d79	-0.26377466
159	0xbe7089c6	-0.23490056
160	0xbe1c3096	-0.15252909
161	0x3e9dc3ae	0.30813354
162	0x3e5bc942	0.21463493
163	0xbdfaeae4	-0.12251833
164	0xbd6beb29	-0.057597313
165	0xbde8a78c	-0.11360082
166	0x3d088f94	0.03334005
167	0x3d96fc87	0.073723845
168	0xbdff937c	-0.12479302
169	0x3e9f6478	0.3113134
170	0xbe93f10d	-0.28894845
171	0xbd9f8325	-0.07788686
172	0xbea1c1a2	-0.31593043
173	0x3e489ab5	0.19590266
174	0xbe443317	-0.19160114
175	0xbed882d0	-0.42287302
176	0x3dc1d770	0.094649196
177	0x3d877c7c	0.066155404
178	0xbde98a10	-0.114032865
179	0xbcf4565c	-0.029826336
180	0x3da53800	0.08067322
181	0x3e4e1ea5	0.20128877
182	0xbd6fb90f	-0.058526095
183	0xbeb50203	-0.35353097
184	0xbd9537d9	-0.07286043
185	0xbea4b3a0	-0.32168293
186	0x3e727331	0.23676755
187	0x3e0be513	0.13661604
188	0xbdaaad69	-0.083338566
189	0xbdb3f35c	-0.087866515
190	0x3eb33b8c	0.35006368
191	0xbca1bf8e	-0.01974466
192	0x3baed884	0.0053358693
193	0xbe9bb1e7	-0.30409166
194	0x3e93e69a	0.28886873
195	0xbe574784	-0.21023375
196	0x3f032a97	0.5123686
197	0xbd503360	-0.050830245
198	0xbd70cf98	-0.058791727
199	0xbe82dec7	-0.2556059
200	0x3e6fae2d	0.23406287
201	0x3ba19738	0.0049313568
202	0x39e73895	0.0004410191
203	0x3ae58bfb	0.0017513031
204	0xbec81b85	-0.39083496
205	0x3ec4b944	0.38422596
206	0xbea4c8d6	-0.32184476
207	0xbd5a8b59	-0.05335555
208	0xbd9e68a6	-0.07734804
209	0xbde91dd5	-0.11382643
210	0x3d0f6924	0.03501238
211	0x3e015175	0.1262873
212	0xbae1c7e9	-0.0017225716
213	0x3f09032a	0.5352045
214	0xbe0ba082	-0.13635448
215	0x3e8c1ca6	0.27365607
216	0x3e89b5be	0.2689647
217	0x3ea7c285	0.32765594
218	0x3dd67eaa	0.10473378
219	0x3de40408	0.111335814
220	0x3e75e197	0.24011837
221	0x3be1a753	0.0068864017
222	0x3e62836b	0.22120444
223	0xbe6eaadd	-0.23307367
224	0xbe9359aa	-0.28779346
225	0x3e334f4a	0.17510715
226	0x3cf5408b	0.029938003
227	0xbed8a376	-0.4231221
228	0xbc88cdb4	-0.01669965
229	0xbea0b7a2	-0.313901
230	0x3ecdff0b	0.40233645
231	0xbcf8dede	-0.030379709
232	0xbd23fc52	-0.040035553
233	0x3d8722f0	0.06598461
234	0x3da910a9	0.08255131
235	0xbdd54195	-0.104128994
236	0x3dd94b96	0.1061012
237	0x3f2522f5	0.64506465
238	0xbea865ee	-0.32890266
239	0xbe85209b	-0.26001438
240	0x3f10d755	0.5657857
241	0x3e7c1bd5	0.24619992
242	0xbdea3bfa	-0.11437221
243	0xbe47c493	-0.19508581
244	0xbe8bcca8	-0.27304578
245	0x3e6fafb7	0.23406874
246	0x3e347366	0.17622146
247	0xbe4b997d	-0.1988277
248	0xbeafa0de	-0.3430242
249	0xbea99dd2	-0.3312822
250	0xbecbb58b	-0.39786944
251	0x3e5e8816	0.217316
252	0x3eb333ee	0.35000557
253	0xbe3999af	-0.18125032
254	0x3e46aff2	0.19403055
255	0x3e2256d2	0.15853432

102 f4 [1, 1024]
0	0xbe5524ee	-0.20814869
1	0x3dee3948	0.11632019
2	0x3e772e45	0.24138744
3	0x3e4845ae	0.1955783
4	0x3dd4f7fa	0.1039886
5	0x3eb533bf	0.35391042
6	0x3e472acf	0.19449924
7	0x3df3063c	0.118664235
8	0x3e8b814b	0.2724708
9	0x3eaaa0b3	0.3332573
10	0x3e88080e	0.26568645
11	0x3dec0851	0.11525024
12	0x3d9e92bf	0.07742833
13	0x3e4c8d5a	0.19975796
14	0x3e952ac2	0.29134184
15	0xbd8669e9	-0.065631695
16	0xbb07ecf7	-0.0020740607
17	0x3e8e0801	0.27740481
18	0x3e6cce01	0.23125459
19	0x3e43c677	0.19118677
20	0x3efcf67c	0.49406803
21	0x3d9df497	0.077126674
22	0x3e94396d	0.28950062
23	0x3da44c5f	0.08022379
24	0x3e89dd1c	0.26926506
25	0x3e742091	0.23840548
26	0x3e5fd24b	0.21857564
27	0x3c80d8b1	0.015728327
28	0x3ecd2299	0.40065458
29	0x3e63152c	0.22176045
30	0x3e659e00	0.22423553
31	0x3cdb773e	0.026790258
32	0x3e294e73	0.16533832
33	0x3e43128f	0.19050048
34	0x3e3efa70	0.18650222
35	0x3db11e09	0.08648307
36	0x3db1d16d	0.08682523
37	0xbe207889	-0.1567098
38	0x3b8e52ec	0.004343381
39	0x3e5f1ea8	0.21789038
40	0x3c2e0dea	0.010623435
41	0x3dd9c084	0.106324226
42	0x3e086867	0.13321076
43	0x3e4d4ad0	0.2004807
44	0x3eb2932f	0.34877917
45	0x3e1b6165	0.15173872
46	0x3ebff7c3	0.37493715
47	0x3e3ba182	0.18323329
48	0xbcb395b5	-0.021921972
49	0x3d9fdd35	0.07805864
50	0x3d8505e8	0.06495267
51	0x3c1b168e	0.009465827
52	0x3e824a8f	0.2544751
53	0x3daba7de	0.083816275
54	0x3e905415	0.2818915
55	0x3e9d28d3	0.3069521
56	0x3c3feeb4	0.011714626
57	0x3e495bd3	0.19663934
58	0xbd3aa360	-0.045565963
59	0x3e078693	0.1323493
60	0x3e14742e	0.14497444
61	0xbda461c4	-0.0802646
62	0xbdb9b424	-0.09067562
63	0xbb9f2c10	-0.0048575476
64	0x3dd36d3c	0.10323569
65	0x3db5f0dd	0.08883832
66	0x3e887d47	0.2665808
67	0x3e969a50	0.29414606
68	0x3e5440c5	0.20727833
69	0x3e228dff	0.1587448
70	0x3e3da74d	0.18520851
71	0x3e0f57a5	0.13998277
72	0x3eae94c5	0.34097877
73	0x3cb25d6a	0.021773059
74	0x3e4c0706	0.19924554
75	0x3e39068d	0.18068905
76	0xbdb69fe3	-0.08917215
77	0x3e8536d1	0.26018384
78	0x3e818262	0.25294787
79	0x3e04ccde	0.12968776
80	0x3eb63d9f	0.35593888
81	0x3e0ecdb7	0.13945661
82	0x3e370f97	0.17877041
83	0xbcab86c4	-0.020938285
84	0x3e3f18a2	0.1866174
85	0x3e076cde	0.13225123
86	0xbe6db89f	-0.23214959
87	0x3c4c74fd	0.012479064
88	0x3e4f3601	0.20235445
89	0x3d29d0d3	0.041458916
90	0x3e69bab7	0.22825132
91	0x3caf0363	0.02136392
92	0x3bc84ecc	0.006112909
93	0x3d9faf5b	0.07797118
94	0x3e1fb1d1	0.15595175
95	0x3c4fcc38	0.012682967
96	0x3eb9fafd	0.363243
97	0xbda5d088	-0.08096415
98	0x3ea2fd8c	0.31834066
99	0x3ea6fda2	0.3261538
100	0x3dd57363	0.10422399
101	0x3e88def1	0.2673259
102	0x3e410089	0.1884786
103	0x3e22f81b	0.15914957
104	0xbc662b08	-0.014048345
105	0xbda2518a	-0.079257086
106	0x3ede0a56	0.4336726
107	0x3e510904	0.20413595
108	0xbe0b310f	-0.13592933
109	0x3e1729d5	0.14762051
110	0x3e38a7e3	0.18032794
111	0xbd1d8d39	-0.03846476
112	0x3e541e13	0.20714597
113	0x3dc5eb27	0.096639924
114	0x3de7ca94	0.113179356
115	0xbcec9327	-0.028878761
116	0x3e70d543	0.23518853
117	0x3e01554a	0.12630191
118	0x3ea356b4	0.31902087
119	0x3ca81cc8	0.020521536
120	0x3e6143e2	0.21998551
121	0x3da0446a	0.07825549
122	0x3e66835d	0.22511049
123	0x3e4d2321	0.20032932
124	0x3e6a38a5	0.2287317
125	0x3df2464e	0.11829816
126	0x3d5e0b81	0.05421019
127	0xbd6130ec	-0.054978296
128	0xbc88f806	-0.01671983
129	0x3d38cc2d	0.045116592
130	0x3ea48b70	0.32137632
131	0x3e8572d5	0.26064172
132	0xbdc646d7	-0.096814804
133	0x3e478e3c	0.19487852
134	0xbda6ec05	-0.08150486
135	0x3d2599f2	0.040430017
136	0x3e4e2463	0.20131068
137	0x3ec54b45	0.3853399
138	0x3ea5f9f3	0.3241726
139	0x3d8416a0	0.06449628
140	0xbdf09e23	-0.11748912
141	0x3e33b346	0.17548856
142	0x3ddaffcc	0.10693321
143	0x3dde007a	0.10839935
144	0xbd9f946c	-0.07791981
145	0x3ed60488	0.41800332
146	0x3dd193ef	0.10233294
147	0x3e931986	0.2873041
148	0x3ea15e4d	0.31517258
149	0xbdfe07e7	-0.12403851
150	0x3ee10c47	0.4395468
151	0x3db1f3a0	0.08689046
152	0x3e789762	0.24276498
153	0x3e37dde4	0.17955738
154	0x3d1d6337	0.038424697
155	0xbba88f9e	-0.0051440736
156	0x3e0725d5	0.13198026
157	0x3e802f69	0.2503617
158	0x3ed29b99	0.41134337
159	0x3d9ebae9	0.07750494
160	0x3e0632e6	0.13105354
161	0x3e9e1ce6	0.30881423
162	0x3d03039d	0.031985868
163	0x3d2c9e56	0.04214319
164	0x3e2bc3f6	0.16773972
165	0xbd1e01cc	-0.038575932
166	0xbd0ad66f	-0.033895906
167	0x3ea5fce7	0.32419512
168	0x3ea59e4b	0.3234733
169	0x3d8b75a8	0.068095505
170	0x3ebbb887	0.3666422
171	0x3df3272b	0.11872705
172	0x3e31772b	0.17330615
173	0x3e88d455	0.26724496
174	0x3ebb2099	0.36548308
175	0x3da27bb4	0.07933751
176	0x3dcf2c17	0.10115831
177	0xbdcc1002	-0.09963991
178	0x3d9aa758	0.075514495
179	0xbdbbc174	-0.09167758
180	0x3e7cd56b	0.24690787
181	0x3e00525a	0.12531415
182	0x3dd6083f	0.104507916
183	0x3e898bbd	0.26864424
184	0x3e6ad820	0.22934008
185	0x3deaf148	0.11471802
186	0x3e7ce67e	0.24697301
187	0x3da24bfc	0.07924649
188	0x3e961ed4	0.29320395
189	0x3d932bcc	0.07186088
190	0x3d9483cd	0.072517015
191	0xbe233890	-0.15939546
192	0x3cd23489	0.025659816
193	0x3c4fcacb	0.012682627
194	0x3e697c76	0.22801384
195	0x3e7788c2	0.24173263
196	0x3e46105b	0.19342177
197	0x3e006e2d	0.12542029
198	0x3d852526	0.06501226
199	0xbe4dabf2	-0.20085123
200	0x3e0d0a71	0.13773514
201	0x3e207521	0.15669681
202	0x3ec274d3	0.37979755
203	0x3ee7ebf3	0.45297202
204	0x3e11ca2d	0.1423728
205	0x3ea18e19	0.31553724
206	0x3e51f87a	0.20504943
207	0x3e3d93b2	0.18513373
208	0x3e98cbc5	0.29842964
209	0x3ddb9b73	0.10723009
210	0x3c83d6b3	0.016093588
211	0xbdf8e47d	-0.12152956
212	0x3eda66be	0.4265651
213	0x3e8d4754	0.27593482
214	0x3e7b2d17	0.24528919
215	0xbe1c2d36	-0.15251622
216	0xbcefa64c	-0.029254101
217	0x3d8bc29d	0.06824229
218	0x3e56057c	0.2090053
219	0xbc348951	-0.011019067
220	0x3d2f8916	0.042855345
221	0x3af09742	0.0018355625
222	0x3d98d438	0.074623525
223	0xbca90686	-0.020632993
224	0xbd4555ad	-0.04817741
225	0xbd28ff07	-0.041258838
226	0x3e87a2db	0.26491436
227	0x3e3db739	0.18526925
228	0x3d4425ed	0.04788773
229	0x3eb73359	0.35781363
230	0x3e452b46	0.19254789
231	0x3de5846d	0.11206899
232	0x3dd6f484	0.104958564
233	0xbdeb9b27	-0.11504202
234	0x3e52765a	0.2055296
235	0x3e6bdcd0	0.23033452
236	0x3dff5680	0.124676704
237	0x3e393585	0.18086822
238	0x3e8ffc4a	0.2812217
239	0xbd379774	-0.04482217
240	0x3ea864b2	0.32889324
241	0x3e006643	0.1253901
242	0x3e7ac5be	0.24489495
243	0x3d40dc28	0.047084957
244	0x3e8417b2	0.25799328
245	0x3e86daff	0.26338956
246	0x3ed8318a	0.42225295
247	0x3e095468	0.13411105
248	0x3e226a01	0.1586075
249	0x3ec05f76	0.3757283
250	0x3d0a9405	0.03383257
251	0x3e00054d	0.12502022
252	0x3e533612	0.20626095
253	0x3e91da57	0.28486893
254	0xbe5c11e2	-0.21491197
255	0x3d62094c	0.055184647

action_model._continuous_distribution.log_sigma f4 [1, 4]
0	0x409fd0bb	4.99423
1	0x409c2ba9	4.8803296
2	0x40f5025e	7.656539
3	0x40b13ea9	5.538899

action_model._continuous_distribution.mu.bias f4 [4]
0	0xbd0c0462	-0.034183867
1	0xbd94c3f7	-0.0726394
2	0xbe8106c9	-0.2520049
3	0x3fe85680	1.8151398

action_model._continuous_distribution.mu.weight f4 [4, 128]
0	0x40b1cc73	5.556207
1	0x3f4c47fe	0.7979735
2	0x4014db41	2.3258822
3	0xc0534158	-3.3008633
4	0x3f9a42ef	1.2051677
5	0x40058cab	2.0867107
6	0xbff358ab	-1.9011434
7	0x407d8ba9	3.9616492
8	0xc032cf28	-2.7938938
9	0x4093fa7c	4.6243267
10	0xbf520359	-0.8203636
11	0xbfd7f09c	-1.6870303
12	0xc019ed6a	-2.4051156
13	0xc081b318	-4.053112
14	0xc09a8873	-4.8291564
15	0x3f714c30	0.9425688
16	0xbfda4117	-1.7051114
17	0x40182009	2.3769553
18	0x4001ef0e	2.0302157
19	0x40d666f0	6.7000656
20	0xbff56e6a	-1.9174321
21	0xbf3663ea	-0.71246207
22	0x40b8c68f	5.774238
23	0xbf683f8a	-0.9072195
24	0x3fe861fa	1.81549
25	0x3e219f8d	0.1578352
26	0x3ead8eed	0.33898106
27	0xc08c0ce6	-4.3765745
28	0xbf527eb9	-0.82224613
29	0xc00e5197	-2.2237298
30	0x3fb10e30	1.3832455
31	0xbfc96fcb	-1.5737242
32	0xbfcc4138	-1.5957403
33	0x3fafa2ac	1.3721519
34	0xbf1f2da5	-0.62179023
35	0x3fc2c2e8	1.5215731
36	0xc0b01cc5	-5.503512
37	0x3fecd410	1.8502216
38	0xbc4a9fa1	-0.01236716
39	0x401f56fb	2.4896839
40	0x401ce193	2.451268
41	0xc08dcb40	-4.431061
42	0x3f903aa3	1.1267895
43	0xc082a890	-4.0830765
44	0x3e974ab7	0.2954919
45	0xc0ae46bc	-5.4461346
46	0xbe812920	-0.25226688
47	0x3feeb36f	1.8648509
48	0xbfdddfc5	-1.7333914
49	0xc09716ce	-4.721534
50	0xc0ae8ec1	-5.454926
51	0xbf81dc9d	-1.0145451
52	0x3f9bfaaa	1.2185872
53	0xc01f0ab8	-2.4850292
54	0x4031cd6f	2.7781637
55	0x40b559e7	5.6672244
56	0xc0997997	-4.7960925
57	0xc03acf1d	-2.9188912
58	0xc03a773b	-2.9135273
59	0xbd8625be	-0.065501675
60	0xc0132d26	-2.2996306
61	0xc00e2ae4	-2.2213678
62	0x406a67c5	3.6625836
63	0x3e756d52	0.23967484
64	0xc0923310	-4.568733
65	0xc010002a	-2.25001
66	0x40a44b21	5.134171
67	0xc0bb01f8	-5.8439903
68	0x4023a02f	2.5566518
69	0x407fbb29	3.9957983
70	0xc0b27488	-5.576725
71	0x3fa64d37	1.2992314
72	0x408568af	4.1690288
73	0xc0962ca8	-4.692951
74	0x406b9e4b	3.6815364
75	0xc05f4759	-3.4887297
76	0x3e067ebd	0.13134284
77	0x402f2632	2.7367063
78	0x3f20f936	0.62880266
79	0xbfb4c4ba	-1.4122536
80	0x403dcdf7	2.965696
81	0xbce03e00	-0.027373314
82	0xc05673fa	-3.3508286
83	0xc09225b5	-4.567103
84	0xc0c47cb2	-6.1402216
85	0x3fc4ae53	1.53657
86	0x3fbd42dc	1.4786029
87	0xbf0e47ff	-0.5557861
88	0x3e853f4f	0.26024863
89	0xbfa79478	-1.3092184
90	0x40360f6b	2.844691
91	0x40b058e5	5.5108514
92	0x3f9716a2	1.1803782
93	0x4077f911	3.8745768
94	0x40993472	4.787652
95	0xbfa00120	-1.2500343
96	0xbf53ce77	-0.82736915
97	0xbedebc58	-0.4350307
98	0xbfd30b8d	-1.64879
99	0xc0448607	-3.0706804
100	0x4072e3cb	3.7951534
101	0x40aed82e	5.463889
102	0xbf276ac8	-0.6539731
103	0x3f819ed8	1.01266
104	0x40835ba1	4.104935
105	0x3fba2482	1.4542391
106	0x40b27be4	5.5776234
107	0xbfbe7e13	-1.4882225
108	0xc043c95f	-3.0591657
109	0xc01cc7b9	-2.44969
110	0xbf0f5926	-0.55995405
111	0xbf677172	-0.9040748
112	0xbfed7f71	-1.8554517
113	0x3fec3c9d	1.8455998
114	0x40b2c650	5.586708
115	0x3f40ca04	0.7530825
116	0xc02602b2	-2.5939145
117	0x408ed739	4.4637723
118	0xc0056e06	-2.0848403
119	0x3f911dc1	1.1337205
120	0xbf8c4142	-1.0957415
121	0xc08c2040	-4.378937
122	0xbf6776c4	-0.90415597
123	0xbf81e47d	-1.0147854
124	0x4008f2b7	2.1398141
125	0xc0cb9f2a	-6.363179
126	0xbfbb2f57	-1.4623822
127	0x3fecde62	1.8505366
128	0x3ef99568	0.487468
129	0xc0101972	-2.251553
130	0x4088fe65	4.281054
131	0x4007fb85	2.1247265
132	0xc09fca22	-4.9934244
133	0x4004419b	2.0665042
134	0x402887d1	2.6332896
135	0xc02d4cbb	-2.7078083
136	0x4057960b	3.368533
137	0x4029d904	2.6538706
138	0xc032c031	-2.7929804
139	0x3fc92a1d	1.5715977
140	0x40303ae4	2.7535944
141	0x4004ca0e	2.0748324
142	0xbff1874a	-1.8869412
143	0xc0589537	-3.3841074
144	0xc019cf07	-2.403261
145	0xc0b64502	-5.695924
146	0x40580d4c	3.3758116
147	0xbecd6f43	-0.40123948
148	0x40d849cc	6.7590084
149	0xc08aad3c	-4.333647
150	0xbf8a516b	-1.0806097
151	0x406f14ec	3.735652
152	0xc0842697	-4.1297107
153	0xc0aded68	-5.4352303
154	0xc0aaf3e1	-5.3422704
155	0xbe75d63d	-0.24007507
156	0xc023aed1	-2.557545
157	0xc0195b19	-2.3961852
158	0xc01269a8	-2.2876987
159	0x3e748c79	0.23881711
160	0xc08e84f2	-4.4537287
161	0xc0af01fb	-5.4689918
162	0xc09177fd	-4.545897
163	0x4090ae7c	4.5212994
164	0xbf87d06a	-1.0610478
165	0xbe0d2edd	-0.13787408
166	0xc07d725e	-3.9601054
167	0xc0567382	-3.3508
168	0xbf385b47	-0.7201428
169	0x40324a17	2.785772
170	0xbf8bd08d	-1.092302
171	0x40245cc4	2.568162
172	0xc0a34270	-5.10186
173	0x401eba49	2.48012
174	0x40450e4d	3.0789979
175	0x408c8355	4.3910317
176	0x3fedfb16	1.859225
177	0x4000a868	2.0102787
178	0xbeb35e17	-0.35032722
179	0x3feda7c1	1.856682
180	0xbf23706c	-0.6384342
181	0xbf92b9a9	-1.1462909
182	0x4090e6b5	4.5281625
183	0xc0499d5a	-3.150229
184	0xbfce4082	-1.6113436
185	0x40954c22	4.6655436
186	0x3eebbf02	0.46044165
187	0x40402ba1	3.002663
188	0x3f622fa6	0.88353956
189	0xbd82ce89	-0.0638705
190	0xbf859351	-1.0435582
191	0xbfa6c42c	-1.3028617
192	0x3f52a455	0.82282
193	0xc075dd03	-3.8416145
194	0xc04d5295	-3.2081654
195	0xbf7d4fc8	-0.9894986
196	0x400b445e	2.1760478
197	0x3fa8b200	1.3179321
198	0x3c3c89ea	0.011507491
199	0x3fa73c10	1.3065205
200	0x3fb717a5	1.4304091
201	0x3f380b8f	0.71892637
202	0x4019fb5e	2.4059672
203	0xc03cfccf	-2.9529302
204	0x4056c905	3.3560193
205	0xc08f3496	-4.475169
206	0xbf8cd437	-1.1002263
207	0x409ca7c1	4.895478
208	0xbffb2832	-1.9621642
209	0x4068a242	3.6349034
210	0x3f5d6ec8	0.86497164
211	0xc0267d6b	-2.601405
212	0xbff0b8d8	-1.880641
213	0x400a8535	2.1643803
214	0x4063577c	3.5522146
215	0x3fd0fd33	1.632727
216	0xbfc2b3c9	-1.5211116
217	0xc01912de	-2.3917766
218	0x3cd00d3a	0.025396932
219	0x3f000df1	0.5002127
220	0x4025b303	2.589051
221	0x4006360e	2.0970492
222	0x40190304	2.390809
223	0x40aae91e	5.3409567
224	0x405a50f8	3.411192
225	0xbfa61175	-1.2974077
226	0xbe8f0191	-0.27930883
227	0xc00fbd42	-2.2459264
228	0x3f2df5ae	0.67953
229	0x4048098f	3.1255834
230	0xc08dec61	-4.435105
231	0x4057764a	3.3665948
232	0x3f7701fd	0.9648741
233	0xbffec65d	-1.9904286
234	0x3ee30ff2	0.44348103
235	0xc01eb1b3	-2.479596
236	0x402f4cd7	2.739065
237	0xc0523e48	-3.2850513
238	0xbfa804c7	-1.3126458
239	0x408abf73	4.3358703
240	0xc08d24d7	-4.410747
241	0xbd070b8a	-0.03296999
242	0x3fc4a6e2	1.5363429
243	0xc08bc178	-4.367367
244	0x40696ef0	3.647396
245	0xbf8df984	-1.1091771
246	0xbf9a3797	-1.2048215
247	0x407e7b39	3.976271
248	0x3f82679b	1.0187868
249	0x3f5720d6	0.8403448
250	0xbf2cdacd	-0.67521363
251	0xc0cf89ba	-6.4855623
252	0x40777055	3.8662312
253	0xc05d53c0	-3.4582367
254	0xbe4e449f	-0.20143364
255	0x400b0ec3	2.172776

network_body._body_endoder.seq_layers.0.bias f4 [128]
0	0x3bd8e32b	0.0066188774
1	0xbd83d653	-0.064373635
2	0x3d06621f	0.03280842
3	0xbce87ef2	-0.028380845
4	0xbd8ba461	-0.06818462
5	0xbd15682a	-0.03647629
6	0x3d93e47f	0.072213165
7	0xbe1d1a82	-0.15342143
8	0xbd54f693	-0.051992964
9	0xbc6dd0cc	-0.014515113
10	0xbceb2046	-0.028701913
11	0x3d0295b6	0.031881057
12	0xbd8eb879	-0.06968779
13	0x3dfee15d	0.124453284
14	0xbd362618	-0.044469923
15	0x3c41ccdc	0.011828627
16	0xbb2094d7	-0.0024502778
17	0xbd166071	-0.036713067
18	0xbe02c7e7	-0.12771569
19	0x3d44ec86	0.04807713
20	0xbba8405a	-0.0051346244
21	0x3bce94c0	0.0063043535
22	0x3d32ea79	0.04368064
23	0x3d97ab1c	0.074056834
24	0xbd688a8c	-0.056772754
25	0x3c0a64ae	0.0084468555
26	0x3cd15f64	0.025558181
27	0xbcbe032f	-0.023194877
28	0xbc8d76b6	-0.01726852
29	0xbcf14066	-0.029449653
30	0xbcd5a034	-0.026077367
31	0x3cf0dc1c	0.029401831
32	0x3c9765be	0.018481132
33	0x3d531f04	0.05154325
34	0xbe2f2f2b	-0.17107837
35	0x3c2d186e	0.0105649065
36	0xbbaee210	-0.0053370073
37	0xbb688e97	-0.003548538
38	0xbcf6ac73	-0.030111527
39	0xbcc892ba	-0.024484027
40	0x3a8e0bf5	0.0010837304
41	0xbd853419	-0.065040775
42	0xbd217e5b	-0.039427143
43	0x3c990263	0.018677896
44	0xbdb645b1	-0.08900011
45	0x3d114d62	0.03547419
46	0xbda93a42	-0.08263065
47	0xbde17571	-0.11008728
48	0x3d3b574a	0.045737542
49	0x3d055296	0.032549463
50	0xbcb6e278	-0.022324786
51	0x3d384c51	0.044994656
52	0xbdbd393e	-0.09239434
53	0xbdb2b5b9	-0.08726067
54	0xbd01904c	-0.031631753
55	0xbce381bd	-0.027771825
56	0x3c856ee9	0.016288238
57	0xbcf02b80	-0.029317617
58	0xbd93afc6	-0.072112605
59	0x3b6a700f	0.0035772359
60	0x3c65b04a	0.014019081
61	0x3d71a2bc	0.058993086
62	0xbbd07739	-0.0063618687
63	0x3e554dce	0.20830461
64	0xbe0d9412	-0.13826016
65	0xbd330cd5	-0.04371341
66	0xbdebe8c4	-0.11519006
67	0xbd0dadfb	-0.03458975
68	0xbda9f824	-0.08299282
69	0xbb2b7dd9	-0.002616754
70	0x3e0c8ec6	0.13726339
71	0xbcf647a6	-0.030063462
72	0x3d79536a	0.060870565
73	0x3d6fbc05	0.05852892
74	0x3c37d2e9	0.0112197185
75	0xbdd7aa82	-0.10530569
76	0xbcfbd282	-0.030740026
77	0x3dcc145b	0.0996482
78	0x3bd027b2	0.0063523883
79	0x3d1ef720	0.038809896
80	0xbb6a43c8	-0.0035745967
81	0xbcaf07e3	-0.021366065
82	0x3d874a45	0.06605963
83	0x3db2d76f	0.08732497
84	0xbdbe6521	-0.092966326
85	0x3cf31c70	0.029676646
86	0x3c7d6a96	0.015467307
87	0xbd1eb9b2	-0.03875131
88	0x3d64140d	0.055683184
89	0x3d1b7e30	0.03796214
90	0x3d853a16	0.0650522
91	0x3cfd7e49	0.030944007
92	0xbca9f8d5	-0.020748535
93	0x3ca4e5bf	0.020129083
94	0x3c3dbfb1	0.011581347
95	0x3ca0ff5c	0.019653015
96	0xbcdcff05	-0.026977072
97	0x3c95cb9d	0.018285567
98	0xbe2b0855	-0.16702397
99	0x3db07380	0.0861578
100	0x3d6dd6c6	0.058066152
101	0xbdec0afa	-0.11525531
102	0x3cdb8b73	0.026799893
103	0x3dcf7e83	0.10131552
104	0xbd944cb8	-0.072411954
105	0x3b27cb20	0.002560325
106	0xbd0b7eff	-0.03405666
107	0x3ce0dc31	0.027448745
108	0x3cb081b4	0.021546222
109	0x3c473bfc	0.0121602975
110	0xbd13f689	-0.036123786
111	0xbd9a489c	-0.075333804
112	0xbd9d14e6	-0.07670002
113	0x3d51fa19	0.051263902
114	0x3d805b5c	0.062674254
115	0xbcdae37e	-0.026719805
116	0xbca8a7dc	-0.020587854
117	0xbcdcbd0b	-0.026945611
118	0x3cdebb1e	0.027188834
119	0x3b9ef678	0.0048511587
120	0xbe1b6861	-0.15176536
121	0x3bff546b	0.007792046
122	0x3dda6a10	0.10664761
123	0xbc16d3de	-0.0092057865
124	0xbd0df248	-0.034654886
125	0x3d86fc70	0.065911174
126	0x3daa794d	0.083239175
127	0xbde585de	-0.11207174

network_body._body_endoder.seq_layers.0.weight f4 [128, 116]
0	0xbc695583	-0.014241579
1	0x3df3cb85	0.11904053
2	0x3c47bb42	0.012190642
3	0xbe796466	-0.24354705
4	0xbdc5497c	-0.09633157
5	0xbe212748	-0.15737641
6	0xbdc6fd05	-0.097162284
7	0xbddd6e01	-0.10811997
8	0xbe3e8d24	-0.18608528
9	0x3e379a2f	0.1792991
10	0xbe423886	-0.18966874
11	0xbd8d64f2	-0.069040194
12	0xbdd2066b	-0.102551304
13	0xbe989e7f	-0.29808423
14	0x3dde129b	0.108433925
15	0x3e95f23b	0.2928637
16	0x3df5fbd6	0.120109245
17	0x3e2a3f14	0.16625625
18	0x3eb70a85	0.35750213
19	0x3e43b0a5	0.19110353
20	0x3cdfd9aa	0.02732547
21	0x3d86e6ad	0.06586967
22	0x3da13fc1	0.07873488
23	0xbe81c79b	-0.253476
24	0x3d754014	0.059875563
25	0x3df1872d	0.11793361
26	0xbdfbd327	-0.122961335
27	0x3ca39114	0.01996664
28	0x3ebaf283	0.36513147
29	0xbdb91415	-0.090370335
30	0x3db136c7	0.08653026
31	0x3e543929	0.2072493
32	0xbe1def51	-0.15423323
33	0x3e11de18	0.14244878
34	0x3c4b6286	0.012413627
35	0x3d38425a	0.044985153
36	0x3e8ea554	0.2786051
37	0x3d0c3c4b	0.034237187
38	0x3e0e06b5	0.13869746
39	0xbd9837d6	-0.07432525
40	0x3db45d6f	0.088068835
41	0xbc333832	-0.010938691
42	0xbdad652c	-0.08466563
43	0xbcada14b	-0.021195075
44	0xbc8f0eaf	-0.017463056
45	0x3cd49093	0.025947845
46	0xbe7aa624	-0.2447744
47	0xbd604da5	-0.054761548
48	0x3baf7e6f	0.005355648
49	0x3d1c5306	0.038165115
50	0xbdecc20c	-0.11560449
51	0x3d8f5879	0.06999297
52	0x3e5bc99b	0.21463625
53	0xbc8d3146	-0.01723541
54	0xbea04967	-0.31306002
55	0xbc8b3f13	-0.01699785
56	0x3cfb1259	0.030648397
57	0xba999ad9	-0.0011719122
58	0xbde4cc62	-0.111717954
59	0xbeac41f1	-0.3364406
60	0x3d63a298	0.055574983
61	0xbdf47c75	-0.11937801
62	0x3dc8d8d6	0.09806983
63	0xbe01f228	-0.12690032
64	0xbea72cf1	-0.32651475
65	0xbe8d7a8f	-0.27632567
66	0x3da19163	0.078890584
67	0x3ce93110	0.028465778
68	0xbb8148d4	-0.0039454494
69	0x3db91fd8	0.09039277
70	0x3d6b88bd	0.05750345
71	0x3e8d29da	0.27570993
72	0xbd0500ef	-0.032471593
73	0x3ed47106	0.4149248
74	0x3ed1255d	0.40848818
75	0xbe9779b6	-0.29585046
76	0xbe495191	-0.19660021
77	0x3d83b0c0	0.06430197
78	0xbd6c663a	-0.05771468
79	0x3e0a3bae	0.13499328
80	0xbe251c7c	-0.16124147
81	0x3e808256	0.25099438
82	0x3e927e51	0.28611997
83	0x3d2e6042	0.042572267
84	0x3e4d2f0b	0.20037477
85	0xbeb1dc03	-0.34738168
86	0xbda21b25	-0.07915334
87	0x3e983a6a	0.29732066
88	0x3cb8a65a	0.02254026
89	0xbd9127cf	-0.07087671
90	0xbeac3965	-0.3363754
91	0x3dc75132	0.09732284
92	0x3fc2b58f	1.5211657
93	0x3fcab0d5	1.5835215
94	0x3d837d90	0.064204335
95	0x3f04490f	0.5167398
96	0xbe1f06a1	-0.15529872
97	0x3e6e03aa	0.23243585
98	0xbd96f452	-0.07370819
99	0xbcdd76d2	-0.027034197
100	0x3d967eae	0.07348381
101	0x3e8deefa	0.27721387
102	0xbec510d3	-0.38489398
103	0x3d29b867	0.041435625
104	0xbd209bb8	-0.039211005
105	0x3c04b9c8	0.008100934
106	0xbf5884df	-0.84577745
107	0x3db1dc74	0.08684626
108	0x3f0cccc5	0.54999954
109	0xbe1bc872	-0.15213183
110	0xbe7017fb	-0.23446648
111	0xbe82bb14	-0.25533354
112	0xbcc440d4	-0.023956694
113	0xbe1e8a3a	-0.15482417
114	0x3d303c75	0.043026406
115	0xbde84cfb	-0.11342808
116	0x3d4ae781	0.049537186
117	0xbbb12dac	-0.005407056
118	0xbebe1f24	-0.37133133
119	0x3cdc7326	0.026910376
120	0xbf189bc7	-0.596127
121	0x3d07d7dd	0.033164848
122	0xbcd2026a	-0.025635917
123	0xbe60108b	-0.2188131
124	0x3e13bdfa	0.14427939
125	0xbc6f2342	-0.014595808
126	0x3e11aac3	0.14225297
127	0xbe7bcddb	-0.24590246
128	0xbe12f0e1	-0.143497
129	0x3da0251d	0.07819579
130	0xbdacd0de	-0.08438276
131	0x3ede74cd	0.43448487
132	0x3d65e685	0.056128044
133	0xbe0c9b89	-0.13731207
134	0xbb5c742b	-0.0033638577
135	0xbe855398	-0.2604034
136	0x3e6306bc	0.22170538
137	0x3e547670	0.20748305
138	0xbf57d368	-0.84306955
139	0x3ee113c3	0.4396039
140	0x3e3c5374	0.1839121
141	0x3dd9ae66	0.10628967
142	0x3d9aeb19	0.075643726
143	0xbd21706f	-0.039413866
144	0x3e4b4b65	0.1985298
145	0xbe8ee054	-0.27905524
146	0xbd4bdd5e	-0.04977166
147	0x3e629f5a	0.221311
148	0xbec2b454	-0.38028204
149	0x3dd3ebae	0.10347687
150	0x3da948f9	0.082658716
151	0x3d4dc7d5	0.050239403
152	0x3e945298	0.28969264
153	0x3d3805c4	0.044927374
154	0xbf4b44c4	-0.79401803
155	0xbe4d2213	-0.2003253
156	0xbdc3a9c9	-0.09553868
157	0x3e299060	0.16558981
158	0x3d091764	0.033469573
159	0xbdcd591a	-0.100267604
160	0x3e9ae018	0.30249095
161	0xbed2b8a7	-0.41156504
162	0x3eb20745	0.3477117
163	0x3ea34888	0.31891274
164	0xbef0921a	-0.46986467
165	0xbd916b5a	-0.07100554
166	0x3e6aed4e	0.22942087
167	0x3e7b6082	0.24548534
168	0xbe8d1e5b	-0.27562222
169	0x3e9afa17	0.30268928
170	0x3d7665a3	0.060155522
171	0x3e2a9608	0.16658795
172	0x3f03b468	0.51447153
173	0xbd8279d5	-0.06370894
174	0x3e0ebd38	0.13939369
175	0xbdc2c6c7	-0.0951057
176	0x3dfbd573	0.122965716
177	0x3e8c48bd	0.27399245
178	0xbe228e4f	-0.15874599
179	0x3ea6bb15	0.32564607
180	0xbe096d6f	-0.13420652
181	0x3e399e0b	0.18126695
182	0xbead0399	-0.33791807
183	0x3d7dd655	0.06197198
184	0xbf4788a8	-0.77942896
185	0xbe200108	-0.15625393
186	0x3e248cf0	0.16069388
187	0xba4fd519	-0.00079281774
188	0xbccf04c9	-0.025270836
189	0xbed636a0	-0.4183855
190	0xbed4ca2d	-0.41560498
191	0x3e260bfd	0.1621551
192	0xbe1d59ba	-0.15366259
193	0x3db56cb5	0.08858625
194	0xbe3f7cb7	-0.18699919
195	0x3e933087	0.2874796
196	0x3ddab34e	0.10678731
197	0xbe5ca5a2	-0.21547559
198	0xbd4911ec	-0.049089357
199	0xbf7d5639	-0.9895969
200	0xbf17f493	-0.59357566
201	0xbd80a82e	-0.06282078
202	0x3e94c444	0.2905599
203	0xbdeea98e	-0.11653434
204	0x3da92525	0.08259038
205	0x3e7d1e7a	0.24718657
206	0x3c6a1ea5	0.014289533
207	0xbf0b95f4	-0.54525685
208	0x3d138030	0.03601092
209	0xbdbbee63	-0.09176328
210	0xbd6f87b4	-0.058479026
211	0x3e0ea798	0.1393112
212	0x3d33f2be	0.04393267
213	0xbec351eb	-0.38148436
214	0xbebf88f2	-0.37409168
215	0x3c9d0ae3	0.01917023
216	0xbe548121	-0.20752384
217	0xbf346d19	-0.7047897
218	0xbe24dcb2	-0.16099814
219	0xbf1abf98	-0.604486
220	0x3d1c3bbe	0.038142912
221	0xbe165ad9	-0.14683093
222	0x3e46165b	0.19344465
223	0xbdef0b76	-0.11672108
224	0x3cdee2cb	0.027207753
225	0x3d65aaa1	0.056070928
226	0x3d40c2ff	0.047060963
227	0x3e75cbe3	0.24003558
228	0xbec3372c	-0.3812803
229	0xbd378942	-0.044808634
230	0x3c9fb9df	0.01949781
231	0x3f176aca	0.5914732
232	0xbec290ce	-0.38001102
233	0x3b082eff	0.0020779965
234	0xbe68e253	-0.22742586
235	0x3e544d09	0.20732512
236	0xbac60eba	-0.001511059
237	0x3ee0851e	0.4385156
238	0x3cac3fcb	0.021026513
239	0x3f155be6	0.5834335
240	0xbeb5cd9b	-0.35508427
241	0xbda804a2	-0.08204009
242	0x3d22a896	0.039711557
243	0x3e3f0dd1	0.18657614
244	0x3e242112	0.1602824
245	0x3e887fde	0.26660055
246	0xbdab7918	-0.08372706
247	0x3df192c0	0.117955685
248	0xbed13b50	-0.40865564
249	0x3d438af8	0.047739953
250	0x3e29628f	0.16541503
251	0xbeb0fa44	-0.34565938
252	0x3e8b5098	0.27209926
253	0x3df73096	0.12069814
254	0xbf057551	-0.52132136
255	0x3ecc20de	0.39868826

network_body._body_endoder.seq_layers.2.bias f4 [128]
0	0xbc38eb16	-0.011286518
1	0xbd900412	-0.07032026
2	0x3e0e0336	0.13868412
3	0x3c41dabe	0.011831937
4	0xbe2720fa	-0.16321173
5	0xbc8182c7	-0.01580943
6	0xbe0092ce	-0.12556002
7	0xbe18c64c	-0.14919394
8	0xbe36d530	-0.17854762
9	0xbd39dcab	-0.04537646
10	0x3cc4f97c	0.024044745
11	0xbc0171d3	-0.007900673
12	0xbdb23a38	-0.087025106
13	0xbdbf4ebf	-0.093411915
14	0x3d8a4e09	0.06753165
15	0xbcfa8cfc	-0.030584805
16	0x3cc6d95c	0.024273567
17	0xbc55098a	-0.013002763
18	0x3c6a5c8e	0.014304293
19	0x3d6c7d54	0.05773671
20	0x3d1b9ba9	0.037990246
21	0xbda4b5af	-0.08042466
22	0x3d6f7ba9	0.05846754
23	0x3e0b3456	0.13594183
24	0xbd3ec77d	-0.046576966
25	0x3dc524b5	0.09626142
26	0x3c2a949d	0.010411409
27	0xbc972f45	-0.018455157
28	0xbce9b5d8	-0.028529093
29	0xbd83798f	-0.0641967
30	0xbe3154e8	-0.17317545
31	0xbd8fec17	-0.070274524
32	0xbe786ddf	-0.24260662
33	0xbecb64c6	-0.39725322
34	0xbd7e50a6	-0.06208863
35	0x3df22502	0.11823465
36	0xbdd441ff	-0.1036415
37	0xbdb5ef31	-0.08883513
38	0xbce02ba6	-0.027364563
39	0x3d1397ca	0.03603343
40	0xbe395949	-0.18100466
41	0xbd6cded0	-0.057829678
42	0x3db7d24c	0.08975658
43	0x3c7bf853	0.015379029
44	0xbe08a096	-0.13342509
45	0xbd1dc90a	-0.038521804
46	0xbc5393ee	-0.012913687
47	0xbc740162	-0.014892908
48	0x3c8e8e68	0.017401889
49	0xbd881a43	-0.06645634
50	0x3c67c434	0.0141459
51	0x3d4e1147	0.050309446
52	0xbe302fd2	-0.17205742
53	0xbc4d23c8	-0.012520738
54	0xbd820609	-0.06348807
55	0xbe333020	-0.17498827
56	0xbeca2d47	-0.3948767
57	0xbc2130af	-0.009838267
58	0x3be9ceab	0.0071352324
59	0x3daa8390	0.08325875
60	0xbdcb7b2b	-0.09935602
61	0xbe04236a	-0.12904134
62	0xbd90a381	-0.07062436
63	0xbc441d61	-0.011969895
64	0xbcc58cec	-0.024115048
65	0xbd0a6685	-0.033789176
66	0x3dec8df4	0.11550513
67	0xbc5612b3	-0.013065982
68	0x3d43103d	0.047622908
69	0xbe2d6f92	-0.16937092
70	0xbd3efff1	-0.046630803
71	0xbde53816	-0.11192338
72	0xb961aa0b	-0.00021521018
73	0xbe0a1ae1	-0.13486816
74	0xbc98c2c1	-0.018647553
75	0xbdae5ee3	-0.08514192
76	0x3d90b786	0.07066254
77	0xbc9e7f7a	-0.019347895
78	0x3c70a394	0.014687438
79	0xbdc3ec28	-0.095665276
80	0xbd73a50a	-0.059483565
81	0x3d08f6b9	0.033438418
82	0x3c9c33f0	0.019067734
83	0xbd87a122	-0.066225305
84	0x3dd7a2c0	0.10529089
85	0x3c882ae7	0.01662202
86	0xbd29efbd	-0.041488398
87	0xbb14e2a4	-0.0022718096
88	0x3d3f7d53	0.046750378
89	0xbe6222a0	-0.22083521
90	0xbdae3b21	-0.08507372
91	0xbd4cfe82	-0.050047405
92	0xbcc02b0b	-0.023458024
93	0xbdbec873	-0.093155764
94	0xbc8d162b	-0.017222485
95	0xbc6f99ab	-0.01462404
96	0xbd0b4042	-0.033996828
97	0x3b43a3d8	0.0029852297
98	0x3bccbff5	0.006248469
99	0x3cf48b0d	0.02985146
100	0xbdee3744	-0.11631635
101	0xbe2cf6e0	-0.1689105
102	0x3d741043	0.05958582
103	0xbe0e4fca	-0.13897625
104	0xbd8d0033	-0.068848036
105	0xbd61a37b	-0.055087548
106	0x3d072e54	0.033003166
107	0x3c306aca	0.010767648
108	0x3cc5d6ff	0.02415037
109	0x3d4ff208	0.05076793
110	0x3dd0b6a6	0.101910874
111	0x3c8f7252	0.017510567
112	0xbc80759e	-0.015681084
113	0xbd7da184	-0.06192161
114	0x3dc00ef3	0.09377851
115	0xbd1acd47	-0.037793424
116	0xbe66d179	-0.22540845
117	0xbdb14ccf	-0.08657228
118	0x3d8ccf0d	0.06875429
119	0x3bd31dab	0.0064427457
120	0xbdc7082c	-0.097183555
121	0xbd7eb062	-0.06217993
122	0x3d4875bf	0.048940416
123	0x3d9c8b9d	0.076438166
124	0xbcaed4f3	-0.021341776
125	0xbc397bac	-0.01132099
126	0xbdd2924e	-0.10281812
127	0xbe369b4f	-0.17832683

network_body._body_endoder.seq_layers.2.weight f4 [128, 128]
0	0x3d175993	0.03695066
1	0xbbac0197	-0.005249213
2	0x3e40aec3	0.18816666
3	0x3e20cc92	0.15703037
4	0x3e7cc644	0.24685007
5	0xbd1cd4a7	-0.03828874
6	0x3e88fe44	0.2675649
7	0x3d2b685c	0.04184757
8	0x3d4b1406	0.049579643
9	0x3e822dd5	0.25425592
10	0x3d9ef9e6	0.07762508
11	0xbe644ca2	-0.22294858
12	0xbe0604b9	-0.13087739
13	0x3d3183bc	0.043338522
14	0xbe719ea1	-0.23595668
15	0xbaef9c65	-0.0018280862
16	0xbf31675a	-0.69298327
17	0x3e2bace6	0.16765174
18	0x3dddc9da	0.10829516
19	0x3e1ade04	0.15123755
20	0xbc63c17d	-0.013901112
21	0x3e352cde	0.17692897
22	0x3e3c1c38	0.1837014
23	0xbc9fbbce	-0.019498732
24	0xbe12345a	-0.14277783
25	0x3d77c1e3	0.06048764
26	0x3d268d36	0.040662013
27	0x3c2dfc91	0.010619299
28	0xbd1a6dcb	-0.037702363
29	0xbed7606b	-0.4206575
30	0xbe81abb1	-0.25326303
31	0x3ea911f6	0.33021516
32	0x3d3b82c5	0.04577901
33	0xbe1d7955	-0.15378316
34	0x3db227bb	0.08698984
35	0xbedf2f34	-0.435907
36	0xbcbc49f8	-0.02298449
37	0x3e16902b	0.14703433
38	0xbe4f421e	-0.20240065
39	0x3ea19ea6	0.31566352
40	0x3ec52ba1	0.3850985
41	0x3c013415	0.0078859525
42	0xbe548e52	-0.20757416
43	0x3e2b56df	0.16732357
44	0xbd0afe78	-0.033934087
45	0xbe0d953a	-0.13826457
46	0x3e72453b	0.23659222
47	0xbe6312ad	-0.22175093
48	0xbeb6b564	-0.35685265
49	0xbadc74eb	-0.0016819512
50	0xbcbdc19a	-0.023163605
51	0x3d28da8c	0.041224048
52	0xbe0ef5db	-0.13960974
53	0xbe7dcc57	-0.2478498
54	0x3ea47e15	0.32127443
55	0x3e493ea0	0.19652796
56	0xbeab7996	-0.334912
57	0xbde572f8	-0.11203569
58	0x3eb9f05c	0.36316192
59	0xbf25a2e9	-0.64701706
60	0xbed057b8	-0.40691924
61	0x3b7e227b	0.0038777876
62	0x3d90d57e	0.070719704
63	0x3dd1e53b	0.102488
64	0x3dcb2dce	0.09920846
65	0xbcf13d03	-0.029448038
66	0xbee0479b	-0.4380463
67	0xbd920f74	-0.07131854
68	0xbe6ba273	-0.23011188
69	0x3eaa81de	0.33302206
70	0xbc8945d1	-0.016756924
71	0xbe4f69b5	-0.20255168
72	0x3e867b33	0.2626587
73	0xbe277718	-0.16354024
74	0x3e28e39c	0.16493076
75	0x3e6d0951	0.23148085
76	0xbdadf109	-0.084932394
77	0xbe1d6c12	-0.15373257
78	0x3d1d5de2	0.03841961
79	0x3e87ee00	0.26548767
80	0x3cc30666	0.023806762
81	0xbe309fcd	-0.17248459
82	0xbf2f152d	-0.68391687
83	0x3df5ff59	0.12011594
84	0xbc75e3c8	-0.015007921
85	0x3d81d37c	0.063391656
86	0x3e72148f	0.23640655
87	0xbd9c8495	-0.076424755
88	0xbd1863a4	-0.0372044
89	0xbe2c1a5b	-0.16806929
90	0x3dce1c5c	0.10064003
91	0x3d2b5c13	0.041835856
92	0xbe1ed8a6	-0.15512332
93	0x3e1c2cf9	0.1525153
94	0x3dad88d3	0.08473363
95	0xbbd95d70	-0.006633453
96	0xbf0b6c6d	-0.5446232
97	0x3e054d0e	0.13017675
98	0xbb9e9fc1	-0.0048408215
99	0xbc9b6bad	-0.018972242
100	0xbe12fa66	-0.14353332
101	0xbd656332	-0.056002803
102	0xbe044370	-0.1291635
103	0x3e2e6625	0.17031153
104	0xbd0e78bd	-0.034783114
105	0x3da505bc	0.08057734
106	0x3e5032d5	0.20331891
107	0xbef3d592	-0.4762388
108	0xbebc9456	-0.3683192
109	0x3eaa8866	0.3330719
110	0xbecee9e0	-0.40412807
111	0x3d4119ea	0.047143854
112	0xbf08dd7c	-0.5346296
113	0xbeb7888e	-0.3584637
114	0x3edbf375	0.4295918
115	0x3dee5964	0.11638144
116	0x3df4609b	0.119324885
117	0xbd328ba6	-0.04359021
118	0xbe9b1b16	-0.30294102
119	0xbde726dc	-0.11286709
120	0x3c8425fc	0.016131394
121	0x3e76f174	0.24115545
122	0xbf0d92a5	-0.55301887
123	0xbdd8a9eb	-0.10579284
124	0x3eb3cb1d	0.351159
125	0x3c1ba98a	0.0095008705
126	0x3e69213e	0.22766587
127	0xbee389f9	-0.44441202
128	0xbe96efa3	-0.29479703
129	0x3d7ae2ad	0.06125133
130	0xbed6425b	-0.418475
131	0xbe87a96c	-0.26496446
132	0x3e31b132	0.17352751
133	0xbeeabffd	-0.458496
134	0x3d43c880	0.047798634
135	0x3de213ab	0.110389076
136	0xbb885f79	-0.004161772
137	0x3e80d10d	0.25159493
138	0xbe6d2745	-0.23159511
139	0x3bc7cf52	0.0060977126
140	0x3da4eb2c	0.08052668
141	0xbe8de937	-0.2771699
142	0x3dd8ca34	0.10585442
143	0xbeefcc17	-0.46835396
144	0x3e4b4d8e	0.19853804
145	0xbe3cd917	-0.18442188
146	0xbc85e2a9	-0.016343432
147	0x3d98fb8d	0.074698545
148	0x3e6a50f3	0.22882442
149	0xbf373a94	-0.7157376
150	0xbe36ca1c	-0.17850536
151	0x3ec2f4ae	0.380773
152	0xbc5b7f2b	-0.013397018
153	0xbdd8b7b2	-0.10581912
154	0x3b26d3db	0.0025455866
155	0x3ece0a88	0.4024241
156	0x3ce514bd	0.02796399
157	0x3e31b14c	0.1735279
158	0x3e290cc0	0.1650877
159	0x3e92ce9a	0.2867325
160	0xbee9b825	-0.45648304
161	0xbf0abb6a	-0.5419222
162	0xbda77796	-0.08177106
163	0x3eda1c1c	0.4259957
164	0xbc7f365c	-0.015576925
165	0xbd851868	-0.06498796
166	0x3e0081ea	0.12549558
167	0xbe33c017	-0.17553745
168	0xbd168ec0	-0.03675723
169	0x3e0e17b8	0.13876235
170	0xbe49ca0f	-0.19705985
171	0x3ddd618b	0.108096205
172	0xbf0a0d8d	-0.53926927
173	0xbe6626d2	-0.22475746
174	0x3e991e80	0.29906082
175	0x3e9a77c5	0.30169502
176	0x3ec59e4a	0.38597327
177	0xbeb8c825	-0.36090198
178	0xbed23283	-0.41054162
179	0xbec9b444	-0.39395344
180	0xbd8768ad	-0.06611762
181	0x3e203757	0.1564611
182	0xbe383855	-0.17990239
183	0xbe376427	-0.17909299
184	0x3ea2585e	0.31708044
185	0xbe536eea	-0.20647779
186	0xbe400ea8	-0.18755591
187	0x3ed7ac65	0.42123714
188	0x3dc0e9cc	0.09419593
189	0xbdd21714	-0.10258308
190	0x3e8bde70	0.27318144
191	0xbe572099	-0.21008529
192	0xbe8ba7f9	-0.2727659
193	0x3f14dcab	0.5814921
194	0x3e25f531	0.16206814
195	0x3db5b431	0.088722594
196	0x3ea1f0c9	0.31629017
197	0x3e425475	0.1897753
198	0xbed6e00d	-0.41967812
199	0x3c55c62f	0.013047739
200	0xbe456622	-0.19277242
201	0xbec5d898	-0.3864181
202	0x3e983ec2	0.2973538
203	0xbca903be	-0.020631667
204	0xbea61a3b	-0.32441887
205	0xbe3353b9	-0.17512406
206	0xbe86e64d	-0.2634758
207	0xbebe741a	-0.37197953
208	0xbef1cdcd	-0.47227326
209	0x3ef10b4c	0.4707893
210	0x3ea5eeae	0.3240866
211	0x3eb29361	0.34878066
212	0x3d9f8a41	0.07790042
213	0xbdd1541a	-0.10221119
214	0x3d4ee976	0.050515614
215	0x3e822ae4	0.25423348
216	0x3db910ce	0.09036408
217	0xbe5e64d7	-0.21718155
218	0xbeadbd4c	-0.33933485
219	0x3d1bbc20	0.038021207
220	0x3dbcaae9	0.09212286
221	0x3da05539	0.07828755
222	0xbe395c7f	-0.1810169
223	0xbd452cb1	-0.048138324
224	0xbda775b2	-0.081767455
225	0xbeb88650	-0.36039972
226	0x3d6412c5	0.055681963
227	0xbe71bd76	-0.2360743
228	0x3d8ed8fb	0.069749795
229	0x3ef19f8a	0.4719203
230	0x3ddc51ab	0.107577644
231	0xbd03e677	-0.03220221
232	0xbe9e10e4	-0.30872262
233	0xbedd2702	-0.43193823
234	0xbd361f81	-0.04446364
235	0x3edf72ef	0.43642375
236	0x3eb2d032	0.34924465
237	0xbd8a78bb	-0.06761309
238	0xbd21f211	-0.039537493
239	0x3eab9b0c	0.3351673
240	0xbe81713c	-0.25281703
241	0x3b96a1ec	0.0045969393
242	0x3dbae9b4	0.091266066
243	0xbf0cbc68	-0.54974985
244	0x3d3f6ca4	0.046734467
245	0xbe6287cd	-0.22122116
246	0x3d97d26b	0.07413181
247	0x3e18942b	0.14900272
248	0x3e39f7b1	0.18160893
249	0xbd0a2b06	-0.033732437
250	0x3de0c7e6	0.109756276
251	0x3e5da22e	0.21643898
252	0xbe075425	-0.13215692
253	0xbd8dde1d	-0.0692713
254	0x3e0b1b06	0.13584527
255	0xbc6ab075	-0.014324297
