results/DroneAgentRight1/DroneAgent/DroneAgent-4999515.onnx (onnx, 755437 bytes, 10 tensors)

network_body._body_endoder.seq_layers.0.weight f4 [128, 296]
0.26807943 0.026823005 -0.19296056 0.14194587 0.062602 0.04744363 -0.0025412473 -0.06734995
0.24797955 0.13488321 0.1457935 0.04798453 -0.057019506 0.18598646 0.076787345 0.15463068
-0.17758924 0.055933993 0.20406286 0.011161675 0.023760917 0.052458897 -0.16709949 0.042210855
0.15941238 -0.17825821 -0.17084794 0.006400235 0.23749352 0.06758067 0.008563071 0.060132984
-0.014612906 -0.08052034 0.09562232 -0.1538344 -0.11367497 0.094195314 0.056653395 0.037816156
-0.02297094 0.030483652 0.10484618 -0.07709672 0.060867097 0.15437949 -0.053581826 -0.1258026
0.13259622 0.038326625 0.36050248 -0.031307723 -0.14898948 0.084886804 0.15021348 0.07395854
0.050572574 -0.1390856 0.14179996 0.07013318 0.09187021 0.09450788 -0.121401496 0.26123086
0.033302702 0.07219834 0.10555195 -0.10142718 -0.093199655 0.1217787 0.07568538 -0.03926675
0.0056151547 0.23434162 0.094743595 -0.00086587656 0.10435872 -0.0014421014 -0.028813094 0.050611556
-0.15993156 -0.040476765 0.019244846 -0.0057726637 0.014653404 0.088966735 0.050770473 -0.16668694
0.010659622 -0.020888474 -0.23956637 -0.13888244 0.043255273 -0.016757498 -0.07026223 0.07495123
0.05924288 0.1081196 0.035858884 0.095054306 0.11391364 -0.15388577 -0.15582807 0.071260035
-0.045088887 0.20281921 0.01012978 -0.11400335 0.15336059 0.029542523 -0.035857864 0.045500632
-0.03741261 -0.026391448 0.05072617 -0.0046585393 -0.07141604 0.0045757885 0.16933288 0.004140354
-0.08153359 0.001768539 0.03612458 -0.18577468 0.018031407 0.0023025915 -0.10946007 0.012124794
0.12926473 0.033165887 0.13145475 -0.0354618 0.10757215 0.045375697 -0.046965856 -0.21253856
-0.12426423 -0.047414362 0.09592424 0.13404347 0.03884565 -0.14948325 0.03138144 0.0835124
0.057947326 -0.07587982 0.036305867 -0.002682454 0.0043515903 -0.11385489 -0.10536679 -0.026812198
-0.010991156 0.04014368 0.037521984 0.0047405222 -0.18310198 0.1793563 -0.038219944 -0.0012134176
-0.05736147 -0.22772701 0.08531258 -0.03379712 -0.117621675 -0.17302068 -0.053800527 0.003452699
0.11431712 -0.06659565 0.07278139 -0.07002845 0.09315654 -0.015292287 -0.06591033 0.043228973
-0.116721384 0.12637903 -0.14913712 0.10015176 0.07572742 -0.011724576 0.087185 0.0057734135
-0.22182317 -0.20425518 0.035634242 -0.048877966 -0.07453047 -0.005800778 0.15927875 -0.20961004
0.098352425 0.09460379 0.0059246384 0.0663614 0.044666734 -0.02374194 -0.009681041 -0.03677635
-0.08097325 -0.020872468 -0.056979425 -0.057616558 -0.1368163 -0.07125542 -0.08307587 -0.015839322
0.14658353 -0.0033496185 -0.24669957 -0.17451346 0.028594777 -0.13972166 -0.050514814 0.029241258
-0.1470596 -0.006862425 -0.13041621 -0.23280384 -0.34401578 -0.03038019 0.12491777 -0.12423978
-0.076488644 0.057436865 -0.09477646 -0.016451344 0.055080432 -0.07288759 -0.23251028 -0.0373506
0.05735438 -0.4149296 -0.15255663 0.03423266 0.023787674 -0.008382126 0.19197361 -0.0951686
-0.004995443 -0.067236155 -0.086226635 -0.027970769 -0.06184808 -0.05113907 0.004030211 -0.0011905192
-0.011851 0.01446509 -0.089949526 -0.08268198 0.061440498 0.13821043 0.09197242 -0.122167125
00000000: b541 893e ebbb db3c 7497 45be 425a 113e
00000010: 7a35 803d 4054 423d 0e8b 26bb c5ee 89bd
00000020: 5aee 7d3e d31e 0a3e e44a 153e 6d8b 443d
00000030: 498d 69bd 3c73 3e3e af42 9d3d 8157 1e3e
00000040: f4d9 35be 0b1b 653d dbf5 503e 75df 363c
00000050: 41a6 c23c 24df 563d 211c 2bbe 4ae5 2c3d
00000060: 003d 233e 5289 36be c3f2 2ebe 10b9 d13b
00000070: 8031 733e bc67 8a3d 1f4c 0c3c 014e 763d
00000080: f86a 6fbc d9e7 a4bd a3d5 c33d c486 1dbe
00000090: 6cce e8bd 79e9 c03d 640d 683d 1de5 1a3d
000000a0: 8e2d bcbc dab8 f93c 98b9 d63d e3e4 9dbd
000000b0: c74f 793d a815 1e3e 9e78 5bbd 66d2 00be
000000c0: 4ec7 073e 61fc 1c3d c893 b83e 873c 00bd
000000d0: b390 18be 22d9 ad3d 90d1 193e 9377 973d
000000e0: 3025 4f3d 756c 0ebe 0234 113e fca1 8f3d
000000f0: 7326 bc3d 598d c13d 59a1 f8bd 0dc0 853e
00000100: 6a68 083d b9dc 933d 9f2b d83d 0eb9 cfbd
00000110: 76df bebd 1c67 f93d f000 9b3d 2cd6 20bd
00000120: 55ff b73b 40f7 6f3e ee08 c23d fefb 62ba
00000130: 06ba d53d e504 bdba 7009 ecbc 104e 4f3d
00000140: 19c5 23be f7ca 25bd 5ea7 9d3c 9d28 bdbb
00000150: d514 703c 3134 b63d b3f4 4f3d fbaf 2abe
00000160: b2a5 2e3c 4e1e abbc e350 75be 3337 0ebe
00000170: 712c 313d 0547 89bc a5e5 8fbd 0880 993d
00000180: aaa8 723d cf6d dd3d c4e0 123d d5ab c23d
00000190: 8e4b e93d 3b94 1dbe 6591 1fbe c8f0 913d
000001a0: 20af 38bd d7af 4f3e 60f7 253c 977a e9bd
000001b0: 8f0a 1d3e 2903 f23c b2df 12bd df5e 3a3d
000001c0: f73d 19bd e132 d8bc 3fc6 4f3d a9a6 98bb
000001d0: 9342 92bd 7ff0 953b 9965 2d3e cfab 873b
000001e0: 15fb a6bd 52ce e73a 5ef7 133d b83b 3ebe
000001f0: 9ab6 933c 13e7 163b 9a2c e0bd 12a7 463c
00000200: f95d 043e f4d8 073d 139c 063e 6440 11bd
00000210: ca4e dc3d dedb 393d 455f 40bd b5a3 59be
00000220: 3f7e febd 9035 42bd ee73 c43d b142 093e
00000230: 9e1c 1f3d 2312 19be d389 003d 8d08 ab3d
00000240: 2d5a 6d3d e166 9bbd 76b5 143d 1ccc 2fbb
00000250: c997 8e3b c12c e9bd 8bca d7bd 41a5 dbbc
00000260: 4014 34bc b36d 243d a7b0 193d 6256 9b3b
00000270: 167f 3bbe 2ea9 373e 848c 1cbd 8a0b 9fba
00000280: dcf3 6abd 4531 69be 5db8 ae3d d96e 0abd
00000290: a2e3 f0bd 552c 31be f15d 5cbd ad46 623b
000002a0: 181f ea3d 4d63 88bd 690e 953d 136b 8fbd
000002b0: dbc8 be3d 808c 7abc fffb 86bd dd10 313d
000002c0: 9f0b efbd 8169 013e 67b7 18be 5e1c cd3d
000002d0: fa16 9b3d 7018 40bc 0d8e b23d e72e bd3b
000002e0: 9d25 63be 4528 51be 36f5 113d 4334 48bd
000002f0: 6ea3 98bd 7414 bebb f819 233e 04a4 56be
00000300: ff6c c93d a2bf c13d 7823 c23b 7ce8 873d
00000310: 77f4 363d 757e c2bc 3b9d 1ebc cca2 16bd
00000320: 4ed5 a5bd bdfc aabc 4263 69bd 57ff 6bbd
00000330: 9219 0cbe 5dee 91bd af23 aabd 77c1 81bc
00000340: fe19 163e 4685 5bbb d09e 7cbe a8b3 32be
00000350: 983f ea3c 3213 0fbe 9fe8 4ebd 5d8b ef3c
00000360: cb96 16be 31de e0bb d48b 05be 2164 6ebe
00000370: d622 b0be e0df f8bc e3d4 ff3d 6d71 febd
00000380: 14a6 9cbd eb42 6b3d 291a c2bd f8c4 86bc
00000390: 059c 613d 1746 95bd 2d17 6ebe f1fc 18bd
000003a0: 6dec 6a3d a771 d4be ce37 1cbe 8c37 0c3d
000003b0: 5ede c23c 2f55 09bc bb94 443e c1e7 c2bd
000003c0: d0b0 a3bb 1cb3 89bd 9797 b0bd f422 e5bc
000003d0: 6a54 7dbd 3477 51bd dc0f 843b 320b 9cba
000003e0: b22a 42bc fcfe 6c3c 7537 b8bd 2c55 a9bd
000003f0: 08a9 7b3d 0987 0d3e 095c bc3d c232 fabd

network_body._body_endoder.seq_layers.0.bias f4 [128]
-0.01193852 -0.04840607 -0.05510992 0.015474094 -0.003364336 -0.00044391362 -0.03707399 -0.04367583
-0.008637656 -0.020336023 0.018713018 -0.024344977 -0.038426377 0.004902668 -0.044912755 -0.024720326
-0.023908744 -0.035125248 -0.031650163 -0.030572038 -0.014503319 -0.040856928 -0.030299151 -0.0150818275
-0.029665604 -0.053824592 -0.0567899 0.0066473586 -0.03298624 0.0033125058 0.013831135 -0.0327426
-0.0437638 -0.0058776764 0.0040819864 -0.078881845 0.015786838 -0.012839809 0.008923621 -0.019064086
0.0155698 -0.00092363375 -0.0658037 -0.08693588 -0.052196287 -0.0010516176 -0.04031456 -0.03997728
-0.0062883226 -0.022557283 -0.087854974 0.0031656844 0.040311355 -0.021118568 -0.078116015 0.014257117
-0.024084225 -0.060539942 -0.017345967 -0.013513198 -0.05324714 0.010293247 -0.030570285 -0.12408158
-0.023785256 -0.04428251 -0.058185197 -0.049934294 0.0053729615 0.0021880323 -0.045686264 -0.0069587785
-0.03386753 0.020986827 -0.015445107 -0.073146164 -0.018393438 -0.04485939 -0.014956888 -0.021706143
-0.019748498 -0.030630931 -0.004100533 0.00847486 -0.023915108 -0.038686864 -0.058159426 -0.0015405964
0.006088746 -0.021838127 -0.046975203 -0.037750263 -0.0024224562 -0.014005704 -0.037216183 0.03770086
0.0005922093 0.0062006237 0.0056448854 -0.02296483 -0.010481116 -0.10816117 -0.03137329 -0.005323155
-0.031171069 0.011104429 0.0075582247 -0.087539405 -0.0015828055 -0.013641499 0.023812927 -0.004670244
-0.051203035 -0.0008110471 -0.0011196506 -0.062760085 0.025162531 -0.046894692 -0.026382212 -0.050817914
-0.024665603 -0.022175055 -0.019818729 0.012647603 -0.012602703 -0.039873347 -0.0064581195 -0.02210244
00000000: c899 43bc 7145 46bd f1ba 61bd 0e87 7d3c
00000010: 317c 5cbb 14bd e8b9 e5da 17bd 6de5 32bd
00000020: f584 0dbc bb97 a6bc 0b4c 993c 1e6f c7bc
00000030: fa64 1dbd 8fa6 a03b 70f6 37bd 4882 cabc
00000040: 45dc c3bc 7edf 0fbd 9aa3 01bd 3672 fabc
00000050: 549f 6dbc 9859 27bd ed35 f8bc c519 77bc
00000060: 4805 f3bc 2d77 5cbd 879c 68bd 16d2 d93b
00000070: 941c 07bd a016 593b fc9b 623c 1b1d 06bd
00000080: ac41 33bd 8699 c0bb 2fc2 853b ce8c a1bd
00000090: 6653 813c 105e 52bc 6134 123c 492c 9cbc
000000a0: 7918 7f3c 0320 72ba 17c4 86bd 700b b2bd
000000b0: c6cb 55bd 6ed6 89ba e120 25bd 37bf 23bd
000000c0: 460e cebb 0dca b8bc 4fed b3bd 5f77 4f3b
000000d0: 851d 253d d900 adbc 4afb 9fbd af96 693c
000000e0: 484c c5bc bbf8 77bd 2119 8ebc 7666 5dbc
000000f0: ac19 5abd 02a5 283c 896e fabc 7c1e febd
00000100: 4cd9 c2bc 9461 35bd 9a53 6ebd e787 4cbd
00000110: ab0f b03b 1765 0f3b 8521 3bbd 7706 e4bb
00000120: aeb8 0abd 91ec ab3c 790d 7dbc a8cd 95bd
00000130: d6ad 96bc 7bbe 37bd bc0d 75bc 15d1 b1bc
00000140: 9ac7 a1bc b8ed fabc c45d 86bb 24da 0a3c
00000150: 9ee9 c3bc 1e76 1ebd 9438 6ebd d6ed c9ba
00000160: 1a84 c73b dfe5 b2bc 1269 40bd 05a0 1abd
00000170: 12c2 1ebb 2e78 65bc ff6f 18bd 386c 1a3d
00000180: 7e3e 1b3a 9a2e cb3b bbf8 b83b bd20 bcbc
00000190: fdb8 2bbc 9a83 ddbd 4781 00bd dc6d aebb
000001a0: 785a ffbc 5aef 353c fcaa f73b dc47 b3bd
000001b0: 2476 cfba 9880 5fbc 5413 c33c d908 99bb
000001c0: 46ba 51bd 739c 54ba 3dc1 92ba 5c88 80bd
000001d0: a721 ce3c a614 40bd 821f d8bc 7226 50bd
000001e0: 850f cabc 76a8 b5bc e35a a2bc e437 4f3c
000001f0: 917b 4ebc 3c52 23bd a29e d3bb 2d10 b5bc

network_body._body_endoder.seq_layers.2.weight f4 [128, 128]
-0.04883264 -0.052370917 0.009798249 -0.028471423 -0.23280585 0.2683054 -0.026634555 -0.017258124
0.15700775 0.024283545 -0.19987065 -0.20455262 0.056296445 -0.1721764 -0.087370075 0.14981742
0.112014875 -0.053991944 -0.1642486 0.08985081 -0.054013472 0.08266268 0.04535326 -0.020016376
-0.18535309 0.11058062 -0.086759716 -0.13614725 -0.07749554 0.2696981 0.018107675 -0.101363845
-0.017028386 0.052330323 0.15364945 0.05732548 0.019931337 -0.15474217 -0.029101787 -0.15726647
-0.052239332 0.07170742 -0.041132156 0.22628707 0.002526728 -0.09355453 0.1017771 0.008670972
-0.060366083 0.022492625 -0.088559605 -0.16863336 -0.09483144 0.06097307 0.07545516 0.1781964
0.2632866 0.048737887 -0.0033792085 -0.15536828 -0.06895917 -0.1952326 0.0050508906 0.08606905
-0.062678576 0.0009261043 0.13554089 -0.026290238 -0.055331096 0.04941504 0.11370974 -0.006001593
0.020925762 -0.008626939 -0.23026192 0.1174747 -0.15607713 0.016091868 -0.02393461 -0.057691414
0.17790325 0.024563652 -0.020861782 0.032175764 0.0023112728 -0.14526173 0.08949553 0.27462325
-0.0904831 -0.21872583 -0.05266925 0.010137431 -0.22220309 -0.051378503 -0.14752439 -0.034821756
-0.033374175 0.04184891 0.038915787 0.1722998 0.12592691 0.20643389 -0.15897839 0.182556
-0.14419864 0.14531758 0.04186162 -0.12918358 -0.19669314 0.10697641 0.18051994 -0.06886407
0.015214523 -0.19088271 -0.029828252 -0.069958314 0.14095162 0.09539171 0.027816607 -0.051113408
-0.12081807 0.06831929 0.04412506 -0.12262665 -0.029165328 -0.046440057 0.09636084 0.0062373895
0.092984036 -0.095487215 -0.06846886 0.083101 -0.06780727 -0.041936394 0.029312417 0.24807549
0.08368726 0.056568023 -0.021091543 0.04121855 0.1660766 0.004468649 -0.06478295 0.15595211
0.073541805 0.027545348 0.05707718 -0.025353283 -0.056510344 0.10541443 0.10401736 0.03292196
0.21239755 -0.007879725 -0.035933226 -0.007015492 0.076154895 0.0006475519 -0.22362082 0.076570824
-0.07940634 0.17687376 0.049258694 -0.041047838 -0.19531612 0.13240527 0.07709169 -0.034798376
-0.07852289 -0.048773594 0.0546976 -0.040289983 -0.10145682 -0.103969485 0.074665815 0.24170119
-0.3070298 -0.07560059 -0.03207939 -0.08303491 0.03837581 0.045546204 0.09190466 0.016969193
-0.11180131 0.21436113 0.14706597 -0.16282889 -0.13069376 -0.10118573 -0.23289765 -0.08543893
0.117823415 -0.019197365 0.0003108665 0.16887571 0.089649186 0.123115845 0.059492014 -0.12274922
-0.04235659 -0.116386496 0.019506054 -0.09394227 0.070970535 -0.059910476 0.13053584 -0.14060685
-0.09919469 0.010025556 0.01433888 -0.08333107 -0.04887633 0.027523283 -0.030667953 -0.31842738
0.15051757 0.0016361395 0.017932067 0.14371273 -0.0017927461 -0.12896398 -0.07255534 0.026838714
0.03522743 0.025667494 0.082176104 -0.03534208 0.018003946 0.095391475 -0.01917665 0.01416367
-0.21584651 0.0318695 0.0597025 0.105228804 0.02959094 0.09900438 -0.19981498 -0.10098332
-0.0050554792 0.003889055 -0.12497679 -0.067651846 0.05461443 0.019798454 -0.02425987 0.0017630187
0.17659795 -0.050962724 0.037516285 -0.27443513 -0.054305587 0.22287485 0.040287375 -0.23137268
00000000: bc04 48bd e382 56bd d688 203c e73c e9bc
00000010: a864 6ebe 535f 893e b630 dabc e960 8dbc
00000020: a4c6 203e 49ee c63c e4aa 4cbe 3e76 51be
00000030: 1a97 663d 034f 30be 15ef b2bd bd69 193e
00000040: 0e68 e53d a826 5dbd c930 28be b403 b83d
00000050: 3b3d 5dbd 0d4b a93d 57c4 393d 62f9 a3bc
00000060: 33cd 3dbe 1878 e23d 14af b1bd 2f6a 0bbe
00000070: fbb5 9ebd df15 8a3e 8c56 943c d997 cfbd
00000080: 1d7f 8bbc 5258 563d 4856 1d3e 1fce 6a3d
00000090: 0b47 a33c bb74 1ebe df66 eebc 760a 21be
000000a0: e9f8 55bd 57db 923d 317a 28bd ccb7 673e
000000b0: 7697 253b 8499 bfbd 8370 d03d b110 0e3c
000000c0: 6d42 77bd 7442 b83c bd5e b5bd 39ae 2cbe
000000d0: fc36 c2bd e6be 793d 3c88 9a3d 1e79 363e
000000e0: 80cd 863e 61a1 473d b675 5dbb dd18 1fbe
000000f0: 773a 8dbd 0eeb 47be f181 a53b f844 b03d
00000100: a05d 80bd cfc5 723a 3bcb 0a3e a05e d7bc
00000110: dca2 62bd 6d67 4a3d a7e0 e83d 03a9 c4bb
00000120: 816c ab3c 0158 0dbc c8c9 6bbe 9396 f03d
00000130: afd2 1fbe 18d3 833c 8412 c4bc d54d 6cbd
00000140: 452c 363e b639 c93c 54e6 aabc bcca 033d
00000150: b978 173b 7ebf 14be 6f49 b73d 6b9b 8c3e
00000160: 344f b9bd aaf9 5fbe b6bb 57bd 7817 263c
00000170: 3589 63be 4472 52bd a210 17be 42a1 0ebd
00000180: 5cb3 08bd c369 2b3d 2966 1f3d 5c6f 303e
00000190: fcf2 003e 6863 533e 3bcb 22be f6ef 3a3e
000001a0: cfa8 13be 22ce 143e 1777 2b3d b348 04be
000001b0: ed69 49be 7316 db3d 38da 383e 9b08 8dbd
000001c0: 5646 793c c276 43be 615a f4bc 4e46 8fbd
000001d0: 9f55 103e bb5c c33d a7df e33c 4b5c 51bd
000001e0: 776f f7bd fcea 8b3d 7bbc 343d ae23 fbbd
000001f0: 20ec eebc ee37 3ebd d558 c53d 0463 cc3b
00000200: 6a6e be3d cd8e c3bd 6739 8cbd db30 aa3d
00000210: 8ade 8abd 7fc5 2bbd 9820 f03c 8007 7e3e
00000220: 3a64 ab3d dfb3 673d 2cc8 acbc c8d4 283d
00000230: fc0f 2a3e bf6d 923b ecac 84bd e9b1 1f3e
00000240: 169d 963d c8a6 e13c c3c9 693d b0b1 cfbc
00000250: 6477 67bd 85e3 d73d 0e07 d53d 2dd9 063d
00000260: be7e 593e f619 01bc b82e 13bd 36e2 e5bb
00000270: 19f7 9b3d 79c0 293a dbfc 64be 2ad1 9c3d
00000280: cb9f a2bd 651e 353e 7cc3 493d c721 28bd
00000290: f300 48be 3f95 073e 3fe2 9d3d be88 0ebd
000002a0: 9cd0 a0bd d2c6 47bd 970a 603d 1c07 25bd
000002b0: 98c8 cfbd f4ed d4bd 64ea 983d 8480 773e
000002c0: 0333 9dbe 7bd4 9abd ae65 03bd 350e aabd
000002d0: f42f 1d3d a88e 3a3d 8338 bc3d fa02 8b3c
000002e0: 16f8 e4bd 7c81 5b3e 7698 163e 9ebc 26be
000002f0: 96d4 05be 773a cfbd b97c 6ebe 9bfa aebd
00000300: 674d f13d cb43 9dbc ccfb a239 c1ed 2c3e
00000310: fe99 b73d 2924 fc3d e6ad 733d f163 fbbd
00000320: 1b7e 2dbd 0b5c eebd 29cb 9f3c ce64 c0bd
00000330: 0059 913d b064 75bd 30ab 053e 3efb 0fbe
00000340: 9626 cbbd 3b42 243c 9fed 6a3c 7ba9 aabd
00000350: 8c32 48bd 8278 e13c 5c3b fbbc ea08 a3be
00000360: 4721 1a3e bb73 d63a 45e6 923c 6e29 133e
00000370: 94fa eaba 220f 04be e597 94bd dddc db3c
00000380: a34a 103d a344 d23c f24b a83d dbc2 10bd
00000390: 037d 933c 9b5c c33d 5a18 9dbc bd0e 683c
000003a0: de06 5dbe 9889 023d 9c8a 743d 3382 d73d
000003b0: b368 f23c cfc2 ca3d 4c9c 4cbe 58d0 cebd
000003c0: 6fa8 a5bb 84df 7e3b d5f3 ffbd 0d8d 8abd
000003d0: 61b3 5f3d 5e30 a23c a3bc c6bc 1715 e73a
000003e0: 18d6 343e 4abe 50bd adaa 193d c382 8cbe
000003f0: 896f 5ebd 4e39 643e 6004 253d f6ec 6cbe

network_body._body_endoder.seq_layers.2.bias f4 [128]
0.010277084 -0.029499518 0.03495348 -0.043968484 -0.020399736 -0.05061652 -0.037273534 0.027516022
0.030247254 -0.006127733 -0.049366023 -0.039555583 0.010367005 0.029161178 0.0037013907 -0.025004355
-0.024175705 0.052678276 0.0010492428 -0.0018256482 0.0010679694 0.02312964 -0.0023183292 -0.052855108
0.01656215 -0.01883871 -0.07851391 -0.014735022 -0.004007134 -0.0019082228 0.0056912983 -0.005169179
-0.0157974 -0.0037499834 0.019791167 -0.07755803 0.048888937 0.023332609 -0.049542755 -0.027439147
-0.033560023 -0.036042977 0.016558914 -0.040549025 -0.022293039 -0.0070919255 -0.065206334 0.034342162
0.0158376 -0.016255977 -0.020000398 -0.078557126 0.013096657 -0.048674006 -0.0077141775 -0.059787024
-0.0119824065 0.013843245 -0.037314832 -0.08240537 0.009964604 0.005604511 -0.012352225 -0.04177537
-0.083687596 -0.019989697 -0.000112204485 0.023577671 -0.026243526 -0.018438527 -0.025323777 0.033391144
0.05315038 0.027210277 -0.029925548 -0.00878621 -0.05373263 0.044905912 0.037251793 -0.00015756968
-0.008413714 0.0323917 0.036265213 0.02115859 -0.030011995 -0.017742846 -0.0399583 -0.0018194149
-0.02208143 -0.012708683 0.0065025543 0.020701852 -0.0045527807 -0.022579625 0.016904505 0.022259193
-0.06060534 0.013852848 0.0013189798 -0.0025694864 0.016786674 0.009226264 -0.009281914 -0.013526563
0.011528877 0.0037872323 -0.030312592 -0.05411067 0.009554353 -0.008685391 -0.030734722 0.01323526
-0.04809502 0.027511224 -0.026968276 -0.02124621 0.026385278 0.0079149995 0.009310827 -0.038729973
-0.0070235142 -0.01910543 -0.045807555 -0.021123111 -0.008191661 -0.011181629 -0.029539227 0.029581478
00000000: 3761 283c f9a8 f1bc 612b 0f3d 4c18 34bd
00000010: 591d a7bc 4553 4fbd 22ac 18bd 4869 e13c
00000020: 17c9 f73c 26cb c8bb 0734 4abd 0905 22bd
00000030: 5fda 293c 6ce3 ee3c 0893 723b efd5 ccbc
00000040: 210c c6bc 2dc5 573d bf86 893a 974a efba
00000050: 1bfb 8b3a 5f7a bd3c 1cef 17bb 997e 58bd
00000060: 59ad 873c a353 9abc e7cb a0bd 296b 71bc
00000070: 474e 83bb 551d faba 127e ba3b 3762 a9bb
00000080: 8d69 81bc 48c2 75bb 1621 a23c bfd6 9ebd
00000090: c43f 483d 0724 bf3c 58ed 4abd 10c8 e0bc
000000a0: 3c76 09bd cda1 13bd 8fa6 873c bc16 26bd
000000b0: e49f b6bc 6263 e8bb e68a 85bd 5eaa 0c3d
000000c0: dbbd 813c 412b 85bc e0d7 a3bc 8fe2 a0bd
000000d0: 5c93 563c 655e 47bd 36c7 fcbb 3de3 74bd
000000e0: db51 44bc c7ce 623c 70d7 18bd 26c4 a8bd
000000f0: 9442 233c 0ca6 b73b fd60 4abc a61c 2bbd
00000100: 6764 abbd 6fc1 a3bc 534f ebb8 f625 c13c
00000110: aafc d6bc 650c 97bc cf73 cfbc 27c5 083d
00000120: 36b4 593d 16e8 de3c 6c26 f5bc 09f4 0fbc
00000130: bf16 5cbd 43ef 373d 5695 183d 4a39 25b9
00000140: add9 09bc 29ad 043d d58a 143d c854 ad3c
00000150: b7db f5bc 7259 91bc 50ab 23bd 6f79 eeba
00000160: 1de4 b4bc 1438 50bc 6113 d53b ee96 a93c
00000170: 7e2f 95bb e8f8 b8bc 517b 8a3c e958 b63c
00000180: 4e3d 78bd 0ef7 623c 9ee1 ac3a d464 28bb
00000190: 3584 893c c229 173c 2b13 18bc 849e 5dbc
000001a0: 9de3 3c3c 3733 783b 1d52 f8bc 26a3 5dbd
000001b0: dc89 1c3c 2c4d 0ebc 62c7 fbbc b4d8 583c
000001c0: 49ff 44bd 385f e13c 93ec dcbc 880c aebc
000001d0: f025 d83c eaad 013c 708c 183c 52a3 1ebd
000001e0: 8225 e6bb fe82 9cbc b4a0 3bbd 600a adbc
000001f0: 5136 06bc 2733 37bc 40fc f1bc db54 f23c

action_model._continuous_distribution.log_sigma f4 [1, 4]
1.4068154 2.1597433 2.462786 1.051726
00000000: 8712 b43f 3c39 0a40 499e 1d40 f59e 863f

action_model._continuous_distribution.mu.weight f4 [4, 128]
-0.061994184 0.29463786 0.36791593 0.2951582 0.392806 -0.51360184 0.21216162 -0.092678875
-0.14192487 0.37335685 -0.067705035 0.013309168 0.30476958 -0.009723018 0.115251 -0.015569982
-0.09545708 0.2794763 0.27112186 0.40020922 -0.00648101 -0.15364282 0.046831097 -0.2784589
0.56970674 -0.255935 -0.11112681 -0.0679864 -0.52631503 -0.018031752 0.115728796 0.34229323
-0.04779714 -0.023144914 0.13941401 -0.46521404 0.10277103 0.22274882 0.056996822 -0.20175204
-0.29757676 -0.07407489 -0.8210545 -0.3381715 0.11824912 -0.33755076 -0.0683545 0.26746938
0.23950462 -0.19311763 0.31866357 0.23869093 0.22864684 -0.06993064 0.14936472 -0.23204309
-0.08455513 0.29321596 0.11710618 0.22592887 -0.36350164 0.06773094 -0.44585747 -0.20832776
0.0012864853 0.14316954 -0.12832288 0.016924676 -0.22289425 0.24402232 -0.011006774 0.029989092
-0.113306224 -0.056269187 0.2574586 0.6742058 -0.31275046 -0.07502247 0.15790787 -0.26688823
0.029083809 0.22368057 -0.13142046 -0.16931094 -0.22579616 0.4305162 -0.06969135 0.07800974
0.22888963 -0.27306813 -0.40677336 0.5211315 -0.40098876 0.3324549 -0.17598224 -0.052044235
-0.19542222 0.018235689 -0.22698992 -0.33837566 0.115913406 -0.22017498 0.030279325 -0.13919985
0.07319986 -0.42055428 0.2568623 -0.12907247 -0.22160311 0.32179987 -0.32358265 0.0709161
0.22877362 -0.48814377 -0.10837854 0.30976763 0.24306582 0.0010732336 0.300954 0.30202043
0.048016567 -0.40842107 0.085931964 0.27212563 0.1976845 0.16110104 0.113310054 0.45912325
0.015676716 0.011217776 0.39104137 -0.1601011 -0.45394793 -0.3602338 -0.0487095 -0.6692249
-0.06707805 0.16356857 -0.44025818 -0.03632908 0.14972307 0.6033149 -0.0137451375 -0.22002669
1.1216911 0.5535823 0.32121494 0.4554803 -0.29643834 0.095198035 0.1657691 -0.06573566
0.016871125 0.11143465 0.6864817 0.26023483 0.27722684 0.8357604 -0.26360932 -0.9397794
-0.35166982 -0.7707089 0.1655304 -0.42768347 -0.7653609 0.44113111 -0.22766578 -0.53263897
-0.27041847 -0.8033291 0.615187 -0.5902614 0.44797742 0.049312294 0.15712114 0.85743886
0.037786756 0.04808853 -0.17291579 -0.10303679 0.25474384 0.65386766 0.53165436 0.099859
-0.24382801 0.8456017 -0.6715416 0.043152455 -0.06504897 -0.07005333 -0.5169288 -0.120449014
-0.4845772 0.04264079 0.04875879 -0.15010203 -0.17076102 -0.01989265 0.5491106 0.3362474
0.06646784 -0.121890455 -0.34996608 -0.47290924 0.33945495 -0.31206438 -0.1434232 0.541612
-0.17257051 0.026513157 0.010377319 0.24826322 0.3002865 0.23361006 0.03639136 -0.6418505
-0.3176958 0.28110588 0.6978155 -0.25038108 0.06442637 0.03665303 -0.109377466 0.30219537
-0.08024032 0.6250147 0.21007 0.2521103 0.4226108 0.4039868 0.3649579 0.14503141
-0.08170573 0.097459204 0.12562358 -0.14255343 -0.059778232 0.032321274 -0.39861736 0.75797516
0.07641639 -0.024772344 1.3007538 0.22854738 -0.094028406 0.24227387 0.69001496 0.1777251
-0.0941069 -0.055311695 -0.40993592 0.49889228 0.23084864 0.004282498 -0.15805802 -0.10460969
00000000: 9ded 7dbd c6da 963e 7a5f bc3e fa1e 973e
00000010: de1d c93e 697b 03bf e540 593e 6cce bdbd
00000020: c154 11be a128 bf3e f0a8 8abd b20e 5a3c
00000030: c20a 9c3e 4b4d 1fbc b708 ec3d 3d19 7fbc
00000040: 007f c3bd 8517 8f3e 7cd0 8a3e 39e8 cc3e
00000050: a75e d4bb 8b54 1dbe f7d1 3f3d 2a92 8ebe
00000060: 4dd8 113f ea09 83be 7496 e3bd 743c 8bbd
00000070: 95bc 06bf 53b7 93bc 3803 ed3d 0f41 af3e
00000080: efc6 43bd 679a bdbc 8cc2 0e3e 8930 eebe
00000090: 9e79 d23d 4418 643e 8075 693d 1698 4ebe
000000a0: fb5b 98be 93b4 97bd a130 52bf d124 adbe
000000b0: 982c f23d 74d3 acbe 72fd 8bbd bff1 883e
000000c0: b340 753e a1c0 45be df27 a33e 656b 743e
000000d0: 6622 6a3e cc37 8fbd 11f3 183e b49c 6dbe
000000e0: 3d2b adbd 6720 963e 5dd5 ef3d e659 673e
000000f0: e31c babe 85b6 8a3d 6e47 e4be df53 55be
00000100: 499f a83a 099b 123e 1367 03be 9ea5 8a3c
00000110: 643e 64be fde0 793e c255 34bc afab f53c
00000120: 180d e8bd 857a 66bd 9dd1 833e c098 2c3f
00000130: d420 a0be 61a5 99bd 9ab2 213e 93a5 88be
00000140: 2b41 ee3c 850c 653e 1693 06be d95f 2dbe
00000150: 1c37 67be 9f6c dc3e 57ba 8ebd 92c3 9f3d
00000160: 0b62 6a3e 96cf 8bbe 9944 d0be e068 053f
00000170: 664e cdbe 8737 aa3e b034 34be 562c 55bd
00000180: c31c 48be 0363 953c 0c70 68be 933f adbe
00000190: 0264 ed3d 8d75 61be 590c f83c 688a 0ebe
000001a0: cfe9 953d e452 d7be 7583 833e 932b 04be
000001b0: edeb 62be f4c2 a43e a0ac a5be 763c 913d
000001c0: a243 6a3e fbed f9be 91f5 ddbd dd99 9e3e
000001d0: 3fe6 783e beab 8c3a a516 9a3e 6ca2 9a3e
000001e0: 05ad 443d 911c d1be 19fd af3d 0d54 8b3e
000001f0: ce6d 4a3e acf7 243e 1a0f e83d 3412 eb3e
00000200: 756c 803c c3ca 373c 9336 c83e 8bf1 23be
00000210: dd6b e8be 9170 b8be 9d83 47bd 5352 2bbf
00000220: 3760 89bd 857e 273e 8569 e1be cdcd 14bd
00000230: 0151 193e d872 1a3f 4933 61bc ad4e 61be
00000240: 9393 8f3f 92b7 0d3f 4976 a43e b734 e93e
00000250: c4c6 97be 30f7 c23d 60bf 293e 6ba0 86bd
00000260: 5035 8a3c da37 e43d 44bd 2f3f 803d 853e
00000270: adf0 8d3e 65f4 553f cdf7 86be 6295 70bf
00000280: 110e b4be 2e4d 45bf cd80 293e 54f9 dabe
00000290: b1ee 43bf f0db e13e 3821 69be 075b 08bf
000002a0: 4a74 8abe faa6 4dbf e57c 1d3f 5f1b 17bf
000002b0: 4c5d e53e b0fb 493d 5de4 203e 1d81 5b3f
000002c0: 49c6 1a3d 7af8 443d d610 31be f404 d3bd
000002d0: c96d 823e df63 273f 801a 083f e082 cc3d
000002e0: 0dae 79be 5a79 583f 26ea 2bbf a1c0 303d
000002f0: 6538 85bd 1f78 8fbd 7255 04bf f9ad f6bd
00000300: 811a f8be 1ca8 2e3d 4cb7 473d 59b4 19be
00000310: fadb 2ebe e9f5 a2bc 8392 0c3f 9f28 ac3e
00000320: 4a20 883d b4a1 f9bd c12e b3be 2921 f2be
00000330: 0acd ad3e e7c6 9fbe 88dd 12be 16a7 0a3f
00000340: 53b6 30be 1f32 d93c a105 2a3c b738 7e3e
00000350: 27bf 993e 7a37 6f3e 1b0f 153d 5050 24bf
00000360: 06a9 a2be 1ced 8f3e 09a4 323f f331 80be
00000370: f9f1 833d 7d21 163d 4b01 e0bd 5ab9 9a3e
00000380: 0955 a4bd f700 203f 971c 573e 9a14 813e
00000390: 7160 d83e 5cd7 ce3e c3db ba3e 1d83 143e
000003a0: 5555 a7bd b198 c73d 78a3 003e 87f9 11be
000003b0: 05da 74bd 5063 043d 9317 ccbe a90a 423f
000003c0: 3280 9c3d 5fef cabc 1a7f a63f 5308 6a3e
000003d0: f791 c0bd a416 783e d2a4 303f 92fd 353e
000003e0: 1ebb c0bd 848e 62bd 1fe3 d1be cf6e ff3e
000003f0: 9663 6c3e 3254 8c3b f6d9 21be 9b3d d6bd

action_model._continuous_distribution.mu.bias f4 [4]
0.064747274 -0.007736751 -0.045830484 0.10492296
00000000: 389a 843d 9284 fdbb bfb8 3bbd d9e1 d63d

onnx::LSTM_104 f4 [1, 512, 128]
-0.228199 0.17565076 -0.07049942 -0.042877898 -0.06678624 0.04634611 0.0082476605 -0.16095683
-0.21455717 -0.14823733 -0.07649814 -0.07919984 0.0077632307 0.081104 -0.28951463 0.00077356736
0.117276214 -0.18021594 -0.31220654 -0.2228714 0.051028717 0.013018056 -0.20471406 -0.026211953
0.06376777 -0.09120316 0.10381505 0.19172625 0.20731553 -0.060197026 0.060831394 -0.36329392
-0.073677026 0.06323353 0.16068833 0.17734544 -0.014763946 0.0056827664 -0.17992191 -0.06346882
0.13184491 0.16191097 0.13457572 -0.18362781 -0.023212645 -0.04011974 -0.06761018 -0.18834892
0.22387545 -0.022476362 -0.23061821 0.12088524 -0.19573839 0.30432856 0.19904093 -0.12889774
-0.25445735 0.17988624 0.16442591 0.0035581994 0.17401475 0.037389245 0.037403915 -0.09720639
0.05831395 0.02848099 -0.0030702467 0.1909324 0.17900215 0.05813667 0.06356225 0.036304638
-0.14247693 -0.17105591 -0.0809596 -0.030450568 0.2018587 0.035030533 -0.15244576 -0.042678833
-0.1291048 0.12242456 0.028206104 -0.064342916 -0.123396076 -0.049011204 0.10856746 -0.15297608
0.08791522 0.14746623 -0.16063495 0.023657065 -0.0713146 -0.008382504 0.02065032 0.11858994
0.035166144 -0.10857583 0.07774926 -0.08636974 -0.020512592 -0.18689366 0.002188475 -0.0022017034
-0.089987755 -0.11813494 -0.004808998 -0.020549307 -0.18590482 -0.35594437 0.0026983975 -0.060264792
0.14548412 -0.07134946 0.13666119 -0.22079027 0.0025974808 0.10528254 0.014449627 0.14262605
-0.15914942 0.011672031 0.24011965 -0.12804426 0.034137793 -0.16675928 0.14919364 -0.16299368
0.10678595 0.14797059 0.12770425 -0.14876322 0.42557803 0.00014458758 0.03421209 -0.27589813
-0.120462246 -0.12650457 0.06497159 0.30954897 0.09273105 0.10916768 0.08718392 -0.17527433
0.04380133 -0.09612905 -0.16398689 -0.29266503 -0.03856144 -0.1258312 -0.2552016 0.26187283
0.02580229 0.37465683 0.11894054 0.015913518 -0.23130657 -0.033822034 0.122424915 0.03398961
0.05007962 -0.19919531 0.13322559 -0.006392427 -0.0994126 -0.11510302 -0.052410156 0.06418097
0.1369904 0.19336766 0.14853752 -0.022299621 0.005352004 -0.14459832 0.20340116 0.10050995
-0.009508968 -0.17385311 0.17009106 -0.0120615605 -0.16489922 0.16408259 0.20673515 -0.21864803
0.13788724 0.10052195 -0.38555926 -0.09240285 0.08892411 0.05943066 0.063074134 0.18500553
-0.06419577 0.24240743 0.059567545 0.07529811 0.20285222 0.14487876 0.16809951 0.2948735
-0.33771437 0.041153293 -0.062311355 0.058324058 0.1839295 0.16272572 0.06909998 0.2664961
0.06855642 0.072193906 0.082560584 0.09475502 0.24382587 0.118873574 0.033978198 -0.07231685
0.11955142 0.09849297 0.22653283 -0.24624601 -0.12234608 0.11468692 -0.17243597 0.2790593
0.237147 -0.16231772 -0.018456664 0.15194687 0.11678779 0.21941602 -0.051452238 0.22896987
0.1021792 0.36843866 -0.06848738 0.16412303 -0.12482919 -0.099643745 -2.2606124e-05 0.0401753
-0.026314361 0.0762472 -0.1073468 0.13277635 0.10276037 0.074698254 0.08920943 -0.0143036675
0.27799898 -0.29058623 0.18183792 0.055696014 -0.03663539 -0.013770419 0.03789149 -0.07579553
00000000: 00ad 69be cbdd 333e 0062 90bd bca0 2fbd
00000010: 39c7 88bd 6bd5 3d3d 3221 073c ded1 24be
00000020: e0b4 5bbe 87cb 17be 0fab 9cbd 8733 a2bd
00000030: b362 fe3b db19 a63d 433b 94be 3ac9 4a3a
00000040: 832e f03d 878a 38be 89d9 9fbe 6638 64be
00000050: 7d03 513d af49 553c 90a0 51be 73ba d6bc
00000060: ad98 823d b9c8 babd fc9c d43d e353 443e
00000070: 864a 543e 2891 76bd 572a 793d a901 babe
00000080: fbe3 96bd 9580 813d 7b8b 243e 0b9a 353e
00000090: 7ae4 71bc 8036 ba3b 733d 38be f1fb 81bd
000000a0: 5a02 073e fdcb 253e 38ce 093e ee08 3cbe
000000b0: 7228 bebc 9954 24bd 3577 8abd 8ade 40be
000000c0: 9b3f 653e 5920 b8bc 2e27 6cbe ae92 f73d
000000d0: a56f 48be f4d0 9b3e 63d1 4b3e c5fd 03be
000000e0: 3c48 82be 1934 383e 445f 283e ae30 693b
000000f0: ec30 323e 7725 193d d934 193d 2514 c7bd
00000100: 9cda 6e3d f750 e93c 3136 49bb c883 433e
00000110: 574c 373e b820 6e3d ed2c 823d 2cb4 143d
00000120: 79e5 11be 4829 2fbe 26ce a5bd 7873 f9bc
00000130: 0cb4 4e3e 2d7c 0f3d be1a 1cbe 00d0 2ebd
00000140: 0c34 04be bab9 fa3d 7d10 e73c 38c6 83bd
00000150: 15b7 fcbd f9bf 48bd 9e58 de3d c3a5 1cbe
00000160: e50c b43d 6301 173e 7d7d 24be 76cc c13c
00000170: 640d 92bd c556 09bc dc2a a93c 48df f23d
00000180: 600a 103d 015d debd 013b 9f3d 9ee2 b0bd
00000190: 060a a8bc 0d61 3fbe 856c 0f3b 744a 10bb
000001a0: 804b b8bd bbf0 f1bd cd94 9dbb 0557 a8bc
000001b0: d55d 3ebe 573e b6be 99d7 303b 37d8 76bd
000001c0: caf9 143e aa1f 92bd e9f0 0b3e d816 62be
000001d0: 7f3a 2a3b 5f9e d73d 21be 6c3c 900c 123e
000001e0: 11f8 22be 0c3c 3f3c ede1 753e 091e 03be
000001f0: 12d4 0b3d f2c2 2abe 38c6 183e d1e7 26be
00000200: 98b2 da3d 9a85 173e e7c4 023e 6355 18be
00000210: 5de5 d93e 6f9c 1739 fa21 0c3d 8542 8dbe
00000220: e9b4 f6bd 6a8a 01be d30f 853d 347d 9e3e
00000230: c7e9 bd3d 4e93 df3d 7c8d b23d 1d7b 33be
00000240: 0669 333d 4fdf c4bd 2eec 27be 31d8 95be
00000250: 9af2 1dbd e5d9 00be c9a9 82be 3214 863e
00000260: 535f d33c 05d3 bf3e 1997 f33d 115d 823c
00000270: a1db 6cbe f988 0abd eab9 fa3d b038 0b3d
00000280: 4a20 4d3d dbf9 4bbe 4a6c 083e 9077 d1bb
00000290: d598 cbbd 22bb ebbd 08ac 56bd 5071 833d
000002a0: 3647 0c3e 2c02 463e 381a 183e b2ad b6bc
000002b0: dd5f af3b 9511 14be 6548 503e 29d8 cd3d
000002c0: 81cb 1bbc 8d06 32be 5a2c 2e3e da9d 45bc
000002d0: 57db 28be 4405 283e 61b2 533e 45e5 5fbe
000002e0: 5032 0d3e 74de cd3d 0668 c5be b53d bdbd
000002f0: d81d b63d 906d 733d 032d 813d 1772 3d3e
00000300: 1279 83bd a739 783e 19fd 733d e535 9a3d
00000310: 7eb8 4f3e 195b 143e 4722 2c3e a9f9 963e
00000320: e6e8 acbe 5b90 283d 313a 7fbd 35e5 6e3d
00000330: 0458 3c3e 92a1 263e 4a84 8d3d 2d72 883e
00000340: 4f67 8c3d 66da 933d 8615 a93d ec0e c23d
00000350: 7dad 793e fd73 f33d b92c 0b3d db1a 94bd
00000360: 60d7 f43d afb6 c93d 39f8 673e ea27 7cbe
00000370: 9590 fabd fae0 ea3d 0e93 30be dce0 8e3e
00000380: aad6 723e 9e36 26be 6e32 97bc f697 1b3e
00000390: 702e ef3d 98ae 603e 95bf 52bd 1477 6a3e
000003a0: 5443 d13d fea3 bc3e 1d43 8cbd de0f 283e
000003b0: 72a6 ffbd 0512 ccbd 48a2 bdb7 db8e 243d
000003c0: 3791 d7bc 7e27 9c3d a4d8 dbbd 86f6 073e
000003d0: 0774 d23d 66fb 983d 6fb3 b63d ee59 6abc
000003e0: e255 8e3e b8c7 94be b833 3a3e 8121 643d
000003f0: fe0e 16bd 539d 61bc 1b34 1b3d b03a 9bbd

onnx::LSTM_105 f4 [1, 512, 128]
0.018748054 -0.0471818 0.003363152 0.13437818 0.08246532 -0.05191703 -0.16010217 -0.14968546
0.038309224 0.017852375 -0.14245722 0.09262846 -0.15359655 -0.059311166 0.044578377 0.1930935
0.059712145 0.121842064 0.14101575 -0.015940227 -0.05916686 -0.11739661 0.071957365 0.23849231
0.007200137 -0.042615365 -0.106229484 -0.0011250771 -0.03662506 -0.017671756 -0.054860905 0.10055022
0.013148293 0.053925306 0.15296134 -0.103246704 0.21076024 -0.12732875 0.06173153 0.009399293
-0.031932835 -0.044516567 -0.08186389 0.05932131 0.015635386 -0.00031619304 -0.012589336 0.06981841
0.0947296 -0.21403927 0.0012642809 0.0608242 -0.15083496 -0.36181697 -0.0729388 0.10019518
-0.028564936 -0.011946925 0.024701895 -0.18846017 -0.05472225 -0.0035448407 0.012883736 -0.032898445
-0.011539872 -0.21532267 -0.22634356 0.066108 -0.011684019 0.005030141 0.22511059 -0.16948788
0.13811111 0.074419215 -0.09761933 -0.054460492 -0.14940946 0.104307346 0.19065161 -0.036553293
0.053055182 0.1281245 -0.05120289 -0.3082243 0.1747209 -0.049398553 -0.029600339 0.07191545
0.19158415 0.1428864 0.07020342 -0.010878499 0.062124927 0.23162459 0.09826478 -0.28331104
-0.07638959 -0.11533118 0.2357561 -0.0013936003 0.00059892714 0.03812215 -0.096183226 -0.13625103
-0.06497698 -0.02331228 0.06326582 -0.056051966 -0.045869775 -0.1245597 0.19488125 0.14472264
0.19077449 -0.0875368 -0.21235989 -0.010827755 0.10361392 0.017148321 0.0095527 0.1622555
0.1989595 -0.046866976 -0.32659847 -0.07792801 -0.1567093 0.13767049 -0.058461744 0.04954715
-0.07120269 0.02405021 0.0023439447 -0.016189845 0.10898803 -0.011424247 0.023475565 -0.020544456
0.065530606 0.023898637 0.2882852 0.1253054 0.044245753 0.054919895 0.04058822 -0.25194684
-0.168664 -0.13747865 0.13481121 -0.18132633 -0.19572684 0.08578099 0.046372037 0.08985037
-0.07019434 0.002960865 -0.0034957472 -0.1467398 0.05796397 0.10278128 0.08236781 -0.13028005
0.0569892 0.09278565 0.12035344 0.024561549 0.08134993 -0.23036999 0.05257975 0.15318695
-0.17612477 -0.039818525 -0.07196567 -0.2275286 -0.029364357 -0.1089126 -0.03507796 0.20913844
0.06157099 -0.06619992 -0.17238784 0.115456805 -0.056657493 -0.376498 -0.1833794 0.15868396
0.04695343 -0.06777622 -0.13134263 -0.30010468 -0.24924336 -0.07412532 0.04654222 -0.13390583
0.15247858 -0.064608075 0.13379772 0.13925456 0.032769214 0.071951166 -0.009889709 -0.036880698
0.1437502 -0.022626637 0.05268046 -0.052681286 0.23031275 -0.041714896 0.076413155 -0.18253586
-0.13740242 0.18574245 0.18640055 -0.04033731 0.049227525 0.07843288 -0.080786556 -0.06766175
0.10157924 0.1090181 0.05299573 -0.2114347 -0.20323129 0.09060681 0.05265565 0.098140694
0.20895812 -0.17193976 -0.010782172 -0.051228594 -0.039758593 -0.0022913958 -0.108196475 -0.08472311
-0.014279692 -0.12480361 0.27832595 -0.22960372 -0.05120861 -0.013169278 0.02784021 0.026040599
0.22032355 -0.10091227 0.043583862 -0.026594622 0.15355928 -0.21976812 0.059322916 -0.16093665
0.3043663 0.008573677 0.0348108 -0.022229906 -0.20027699 0.016427001 0.009844733 0.10358697
00000000: 8595 993c b441 41bd 5468 5c3b 6f9a 093e
00000010: 94e3 a83d f4a6 54bd d3f1 23be 2547 19be
00000020: 22ea 1c3d 253f 923c 4ee0 11be fdb3 bd3d
00000030: 6a48 1dbe 44f0 72bd d197 363d 4dba 453e
00000040: b994 743d 5588 f93d 6f66 103e 1495 82bc
00000050: f358 72bd a26d f0bd 625e 933d 5437 743e
00000060: 20ef eb3b 738d 2ebd d88e d9bd 5377 93ba
00000070: 2904 16bd 5cc4 90bc d4b5 60bd 46ed cd3d
00000080: f06b 573c c8e0 5c3d e6a1 1c3e 0273 d3bd
00000090: 88d1 573e 7862 02be 33da 7c3d 7eff 193c
000000a0: 01cc 02bd 0157 36bd 41a8 a7bd e7fa 723d
000000b0: c815 803c b6c6 a5b9 8143 4ebc f4fc 8e3d
000000c0: 9801 c23d 1c2d 5bbe 3ab6 a53a cc22 793d
000000d0: 7b74 1abe 1340 b9be f060 95bd 2133 cd3d
000000e0: 0301 eabc 09bd 43bc a15b ca3c b4fb 40be
000000f0: 7024 60bd 8f50 68bb 4e16 533c 85c0 06bd
00000100: bb11 3dbc 8c7d 5cbe 9bc6 67be a263 873d
00000110: 546e 3fbc e2d3 a43b 6483 663e 3b8e 2dbe
00000120: 006d 0d3e 1a69 983d a5ec c7bd f711 5fbd
00000130: cbfe 18be 179f d53d 2d3a 433e e8b8 15bd
00000140: 6450 593d 1233 033e 1fba 51bd 93cf 9dbe
00000150: 09ea 323e 2356 4abd 697c f2bc 6848 933d
00000160: a32e 443e d050 123e d0c6 8f3d bb3b 32bc
00000170: b576 7e3d ff2e 6d3e 0c3f c93d 250e 91be
00000180: 2572 9cbd c132 ecbd 0c6a 713e 77a9 b6ba
00000190: 5201 1d3a f925 1c3d b6fb c4bd 6485 0bbe
000001a0: a712 85bd 65f9 bebc 8391 813d bf96 65bd
000001b0: f2e1 3bbd 2819 ffbd f38e 473e 2c32 143e
000001c0: 635a 433e 7e46 b3bd df74 59be e566 31bc
000001d0: 8933 d43d a37a 8c3c ee82 1c3c 4e26 263e
000001e0: 0abc 4b3e 96f7 3fbd ea37 a7be b898 9fbd
000001f0: 6778 20be 7ef9 0c3e 9575 6fbd f4f1 4a3d
00000200: b7d2 91bd f204 c53c de9c 193b 91a0 84bc
00000210: 1e35 df3d c42c 3bbc d44f c03c d94c a8bc
00000220: e934 863d 13c7 c33c 1e9a 933e 0f50 003e
00000230: 093b 353d aff3 603d d53f 263d 2dff 80be
00000240: 41b6 2cbe 34c7 0cbe f30b 0a3e 9cad 39be
00000250: 9e6c 48be f2ad af3d 9bf0 3d3d 7903 b83d
00000260: 0dc2 8fbd 120b 423b e818 65bb f542 16be
00000270: a16b 6d3d fe7e d23d 74b0 a83d 2268 05be
00000280: 826d 693d 6706 be3d dd7b f63d 4d35 c93c
00000290: cb9a a63d 1ce6 6bbe dd5d 573d 0add 1c3e
000002a0: 0d5a 34be c018 23bd bd62 93bd 42fd 68be
000002b0: 858d f0bc 920d dfbd e8ad 0fbd 6328 563e
000002c0: dd31 7c3d d393 87bd 7086 30be 9e74 ec3d
000002d0: b011 68bd 59c4 c0be cfc7 3bbe 0c7e 223e
000002e0: 3d52 403d 42ce 8abd af7e 06be 52a7 99be
000002f0: a739 7fbe 04cf 97bd 0ea3 3e3d 9c1e 09be
00000300: 5823 1c3e 3d51 84bd 4502 093e bf98 0e3e
00000310: 0339 063d 225b 933d 7208 22bc 3710 17bd
00000320: 4133 133e 7f5b b9bc 77c7 573d 55c8 57bd
00000330: 1bd7 6b3e 3ddd 2abd 807e 9c3d aeea 3abe
00000340: 38b3 0cbe 4533 3e3e c9df 3e3e bc38 25bd
00000350: cda2 493d 6ba1 a03d 6c73 a5bd 3e92 8abd
00000360: c708 d03d e244 df3d 0d12 593d 5782 58be
00000370: dd1b 50be 1090 b93d 73ad 573d fdfd c83d
00000380: 1ef9 553e fa10 30be b5a7 30bc 13d5 51bd
00000390: e8d9 22bd 3e2b 16bb 1d96 ddbd 4f83 adbd
000003a0: 5ff5 69bc 0999 ffbd bd80 8e3e 3d1d 6bbe
000003b0: 1fc0 51bd f5c3 57bc 2711 e43c 1853 d53c
000003c0: 7f9c 613e 18ab cebd fe84 323d f7dc d9bc
000003d0: a53e 1d3e e50a 61be 96fc 723d 94cc 24be
000003e0: e6d5 9b3e 9c78 0c3c c595 0e3d 7e1b b6bc
000003f0: 6915 4dbe eb91 863c ce4b 213c 6825 d43d

onnx::LSTM_106 f4 [1, 1024]
-0.069131136 -0.046448812 0.112794444 -0.15427731 0.039709985 -0.016518438 -0.029633608 0.033036217
0.086699046 -0.0045340834 -0.027462086 -0.07433751 -0.07106292 0.081397586 -0.021162182 0.047165927
-0.057032652 0.05794662 0.01339765 0.03741981 0.054538313 -0.032532293 -0.028351698 0.037237696
-0.026047694 0.007294579 0.023541937 0.047498733 -0.1033059 0.059878185 -0.038107295 0.07763895
0.0026411116 0.020757657 0.10482836 -0.07231888 0.12771869 0.029183522 -0.00086106546 -0.009316602
0.09938003 -0.07038532 0.06314212 0.12295585 0.08433487 0.0024797502 -0.09608032 0.021273652
-0.025623849 0.078061946 0.08001513 -0.013981085 0.06343078 0.13889997 -0.026582353 -0.099007316
0.043910798 0.051448125 -0.027797332 -0.027380249 -0.018621363 -0.036855742 0.027656866 0.066123
0.047215287 0.017624492 -0.019867335 0.048552405 0.036787 0.060203664 -0.05512918 0.08383312
-0.08117052 -0.07565145 -0.06514425 0.05797803 -0.061100442 -0.054727636 0.004052441 -0.013445211
-0.063199006 0.011531345 0.02111038 -0.027468298 -0.08397162 0.038373113 -0.01380122 0.049911316
0.023785245 -0.03125524 -0.057360522 0.030819641 0.019087955 -0.11687479 -0.09027423 -0.00725628
-0.033415083 -0.029578941 0.07338669 0.015500623 -0.0055201724 -0.0054692593 0.07347305 0.021556059
-0.07166958 0.027171914 0.007733905 0.008307624 -0.11667036 0.009644519 0.052714866 0.06138058
0.040563434 -0.049784984 0.029332735 0.082397565 -0.06288399 -0.035672165 0.1221997 0.036589213
-0.03424557 -0.062115636 0.061154656 -0.02719015 -0.04458528 -0.0010190883 0.060173646 0.094875135
-0.01446979 0.07808701 0.05672477 -0.06416339 -0.026684193 -0.03253592 0.04021491 0.06383742
-0.0040526222 0.105270065 0.090563685 0.028881077 0.07824565 0.058565337 -0.013770274 0.035013463
-0.033917464 0.011399252 0.021161588 0.06566817 0.0016262629 0.024076756 0.11630802 0.073234074
0.081287116 0.08440665 0.0762747 0.013048643 0.037011743 0.093576774 0.08255036 0.092606254
0.08088151 0.013026799 0.08896711 -0.110631324 0.018569374 0.07330926 -0.029895063 0.04142921
0.052530352 0.035423823 0.13136888 0.08163291 0.026240269 0.038452055 -0.019316088 0.0029613054
0.023041865 0.028287793 0.056858033 0.012107343 0.073044434 0.055224933 0.10536595 0.16335925
-0.023611212 0.10850981 0.04898053 0.010044548 0.07729384 -0.09368097 -0.14385192 0.112548955
0.027140541 0.01616956 0.07230484 0.18766804 -0.010776967 0.09525449 0.05089593 0.0055193747
0.072748706 -0.08518473 0.047004797 0.09337755 0.07012923 -0.03473117 -0.002147669 0.13905214
-0.024784328 0.11342043 0.022086589 -0.024258127 0.030860389 0.007751731 0.008842757 0.056407295
0.092008375 -0.03974447 0.02974268 0.061986968 0.11258845 0.034714825 0.1340525 0.08658807
0.040412765 -0.036173373 0.071137026 0.13578324 0.060178015 -0.022576654 0.105371006 -0.06372073
0.008752911 0.016670367 0.078573376 0.020786773 0.027500618 0.01682752 0.0090402365 0.018495338
0.10016801 -0.010168181 0.041557528 0.0027572247 -0.03202103 -0.021521108 0.13692886 0.031943846
0.021899974 -0.048952308 0.028940173 -0.026263477 0.025991848 0.15972021 0.053976398 0.026107956
00000000: a094 8dbd 1c41 3ebd c600 e73d dffa 1dbe
00000010: f0a6 223d ad51 87bc 2ec2 f2bc fc50 073d
00000020: 458f b13d a692 94bb 2bf8 e0bc 443e 98bd
00000030: 7089 91bd c7b3 a63d 505c adbc 0f31 413d
00000040: 129b 69bd 6f59 6d3d d181 5b3c 8445 193d
00000050: 9163 5f3d 9540 05bd d241 e8bc 8e86 183d
00000060: f961 d5bc 5d07 ef3b 05db c03c 088e 423d
00000070: 0b92 d3bd d442 753d 6516 1cbd 2b01 9f3d
00000080: 8016 2d3b f60b aa3c 40b0 d63d ec1b 94bd
00000090: b0c8 023e 4812 ef3c 20b9 61ba a9a4 18bc
000000a0: c287 cb3d 2e26 90bd a850 813d 47d0 fb3d
000000b0: c3b7 ac3d 4e83 223b c2c5 c4bd 1546 ae3c
000000c0: 1be9 d1bc f1de 9f3d f9de a33d ec10 65bc
000000d0: ffe7 813d cb3b 0e3e 3cc3 d9bc 59c4 cabd
000000e0: cfdb 333d 45bb 523d 3bb7 e3bc 8b4c e0bc
000000f0: d48b 98bc 0cf6 16bd a790 e23c 7f6b 873d
00000100: d164 413d 3d61 903c d2c0 a2bc e3de 463d
00000110: f7ad 163d 1e98 763d 23cf 61bd b3b0 ab3d
00000120: bb3c a6bd 26ef 9abd 596a 85bd 5f7a 6d3d
00000130: 7544 7abd 162a 60bd 57ca 843b 4d49 5cbc
00000140: 7b6e 81bd f7ed 3c3c adef ac3c 3205 e1bc
00000150: 50f9 abbd 202d 1d3d 831e 62bc cf6f 4c3d
00000160: 46d9 c23c 7f05 00bd def2 6abd 7979 fc3c
00000170: 585e 9c3c 0d5c efbd b2e1 b8bd 17c6 edbb
00000180: 41de 08bd 894f f2bc c34b 963d 53f6 7d3c
00000190: 90e2 b4bb 7937 b3bb 0a79 963d 5596 b03c
000001a0: 80c7 92bd a297 de3c b36c fd3b b31c 083c
000001b0: dff0 eebd 0b04 1e3c 8beb 573d 346a 7b3d
000001c0: d825 263d 57eb 4bbd 344b f03c 0ec0 a83d
000001d0: 52c9 80bd fa1c 12bd d643 fa3d 92de 153d
000001e0: 1545 0cbd f76c 7ebd 4e7d 7a3d e1bd debc
000001f0: 0e9f 36bd ee92 85ba a478 763d e54d c23d
00000200: b312 6dbc 15ec 9f3d 3c58 683d 1868 83bd
00000210: cf98 dabc 6344 05bd 64b8 243d 31bd 823d
00000220: dccb 84bb d597 d73d 7479 b93d 0298 ec3c
00000230: 413f a03d 35e2 6f3d b79c 61bc 476a 0f3d
00000240: 0aed 0abd eec3 3a3c 115b ad3c 097d 863d
00000250: 5428 d53a 9e3c c53c e632 ee3d bffb 953d
00000260: dc79 a63d 65dd ac3d e935 9c3d fac9 553c
00000270: a099 173d 2ea5 bf3d 2a10 a93d 59a8 bd3d
00000280: 35a5 a53d 5b6e 553c 6334 b63d ad92 e2bd
00000290: cd1e 983c 2a23 963d 7ee6 f4bc adb1 293d
000002a0: 112a 573d 9218 113d 9085 063e 282f a73d
000002b0: d5f5 d63c e77f 1d3d c63c 9ebc 7612 423b
000002c0: 4bc2 bc3c cdbb e73c f8e3 683d e15d 463c
000002d0: 5298 953d 8a33 623d 1aca d73d a647 273e
000002e0: 4d6c c1bc 643a de3d cf9f 483d e391 243c
000002f0: 3c4c 9e3d cfdb bfbd eb4d 13be 1180 e63d
00000300: d755 de3c 0676 843c 8f14 943d 0d2c 403e
00000310: e091 30bc c914 c33d 4078 503d dfdb b43b
00000320: 46fd 943d 5575 aebd 1a88 403d bb3c bf3d
00000330: ea9f 8f3d 4542 0ebd e8bf 0cbb af63 0e3e
00000340: 8108 cbbc f848 e83d efee b43c fbb8 c6bc
00000350: edce fc3c 3c02 fe3b 36e1 103c 560b 673d
00000360: e36e bc3d 19cb 22bd eca6 f33c 0ce6 7d3d
00000370: c694 e63d 2231 0e3d 0f45 093e 1655 b13d
00000380: db87 253d 882a 14bd 4ab0 913d c30a 0b3e
00000390: 397d 763d adf2 b8bc c1cc d73d 0480 82bd
000003a0: 5f68 0f3c 4b90 883c 14eb a03d 0649 aa3c
000003b0: fa48 e13c ded9 893c 801d 143c 8983 973c
000003c0: e324 cd3d 7198 26bc 3a38 2a3d 8eb2 343b
000003d0: 7c28 03bd 094d b0bc 1437 0c3e 8dd7 023d
000003e0: 9367 b33c 3782 48bd f113 ed3c 8126 d7bc
000003f0: dbec d43c b28d 233e 5b16 5d3d 5ae0 d53c
