results/DroneAgentFix3/DroneAgent/DroneAgent-1999939.pt (torch, 870787 bytes, 44 tensors)

network_body._body_endoder.seq_layers.0.weight f4 [128, 103]
-0.28717816 -0.3072364 -0.1457107 -0.026978249 -0.082327046 -0.09985161 0.017173912 0.014528141
0.103434525 0.0558335 0.04047859 -0.07242415 0.24741279 -0.26895586 -0.04169716 -0.19625749
-0.13944301 0.15364024 0.06874945 0.019659804 -0.07984709 -0.0040562805 0.077997535 0.04121308
-0.25805354 -0.06508656 -0.08827293 0.17359921 -0.084036835 -0.09412266 -0.05230068 -0.064002424
-0.029818563 0.08111175 -0.037761856 -0.035315074 -0.088838704 0.046459075 0.058442038 -0.081068136
-0.10497355 -0.12556161 -0.09962215 -0.19852327 0.14095049 0.15630607 0.012996585 -0.17478761
-0.053485952 -0.071432605 0.004800237 -0.09140136 0.031649407 -0.040758554 0.05928352 -0.047071893
-0.09363582 -0.114498004 0.07823906 -0.08021357 0.073866725 -0.13336815 0.017026667 -0.099007376
-0.14830036 0.068793625 0.13951078 0.026699942 -0.029036961 -0.1238584 0.06654316 0.0127137555
0.012673919 0.06983533 0.056038678 0.016470786 0.10718987 0.13271426 -0.053376276 -0.07099182
0.079332665 0.1165049 -0.056644578 -0.061208535 -0.037009023 -0.15061985 0.15020736 0.14681657
-0.011082457 0.31350678 0.17008093 0.13671304 -0.19294026 0.08266851 -0.009078117 0.081419565
-0.11065205 0.027821485 -0.12125935 -0.23614112 0.11314486 -0.1573993 0.030927138 -0.15973127
-0.005871258 -0.11246785 -0.061817147 -0.14947435 -0.24631254 -0.021490052 -0.03653815 -0.0031743215
0.08344277 0.18344997 -0.043910388 -0.03278807 -0.048554875 -0.34986937 -0.43155974 0.06412448
0.85602397 0.022819879 -0.010187456 -0.3795444 0.060642034 0.82628703 -0.027366683 -0.0030883232
-0.07523013 0.052038513 0.068756424 0.110260375 0.0037460704 -0.111551166 -0.031940408 0.1793936
-0.18397903 0.037188765 0.06212325 0.008017514 0.016394561 0.26628965 -0.13724603 -0.0025881173
-0.014525955 0.1609496 -0.120396644 -0.022483638 -0.10799044 0.023764107 0.07434939 -0.1358167
0.12434342 -0.14611748 -0.017152386 -0.09500385 -0.07929734 0.06523985 0.12209483 -0.26284057
0.024915053 -0.08914045 -0.019692786 0.08276139 0.045305483 0.042779643 0.07609738 0.06759335
0.13925748 0.14471322 -0.24574989 -0.016061315 -0.10069009 0.061138358 -0.085808046 0.06218731
0.047696773 -0.10115835 -0.19715169 0.09832998 0.011393089 0.022476122 0.001997647 -0.102979325
0.33281028 -0.021654591 -0.5239309 -1.1328273 -0.0010667463 0.07814867 -0.14133397 -0.030210508
-0.83458275 0.96817005 0.058197565 -0.07714064 0.43611363 -0.050212096 0.3050728 -0.25724718
-0.035900272 -0.23640308 -0.04800711 0.21478401 0.7184463 -0.017408274 -0.09176155 0.09810761
0.0070212656 0.07591221 0.06246475 -0.13955604 0.09008443 -0.13369839 0.10647154 0.0070697535
-0.16281554 -0.14665684 0.16900843 0.19508676 0.097639404 0.28018433 -0.13268834 -0.54343754
0.008108776 -0.019984493 0.35914087 -0.0047265138 -0.347365 -0.0011938845 -0.23955652 0.061076272
-0.022143582 -0.20347032 0.05926119 -0.0359352 0.1713488 0.12427846 0.027767314 0.09504758
0.023098774 0.17510292 0.19943504 -0.033553023 -0.040396035 -0.08001256 -0.040178154 -0.21907765
0.051180754 0.093220234 -0.11280883 -0.06150636 0.05009484 -0.23052417 -0.090086564 -0.14899081
00000000: 0409 93be 174e 9dbe 3035 15be 7d01 ddbc
00000010: 159b a8bd 007f ccbd 4eb0 8c3c 7107 6e3c
00000020: 7bd5 d33d abb1 643d e1cc 253d 1d53 94bd
00000030: c759 7d3e 95b4 89be a4ca 2abd b9f7 48be
00000040: 26ca 0ebe de53 1d3e 83cc 8c3d 990d a13c
00000050: df86 a3bd 8cea 84bb 2cbd 9f3d 0ccf 283d
00000060: 981f 84be 1a4c 85bd 70c8 b4bd fec3 313e
00000070: 811b acbd 62c3 c0bd 3d39 56bd b413 83bd
00000080: 0f46 f4bc eb1d a63d 2dac 1abd 8aa6 10bd
00000090: 11f1 b5bd df4b 3e3d eb60 6f3d 0d07 a6bd
000000a0: 5ffc d6bd 3993 00be b306 ccbd af49 4bbe
000000b0: 5355 103e b30e 203e a1ef 543c 86fb 32be
000000c0: 1614 5bbd 424b 92bd 4e4b 9d3b a330 bbbd
000000d0: cfa2 013d 71f2 26bd 47d3 723d 75ce 40bd
000000e0: 23c4 bfbd ee7d eabd cd3b a03d 0347 a4bd
000000f0: 7047 973d a991 08be 827b 8b3c 61c4 cabd
00000100: 0ddc 17be ace3 8c3d eadb 0e3e d6b9 da3c
00000110: ecde edbc 79a9 fdbd c847 883d 5b4d 503c
00000120: 45a6 4f3c d305 8f3d d088 653d beed 863c
00000130: 5d86 db3d 3fe6 073e 15a1 5abd 2964 91bd
00000140: 2a79 a23d 1f9a ee3d 2504 68bd cdb5 7abd
00000150: c696 17bd 173c 1abe f5cf 193e 1557 163e
00000160: 3293 35bc f683 a03e b229 2e3e 81fe 0b3e
00000170: 2292 45be 1c4e a93d 62bc 14bc 4dbf a63d
00000180: 8b9d e2bd e2e9 e33c d256 f8bd face 71be
00000190: 7eb8 e73d 482d 21be e95a fd3c 9890 23be
000001a0: af63 c0bb 8b55 e6bd fa33 7dbd ce0f 19be
000001b0: 5b39 7cbe e80b b0bc 07a9 15bd 4708 50bb
000001c0: 0be4 aa3d 4fda 3b3e 61db 33bd c94c 06bd
000001d0: 7ae1 46bd 1422 b3be 66f5 dcbe b253 833d
000001e0: 6324 5b3f c1f0 ba3c 4ae9 26bc a553 c2be
000001f0: c863 783d 8c87 533f 1830 e0bc 7765 4abb
00000200: 4112 9abd 5626 553d 2bd0 8c3d 31d0 e13d
00000210: a280 753b f074 e4bd f2d3 02bd f5b2 373e
00000220: 0065 3cbe 3f53 183d f374 7e3d e45b 033c
00000230: e34d 863c 1e57 883e 398a 0cbe 679d 29bb
00000240: 45fe 6dbc f9cf 243e 8492 f6bd 9b2f b8bc
00000250: 182a ddbd f2ac c23c 7e44 983d 8813 0bbe
00000260: c3a7 fe3d d29f 15be 2983 8cbc 6191 c2bd
00000270: a566 a2bd 789c 853d db0c fa3d 0a93 86be
00000280: a71a cc3c 458f b6bd c452 a1bc ce7e a93d
00000290: 3e92 393d b539 2f3d f1d8 9b3d 626e 8a3d
000002a0: 8399 0e3e b42f 143e dca5 7bbe 0593 83bc
000002b0: 9b36 cebd 376c 7a3d 21bc afbd 1fb8 7e3d
000002c0: b15d 433d 1c2c cfbd 22e2 49be 3b61 c93d
000002d0: 14aa 3a3c d81f b83c f5ea 023b d3e6 d2bd
000002e0: 1c66 aa3e f864 b1bc 5620 06bf 7c00 91bf
000002f0: 11d2 8bba 690c a03d dab9 10be 077c f7bc
00000300: 37a7 55bf fed9 773f 9260 6e3d e9fb 9dbd
00000310: 494a df3e 33ab 4dbd 8132 9c3e e7b5 83be
00000320: 2a0c 13bd a613 72be 1aa3 44bd 57f0 5b3e
00000330: 19ec 373f cc9b 8ebc 7bed bbbd a5ec c83d
00000340: a512 e63b dc77 9b3d 0adb 7f3d c7e7 0ebe
00000350: 307e b83d 3be8 08be c00d da3d 64a9 e73b
00000360: 1eb9 26be 362d 16be 8c10 2d3e d3c4 473e
00000370: 2bf7 c73d 5274 8f3e 74df 07be b91e 0bbf
00000380: acda 043c 85b6 a3bc 50e1 b73e dfe0 9abb
00000390: d3d9 b1be 1e7c 9cba 4e4e 75be 1d2b 7a3d
000003a0: 7566 b5bc 865a 50be ddbb 723d ca30 13bd
000003b0: 0f76 2f3e b585 fe3d 4778 e33c 4ea8 c23d
000003c0: a439 bd3c 2e4e 333e b338 4c3e e56e 09bd
000003d0: 5076 25bd a0dd a3bd d991 24bd e455 60be
000003e0: e9a2 513d 40ea be3d 5108 e7bd 18ee 7bbd
000003f0: 3f30 4d3d 870e 6cbe 4e7f b8bd 0c91 18be

network_body._body_endoder.seq_layers.0.bias f4 [128]
-0.04524079 0.010759598 -0.015074504 -0.03894244 0.01944103 -0.006423871 -0.009817722 -0.041789006
0.03897068 -0.016389636 0.06576905 0.02098073 -0.025504919 -0.025601786 -0.037357144 -0.004006125
-0.017679747 0.044391584 -0.022301046 -0.030652726 -0.061518583 -0.03324116 -0.014515652 -0.079677865
-0.11035979 -0.01628121 -0.04008877 -0.0046753865 -0.06272489 -0.010939464 -0.008359106 -0.026227465
0.0029208683 -0.055104252 -0.03347142 -0.035770994 -0.031141324 -0.028532775 0.017593175 0.0011883712
-0.06455688 -0.001357967 -0.08187272 -0.025630787 0.006830145 0.045203887 -0.061307155 -0.04688685
-0.015361172 0.0039384146 0.010823018 -0.018405996 -0.14929481 -0.029496498 0.06686162 -0.0069966763
0.030648038 -0.047459967 -0.024575511 -0.039521437 -0.010431457 -0.06614924 0.038414113 -0.008852414
-0.006455654 -0.06634078 -0.069878384 -0.015651744 0.05018966 0.02789099 -0.027293924 -0.06492503
0.017617863 -0.060059708 -0.026156208 -0.0033686874 -0.06175265 -0.012878923 -0.040946547 -0.0041761966
0.0106692435 -0.08296246 -0.04955202 -0.014790019 -0.021615118 -0.06007073 -0.0992305 0.011777001
-0.08546709 0.010128156 -0.027390402 -0.12065316 0.06413976 -0.06508587 0.052460935 -0.05318476
-0.02993599 -0.053192068 -0.06268608 0.03417182 -0.050666455 -0.0139905745 0.01356662 -0.035699513
0.012201126 -0.03602933 -0.0004298194 -0.033334084 0.012915491 0.048105218 -0.0060462286 -0.03224722
-0.07527003 0.031041075 -0.019451344 -0.026762843 0.035552606 -0.057592418 0.009256985 0.014060192
-0.045032233 -0.025374785 -0.008414345 0.04632192 -0.0033499124 0.026791746 -0.021709684 0.026147032
00000000: 684e 39bd 0649 303c 0dfb 76bc 1c82 1fbd
00000010: cc42 9f3c 567f d2bb 83da 20bc f32a 2bbd
00000020: b89f 1f3d 8f43 86bc ecb1 863d c8df ab3c
00000030: b1ef d0bc d6ba d1bc ce03 19bd d045 83bb
00000040: 1ed5 90bc f3d3 353d afb0 b6bc 6d1b fbbc
00000050: e9fa 7bbd e227 08bd 0fd3 6dbc 262e a3bd
00000060: 5004 e2bd 2c60 85bc 1f34 24bd fc33 99bb
00000070: e875 80bd 703b 33bc a2f4 08bc fbda d6bc
00000080: 0a6c 3f3b ffb4 61bd 5419 09bd 9b84 12bd
00000090: 171c ffbc 91bd e9bc 901f 903c 1fc3 9b3a
000000a0: 6636 84bd d0fd b1ba e2ac a7bd a8f7 d1bc
000000b0: 69cf df3b b627 393d 361d 7bbd 6d0c 40bd
000000c0: 6dad 7bbc d10d 813b 0753 313c 2cc8 96bc
000000d0: bde0 18be a4a2 f1bc bfee 883d 6044 e5bb
000000e0: 9811 fb3c 6265 42bd 9552 c9bc 3be1 21bd
000000f0: b4e8 2abc 4179 87bd 1e58 1d3d b709 11bc
00000100: f389 d3bb addd 87bd 661c 8fbd 1638 80bc
00000110: ac93 4d3d a57b e43c 8297 dfbc 6af7 84bd
00000120: 5653 903c 2b01 76bd 8b45 d6bc 32c5 5cbb
00000130: 59f0 7cbd 1e02 53bc 91b7 27bd 7ad8 88bb
00000140: 0dce 2e3c 39e8 a9bd 0ff7 4abd d651 72bc
00000150: 3012 b1bc ba0c 76bd 5c39 cbbd 53f4 403c
00000160: 5f09 afbd 91f0 253c d661 e0bc 0119 f7bd
00000170: b55b 833d be4b 85bd 47e1 563d 43d8 59bd
00000180: 523c f5bc eddf 59bd 8f61 80bd c0f7 0b3d
00000190: a187 4fbd b938 65bc 8746 5e3c a739 12bd
000001a0: 3be7 473c 7e93 13bd 6259 e1b9 5289 08bd
000001b0: 7f9b 533c fa09 453d 711f c6bb a915 04bd
000001c0: 2c27 9abd da49 fe3c 6d58 9fbc c03d dbbc
000001d0: 9c9f 113d 07e6 6bbd 9caa 173c b85c 663c
000001e0: b873 38bd c8de cfbc 52dc 09bc 0ebc 3d3d
000001f0: 348a 5bbb 5d7a db3c 82d8 b1bc 4d32 d63c

network_body._body_endoder.seq_layers.2.weight f4 [128, 128]
0.13393573 0.008649663 -0.05372901 -0.30002582 0.03101443 0.099119596 0.07488576 0.02829215
-0.11464383 -0.16874208 -0.10261465 0.053719323 0.033742573 -0.074308895 0.056929484 0.13212185
-0.11195725 -0.074493505 -0.04766255 -0.07486573 0.08632236 0.06996448 0.02449934 0.044705622
0.09465952 -0.27656043 0.11174508 -0.05197422 0.115574256 0.089359544 -0.0030614096 -0.065847255
-0.06524559 -0.038685996 -0.031737093 -0.058829524 0.02574683 0.06453298 -0.068651035 -0.026556242
0.03620174 0.03582463 -0.0316992 0.17408402 0.06218367 -0.06566037 -0.016801119 -0.03657989
-0.006421717 -0.027776187 -0.23257865 -0.14514126 0.023213202 -0.1044901 -0.1282933 5.0764145e-05
0.021732468 -0.2585237 0.019601204 -0.053636085 0.08910163 -0.13038312 0.05425014 0.0247077
0.006032978 -0.13372928 0.0073722294 -0.2361203 -0.17173979 0.073089615 -0.14980188 0.09895464
-0.044106364 0.01424898 0.039132897 0.24627823 0.15161914 0.09095467 -0.22601102 -0.018072966
0.13457116 0.15305014 -0.17187582 -0.16319288 0.02434279 -0.06028438 -0.22492889 0.10275969
0.08896761 0.029891534 0.09048407 -0.012009306 0.038941097 -0.15893522 0.119393185 -0.017084062
-0.10568567 -0.13511585 -0.012634689 0.20896488 0.07054185 0.066455595 0.0732089 -0.01341594
-0.015520192 -0.11078874 -0.046171803 0.114121966 0.07597409 0.011899509 0.04555398 -0.022983754
-0.17674813 -0.086711206 0.09665377 -0.0023393068 -0.098469935 0.058268767 0.04540682 -0.0053768535
0.012387466 -0.034691013 -0.13536139 0.19522163 -0.106080964 0.03411623 0.11754267 0.17535833
-0.006495261 0.14110927 -0.20260905 0.15883024 -0.3002295 -0.21879178 -0.08604029 -0.042401083
-0.09382157 0.07355055 0.15030417 0.072937556 -0.19013563 -0.013296619 -0.08442534 0.04426695
-0.020228807 0.002152805 -0.04477693 -0.14701775 0.12665309 0.331335 -0.04567533 0.138059
0.06746284 -0.36531997 -0.073794656 -0.03221712 0.18393779 -0.08785253 0.09652283 -0.11953051
0.35938975 0.098525345 0.030462055 0.015625518 -0.3101111 -0.12665328 0.06424034 0.00097082375
0.09525789 0.06049598 -0.17703272 -0.18458343 -0.0096897455 -0.05877709 0.18985084 0.17854694
-0.040994298 -0.11957603 -0.24929301 -0.14583549 -0.06127637 -0.061277937 0.012216224 -0.045126293
0.25263312 -0.22303459 0.03716558 -0.088257015 -0.37192 0.030546486 -0.20419458 -0.069750674
-0.029087136 0.04748743 0.14369653 -0.0891069 0.06375082 -0.14457256 -0.13030407 0.03176644
0.031655237 -0.10703936 0.09208384 0.14171153 -0.1285314 0.15926011 0.00049597054 0.0739635
0.08099054 -0.09515427 -0.100698866 0.048065122 -0.14664908 -0.09143103 -0.11646671 0.16295822
-0.27735683 0.015380654 -0.03631723 -0.057093773 0.11869385 0.20914957 0.0902874 0.07692656
0.03931588 -0.020243661 0.024219105 0.13891321 -0.0005773616 0.09337833 0.22980237 -0.12697999
0.06559934 -0.30686432 -0.26978034 0.012095651 0.1051014 -0.18899137 -0.021872573 0.34745967
-0.2705408 -0.20137121 0.08884908 0.31687397 0.01631462 -0.02588163 -0.033774324 0.06894226
0.16055776 -0.19246387 0.13715653 0.13116035 -0.056627177 0.0037553045 0.094307154 0.10555266
00000000: 7326 093e 51b7 0d3c f312 5cbd fc9c 99be
00000010: f911 fe3c 37ff ca3d b55d 993d f0c4 e73c
00000020: 62ca eabd b9ca 2cbe a127 d2bd cb08 5c3d
00000030: a735 0a3d 432f 98bd e42e 693d f34a 073e
00000040: d849 e5bd 0d90 98bd ce39 43bd 3453 99bd
00000050: c7c9 b03d 8a49 8f3d d7b2 c83c 3e1d 373d
00000060: dadc c13d 5499 8dbe 9bda e43d ebe2 54bd
00000070: 32b2 ec3d 2302 b73d eea1 48bb edda 86bd
00000080: 7b9f 85bd 3575 1ebd c1fe 01bd 3af7 70bd
00000090: 04eb d23c de29 843d ea98 8cbd 7a8c d9bc
000000a0: 4748 143d d9bc 123d 05d7 01bd 1543 323e
000000b0: 4eb4 7e3d f278 86bd 80a2 89bc cbd4 15bd
000000c0: 446d d2bb e38a e3bc 1929 6ebe e99f 14be
000000d0: 9d29 be3c e8fe d5bd 525f 03be 96eb 5438
000000e0: 4a08 b23c 385d 84be b492 a03c 83b1 5bbd
000000f0: ea7a b63d 2783 05be 6535 5e3d cd67 ca3c
00000100: 4ab0 c53b 54f0 08be be92 f13b 85c9 71be
00000110: 8edc 2fbe 02b0 953d aa65 19be bba8 ca3d
00000120: e0a8 34bd 8e74 693c d149 203d 5c30 7c3e
00000130: 0c42 1b3e 7146 ba3d 6f6f 67be c20d 94bc
00000140: 06cd 093e 2db9 1c3e 3700 30be 091c 27be
00000150: 886a c73c c1ec 76bd c253 66be ac73 d23d
00000160: a634 b63d 17df f43c b64f b93d aec2 44bc
00000170: b380 1f3d eabf 22be 6a84 f43d e0f3 8bbc
00000180: bb71 d8bd cf5b 0abe ba01 4fbc e4fa 553e
00000190: 3f78 903d df19 883d 8cee 953d 88ce 5bbc
000001a0: 6748 7ebc 35e5 e2bd a51e 3dbd c7b8 e93d
000001b0: 4e98 9b3d 28f6 423c cf96 3a3d 6d48 bcbc
000001c0: 76fd 34be a595 b1bd 69f2 c53d 0e4f 19bb
000001d0: 9baa c9bd 3bab 6e3d 80fc 393d 5130 b0bb
000001e0: ccf4 4a3c 2a18 0ebd 2d9c 0abe 2ee8 473e
000001f0: fa40 d9bd 76bd 0b3d 36ba f03d 2291 333e
00000200: 33d6 d4bb f37e 103e bf78 4fbe 65a4 223e
00000210: aeb7 99be f40a 60be e435 b0bd c2ac 2dbd
00000220: 8625 c0bd aca1 963d 56e9 193e 4960 953d
00000230: eab2 42be 10da 59bc 31e7 acbd 4351 353d
00000240: e2b6 a5bc 1316 0d3b 0468 37bd d28b 16be
00000250: 59b1 013e bea4 a93e 0e16 3bbd 575f 0d3e
00000260: f529 8a3d 380b bbbe a721 97bd 19f6 03bd
00000270: 305a 3c3e 07ec b3bd c3ad c53d 69cc f4bd
00000280: ef01 b83e a8c7 c93d 8f8b f93c 1601 803c
00000290: e2c6 9ebe 66b1 01be 7090 833d e17e 7e3a
000002a0: 9216 c33d a2ca 773d 1148 35be 7003 3dbe
000002b0: bdc1 1ebc 3fc0 70bd 4268 423e 02d5 363e
000002c0: a3e9 27bd 47e4 f4bd ab46 7fbe e655 15be
000002d0: eefc 7abd 93fe 7abd 8f26 483c 59d6 38bd
000002e0: 2159 813e 2e63 64be ef3a 183d 18c0 b4bd
000002f0: 4c6c bebe a03c fa3c 6218 51be 71d9 8ebd
00000300: 2548 eebc 2e82 423d 2f25 133e ae7d b6bd
00000310: ca8f 823d d40a 14be 6e6e 05be 871d 023d
00000320: eca8 013d 7437 dbbd 7496 bc3d d41c 113e
00000330: bc9d 03be 1515 233e 0504 023a 2d7a 973d
00000340: 5ede a53d 3ee0 c2bd 353b cebd efdf 443d
00000350: 2d2b 16be 3140 bbbd 1986 eebd 85de 263e
00000360: b701 8ebe 23ff 7b3c 60c1 14bd 29db 69bd
00000370: c315 f33d 4e2b 563e 9ae8 b83d ac8b 9d3d
00000380: b009 213d 09d6 a5bc 2567 c63c 443f 0e3e
00000390: 155a 17ba 233d bf3d 5051 6b3e 0b07 02be
000003a0: f258 863d 521d 9dbe a620 8abe d62c 463c
000003b0: 673f d73d f486 41be 1c2e b3bc 3ce6 b13e
000003c0: 5384 8abe 4134 4ebe 82f6 b53d 4e3d a23e
000003d0: 3da6 853c b605 d4bc f256 0abd 9a31 8d3d
000003e0: 4169 243e 4015 45be c372 0c3e e64e 063e
000003f0: e6f1 67bd 8e1b 763b 1c24 c13d fe2b d83d

network_body._body_endoder.seq_layers.2.bias f4 [128]
0.01269998 -0.109681375 -0.042372987 -0.029206764 -0.11202501 -0.11804776 -0.015797079 -0.09538524
-0.034751102 -0.10448401 -0.036467396 -0.061845273 -0.013692184 0.020407204 -0.10228226 -0.09628725
-0.0208411 -0.019297425 -0.09616779 -0.024022555 -0.09135905 -0.10652456 -0.12186412 -0.016594851
-0.022126831 -0.10560001 -0.12801155 0.0036932947 0.0047738394 -0.024755845 -0.143704 -0.042907186
0.006670526 -0.040882405 0.03710901 -0.025555482 0.0189382 -0.04163072 0.020510454 -0.0031337691
-0.037881926 -0.015160298 -0.036384463 0.014902436 -0.054398097 -0.04207644 -0.045088522 -0.12418862
-0.0238179 0.055223893 -0.039830714 -0.09649674 -0.016195906 -0.09784834 -0.1095448 -0.109851316
-0.16215152 -0.04556389 -0.102397665 0.019276543 -0.038031295 0.014692394 0.0025158098 -0.056416206
-0.13735464 -0.11739541 -0.051263675 0.021253992 -0.08060102 -0.118842565 -0.08848814 -0.061969217
-0.08280335 -0.0030902175 0.06735197 -0.059169848 -0.038394198 -0.030647308 -0.032768514 -0.11257121
-0.08927708 -0.1423042 -0.051709134 -0.06797181 -0.19482693 -0.090602726 -0.07873476 -0.108062446
-0.02287251 -0.036531344 -0.03134369 -0.050936442 -0.009129621 -0.011303165 -0.082087584 -0.11736673
-0.13724749 -0.08451854 -0.15229508 0.006227494 -0.011993976 -0.0084629385 -0.11387945 -0.05597642
-0.14477512 -0.046382282 -0.033981197 -0.057400256 -0.058625914 -0.08123858 -0.11615254 -0.13523152
-0.094791144 -0.08600215 -0.030192744 -0.03522225 -0.09063396 0.0017602792 -0.1445271 -0.064314246
-0.08992725 0.0046063336 -0.048228048 -0.012186799 -0.0132829705 -0.08692012 -0.1696265 -0.094775625
00000000: 9413 503c a1a0 e0bd 4c8f 2dbd 0643 efbc
00000010: 5e6d e5bd 06c3 f1bd e068 81bc 5659 c3bd
00000020: 2c57 0ebd b6fb d5bd d65e 15bd 7851 7dbd
00000030: 2f55 60bc 022d a73c 5d79 d1bd 4032 c5bd
00000040: f4ba aabc a215 9ebc 9ef3 c4bd f3ca c4bc
00000050: 741a bbbd 8c29 dabd e593 f9bd edf1 87bc
00000060: 5443 b5bc d144 d8bd 7615 03be 340b 723b
00000070: de6d 9c3b c5cc cabc 2427 13be 72bf 2fbd
00000080: 6e94 da3b 4f74 27bd 9eff 173d bb59 d1bc
00000090: 4924 9b3c f984 2abd 8a05 a83c ec5f 4dbb
000000a0: 142a 1bbd e662 78bc e007 15bd 5929 743c
000000b0: 8ad0 5ebd 5858 2cbd beae 38bd 9a56 febd
000000c0: c21d c3bc 7332 623d 8825 23bd 15a0 c5bd
000000d0: 47ad 84bc b664 c8bd 0659 e0bd baf9 e0bd
000000e0: 0c0b 26be 34a1 3abd deb5 d1bd d7e9 9d3c
000000f0: b4c6 1bbd 5eb8 703c 49e0 243b ae14 67bd
00000100: b2a6 0cbe 016d f0bd dcf9 51bd da1c ae3c
00000110: 2612 a5bd bb63 f3bd 4539 b5bd 6fd3 7dbd
00000120: ce94 a9bd 3f85 4abb d4ef 893d 155c 72bd
00000130: 3c43 1dbd 1010 fbbc 4738 06bd bc8b e6bd
00000140: e7d6 b6bd 31b8 11be f5cc 53bd ce34 8bbd
00000150: b680 47be ec8d b9bd b13f a1bd d84f ddbd
00000160: 215f bbbc e4a1 15bd 3e62 00bd bba2 50bd
00000170: 6894 15bc e930 39bc 891d a8bd f85d f0bd
00000180: 9b8a 0cbe 0e18 adbd 3ef3 1bbe 0210 cc3b
00000190: 6282 44bc 23a8 0abc a139 e9bd 8847 65bd
000001a0: ee3f 14be 59fb 3dbd de2f 0bbd 881c 6bbd
000001b0: ba21 70bd 6a60 a6bd 62e1 edbd 227a 0abe
000001c0: dc21 c2bd e521 b0bd c656 f7bc 3545 10bd
000001d0: 4c9e b9bd 2bb9 e63a e9fe 13be 30b7 83bd
000001e0: c72b b8bd baf0 963b c68a 45bd 24ab 47bc
000001f0: d1a0 59bc 2d03 b2bd 92b2 2dbe b919 c2bd

action_model._continuous_distribution.log_sigma f4 [1, 4]
-10.467907 -11.17682 -8.88837 -10.668927
00000000: 8c7c 27c1 41d4 32c1 c336 0ec1 edb3 2ac1

action_model._continuous_distribution.mu.weight f4 [4, 128]
0.002248215 -0.022588966 -0.08593932 -0.1034106 -0.03876201 -0.014288129 -0.11479881 -0.05274063
-0.0027771788 0.040305573 0.0054746564 -0.003714245 0.00059375796 -0.011207224 -0.008404713 -0.03904596
-0.008664077 -0.015719356 0.0071278336 -0.055221166 -0.018109536 0.0037369 -0.008582252 -0.006068417
-0.109438024 -0.016183645 0.009253477 -0.06648553 0.0020070355 0.012755765 0.07113178 -0.07580563
-0.000789473 -0.0050053354 -0.15391044 -0.035146493 -0.08067512 0.0045894785 -0.08532907 -0.08420993
0.031062938 -0.0065509 -0.110254504 0.03106816 -0.0316668 0.00856492 -0.117529765 0.027249277
-0.053278692 0.10250497 -0.05064679 -0.014692238 -0.14302278 -0.09817251 -0.0043573175 0.020139605
-0.0029754944 -0.011804496 -0.07483456 -0.03169588 0.0012552639 0.0018595754 0.0046357755 0.15978484
0.031398498 -0.03193401 -0.0074623977 0.01485616 -0.043202385 -0.022619996 -0.010711774 0.010537826
0.0066137756 -0.0043189595 -0.09398752 -0.10855082 -0.0012055383 -0.03740052 -0.01368391 -0.104792655
0.0050394568 -0.047667023 0.00039114917 0.007990322 -0.0011106731 -0.03160532 -0.051925402 -0.068341024
3.1275496e-05 0.02141441 -0.008288812 -0.012137763 0.0064452514 -0.0023879097 -0.058412768 0.005025125
-0.015030538 0.0402748 -0.01489052 -0.1093305 -0.11285618 -0.064215206 0.04909209 -0.018457998
-0.033308193 -0.04930342 0.0015022913 -0.043384053 -0.059335403 -0.012990795 -0.0009094756 0.042949643
0.0005380042 -0.06947112 -0.003322957 -0.029649017 -0.052314606 -0.071735874 0.015021152 -0.10975763
-0.024595428 0.01193731 -0.07169849 -0.021449115 -0.006020624 -0.098665446 0.0011171554 0.01374428
-0.0005119502 -0.0017933563 0.004343741 -0.008671054 0.013570409 0.0059644454 0.0018278816 -0.005686158
9.08298e-05 0.0044291 -0.0018767922 -0.00029449273 -0.0012435805 0.0014215984 -0.005509392 -0.0038486407
-0.00045563362 -0.00055665587 0.0029998778 -0.0021209586 0.0017117049 0.0010686348 -0.0005021712 0.0026275557
-0.0020250643 -0.0069153956 -0.040662225 -0.006404931 0.0006638539 0.004919268 -0.03960779 0.009704644
0.00016210992 0.002870284 -0.0011842952 0.0005599176 0.005790283 0.00028439294 0.0037672846 -0.0042568943
0.008045683 -0.0015937304 -0.007917577 0.003311858 -0.022960749 -0.00010083362 0.0007709955 0.026498286
0.0059555005 0.0051753204 0.0051173563 -0.0026682117 0.014155517 0.0049139233 -0.0003303716 -0.0010190092
0.0022007911 -0.0002749205 0.021657793 -0.002505454 -0.0007012735 -0.00025495383 0.0022035583 -0.02813058
-0.028084155 0.04538994 0.007133894 0.00068392337 -0.0014795638 -0.0026805827 0.00016686716 0.0026981784
-0.0026639584 -0.0016829437 0.0120465625 -0.0041518467 -0.00026900478 -0.0050844457 -0.0010395659 0.012015349
-0.00018285748 -0.033821214 0.00035117005 0.002838325 -0.010601454 -0.026599573 0.0004742924 -0.0042262357
0.00035825325 0.0055208504 0.0013829567 0.0068074833 0.0013075697 -4.99064e-05 -0.04779526 -0.013469806
0.0044232914 0.028091667 0.007948189 0.016072571 0.008157942 -0.0031576795 0.009326855 -0.0015237865
0.008371055 -0.003908367 -0.0027433897 -0.01360184 -0.0068464344 -0.0023239325 0.008402878 -0.012300917
0.019029021 0.0031385294 -0.0007191089 0.00630759 -0.003205774 -0.003056314 -0.007360666 0.0028738964
-0.0013113051 -0.0021781249 -0.019024633 -0.0018084326 -0.00038861932 0.015571573 -0.020438546 -0.0029376256
00000000: ca56 133b 7f0c b9bc f400 b0bd f0c8 d3bd
00000010: eac4 1ebd c218 6abc a31b ebbd 8f06 58bd
00000020: 5401 36bb 7517 253d bf64 b33b b16a 73bb
00000030: 6ca6 1b3a 819e 37bc ecb3 09bc a8ee 1fbd
00000040: c6f3 0dbc e1c5 80bc 9a90 e93b 972f 62bd
00000050: 735a 94bc c7e6 743b 939c 0cbc 92d9 c6bb
00000060: 0b21 e0bd 9093 84bc e59b 173c 9129 88bd
00000070: 7888 033b 8efd 503c 8aad 913d fb3f 9bbd
00000080: a3f4 4eba cc03 a4bb b39a 1dbe c5f5 0fbd
00000090: ff38 a5bd 5663 963b 02c1 aebd 4176 acbd
000000a0: b477 fe3c efa8 d6bb 1dcd e1bd a782 fe3c
000000b0: 0cb5 01bd e153 0c3c 72b3 f0bd e039 df3c
000000c0: c23a 5abd 20ee d13d 0273 4fbd b6b7 70bc
000000d0: 9074 12be ab0e c9bd d4c7 8ebb d0fb a43c
000000e0: 8300 43bb a567 41bc dd42 99bd 8ad3 01bd
000000f0: ab87 a43a ffbc f33a b4e7 973b a39e 233e
00000100: b69b 003d 3dcd 02bd 2187 f4bb 4067 733c
00000110: fcf4 30bd 924d b9bc 7080 2fbc d9a6 2c3c
00000120: 5fb8 d83b 0f86 8dbb 877c c0bd e44f debd
00000130: 2703 9eba 4a31 19bd 7a32 60bc 889d d6bd
00000140: 0722 a53b 7f3e 43bd 2713 cd39 d7e9 023c
00000150: 0194 91ba 9474 01bd bbaf 54bd 61f6 8bbd
00000160: cf2d 0338 466d af3c cccd 07bc 78dd 46bc
00000170: b032 d33b 7a7e 1cbb 3a42 6fbd cea9 a43b
00000180: a542 76bc 30f7 243d 5ef7 73bc abe8 dfbd
00000190: 2421 e7bd 4383 83bd ca14 493d 3a35 97bc
000001a0: 2c6e 08bd 62f2 49bd 88e8 c43a 7ab3 31bd
000001b0: ae09 73bd 58d7 54bc e069 6eba f7eb 2f3d
000001c0: da08 0d3a e046 8ebd f8c5 59bb 7fe2 f2bc
000001d0: d747 56bd 42ea 92bd 471b 763c 9cc8 e0bd
000001e0: 5a7c c9bc b594 433c a8d6 92bd 0eb6 afbc
000001f0: a848 c5bb 1c11 cabd 846d 923a b02f 613c
00000200: 6534 06ba 0d0f ebba f155 8e3b 0911 0ebc
00000210: 6c56 5e3c 6571 c33b 8795 ef3a f352 babb
00000220: e17b be38 fc21 913b b2fe f5ba 2566 9ab9
00000230: a3ff a2ba ed54 ba3a 2188 b4bb 7a39 7cbb
00000240: 1ce2 eeb9 8bec 11ba 9999 443b c8ff 0abb
00000250: 495b e03a 6f11 8c3a 24a4 03ba 1233 2c3b
00000260: f1b6 04bb 8b9a e2bb 6f8d 26bd 75e0 d1bb
00000270: 7b06 2e3a d031 a13b c73b 22bd 3a00 1f3c
00000280: 0dfc 2939 601b 3c3b 5a3a 9bba 6fc7 123a
00000290: 6abc bd3b 931a 9539 8ce4 763b 6b7d 8bbb
000002a0: 0ad2 033c b8e4 d0ba bab8 01bc c20b 593b
000002b0: 2e18 bcbc a376 d3b8 a21c 4a3a ef12 d93c
000002c0: 5c26 c33b bc95 a93b 7faf a73b 2add 2ebb
000002d0: 8bec 673c fa04 a13b ba35 adb9 4690 85ba
000002e0: 263b 103b 3423 90b9 af6b b13c 8b32 24bb
000002f0: abd5 37ba 53ab 85b9 9369 103b 1a72 e6bc
00000300: be10 e6bc cdea 393d 71c3 e93b 5249 333a
00000310: eced c1ba b7ac 2fbb 10f9 2e39 ecd3 303b
00000320: ce95 2ebb 3896 dcba f25e 453c 370c 88bb
00000330: 3609 8db9 6c9b a6bb 0b42 88ba 07dc 443c
00000340: 6ebd 3fb9 1d88 0abd 3f1d b839 3103 3a3b
00000350: b9b1 2dbc 59e7 d9bc 73aa f839 3c7c 8abb
00000360: f0d3 bb39 40e8 b43b 5444 b53a 4f11 df3b
00000370: c262 ab3a 9752 51b8 f6c4 43bd 76b0 5cbc
00000380: 42f1 903b 7f20 e63c 1f39 023c a0aa 833c
00000390: e4a8 053c 12f1 4ebb aacf 183c cab9 c7ba
000003a0: c026 093c c211 80bb 71ca 33bb 40da 5ebc
000003b0: 0e58 e0bb 1e4d 18bb 3aac 093c c989 49bc
000003c0: c0e2 9b3c c9af 4d3b 9582 3cba e6af ce3b
000003d0: f617 52bb 714c 48bb be31 f1bb fb57 3c3b
000003e0: 19e0 abba dfbe 0ebb 8cd9 9bbc ee08 edba
000003f0: 9abf cbb9 e91f 7f3c bd6e a7bc 2e85 40bb

action_model._continuous_distribution.mu.bias f4 [4]
0.081629284 -0.013840812 -0.0040090913 0.00439127
00000000: 412d a73d 93c4 62bc b25e 83bb a5e4 8f3b

exp_avg f4 [128, 103]
6e-45 0.0037525208 -6e-45 6e-45 0.00046479175 6e-45 6e-45 0.002663143
0.0010893767 0.0015957148 -0.00017490787 -6e-45 -3.446815e-07 0.003927773 0.003797361 6e-45
6e-45 0.0037525208 6e-45 0.0028116712 6e-45 -6e-45 0.0037525208 -6e-45
0.0029339506 6e-45 0.0006814315 0.0030710883 -6e-45 0.0018985241 6e-45 6.242577e-05
0.0036900945 -6e-45 0.0020696635 6e-45 0.0004355114 0.003317009 6e-45 6.550901e-05
-6e-45 0.00026841863 0.0034841015 6e-45 6.769254e-05 6e-45 0.00028679235 0.0034657281
6e-45 4.7714224e-05 6e-45 0.00028679235 0.0034657281 6e-45 4.7714224e-05 -0.00017525253
0.003797361 0.0037525208 0.0028116712 0.0037525208 0.0029339506 0.0037525208 0.0018985241 0.0037525208
0.0020696635 0.0037525208 6.550901e-05 0.0037525208 6.769254e-05 0.0037525208 4.7714224e-05 0.0037525208
4.7714224e-05 0.0037525208 0.00046479175 0.002663143 0.0015957148 -0.012350006 0.012345789 0.016466511
-2.3716932e-05 0.00041940974 0.00372811 -0.056782354 -0.05584316 0.0 0.0 -0.0015784353
-0.0013180036 -0.0035088563 -0.0035183015 0.0003867988 0.00435826 -0.035755064 9.1785754e-05 -0.0055399267
-0.0077100964 -0.011963209 0.0054464904 -0.04555619 -1.2264083e-07 0.0008051586 0.003659736 -6e-45
0.028199866 6e-45 -6e-45 -0.0008026734 -6e-45 -6e-45 0.024821134 0.0033787342
0.022999302 -0.0015401092 -6e-45 -0.0001030827 0.029843055 0.028677724 -6e-45 -6e-45
0.028199866 -6e-45 0.025583876 -6e-45 -6e-45 0.028199866 -6e-45 0.017616058
-6e-45 0.00012112345 0.02807874 -6e-45 0.01789849 6e-45 0.029606668 -0.0014068049
-6e-45 2.4262496e-05 -6e-45 0.0035838678 0.024616 -6e-45 -0.00022608062 6e-45
0.00299048 0.025209386 6e-45 -0.00023014845 -6e-45 0.0031360614 0.025063803 -6e-45
-0.00015984902 -6e-45 0.0031360614 0.025063803 -6e-45 -0.00015984902 -0.0016431931 0.028677724
0.028199866 0.025583876 0.028199866 0.017616058 0.028199866 0.01789849 0.028199866 2.4262496e-05
0.028199866 -0.00022608062 0.028199866 -0.00023014845 0.028199866 -0.00015984902 0.028199866 -0.00015984902
0.028199866 -0.0008026734 0.024821134 0.022999302 -0.0721548 0.09277755 1.3306211 0.0026088792
0.005508607 0.027601842 -0.20492454 -0.20713411 0.0 0.0 0.043458235 0.043954343
-0.0028318225 -0.0026959747 -0.044018935 -0.007702996 -0.27595013 0.0012599058 0.0027105433 0.008910451
-0.11617377 0.0004749674 0.8572718 -2.377204e-05 0.003172545 0.02800872 -6e-45 -0.04298425
-6e-45 6e-45 -0.013040298 -6e-45 6e-45 -0.04012587 -0.0028583847 -0.03997543
-0.045186 -6e-45 0.00027016315 0.0019315872 -0.036830273 -6e-45 6e-45 -0.04298425
-6e-45 -0.03485938 -6e-45 -6e-45 -0.04298425 6e-45 -0.030961925 6e-45
0.0021275552 -0.04511181 6e-45 -0.024935449 -6e-45 -0.0032378894 -0.039746363 6e-45
-0.020431 -6e-45 -0.0020035682 -0.04098068 6e-45 -0.009938077 6e-45 -0.002462497
-0.040521756 6e-45 -0.00988594 -6e-45 -0.002423746 -0.040560506 -6e-45 -0.00700688
00000000: 0400 0000 daec 753b 0400 0080 0400 0000
00000010: 4baf f339 0400 0000 0400 0000 2088 2e3b
00000020: 6bc9 8e3a 4e27 d13a 7967 37b9 0400 0080
00000030: aa0c b9b4 8cb4 803b 25dd 783b 0400 0000
00000040: 0400 0000 daec 753b 0400 0000 0444 383b
00000050: 0400 0000 0400 0080 daec 753b 0400 0080
00000060: 8647 403b 0400 0000 18a2 323a 5044 493b
00000070: 0400 0080 e6d7 f83a 0400 0000 94ea 8238
00000080: 83d5 713b 0400 0080 31a3 073b 0400 0000
00000090: 5a55 e439 2d62 593b 0400 0000 e261 8938
000000a0: 0400 0080 8aba 8c39 8655 643b 0400 0000
000000b0: 28f6 8d38 0400 0000 9e5c 9639 4521 633b
000000c0: 0400 0000 c220 4838 0400 0000 9e5c 9639
000000d0: 4521 633b 0400 0000 c220 4838 fec3 37b9
000000e0: 25dd 783b daec 753b 0444 383b daec 753b
000000f0: 8647 403b daec 753b e6d7 f83a daec 753b
00000100: 31a3 073b daec 753b e261 8938 daec 753b
00000110: 28f6 8d38 daec 753b c220 4838 daec 753b
00000120: c220 4838 daec 753b 4baf f339 2088 2e3b
00000130: 4e27 d13a ae57 4abc fe45 4a3c c7e4 863c
00000140: b9f3 c6b7 39e4 db39 4f53 743b 9d94 68bd
00000150: ccbb 64bd 0000 0000 0000 0000 80e3 ceba
00000160: ddc0 acba d7f4 65bb 4e93 66bb 42cb ca39
00000170: bccf 8e3b e773 12bd 1a7d c038 4688 b5bb
00000180: faa4 fcbb 5601 44bc 7978 b23b 2199 3abd
00000190: 41af 03b4 4711 533a 2ed8 6f3b 0400 0080
000001a0: 6803 e73c 0400 0000 0400 0080 806a 52ba
000001b0: 0400 0080 0400 0080 b155 cb3c c16d 5d3b
000001c0: 0869 bc3c 7ddd c9ba 0400 0080 1a2e d8b8
000001d0: 6c79 f43c 8ced ea3c 0400 0080 0400 0080
000001e0: 6803 e73c 0400 0080 4795 d13c 0400 0080
000001f0: 0400 0080 6803 e73c 0400 0080 8d4f 903c
00000200: 0400 0080 a803 fe38 6305 e63c 0400 0080
00000210: db9f 923c 0400 0000 af89 f23c 8a64 b8ba
00000220: 0400 0080 5087 cb37 0400 0080 53df 6a3b
00000230: 7ea7 c93c 0400 0080 0e10 6db9 0400 0000
00000240: eefb 433b ea83 ce3c 0400 0000 0154 71b9
00000250: 0400 0080 6186 4d3b 9b52 cd3c 0400 0080
00000260: 259d 27b9 0400 0080 6186 4d3b 9b52 cd3c
00000270: 0400 0080 259d 27b9 6960 d7ba 8ced ea3c
00000280: 6803 e73c 4795 d13c 6803 e73c 8d4f 903c
00000290: 6803 e73c db9f 923c 6803 e73c 5087 cb37
000002a0: 6803 e73c 0e10 6db9 6803 e73c 0154 71b9
000002b0: 6803 e73c 259d 27b9 6803 e73c 259d 27b9
000002c0: 6803 e73c 806a 52ba b155 cb3c 0869 bc3c
000002d0: e5c5 93bd 2802 be3d cb51 aa3f bbf9 2a3b
000002e0: 8b81 b43b 421d e23c bdd7 51be f71a 54be
000002f0: 0000 0000 0000 0000 4301 323d 7809 343d
00000300: 1996 39bb f3ae 30bb 334d 34bd 6a69 fcbb
00000310: 5649 8dbe 6c23 a53a 5fa3 313b 24fd 113c
00000320: 83ec edbd 0c05 f939 2a76 5b3f 116a c7b7
00000330: 79ea 4f3b 8b72 e53c 0400 0080 4110 30bd
00000340: 0400 0080 0400 0000 f9a6 55bc 0400 0080
00000350: 0400 0000 065b 24bd bd53 3bbb 47bd 23bd
00000360: f514 39bd 0400 0080 afa4 8d39 502d fd3a
00000370: 57db 16bd 0400 0080 0400 0000 4110 30bd
00000380: 0400 0080 b6c8 0ebd 0400 0080 0400 0080
00000390: 4110 30bd 0400 0000 dda3 fdbc 0400 0000
000003a0: 746e 0b3b 29c7 38bd 0400 0000 6d45 ccbc
000003b0: 0400 0080 c532 54bb 15cd 22bd 0400 0000
000003c0: ea5e a7bc 0400 0080 4c4e 03bb 5cdb 27bd
000003d0: 0400 0000 51d3 22bc 0400 0000 d861 21bb
000003e0: 24fa 25bd 0400 0000 a3f8 21bc 0400 0080
000003f0: b6d7 1ebb c622 26bd 0400 0080 f899 e5bb

exp_avg_sq f4 [128, 103]
2.362468e-18 0.0011003421 1.0074784e-18 1.9827613e-13 1.040631e-05 1.07086637e-16 1.1790465e-11 0.0002252868
0.0008643503 0.0009676816 0.00016715279 2.0060734e-08 7.1980367e-07 0.000938633 0.0010681681 1.4327447e-16
2.919894e-05 0.0010700065 6.1622403e-13 0.0005847036 5.676447e-17 3.020341e-09 0.0011003382 6.461787e-10
0.000697226 1.4436739e-17 0.0008794389 0.00022066932 6.4543974e-16 6.924262e-05 1.8014552e-24 2.6910615e-07
0.0011013693 2.3115038e-15 0.00034993474 2.8592646e-17 0.0008765915 0.0002247628 3.947938e-16 8.9126515e-06
9.422534e-19 0.0007484389 0.00034277342 1.1410202e-19 9.4167235e-06 6.289796e-18 0.00078805216 0.0003121232
1.8938692e-16 4.478279e-06 6.289796e-18 0.00078805216 0.0003121232 1.8938692e-16 4.478279e-06 0.00016777866
0.0010681681 0.0011003421 0.0005847036 0.0011003417 0.000697226 0.0011003421 6.924262e-05 0.0011003421
0.00034993474 0.0011003421 8.9126515e-06 0.0011003421 9.4167235e-06 0.0011003421 4.478279e-06 0.0011003421
4.478279e-06 0.0011003421 1.040631e-05 0.00022528686 0.0009676816 0.050097335 0.011910184 0.021546634
7.5426385e-07 3.3166285e-05 0.0010663532 0.08163295 0.081600375 0.0 0.0 0.0031256014
0.00302589 0.0010740911 0.0010666377 0.00018798406 0.0010082897 0.08232505 6.665991e-06 0.00038351826
0.00026079902 0.04857437 0.0013431628 0.1389911 5.175185e-09 1.0229269e-05 0.0010898643 2.3400936e-12
0.02873874 2.3881522e-11 3.0774197e-07 0.0027495688 8.72942e-15 6.6117534e-09 0.02254058 0.005478853
0.020657368 0.016906042 6.357537e-07 0.00046467222 0.012348651 0.022771114 3.5742847e-12 9.008037e-05
0.028661879 2.3713696e-07 0.017855167 1.7907383e-12 1.8626324e-07 0.028737165 3.237686e-07 0.015938465
1.03440405e-16 0.0029431614 0.025908172 9.348963e-09 0.008235145 1.1136575e-26 0.0016224097 0.026709933
2.1516841e-10 0.007573224 4.605695e-13 0.0034348278 0.025403207 6.161197e-11 0.0022620088 2.8766303e-14
0.0027382353 0.026056604 2.7012986e-17 0.0022715968 4.602206e-13 0.0027042166 0.02601208 3.2912877e-11
0.0011331743 4.602206e-13 0.0027042166 0.02601208 3.2912877e-11 0.0011331743 0.016787482 0.022771114
0.028738772 0.017855167 0.028738728 0.015938465 0.028739091 0.008235145 0.028739028 0.007573224
0.028739028 0.0022620088 0.028739028 0.0022715968 0.02873902 0.0011331743 0.02873902 0.0011331743
0.028738786 0.0027495688 0.0225406 0.020657368 13.303379 0.3110742 20.498718 3.4188655e-05
0.0003046216 0.028423302 0.85850286 0.8669723 0.0 0.0 0.0280107 0.028053
0.0046996535 0.004784131 0.009039911 0.271836 1.7292074 0.00024156456 0.0031489022 0.007286328
13.665368 0.31836298 12.174009 8.899256e-08 0.0001364595 0.028606715 3.2537226e-08 0.03295968
5.6801364e-10 7.1863354e-07 0.0026639185 9.5660894e-08 4.46003e-09 0.023819333 0.008404053 0.024083594
0.017595714 1.14426e-06 0.000353546 0.014085401 0.026538635 1.8750923e-07 3.7045313e-05 0.032950792
6.047967e-07 0.019786313 2.185004e-07 7.9352145e-07 0.032965567 5.3459416e-07 0.018955471 7.5561096e-10
0.00605588 0.027085558 6.5592694e-08 0.008432348 4.7500815e-14 0.00044896922 0.032211922 2.4073332e-10
0.009331639 1.626893e-09 0.0063178963 0.026758788 2.772683e-09 0.0024119169 2.3143687e-09 0.0050815823
0.028164025 2.3196484e-13 0.002413167 2.049905e-09 0.005145002 0.028443696 3.903344e-07 0.0012071317
00000000: c251 2e22 5b39 903a 75ad 9421 343d 5f2a
00000010: c396 2e37 cbec f624 896b 4f2d f73a 6c39
00000020: 9195 623a 03ac 7d3a bc45 2f39 0552 ac32
00000030: 8838 4135 980e 763a c601 8c3a 292f 2525
00000040: 3ff0 f437 763f 8c3a 9f73 2d2b cb46 193a
00000050: d4e3 8224 678e 4f31 3939 903a c99e 3130
00000060: 0bc6 363a c927 8523 258a 663a 7863 6739
00000070: 0c09 3a26 5936 9138 7f61 0b18 ab79 9034
00000080: d25b 903a b88f 2627 7277 b739 3ddc 0324
00000090: 0fcb 653a 4eae 6b39 4895 e325 8c87 1537
000000a0: 540d 8b21 e232 443a 45b6 b339 38b5 0620
000000b0: 85fc 1d37 720d e822 4995 4e3a 77a4 a339
000000c0: 2759 5a25 2044 9636 720d e822 4995 4e3a
000000d0: 77a4 a339 2759 5a25 2044 9636 beed 2f39
000000e0: c601 8c3a 5b39 903a cb46 193a 5739 903a
000000f0: 0bc6 363a 5b39 903a 5936 9138 5b39 903a
00000100: 7277 b739 5b39 903a 8c87 1537 5b39 903a
00000110: 85fc 1d37 5b39 903a 2044 9636 5b39 903a
00000120: 2044 9636 5b39 903a c396 2e37 fb3a 6c39
00000130: 03ac 7d3a dd32 4d3d ef22 433c 9182 b03c
00000140: 9e78 4a35 071c 0b38 e0c4 8b3a 2d2f a73d
00000150: 191e a73d 0000 0000 0000 0000 e4d6 4c3b
00000160: 034e 463b 84c8 8c3a 6cce 8b3a 961d 4539
00000170: 9728 843a 099a a83d 6dac df36 f312 c939
00000180: dabb 8839 ebf5 463d 110d b03a af53 0e3e
00000190: 69d1 b131 609e 2b37 c7d9 8e3a 61ab 242c
000001a0: 826d eb3c 6810 d22d bc37 a534 1c32 343b
000001b0: 5841 1d28 992d e331 06a7 b83c f387 b33b
000001c0: a439 a93c 8a7e 8a3c a9a8 2a35 409f f339
000001d0: ff51 4a3c 7d8a ba3c 9784 7b2c 88e9 bc38
000001e0: 51cc ea3c b69f 7e34 0045 923c 2606 fc2b
000001f0: a6ff 4734 346a eb3c 6bd2 ad34 6291 823c
00000200: 7084 ee24 0ee2 403b 603d d43c 2d9d 2032
00000210: b4ec 063c 2595 5c14 09a7 d43a cace da3c
00000220: 8694 6c2f cf28 f83b 88a3 012b d91a 613b
00000230: 631a d03c 757c 872e 363e 143b 4a8d 0129
00000240: f773 333b a974 d53c 9c26 f923 12df 143b
00000250: 648a 012b 3a39 313b 4917 d53c 9bc0 102e
00000260: 0587 943a 648a 012b 3a39 313b 4917 d53c
00000270: 9bc0 102e 0587 943a e785 893c 7d8a ba3c
00000280: 936d eb3c 0045 923c 7b6d eb3c 6291 823c
00000290: 3e6e eb3c b4ec 063c 1c6e eb3c cf28 f83b
000002a0: 1c6e eb3c 363e 143b 1c6e eb3c 12df 143b
000002b0: 186e eb3c 0587 943a 186e eb3c 0587 943a
000002c0: 9a6d eb3c 1c32 343b 10a7 b83c a439 a93c
000002d0: a4da 5441 1e45 9f3e 60fd a341 ca65 0f38
000002e0: 9eb5 9f39 fcd7 e83c d8c6 5b3f e6f1 5d3f
000002f0: 0000 0000 0000 0000 b276 e53c 68cf e53c
00000300: 8dff 993b 33c4 9c3b 231c 143c 172e 8b3e
00000310: ab56 dd3f 7e4c 7d39 d05d 4e3b 26c2 ee3b
00000320: 59a5 5a41 7900 a33e bec8 4241 2d1c bf33
00000330: 9116 0f39 a158 ea3c 0fbf 0b33 bb00 073d
00000340: 6822 1c30 1fe8 4035 2395 2e3b 226e cd33
00000350: d73e 9931 c320 c33c 27b1 093c f54a c53c
00000360: e324 903c 7994 9935 245c b939 74c6 663c
00000370: 8d67 d93c 2556 4934 1a61 1b38 69f7 063d
00000380: 5059 2235 e816 a23c ef9c 6a34 6102 5535
00000390: e706 073d 0881 0f35 8148 9b3c 65b3 4f30
000003a0: 6770 c63b 88e2 dd3c f7db 8c33 d527 0a3c
000003b0: b6ec 5529 a163 eb39 a6f0 033d 3458 842f
000003c0: bbe3 183c 3599 df30 5b06 cf3b 3f35 db3c
000003d0: 8e89 3e31 4011 1e3b ce0a 1f31 6783 a63b
000003e0: 3eb8 e63c a895 822a 3926 1e3b 4fde 0c31
000003f0: 6897 a83b c102 e93c 278f d134 9e38 9e3a

exp_avg f4 [128]
0.0037525203 0.028199866 -0.042984255 0.0012089817 -0.020590866 0.018695422 0.006098773 -0.026059136
-0.02963424 -0.00028636208 -0.0016532224 -0.012843199 -0.03303888 -0.007034166 -0.0047218483 0.0026582065
0.022028442 -0.07084072 -0.01143435 0.0042472747 3.4846227e-05 0.010577563 -0.03372858 0.002243652
3.9817137e-06 0.013132584 0.004891391 0.018726919 -0.015468832 0.0013119635 0.13405427 0.00058779545
-0.034508906 0.0015837821 7.7851284e-05 0.0051106424 -0.06443377 0.00038341116 0.0016071041 -0.00021373725
-0.00035894848 -0.00304663 0.0005691955 -0.005048032 -0.018424708 0.029764693 1.2634376e-05 -0.018405719
0.0011573404 -0.0038333754 -0.0055768285 0.011765373 0.0071056155 -0.034078486 0.013216813 -0.022028493
-0.0073081516 0.027042784 0.0026833029 -0.002147349 0.017597932 0.00024951214 0.03665937 -0.06569901
-0.0024952842 -0.00045824912 0.0018001657 0.0003715918 0.011904987 0.017439162 -0.03275309 0.0025258488
0.091379866 -0.0088777505 1.7232504e-05 -0.006566616 0.010560548 -0.034279265 -0.00044641728 0.008042618
0.023154909 0.00025098844 -0.002190409 0.057882253 -0.0026947565 0.0021667657 -0.031670306 0.013892975
7.318967e-05 0.0015999817 -0.00013911915 6.9507034e-05 0.042915937 0.00013050764 0.043475594 -0.0001591583
0.00019435717 -0.032522026 4.411091e-07 0.0013317169 -0.020798342 -0.023530915 0.12733996 0.0011016026
0.084144354 -0.004961728 0.017507857 0.00032038277 -7.011636e-05 -0.004668519 0.011580043 0.002115815
-0.031980183 0.032820076 0.044323158 0.0009489094 -0.014053388 7.670171e-05 -0.0047039343 0.0013012369
0.00014474678 -0.045977734 -0.0012481402 -0.004841663 0.0027947226 -0.0058216807 0.00071820896 -0.0032232085
00000000: d8ec 753b 6803 e73c 4210 30bd b276 9e3a
00000010: 2dae a8bc 2427 993c 37d8 c73b f879 d5bc
00000020: 81c3 f2bc de22 96b9 f0b0 d8ba 486c 52bc
00000030: c753 07bd dc7e e6bb bcb9 9abb 4e35 2e3b
00000040: fe74 b43c f014 91bd 2457 3bbc b92c 8b3b
00000050: da27 1238 844d 2d3c fb26 0abd 3c0a 133b
00000060: a99a 8536 0d2a 573c f647 a03b 3269 993c
00000070: fc70 7dbc 31f6 ab3a 8645 093e 4916 1a3a
00000080: 3659 0dbd e996 cf3a 1744 a338 2d77 a73b
00000090: daf5 83bd 9304 c939 77a5 d23a a81e 60b9
000000a0: 4031 bcb9 f8a9 47bb 1036 153a f669 a5bb
000000b0: 6aef 96bc 16d5 f33c 3bf8 5337 97c7 96bc
000000c0: e6b1 973a 5e39 7bbb d4bd b6bb 8dc3 403c
000000d0: 39d6 e83b e295 0bbd 558b 583c 1975 b4bc
000000e0: 3879 efbb d488 dd3c 5ada 2f3b 8aba 0cbb
000000f0: 8a29 903c f4d0 8239 2328 163d 348d 86bd
00000100: ec87 23bb 2841 f0b9 8af3 eb3a 35d2 c239
00000110: 220d 433c 93dc 8e3c 1b28 06bd b688 253b
00000120: 5e25 bb3d fc73 11bc 858e 9037 c42c d7bb
00000130: 2606 2d3c 6a68 0cbd 1d0d eab9 2fc5 033c
00000140: 5daf bd3c 1997 8339 f78c 0fbb f115 6d3d
00000150: 839a 30bb 4c00 0e3b b9b8 01bd 5c9f 633c
00000160: 687d 9938 7ab6 d13a 83e0 11b9 4ec4 9138
00000170: 9fc8 2f3d e1d8 0839 7713 323d bbe3 26b9
00000180: 5bcc 4b39 d135 05bd 93d1 ec34 018d ae3a
00000190: 4961 aabc e8c3 c0bc 6865 023e a663 903a
000001a0: e053 ac3d fe95 a2bb a36c 8f3c 0cf9 a739
000001b0: 6f0b 93b8 60fa 98bb 38ba 3d3c 7ca9 0a3b
000001c0: a7fd 02bd 586e 063d 338c 353d 3bc0 783a
000001d0: 2e40 66bc ebda a038 7623 9abb 448e aa3a
000001e0: 2bc7 1739 2653 3cbd a398 a3ba d0a6 9ebb
000001f0: aa27 373b ccc3 bebb 3046 3c3a 773c 53bb

exp_avg_sq f4 [128]
0.0011003421 0.02873903 0.032960616 0.010311929 0.021146415 0.04860865 0.007852149 0.015708249
0.041397594 9.245267e-06 0.0018716003 0.013190023 0.038629454 0.0065577384 0.021276444 0.0017000403
0.008219702 0.2012712 0.0010028394 0.002770542 0.00010214007 0.010799587 0.024007324 0.00048035287
2.495434e-08 0.016967457 0.0029463891 0.050839998 0.0018683 0.0025517822 0.1256731 0.0010205879
0.056610316 0.00034404514 3.0428694e-06 0.0070405565 0.027465994 0.0007805718 0.0006247388 0.0070915828
6.322757e-05 0.03599342 0.000105683874 0.020315748 0.0010851708 0.010623234 4.5507546e-05 0.0014982328
0.001645284 0.0033594293 0.031727407 0.112080775 0.0037457228 0.012162071 0.022684766 0.011717453
0.0013025814 0.16688873 0.013532394 0.0064165243 0.09117141 4.05534e-05 0.027384631 0.034861237
0.013803517 1.596869e-05 6.598797e-05 0.00016636992 0.014740352 0.027696293 0.011830346 0.0015026972
0.059459474 0.022107074 7.795698e-06 0.0046571973 0.045383766 0.056339767 2.8950475e-05 0.001026905
0.010627846 3.2695214e-05 0.0033512511 0.015352013 0.0018452349 0.00020796462 0.0072775567 0.007894699
0.00010466465 0.014606515 2.7117496e-05 4.0132254e-05 0.018791396 1.1709446e-05 0.028080646 5.6556477e-05
4.6214205e-05 0.0054119527 2.8305413e-08 0.05046896 0.011120358 0.0028318835 0.11433364 0.0025920104
0.028739186 0.0021337054 0.007861405 0.0020973152 0.002026074 0.0064349486 0.01596376 0.0011859334
0.017680746 0.019625196 0.03562065 0.003254877 0.003897719 5.1254588e-06 0.010788027 0.017537555
3.1269494e-05 0.03336336 0.035136 0.030384775 0.00027250135 0.029038489 0.0028012297 0.002611771
00000000: 5b39 903a 1d6e eb3c b601 073d 5df3 283c
00000010: 3f3b ad3c dd19 473d 4da6 003c 96ae 803c
00000020: 8690 293d 1f1c 1b37 7c50 f53a f71a 583c
00000030: eb39 1e3d 4ce2 d63b f04b ae3c e3d3 de3a
00000040: eeab 063c 0a1a 4e3e b571 833a fb91 353b
00000050: 0834 d638 c0f0 303c 02ab c43c dfd7 fb39
00000060: 2d5b d632 56ff 8a3c 3518 413b 9a3d 503d
00000070: bfe1 f43a cd3b 273b 73b0 003e 3fc5 853a
00000080: 38e0 673d f560 b439 1934 4c36 78b4 e63b
00000090: 5d00 e13c 499f 4c3a 83c5 233a 8260 e83b
000000a0: 0b99 8438 d66d 133d 99a2 dd38 366d a63c
000000b0: 4a3c 8e3a 130d 2e3c 5bdf 3e38 5a60 c43a
000000c0: 92a6 d73a df29 5c3b 99f4 013d 9b8a e53d
000000d0: cd7a 753b 6c43 473c 67d5 b93c 8ffa 3f3c
000000e0: 61bb aa3a e1e4 2a3e f9b6 5d3c b541 d23b
000000f0: 14b8 ba3d e217 2a38 bc55 e03c a8ca 0e3d
00000100: 2628 623c 80f4 8537 0663 8a38 9673 2e39
00000110: 8481 713c 56e3 e23c 11d4 413c 27f6 c43a
00000120: c78b 733d e519 b53c 45ca 0237 679b 983b
00000130: 54e4 393d 87c4 663d acda f237 3799 863a
00000140: 6b20 2e3c 3822 0938 aaa0 5b3b 0287 7b3c
00000150: cfdb f13a 1411 5a39 9278 ee3b c558 013c
00000160: 687f db38 2a50 6f3c 617a e337 ae53 2838
00000170: 6af0 993c b073 4437 6209 e63c 0e37 6d38
00000180: 20d6 4138 c056 b13b 4324 f332 8ab8 4e3d
00000190: 2932 363c 1f97 393b c127 ea3d b8de 293b
000001a0: 716e eb3c a3d5 0b3b 1fcd 003c 1c73 093b
000001b0: e2c7 043b 43dc d23b 6ec6 823c 5271 9b3a
000001c0: 36d7 903c 05c5 a03c f5e6 113d c64f 553b
000001d0: e070 7f3b 5bfb ab36 44c0 303c ebaa 8f3c
000001e0: 5d27 0338 05a8 083d c4ea 0f3d 7ee9 f83c
000001f0: 83de 8e39 20e2 ed3c d694 373b 3f2a 2b3b
