results/DroneAgentBigTrack5/DroneAgent/DroneAgent-4899985.onnx (onnx, 755437 bytes, 10 tensors)

network_body._body_endoder.seq_layers.0.weight f4 [128, 296]
0.092266254 0.041648604 -0.10692254 0.0676342 0.0078350045 -0.101384446 0.007983467 0.05796965
0.102712944 0.07752082 0.08007263 0.041162793 0.056335665 0.09344782 0.0031433678 0.044966143
-0.15950619 0.100624174 0.012208067 -0.06008919 0.005025629 0.04858969 -0.10526379 -0.08476458
0.08830049 -0.06543505 -0.069498405 -0.040172752 0.033444718 0.03468718 0.004532873 0.047738425
0.020335414 -0.02733332 0.029707713 -0.008898598 0.019767333 0.071952105 0.031353552 0.040127914
-0.0727922 0.020896334 0.13185264 -0.06458355 -0.0015195381 -0.031488366 -0.038002655 -0.020291282
-0.031698186 -0.019464888 0.041941624 -0.014712313 0.0055772844 -0.030061578 0.11134236 -0.0068322625
0.040895227 -0.064052545 0.051693268 -0.003019005 -0.09496033 0.0754949 0.0306695 -0.020327285
-0.0344881 0.028771546 0.069196396 -0.03520011 -0.05826753 0.064040765 -0.00060926005 0.040118463
-0.01855729 -0.0350239 0.016204646 -0.03787034 0.079404525 0.03760027 0.036788218 -0.010379392
-0.06992955 -0.008694799 0.00976237 -0.027215254 -0.012460919 0.024040155 0.034045752 -0.13367946
-0.0126987975 -0.09700562 -0.046766065 0.022404764 0.012835301 -0.010388693 -0.06307434 0.044418454
0.03219787 0.13423601 -0.008897597 0.03441988 -0.01458491 -0.11003422 -0.10463568 0.067417465
-0.0716596 0.0644215 0.0029529934 -0.011448057 -0.032585792 0.010507233 0.041799393 0.037802905
-0.0134128025 -0.105825126 0.013717404 -0.06707951 0.004035365 -0.014197554 -0.030283697 -0.029504633
-0.08171715 0.006725505 0.05404001 -0.06547151 0.017532479 0.015752101 -0.03514485 7.4889413e-06
0.03032286 0.019172482 0.11429821 -0.02626648 0.11505728 0.064836085 -0.07979692 -0.07531329
-0.01147909 -0.054865245 -0.017265478 0.13215359 -0.0035737553 -0.074328884 0.017938491 -0.04174451
0.026619155 0.07574154 -0.0091939615 0.0050893575 -0.040079173 -0.09009941 -0.08071001 0.0051077087
-0.0007778349 -0.022029633 -0.01687074 0.0622459 -0.049999382 0.103259265 0.029828446 0.058120422
-0.06611296 -0.058812246 0.015369277 0.037625026 -0.024990171 -0.078140326 0.0099695455 -0.040199846
0.07129895 -0.031438734 0.052114192 0.08369954 0.06201544 -0.07890398 0.019734845 0.106004715
-0.060015988 0.067755036 0.0067150462 0.12514657 0.067081645 0.1240351 0.062880084 -0.016786197
-0.14948298 -0.058744222 0.06177833 -0.06824265 0.014213555 0.022757987 0.10620897 -0.05872142
0.08450709 3.6706806e-05 0.04592819 0.09952366 0.03893341 -0.0005367671 -0.015837623 -0.015852349
0.044068363 0.044978205 -0.05951772 -0.09955413 -0.1179987 -0.011015402 -0.040113572 0.001919396
-0.073253095 -0.043225255 -0.07363831 -0.055170365 -0.06851072 -0.0490337 0.109697446 0.05012924
-0.04456808 -0.0457366 0.02213529 -0.04728508 -0.0918716 0.07391122 0.013024583 -0.00918233
0.067170694 0.023019774 -0.026292982 0.012103515 -0.065978296 0.054070167 -0.052100506 0.047130443
0.0010128703 -0.038708314 -0.029465377 -0.046999495 0.029401379 0.019312015 0.027563186 -0.027902877
0.079489805 -0.021120653 -0.081964254 -0.047299795 -0.005013131 0.06506517 -0.014641365 0.0077374745
-0.012939326 0.0407596 -0.019586885 -0.013937267 0.06780024 0.014281786 0.0630284 -0.06283609
00000000: 17f6 bc3d ba97 2a3d 34fa dabd cd83 8a3d
00000010: 645e 003c a6a2 cfbd 16cd 023c 9571 6d3d
00000020: 2a5b d23d 3cc3 9e3d 1efd a33d 519a 283d
00000030: 3ac0 663d 9261 bf3d f600 4e3b 6b2e 383d
00000040: 9755 23be 0c14 ce3d 5804 483c 1520 76bd
00000050: 08ae a43b fc05 473d 8b94 d7bd 0d99 adbd
00000060: e3d6 b43d d002 86bd 2e55 8ebd 2f8c 24bd
00000070: 54fd 083d 2514 0e3d 7f88 943b 5e89 433d
00000080: 7496 a63c 20ea dfbc 975d f33c 6dcb 11bc
00000090: 1aef a13c a05b 933d 956c 003d 2b5d 243d
000000a0: 1414 95bd ca2e ab3c 6104 073e 6144 84bd
000000b0: 3d2b c7ba f2f9 00bd aca8 1bbd e739 a6bc
000000c0: f5d5 01bd d474 9fbc fbca 2b3d ea0b 71bc
000000d0: a7c1 b63b b343 f6bc 7707 e43d 2ce1 dfbb
000000e0: c181 273d fb2d 83bd 52bc 533d 80da 45bb
000000f0: 907a c2bd 129d 9a3d 9a3e fb3c 6885 a6bc
00000100: 6543 0dbd 4eb2 eb3c d7b6 8d3d fe2d 10bd
00000110: efa9 6ebd ce27 833d c0b6 1fba 4253 243d
00000120: 7505 98bc 3975 0fbd 9bbf 843c ee1d 1bbd
00000130: d79e a23d be02 1a3d 3eaf 163d 530e 2abc
00000140: 3937 8fbd a174 0ebc 59f2 1f3c 86f2 debc
00000150: e228 4cbc dcef c43c 8f73 0b3d 45e3 08be
00000160: 9e0e 50bc e2aa c6bd c68d 3fbd 328a b73c
00000170: 284b 523c 5635 2abc 1f2d 81bd 20f0 353d
00000180: eae1 033d 2a75 093e 3ac7 11bc dcfb 0c3d
00000190: 8cf5 6ebc 9f59 e1bd 3b4b d6bd 2b12 8a3d
000001a0: 45c2 92bd 6bef 833d 0287 413b a290 3bbc
000001b0: ae78 05bd 8826 2c3c d735 2b3d 38d7 1a3d
000001c0: 5fc1 5bbc d8ba d8bd f6be 603c fb60 89bd
000001d0: 183b 843b dc9c 68bc 8415 f8bc b3b3 f1bc
000001e0: 525b a7bd a061 dc3b 0f59 5d3d ed15 86bd
000001f0: 46a0 8f3c 8d0a 813c 0cf4 0fbd 8449 fb36
00000200: a667 f83c 9c0f 9d3c 2e15 ea3d cd2c d7bc
00000210: 27a3 eb3d c8c8 843d 916c a3bd db3d 9abd
00000220: cb12 3cbc 61ba 60bd 5570 8dbc 4553 073e
00000230: aa35 6abb be39 98bd bef3 923c 4bfc 2abd
00000240: 6a10 da3c 611e 9b3d 45a2 16bc a0c4 a63b
00000250: 0f2a 24bd 0a86 b8bd 4a4b a5bd 915e a73b
00000260: 9ee7 4bba 7d77 b4bc 8234 8abc 8ff5 7e3d
00000270: 27cc 4cbd 9879 d33d c95a f43c ae0f 6e3d
00000280: 3b66 87bd 1ce5 70bd 6ccf 7b3c b31c 1a3d
00000290: 30b8 ccbc 0908 a0bd 4e57 233c 98a8 24bd
000002a0: 2f05 923d e7c5 00bd b175 553d aa6a ab3d
000002b0: e703 7e3d 6998 a1bd f8aa a13c 0019 d93d
000002c0: 53d3 75bd 27c3 8a3d e409 dc3b 6c26 003e
000002d0: 1a62 893d 1d06 fe3d 46c7 803d 3583 89bc
000002e0: 1112 19be c89d 70bd 460b 7d3d cdc2 8bbd
000002f0: f8df 683c f56e ba3c 1784 d93d df85 70bd
00000300: 0e12 ad3d a2f5 1938 331f 3c3d 10d3 cb3d
00000310: a478 1f3d d5b5 0cba e7bd 81bc c9dc 81bc
00000320: 0781 343d 113b 383d dac8 73bd 09e3 cbbd
00000330: 4da9 f1bd f279 34bc 214e 24bd 3e94 fb3a
00000340: b805 96bd f70c 31bd afcf 96bd 52fa 61bd
00000350: 594f 8cbd 90d7 48bd 0ea9 e03d 5154 4d3d
00000360: 058d 36bd 4d56 3bbd 1155 b53c 00ae 41bd
00000370: 2d27 bcbd c45e 973d 1065 553c 7c71 16bc
00000380: ca90 893d f793 bc3c 6164 d7bc d24d 463c
00000390: a11f 87bd ae78 5d3d 5767 55bd da0b 413d
000003a0: 4ac2 843a 9c8c 1ebd 6061 f1bc 8b82 40bd
000003b0: 29db f03c 3b34 9e3c 31cc e13c 9394 e4bc
000003c0: 8dcb a23d 3805 adbc e0dc a7bd 6ebd 41bd
000003d0: 3145 a4bb e340 853d 56e2 6fbc a48a fd3b
000003e0: 78ff 53bc 8af3 263d ad74 a0bc 2259 64bc
000003f0: dada 8a3d 27fe 693c 0915 813d 35b0 80bd

network_body._body_endoder.seq_layers.0.bias f4 [128]
0.0046825907 0.004535584 0.01080364 -0.00035981377 0.0030640126 0.008483076 0.007589639 0.0031070856
-0.003970384 -0.0065552965 0.0016489815 -0.0066218623 -0.0045126714 -0.0013394742 -0.00193712 0.0036789917
0.010755493 0.0024322884 0.0073541594 -0.0006691113 0.0045600655 -0.0009916039 0.002960004 -0.0014266741
-0.003958342 -0.003349316 1.1751002e-05 -0.00088159804 -0.0058806515 -0.0025527645 0.0014977339 -0.0034905672
0.0019516654 0.008388842 -0.0008732918 0.0034584345 0.0023006992 0.0034455047 0.001704623 0.0023382136
0.004292184 0.0007029526 -0.0021950414 0.0041908305 0.0017326068 0.0004883368 -0.001345127 -0.0017393498
0.0011388932 0.00670743 -0.007847674 -0.0009776709 0.009358479 -0.0010331406 0.0067025637 -0.0030047463
-0.001904101 -4.7958525e-05 -0.0049246727 -0.0077854474 -0.0010310701 0.012607148 0.0016715107 -0.00026031974
0.004591053 -0.007504486 -0.008512157 0.00069909584 -0.00043863058 0.0040156427 -0.0009652993 -0.00029158156
0.0010394685 0.0064996765 -0.00038303764 -0.009604512 0.0037191163 -0.0024289505 0.0015919814 0.00056326477
0.0021973671 0.0043907897 -0.003938425 0.00933272 -0.0008824088 -0.004083627 0.0012608059 0.0028310632
0.0032307634 -0.0048003835 0.0057379375 0.0078092897 0.0013894741 0.0009253402 -0.00709731 0.0043457965
0.002553624 0.00089752284 0.004852239 -0.0005338436 0.004725047 -0.0021402491 -0.0046074362 -0.0039428636
0.0037883967 0.006445084 0.0050857067 0.00069086393 0.009744139 0.010695573 0.003680682 -0.002842266
-0.00013918607 -0.0012884047 0.003026306 0.00425368 0.010172155 -0.0020395857 -0.001984364 0.0074239387
0.0033555648 -0.0016725382 0.00083096063 -0.006686299 0.0023099917 8.627761e-05 0.010735544 0.0026969872
00000000: 6b70 993b 3c9f 943b c001 313c 63a5 bcb9
00000010: 9acd 483b 99fc 0a3c 82b2 f83b 3fa0 4b3b
00000020: ff19 82bb d0cd d6bb a322 d83a 35fc d8bb
00000030: 08df 93bb 4c91 afba f6e6 fdba 3d1b 713b
00000040: cf37 303c 0767 1f3b 29fb f03b 4d67 2fba
00000050: 9a6c 953b b5f8 81ba a0fc 413b 3dff baba
00000060: fbb4 81bb 3380 5bbb 2b26 4537 0b1b 67ba
00000070: 7bb2 c0bb 484c 27bb 9c4f c43a 00c2 64bb
00000080: 06cf ff3a 5b71 093c 9fed 64ba e7a6 623b
00000090: 54c7 163b facd 613b a86d df3a b73c 193b
000000a0: 73a5 8c3b 5a46 383a afda 0fbb 3c53 893b
000000b0: a318 e33a ba03 003a f94e b0ba e5fa e3ba
000000c0: ea46 953a 00ca db3b 8893 00bc 3125 80ba
000000d0: 4e54 193c 726a 87ba 2ea1 db3b 47eb 44bb
000000e0: 0793 f9ba 1327 49b8 265f a1bb 111d ffbb
000000f0: f924 87ba 368e 4e3c 9816 db3a 867b 88b9
00000100: 8b70 963b 31e8 f5bb 9376 0bbc 8743 373a
00000110: 00f8 e5b9 a795 833b 240c 7dba 6adf 98b9
00000120: c63e 883a 3dfb d43b 71d2 c8b9 3e5c 1dbc
00000130: 6bbc 733b 072f 1fbb 08aa d03a 0fa8 133a
00000140: b401 103b 9de0 8f3b e70d 81bb 44e8 183c
00000150: 7451 67ba f2cf 85bb a041 a53a 5c89 393b
00000160: 37bb 533b 894c 9dbb 4f05 bc3b 12e5 ff3b
00000170: 041f b63a 8892 723a 8d90 e8bb 2f67 8e3b
00000180: b45a 273b bd47 6b3a 88ff 9e3b a3f1 0bba
00000190: 91d4 9a3b 6c43 0cbb faf9 96bb 2333 81bb
000001a0: c046 783b 4831 d33b 00a6 a63b 181b 353a
000001b0: e2a5 1f3c 7c3c 2f3c 9937 713b 5045 3abb
000001c0: 7af2 11b9 b0df a8ba fd54 463b 7462 8b3b
000001d0: 1ca9 263c 92aa 05bb 1a0c 02bb 8344 f33b
000001e0: 09e9 5b3b 1239 dbba d3d4 593a be18 dbbb
000001f0: 3b63 173b f0ef b438 23e4 2f3c f0bf 303b

network_body._body_endoder.seq_layers.2.weight f4 [128, 128]
-0.086120166 -0.111277595 0.0027929104 -0.0128705315 -0.107608005 0.29429543 -0.06502072 -0.024010668
0.13541766 -0.011350487 -0.12435795 -0.1742926 0.057466168 -0.04851468 -0.0043063937 0.07746798
0.11711882 -0.012790697 -0.05954069 0.08971863 -0.082140885 0.07858987 0.07752181 0.028248696
-0.12919423 -0.021075102 -0.05460028 -0.110697374 -0.085125595 0.22414427 0.02188275 -0.080661826
-0.08518863 0.05061498 0.08157979 -0.106309 -0.008378235 -0.17977999 -0.03683176 -0.105949275
-0.09601755 0.048844617 -0.02845094 0.2073977 0.008434023 -0.008864109 0.040701084 -0.0018101227
-0.01695694 0.025034174 -0.00790598 -0.11212394 0.019075295 0.059445146 0.07980933 0.008128681
0.23297638 -0.002401269 0.036696546 -0.12520258 -0.07608821 -0.03299417 0.00419193 0.032778624
-0.06534387 0.059555285 0.13466808 -0.03415607 -0.10021542 0.012714171 -0.029356996 -0.019390833
0.087701276 -0.07359734 -0.11213953 0.08263267 -0.11440418 0.0036126026 -0.048683085 -0.0028608232
0.17359655 0.01534219 -0.1411525 -0.032681473 -0.04532208 -0.15223561 0.07001075 0.117176145
-0.032906376 -0.13443077 -0.040474188 -0.007773481 -0.107605875 0.040704455 -0.042472932 -0.14532341
-0.083487585 0.030447679 0.03076559 0.20326512 0.093192354 0.14672299 -0.13813487 0.11054371
-0.085491754 0.033329915 0.029499244 -0.09668777 -0.16014756 0.1353673 0.12673768 0.06498365
0.05707728 -0.03158439 -0.032859925 -0.069228165 0.05905181 0.06341372 -0.0002176093 -0.03061678
-0.09903165 0.06654027 0.03892778 -0.09190352 -0.058163762 -0.0047807833 0.08686813 0.004065847
0.010889659 -0.15166172 0.0034030955 0.071849495 -0.07248631 -0.095691405 0.011343012 0.18557933
-0.14762942 0.07697555 -0.039512884 -0.06197942 0.1918958 -0.033529427 0.016980127 0.12619157
-0.026600558 0.007855239 0.07359025 -0.009299486 -0.028062586 0.05164676 0.127054 0.059491243
0.12425612 -0.018834136 -0.031996246 0.12237634 0.013814814 0.05507373 -0.067031436 0.07204544
-0.07213635 0.14164837 0.05793336 -0.038478922 0.08911371 -0.0020066528 -0.015284959 -0.051881872
-0.06692026 -0.0011898495 0.11843137 -0.091705896 -0.04747856 -0.095277555 0.10225092 0.22309516
-0.17002709 -0.046688695 0.00038583644 -0.030482361 -0.03233242 0.0076468927 0.106852636 -0.035692412
-0.1702697 0.18310007 0.10014874 -0.13689466 -0.14243002 -0.032840952 -0.06943121 -0.10482721
0.10015763 -0.015844088 0.03918603 0.1332651 0.07528654 0.11056768 0.07222216 -0.05280883
-0.02343484 0.057556015 0.0589411 -0.084125586 0.10395412 -0.041427948 0.12509152 -0.03635507
-0.05345409 -0.13290446 0.02831058 -0.0883831 -0.031390574 0.03593679 -0.08004138 -0.12046534
0.17111465 0.026606964 0.08224366 0.076296836 0.014539512 -0.032933824 -0.058129866 -0.05595976
0.046011772 -0.03412781 0.05968064 0.06077127 0.011793751 0.06741105 -0.012245723 0.060820416
-0.117305376 0.06515665 0.011387985 0.044893302 0.05264638 0.049724948 -0.1458136 -0.021108042
-0.021963013 0.08250766 -0.046600413 -0.029130202 -0.005026522 -0.07569396 0.0070611406 -0.0295951
0.1240676 -0.07251982 0.16817065 -0.038934108 0.024277 0.17225394 0.005461795 -0.23215301
00000000: c55f b0bd 82e5 e3bd 4309 373b ecde 52bc
00000010: 9661 dcbd e4ad 963e 9529 85bd 05b2 c4bc
00000020: edaa 0a3e 65f7 39bc 62af febd c279 32be
00000030: a561 6b3d 54b7 46bd a61c 8dbb 88a7 9e3d
00000040: fedb ef3d 1290 51bc f0e0 73bd 67be b73d
00000050: 7b39 a8bd baf3 a03d c1c3 9e3d cf69 e73c
00000060: 7e4b 04be b1a5 acbc 8ba4 5fbd 4eb5 e2bd
00000070: 5456 aebd 1386 653e 7443 b33c 0732 a5bd
00000080: 6077 aebd a751 4f3d 4e13 a73d 88b8 d9bd
00000090: dd44 09bc 3f18 38be e6dc 16bd effb d8bd
000000a0: d9a4 c4bd 4b11 483d f211 e9bc 1060 543e
000000b0: db2e 0a3c c53a 11bc 2eb6 263d a441 edba
000000c0: 48e9 8abc 7814 cd3c 1588 01bc 3ca1 e5bd
000000d0: cb43 9c3c c17c 733d 1373 a33d 292e 053c
000000e0: 5c91 6e3e 9c5e 1dbb 1e4f 163d 1b35 00be
000000f0: 23d4 9bbd e524 07bd 755c 893b e142 063d
00000100: 02d3 85bd 3ef0 733d 6ee6 093e 3ce7 0bbd
00000110: be3d cdbd 194f 503c 157e f0bc 86d9 9ebc
00000120: ba9c b33d 34ba 96bd 69a9 e5bd 513b a93d
00000130: bd4c eabd 6ac1 6c3b ea67 47bd a67c 3bbb
00000140: 4bc3 313e cf5d 7b3c 488a 10be 02dd 05bd
00000150: a5a3 39bd a7e3 1bbe cc61 8f3d 0cfa ef3d
00000160: d6c8 06bd 38a8 09be 43c8 25bd afb8 febb
00000170: 7860 dcbd b7b9 263d 19f8 2dbd a9cf 14be
00000180: 8afb aabd 696d f93c 1e08 fc3c bb24 503e
00000190: a2db be3d 8d3e 163e 3a73 0dbe be64 e23d
000001a0: 4d16 afbd f384 083d 66a8 f13c 3d04 c6bd
000001b0: b9fd 23be ba9d 0a3e 86c7 013e 2616 853d
000001c0: dec9 693d a25e 01bd 2198 06bd 7fc7 8dbd
000001d0: 50e0 713d 0ddf 813d 0d2e 64b9 0bd0 fabc
000001e0: 1bd1 cabd 4446 883d bc72 1f3d ea37 bcbd
000001f0: 203d 6ebd 1ea8 9cbb ebe7 b13d cc3a 853b
00000200: 8a6a 323c 364d 1bbe 7806 5f3b d425 933d
00000210: b473 94bd dbf9 c3bd 0ad8 393c 8208 3e3e
00000220: 2b2c 17be 5ba5 9d3d 43d8 21bd 22de 7dbd
00000230: 5580 443e 2756 09bd e819 8b3c 5d38 013e
00000240: 6ae9 d9bc 43b3 003c 7cb6 963d df5c 18bc
00000250: 82e3 e5bc 8e8b 533d 721a 023e 17ad 733d
00000260: fe79 fe3d 0c4a 9abc 7f0e 03bd 72a0 fa3d
00000270: 8857 623c fe94 613d c747 89bd 8f8c 933d
00000280: 39bc 93bd 450c 113e 884b 6d3d 139c 1dbd
00000290: 4081 b63d 0c82 03bb c46d 7abc 1682 54bd
000002a0: 7d0d 89bd b9f4 9bba 258c f23d 4dd0 bbbd
000002b0: e178 42bd e120 c3bd ee68 d13d 0f73 643e
000002c0: 951b 2ebe a53c 3fbd 174a ca39 25b6 f9bc
000002d0: 006f 04bd c992 fa3b 8ed5 da3d 3532 12bd
000002e0: 2e5b 2ebe 967e 3b3e c81a cd3d 1d2e 0cbe
000002f0: 2dd9 11be 3c84 06bd f331 8ebd a6af d6bd
00000300: 721f cd3d 76cb 81bc 8881 203d a576 083e
00000310: d42f 9a3d 4f71 e23d 36e9 933d 124e 58bd
00000320: 6cfa bfbc dbbf 6b3d 396c 713d 094a acbd
00000330: e6e5 d43d 5ab0 29bd fe17 003e 0ee9 14bd
00000340: adf2 5abd 1b18 08be 97eb e73c 3302 b5bd
00000350: 6793 00bd 7532 133d bcec a3bd 88b6 f6bd
00000360: ae38 2f3e d9f6 d93c 5d6f a83d 8441 9c3d
00000370: 2237 6e3c 9ee5 06bd 9519 6ebd 1036 65bd
00000380: d776 3c3d 9ac9 0bbd b073 743d 4ceb 783d
00000390: 943a 413c ce0e 8a3d 49a2 48bc d41e 793d
000003a0: cd3d f0bd da70 853d ac94 3a3c 0ae2 373d
000003b0: bba3 573d 63ac 4b3d 2950 15be c6ea acbc
000003c0: c7eb b3bc c7f9 a83d 13e0 3ebd 76a2 eebc
000003d0: 86b5 a4bb 6f05 9bbd 2461 e73b 6c71 f2bc
000003e0: 2717 fe3d 4585 94bd ed34 2c3e 5f79 1fbd
000003f0: 8fe0 c63c 5663 303e dbf8 b23b 85b9 6dbe

network_body._body_endoder.seq_layers.2.bias f4 [128]
0.0002767502 -0.0035424975 0.008471966 -0.00018078859 0.0013407298 -0.004874833 0.0054720757 0.0020552562
0.0033775945 0.00012291523 -0.0059663313 -0.0011524252 0.0021813847 0.00216253 0.004901189 -0.0025303161
-0.0037581052 0.008663835 0.008131851 -0.00574534 -0.0015301983 0.00064493605 0.0066806986 0.0017727559
0.0076889596 -0.0064775194 2.3464601e-05 -0.0053306133 0.00041568803 0.0040087467 -0.0041287825 0.0015773665
0.0045677614 -0.0017863916 0.00021917801 0.0073494706 0.0041207066 0.012754511 0.00641024 0.007691454
-0.0075495983 0.0022126534 0.0025534583 0.007905838 0.0015633787 -0.0027356262 0.0034356317 0.003448432
0.002950431 0.0060706725 -0.00056839304 -0.00031584135 0.0058776527 0.0047801286 0.0028717462 -0.004858089
-0.00039412873 0.003067975 0.0025715095 0.0070034997 0.0026256219 0.012034336 -0.0017715162 0.00045407066
0.0015491442 0.0048537366 0.011627636 -0.00035353668 0.0014883308 0.00019140329 0.0057337526 0.0023236084
0.005861486 0.0030590335 0.0038269158 -0.0008111511 0.00055360625 0.009182096 -0.011040234 0.004359687
0.0004980011 -0.0035966726 0.004607898 0.000101412676 -0.0039492897 0.0021211568 -0.007003817 -0.008959839
0.0017796125 -0.0032233826 -0.006967196 0.0077129668 0.005838659 0.0012497954 -0.0019312114 0.0058539133
0.00086453074 -0.008306532 0.0033107272 -0.003795346 0.0049152686 0.0006751444 0.0014912045 0.00900537
0.010541824 0.0050305817 0.0008078924 0.005773785 -0.007435628 0.0059641954 0.013181258 0.0042734416
0.0024930108 -0.003586246 -0.0008733729 0.003116242 0.004965955 -0.0025717288 -0.0013685178 0.00025334753
0.00046789044 -0.0053176056 -0.009648132 0.0023189888 0.011454804 0.0005796333 -0.006761081 0.0074464227
00000000: c818 9139 3f29 68bb 00ce 0a3c 1192 3db9
00000010: 6dbb af3a 10bd 9fbb 194f b33b 7ab1 063b
00000020: a25a 5d3b cee2 0039 3781 c3bb f90c 97ba
00000030: 90f5 0e3b 3cb9 0d3b 279a a03b a9d3 25bb
00000040: 8b4a 76bb c2f2 0d3c 753b 053c 6843 bcbb
00000050: ef90 c8ba ed10 293a c3e9 da3b d15b e83a
00000060: abf3 fb3b 5f41 d4bb d9d5 c437 6dac aebb
00000070: b4f0 d939 ce5b 833b bd4a 87bb a3bf ce3a
00000080: 29ad 953b 5b25 eaba 26d3 6539 d4d3 f03b
00000090: fe06 873b 4cf8 503c fe0c d23b 9808 fc3b
000000a0: 9f62 f7bb 2a02 113b ec57 273b 7d87 013c
000000b0: 49ea cc3a 3148 33bb 5628 613b 17ff 613b
000000c0: 055c 413b 7eec c63b 3600 15ba 8297 a5b9
000000d0: 5399 c03b a0a2 9c3b e833 3c3b 9b30 9fbb
000000e0: 10a3 ceb9 1410 493b c586 283b 9d7d e53b
000000f0: a012 2c3b aa2b 453c 3832 e8ba 5510 ee39
00000100: a70c cb3a 180c 9f3b d781 3e3c e45a b9b9
00000110: 1814 c33a 6eb3 4839 34e2 bb3b ae47 183b
00000120: b511 c03b 117a 483b fecc 7a3b 6ea3 54ba
00000130: e31f 113a 8170 163c 19e2 34bc b5db 8e3b
00000140: 4a8c 023a 27b6 6bbb dafd 963b 84ad d438
00000150: 0b69 81bb 1b03 0b3b 4680 e5bb 4acc 12bc
00000160: e341 e93a 633f 53bb 134d e4bb 0ebd fc3b
00000170: 3952 bf3b 2dd0 a33a b420 fdba 2fd2 bf3b
00000180: ada1 623a 1f18 08bc c9f8 583b 57bb 78bb
00000190: 4310 a13b 2cfc 303a 8574 c33a 428b 133c
000001a0: 9db7 2c3c 94d7 a43b bec8 533a 0532 bd3b
000001b0: 92a6 f3bb 4c6f c33b 34f6 573c 3a08 8c3b
000001c0: c861 233b 3907 6bbb 10f3 64ba dd39 4c3b
000001d0: 73b9 a23b 738a 28bb d65f b3ba bbd3 8439
000001e0: 314f f539 4f3f aebb 3313 1ebc 2dfa 173b
000001f0: eeac 3b3c 88f2 173a 0f8c ddbb 1f01 f43b

action_model._continuous_distribution.log_sigma f4 [1, 4]
0.036302146 0.075885065 0.05992948 0.07585098
00000000: 8fb1 143d a169 9b3d 9d78 753d c257 9b3d

action_model._continuous_distribution.mu.weight f4 [4, 128]
0.006376162 0.06181914 0.059355803 0.07541219 0.0042130416 -0.12472743 0.06347468 -0.0500546
-0.0627806 0.058210365 -0.06449902 -0.059275847 0.061400913 0.047913887 0.03369231 -0.04606524
-0.06571313 0.05990694 0.032675892 0.056447282 -0.026445555 -0.080722086 0.031503346 -0.091103
0.08280602 -0.069426514 -0.06475103 -0.06819686 -0.10098065 0.051814787 0.07805281 0.12192223
-0.06570256 0.042057946 0.044376314 -0.106655754 -0.03415072 0.047722995 -0.0074238637 -0.0055954573
-0.044812158 0.031824984 -0.057909776 -0.057388816 0.04582214 -0.04558256 -0.05508309 0.0731946
0.066672586 0.0044183196 0.06935638 0.054150384 0.06638102 0.096215844 0.01809538 -0.075497545
-0.0033095132 0.0976408 -0.045790676 0.08977812 -0.06743521 0.037802152 -0.09868097 -0.057182126
-0.029048037 0.060189683 -0.055493433 0.05820947 -0.064767934 0.0637198 0.07036271 0.07846685
-0.10636085 -0.022561256 0.07836804 0.079712324 -0.06394082 -0.11687903 0.012787544 -0.08102143
0.08745809 0.07528467 -0.09276588 -0.017364815 -0.062153824 0.080108404 -0.093410455 -0.011422465
0.060480114 -0.017508738 -0.066215366 0.08733651 -0.051266268 0.104589574 -0.043077514 0.021049043
-0.017762698 0.076278284 -0.09044309 -0.042642765 0.06834471 -0.046522986 0.043333422 -0.051721364
0.005077131 -0.075924955 0.040982693 -0.07537241 -0.05433177 0.03194405 -0.067218944 0.012455599
0.067114 -0.06909876 -0.06570597 0.084123015 0.06936029 0.017158065 0.034164105 0.07765998
0.06111312 -0.074120164 0.00017066144 0.080686085 0.028915683 0.065702274 0.024856647 0.086451806
0.0046219532 0.021117043 0.030871915 0.0031309212 0.005198008 0.0048054117 0.01604203 -0.0023782118
-0.013729456 -0.014856915 -0.019109014 0.012956365 0.013244549 -0.004608929 -0.0069490946 0.0051299618
-0.017285988 -0.033597 0.002709204 0.0063784956 0.020581458 0.0029885916 -0.006927404 0.010484186
0.0002453122 -0.0012192554 -7.357568e-05 0.007812904 0.0054275333 0.027846022 -0.02955312 -0.0657887
-0.018371578 -0.005747862 -0.007034881 -0.029560175 -0.031202212 0.01970443 -0.023917217 -0.014299168
-0.0075742714 -0.0050688023 0.057775877 -0.009813693 0.013816802 -0.022772731 -0.008699102 -0.022288669
0.0015161221 -0.011255893 -0.023093605 -0.01391928 0.00027617067 0.02947298 0.008950585 0.014922447
-0.05018716 0.00043058235 -0.023405457 -0.0009866667 -0.012709176 0.018694833 -0.011956397 0.028308334
-0.036333613 -0.0129831815 0.011971744 -0.016616987 -0.005564649 0.007024565 -0.015427735 0.011805916
0.0043008816 -0.011782301 -0.023059098 -0.022531116 -0.0030127729 -0.0077981995 0.02698575 -0.029606879
-0.010499057 0.0025153335 0.014172489 0.0010528006 0.0041181906 0.005230403 0.005866505 -0.011636919
0.012136187 0.008806959 0.020257792 0.0055160844 -0.0038516496 0.0043306826 -0.015776567 -0.010898275
-0.002900233 0.003643593 -0.0030230123 0.038442872 0.0041071065 -0.027299654 0.030443976 0.00037849584
-0.0055918787 0.00418501 0.017692285 0.0002567588 -0.0014695193 -0.014367618 -0.028498758 0.02584604
-0.0018388127 -0.020589827 0.058083028 -0.0058026 -0.0153470915 0.04299752 0.03900373 0.017918736
-0.033817414 0.0015096882 0.021745877 0.013131163 0.0070674894 0.02491319 -0.024422327 -0.0015837725
00000000: 20ef d03b 1136 7d3d 121f 733d b571 9a3d
00000010: 8e0d 8a3b 1871 ffbd 03ff 813d 0d06 4dbd
00000020: 1d93 80bd fe6d 6e3d 1018 84bd 3bcb 72bd
00000030: 867f 7b3d 5a41 443d f300 0a3d e8ae 3cbd
00000040: 9b94 86bd fb60 753d 28d7 053d 4435 673d
00000050: 59a4 d8bc 9f51 a5bd a709 013d 3694 babd
00000060: 3496 a93d 7d2f 8ebd 309c 84bd ccaa 8bbd
00000070: f1ce cebd be3b 543d 27da 9f3d 5db2 f93d
00000080: 108f 86bd f444 2c3d f0c3 353d 556e dabd
00000090: a0e1 0bbd 3079 433d e243 f3bb 195a b7bb
000000a0: f48c 37bd ea5a 023d cd32 6dbd 8910 6bbd
000000b0: ffaf 3b3d c7b4 3abd ce9e 61bd 0de7 953d
000000c0: a38b 883d 8dc7 903b b80a 8e3d cbcc 5d3d
000000d0: c6f2 873d d00c c53d c33c 943c 759e 9abd
000000e0: 6be4 58bb e6f7 c73d 018f 3bbd 97dd b73d
000000f0: 791b 8abd 6ed6 1a3d 4019 cabd ce37 6abd
00000100: 26f6 edbc 7589 763d 154d 63bd 0e6d 6e3d
00000110: 0da5 84bd 877f 823d 531a 903d 3ab3 a03d
00000120: b8d3 d9bd 62d2 b8bc 6c7f a03d 3740 a33d
00000130: 68f3 82bd 465e efbd d982 513c 90ee a5bd
00000140: 3a1d b33d d92e 9a3d 0afc bdbd a840 8ebc
00000150: 0295 7ebd e00f a43d fb4d bfbd 4a25 3bbc
00000160: ffb9 773d 7c6e 8fbc ec9b 87bd 7cdd b23d
00000170: 94fc 51bd 0f33 d63d 0c72 30bd 0b6f ac3c
00000180: 1483 91bc ca37 9c3d 3a3a b9bd 2eaa 2ebd
00000190: 50f8 8b3d e38e 3ebd 637e 313d c8d9 53bd
000001a0: 105e a63b 8b7e 9bbd 78dd 273d da5c 9abd
000001b0: fd8a 5ebd c4d7 023d 16aa 89bd 9212 4c3c
000001c0: 1173 893d a783 8dbd da90 86bd b048 ac3d
000001d0: c50c 8e3d 128f 8c3c a9ef 0b3d 320c 9f3d
000001e0: c051 7a3d 50cc 97bd 95f3 3239 bf3e a53d
000001f0: 95e0 ec3c ea8e 863d 2ba0 cb3c a50d b13d
00000200: c173 973b a6fd ac3c 19e7 fc3c 2430 4d3b
00000210: 0d54 aa3b b776 9d3b 936a 833c c6db 1bbb
00000220: 83f1 60bc 6b6a 73bc 828a 9cbc ef46 543c
00000230: aaff 583c 8006 97bb 3bb5 e3bb 3d19 a83b
00000240: 589b 8dbc 029d 09bd e78c 313b b302 d13b
00000250: 729a a83c 3fdc 433b 47ff e2bb ddc5 2b3c
00000260: 3f9d 8039 6ccf 9fba a44c 9ab8 b201 003c
00000270: 73d9 b13b 571d e43c 6219 f2bc 3abc 86bd
00000280: fe7f 96bc 9058 bcbb dc84 e6bb 2e28 f2bc
00000290: c89b ffbc 2f6b a13c 0aee c3bc 0f47 6abc
000002a0: 9831 f8bb 3218 a6bb 66a6 6c3d 9dc9 20bc
000002b0: de5f 623c e18d babc ae86 0ebc ba96 b6bc
000002c0: 9eb8 c63a a36a 38bc cd2e bdbc b10d 64bc
000002d0: 00cb 9039 5271 f13c 79a5 123c 477d 743c
000002e0: 0d91 4dbd c9bf e139 cdbc bfbc 0a53 81ba
000002f0: 263a 50bc e825 993c c4e4 43bc e1e6 e73c
00000300: 8ed2 14bd 69b7 54bc 2225 443c 5920 88bc
00000310: a957 b6bb 522e e63b 9cc4 7cbc 9a6d 413c
00000320: 69ee 8c3b 8d0a 41bc 6fe6 bcbc 2d93 b8bc
00000330: f171 45bb 0a88 ffbb 3811 dd3c 208a f2bc
00000340: 3d04 2cbc 4bd8 243b ba33 683c 20fe 893a
00000350: e3f1 863b cd63 ab3b d03b c03b c7a8 3ebc
00000360: dcd6 463c 104b 103c abf3 a53c 45c0 b43b
00000370: f56b 7cbb 66e8 8d3b dc3d 81bc ae8e 32bc
00000380: d611 3ebb 59c9 6e3b bb1d 46bb 4676 1d3d
00000390: e894 863b 86a3 dfbc a565 f93c da70 c639
000003a0: 143c b7bb 6922 893b 69ef 903c 959d 8639
000003b0: e39c c0ba 2866 6bbc 3a76 e9bc 13bb d33c
000003c0: 5104 f1ba ffab a8bc 78e8 6d3d bd23 bebb
000003d0: 5e72 7bbc 2b1e 303d 60c2 1f3d 50ca 923c
000003e0: 2184 0abd bbe0 c53a 6924 b23c 1724 573c
000003f0: 6696 e73b bf16 cc3c 5511 c8bc 9696 cfba

action_model._continuous_distribution.mu.bias f4 [4]
0.04764845 0.0035311112 0.0013376902 0.007240551
00000000: 052b 433d 376a 673b 6f55 af3a 2542 ed3b

onnx::LSTM_104 f4 [1, 512, 128]
-0.13242441 0.15088786 -0.10401306 -0.048228446 -0.002696577 0.12334399 -0.12523109 0.120092556
-0.11589719 -0.08234928 -0.09987345 -0.048603844 0.0016276706 0.06333943 -0.11249813 0.038503315
0.060563333 -0.011287699 -0.12114254 -0.13718021 0.05338208 0.030520178 -0.13829345 0.11620168
-0.0041492935 -0.11701603 0.019113451 0.11223756 0.099972375 0.12027587 0.095231354 -0.113643445
0.08845977 0.14358039 0.108939536 0.0058619073 0.07075046 0.09858321 -0.047082305 0.013625875
0.112140134 0.12853825 0.09333226 -0.097795054 0.002519834 0.11063449 -0.10242592 -0.15026483
0.07420869 0.0127038965 -0.14425074 -0.011595984 -0.13216434 0.07713452 0.058021314 0.022090064
-0.09488595 0.043303646 0.019221392 0.061899524 0.11843487 0.04244987 0.0021354766 -0.11850187
0.057545453 0.10552541 -0.099969596 0.120561704 0.058185834 0.016150646 0.057905138 0.050678972
-0.034381203 -0.13602357 0.04875954 -0.13984245 0.051104262 0.12082222 -0.075444154 -0.049673375
-0.091568 0.116363086 0.12451683 -0.10324921 -0.15120259 -0.13976023 -0.004206683 -0.14176686
0.14807749 0.08504281 -0.14811799 0.117319584 -0.016316712 -0.058533378 -0.0024551167 0.08575831
-0.07170097 0.03305541 0.041859496 -0.10685928 -0.0038743482 -0.13190776 0.09092271 -0.004896507
-0.0564516 0.0033119272 0.08266221 -0.10402641 -0.122280836 -0.14132456 -0.048581373 -0.044107992
0.1434094 -0.017299958 0.095586754 -0.14684892 0.030740466 -0.016610345 0.046743657 -0.09051729
-0.10521328 0.13168997 0.12931405 -0.061957594 0.005979148 -0.15298268 -0.039603442 0.032463487
0.030898351 0.14081125 0.036084563 -0.121108666 0.16055734 0.01882709 0.085380256 -0.06588425
-0.09240962 -0.12023118 0.023775684 0.055635873 -0.055755116 0.1599883 0.027509857 -0.12647443
0.002354023 -0.10914252 -0.14163938 -0.16555703 -0.12997204 0.011329588 -0.16190866 0.048271466
-0.022680024 0.15814428 -0.038126323 -0.16504471 -0.06901154 -0.00040300743 -0.0012835498 0.04720927
-0.029366327 -0.06214532 0.09979978 -0.083774164 0.101567246 -0.099753715 -0.011513305 0.08039007
0.08101567 0.06852003 0.12106692 -0.117034 -0.02288737 -0.022851551 0.098734014 0.06877554
-0.12308986 -0.074661314 0.063761145 -0.10156908 -0.09469217 -0.010942054 0.08241512 -0.1444305
0.12804958 0.13804927 -0.13259299 0.020902703 -0.061395217 0.054364912 0.09811689 0.10263891
-0.071401216 0.11849382 -0.07488514 0.13407163 0.09977552 0.13202423 0.09743952 0.1135872
0.028959101 -0.00044390862 0.046449333 -0.095369294 0.11072408 0.076688595 0.05752942 0.09278853
-0.043084573 -0.038209595 -0.008372778 0.028982729 0.14241165 0.085600264 0.010840863 -0.15368122
0.036910847 -0.13252452 0.15175582 -0.09117598 -0.12782164 0.030099845 -0.15341374 0.12220268
0.0482825 0.024683801 -0.1150998 0.014794423 0.06486091 0.12997705 -0.15698811 0.121856764
0.034450036 0.018635213 0.026746323 0.05944423 -0.07729389 0.0022366345 -0.08006823 -0.06969324
-0.02656005 0.10306913 -0.0693037 0.12837128 0.0928271 -0.035429705 -0.05806703 -0.1354685
0.12324085 -0.14123675 0.13397767 -0.035961937 -0.05759375 -0.12831728 0.13157949 0.058781788
00000000: 449a 07be 5982 1a3e cd04 d5bd 318b 45bd
00000010: 0eb9 30bb c69b fc3d 943c 00be 16f3 f53d
00000020: 825b edbd bda6 a8bd 748a ccbd d314 47bd
00000030: 9057 d53a 1ab8 813d 6b65 e6bd a7b5 1d3d
00000040: 4211 783d 0bf0 38bc 9419 f8bd f878 0cbe
00000050: 2ba7 5a3d 7405 fa3c cc9c 0dbe 25fb ed3d
00000060: ccf6 87bb 1aa6 efbd d093 9c3c cedc e53d
00000070: 51be cc3d 3253 f63d a808 c33d e5bd e8bd
00000080: 652a b53d bd06 133e b11b df3d 3e15 c03b
00000090: 9ee5 903d fee5 c93d 60d9 40bd 103f 5f3c
000000a0: baa9 e53d 889f 033e fc24 bf3d c648 c8bd
000000b0: cd23 253b 5694 e23d aec4 d1bd 06df 19be
000000c0: bafa 973d 0124 503c 77b6 13be 15fd 3dbc
000000d0: 1756 07be b4f8 9d3d c2a7 6d3d 39f6 b43c
000000e0: 9153 c2bd 2a5f 313d 2e76 9d3c 5b8a 7d3d
000000f0: fb8d f23d eadf 2d3d 5af3 0b3b 1cb1 f2bd
00000100: c8b4 6b3d b51d d83d dcbc ccbd 0ee9 f63d
00000110: 4554 6e3d 5c4e 843c f02d 6d3d c194 4f3d
00000120: 4ed3 0cbd c349 0bbe 15b8 473d dc32 0fbe
00000130: b452 513d a471 f73d 7782 9abd 4f76 4bbd
00000140: 0188 bbbd c54f ee3d ae02 ff3d 5274 d3bd
00000150: dad4 1abe 4e1d 0fbe 37d8 89bb 552b 11be
00000160: a0a1 173e ed2a ae3d 3eac 17be 4045 f03d
00000170: a0aa 85bc b2c0 6fbd 06e6 20bb 0ea2 af3d
00000180: f5d7 92bd 1c65 073d dd74 2b3d 0ad9 dabd
00000190: c7e8 7dbb d412 07be b035 ba3d e172 a0bb
000001a0: cb39 67bd eb0c 593b ce4a a93d cc0b d5bd
000001b0: 606e fabd 63b7 10be 43fd 46bd 95aa 34bd
000001c0: ead9 123e a4b8 8dbc fdc2 c33d 905f 16be
000001d0: 6ed3 fb3c 6b12 88bc 4776 3f3d 2161 b9bd
000001e0: 0f7a d7bd bcd9 063e e76a 043e 3fc7 7dbd
000001f0: bbec c33b 7ea7 1cbe 3837 22bd 6ff8 043d
00000200: 8a1e fd3c d330 103e 68cd 133d d207 f8bd
00000210: 2569 243e 453b 9a3c d8db ae3d 52ee 86bd
00000220: 4141 bdbd c43b f6bd 39c5 c23c 71e2 633d
00000230: 7a5f 64bd f9d3 233e 5a5c e13c 8382 01be
00000240: f445 1a3b 1d86 dfbd ea09 11be c887 29be
00000250: 6417 05be bc9f 393c 62cb 25be 4db8 453d
00000260: 75cb b9bc 93f0 213e 592a 1cbd 7b01 29be
00000270: ec55 8dbd be4a d3b9 c93c a8ba 825e 413d
00000280: a791 f0bc 178c 7ebd d463 cc3d ca91 abbd
00000290: 7d02 d03d ad4b ccbd 4da2 3cbc 8da3 a43d
000002a0: 8beb a53d 3b54 8c3d eff1 f73d 86af efbd
000002b0: 4b7e bbbc 2d33 bbbc 0f35 ca3d 31da 8c3d
000002c0: 8916 fcbd 08e8 98bd 3495 823d 7303 d0bd
000002d0: f8ed c1bd 4d46 33bc 42c9 a83d 97e5 13be
000002e0: 6e1f 033e ca5c 0d3e 75c6 07be 253c ab3c
000002f0: 8d79 7bbd bead 5e3d 82f1 c83d 5934 d23d
00000300: cd3a 92bd e3ac f23d 615d 99bd 134a 093e
00000310: 1c57 cc3d 5c31 073e 5f8e c73d 68a0 e83d
00000320: a33b ed3c 68bc e8b9 a841 3e3d fa50 c3bd
00000330: 4ec3 e23d e90e 9d3d f8a3 6b3d ea07 be3d
00000340: 7379 30bd aa81 1cbd fa2d 09bc 306d ed3c
00000350: 5cd4 113e 314f af3d e09d 313c 9c5e 1dbe
00000360: d42f 173d 82b4 07be e165 1b3e 79ba babd
00000370: ade3 02be f393 f63c 7e18 1dbe 6645 fa3d
00000380: dfc3 453d af35 ca3c 72b9 ebbd 4f64 723c
00000390: ccd5 843d b418 053e 7ec1 20be 0a90 f93d
000003a0: 7b1b 0d3d e0a8 983c 1b1b db3c cb7b 733d
000003b0: 424c 9ebd 8094 123b d0fa a3bd 54bb 8ebd
000003c0: 7694 d9bc e815 d33d 19ef 8dbd c373 033e
000003d0: 221c be3d bd1e 11bd b2d7 6dbd 41b8 0abe
000003e0: b365 fc3d 5ea0 10be 7131 093e d34c 13bd
000003f0: 6de7 6bbd 9b65 03be c6bc 063e 2cc5 703d

onnx::LSTM_105 f4 [1, 512, 128]
-0.006057627 -0.07222727 0.007328009 0.14532861 0.12764862 -0.037505824 -0.09511057 -0.13625959
-0.10996658 0.04858397 -0.0508245 -0.06398431 -0.124542154 -0.08149161 0.056324277 0.13512549
0.10090371 0.14537925 0.08173383 0.033436958 0.0922485 -0.105302274 -0.008697726 0.15213169
0.011511856 -0.13468912 0.019564565 -0.04501267 0.040059667 -0.03355165 -0.15166327 0.1389908
-0.11322499 0.011385732 0.12604159 -0.05984052 0.101447396 -0.044410527 -0.06868442 0.11309732
0.051874474 -0.125412 0.07528166 0.06770289 0.061315544 -0.059139993 -0.12518476 -0.023328396
0.033534255 -0.12143984 -0.0033021579 -0.06405295 -0.034904584 -0.14982845 -0.10765809 0.04512889
-0.019854536 -0.0034847355 0.042540133 -0.14196202 -0.036312778 -0.059884325 0.019223839 0.13465557
0.029484702 -0.15133063 -0.082960784 -0.061845068 -0.014571456 -0.014489916 0.10460116 -0.048681207
0.13433829 -0.038324058 -0.09113912 0.009291091 -0.06566707 0.011800016 0.06354487 0.08005298
-0.003143015 0.1158717 -0.06601106 -0.123282626 0.15107621 -0.112876244 -0.090955906 0.14672966
0.081563905 0.05880668 0.04628821 0.014963291 0.07481785 0.13272744 0.11307889 -0.027476275
-0.03838515 -0.02339219 0.033647235 0.13730259 0.09620749 0.07555987 -0.10822151 -0.11133398
-0.051274054 0.038925067 0.053736977 0.06072866 -0.08419722 -0.059338164 0.015814733 0.07120358
0.1306182 0.09282283 -0.060899153 0.021969525 0.037931237 -0.010669812 0.13663487 0.09129184
0.083297595 -0.024179328 -0.083714694 -0.09531303 -0.11702675 -0.043503653 -0.052144237 0.05181509
0.04845513 -0.05326064 -0.14898065 -0.051581357 0.113231435 -0.080540836 -0.057008933 0.017332852
0.06544738 -0.026081352 0.11191548 0.0478819 -0.007925371 0.091633044 -0.037401054 -0.03282952
-0.08959279 -0.10650172 -0.0491498 -0.05080375 -0.12313089 -0.015510714 -0.03136245 -0.010817327
-0.0024534955 -0.119350106 -0.0059181275 -0.10364101 -0.038382575 0.0043970556 0.03937257 0.039079633
0.012700374 -0.013145165 -0.05261386 0.003885041 -0.09382424 -0.12976015 0.059673134 0.14764209
0.027369026 -0.09567352 -0.037108842 -0.091482736 -0.1460636 -0.11301943 -0.012913996 0.08801918
-0.008956411 -0.013119344 -0.0028362297 0.061296 -0.07467263 -0.13335915 -0.14176151 -0.036282204
-0.0039531817 -0.038333718 -0.004963266 -0.017694803 -0.08569127 -0.0690302 0.10823838 0.14780712
0.057138283 0.093277864 0.116897106 0.0021116948 0.020475108 -0.061187904 -0.041528597 -0.06299485
-0.07970451 -0.104822434 0.09685364 -0.12906356 0.09168018 0.057476535 0.028702432 -0.0268496
-0.060620047 0.030971713 0.031325094 0.07749185 -0.03157306 0.010281961 -0.026549345 0.04696121
0.1465534 0.049835328 0.052021503 -0.036589265 -0.1130271 -0.04138505 0.07980025 0.06732535
0.100418866 -0.036957175 -0.11109677 0.08153807 0.090132914 0.0912385 -0.045413695 -0.04498484
0.06998245 0.016450012 0.15258662 -0.018888677 0.015063022 0.06424186 -0.09774032 -0.11621734
0.134052 0.046615653 0.076554276 0.050748926 0.16186662 -0.115546584 0.11636283 -0.13254489
0.14746271 -0.10436185 0.11069349 -0.086087085 -0.08232515 -0.01301367 0.046200912 0.10152128
00000000: 0f7f c6bb e4eb 93bd cb1f f03b 06d1 143e
00000010: 52b6 023e b59f 19bd 55c9 c2bd a287 0bbe
00000020: 2936 e1bd fcff 463d 5a2d 50bd 350a 83bd
00000030: f50f ffbd 13e5 a6bd 49b4 663d 565e 0a3e
00000040: 9ba6 ce3d 4cde 143e 1164 a73d 31f5 083d
00000050: c8ec bc3d b8a8 d7bd e880 0ebc 69c8 1b3e
00000060: 399c 3c3c f2eb 09be de45 a03c 355f 38bd
00000070: 9b15 243d 746d 09bd 9e4d 1bbe 9b53 0e3e
00000080: 81e2 e7bd 398b 3a3c 0c11 013e 551b 75bd
00000090: a7c3 cf3d d0e7 35bd 6baa 8cbd 919f e73d
000000a0: 547a 543d 016c 00be 452d 9a3d d0a7 8a3d
000000b0: 0226 7b3d c73c 72bd 6f30 00be 311b bfbc
000000c0: 375b 093d 73b5 f8bd 0469 58bb 312e 83bd
000000d0: 1cf8 0ebd a16c 19be d87b dcbd 12d9 383d
000000e0: fba5 a2bc 2960 64bb 903e 2e3d 7e5e 11be
000000f0: b5bc 14bd 4449 75bd 507b 9d3c 26e3 093e
00000100: e789 f13c 6bf6 1abe 58e7 a9bd 4151 7dbd
00000110: 1ebd 6ebc 1d67 6dbc 2239 d63d f265 47bd
00000120: fa8f 093e b0f9 1cbd 26a7 babd a939 183c
00000130: 757c 86bd db54 413c d023 823d d1f2 a33d
00000140: 0bfb 4dbb 244e ed3d ce30 87bd 9a7b fcbd
00000150: b9b3 1a3e a92b e7bd 1747 babd 4d40 163e
00000160: fa0a a73d 46df 703d b598 3d3d 9728 753c
00000170: 1a3a 993d b4e9 073e e895 e73d ed15 e1bc
00000180: bf39 1dbd faa0 bfbc afd1 093d 0d99 0c3e
00000190: 6f08 c53d 22bf 9a3d 3da3 ddbd 1203 e4bd
000001a0: be04 52bd e46f 1f3d 4e1b 5c3d 9ebe 783d
000001b0: 986f acbd 930c 73bd e68d 813c 2fd3 913d
000001c0: c7c0 053e e519 be3d 6471 79bd 6ff9 b33c
000001d0: c95d 1b3d 6fd0 2ebc 03ea 0b3e 37f7 ba3d
000001e0: ee97 aa3d ba13 c6bc 9c72 abbd 7a33 c3bd
000001f0: b9ab efbd e330 32bd 3295 55bd 0f3c 543d
00000200: e378 463d d427 5abd 628e 18be f946 53bd
00000210: e2e5 e73d 98f2 a4bd 3382 69bd a0fd 8d3c
00000220: 4709 863d 8fa8 d5bc f133 e53d d01f 443d
00000230: 6ad9 01bc 1baa bb3d d931 19bd 3f78 06bd
00000240: 6d7c b7bd 931d dabd 4d51 49bd 9817 50bd
00000250: 0c2c fcbd a620 7ebc ea75 00bd 283b 31bc
00000260: d3ca 20bb d46d f4bd daec c1bb bd41 d4bd
00000270: 0c37 1dbd 2d15 903b 2245 213d f711 203d
00000280: 3b15 503c d15e 57bc a281 57bd 2c9c 7e3b
00000290: ec26 c0bd d8df 04be d16b 743d 7d2f 173e
000002a0: 0235 e03c 7af0 c3bd 71ff 17bd 4d5b bbbd
000002b0: b291 15be bb76 e7bd 3a95 53bc 6643 b43d
000002c0: e9bd 12bc 84f2 56bc 0ae0 39bb 8411 7b3d
000002d0: f7ed 98bd 4d8f 08be ee29 11be a69c 14bd
000002e0: b189 81bb d103 1dbd e5a2 a2bb b1f4 90bc
000002f0: e87e afbd b55f 8dbd 15ac dd3d c05a 173e
00000300: d509 6a3d 7708 bf3d c067 ef3d 5c64 0a3b
00000310: 6abb a73c 2ba0 7abd e419 2abd 7203 81bd
00000320: 1e3c a3bd 25ad d6bd 345b c63d 3d29 04be
00000330: d1c2 bb3d 846c 6b3d 5d21 eb3c b1f3 dbbc
00000340: ba4c 78bd 64b8 fd3c be4e 003d 0cb4 9e3d
00000350: c152 01bd ac75 283c 037e d9bc 665a 403d
00000360: 1812 163e 2120 4c3d 8014 553d a0de 15bd
00000370: c17a e7bd 5f83 29bd 506e a33d e0e1 893d
00000380: 68a8 cd3d 6860 17bd b486 e3bd 6ffd a63d
00000390: 9b97 b83d 40db ba3d b603 3abd 0642 38bd
000003a0: f552 8f3d 2dc2 863c ab3f 1c3e 6dbc 9abc
000003b0: e5ca 763c 3c91 833d 142c c8bd 5b03 eebd
000003c0: ed44 093e 0ef0 3e3d 7dc8 9c3d 1bde 4f3d
000003d0: 5dc0 253e b0a3 ecbd a34f ee3d d9b9 07be
000003e0: 7700 173e aabb d5bd 45b3 e23d 6d4e b0bd
000003f0: 179a a8bd 4a37 55bc 2b3d 3d3d 64ea cf3d

onnx::LSTM_106 f4 [1, 1024]
0.0028872904 -0.0058610584 0.016660094 -0.0027194815 0.013931549 0.01688453 -0.0052042888 0.011525875
0.0097322 -0.007897379 -0.0035353769 0.011560907 -0.011968001 0.012939132 0.002522954 0.00020092225
0.0016158059 -0.008551713 -0.0021951334 -0.011737418 0.012556763 0.012448172 0.011318911 0.004755117
0.0062040985 0.0080152005 -0.0022077414 0.0076764226 0.025022171 0.0047341087 -0.0014587957 0.0070028394
-0.006674913 0.01172785 0.013303954 0.006021714 0.0013035738 0.014762005 0.0075498163 0.0027045056
0.012246929 -0.002693663 0.0049199425 0.010377107 0.0039629946 1.3995196e-05 -0.003069196 0.006723076
-0.0029238411 0.0047091926 0.011350804 -0.006877801 0.0053915586 0.0035180259 -0.0073286816 -0.00072455115
0.010294281 0.0006722038 -0.0003500678 0.0065431716 -0.008189991 -0.0075675403 0.00039284275 0.011354669
0.008304086 0.00043510387 0.021387616 0.018081889 -0.0038429678 0.0034146537 0.004729189 0.015119884
0.0046805516 -0.0011104504 -0.0018341127 0.01096842 -0.00011358357 0.0027229832 0.006773281 -0.0020256205
0.012697263 0.011505766 0.012858702 -0.0010221555 0.01100099 0.0037829715 0.010991007 -0.004207979
0.0021661145 0.00015590434 0.0050034607 -0.0050849197 0.0046942746 0.00037944957 -0.0061719227 -0.0034934948
0.0041931397 -0.011632507 -0.0005048819 -0.0024414859 0.011621332 0.0032042093 -0.00027677274 -0.00097149506
0.00052940106 0.004466734 -0.004955604 -0.0007089571 -0.010527055 -0.0030756167 -0.007040724 0.008562245
-0.009596915 0.005929585 0.015296233 -0.010482368 0.013620714 -0.0031087173 0.019197464 -0.0068403296
0.0009974358 0.0016358106 0.0026830141 -0.004549321 0.015001194 0.014882941 0.003692575 -0.011339458
0.0003425313 0.011077975 0.024295185 0.0029350137 0.004324335 0.03375213 0.01839211 0.019846283
0.0195253 0.017719675 0.016862871 0.027619122 0.020900486 0.016288957 -0.0075539853 0.01364648
0.0045967866 0.020907661 0.0056912866 0.025933772 0.0045157834 0.020353427 0.016293367 0.016395636
0.016956553 0.019981852 0.020686982 0.02713974 0.032057133 0.009896211 0.021494092 0.018829245
0.015397501 0.007134138 0.029985629 0.017541334 0.012904238 0.02087563 -0.016773764 0.010756403
0.012240453 0.013013764 0.0077697923 0.0057481304 0.008315069 0.011335587 0.009974162 0.025581852
-0.00722726 -0.0003036472 0.013600627 0.009941387 0.015317292 0.019871272 0.0030737906 0.028798206
0.009924614 0.027481047 0.026655138 0.012804289 0.013397344 0.010676454 0.009527821 0.0040796944
0.01665774 -0.0007623273 0.02373544 0.023991361 0.009686932 0.009539695 0.021914752 0.023025628
0.026347212 -0.00024486103 0.009217721 0.020692598 0.022636063 0.02921814 -0.0005612041 0.016099872
0.026897298 0.01759687 0.029247098 -0.0011505109 0.013171451 0.00750806 0.043599993 0.00732738
0.013767895 0.00047642837 0.012049696 0.006621603 0.013824304 0.02762473 0.009644772 -0.0011863626
0.009762672 0.01327584 0.0144794565 0.005889927 0.016394513 0.0067687137 0.014221761 -0.00398039
0.00015566651 0.011705984 0.01012985 0.022042632 0.0007645339 0.0053704674 0.008649598 -0.0056559527
0.003916238 0.010660405 0.020790214 0.019572424 0.028891698 0.007552252 0.0077853105 0.022198707
0.0014087632 0.017892143 0.009006445 0.012792582 0.0020166184 0.010636551 0.014378644 0.009744471
00000000: b238 3d3b 1f0e c0bb c07a 883c 5439 32bb
00000010: 2741 643c 6d51 8a3c bd88 aabb 06d7 3c3c
00000020: ce73 1f3c 0264 01bc c8b1 67bb f569 3d3c
00000030: 6f15 44bc a7fe 533c 2558 253b a8ae 5239
00000040: 73c9 d33a 7c1c 0cbc 3adc 0fbb 4d4e 40bc
00000050: e2ba 4d3c 6bf3 4b3c f472 393c d0d0 9b3b
00000060: c04b cb3b 3052 033c c1af 10bb 808a fb3b
00000070: 4cfb cc3c 9520 9b3b 1035 bfba 1378 e53b
00000080: 3bb9 dabb 2b26 403c d4f8 593c cc51 c53b
00000090: aedc aa3a 56dc 713c 7364 f73b 133e 313b
000000a0: 58a7 483c 2a88 30bb 7837 a13b be04 2a3c
000000b0: 02dc 813b e9cc 6a37 9024 49bb 404d dc3b
000000c0: ea9d 3fbb 924f 9a3b b9f8 393c 2d5f e1bb
000000d0: acab b03b ae8e 663b 7025 f0bb ceef 3dba
000000e0: 58a9 283c d536 303a 4e89 b7b9 1a68 d63b
000000f0: 502f 06bc 21f9 f7bb 76f6 cd39 ef08 3a3c
00000100: dc0d 083c a71e e439 1535 af3c 7820 943c
00000110: 4dda 7bbb 62c8 5f3b 50f7 9a3b 64b9 773c
00000120: 505f 993b 888c 91ba 9c66 f0ba e3b4 333c
00000130: b733 eeb8 1474 323b 66f2 dd3b 46c0 04bb
00000140: 2e08 503c ae82 3c3c 4ead 523c d9f9 85ba
00000150: 7f3d 343c bbeb 773b a013 343c 16e3 89bb
00000160: 5ff5 0d3b 417a 2339 12f4 a33b 669f a6bb
00000170: 6ed2 993b dcf0 c639 d73d cabb 1ef3 64bb
00000180: 9b66 893b 4596 3ebc 0d5a 04ba 5601 20bb
00000190: 6667 3e3c b6fd 513b cf1b 91b9 eeab 7eba
000001a0: 81c7 0a3a ae5d 923b 9f62 a2bb 4ed9 39ba
000001b0: ab79 2cbc 4990 49bb e0b5 e6bb a948 0c3c
000001c0: 613c 1dbc f74c c23b 0d9d 7a3c 3dbe 2bbc
000001d0: 6a29 5f3c 9fbb 4bbb 0044 9d3c d824 e0bb
000001e0: 64bc 823a b268 d63a 82d5 2f3b 7812 95bb
000001f0: 91c7 753c 94d7 733c 21ff 713b 22c9 39bc
00000200: c695 b339 6580 353c b206 c73c 5c59 403b
00000210: 27b3 8d3b ac3f 0a3d 0dab 963c ac94 a23c
00000220: 86f3 9f3c da28 913c 0124 8a3c 7f41 e23c
00000230: 7f37 ab3c 6b70 853c 6c87 f7bb 7c95 5f3c
00000240: a4a0 963b 8b46 ab3c f97d ba3b 1073 d43c
00000250: 23f9 933b 3bbc a63c ab79 853c 2450 863c
00000260: 78e8 8a3c fbb0 a33c bf77 a93c 2954 de3c
00000270: 574e 033d b823 223c 6114 b03c ca3f 9a3c
00000280: cd45 7c3c 7dc5 e93b 6ca4 f53c d8b2 8f3c
00000290: 4c6c 533c 5f03 ab3c 2269 89bc a03b 303c
000002a0: 2e8c 483c af37 553c be99 fe3b d05a bc3b
000002b0: ed3b 083c e6b8 393c ab6a 233c 0891 d13c
000002c0: a7d2 ecbb d632 9fb9 2ad5 5e3c 33e1 223c
000002d0: 61f5 7a3c 14c9 a23c a671 493b 37ea eb3c
000002e0: d99a 223c ef1f e13c e05b da3c 15c9 513c
000002f0: 8980 5b3c 4bec 2e3c 941a 1c3c f5ae 853b
00000300: d075 883c ebd6 47ba d370 c23c 8889 c43c
00000310: f0b5 1e3c 624c 1c3c 9186 b33c 3ea0 bc3c
00000320: 1cd6 d73c b160 80b9 ed05 173c 8683 a93c
00000330: 446f b93c e15a ef3c c51d 13ba e1e3 833c
00000340: b957 dc3c 5027 903c 9c97 ef3c bdcc 96ba
00000350: 12cd 573c 2c06 f63b e895 323d 851a f03b
00000360: bd92 613c 22c9 f939 176c 453c 08fa d83b
00000370: 557f 623c 424d e23c 1b05 1e3c b97f 9bba
00000380: 9df3 1f3c e982 593c 3e3b 6d3c 4a00 c13b
00000390: c94d 863c 16cc dd3b 6402 693c ee6d 82bb
000003a0: 693a 2339 75ca 3f3c acf7 253c c092 b43c
000003b0: 006b 483a bffa af3b 0bb7 0d3c 9255 b9bb
000003c0: c953 803b fba8 2e3c 3d50 aa3c 5956 a03c
000003d0: 48ae ec3c e278 f73b eb1b ff3b 10da b53c
000003e0: 40a6 b83a 8b92 923c c58f 133c fa97 513c
000003f0: 3e29 043b ee44 2e3c 6794 6b3c 46a7 1f3c
