results/DroneAgentup7/DroneAgent/DroneAgent-15872.pt (torch, 522029 bytes, 44 tensors)

network_body._body_endoder.seq_layers.0.weight f4 [128, 6]
000000 9c b6 0a 3f 84 70 e0 bd 63 9a bf 3e 49 e4 40 bf
       0.5418489 -0.10958961 0.37422475 -0.75348336
000010 93 c9 29 be dd 9c 6f 3e 8b a7 c1 3e 58 27 23 3f
       -0.165808 0.23399682 0.37823138 0.6373191
000020 9c 61 82 3c b4 82 2f 3e 95 79 39 be 6b ab 3e 3f
       0.015915684 0.17139703 -0.18112786 0.74480313
000030 dc 5d b4 be 38 8b fd 3e 24 ca 31 be 0f 4b 04 3e
       -0.3522786 0.49520278 -0.17362267 0.12919258
000040 81 27 94 3e 11 80 a2 be d3 8b 4d bf ca 9c db 3e
       0.2893639 -0.31738332 -0.8029148 0.42893058
000050 63 6d eb be af 9c 4a 3e ae ad db bd 14 1c b2 3e
       -0.45981893 0.19786333 -0.10726486 0.34787047
000060 fe 54 2f 3e 83 59 83 3e 78 cb 30 3f a5 ac 1b 3f
       0.17122266 0.2565423 0.6906047 0.6081031
000070 b2 ad 14 3f b7 3c f3 be 77 95 3d bf f2 87 32 3f
       0.5807754 -0.4750726 -0.7405619 0.69738686
000080 30 fe 0d bf d1 1c e9 3e 8d 6d 6f bf 99 69 db be
       -0.55465984 0.45529798 -0.93526536 -0.42854002
000090 1d c4 8d be 1d 20 8e 3e 57 2c 4d 3d 43 5c 55 bc
       -0.27688685 0.27758875 0.050091114 -0.013022485
0000a0 03 6e 16 3f a3 6e 95 be 32 43 e3 3d b3 08 06 3f
       0.58761615 -0.29185972 0.11096801 0.52357024
0000b0 62 dc 14 3e 97 17 b3 3e 06 d8 92 be 17 9c 6a be
       0.14537194 0.34978935 -0.28680438 -0.22911106
0000c0 ed 96 46 be c3 49 a4 3e 87 f6 14 bf 8a 75 39 be
       -0.19393511 0.32087526 -0.5818867 -0.18111244
0000d0 0e c1 47 be 1f 9b fb 3d 24 77 ab bd a7 4b 9a 3e
       -0.19507238 0.122854464 -0.08372334 0.30135843
0000e0 1a 3d a4 3e 48 05 42 3d d2 26 4a 3f a4 51 a7 bc
       0.32077867 0.047368318 0.78965485 -0.020424671
0000f0 fb 0a 84 be a8 7a d6 3c 1a d8 a8 3e 30 d1 1b bf
       -0.25789627 0.026181534 0.32977372 -0.6086607
000100 1a ae e8 3e 62 3f 8c 3e 0e dc 05 bf e9 9b 71 3e
       0.4544533 0.27392107 -0.522889 0.23594631
000110 ae 41 94 bd f9 f1 33 3e 0f 06 94 bc 63 6c 9a bd
       -0.0723909 0.17572774 -0.018069295 -0.075402044
000120 39 a4 a8 be c6 9b 16 bf 15 34 8f be b2 9a c4 be
       -0.32937792 -0.5883144 -0.27969423 -0.38399273
000130 42 47 02 3f e0 fe fd bd ab 53 6d bf e9 5e 5d 3e
       0.5088998 -0.12402129 -0.9270579 0.21618237
000140 dd 4a 87 3d 10 32 fe 3e 22 96 ca 3d 4d 30 8d 3e
       0.06606076 0.4964757 0.09891917 0.27575913
000150 d1 88 86 bf 32 88 b7 bc 45 76 9a 3e 68 63 22 3e
       -1.0510503 -0.02240381 0.30168357 0.15858233
000160 b9 91 c8 3e 89 8a 67 bd bf e9 98 bd 4f de d3 be
       0.39173678 -0.0565286 -0.074664585 -0.41380545
000170 70 b1 7d 3f c2 1a e0 3e 65 51 dc 3d c8 4d c0 bd
       0.99098873 0.43770415 0.10757712 -0.093898356
000180 16 58 f9 3e db eb 24 3e 87 93 31 bf 13 0d 8f 3e
       0.48700017 0.16105597 -0.69365734 0.27939662
000190 30 ec 4d 3f 33 ca e0 bd 32 f4 d5 3e 6a df 3b be
       0.8043852 -0.109760664 0.4178787 -0.18346944
0001a0 47 1b 34 3f 50 d7 c0 3d 77 18 19 be 40 a6 08 3e
       0.7035412 0.094160676 -0.14950739 0.1334467
0001b0 9a 3f 34 3f f1 1d fd 3d b1 aa 7d 3e 21 38 1e be
       0.7040955 0.123592265 0.24772145 -0.15451099
0001c0 93 67 d2 3e 1b c3 20 3e 5c 7a 98 3e 04 53 56 3d
       0.41094646 0.15699427 0.29780853 0.052325264
0001d0 6a c7 bc 3d 63 89 e0 be 2e cb 6e bd 03 7e 5e 3d
       0.09217723 -0.43854818 -0.058299236 0.054319393
0001e0 80 7e 9b be ad 31 33 3e 3b d1 77 bf 93 0c 20 3e
       -0.3036995 0.17499419 -0.96803635 0.15629797
0001f0 4a a9 52 bf 19 ef 11 3f 6f a3 55 3e 0a 2f 08 bf
       -0.82289565 0.5700546 0.20863126 -0.53196776
000200 ce 84 ef 3b 5d 96 21 be fa 38 88 be 6c 4f dc bd
       0.0073095327 -0.15780015 -0.2660597 -0.10757336
000210 76 5e ae bd 15 05 fc 3e 67 a1 a1 be 38 46 27 bf
       -0.08514111 0.49222627 -0.31568453 -0.6534152
000220 6e 6c dd 3d b0 28 a2 3e 17 81 b6 be 59 c9 2a 3f
       0.10811697 0.31671667 -0.35645363 0.6671348
000230 ff 42 6d 3c a4 ef ed be 5b e3 0a be e3 51 75 3e
       0.014481305 -0.46471894 -0.13563292 0.23957019
000240 9d 52 2b 3d 17 f9 22 bc 06 f6 bf be 95 bd ec 3e
       0.041826833 -0.009947083 -0.37492388 0.4623839
000250 84 8f 03 3f 4b 3b b0 3c 71 9d dc bc bb 23 d0 3e
       0.5139086 0.021512648 -0.026930543 0.4065226
000260 11 90 14 3e 1b c8 72 3c f0 64 12 bf 3a 4c 65 3d
       0.14508082 0.014818217 -0.5718527 0.0559809
000270 f3 c0 16 be 49 a1 cb be e8 42 8d be 37 24 dd be
       -0.14722042 -0.39771488 -0.27590108 -0.43191692
000280 56 1c 4c be 3b 43 1b 3f 0f 54 97 3e d2 6a 64 3f
       -0.19932684 0.6064946 0.2955632 0.89225495
000290 16 9e 49 bf d2 a6 d0 bd 32 4c b2 3e 18 19 e0 bd
       -0.78756845 -0.101880684 0.34823757 -0.10942286
0002a0 11 cf 09 3e c0 50 b6 bd f1 f6 53 be d0 d2 d0 3e
       0.13457896 -0.089021206 -0.2069967 0.40785837
0002b0 1b 5a f3 bc c2 79 7a be 86 98 11 bf 84 99 51 3f
       -0.029706052 -0.2446051 -0.5687336 0.8187487
0002c0 01 57 63 bc 81 09 16 3f 58 1d 95 be 32 3f bb be
       -0.013875724 0.5860825 -0.2912395 -0.36571652
0002d0 53 56 0d 3f bf 45 01 3f e3 7d 86 3f 6d 32 f1 be
       0.55209845 0.5049705 1.0507168 -0.47108784
0002e0 55 a4 8b 3e 46 2b b1 3c 37 1f 08 3e ee 26 95 3d
       0.27273813 0.02162708 0.13293158 0.07282816
0002f0 c6 d3 40 bf 3b 1c 2d be 96 47 ec 3e a2 c9 0a be
       -0.7532314 -0.169053 0.46148366 -0.1355348
000300 10 dd 24 bf df 0c 0b bf 84 fb 65 3e 42 8e 85 3e
       -0.64399815 -0.54316515 0.22459227 0.26085097
000310 a4 a8 a7 be 8e d3 c0 3e a9 fb 68 3e 14 8e 22 bf
       -0.3274585 0.37661403 0.2275225 -0.63498044
000320 6b 8c e1 3c bb 33 40 be 76 8f 3a 3d 40 b6 d1 3c
       0.027532777 -0.18769734 0.04554697 0.025599599
000330 49 05 e3 be 30 0a 73 3d a4 e8 8b be f5 c8 0c bf
       -0.4433997 0.059335887 -0.27325928 -0.54994136
000340 c9 93 06 3f 45 2c ac 3e e8 42 8b 3e 2a de 08 3f
       0.5256925 0.33627525 0.27199483 0.53463995
000350 97 c7 e2 3d b7 d8 a3 be 25 02 73 be a6 2f 39 3e
       0.11073225 -0.32001278 -0.23731287 0.18084583
000360 2d 19 cd 3e b4 87 df 3e c7 84 93 bf 9c 8a 7d be
       0.4005827 0.4365822 -1.1524895 -0.24759907
000370 64 94 59 be 30 2d 13 be df 5c 46 bf 4a 06 00 3e
       -0.21248013 -0.14372706 -0.7748546 0.12502399
000380 97 25 80 3e 45 5d 24 bf d0 f7 63 be 8d 07 d3 be
       0.2502868 -0.6420482 -0.22262502 -0.41216698
000390 34 7c ad bd 7d 6d 63 bd f0 23 e0 be 89 9e 8f 3e
       -0.084709555 -0.055524338 -0.43777418 0.2805064
0003a0 fe 1a b5 3e c9 16 68 bd 0e 5a b1 3e be 84 9a 3e
       0.35372156 -0.056662355 0.3463902 0.301794
0003b0 b8 d2 50 bf 37 4d d3 3e b5 5c 37 3f 8a 45 31 3d
       -0.8157153 0.41269848 0.71625835 0.04327921
0003c0 fb ff e8 bd 14 f4 6d 3e 7f 24 b0 3e 87 26 82 bf
       -0.113769494 0.2323764 0.34402844 -1.0168008
0003d0 21 5c 0f bd c7 b1 2f 3f da 2c 84 3d d4 81 22 3e
       -0.03499997 0.6863064 0.06453867 0.15869838
0003e0 54 1e ef 3e 2a 5e be be 46 b4 49 be 3c 81 b2 bc
       0.46702826 -0.37181216 -0.19697675 -0.02179014
0003f0 71 d5 8c 3e f5 d4 c8 3e ac 3f 0a 3f 45 40 8c be
       0.27506593 0.39224973 0.54003406 -0.27392784

network_body._body_endoder.seq_layers.0.bias f4 [128]
000000 3d 25 a0 bc 83 1a a4 3c 4b 4a bf 3c 51 5f 82 3c
       -0.019549007 0.020032173 0.023350855 0.015914591
000010 85 48 93 3c 2c e9 49 3c e5 63 92 3c db b1 a9 3c
       0.017978916 0.012323659 0.017869899 0.02071469
000020 2b 35 af 3c 49 ba a7 bb de 08 be bb 70 70 0f 3c
       0.021387657 -0.0051186425 -0.005799397 0.0087548345
000030 7b 5b ec 3c 3f 26 49 3c 6b c2 0c bc 56 a1 b7 3b
       0.028852215 0.012277185 -0.008591275 0.0056039495
000040 2b c9 70 3c cd 3e 9d bc c0 83 12 b9 4e 16 5e bc
       0.0146964 -0.019194985 -0.00013972726 -0.013555123
000050 5a b5 8f bc 02 4b 70 bc 2f bb df bb 18 75 85 3c
       -0.01754253 -0.014666321 -0.006827734 0.016291186
000060 8f 3b b4 3c cb 84 7a 3c ab 88 19 bd db b0 5f 3c
       0.022001056 0.015290449 -0.037483852 0.0136530055
000070 f7 bf 70 bc 2f 5e 8b 3c 07 88 8f 39 e1 82 56 3c
       -0.0146942055 0.017012684 0.00027376434 0.013092727
000080 c7 9a 9c 3c 8c 90 96 3c f9 b6 85 3a aa a6 a5 3c
       0.019116772 0.018379472 0.0010201625 0.020221073
000090 7f 2d 45 3c d4 e7 a7 3b c5 fe d0 3c 56 8d 03 3c
       0.012034773 0.0051240716 0.025512109 0.008029303
0000a0 e8 a3 70 bc 8f ec a2 bc 95 6f 04 ba 5f 52 5a 39
       -0.014687516 -0.01988819 -0.00050520274 0.00020820786
0000b0 a4 08 23 bc e7 30 78 bc da 13 ab 3c 9c 3d a4 bc
       -0.009950791 -0.015148378 0.02088349 -0.020048909
0000c0 a3 e3 cf bb b5 39 c8 bb 09 b4 30 bc 87 5d c0 bc
       -0.006344275 -0.006110395 -0.010785111 -0.023482097
0000d0 63 c6 f4 3c 47 6a 86 3c e7 62 7d bc 37 f4 97 3c
       0.029879754 0.016408099 -0.015465475 0.018549068
0000e0 b5 29 9d bc 3e 96 f8 3b 26 0b a0 3b 33 eb c4 3b
       -0.019184927 0.0075862696 0.0048841415 0.0060094832
0000f0 01 49 48 3c ff c4 e0 3c 12 d9 c2 3c ae cb 8e 3c
       0.012224437 0.027437685 0.023785148 0.017431106
000100 13 19 bb 3c 23 74 74 bc f2 9b 66 3c ee 79 68 3b
       0.022839105 -0.014920267 0.014075266 0.0035473066
000110 cb 06 a0 bc 77 7a 60 3c 5c fd 8a 3c cf 6d 31 bc
       -0.01953449 0.013701073 0.016966514 -0.010829403
000120 74 1f 9e 3c 61 0b 94 3c a0 0c ba 3c 36 d7 48 bc
       0.019302107 0.018071832 0.022711098 -0.012258342
000130 3c d6 65 bc db 76 91 3c ca 05 86 3c 3f 5d a7 3c
       -0.014028128 0.01775687 0.016360182 0.020430205
000140 ad da a9 3c 19 8b 55 bc 75 b1 ac 3c 09 c8 a0 3c
       0.020734156 -0.013033652 0.021080712 0.019626634
000150 2b ee a9 3c 89 7b 3d 3c c6 1e a1 3c e5 a3 7b 3c
       0.02074345 0.011565098 0.019667994 0.0153589
000160 55 d2 be bc 41 a7 a0 3c 19 8f 70 3c 7a 34 b5 bc
       -0.023293654 0.019611003 0.014682555 -0.02211975
000170 e9 84 9a 3c f3 3a 8f 3c 04 9b 4b 3c bc 25 8f 3c
       0.018862205 0.017484164 0.012427095 0.017474048
000180 76 3d 09 bc 18 e2 a0 3c 53 3e 69 3c 5f 6c 59 3c
       -0.00837647 0.01963906 0.014236051 0.013270467
000190 4e 64 b1 bb 9d 62 f8 ba ee a5 b9 bc c0 a2 98 bb
       -0.0054135686 -0.0018950287 -0.02266213 -0.004658073
0001a0 0f f9 b2 3c 93 67 bb 3c cf d2 1b 3a 14 04 70 bc
       0.021847276 0.022876536 0.00059441937 -0.01464941
0001b0 d9 a2 aa 3c 2e 41 ae 3c 7b 85 a3 3c 4f cb a8 3c
       0.020829605 0.021271314 0.01996111 0.020604758
0001c0 3e bc 27 bb 28 56 c2 3c 85 c2 c2 3c 63 f5 83 bc
       -0.0025594379 0.023722723 0.023774395 -0.01610822
0001d0 f8 a3 38 3c 5c 96 a8 3c 58 b1 9c 3c da 82 af 3c
       0.011269562 0.02057951 0.019127533 0.0214247
0001e0 7c db 11 bb d0 a8 d8 3b 31 12 8a 3c 4d ac a2 bc
       -0.0022256067 0.006611921 0.016854377 -0.01985755
0001f0 f9 cc 78 bc 63 43 98 3b 58 cc 8b 3c 7a 2e 81 bc
       -0.015185588 0.004646705 0.017065212 -0.015769232

network_body._body_endoder.seq_layers.2.weight f4 [128, 128]
000000 55 cd 0b 3e 8c 14 69 3d 14 c7 94 3b 8b 95 16 3d
       0.13652547 0.05690436 0.0045403335 0.03676371
000010 09 27 04 bc 87 38 8c bc 77 7a 4d 3e 24 a2 1b 3d
       -0.008065947 -0.017116798 0.20066248 0.037996426
000020 f9 ce 8e 3c 19 da f9 3d 9d 88 4e be 3a 97 12 be
       0.017432677 0.12199802 -0.20169301 -0.14315501
000030 6b 24 35 be 67 4d 1d 3d eb 5b 49 3e 6d e8 19 bd
       -0.17689674 0.038403895 0.1966397 -0.037575174
000040 d7 72 27 3d 04 96 34 3d 70 b1 e8 3b 4a d1 1f bd
       0.040881004 0.04408838 0.0071012303 -0.039017953
000050 94 aa b5 bd 7d 20 24 3d 02 d0 cd 3c 65 11 b3 3d
       -0.08870426 0.040070046 0.0251236 0.08743552
000060 f0 14 6d 3d 11 3a 9e bd fb d2 b3 3d 70 4b c8 3d
       0.057881296 -0.07725919 0.08780476 0.097800136
000070 5e 5d 91 3d 2c 50 45 bd 27 ca b9 bc 49 cf 67 3e
       0.070978865 -0.04817216 -0.022679402 0.22637667
000080 d4 a8 ae 3c b8 e8 d5 bd 7e f5 e5 3c de fe 9c 3d
       0.021320738 -0.10444778 0.028071161 0.076657996
000090 2d 46 21 bd 96 9a 5b bd b3 c4 19 3e fa 61 f1 bd
       -0.039373565 -0.05361422 0.15016441 -0.11786266
0000a0 38 5c 32 bc bd 54 8f bb b0 9d 8d bd fd a9 22 bc
       -0.0108862445 -0.0043741153 -0.06914842 -0.009928224
0000b0 06 1b 8b 3c 32 01 5a be 9d df d8 bd 64 de b0 bd
       0.01698066 -0.21289518 -0.10589526 -0.08636168
0000c0 06 58 42 be ca 7a 94 bc a4 5e 20 ba 34 53 8e bd
       -0.18978891 -0.018124957 -0.0006117618 -0.069494635
0000d0 78 40 51 bc af 22 84 3c 24 26 3d bd 4d db b0 3c
       -0.012771718 0.01612982 -0.04617895 0.021588946
0000e0 1d e2 34 bd 33 7f ba bc 3e 64 5c 3d 39 a4 19 3d
       -0.04416095 -0.022765731 0.053806536 0.03751013
0000f0 22 e0 63 3d fd 9e 08 bd 81 75 2f bd 83 dd 73 3d
       0.05563367 -0.033354748 -0.04283667 0.059537422
000100 cd d9 80 3d 3a f4 3f bd b1 5b 03 be 86 14 36 bd
       0.06291542 -0.046863772 -0.12827946 -0.044453166
000110 a2 e4 b9 bd 56 51 e6 3d cc 71 74 3e 03 c7 22 3d
       -0.090768114 0.11245982 0.23871535 0.039740574
000120 cb 16 8f 3a 49 df 75 3e 91 6f e4 3c d0 31 86 3c
       0.0010916827 0.24010958 0.02788523 0.016381174
000130 37 05 fd 3c b0 b9 3b 3d 9a 77 14 be 9a c4 4c 3d
       0.030886276 0.045831382 -0.1449875 0.04999218
000140 47 74 8c bc d7 09 93 bd 64 37 68 bc 90 db f7 3c
       -0.01714529 -0.07179611 -0.014173362 0.030256063
000150 31 67 11 3d c8 c7 03 3e 6e f6 e7 3d 0c 4c 63 3e
       0.0354988 0.12869179 0.113262996 0.22196978
000160 46 98 31 bd 38 14 e7 3d 83 04 27 3d 0b c4 8b 3c
       -0.04335811 0.11283153 0.040775787 0.017061254
000170 dd d8 c9 3d e2 b9 35 bc 00 68 bd 3d c5 53 bf 3c
       0.098558165 -0.011091681 0.09248352 0.023355374
000180 d5 bb 00 be f0 e9 3c 3e 16 75 3c 3d 8e 3d 0e 3e
       -0.12571652 0.18448615 0.0460101 0.13890669
000190 c6 6e 49 be ac 0c da bd 05 a0 1d bd ef f4 07 be
       -0.19671163 -0.10646948 -0.038482685 -0.13277029
0001a0 09 76 f5 bc 59 09 65 3d c8 ba 18 3c 79 2c 65 bd
       -0.02996351 0.055917118 0.009321876 -0.055950616
0001b0 b3 5d 3e 3e 18 0c da bd 9e 51 13 3e ac 32 92 bb
       0.18590431 -0.10646838 0.14386603 -0.004461607
0001c0 f0 1f 35 3d 77 f6 f0 3d ec f4 67 be 65 fd 2b 3d
       0.04421991 0.117657594 -0.22652024 0.041989703
0001d0 1d 1b 9f bd 0f c5 95 3d a4 ac 06 3e 6d ab e5 bb
       -0.07768843 0.073129766 0.13151795 -0.007008961
0001e0 9e a0 19 be 9f 65 bc bb 05 7a 1a bd 2b b7 1c bd
       -0.15002677 -0.005749419 -0.037714023 -0.03826062
0001f0 9b 48 2a bd ba 4b 14 be 39 27 f2 3d 23 1c e5 bd
       -0.04157315 -0.14482012 0.118238874 -0.11187007
000200 cd 2c 22 3e 66 7a 52 3d e3 86 8a 3d f5 49 0d bc
       0.15837403 0.05138626 0.06764009 -0.00862359
000210 b1 b3 7a 3c 7a bf 33 bd 7c 8b 9c bc c4 7f d9 3d
       0.015301631 -0.04388378 -0.01910948 0.106200725
000220 b4 23 54 3d a2 1a bf bc b7 cd a6 ba f1 5e e6 bc
       0.05179186 -0.02332813 -0.0012726103 -0.028121443
000230 71 26 9d bd a2 2c 0c 3c 97 db 71 be 76 32 b7 3d
       -0.07673348 0.008555563 -0.23618923 0.089451715
000240 15 57 3e bd ec da ab bd 59 c6 82 bd b1 fd b7 bc
       -0.046469767 -0.083913654 -0.06385488 -0.022459837
000250 0b d4 ad 3d 61 64 93 3d c0 3e a0 3d 25 f5 fe bd
       0.084877096 0.0719688 0.078244686 -0.12449101
000260 4e 08 98 bd 75 9d be bc 8c 5e 32 3e ca a7 24 3d
       -0.07423459 -0.02326844 0.1741888 0.04019908
000270 39 ae cf 3d 6c c5 95 3c a4 02 33 3d 4b 4e 82 3d
       0.10140652 0.018282615 0.04370369 0.063625894
000280 31 28 8c 3d eb 8c d2 bd b1 21 2a 3d d8 d7 01 3d
       0.068436034 -0.10280784 0.041536037 0.031699985
000290 09 20 3a be 30 fd 3f be cb 6f 7c bd cd b2 4e bd
       -0.18176283 -0.18748927 -0.06163005 -0.050463486
0002a0 7a 47 a3 3c 8a ac 3c bd f7 6e cf bc 16 93 01 3d
       0.019931544 -0.046062984 -0.025321467 0.031634413
0002b0 05 a2 f8 bd 63 61 92 3d 78 19 b1 3d c8 2f 72 3c
       -0.12140278 0.07147481 0.08647436 0.0147819
0002c0 35 9a ba bb f0 74 99 3d 9c 13 27 bd 0e 6d 69 3d
       -0.0056946524 0.07493007 -0.040790185 0.05698877
0002d0 28 2d e5 bd c6 3f dc bc 9f f6 06 3e a9 f4 33 3d
       -0.111902535 -0.026885878 0.13180016 0.043934498
0002e0 d8 94 ba bd 58 21 0a be a8 e9 c4 3c eb 68 9f 3d
       -0.09110421 -0.13489282 0.024037197 0.077836834
0002f0 7a 03 1e be 42 6f 95 3b 2d a5 71 3c d7 34 0a be
       -0.15431014 0.004560382 0.014748854 -0.1349672
000300 b2 4e 5d bd 43 79 58 3d ab c2 00 be a0 ef c2 3c
       -0.054030128 0.05285002 -0.1257426 0.023795903
000310 ea fb d4 3d e4 9c b8 bc a2 92 8b 3d 81 8a 71 3d
       0.10399611 -0.022535749 0.06815077 0.05896998
000320 ca 35 75 3d 31 91 f3 bc eb 34 37 3c 8f ba 38 3d
       0.05986575 -0.029732319 0.01118205 0.04509979
000330 4f e5 c7 bc 44 63 b0 bc c4 08 a8 3d 0b 15 77 bd
       -0.024401335 -0.021531709 0.08204797 -0.060322803
000340 5b a8 13 3d a7 c4 85 bd 5b 35 23 bd de 68 89 be
       0.03604923 -0.06531649 -0.039845806 -0.2683782
000350 88 bc 2d bd 2f 8f c8 bb e5 4a e2 3c 39 f9 4f be
       -0.042416126 -0.0061205844 0.027623603 -0.20309915
000360 7f dd 82 bd fd b1 60 bd 21 a9 34 3c ca 3d 99 bd
       -0.06389903 -0.054857243 0.011026652 -0.074824885
000370 9b 75 72 bd c5 4b 81 bd 9a 2b 66 3e 8b 03 39 3e
       -0.05919419 -0.0631328 0.2247757 0.18067758
000380 3e bf bb 3d 3e c1 00 bd d7 3e 75 3b 0e c7 20 ba
       0.09167336 -0.03143429 0.0037421489 -0.0006133177
000390 74 1f 97 3c e3 68 3b 3d 58 a7 ec 3c 31 ee 0a 3e
       0.018447615 0.045754325 0.02888839 0.13567425
0003a0 91 d8 ac bd 1a 2a 4c bc 10 57 8d 3d 23 07 73 bc
       -0.08439744 -0.01246121 0.069013715 -0.0148332445
0003b0 86 7d 88 3e b3 b5 2b 3d 54 90 9c bc e1 dd 7e 3d
       0.26658267 0.04192133 -0.01911179 0.06222332
0003c0 92 f2 fb 3d 14 9c ab bc d7 dc 6a 3d 94 71 4b 3d
       0.12302126 -0.020948447 0.057339516 0.049668863
0003d0 74 2c 92 3d 6b a0 61 3d 09 03 c5 bd b8 22 0d bd
       0.07137385 0.055084627 -0.096197195 -0.03445694
0003e0 c9 14 b4 bc 71 3c f4 3c aa 8c c7 bb b0 e5 10 3e
       -0.021982567 0.029813977 -0.0060897665 0.14150119
0003f0 12 e9 8e bd e6 f5 0d bd bc 4a c4 3d aa 34 a6 3d
       -0.069780484 -0.034658335 0.09584567 0.081155136

network_body._body_endoder.seq_layers.2.bias f4 [128]
000000 f7 1c a8 3c d1 f2 0d bc 2b 1f 67 3c 8a c9 8e 3c
       0.020521624 -0.008663849 0.014106552 0.017430086
000010 5d f2 3c bc 42 e3 90 3c e7 45 b3 3b 1d 55 ae bc
       -0.011532393 0.01768649 0.0054709795 -0.02128082
000020 28 4d b9 3c af a2 65 3c 5d 3e 44 bc 11 16 10 bc
       0.022619799 0.014015838 -0.011977759 -0.008794324
000030 5d 56 85 3b 9a 11 b1 3c 30 71 83 3c 21 d4 05 bc
       0.004069133 0.021614838 0.016045183 -0.008168251
000040 12 af 48 bc c7 57 9a 3c c7 b0 a0 3c 57 73 85 3c
       -0.012248771 0.018840684 0.019615544 0.01629035
000050 a0 69 26 bc 28 a6 9d 3a e2 91 27 39 20 3b f5 bb
       -0.010157019 0.0012027668 0.00015980707 -0.007483855
000060 2e 37 bf 3c 31 30 cb 3c 35 6c 1c bc 6f 14 26 bc
       0.023341741 0.024803253 -0.009547283 -0.010136708
000070 9d 0f 99 3c 70 e7 35 bc 16 32 17 ba 89 7b 75 3c
       0.018684203 -0.011102542 -0.0005767656 0.014983066
000080 7e f3 30 bc 8d 20 5e bc 22 d8 80 3c eb 51 bf 3c
       -0.010800241 -0.013557565 0.01572806 0.023354491
000090 e7 b3 b9 3c 91 b1 24 bc a3 26 a0 3c 5f 8d 85 3c
       0.022668792 -0.010052101 0.019549673 0.016302763
0000a0 87 89 e9 b9 c6 a0 a0 3c ed 5c 80 bc 03 7d ba bb
       -0.0004454369 0.019607913 -0.01566931 -0.005691172
0000b0 93 9e cf 3c 10 27 47 3c 83 88 65 bb 51 fa 3d bb
       0.025344169 0.012155309 -0.0035023994 -0.0028988312
0000c0 aa f5 5c bc ed 14 84 3b 4a e0 89 3c 31 ee bd bb
       -0.013486305 0.004030815 0.016830582 -0.005796217
0000d0 0f 6d 41 ba 54 17 27 bc 32 11 8a bc bf 09 76 3c
       -0.0007378617 -0.010198433 -0.016853902 0.015016972
0000e0 52 42 b6 3c 84 cf b6 3c a2 4c b1 3c 5a 48 38 bc
       0.02224842 0.022315748 0.021642987 -0.011247719
0000f0 3f 2e ce 3c bb 18 9c 3c 26 c6 19 3b 09 e9 a1 3c
       0.025168536 0.019054761 0.0023464053 0.01976444
000100 4b 7a 2a bc 7b f8 81 bc a4 08 3d bc 68 61 93 bb
       -0.0104051335 -0.015865555 -0.011537705 -0.0044976957
000110 07 07 62 bc 24 83 92 3a 37 05 95 3c 99 df b4 bb
       -0.013795621 0.0011177999 0.018190963 -0.005519819
000120 f3 86 45 bc 14 dc 9b 3c b4 9e 96 bc 15 79 6f bc
       -0.0120561 0.01902584 -0.018386222 -0.014616271
000130 a7 2c 61 bc ea f1 83 3c 71 12 0f bc 2f 86 ae 3c
       -0.013743556 0.016106565 -0.008732424 0.021304218
000140 f5 08 94 3c 5f 4f 0e 3c d9 9c ad 3c 6f da 2d bc
       0.018070677 0.008685916 0.021192955 -0.010611161
000150 40 f2 92 3c b0 7a 62 3c d4 a0 03 bc 21 41 bf 3b
       0.01793778 0.013823196 -0.00803395 0.0058366214
000160 2e 70 b0 3c d2 d8 cc 3c 4f 02 53 bc e6 17 2b bc
       0.021537866 0.025005732 -0.012878968 -0.01044271
000170 26 9e bc 3c 82 6a 84 3c d1 da 9d 3c 62 63 ce 3c
       0.02302463 0.016164068 0.019269379 0.025193874
000180 d3 63 08 bc df 0b 7e 3c 1a 49 41 bc 93 f7 58 bc
       -0.008324581 0.01550576 -0.011797214 -0.01324262
000190 35 ea b6 bb 84 d9 bc 3c 66 53 ac 3c 23 78 6c bc
       -0.005582119 0.023052938 0.021035861 -0.01443294
0001a0 de 12 92 3c 56 1f 97 3b 0f c4 be 3c b2 85 a0 3c
       0.017831262 0.00461189 0.023286847 0.019595
0001b0 a7 f8 20 bc b8 74 25 3c 02 d8 a5 3c e0 2b a0 3c
       -0.009824908 0.010098629 0.020244602 0.019552171
0001c0 dc c8 5e bc 2c c9 98 3c 9f 94 92 3c b6 d8 6d 3c
       -0.013597693 0.018650614 0.017893134 0.014517
0001d0 b0 7f 69 bb b3 5f fe 3b d9 f8 70 3c 18 47 e2 3c
       -0.0035629086 0.007762873 0.014707767 0.02762179
0001e0 3b 39 05 bc 5b a7 47 bc a8 4d 0a 3c 21 64 b1 3c
       -0.008131321 -0.012185897 0.008441366 0.02165419
0001f0 8c 25 57 bc 05 18 b2 3c 6a 6b 50 bc 53 6e 20 bc
       -0.0131315105 0.021739969 -0.012720922 -0.009791928

action_model._continuous_distribution.log_sigma f4 [1, 4]
000000 c7 f1 5f bd 0a 26 63 bd 56 52 5e bd f2 45 47 bd
       -0.054673936 -0.0554562 -0.05427774 -0.04865069

action_model._continuous_distribution.mu.weight f4 [4, 128]
000000 a1 11 7b 39 e3 f9 c0 bc 83 3f 03 3b 26 b4 e2 3b
       0.00023943793 -0.023556655 0.002002687 0.006918448
000010 4b 75 7b 3c 68 f3 84 bb c5 58 60 bc bf 03 f8 bc
       0.015347789 -0.0040573366 -0.013693039 -0.030275224
000020 a8 75 64 bc 7c 68 0c 3d 0f 18 b2 bb f3 f0 6c bc
       -0.013944067 0.03427933 -0.005434997 -0.014461744
000030 2e a1 b5 bb 0b 85 cc 3b 49 9a 2a bb ef cb d9 3c
       -0.0055428958 0.006241446 -0.0026031903 0.0265865
000040 05 cc e9 3c e3 57 c3 bc 35 e7 32 3b af a7 b0 3c
       0.028539667 -0.023845619 0.0027298455 0.021564333
000050 b2 67 bc 3c 50 71 db bb a5 98 b1 bb 87 a1 d5 3c
       0.022998665 -0.0066968575 -0.005419808 0.026077999
000060 1c b9 39 ba 09 4c 2c bc e3 b3 a2 3b d5 d9 b7 3b
       -0.00070847734 -0.010516175 0.004965292 0.0056106844
000070 e3 d1 a7 3c f3 2e fa 3a b1 6c 82 3c cc c6 ad 3c
       0.020485824 0.0019087478 0.015920969 0.021212958
000080 2a f5 d0 b8 3a 64 24 3b ad fa 23 3b 46 d3 ba 3c
       -9.963878e-05 0.0025084154 0.002502124 0.022805821
000090 a2 9c 6e bc c7 c5 81 bc 8d be 99 bc 7b 31 91 3c
       -0.014563711 -0.015841378 -0.01876762 0.01772379
0000a0 77 73 fc bc 23 a1 2c 3b 72 ab 99 bb a5 32 55 bc
       -0.030816777 0.0026341162 -0.0046896273 -0.013012563
0000b0 14 1c 31 bc 01 02 00 bc 8b d0 c2 ba 26 45 48 3c
       -0.010809917 -0.007812978 -0.0014863176 0.0122235175
0000c0 49 31 72 ba 96 c8 b1 3c ad d9 95 3c 5c df ef bb
       -0.00092389114 0.021702092 0.018292272 -0.0073203277
0000d0 67 12 d3 3c 55 89 85 3b 83 2a d9 ba 93 87 80 3b
       0.02576561 0.004075209 -0.0016568456 0.0039224117
0000e0 7b ab 98 3b 4b 29 34 3c 7c 31 c9 bb 88 a3 90 ba
       0.004659114 0.010996173 -0.006139932 -0.0011035064
0000f0 14 3e cf 3b b4 c3 fe 3c 51 6b b5 3c a7 3e 47 bc
       0.006324539 0.031099178 0.022145899 -0.012160934
000100 b8 e3 f2 ba 57 32 13 3d f2 cc ea bb a7 ee 8f bc
       -0.0018531 0.03593668 -0.0071655447 -0.017569853
000110 92 cf 33 3b 40 fc 1a bd 52 f1 8b bc cb 20 00 bc
       0.0027436954 -0.03783822 -0.017082844 -0.007820318
000120 3b b1 d1 bc 81 d5 f1 bb 2b 62 1f bc a0 df 0c 3c
       -0.025597205 -0.007380188 -0.009727995 0.008598238
000130 56 07 d7 3b 30 3b 97 3b 5b cb 82 bb 9c 65 cb ba
       0.006562154 0.00461521 -0.003991527 -0.0015517953
000140 31 22 0b 3d 5c f0 00 bc 7d 1d e7 bb cf 05 4d 3c
       0.033968154 -0.007869806 -0.007053076 0.012513592
000150 54 0c 4e bb 42 4e 63 3c 04 73 af bc fb 5d 15 bd
       -0.0031440454 0.013873639 -0.021417148 -0.03646658
000160 78 a9 12 3a 01 c2 03 3c 47 e5 fa 3b 19 a0 a6 3b
       0.0005594711 0.00804186 0.0076567265 0.005085003
000170 40 79 2d bc 43 f0 f2 3c a0 a2 ee 3b 12 d8 99 bc
       -0.01058799 0.029655581 0.00728257 -0.018779788
000180 04 93 42 bc d0 f5 8a 3c 70 41 4e bc d9 fb 3a bb
       -0.011875872 0.016962916 -0.012588844 -0.002853146
000190 23 06 ff bb 39 e9 22 bc 96 17 7a 3a 0d f6 35 3c
       -0.007782714 -0.0099433 0.0009540258 0.011106026
0001a0 a8 07 8e 3c 8d 8a c8 bc 52 b9 71 ba 7c 4b 67 bb
       0.017337635 -0.024480129 -0.0009221035 -0.0035292795
0001b0 7d 26 82 bb bc 37 92 3b 58 d3 02 3c f7 bc 29 3c
       -0.0039718733 0.0044622105 0.007984959 0.010359994
0001c0 e4 d5 35 bb 94 42 b2 3b af 7f e2 bc 6c 67 bc ba
       -0.0027745897 0.0054400656 -0.027648775 -0.0014374084
0001d0 bd 68 e2 3b ee 56 18 39 09 50 36 bb 40 09 18 bd
       0.0069094584 0.00014528233 -0.00278187 -0.037118196
0001e0 69 94 a9 bc 5f e2 f6 bc 84 65 d5 3a 7a 05 27 3c
       -0.02070065 -0.030137239 0.0016280864 0.010194177
0001f0 01 05 d0 3b 60 26 9c bc 3a 12 ec 3b fe 0f 19 bc
       0.0063482528 -0.019061267 0.007204321 -0.009342192
000200 c4 2a f7 bb aa 51 72 bb 39 2d 07 3c a4 49 b5 bb
       -0.00754294 -0.0036974945 0.008250528 -0.0055324603
000210 98 a3 c2 bb c1 04 ca 3c 2f 16 c5 bc d0 f9 12 bd
       -0.005939912 0.02466047 -0.02405843 -0.03588277
000220 98 8f 80 bd 2d 68 cb 3b 2b 96 8a 3c 38 ec d7 3b
       -0.06277388 0.006207487 0.016917309 0.0065894388
000230 5d 78 c7 3b b4 b2 48 bb 54 07 81 3c 8b a6 f3 3b
       0.0060873465 -0.0030624093 0.015750565 0.007435625
000240 cf 7e bc 3b 57 43 f7 3c 23 64 64 3a 89 fc f4 b8
       0.0057524214 0.030183477 0.00087124313 -0.00011681865
000250 86 21 81 bb 82 c0 80 bc 53 8a d9 bc 96 de 25 3c
       -0.003940764 -0.015716795 -0.026555216 0.010123869
000260 16 18 1d bc 4a ef 97 bb 98 c8 47 3c ea 31 a1 bb
       -0.009588262 -0.00463668 0.012193821 -0.0049192803
000270 dd 13 6d bc 19 ab 7e 3b 24 94 96 3c a6 f7 53 bb
       -0.014470068 0.0038859306 0.018381186 -0.0032343655
000280 8d 60 c6 3b 3e c1 c0 3c e4 a1 cc 3c ac c3 47 bc
       0.00605399 0.023529645 0.02497954 -0.012192648
000290 aa 30 26 3c d1 27 5e 3c 82 6f 7f bc 3c 74 02 bc
       0.010143438 0.013559298 -0.01559055 -0.007962283
0002a0 4d a5 4f 3c 60 a3 a9 3c 90 13 17 bc a3 85 97 3c
       0.012673688 0.020707786 -0.009220973 0.01849634
0002b0 72 69 ef bb d4 6c 43 bc e9 54 30 3c de 79 0d bc
       -0.007306271 -0.011927802 0.010762432 -0.008635012
0002c0 31 07 01 3d 11 a2 29 bc 16 38 1f 3d d7 13 cb bb
       0.031501 -0.010353581 0.038871847 -0.0061974335
0002d0 c2 5b b8 bc 62 a8 bc bc 66 fc 30 3c 8f e2 dd 3c
       -0.022504691 -0.02302951 0.010802364 0.02708557
0002e0 b9 6e 8c bc b7 a8 2e bc 8d 8b 5a 39 ed 42 d3 3c
       -0.01714264 -0.010660342 0.00020842087 0.025788749
0002f0 ba 35 70 bc a5 25 43 3b a6 91 cc 3c 03 45 c6 bb
       -0.014661247 0.0029777077 0.024971794 -0.0060507073
000300 75 6a 62 3c 43 a5 da 3b 1d b7 fa 3c c4 46 7b bb
       0.013819327 0.0066725328 0.030604893 -0.003834174
000310 cc fd 2f 3c 05 68 1b bc 98 aa f1 bb 8f e1 93 bc
       0.010741662 -0.009485249 -0.0073750727 -0.01805189
000320 a7 0a 97 3b ae cd 93 3b e9 c1 b3 3b 83 40 0c bc
       0.004609424 0.004510603 0.0054857624 -0.008560303
000330 55 7f b5 3b 6c b6 23 3d 85 95 af 3b 07 88 1e 3c
       0.005538861 0.039968893 0.0053584003 0.009675986
000340 56 60 e4 3b 44 45 de bc ec b9 07 3b 47 95 cf 3a
       0.006969492 -0.027132638 0.0020710183 0.0015837335
000350 6e 7d 17 3d 5f bf 56 3d 3f 26 4f 3b 51 93 08 3c
       0.036984853 0.0524286 0.003160849 0.008335904
000360 79 34 ca 3b 26 d9 79 bc 46 7c 2f bb d8 3f 18 3c
       0.006170806 -0.015249526 -0.0026776954 0.009292565
000370 c4 ab 16 3b fb d5 35 bd 8f 67 ad 3b f0 36 4f bc
       0.0022990564 -0.04439352 0.005291886 -0.012647375
000380 fa 5e 07 bc 54 09 e8 3a 97 83 5e bc 97 c9 a3 bc
       -0.00826239 0.0017702975 -0.013581178 -0.019993586
000390 c4 13 c3 3c 8e 48 6f 3c 88 c1 77 bc f6 53 64 3c
       0.023813136 0.014604701 -0.015121825 0.0139360335
0003a0 66 42 55 3c 61 25 a1 bc f4 f7 a1 bc 82 fc f8 3b
       0.013016319 -0.019671144 -0.019771554 0.0075984607
0003b0 93 7e 36 bb b2 d7 e4 37 68 16 61 bc 2b 9f 07 bc
       -0.002784644 2.7280159e-05 -0.013738252 -0.008277695
0003c0 e5 56 8d 3c d3 9c 8b 3a 7c 07 8b 3b 13 b1 5c bb
       0.017253349 0.0010651596 0.0042428356 -0.003367488
0003d0 4d 4b d9 3c b1 81 8d bc 03 32 0d 3c 16 e8 dd bc
       0.026525164 -0.017273756 0.008617881 -0.027088206
0003e0 7a f4 8e 3b 8e 41 5f 3c 85 37 b8 3c cd ea 85 bc
       0.00436264 0.013626469 0.022487411 -0.016347313
0003f0 fa bb 23 3d 5d 73 73 3b f7 fe 1e 3c bc 1f 23 3d
       0.03997419 0.003714762 0.009704343 0.039825186

action_model._continuous_distribution.mu.bias f4 [4]
000000 23 f7 95 3b 0c df 65 3b ea af d6 3a 58 b9 63 3c
       0.00457658 0.0035075573 0.0016379331 0.01389917

exp_avg f4 [128, 6]
000000 25 fe 81 34 e8 dc 16 38 ea 7c f0 35 c9 5e 58 b7
       2.4213037e-07 3.5968522e-05 1.7917748e-06 -1.2896672e-05
000010 8a 7e b3 33 f8 43 8b b7 57 04 21 b6 23 de ba b9
       8.3583544e-08 -1.6601742e-05 -2.3993396e-06 -0.0003564219
000020 d2 f0 94 b7 59 35 fa 38 b1 6d 00 b7 62 da 1d b7
       -1.7755116e-05 0.00011930866 -7.654934e-06 -9.408775e-06
000030 da 35 46 b6 49 08 e6 b9 32 58 b7 b7 02 c4 1a 39
       -2.9535645e-06 -0.00043875191 -2.185637e-05 0.00014759603
000040 5c e6 0e b7 54 4f b5 34 3d 7a 45 b5 8b 2e e5 b8
       -8.517494e-06 3.3771596e-07 -7.35661e-07 -0.0001092824
000050 c5 aa b6 b6 2d f8 1d 38 14 0e c4 b5 5a 00 8b 37
       -5.443903e-06 3.766285e-05 -1.4607235e-06 1.6570255e-05
000060 2f e0 e2 b5 63 a6 83 b9 2b dc 51 b7 b9 b9 b1 38
       -1.6903558e-06 -0.00025110235 -1.2508633e-05 8.474611e-05
000070 b7 ca 92 b6 49 b2 cb 36 94 2c b2 35 85 c7 4e 39
       -4.374738e-06 6.0706266e-06 1.3275007e-06 0.00019720018
000080 97 cf 24 37 85 8b 8a b8 59 8b 73 36 35 4f 87 36
       9.823495e-06 -6.60634e-05 3.6290933e-06 4.0325344e-06
000090 14 43 df b5 94 8d 81 b9 79 84 4e b7 90 b3 ae 38
       -1.6634317e-06 -0.0002471028 -1.23094005e-05 8.330413e-05
0000a0 60 56 a1 b6 eb 87 8c 36 24 75 12 b5 9e f8 a9 b8
       -4.8082293e-06 4.188148e-06 -5.45597e-07 -8.1048565e-05
0000b0 32 79 87 b6 00 c5 e8 37 36 82 b3 b5 76 2d 08 37
       -4.0374225e-06 2.774829e-05 -1.3374436e-06 8.116816e-06
0000c0 13 76 0a 35 cd b0 a0 38 a0 13 80 36 fc 80 d2 b7
       5.1580827e-07 7.662326e-05 3.816982e-06 -2.5094014e-05
0000d0 ad 07 03 36 50 9e 80 37 f9 5e c1 b5 7d 6a 60 b9
       1.952499e-06 1.5332509e-05 -1.4407261e-06 -0.00021401975
0000e0 3c de 32 b7 e5 1d 97 38 bc 60 84 b6 34 b0 0d 36
       -1.066137e-05 7.2058094e-05 -3.945168e-06 2.11132e-06
0000f0 49 9c be b5 5d 36 5d b9 92 50 30 b7 1f d2 94 38
       -1.4201588e-06 -0.00021096454 -1.0509177e-05 7.096328e-05
000100 38 59 84 b6 0e 45 ce 34 b3 b6 87 b5 84 80 1d b9
       -3.944293e-06 3.8420734e-07 -1.0111456e-06 -0.00015020563
000110 f5 11 fb b6 c3 dd 53 38 c7 24 44 b6 a9 9e 31 35
       -7.4824734e-06 5.0512852e-05 -2.9227683e-06 6.616852e-07
000120 10 67 e5 b2 c5 1d 85 b6 86 32 54 b4 71 1d b2 35
       -2.6705976e-08 -3.9671745e-06 -1.9762419e-07 1.3270602e-06
000130 60 2d be b3 6d ff 0a b4 c6 bb 67 b5 05 78 06 b9
       -8.855818e-08 -1.2945175e-07 -8.632745e-07 -0.00012823947
000140 7f 5a d6 b6 e3 69 37 38 8f 14 fc b5 53 49 3b 37
       -6.388232e-06 4.3729215e-05 -1.8781446e-06 1.1163141e-05
000150 04 3e 98 34 33 af 30 38 fa d2 0c 36 bb 58 6b b7
       2.8357329e-07 4.2124837e-05 2.098443e-06 -1.4027751e-05
000160 cd 64 6c 35 1b 04 2b 36 56 06 be 32 4c 88 5c 36
       8.8063535e-07 2.5483375e-06 2.2121792e-08 3.286189e-06
000170 d6 c5 2f 34 99 3a 91 b5 df 32 ba 33 97 a1 08 35
       1.6370117e-07 -1.0820396e-06 8.670553e-08 5.089909e-07
000180 40 e4 41 b5 37 05 e1 b8 8e 59 b3 b6 90 74 19 38
       -7.223025e-07 -0.000107298074 -5.3450412e-06 3.65866e-05
000190 d1 5d d7 b5 b3 fd 37 37 39 7f 20 35 9e 43 ba 38
       -1.6046052e-06 1.0966719e-05 5.978978e-07 8.881766e-05
0001a0 a3 75 94 36 4f ce fb b7 1c 9f db 35 76 ea 38 b6
       4.4244384e-06 -3.0017602e-05 1.6363078e-06 -2.755461e-06
0001b0 7b ad e7 b5 bc 6f 86 b9 49 4d 56 b7 20 5a b4 38
       -1.7261331e-06 -0.0002564172 -1.2773388e-05 8.599856e-05
0001c0 8d 8f ab b6 6b 5d 71 b6 fa fc 8d b5 aa c8 24 b9
       -5.1129086e-06 -3.5966175e-06 -1.0578945e-06 -0.00015715012
0001d0 cb 56 03 b7 0d 4b 5f 38 ef 24 26 b6 19 3e b1 36
       -7.8284165e-06 5.323724e-05 -2.4757426e-06 5.28224e-06
0001e0 5e 49 cc 34 8a 15 6d 38 0f f7 3c 36 89 0d 9f b7
       3.8051343e-07 5.6525263e-05 2.815799e-06 -1.896058e-05
0001f0 33 c5 a5 35 8d 08 c9 35 19 51 14 b3 e1 20 ac b6
       1.235085e-06 1.4978156e-06 -3.4532693e-08 -5.129827e-06
000200 65 31 89 b4 16 c9 e9 35 a7 fa a1 b3 62 72 8e 34
       -2.5554178e-07 1.7418377e-06 -7.54274e-08 2.6532786e-07
000210 cc 70 3f b5 eb 2c de b8 11 15 b1 b6 30 5f 18 38
       -7.1317186e-07 -0.000105941515 -5.2774635e-06 3.6328274e-05
000220 43 0d b5 b5 39 5f 4e 37 3e e3 7c 34 82 be 12 38
       -1.348941e-06 1.2300728e-05 2.3551999e-07 3.4986537e-05
000230 01 ec e9 35 60 49 3b b7 be 51 65 35 a2 7f 3d 37
       1.7428539e-06 -1.11631525e-05 8.54281e-07 1.1294995e-05
000240 86 4e f3 b4 38 2f 8d b8 0b 0f 61 b6 b5 92 be 37
       -4.531941e-07 -6.732199e-05 -3.3536369e-06 2.271808e-05
000250 e9 6e a3 b5 8d b2 f5 35 ee 7f e6 b5 bb c0 85 b9
       -1.2176725e-06 1.8305888e-06 -1.7173568e-06 -0.00025511332
000260 60 36 55 b7 21 a3 b3 38 45 b9 ab b6 e5 ab 6d 34
       -1.27084495e-05 8.56577e-05 -5.1177653e-06 2.213488e-07
000270 f1 fe ce 34 7d 3a 70 38 a4 78 3f 36 71 cc a1 b7
       3.8555984e-07 5.727493e-05 2.853144e-06 -1.9287896e-05
000280 9c 56 8f 35 d1 04 13 b5 04 10 76 b5 a3 c8 0e b9
       1.0679537e-06 -5.4768776e-07 -9.1665447e-07 -0.00013616918
000290 af 9b e3 b6 7a ab 43 38 c0 2f 01 b6 7a f7 91 37
       -6.783251e-06 4.6651323e-05 -1.9250292e-06 1.7400587e-05
0002a0 ef 59 44 34 f9 df e3 37 08 a0 b5 35 55 14 1a b7
       1.828664e-07 2.7164804e-05 1.3532126e-06 -9.183849e-06
0002b0 47 a4 0a 35 80 a4 2c b5 bf d3 84 b5 f5 26 1a b9
       5.164806e-07 -6.431437e-07 -9.896393e-07 -0.00014701097
0002c0 f1 ba f5 b6 91 9b 53 38 2c 99 0c b6 50 c3 99 37
       -7.323332e-06 5.0451203e-05 -2.0950783e-06 1.832997e-05
0002d0 79 59 89 b3 90 66 1f b7 04 19 fe b4 fd f7 77 36
       -6.3958346e-08 -9.501018e-06 -4.7329388e-07 3.6950216e-06
0002e0 69 4b 5b 34 98 98 32 37 be 2d 65 b5 7c fc 04 b9
       2.0423398e-07 1.0645155e-05 -8.537571e-07 -0.00012682559
0002f0 80 fd d3 b6 1c 2f 33 38 ee 0b 21 b6 be e6 21 36
       -6.3178013e-06 4.27208e-05 -2.3997814e-06 2.412518e-06
000300 5d 59 84 b4 e4 98 19 b8 7d d8 f4 b5 50 71 4f 37
       -2.4651936e-07 -3.6620433e-05 -1.8242423e-06 1.2364544e-05
000310 09 04 33 b5 e3 fd 3d 35 d7 2b c5 b3 b2 d3 64 b7
       -6.668857e-07 7.077744e-07 -9.181502e-08 -1.3639148e-05
000320 33 62 36 b5 ae 8e 9c 36 e5 29 68 b4 f2 ee d5 35
       -6.794318e-07 4.6657724e-06 -2.1621925e-07 1.5939279e-06
000330 47 8d 9d b5 a1 d8 36 b9 42 bc 11 b7 ac a9 75 38
       -1.1738529e-06 -0.00017437573 -8.686506e-06 5.857057e-05
000340 51 97 6a b6 a4 14 03 b6 c4 14 87 b5 92 c4 1c b9
       -3.4956795e-06 -1.9532536e-06 -1.0064327e-06 -0.00014950547
000350 6e e6 f9 b6 c8 37 57 38 4c 43 14 b6 c9 ba a9 37
       -7.447604e-06 5.1311945e-05 -2.209289e-06 2.0233349e-05
000360 86 31 6a 35 78 e5 07 39 13 a1 d8 36 bb a6 35 b8
       8.724386e-07 0.00012960087 6.456053e-06 -4.3309043e-05
000370 bc 8c 25 36 bc dd 32 36 db f7 b8 35 0b aa 56 39
       2.4668834e-06 2.6653133e-06 1.3781204e-06 0.00020471976
000380 79 18 2b 37 78 c6 8f b8 be ea 86 36 e9 0d a8 36
       1.0198092e-05 -6.855739e-05 4.020839e-06 5.0084095e-06
000390 b9 ff 10 b5 2c 47 a8 b8 c2 1f 86 b6 3e 51 e4 37
       -5.4016306e-07 -8.024121e-05 -3.9972083e-06 2.721755e-05
0003a0 f2 b1 b7 b5 85 f9 ad 36 29 04 10 33 c1 23 a7 36
       -1.3686351e-06 5.1848497e-06 3.3531396e-08 4.98115e-06
0003b0 4f 37 85 34 c6 48 b2 b5 98 c9 95 34 03 eb e0 36
       2.4813423e-07 -1.3283213e-06 2.7900091e-07 6.703079e-06
0003c0 55 a9 66 b5 c2 d8 05 b9 9e 5c d5 b6 b1 26 32 38
       -8.592809e-07 -0.00012764617 -6.3586767e-06 4.247454e-05
0003d0 eb a5 3c b6 48 68 0d b7 0d e3 c5 35 39 a8 65 39
       -2.811076e-06 -8.428535e-06 1.4743724e-06 0.0002190181
0003e0 a1 0b 37 37 1b 58 99 b8 94 7a 9d 36 9f 4f 2b 37
       1.0910358e-05 -7.3120194e-05 4.6932346e-06 1.02109325e-05
0003f0 aa 9e fc b5 ac 96 92 b9 5a ac 69 b7 f0 0e c6 38
       -1.882164e-06 -0.0002795955 -1.3928011e-05 9.444158e-05

exp_avg_sq f4 [128, 6]
000000 0e 52 b0 2d 0a 7b ed 34 43 dd 96 30 98 f7 42 33
       2.0045323e-11 4.4234213e-07 1.0976823e-09 4.539433e-08
000010 20 43 29 31 4f 63 12 31 c7 d7 87 2e 67 f6 b6 35
       2.4630893e-09 2.1302247e-09 6.177419e-11 1.3631769e-06
000020 0b 76 68 31 c7 d9 0c 34 c7 9a 80 32 92 7e 12 32
       3.3827543e-09 1.3117743e-07 1.4971546e-08 8.527097e-09
000030 4f 88 29 2e 87 56 64 35 67 0e 11 31 bf b8 ad 33
       3.8547218e-11 8.506253e-07 2.1108464e-09 8.0895454e-08
000040 0a 8b 25 32 e9 c5 bb 31 3d cb 25 2e 7b 4d 5f 35
       9.635878e-09 5.464916e-09 3.769717e-11 8.318672e-07
000050 7c db 0d 31 b1 d1 ad 33 6b ee 13 32 55 6f 8a 31
       2.0642963e-09 8.094083e-08 8.610736e-09 4.0289856e-09
000060 51 a0 0a 2d 1e b6 3a 34 62 39 ed 2f 55 a1 7e 32
       7.879989e-12 1.7388854e-07 4.3150822e-10 1.48214285e-08
000070 52 4d 85 31 26 cb cf 30 24 66 00 2e c7 ef 2c 35
       3.8795998e-09 1.511897e-09 2.919455e-11 6.4423915e-07
000080 08 b9 db 30 d7 c0 82 33 84 36 f6 31 36 75 9b 31
       1.5986936e-09 6.088674e-08 7.16574e-09 4.524419e-09
000090 74 84 43 2e 0e ab 83 35 25 4a 27 31 18 d1 c1 33
       4.445551e-11 9.810044e-07 2.4343845e-09 9.025297e-08
0000a0 8c ff 69 32 73 ab e3 31 81 6e ef 2d d3 3d 21 35
       1.362049e-08 6.626061e-09 2.7220228e-11 6.006714e-07
0000b0 17 dd cc 30 45 86 77 33 c5 85 d2 31 b9 d6 74 31
       1.4905791e-09 5.7631286e-08 6.1270122e-09 3.5628729e-09
0000c0 67 47 df 2d 20 5d 16 35 05 0b bf 30 5f 1a 6c 33
       2.5383874e-11 5.601487e-07 1.3900211e-09 5.4972016e-08
0000d0 63 68 bd 31 2e 51 48 31 89 4a ce 2c 6f ec 0a 34
       5.5124914e-09 2.9149976e-09 5.863147e-12 1.2938266e-07
0000e0 07 82 b0 2f 83 78 3e 32 2c fd 4d 31 fb 92 6a 30
       3.2106603e-10 1.1086857e-08 2.9975338e-09 8.5337576e-10
0000f0 8b 45 5b 2c 47 aa 93 33 45 9d 3b 2f f7 c8 e3 31
       3.1160376e-12 6.876194e-08 1.7063424e-10 6.6294166e-09
000100 69 34 64 30 07 45 f8 2f c5 8b f8 2c 27 61 27 34
       8.3020396e-10 4.5159984e-10 7.0641015e-12 1.5588431e-07
000110 89 a9 d4 2f 6e 54 7b 32 a5 8c 00 31 e9 2d ae 30
       3.8683037e-10 1.462932e-08 1.8706399e-09 1.2673215e-09
000120 22 65 21 28 b9 60 59 2f f5 17 0a 2b 24 e3 ad 2d
       8.959225e-15 1.9770398e-10 4.9060696e-13 1.9768694e-11
000130 66 65 e8 2b 2d 4f 59 2b f5 51 09 2d c4 f3 38 34
       1.6512735e-12 7.7203765e-13 7.8057465e-12 1.7225017e-07
000140 37 fd ea 2f df 05 8e 32 f4 ca 10 31 29 bb 75 30
       4.2744272e-10 1.6533646e-08 2.1070123e-09 8.939645e-10
000150 d2 0b b1 2b 3f 75 ee 32 2f 7c 97 2e 84 c1 1a 31
       1.2579887e-12 2.7760164e-08 6.8887444e-11 2.251995e-09
000160 0c 77 38 30 49 08 60 2f 2c 49 23 28 b4 ec 5b 2f
       6.7107986e-10 2.0375625e-10 9.064184e-15 2.0002028e-10
000170 1d b6 0b 2b 2e 5e ac 2d 06 7c 1d 2c a2 d7 93 2b
       4.9635453e-13 1.959596e-11 2.2379889e-12 1.0504828e-12
000180 25 77 78 2d 3b 53 a7 34 dc 97 54 30 82 4c e4 32
       1.4123623e-11 3.1166732e-07 7.7340956e-10 2.6577485e-08
000190 54 17 ef 31 ac 7d 0c 31 a1 44 8a 2c a2 3a ba 33
       6.9584676e-09 2.0444118e-09 3.9298152e-12 8.671965e-08
0001a0 7b 9c 6c 2f fa e1 11 32 88 c7 6a 30 f2 65 ec 2f
       2.1519668e-10 8.491492e-09 8.5412255e-10 4.3000586e-10
0001b0 83 7e 27 2d bc 97 61 34 ec 4f 0f 30 37 d6 a7 32
       9.520942e-12 2.1009959e-07 5.213667e-10 1.9538772e-08
0001c0 28 3d 55 31 00 2f c6 30 2b 19 60 2d 63 ea 96 34
       3.1030343e-09 1.4419754e-09 1.2738514e-11 2.8110216e-07
0001d0 83 be 3f 30 74 ee e8 32 44 99 50 31 04 ce d6 30
       6.975613e-10 2.711679e-08 3.0355105e-09 1.5629102e-09
0001e0 c5 23 42 2c 8a bd 82 33 5f 1c 26 2f cb ff ce 31
       2.7588914e-12 6.088074e-08 1.5107691e-10 6.0244694e-09
0001f0 1a d3 e7 2f ef 14 da 2f 90 84 c3 28 20 ab 03 30
       4.2168652e-10 3.9668843e-10 2.1706839e-14 4.7900706e-10
000200 3f 4a a7 2b 9f 24 1c 2e 49 a7 90 2d 8c 3f 46 2c
       1.1886671e-12 3.550282e-11 1.6445194e-11 2.8172768e-12
000210 e6 35 1e 2d c2 16 55 34 71 5e 07 30 1d 95 a9 32
       8.993228e-12 1.984545e-07 4.9246923e-10 1.9741998e-08
000220 e1 e9 e7 30 8f 29 8a 30 08 49 4c 2e a3 92 89 35
       1.6873934e-09 1.0052633e-09 4.6449095e-11 1.0249972e-06
000230 a6 ca 2e 31 cd 6d d1 33 d1 cf 4e 32 5d c4 c3 31
       2.5435525e-09 9.7522936e-08 1.203803e-08 5.697571e-09
000240 0c a2 b2 2b 63 98 f0 32 ca d7 98 2e f5 db 0e 31
       1.2692638e-12 2.8008975e-08 6.9504916e-11 2.078875e-09
000250 8e dc 82 30 4a 19 4b 2f 92 b6 06 2e e9 70 35 35
       9.52143e-10 1.8471727e-10 3.0630228e-11 6.759206e-07
000260 24 87 e6 30 90 a9 8c 33 18 f4 ff 31 49 ef 8f 31
       1.6773112e-09 6.550101e-08 7.449227e-09 4.1890513e-09
000270 5f 10 c9 2a 44 67 07 32 0c 09 ac 2d 5e 31 5c 30
       3.5716132e-13 7.881514e-09 1.9558154e-11 8.010569e-10
000280 3c 08 a0 2e b4 c7 ab 2d fa f7 07 2e c9 21 37 35
       7.27742e-11 1.9529135e-11 3.0915694e-11 6.8221976e-07
000290 26 ad e8 30 78 f2 8f 33 b0 92 e1 31 b0 bd 75 31
       1.6929433e-09 6.703061e-08 6.5650383e-09 3.5760017e-09
0002a0 89 db 9d 2b 11 9d d4 32 1f 11 87 2e ef 4e 0c 31
       1.1216454e-12 2.4751474e-08 6.1421306e-11 2.041755e-09
0002b0 39 16 05 30 ec 56 67 2f 38 fa 4e 2e c4 62 8b 35
       4.84167e-10 2.1040208e-10 4.7061216e-11 1.0385052e-06
0002c0 59 18 31 31 94 1a d5 33 6d 54 49 32 29 dd c4 31
       2.577073e-09 9.92342e-08 1.1718936e-08 5.7294938e-09
0002d0 c6 cd 45 2d 3a 35 85 34 f3 3e 29 30 4c 36 d1 32
       1.1243844e-11 2.4811908e-07 6.15713e-10 2.4355494e-08
0002e0 06 03 24 31 99 6b b9 30 14 98 09 2d 33 52 39 34
       2.386686e-09 1.3491103e-09 7.8213165e-12 1.7259372e-07
0002f0 38 75 eb 2f 1b 9e 89 32 26 11 1e 31 66 de b9 30
       4.282954e-10 1.6020797e-08 2.3001774e-09 1.3523731e-09
000300 ad 7b cf 2a ee b9 0b 32 17 87 b1 2d 83 8e 51 30
       3.6856404e-13 8.13314e-09 2.0182562e-11 7.623628e-10
000310 8a 8e d7 2e 1e 06 63 2e 0b 05 1e 2b ee d4 54 32
       9.802388e-11 5.1619257e-11 5.6139875e-13 1.2388439e-08
000320 a0 34 07 2e 82 c0 9f 30 de 31 37 2f 92 0f 94 2e
       3.0742187e-11 1.1623487e-09 1.666147e-10 6.7330266e-11
000330 3e b7 10 2d cd e9 42 34 1a a5 f7 2f c5 68 98 32
       8.22614e-12 1.8152714e-07 4.504635e-10 1.7742773e-08
000340 10 87 d4 30 60 ba a3 30 7e ac 99 2e 76 fa ce 35
       1.5463417e-09 1.1912782e-09 6.988275e-11 1.542109e-06
000350 b2 7c 83 31 11 15 22 34 d4 6b 79 32 31 3d 0f 32
       3.826778e-09 1.509509e-07 1.4518225e-08 8.337609e-09
000360 19 31 ca 2d b8 29 08 35 11 00 ad 30 57 57 40 33
       2.2986545e-11 5.0724657e-07 1.2587426e-09 4.478292e-08
000370 49 59 13 32 b7 32 84 31 39 d2 35 2d aa e3 74 34
       8.576827e-09 3.8474712e-09 1.0335338e-11 2.2807095e-07
000380 1e 92 1b 30 8e 62 b5 32 2c 47 17 31 6c 8e 19 31
       5.6596317e-10 2.111599e-08 2.2013849e-09 2.2345388e-09
000390 86 56 de 2c ea ba 15 34 ee 3c be 2f bb d9 43 32
       6.3192255e-12 1.3944705e-07 3.4604092e-10 1.14e-08
0003a0 3e 48 72 31 63 c9 7e 30 42 4e 3b 2d b4 46 7c 34
       3.52567e-09 9.269085e-10 1.0647096e-11 2.349505e-07
0003b0 70 43 20 30 fd e9 af 32 59 be 93 31 87 a2 ca 30
       5.8303495e-10 2.0479087e-08 4.299903e-09 1.4743627e-09
0003c0 ce 3f e5 2c 65 62 1a 34 ba 26 c4 2f 96 3c 50 32
       6.515655e-12 1.4378163e-07 3.567971e-10 1.2120969e-08
0003d0 1c fb 62 31 26 96 83 30 18 17 fb 2c c4 17 29 34
       3.3030068e-09 9.574179e-10 7.136413e-12 1.5747997e-07
0003e0 cd d6 d6 2f 6f 6f 7f 32 0d 17 fa 30 a9 79 9e 30
       3.9078998e-10 1.4868291e-08 1.8196445e-09 1.1530591e-09
0003f0 e3 3e 6d 2d fa c4 9f 34 4c fe 4a 30 99 cd fd 32
       1.3485854e-11 2.9759377e-07 7.384855e-10 2.9546571e-08

exp_avg f4 [128]
000000 2d 1d 4b 37 c5 96 fb b8 11 da 1a b9 90 47 1a b8
       1.2106536e-05 -0.00011996696 -0.0001476782 -3.678311e-05
000010 25 3f b1 b8 d3 32 8b 38 6e 6c ae b8 22 d7 e4 b7
       -8.451779e-05 6.637503e-05 -8.317163e-05 -2.7279897e-05
000020 79 58 d8 37 2f 12 97 b8 19 ea 94 b8 71 0d 54 b8
       2.5790405e-05 -7.203628e-05 -7.100794e-05 -5.0557257e-05
000030 7e 38 b3 b5 b2 0a 35 b8 f0 e0 6d 37 e8 74 94 35
       -1.3352981e-06 -4.3163724e-05 1.4178673e-05 1.1060883e-06
000040 52 7a 17 b8 b7 c6 fa 37 89 ff b4 b8 3f db 5d b8
       -3.6115125e-05 2.9894856e-05 -8.630666e-05 -5.2894695e-05
000050 54 99 9f 37 ab be e7 b5 13 90 15 b8 a8 91 45 37
       1.9025676e-05 -1.7266333e-06 -3.5658548e-05 1.1776028e-05
000060 59 15 be b7 f5 13 b4 b8 31 b7 a1 37 92 3c 40 b8
       -2.2659706e-05 -8.586786e-05 1.9278e-05 -4.5832778e-05
000070 42 66 19 37 da 8a 4f b8 57 9c 56 b6 b6 0b 33 b8
       9.143319e-06 -4.948196e-05 -3.1979487e-06 -4.2687832e-05
000080 9c cb 4e b7 4d 0a 9a b6 b9 2c 76 b8 84 10 53 b8
       -1.2325963e-05 -4.590757e-06 -5.869262e-05 -5.03217e-05
000090 af f6 36 38 a5 81 90 38 93 8f e2 b7 86 06 e1 35
       4.3621923e-05 6.890603e-05 -2.7008156e-05 1.6765705e-06
0000a0 48 34 34 b8 63 99 9a 38 f6 5b c5 b8 a3 db 9a 36
       -4.2964035e-05 7.371863e-05 -9.410821e-05 4.6151267e-06
0000b0 ca f3 7d b8 79 fa 09 35 b2 57 43 b7 30 21 06 38
       -6.0546947e-05 5.140096e-07 -1.1643324e-05 3.1978998e-05
0000c0 13 94 8e 37 c9 c3 32 36 f6 91 80 36 ec 06 05 37
       1.6996672e-05 2.663803e-06 3.8316894e-06 7.929029e-06
0000d0 87 2e 4d 37 49 ef 81 b8 30 d8 35 38 1e 6d a4 b8
       1.2229785e-05 -6.19577e-05 4.3355103e-05 -7.840454e-05
0000e0 16 ab b0 38 04 53 9f b6 fe b5 b0 b8 04 f0 3f b6
       8.424201e-05 -4.7482336e-06 -8.426233e-05 -2.8600925e-06
0000f0 df c8 4b b8 97 93 e4 b8 b2 7d 67 b8 a2 50 8d b8
       -4.8586047e-05 -0.00010899378 -5.5191755e-05 -6.738423e-05
000100 c2 2b c3 b8 4a 5c ab 36 26 8a f7 37 ae d6 15 b8
       -9.306475e-05 5.106941e-06 2.9509025e-05 -3.5724304e-05
000110 17 9d 45 b8 2a 27 b1 b8 80 3b 8c 36 82 d7 33 b8
       -4.711476e-05 -8.4473126e-05 4.179252e-06 -4.2877633e-05
000120 20 55 fc b7 2f 61 83 b7 f2 34 ac b8 a2 41 06 36
       -3.008038e-05 -1.5661672e-05 -8.211461e-05 2.000576e-06
000130 89 df 11 37 a5 8a 9f 38 19 e6 02 37 7a ac f8 b8
       8.694719e-06 7.6075354e-05 7.802178e-06 -0.00011857688
000140 0b b9 41 b7 b9 d6 d7 b8 9d bd b3 b7 8b 98 12 b8
       -1.154678e-05 -0.00010291994 -2.1426758e-05 -3.495118e-05
000150 b3 21 1f b7 57 86 97 b7 3a b9 af b8 a3 4e e7 b7
       -9.484985e-06 -1.806316e-05 -8.3791514e-05 -2.7573964e-05
000160 a1 de 2d 38 15 a0 14 b8 2a 3a d8 35 96 4d 85 38
       4.1453754e-05 -3.5435038e-05 1.6110182e-06 6.356386e-05
000170 1f 33 aa 37 2b c2 3c b8 c6 6a 21 b7 0b 3d 5e b8
       2.0289384e-05 -4.5003526e-05 -9.621208e-06 -5.2985775e-05
000180 a5 b6 53 b8 e0 b7 a0 b8 db dc c6 b6 61 4d d9 36
       -5.047642e-05 -7.663644e-05 -5.926571e-06 6.476112e-06
000190 12 bc 72 b8 da 0c 60 b6 7d 8c 1b 37 94 cf ae 37
       -5.787245e-05 -3.3386082e-06 9.27143e-06 2.0839077e-05
0001a0 d9 94 3a b9 79 07 0a b5 79 a2 85 b6 2a 2e 40 b8
       -0.00017793792 -5.141988e-07 -3.982623e-06 -4.581936e-05
0001b0 79 f0 f6 b7 a3 5a 01 b9 fa a1 95 37 8c 8e 2b b9
       -2.9437464e-05 -0.00012336163 1.783761e-05 -0.00016360934
0001c0 ef 88 9f b7 a7 d2 bb b7 fe 4d b5 b6 4a 06 84 37
       -1.9018042e-05 -2.239023e-05 -5.4033e-06 1.5738555e-05
0001d0 40 04 d3 34 9f 8e c4 36 24 40 30 b8 81 73 c5 b7
       3.9304905e-07 5.8578585e-06 -4.2021406e-05 -2.3538016e-05
0001e0 bf 43 1a 38 f1 ca 04 b9 88 8e 9d b7 93 19 b2 35
       3.6779555e-05 -0.00012664103 -1.878223e-05 1.3269477e-06
0001f0 bd 5d 81 36 4a ae c3 37 b6 42 e1 b6 65 5f 29 b8
       3.855412e-06 2.3326971e-05 -6.7132887e-06 -4.0381583e-05
