results/DroneAgentMGO5/DroneAgent/DroneAgent-5000028.onnx (onnx, 724643 bytes, 10 tensors)

network_body._body_endoder.seq_layers.0.weight f4 [128, 236]
0.29768166 -0.24215089 0.109358855 0.11184038 0.094712764 0.49536678 -0.24736974 0.10066937
0.34908077 0.120988816 0.107779026 -0.26993048 -0.10366354 0.20400314 -0.00807297 0.53104395
-0.084398516 -0.25437903 0.122561395 0.08918558 0.12774529 -0.2625099 -0.02242378 0.08455141
0.10724219 0.07172086 -0.51137227 0.10686682 0.5765375 -0.061255366 -0.342012 -0.12785795
0.12075448 0.6772839 0.24492463 -0.013175336 -0.47269532 0.10954142 0.53154814 0.21722382
-0.40458146 -0.27521825 0.31918365 0.6401638 0.15853734 0.09404803 -0.5175736 -0.11023422
0.9424677 0.14991301 -0.0037696029 0.08738262 -0.34252802 0.0043089576 -0.023281327 0.09680162
-0.05208216 -0.09235888 -0.18100296 -0.098421656 -0.3106231 -0.10944961 0.07479339 -0.07597103
-0.06269208 0.3142018 0.055188242 0.014694553 -0.364225 -0.11322528 -0.18224049 0.059242398
0.19307303 -0.40393424 -0.116347425 0.39178112 -0.18222854 -0.013544816 -0.3818031 -0.3389049
0.29933864 -0.0516077 -0.025477283 -0.4485234 -0.39725363 0.35246882 0.058003813 0.15332738
-0.84717697 -0.34076113 0.040209904 0.13325374 0.19918053 -0.74191135 -0.25359127 0.05921954
-0.4288508 0.12285057 -0.34296653 -0.07473019 0.028265905 -0.14581408 0.076504685 -0.22435133
0.05856288 -0.03197319 0.13315074 -0.10240251 0.13890278 -0.08872228 -0.5596057 0.03549998
0.29518119 -0.2066256 0.3408999 -0.38824365 -0.4624895 0.35140082 0.06790674 -0.22792882
-0.7071467 0.024617374 0.32740223 -0.36234742 0.41524997 -0.16635191 0.45557535 0.22594658
0.123326786 -0.17649026 -0.25996563 -0.031493932 0.30142292 -0.46715212 0.23657875 -0.55664575
0.06620338 0.29810247 -0.2713437 -0.27293897 -0.17381418 -0.51245725 0.13986889 0.39254138
0.16207309 -0.2653456 -0.17501152 0.41264406 -0.42699924 -0.27999657 0.113117985 0.11672284
-0.016012505 -0.43682197 0.07429685 -0.0056792605 -0.113993585 0.09148773 0.19837953 -0.12489487
0.20368078 -0.4560088 0.09478471 -0.3234537 -0.07139312 0.059829142 0.2641377 0.023508059
0.013323289 -0.11614463 0.60712135 -0.11068021 -0.12014993 -0.48857424 -0.12969187 0.25733694
0.12218591 -0.13069235 -0.45032707 -0.2062347 -0.21682657 -0.303807 0.18680319 -0.22760329
-0.12745102 -0.032652125 0.24793366 0.14362304 0.26036823 0.07888462 0.030407565 0.6248486
-0.13301748 0.61199623 0.23323739 0.21855055 0.2898155 0.02712591 0.14907941 -0.10037792
0.09706574 0.34049916 -0.01347799 0.13451454 0.008145851 -0.4600817 -0.05703528 0.019838678
0.13632105 0.12181388 -0.018067006 0.15603162 0.05390298 0.176191 0.5674645 -0.08810343
0.13578795 0.36688104 0.16969948 -0.2968963 0.10022206 -0.8349009 -0.36723804 -0.1282742
0.0048843105 -0.07518955 -0.2871256 0.10927687 -0.4841925 -0.084235355 -0.41291207 0.26412436
0.046219565 0.20332156 -0.01818378 0.22451152 0.20082322 -0.14488128 -0.049482748 0.30772614
-0.04908953 0.12601717 -0.35666272 0.7015139 0.040627576 -0.11325188 0.28180766 -0.49618015
0.3036013 0.12282551 -0.022395669 0.21669266 -0.55459046 0.5567534 -0.020707205 -0.06541744
00000000: bb69 983e 67f6 77be 89f7 df3d 920c e53d
00000010: c4f8 c13d b7a0 fd3e 7e4e 7dbe be2b ce3d
00000020: b7ba b23e fcc8 f73d 40bb dc3d 5434 8abe
00000030: 8d4d d4bd 33e6 503e 7e44 04bc 7ff2 073f
00000040: 21d9 acbd f83d 82be 7801 fb3d eea6 b63d
00000050: a9cf 023e b367 86be 13b2 b7bc 4a29 ad3d
00000060: cba1 db3d 63e2 923d 4be9 02bf fedc da3d
00000070: f697 133f e8e6 7abd 321c afbe 32ed 02be
00000080: 204e f73d 7a62 2d3f 86cd 7a3e 5ddd 57bc
00000090: 1f05 f2be 4157 e03d 8a13 083f ec6f 5e3e
000000a0: 4d25 cfbe 68e9 8cbe 0a6c a33e c6e1 233f
000000b0: 9d57 223e 419c c03d b47f 04bf 7bc2 e1bd
000000c0: 9045 713f cc82 193e 710b 77bb a9f5 b23d
000000d0: d55f afbe 2832 8d3b 7bb8 bebc ee3f c63d
000000e0: 1a54 55bd a726 bdbd d758 39be 4b91 c9bd
000000f0: fe09 9fbe 1e27 e0bd 472d 993d b396 9bbd
00000100: b564 80bd 0fdf a03e 110d 623d 6cc1 703c
00000110: b37b babe a8e2 e7bd 409d 3abe 28a8 723d
00000120: f0b4 453e 78d0 cebe 8f47 eebd 8997 c83e
00000130: 1e9a 3abe 13eb 5dbc b27b c3be f184 adbe
00000140: ea42 993e 9862 53bd bcb5 d0bc dca4 e5be
00000150: d464 cbbe cb76 b43e 6895 6d3d da01 1d3e
00000160: 97e0 58bf 3e78 aebe 24b3 243d ab73 083e
00000170: fbf5 4b3e e7ed 3dbf b7d6 81be 3090 723d
00000180: 5592 dbbe 1499 fb3d 4f99 afbe 240c 99bd
00000190: e68d e73c 4950 15be 7dae 9c3d 5bbc 65be
000001a0: a1df 6f3d 52f6 02bd ab58 083e 68b8 d1bd
000001b0: 883c 0e3e 07b4 b5bd 5242 0fbf 6d68 113d
000001c0: fd21 973e a995 53be 6f8a ae3e dfc7 c6be
000001d0: 6ccb ecbe cfea b33e b012 8b3d 2c66 69be
000001e0: 9107 35bf 60aa c93c 44a1 a73e 9a85 b9be
000001f0: a59b d43e 2858 2abe 2c41 e93e 8a5e 673e
00000200: c192 fc3d ddb9 34be 371a 85be c8ff 00bd
00000210: 1b54 9a3e 902e efbe b341 723e 5680 0ebf
00000220: a395 873d e3a0 983e 90ed 8abe a8be 8bbe
00000230: 58fc 31be 6630 03bf ca39 0f3e 2ffb c83e
00000240: 7df6 253e 61db 87be 3836 33be 1546 d33e
00000250: a59f dabe b65b 8fbe 67aa e73d 620c ef3d
00000260: a82c 83bc 21a7 dfbe f228 983d 1719 babb
00000270: 7875 e9bd eb5d bb3d 0124 4b3e e2c8 ffbd
00000280: b291 503e fc79 e9be 7c1e c23d b99b a5be
00000290: 8e36 92bd 670f 753d 0e3d 873e f993 c03c
000002a0: ed49 5a3c 3cdd edbd 4e6c 1b3f 4eac e2bd
000002b0: 2b11 f6bd 6726 fabe f2cd 04be abc1 833e
000002c0: 9b3c fa3d 37d4 05be 4591 e6be 302f 53be
000002d0: c907 5ebe 978c 9bbe 5649 3f3e d610 69be
000002e0: 8582 02be 3cbe 05bd 52e2 7d3e eb11 133e
000002f0: fc4e 853e 428e a13d 4919 f93c 14f6 1f3f
00000300: bc35 08be c9ab 1c3f c8d5 6e3e b7cb 5f3e
00000310: b262 943e 2837 de3c 46a8 183e f092 cdbd
00000320: 67ca c63d e855 ae3e cad2 5cbc 2ebe 093e
00000330: 2d76 053c d48f ebbe d39d 69bd b984 a23c
00000340: bf97 0b3e 8e79 f93d 4201 94bc c1c6 1f3e
00000350: 5fc9 5c3d 6a6b 343e 5a45 113f 926f b4bd
00000360: ff0b 0b3e d5d7 bb3e b3c5 2d3e cb02 98be
00000370: 3941 cd3d 11bc 55bf a006 bcbe 505a 03be
00000380: 910c a03b fbfc 99bd 2002 93be 8dcc df3d
00000390: 14e8 f7be 9683 acbd 3669 d3be 4f3b 873e
000003a0: ba50 3d3d 8733 503e 27f6 94bc 59e6 653e
000003b0: 9aa4 4d3e c25b 14be 6cae 4abd 488e 9d3e
000003c0: 1a12 49bd a50a 013e 7f9c b6be 6a96 333f
000003d0: 1a69 263d 9af0 e7bd 1849 903e 530b febe
000003e0: a171 9b3e f18b fb3d 1f77 b7bc aee4 5d3e
000003f0: a4f9 0dbf 6487 0e3f 28a2 a9bc 94f9 85bd

network_body._body_endoder.seq_layers.0.bias f4 [128]
-0.055551402 -0.2574579 0.012868866 0.035638068 0.024322452 -0.10175299 0.086818315 0.13383406
-0.22053339 -0.20015424 0.05012152 0.069148526 0.031020224 -0.025584163 -0.06857694 -0.021159422
-0.042639438 -0.06666006 -0.021949556 0.04086719 -0.13826779 -0.027164076 0.002873825 -0.0024911521
-0.015755177 0.0027847297 -0.027597032 -0.042933505 -0.025305068 -0.0038972492 -0.04798914 -0.061503958
0.069452524 0.045638517 0.090194404 -0.004471683 0.099572495 -0.039013058 0.042208377 0.06383212
-0.013670588 0.09785135 0.03219637 0.03751575 0.025717914 -0.17335476 -0.03140523 -0.05941348
-0.055972762 0.020750541 -0.04493559 -0.21345557 -0.024847487 0.043924075 -0.09015673 0.016328568
-0.1814352 0.03414941 0.11986477 -0.12804744 0.059923995 0.02855178 -0.15067923 0.113217026
0.0013322537 -0.008631928 0.002882038 -0.10503132 -0.049599152 -0.07149078 0.018269876 -0.077778876
0.10543529 0.010647984 0.0039981613 0.02304506 -0.056222223 0.09324176 -0.00015502842 -0.17140424
-0.051565927 0.12191195 -0.24876459 -0.002920262 -0.15403509 0.030745845 -0.10175043 0.046522472
-0.042146765 -0.10838015 0.11356452 -0.049642168 0.022975529 -0.012113635 -0.019829027 0.029441765
0.010503328 -0.037110534 0.02034854 -0.12885635 0.08301923 0.062087264 -0.047536757 -0.07407443
-0.038967766 -0.068484694 -0.07163907 0.059604663 -0.09318299 -0.15109627 -0.121547535 -0.05945218
0.0007837362 -0.028048279 0.0039999257 0.00879619 0.032860354 0.007135292 -0.043337908 0.013501433
-0.018268378 -0.18434654 -0.009032964 -0.16306338 -0.11026494 -0.044141196 0.0002557268 0.03758368
00000000: de89 63bd 86d1 83be f0d7 523c 39f9 113d
00000010: e13f c73c df63 d0bd cdcd b13d cc0b 093e
00000020: 81d3 61be 3cf5 4cbe 394c 4d3d be9d 8d3d
00000030: 201e fe3c e195 d1bc 1172 8cbd 8656 adbc
00000040: b1a6 2ebd 1285 88bd 8ecf b3bc 5b64 273d
00000050: 1296 0dbe 3287 debc c856 3c3b 9942 23bb
00000060: 0011 81bc 0380 363b 2c13 e2bc 0bdb 2fbd
00000070: 934c cfbc fe68 7fbb 4390 44bd 93eb 7bbd
00000080: 203d 8e3d 74ef 3a3d d8b7 b83d 3287 92bb
00000090: aaec cb3d 28cc 1fbd b1e2 2c3d 6aba 823d
000000a0: 9afa 5fbc 4a66 c83d 57e0 033d 1daa 193d
000000b0: 60ae d23c e983 31be c5a2 00bd 8d5b 73bd
000000c0: b243 65bd 0afd a93c 620e 38bd 1994 5abe
000000d0: f58c cbbc bbe9 333d 17a4 b8bd 7dc3 853c
000000e0: 26ca 39be 40e0 0b3d a97b f53d de1e 03be
000000f0: dd72 753d 6ce5 e93c a84b 1abe 54de e73d
00000100: 049f ae3a ee6c 0dbc 93e0 3c3b a91a d7bd
00000110: 7b28 4bbd c269 92bd b5aa 953c 884a 9fbd
00000120: 75ee d73d e274 2e3c 0203 833b fec8 bc3c
00000130: 4649 66bd 89f5 be3d 208f 22b9 9884 2fbe
00000140: cb36 53bd f9ac f93d 25bc 7ebe de61 3fbb
00000150: 60bb 1dbe b6de fb3c 8862 d0bd 598e 3e3d
00000160: 16a2 2cbd 69f6 ddbd 8494 e83d 9655 4bbd
00000170: 2d37 bc3c 4578 46bc 7c70 a2bc db2f f13c
00000180: 2716 2c3c 3701 18bd fbb1 a63c ebf2 03be
00000190: fc05 aa3d 374f 7e3d e7b5 42bd 56b4 97bd
000001a0: aa9c 1fbd b441 8cbd 81b7 92bd 0524 743d
000001b0: b9d6 bebd fbb8 1abe eaed f8bd 2184 73bd
000001c0: a573 4d3a 81c5 e5bc cf11 833b e51d 103c
000001d0: 9498 063d 2bcf e93b 1783 31bd 1d35 5d3c
000001e0: 91a7 95bc 57c5 3cbe fffe 13bc 16fa 26be
000001f0: 96d2 e1bd 66cd 34bd 1213 8639 58f1 193d

network_body._body_endoder.seq_layers.2.weight f4 [128, 128]
-0.019494029 0.18838602 0.11578986 0.20686303 -0.18328941 -0.30649558 0.5741897 -0.4508512
0.14564252 0.3085714 0.042103406 -0.014796881 -0.12765925 0.11891121 0.14279646 0.26684117
-0.16668214 -0.0020722644 -0.21296325 0.30929753 -0.44474858 0.08001937 0.5086545 0.31212094
-0.045049943 -0.4032887 -0.38461223 -0.105327286 -0.6771338 0.013060592 0.2010239 -0.02219975
-0.08752427 -0.25462958 0.08912903 -0.7672828 -0.438593 0.3366174 0.11072503 0.1984529
-0.59973735 -0.18069214 0.07492478 -0.14304234 -0.23357575 -0.36058682 -0.16087888 0.034498088
-0.15299645 0.40029532 0.20344138 -0.4071545 -0.47562036 -0.05843329 -0.083476104 -0.12207222
-0.10641906 -0.17874943 -0.49021003 0.19270961 -0.009963338 0.25501013 0.31878898 0.1514209
0.19556648 -0.1588005 0.16825297 0.039186757 0.24215381 0.13381454 -0.2182928 -0.5401154
-0.5281061 -0.12184104 -0.48547065 -0.10050006 -0.38778347 0.0440625 0.11932825 0.20526887
0.4330352 -0.14158276 0.3851813 -0.07467089 -0.033096485 -0.2568324 0.34003553 0.17292425
0.036863938 0.2078963 -0.018720476 -0.14108457 0.14842086 -0.613812 -0.15893285 -0.3249781
0.13841613 -0.3178542 0.10887662 -0.022875713 0.06416258 0.0037258314 -0.05847966 0.40669227
-0.07534614 -0.06733026 0.17842597 0.25957888 0.03297434 0.1390605 -0.31293914 -0.0652519
-0.194828 -0.112278506 -0.20427248 -0.2056354 0.19224139 -0.3124661 -0.37975743 0.016430438
-0.31916246 -0.16308722 0.08074049 0.16594966 0.039410233 -0.36738583 -0.13826759 0.103941485
0.015676254 0.19660878 -0.24850695 -0.60565114 -0.14526382 0.14962417 0.11692743 -0.111982815
-0.0014230447 0.09049183 -0.5898546 -0.35046813 0.54068965 -0.1013361 -0.47799718 0.21572004
0.057379212 0.03149499 0.1828338 -0.14272897 0.3089836 -0.113906 -0.29437593 -0.6600984
0.08564218 0.17466965 0.09335767 0.006187513 -0.04337918 -0.032335088 0.20732798 -0.10810881
-0.28125554 0.08609708 -0.03806304 0.20305295 0.6471739 -0.6264995 -0.37524167 -0.48154712
-0.1237792 -0.17969128 0.046122786 -0.28833213 -0.092097014 0.16055527 0.33318153 0.2382987
0.21689993 -0.017659679 -0.0193228 0.37906834 -0.03782938 -0.3082655 -0.039269786 -0.5908678
0.14802232 0.15630282 -0.07237142 0.22664537 -0.034027476 -0.2297876 -0.12639846 -0.52872545
0.15384479 -0.20061608 0.03540105 0.30537814 -0.63381803 -0.147916 -0.2764509 0.39121172
0.20109883 -0.3707174 -0.058449555 0.08060776 0.075091556 -0.27811632 -0.36197925 -0.040361717
-0.17001325 0.2629472 0.33771577 0.062292513 0.28517443 -0.122849576 0.112207726 0.2134997
-0.14334701 0.12491307 -0.25585508 0.17393334 -0.028591104 -0.20745029 -0.06492914 0.36139214
-0.59271234 -0.65060574 0.113335624 0.26445428 -0.09129317 -0.1415791 -0.23448692 -0.12886429
-0.4445176 0.24753982 0.05417777 -0.119995445 -0.29174215 -0.10638782 0.236525 -0.2691573
0.10818871 0.07485263 0.08785014 0.118170954 0.14587668 -0.13095307 0.1476535 -0.09938172
-0.058800094 -0.13430284 -0.0007968903 0.03672983 0.3412342 0.04636383 -0.121121444 -0.19267352
00000000: f1b1 9fbc 44e8 403e 3c23 ed3d e7d3 533e
00000010: 38b0 3bbe fdec 9cbe 19fe 123f f8d5 e6be
00000020: 5023 153e 12fd 9d3e 9f74 2c3d 9e6e 72bc
00000030: 1bb9 02be b887 f33d 3c39 123e 689f 883e
00000040: b9ae 2abe d4ce 07bb 0a13 5abe 3f5c 9e3e
00000050: 16b6 e3be 32e1 a33d 2e37 023f 51ce 9f3e
00000060: 4a86 38bd db7b cebe e5eb c4be d5b5 d7bd
00000070: a458 2dbf 18fc 553c 36d9 4d3e 40dc b5bc
00000080: ed3f b3bd cf5e 82be 4889 b63d a56c 44bf
00000090: 438f e0be 1e59 ac3e cec3 e23d 3d37 4b3e
000000a0: 6388 19bf 5c07 39be 2a72 993d b179 12be
000000b0: 7b2e 6fbe d69e b8be 6fbd 24be de4d 0d3d
000000c0: 1aab 1cbe 82f3 cc3e f052 503e 8e76 d0be
000000d0: 8384 f3be bf57 6fbd 85f5 aabd 0001 fabd
000000e0: 3cf2 d9bd 170a 37be cffc fabe ab55 453e
000000f0: 453d 23bc b090 823e 4f38 a33e 150e 1b3e
00000100: 9442 483e 999c 22be 824a 2c3e 4b82 203d
00000110: 2bf7 773e ae06 093e 2688 5fbe 0145 0abf
00000120: f631 07bf cc87 f9bd 9c8f f8be fad2 cdbd
00000130: 8e8b c6be e17a 343d 5f62 f43d 0132 523e
00000140: cab6 dd3e 12fb 10be 7c36 c53e 0ded 98bd
00000150: 2e90 07bd 897f 83be 2319 ae3e 0e13 313e
00000160: a4fe 163d c5e2 543e af5b 99bc 7978 10be
00000170: a3fb 173e c922 1dbf 4bbf 22be 8863 a6be
00000180: f5bc 0d3e c9bd a2be b5fa de3d d965 bbbc
00000190: ac67 833d 142d 743b 5e88 6fbd f839 d03e
000001a0: 144f 9abd 73e4 89bd 4cb5 363e 86e7 843e
000001b0: 1a10 073d e065 0e3e 8f39 a0be caa2 85bd
000001c0: fe80 47be 46f2 e5bd ce2c 51be 1692 52be
000001d0: edda 443e 8ffb 9fbe 916f c2be 2099 863c
000001e0: 4369 a3be 5600 27be 455b a53d b5ee 293e
000001f0: a06c 213d ff19 bcbe 0596 0dbe 46df d43d
00000200: 7d6b 803c d053 493e 9b78 7ebe f40b 1bbf
00000210: 0ac0 14be 1437 193e a677 ef3d 3f57 e5bd
00000220: 7585 baba c853 b93d b600 17bf 8f70 b3be
00000230: a36a 0a3f 4d89 cfbd 0cbc f4be b7e5 5c3e
00000240: 7706 6b3d e400 013d c938 3b3e 8b27 12be
00000250: 1933 9e3e 8d47 e9bd 71b8 96be 35fc 28bf
00000260: 2b65 af3d 9adc 323e 4e32 bf3d 9fc0 ca3b
00000270: 5eae 31bd cc71 04bd c94d 543e 2768 ddbd
00000280: ba00 90be aa53 b03d fde7 1bbd 1ded 4f3e
00000290: 30ad 253f 4562 20bf ad1f c0be 588d f6be
000002a0: f37f fdbd fe00 38be 3feb 3c3d 45a0 93be
000002b0: 5c9d bcbd 9a68 243e c596 aa3e 9304 743e
000002c0: 041b 5e3e 08ab 90bc d94a 9ebc 3f15 c23e
000002d0: fbf2 1abd fad4 9dbe 5bd9 20bd 1d43 17bf
000002e0: 2a93 173e d90d 203e 7837 94bd b915 683e
000002f0: 6560 0bbd 714d 6bbe 996e 01be 8d5a 07bf
00000300: 7d89 1d3e 4d6e 4dbe b100 113d 865a 9c3e
00000310: e641 22bf 4b77 17be f98a 8dbe e74c c83e
00000320: daec 4d3e acce bdbe cd68 6fbd ae15 a53d
00000330: 9ac9 993d 4365 8ebe 5855 b9be 5452 25bd
00000340: f417 2ebe 04a1 863e 15e9 ac3e 6f26 7f3d
00000350: 6202 923e 8f98 fbbd 2acd e53d aa9f 5a3e
00000360: 8fc9 12be 6cd2 ff3d 70ff 82be 951b 323e
00000370: e437 eabc d96d 54be 92f9 84bd 6408 b93e
00000380: ffbb 17bf 198e 26bf 821c e83d 8d66 873e
00000390: eaf7 babd 1dfa 10be 571d 70be 00f5 03be
000003a0: d097 e3be 147b 7d3e 82e9 5d3d 2cc0 f5bd
000003b0: 3a5f 95be dbe1 d9bd 9c33 723e fcce 89be
000003c0: 0b92 dd3d 564c 993d c6ea b33d 9d03 f23d
000003d0: b260 153e 9018 06be 7b32 173e a588 cbbd
000003e0: 5ed8 70bd af86 09be 67e6 50ba 0572 163d
000003f0: 40b6 ae3e 00e8 3d3d 850e f8bd 354c 45be

network_body._body_endoder.seq_layers.2.bias f4 [128]
-0.21176782 -0.2123587 0.16856985 0.12588738 0.07304865 -0.057829257 0.0072268522 0.10061191
0.047546774 0.11459368 0.0242541 -0.014634113 -0.14742179 -0.1746488 -0.02478921 0.20237985
-0.17609589 0.1812692 0.00040863222 -0.048911966 -0.09933664 -0.08875442 -0.09180446 0.0318803
-0.04217246 -0.16638967 -0.1666625 -0.18733099 0.085541576 -0.07031748 -0.027861064 -0.22576177
-0.012002159 -0.10939018 0.05259373 0.032265 0.16960841 -0.06505452 0.057486728 0.0740667
0.08736819 0.05226312 -0.27243614 -0.16967 0.12464491 -0.18725897 0.065787606 0.07851711
-0.040806595 0.0872513 0.09357385 -0.07365332 -0.18464217 -0.026978888 -0.09569841 -0.027516965
-0.08406565 -0.0044130706 -0.21004972 -0.032659937 -0.0374495 0.09766019 0.18840583 -0.03580816
0.26748398 -0.0011019298 -0.03578028 0.04162064 0.25381196 -0.11679794 -0.19222015 0.061283045
0.09953232 -0.11505125 0.058286324 0.018486839 -0.13499819 0.108223185 0.13844049 0.12759265
-0.07490919 0.013053595 -0.1000306 0.09601069 0.096366785 -0.24144664 0.2303294 -0.1071108
-0.11138355 -0.11772146 -0.06872762 -0.14586388 0.0061357934 -0.26764292 -0.17383331 -0.069894545
-0.011499955 0.07772821 0.027463958 0.064357765 0.06939892 0.03936895 -0.027592946 0.027379159
0.028285882 0.039535742 0.13594301 -0.08917508 0.19594517 0.11740624 -0.00186124 0.042921696
-0.038956724 0.0787412 -0.11353494 -0.24763864 0.084411226 0.011121353 0.026943732 0.02473174
-0.012546219 0.0752133 0.04022124 0.061131906 -0.20332727 0.022931362 0.070528224 -0.08950623
00000000: aad9 58be 8f74 59be 939d 2c3e 9fe8 003e
00000010: 889a 953d 5fde 6cbd 3bcf ec3b 9e0d ce3d
00000020: 68c0 423d 17b0 ea3d 89b0 c63c ebc3 6fbc
00000030: bdf5 16be 23d7 32be be12 cbbc aa3c 4f3e
00000040: 7b52 34be a29e 393e b03d d639 ea57 48bd
00000050: 0271 cbbd e1c4 b5bd fa03 bcbd eb94 023d
00000060: 08bd 2cbd 0e62 2abe 93a9 2abe b2d3 3fbe
00000070: 6c30 af3d 9c02 90bd e33c e4bc 182e 67be
00000080: b4a4 44bc f507 e0bd 866c 573d 4e28 043d
00000090: d4ad 2d3e 4e3b 85bd 3477 6b3d 48b0 973d
000000a0: 18ee b23d da11 563d c07c 8bbe f9bd 2dbe
000000b0: d545 ff3d d1c0 3fbe a7bb 863d 94cd a03d
000000c0: d124 27bd cfb0 b23d a6a3 bf3d 8dd7 96bd
000000d0: d612 3dbe d402 ddbc 87fd c3bd 426b e1bc
000000e0: 9d2a acbd 859b 90bb 4617 57be 6dc6 05bd
000000f0: a664 19bd 1102 c83d 75ed 403e 94ab 12bd
00000100: a9f3 883e a16e 90ba 588e 12bd 677a 2a3d
00000110: a4f3 813e c233 efbd 5cd5 44be ee03 7b3d
00000120: 9ad7 cb3d fd9f ebbd a4bd 6e3d b671 973c
00000130: f73c 0abe 1ea4 dd3d 58c3 0d3e a6a7 023e
00000140: fd69 99bd bfde 553c d8dc ccbd 41a1 c43d
00000150: f35b c53d ca3d 77be 78db 6b3e e85c dbbd
00000160: 0f1d e4bd f317 f1bd 11c1 8cbd 575d 15be
00000170: c40e c93b 7e08 89be 5c01 32be df24 8fbd
00000180: 4f6a 3cbc f82f 9f3d 18fc e03c 01ce 833d
00000190: 0521 8e3d 5641 213d 9a0a e2bc 424a e03c
000001a0: cbb7 e73c 3bf0 213d a534 0b3e 6da1 b6bd
000001b0: daa5 483e af72 f03d daf4 f3ba a9ce 2f3d
000001c0: 1691 1fbd 1143 a13d 0285 e8bd fc94 7dbe
000001d0: cbdf ac3d 5636 363c 1ab9 dc3c 389a ca3c
000001e0: a88e 4dbc 6e09 9a3d 07bf 243d 7365 7a3d
000001f0: 0635 50be 8dda bb3c 1a71 903d 0b4f b7bd

action_model._continuous_distribution.log_sigma f4 [1, 4]
3.8017569 4.666818 7.6202416 7.008597
00000000: fc4f 7340 9356 9540 05d9 f340 6d46 e040

action_model._continuous_distribution.mu.weight f4 [4, 128]
1.9824774 1.2535074 -1.6424073 -1.709588 -2.8989887 0.08642007 0.19183579 1.7871534
-1.3324881 -2.044373 -2.4731195 3.1591718 3.0443976 -1.4049728 1.6764137 0.6107386
-1.9675103 -0.2349485 2.0126781 1.6282635 -1.0705204 0.93688834 2.771151 1.6862822
0.46461293 -1.3244193 0.20396344 -1.4587519 -0.30827677 -2.0081482 -2.946188 -0.19432925
-1.2785472 -1.7363445 -1.5641423 0.30659375 -0.7788702 1.311243 -1.3730174 -2.3426971
-2.1645246 -1.444084 -0.18311277 0.9138402 -0.3584572 -3.3671782 -0.5917511 -0.7807164
0.07441041 2.4516773 1.3212498 -2.238187 2.0316036 2.9018424 -0.98156446 -0.6793753
-2.9766963 1.2059196 0.99387866 -1.7306085 0.51747245 0.96338177 -0.37117288 -2.6191795
-1.4687356 1.6864276 -3.061553 0.6804229 -0.4388281 2.116576 -1.9231297 -0.026159063
2.8273761 -0.99008864 0.89697117 0.55683804 0.10657369 -1.0697585 1.9628537 -2.6633294
0.5133609 2.6236265 -1.0959541 -1.1678083 2.6112285 -0.9871755 -2.0284674 1.0919503
-1.5544107 0.18907799 1.1973835 -0.84447575 2.1361878 0.031353865 1.2240579 1.0732427
2.1988559 2.3112283 -2.170719 -2.1543474 1.1432326 2.8019881 0.97410834 -3.234968
0.7820588 2.084026 1.0492567 -0.05541221 -0.2447979 -0.046352442 -0.105332196 1.604776
-1.1712936 -2.415187 1.1082486 -2.4280982 -1.8970081 1.7462969 2.021581 -1.8946062
0.7207141 -1.2533624 2.6706963 -1.7720201 2.10065 2.1126828 2.7726946 0.44393438
3.2059915 -0.2921153 -1.6519103 -3.0262141 -0.12464903 0.09864574 -0.3812701 2.7559507
2.1967642 -0.3661624 -2.7328143 -0.7756976 1.4118489 3.6164632 -0.94496214 2.9684238
-3.0003536 -0.022121912 -0.4783559 0.66758364 -0.7874332 -2.792345 0.7343167 -1.308328
-0.123671524 -0.74285954 -0.545414 2.057011 -2.4259965 2.56376 0.6095841 2.1425462
3.6237698 2.1535292 -1.4186863 2.7721431 2.4888375 2.3695 -2.7182367 -1.8751556
2.9292173 2.1837645 -0.056854572 -0.6011727 0.42386118 -1.2184788 0.11878316 -3.0758739
1.3217521 -0.5585279 2.5324254 -0.13729785 2.4261072 0.13640007 -2.4744394 3.7256677
0.15006502 1.6602156 -1.2692785 0.19961518 0.72926223 -3.2672641 -0.7009616 -0.59644055
-1.5320178 2.528078 2.8108726 -3.5852106 -2.2491758 -0.836929 0.7972455 3.0517838
-1.2221446 0.13035932 -2.9493737 -1.0726293 -0.20463666 -0.61617863 1.0134065 0.66779345
3.339423 -1.5012008 2.2780325 -3.406951 0.43687713 0.9019699 1.3293668 -3.2021792
3.0053725 3.0880287 0.6621091 2.1877396 -0.38395077 -1.9391426 1.836993 -0.5518862
-0.078148 -2.0423267 2.4668994 1.8942549 2.9608436 2.3039443 -0.78674847 -0.25777018
0.64826506 0.50880414 1.781022 -1.6808102 3.807679 0.2691153 2.7978563 -0.11081106
2.5384219 -0.98345476 -2.6652186 1.7662117 1.3043532 -2.2982368 -0.12456581 -1.129606
4.4410934 -1.9076393 0.9476274 3.7438455 0.12610203 3.2557385 0.40269396 -4.058471
00000000: d2c1 fd3f ee72 a03f 673a d2bf c8d3 dabf
00000010: 0889 39c0 01fd b03d 9a70 443e 71c1 e43f
00000020: f88e aabf 02d7 02c0 9747 1ec0 df2f 4a40
00000030: 69d7 4240 26d6 b3bf b994 d63f 5d59 1c3f
00000040: 61d7 fbbf 5796 70be b8cf 0040 f06a d03f
00000050: d006 89bf ead7 6f3f 8a5a 3140 18d8 d73f
00000060: bfe1 ed3e 9286 a9bf cbdb 503e 62b8 babf
00000070: 74d6 9dbe 8085 00c0 588e 3cc0 3ffe 46be
00000080: 6fa7 a3bf 8940 debf d135 c8bf dbf9 9c3e
00000090: 0a64 47bf d0d6 a73f 09bf afbf c0ee 15c0
000000a0: 9287 0ac0 bfd7 b8bf ea81 3bbe 6ef1 693f
000000b0: b487 b7be d97f 57c0 007d 17bf 08dd 47bf
000000c0: 7c64 983d 48e8 1c40 b71e a93f 753e 0fc0
000000d0: cb05 0240 c9b7 3940 cf47 7bbf 8aeb 2dbf
000000e0: 3182 3ec0 935b 9a3f d56e 7e3f 9484 ddbf
000000f0: 1379 043f 30a0 763f 5f0a bebe a3a0 27c0
00000100: 87ff bbbf dcdc d73f 7cf0 43c0 3230 2e3f
00000110: 14ae e0be fb75 0740 1d29 f6bf 884b d6bc
00000120: bbf3 3440 7376 7dbf e79f 653f f08c 0e3f
00000130: 4f43 da3d d9ed 88bf ca3e fb3f fd73 2ac0
00000140: 9f6b 033f 7fe9 2740 3948 8cbf be7a 95bf
00000150: 5e1e 2740 89b7 7cbf 69d2 01c0 07c5 8b3f
00000160: eef6 c6bf a99d 413e dd43 993f 902f 58bf
00000170: 4db7 0840 e96c 003d eead 9c3f 0460 893f
00000180: 0eba 0c40 2aeb 1340 0fed 0ac0 d4e0 09c0
00000190: 7255 923f c653 3340 2a5f 793f b709 4fc0
000001a0: 0135 483f af60 0540 0b4e 863f eaf7 62bd
000001b0: 4dac 7abe 0fdc 3dbd 68b8 d7bd 4d69 cd3f
000001c0: f3ec 95bf 6c92 1ac0 17db 8d3f f665 1bc0
000001d0: 29d1 f2bf a886 df3f 9561 0140 7582 f2bf
000001e0: b880 383f 2e6e a0bf b0ec 2a40 8ed1 e2bf
000001f0: 0d71 0640 3236 0740 d473 3140 5e4b e33e
00000200: f72e 4d40 2390 95be cc71 d3bf 7ead 41c0
00000210: fe47 ffbd c706 ca3d d635 c3be 7f61 3040
00000220: c997 0c40 a379 bbbe 6ee6 2ec0 1e94 46bf
00000230: 77b7 b43f 2274 6740 0ae9 71bf a8fa 3d40
00000240: cb05 40c0 0339 b5bc 11eb f4be c3e6 2a3f
00000250: 3995 49bf c8b5 32c0 2efc 3b3f 4b77 a7bf
00000260: 7f47 fdbd 0b2c 3ebf 40a0 0bbf 11a6 0340
00000270: 8743 1bc0 a514 2440 b40d 1c3f 7a1f 0940
00000280: d8eb 6740 6cd3 0940 8397 b5bf cb6a 3140
00000290: 1d49 1f40 e3a5 1740 97f7 2dc0 1905 f0bf
000002a0: 4c78 3b40 ccc2 0b40 57e0 68bd 74e6 19bf
000002b0: 5504 d93e 1df7 9bbf 9644 f33d 1edb 44c0
000002c0: 2c2f a93f affb 0ebf 4213 2240 cf97 0cbe
000002d0: 5745 1b40 76ac 0b3e 375d 1ec0 5771 6e40
000002e0: a5aa 193e f281 d43f b877 a2bf ec67 4c3e
000002f0: eeb0 3a3f db1a 51c0 3872 33bf 54b0 18bf
00000300: 2919 c4bf 08cc 2140 56e5 3340 1774 65c0
00000310: 7ff2 0fc0 fb40 56bf 4818 4c3f 6d50 4340
00000320: 3c6f 9cbf ea7c 053e 8ac2 3cc0 eb4b 89bf
00000330: 468c 51be e2bd 1dbf 4eb7 813f 83f4 2a3f
00000340: 1bb9 5540 5927 c0bf 49cb 1140 7c0b 5ac0
00000350: 5cae df3e 80e7 663f b128 aa3f 81f0 4cc0
00000360: 0658 4040 43a2 4540 fb7f 293f ed03 0c40
00000370: 3295 c4be d335 f8bf 9622 eb3f 6a48 0dbf
00000380: 0f0c a0bd 7bb5 02c0 aee1 1d40 f276 f23f
00000390: 767e 3d40 d373 1340 5968 49bf 74fa 83be
000003a0: b3f4 253f fd40 023f 87f8 e33f ca24 d7bf
000003b0: 03b1 7340 7bc9 893e 1410 3340 e9f0 e2bd
000003c0: 8175 2240 b1c3 7bbf f192 2ac0 3a13 e23f
000003d0: 0cf5 a63f 5016 13c0 5c1c ffbd ee96 90bf
000003e0: 701d 8e40 862d f4bf b697 723f 2a9b 6f40
000003f0: e420 013e 055e 5040 e72d ce3e ffde 81c0

action_model._continuous_distribution.mu.bias f4 [4]
0.35061598 -0.15622592 0.010823634 2.4878013
00000000: f083 b33e b0f9 1fbe 9d55 313c 2338 1f40

onnx::LSTM_102 f4 [1, 512, 128]
0.33441585 0.066596255 0.27144623 0.21435493 0.15225893 -0.5234792 0.051898357 0.31026995
-0.06616055 0.30775514 -0.37464556 -0.26824927 0.24702199 -0.39500216 -0.0314228 0.45556974
0.13940027 0.17990036 -0.10525696 -0.30266422 -0.24811316 -0.29496112 -0.40267614 0.2990565
-0.27336052 -0.17366982 -0.25378788 0.1563615 0.28272596 0.37339738 0.14525333 0.20952009
-0.052876856 -0.3316782 0.030954482 -0.13762 0.24236989 -0.24097338 0.6045914 0.01962133
-0.33988497 -0.11976991 -0.0770079 0.014197145 -0.022427458 -0.28530213 -0.32607138 0.28426498
-0.20532203 0.6533827 -0.19370566 -0.32540262 -0.5691408 0.024376674 -0.43787894 -0.036090937
-0.1418636 -0.6888599 0.30027863 -0.011721257 -0.47053546 -0.04874495 0.07766758 -0.20544851
-0.5441062 0.2705997 -0.21675193 -0.10476983 0.12058516 -0.11313646 0.27152112 0.0243816
-0.07246978 -0.27345765 0.31605732 -0.21931764 0.19660202 0.19741741 -0.061016414 0.012052136
-0.46072268 0.024342665 -0.1010235 0.40888917 0.43203774 0.29326063 0.22498575 -0.066099994
-0.09083041 -0.1610741 0.32410133 -0.08452863 -0.16467437 -0.31749836 -0.13056418 0.032580238
-0.03061737 0.32044026 -0.067945585 -0.010021282 0.044768803 0.70361334 0.03107947 0.21542434
0.056398507 0.16700706 0.11088253 0.19436084 0.049415793 -0.097434066 -0.2702572 0.40835705
0.042737804 -0.3006288 -0.1773016 -0.3271535 -0.5096572 -0.016758995 -0.29346108 -0.1933743
0.39150074 0.145198 -0.062039383 -0.064084224 -0.10094184 -0.16735333 -0.28430715 -0.15126532
-0.12927374 0.1571229 -0.17307548 -0.37847942 0.2369241 0.24818951 0.1454162 0.006358094
-0.18627474 0.251006 0.17317533 0.52637386 -0.029237874 0.15876043 0.054491237 -0.027754173
-0.13068597 0.15060522 0.285658 0.10839671 0.036296435 0.1501745 0.19550174 0.20587933
0.22275679 -0.03957673 -0.09249951 0.034741897 0.109668374 0.4676317 0.44934896 0.047072385
0.1488236 0.19952625 -0.01642952 0.100239016 0.22080958 0.39994514 0.3494359 0.16772766
0.2618919 0.53065944 -0.43245646 -0.30153033 -0.117621884 -0.059708532 0.06640016 -0.11119479
-0.009395077 -0.23266435 0.22102836 0.09379848 0.118193746 -0.0048751542 0.026005777 0.30891916
-0.048236657 0.11122463 -0.10743954 0.342954 -0.17373087 -0.17104855 0.2228526 0.109448805
-0.30133495 -0.12866528 0.013504096 0.14444421 0.15040825 0.1098521 -0.12607592 0.16894248
-0.006449401 0.36763874 0.23169354 -0.19572824 0.17739373 -0.036408406 0.06287375 0.06544924
0.12476291 -0.10167416 0.08930162 0.4156541 0.079717696 0.4222245 0.11391954 -0.27978644
-0.0960561 0.1229078 0.16417712 0.1359006 0.014903432 -0.10444317 -0.08461947 -0.09870645
0.08389638 0.3284044 -0.043245558 0.3091614 0.09206309 -0.024835052 0.1892288 0.2042958
0.04028755 0.08807775 0.18564016 -0.014089205 0.123187155 0.40271205 -0.15034163 0.67293876
0.33617607 0.294721 -0.28035998 0.09480544 0.12886173 0.26086894 0.4055981 0.12963948
-0.11530773 -0.0017518195 0.098887764 0.10235304 -0.037796155 -0.095876366 0.072698765 -0.008517643
00000000: 8e38 ab3e 9e63 883d 00fb 8a3e dc7f 5b3e
00000010: c4e9 1b3e bc02 06bf 5f93 543d b4db 9e3e
00000020: 2f7f 87bd 1592 9d3e 8bd1 bfbe f857 89be
00000030: 55f3 7c3e b93d cabe 32b5 00bd 7040 e93e
00000040: f2be 0e3e cd37 383e f690 d7bd cef6 9abe
00000050: 6011 7ebe 2505 97be 912b cebe ef1d 993e
00000060: e9f5 8bbe 80d6 31be 7cf0 81be 3b1d 203e
00000070: 75c1 903e f12d bf3e 4abd 143e 6f8c 563e
00000080: 6795 58bd bad1 a9be 4194 fd3c 42ec 0cbe
00000090: d02f 783e bac1 76be 81c6 1a3f e9bc a03c
000000a0: 6705 aebe ed49 f5bd 51b6 9dbd 249b 683c
000000b0: cab9 b7bc 1f13 92be d4f2 a6be 2e8b 913e
000000c0: f03f 52be 1744 273f c75a 46be 2c9b a6be
000000d0: 36b3 11bf 97b1 c73c ab31 e0be 17d4 13bd
000000e0: b144 11be 1f59 30bf 1fbe 993e 840a 40bc
000000f0: 06ea f0be c9a8 47bd 2e10 9f3d 1861 52be
00000100: 8b4a 0bbf 0b8c 8a3e 38f4 5dbe 9191 d6bd
00000110: 5af5 f63d 17b4 e7bd d104 8b3e ecbb c73c
00000120: 096b 94bd a402 8cbe 44d2 a13e ce94 60be
00000130: 0a52 493e ca27 4a3e 59ec 79bd 5276 453c
00000140: d8e3 ebbe 456a c73c 69e5 cebd ec59 d13e
00000150: 0d34 dd3e 4226 963e aa62 663e 6f5f 87bd
00000160: 4b05 babd 9cf0 24be 9cf0 a53e 591d adbd
00000170: 66a0 28be 258f a2be 9eb2 05be db72 053d
00000180: 47d1 fabc bf10 a43e 0e27 8bbd 4e30 24bc
00000190: 7e5f 373d 0120 343f 5f9a fe3c 3398 5c3e
000001a0: 1f02 673d e603 2b3e 6116 e33d 8706 473e
000001b0: 3768 4a3d 838b c7bd 275f 8abe 2d14 d13e
000001c0: d60d 2f3d 05ec 99be 8d8e 35be aa80 a7be
000001d0: e578 02bf 294a 89bc 8840 96be ea03 46be
000001e0: c972 c83e c9ae 143e 021d 7ebd 973e 83bd
000001f0: 98ba cebd ac5e 2bbe b590 91be 4ce5 1abe
00000200: 5660 04be d3e4 203e b33a 31be 0ec8 c1be
00000210: 3b9c 723e 6425 7e3e fce7 143e 8f57 d03b
00000220: cebe 3ebe dc83 803e e054 313e 70c0 063f
00000230: 4484 efbc 1892 223e 3432 5f3d b85c e3bc
00000240: 8bd2 05be 4138 1a3e c441 923e 18ff dd3d
00000250: 92ab 143d 58c7 193e 9c31 483e 08d2 523e
00000260: 5b1a 643e 361b 22bd 6270 bdbd 854d 0e3d
00000270: d099 e03d 6c6d ef3e 1111 e63e f9ce 403d
00000280: 3765 183e 9c50 4c3e 3397 86bc 1d4a cd3d
00000290: e81b 623e 9cc5 cc3e 43e9 b23e cdc0 2b3e
000002a0: b216 863e 4cd9 073f ef6a ddbe 2f62 9abe
000002b0: bee3 f0bd ef90 74bd cffc 873d 18ba e3bd
000002c0: cfed 19bc 903f 6ebe 4255 623e 6b19 c03d
000002d0: 900f f23d c2bf 9fbb 110a d53c a72a 9e3e
000002e0: cd93 45bd bdc9 e33d 4309 dcbd ab97 af3e
000002f0: 81e6 31be 5a27 2fbe 7933 643e b226 e03d
00000300: 9348 9abe d5c0 03be 4940 5d3c 2fe9 133e
00000310: 9f04 1a3e 23fa e03d 0c1a 01be 42ff 2c3e
00000320: 7f55 d3bb 253b bc3e 1241 6d3e fc6c 48be
00000330: b4a6 353e fb20 15bd f4c3 803d 400a 863d
00000340: b283 ff3d 8b3a d0bd c5e3 b63d 9dd0 d43e
00000350: 0843 a33d cf2d d83e a64e e93d 2b40 8fbe
00000360: 10b9 c4bd 16b7 fb3d 0c1e 283e 8729 0b3e
00000370: 862d 743c 4de6 d5bd f94c adbd 9b26 cabd
00000380: ded1 ab3d 9f24 a83e 4122 31bd 674a 9e3e
00000390: 938b bc3d e172 cbbc 32c5 413e eb32 513e
000003a0: 8f04 253d 1b62 b43d 7418 3e3e 69d6 66bc
000003b0: 8c49 fc3d 4630 ce3e 28f3 19be b745 2c3f
000003c0: 451f ac3e ace5 963e 588b 8fbe 5b29 c23d
000003d0: 54f4 033e 9d90 853e 8eaa cf3e 36c0 043e
000003e0: 7626 ecbd 4f9d e5ba ab85 ca3d 789e d13d
000003f0: 24d0 1abd d45a c4bd 17e3 943d 968d 0bbc

onnx::LSTM_103 f4 [1, 512, 128]
-0.123987235 0.43163773 -0.5126735 -0.40310907 -0.3952758 -0.22206897 -0.16960675 0.6441285
-0.3186855 -0.5020941 0.3227017 -0.5963951 0.19938178 -0.47289166 0.068906605 -0.7963863
-0.36679232 -0.29039815 0.29651102 0.104685575 0.121504426 0.14770995 -0.05478271 0.19272181
-0.0069524623 -0.291879 -0.43008274 0.25106394 0.03333463 -0.5938346 -0.12844858 0.4077229
0.7181214 -0.10376857 0.053762015 -0.019292638 -0.43840525 0.56796074 0.08046251 0.30449715
-0.16646795 -0.63712835 -0.2614647 -0.09562056 -0.39984384 -0.07841289 -0.47693917 0.45943308
0.21857797 -0.20715275 0.3766039 -0.17595956 0.17508765 0.52048457 0.061455287 -0.05483675
-0.22061513 0.12653343 -0.05535012 -0.27136704 0.04810116 0.67567474 0.1562034 -0.00647461
0.12000647 0.20208403 0.20165104 0.75872284 0.022694755 0.1887576 0.27697623 -0.028401794
-0.2710961 -0.18827274 -0.60582393 0.1691122 -0.0785786 0.24412525 0.12851961 -0.6538674
0.008580398 0.441299 -0.30536345 -0.22538927 -0.16685262 0.16907421 -0.19343613 0.066142544
-0.3815968 0.21635294 -0.11453447 -0.29764715 -0.35681465 0.26510784 0.39289483 -0.0082063535
0.48509768 0.09306977 -0.41956097 0.038015142 -0.1970194 -0.17653029 0.27807727 0.20614654
0.3761256 0.08529565 0.32110694 -0.077599466 0.3013291 -0.49973667 -0.15505873 0.047505345
0.3506983 -0.80482626 -0.00558626 -0.04729977 0.017754517 0.008779465 0.3426638 0.07867426
-0.069310404 0.27732494 -0.20279355 -0.25235108 -0.1317027 -0.19427182 -0.0122642545 -0.018650707
-0.13840993 -0.012844697 -0.103408374 0.13104834 -0.21376249 -0.10068629 0.040604346 0.08868455
-0.32119918 -0.4768682 -0.13312589 -0.721353 0.11836386 -0.11859296 0.12424143 -0.00024660758
0.082140066 -0.01961403 0.19071087 -0.10774975 0.5347833 0.1061351 -0.18662581 -0.1864495
0.08933072 0.44359002 0.031654242 0.11642103 -0.11522186 0.0018835063 -0.012845274 -0.043027487
0.003929398 -0.026016576 -0.4284314 0.012336759 0.17832631 0.12900475 0.28576937 0.013444039
-0.28877962 -0.15457672 -0.31056267 0.0037320477 0.016906476 -0.1420677 -0.2830288 0.081999905
-0.25284228 0.26815507 0.1481779 0.21488374 0.17467451 -0.35316232 -0.13624609 0.073673286
0.20169656 0.13507295 0.0129429195 0.21830182 -0.0744295 0.3181081 0.024525102 0.048804283
-0.022897456 0.12696981 0.114791475 0.19276701 0.14596477 0.216905 0.0951867 -0.06466237
-0.079597324 -0.23678654 -0.0053969785 0.09537767 -0.04986226 -0.2398475 -0.26127842 0.15859336
-0.060053665 0.09745487 -0.32822594 0.13070907 0.023516752 -0.6138717 -0.49449608 0.13719961
-0.022585494 0.17473565 -0.023446904 -0.15034068 -0.3566302 -0.07458561 -0.01790145 -0.07940759
0.030920709 0.09575516 -0.05058836 0.44913736 0.06347913 0.027995814 0.04925841 -0.09785292
0.257049 -0.12411377 0.006150498 0.009027429 -0.31772533 0.22674693 -0.0016750101 -0.12960154
-0.2435659 0.44896546 0.18618712 -0.13007772 -0.017005818 0.2752228 -0.14239527 0.17445639
0.20929995 0.31410956 0.1370503 -0.09850721 -0.13759837 -0.14973713 0.10356442 -0.09613527
00000000: 05ed fdbd 9fff dc3e 923e 03bf 5064 cebe
00000010: 9761 cabe 0c66 63be 64ad 2dbe 9be5 243f
00000020: bf2a a3be 3d89 00bf 2839 a53e 59ad 18bf
00000030: bd2a 4c3e db1e f2be e81e 8d3d f9df 4bbf
00000040: 34cc bbbe 11af 94be 4bd0 973e 6465 d63d
00000050: 50d7 f83d 4741 173e d663 60bd de58 453e
00000060: 7bd1 e3bb 2a71 95be ce33 dcbe 748b 803e
00000070: e589 083d 8b05 18bf 0688 03be 0ec1 d03e
00000080: ced6 373f 9e84 d4bd 8f35 5c3d 980b 9ebc
00000090: a776 e0be e065 113f 87c9 a43d 0de7 9b3e
000000a0: 9376 2abe d81a 23bf b3de 85be b6d4 c3bd
000000b0: 55b8 ccbe f096 a0bd 5f31 f4be d03a eb3e
000000c0: e7d2 5f3e da1f 54be 3ad2 c03e be2e 34be
000000d0: 2d4a 333e 7a3e 053f 8ab8 7b3d 809c 60bd
000000e0: efe8 61be fb91 013e cfb6 62bd 9ff0 8abe
000000f0: b905 453d 05f9 2c3f c9f3 1f3e f728 d4bb
00000100: f4c5 f53d 1eef 4e3e 9c7d 4e3e a93b 423f
00000110: 5aea b93c ac49 413e d4cf 8d3e e1aa e8bc
00000120: 1ccd 8abe 92ca 40be 4717 1bbf c02b 2d3e
00000130: d1ed a0bd f8fb 793e a59a 033e db63 27bf
00000140: cc94 0c3c f1f1 e13e 9958 9cbe 72cc 66be
00000150: 6adb 2abe ca21 2d3e 1f14 46be be75 873d
00000160: a860 c3be a08b 5d3e 0c91 eabd 3565 98be
00000170: 69b0 b6be 37bc 873e 8329 c93e f173 06bc
00000180: b95e f83e 5d9b be3d b2d0 d6be c4b5 1b3d
00000190: 74bf 49be 5bc4 34be 2560 8e3e 1418 533e
000001a0: 8993 c03e 7caf ae3d 2168 a43e 78ec 9ebd
000001b0: cf47 9a3e 7cdd ffbe b7c7 1ebe f794 423d
000001c0: ba8e b33e 1809 4ebf f20c b7bb 67bd 41bd
000001d0: ec71 913c bfd7 0f3c a171 af3e f81f a13d
000001e0: 9df2 8dbd 89fd 8d3e 1da9 4fbe 2934 81be
000001f0: 13dd 06be 31ef 46be 03f0 48bc 5ec9 98bc
00000200: 55bb 0dbe 9072 52bc c5c7 d3bd 8931 063e
00000210: 8ee4 5abe 9d34 cebd be50 263d 3fa0 b53d
00000220: 3874 a4be 1228 f4be 2752 08be 97aa 38bf
00000230: c068 f23d dee0 f2bd 4a72 fe3d 1c4b 81b9
00000240: 0d39 a83d 9aad a0bc b649 433e e7ab dcbd
00000250: 8fe7 083f 5c5d d93d d61a 3fbe 9eec 3ebe
00000260: 06f3 b63d 3b1e e33e e1a7 013d 266e ee3d
00000270: 70f9 ebbd fcdf f63a fc74 52bc 973d 30bd
00000280: 2ec2 803b b720 d5bc 5c5b dbbe 1e20 4a3c
00000290: 2c9b 363e d219 043e 5d50 923e 6344 5c3c
000002a0: ecda 93be 5c49 1ebe 1202 9fbe 5f95 743b
000002b0: 737f 8a3c 327a 11be 27e9 90be 91ef a73d
000002c0: 8b74 81be 9f4b 893e f3bb 173e 7c0a 5c3e
000002d0: e0dd 323e b1d1 b4be 1884 0bbe 05e2 963d
000002e0: 8b89 4e3e 9050 0a3e 8a0e 543c 838a 5f3e
000002f0: 7e6e 98bd 11df a23e dee8 c83c 00e7 473d
00000300: 7293 bbbc 6004 023e cb17 eb3d b764 453e
00000310: ca77 153e 581c 5e3e 3ff1 c23d b46d 84bd
00000320: ec03 a3bd 2c78 72be 23d9 b0bb 5e55 c33d
00000330: 5f3c 4cbd 959a 75be 49c6 85be 4c66 223e
00000340: d5fa 75bd 6b96 c73d 3b0d a8be 99d8 053e
00000350: 34a6 c03c b226 1dbf 972e fdbe 0e7e 0c3e
00000360: 3705 b9bc e7ed 323e b913 c0bc e8f2 19be
00000370: 3c98 b6be 57c0 98bd 10a6 92bc 72a0 a2bd
00000380: 6d4d fd3c 481b c43d bd35 4fbd 55f5 e53e
00000390: 5901 823d 7a57 e53c 30c3 493d 1d67 c8bd
000003a0: ed9b 833e 5c2f febd 1e8a c93b c8e7 133c
000003b0: e5ac a2be 5930 683e 038c dbba 44b6 04be
000003c0: 5769 79be cdde e53e d6a7 3e3e 1833 05be
000003d0: c94f 8bbc 01ea 8c3e 11d0 11be b2a4 323e
000003e0: ba52 563e f8d2 a03e ea56 0c3e 26be c9bd
000003f0: 96e6 0cbe b154 19be 9519 d43d 92e2 c4bd

onnx::LSTM_104 f4 [1, 1024]
0.1998882 0.18519211 0.0716755 -0.109618716 0.091518156 0.016041338 0.052418996 0.03689849
-0.16844906 0.12409228 -0.15224144 -0.17182295 -0.08143181 -0.1245164 -0.14495362 0.043683592
0.07889517 0.03569701 0.025972648 0.00040257545 0.023740254 0.33171174 -0.240704 0.11117822
-0.27150774 0.021136379 -0.16864401 0.11345835 0.0743216 0.12719947 0.08722434 0.018158898
0.23925097 0.15494515 -0.079665385 -0.024883263 0.022031335 0.18002653 0.1365646 0.029853154
0.30203044 0.064609796 0.007350957 -0.12509634 0.12500836 -0.040077146 0.08654167 0.10056167
0.090300485 0.1474321 -0.17574167 0.20164727 0.04040136 0.12703016 0.22565295 0.11005183
0.13307926 0.03675238 0.14641449 0.0012646749 0.038600437 0.16763362 0.02222178 0.17618255
0.10124881 0.023906577 -0.016942458 0.13310081 0.14034931 0.17115624 0.060508657 -0.19473699
0.04681671 -0.03744657 0.1649525 -0.21243833 -0.23621786 0.055545334 -0.07843781 -0.035638086
-0.036916036 0.05863288 0.08437776 -0.12759644 -0.04854206 0.02288142 -0.030103514 -0.009081331
0.13628088 0.12615183 -0.12026696 0.23309435 0.0051188674 -0.044632066 0.07504067 -0.009714764
0.081305176 0.12147706 0.062437285 0.029705185 0.078212775 0.019140698 0.19317685 0.088720046
0.07399879 0.17846447 -0.04650424 -0.101866715 0.007067173 0.09531369 0.013017568 -0.116544776
0.033155784 -0.021268245 0.14154011 -0.013481567 0.06601458 0.2391521 -0.06913391 0.070531964
0.040122546 -0.06641465 0.043176543 0.040666036 0.092633925 0.016764894 0.08526908 0.17001334
0.20278871 0.053996086 -0.114336416 0.089597434 0.23140708 0.20226875 0.18729073 0.021107806
0.028612953 0.097754665 0.06990015 -0.05496891 0.20292617 -0.006254546 -0.21926007 -0.2593512
-0.065822475 -0.21634044 0.13691308 0.09397242 0.04543946 0.12972373 -0.06486771 0.112650104
-0.07455904 -0.11294348 -0.059987947 -0.1286203 -0.006551732 0.058360398 -0.1273892 -0.0025809873
0.045208644 -0.12048401 0.19842966 0.0077855377 0.1416754 -0.0056530526 0.18872839 0.25478843
-0.10961008 -0.08840686 0.15997016 -0.13735053 -0.27054405 0.05323567 0.017055197 -0.0656152
0.048341095 0.1475859 0.067807116 -0.045644794 -0.13114221 -0.044962704 0.012024185 -0.086582705
0.22161107 -0.12101987 0.036585763 0.2958943 -0.30321375 0.104048714 -0.30048683 0.10729784
0.35008836 0.24934551 0.10373684 -0.01078203 -0.0077270963 -0.123238824 -0.009626837 -0.08054633
-0.1678443 0.075562716 0.09611554 0.18025832 0.15532494 0.20718057 -0.072084695 0.03397103
0.16061492 0.1645981 0.10439011 0.108032174 0.006469733 0.2931683 0.0873188 -0.01444445
0.0110935895 0.06483924 -0.028059961 -0.083755985 0.10360196 0.10787327 -0.030918065 0.22683819
0.062258475 0.12048274 0.018693574 0.026808556 0.06710877 -0.084435284 0.067540094 0.122235864
0.004973821 0.09664987 0.10679862 -0.07259798 0.15501541 0.15619594 0.09895565 -0.10547726
0.034807935 -0.20699386 0.2660436 -0.1198141 -0.051929176 0.16384816 -0.06540058 -0.06348173
-0.053836998 0.031235954 0.0030204498 -0.051856775 -0.038210515 0.10308242 0.2046489 0.16659921
00000000: 7eaf 4c3e 00a3 3d3e 9bca 923d c77f e0bd
00000010: df6d bb3d 2069 833c 4db5 563d df22 173d
00000020: e97d 2cbe 1824 fe3d 2ee5 1bbe 5bf2 2fbe
00000030: b9c5 a6bd 7402 ffbd b96e 14be 91ed 323d
00000040: ca93 a13d 0737 123d 97c4 d43c c310 d339
00000050: ec7a c23c 1fd6 a93e 1c7b 76be 68b1 e33d
00000060: 1003 8bbe 3326 ad3c 04b1 2cbe da5c e83d
00000070: ec35 983d 9440 023e ada2 b23d f8c1 943c
00000080: 35fe 743e f1a9 1e3e 9b27 a3bd fcd7 cbbc
00000090: 0f7b b43c e058 383e 97d7 0b3e 9a8e f43c
000000a0: bca3 9a3e 2452 843d 4ce0 f03b 4119 00be
000000b0: 3102 003e ef27 24bd c23c b13d 47f3 cd3d
000000c0: 76ef b83d 71f8 163e a0f5 33be 9f7c 4e3e
000000d0: e57b 253d 3214 023e 9111 673e db62 e13d
000000e0: ee45 083e aa89 163d aeed 153e 73c3 a53a
000000f0: 7e1b 1e3d 26a8 2b3e 730a b63c 3369 343e
00000100: 895b cf3d bad7 c33c e9ca 8abc 944b 083e
00000110: bbb7 0f3e 9543 2f3e edd7 773d 2269 47be
00000120: e1c2 3f3d 9361 19bd 4fe9 283e 6f89 59be
00000130: 18e3 71be 8183 633d 01a4 a0bd 3ef9 11bd
00000140: 4535 17bd 0829 703d 3fce ac3d a4a8 02be
00000150: 0ad4 46bd d171 bb3c a59b f6bc ddc9 14bc
00000160: 378d 0b3e f22d 013e 864e f6bd 49b0 6e3e
00000170: 2cbc a73b 1dd0 36bd ecae 993d ac2a 1fbc
00000180: 5483 a63d f7c8 f83d 3dbe 7f3d 4a58 f33c
00000190: 052e a03d f4cc 9c3c 27d0 453e dbb2 b53d
000001a0: ad8c 973d 64bf 363e 3b7b 3ebd 7f9f d0bd
000001b0: be93 e73b d333 c33d a347 553c 07af eebd
000001c0: 5cce 073d be3a aebc e4ef 103e cae1 5cbc
000001d0: a732 873d 4ae4 743e 1496 8dbd 1073 903d
000001e0: 8a57 243d 6704 88bd e3d9 303d 6e91 263d
000001f0: dbb6 bd3d 8856 893c 8ea1 ae3d fa17 2e3e
00000200: d8a7 4f3e 002b 5d3d 3629 eabd dc7e b73d
00000210: faf5 6c3e 8a1f 4f3e 24c9 3f3e 47ea ac3c
00000220: b665 ea3c 9933 c83d cf27 8f3d 1427 61bd
00000230: e1cb 4f3e eff2 ccbb b685 60be aec9 84be
00000240: efcd 86bd 5988 5dbe f132 0c3e 9d74 c03d
00000250: ba1e 3a3d 4cd6 043e 5dd9 84bd 19b5 e63d
00000260: 69b2 98bd e94e e7bd ecb5 75bd 0ab5 03be
00000270: e9af d6bb 500b 6f3d 5072 02be c825 29bb
00000280: b32c 393d 52c0 f6bd 2531 4b3e d31d ff3b
00000290: 5b13 113e 3e3d b9bb 0442 413e a173 823e
000002a0: 407b e0bd a80e b5bd 38cf 233e 9ea5 0cbe
000002b0: c084 8abe a50d 5a3d 57b7 8b3c 4361 86bd
000002c0: 5001 463d c220 173e 75de 8a3d 09f6 3abd
000002d0: 254a 06be d02a 38bd 1601 453c 4652 b1bd
000002e0: 03ee 623e 44d9 f7bd f4da 153d 757f 973e
000002f0: d53e 9bbe 7e17 d53d 69d9 99be f8be db3d
00000300: c83e b33e 6e54 7f3e fb73 d43d 1da7 30bc
00000310: 9533 fdbb a364 fcbd e2b9 1dbc 79f5 a4bd
00000320: 60df 2bbe a0c0 9a3d 39d8 c43d a395 383e
00000330: 800d 1f3e 2527 543e 24a1 93bd 3525 0b3d
00000340: 3d78 243e 688c 283e 7bca d53d f93f dd3d
00000350: 0e00 d43b 281a 963e 33d4 b23d 6aa8 6cbc
00000360: e3c1 353c 6fca 843d 01de e5bc 4288 abbd
00000370: 442d d43d a9ec dc3d e247 fdbc 4548 683e
00000380: be02 7f3d a8bf f63d 4423 993c 9e9d db3c
00000390: 5370 893d 68ec acbd 7652 8a3d cc56 fa3d
000003a0: 6ffb a23b 5ef0 c53d 3cb9 da3d 40ae 94bd
000003b0: 5cbc 1e3e d4f1 1f3e 43a9 ca3d 7604 d8bd
000003c0: c492 0e3d 33f6 53be de36 883e 1861 f5bd
000003d0: b0b3 54bd d0c7 273e bdf0 85bd b602 82bd
000003e0: 2f84 5cbd 8be2 ff3c bdf2 453b c567 54bd
000003f0: a182 1cbd e01c d33d 7b8f 513e fc98 2a3e
