results/DroneAgentMGO5/DroneAgent/DroneAgent-4799955.onnx (onnx, 724643 bytes, 10 tensors)

network_body._body_endoder.seq_layers.0.weight f4 [128, 236]
000000 84 d2 97 3e 44 c4 78 be 48 a9 e0 3d 2f 7c e4 3d
       0.29652798 -0.2429362 0.10969788 0.11156499
000010 53 99 c0 3d 97 3f fd 3e 34 ec 7e be 23 f6 cf 3d
       0.09404244 0.49462578 -0.24894792 0.10154369
000020 58 c6 b2 3e 28 26 f6 3d 57 0e da 3d d4 da 8a be
       0.3491695 0.120189965 0.10647266 -0.27120078
000030 63 f7 d3 bd 34 09 51 3e 02 f6 0c bc e5 e1 07 3f
       -0.1034992 0.20413667 -0.008603575 0.5307906
000040 d6 3e b0 bd 19 21 82 be 52 4d fb 3d 82 3e b5 3d
       -0.08605735 -0.25415877 0.12270607 0.08849813
000050 23 be 01 3e 07 13 87 be 75 0b b5 bc 0c 4b ad 3d
       0.12670188 -0.26381704 -0.02210019 0.0846158
000060 54 3f da 3d 9d 00 91 3d ae 01 03 bf 41 9b da 3d
       0.1065661 0.07080195 -0.5117444 0.106741436
000070 bd 61 13 3f d4 83 7c bd 89 8c af be 06 98 03 be
       0.5757101 -0.06164916 -0.34286907 -0.12850961
000080 17 e6 f6 3d 9d 61 2d 3f d7 1e 7a 3e 1a 2e 68 bc
       0.12055605 0.6772707 0.24425827 -0.014171148
000090 e8 29 f2 be 5f 9c df 3d 35 f2 07 3f f4 27 5e 3e
       -0.47297597 0.10918497 0.53103954 0.21694928
0000a0 7b a3 cf be ae 59 8d be b7 4a a3 3e c7 0b 24 3f
       -0.40554413 -0.27607483 0.3189294 0.6408047
0000b0 24 89 21 3e be eb bb 3d 49 82 04 bf e2 cf e2 bd
       0.15774971 0.09175824 -0.517613 -0.11074807
0000c0 22 43 71 3f e6 4d 19 3e 55 d1 99 bb a9 f5 b2 3d
       0.9424306 0.14971122 -0.004694144 0.08738262
0000d0 cb ba ae be 04 57 39 3b dd 62 c3 bc e9 f6 c5 3d
       -0.34126887 0.0028280625 -0.023850853 0.09666235
0000e0 1a 54 55 bd 38 fa bc bd 03 64 3a be ed cb ca bd
       -0.05208216 -0.09227413 -0.18202214 -0.09902177
0000f0 15 77 9f be 1e 27 e0 bd ff 65 9a 3d b2 09 9e bd
       -0.3114554 -0.10944961 0.075389855 -0.07716693
000100 2c 6a 81 bd 73 28 a1 3e 11 0d 62 3d 8c 19 64 3c
       -0.06319079 0.31476173 0.055188242 0.0139221065
000110 b1 c2 ba be cf 6b e9 bd 75 be 3b be 28 a8 72 3d
       -0.36476663 -0.11397516 -0.18334372 0.059242398
000120 54 45 45 3e 4b f8 ce be 99 52 ef bd 81 b6 c8 3e
       0.19264728 -0.40423808 -0.11685676 0.3920174
000130 5a a7 3b be 93 65 68 bc 03 e6 c3 be 23 e5 ad be
       -0.18325558 -0.014184373 -0.38261423 -0.3396388
000140 4e f7 98 3e 85 a7 56 bd 27 d3 d3 bc ee e2 e5 be
       0.29876179 -0.052405853 -0.025857521 -0.44899696
000150 9f 98 cb be 6f a8 b4 3e a1 bd 6c 3d c8 41 1c 3e
       -0.39764878 0.35284755 0.05779803 0.15259469
000160 08 14 59 bf 87 b2 ae be 8a cf 20 3d d9 3b 08 3e
       -0.8479619 -0.3412058 0.039260425 0.1330408
000170 87 19 4c 3e 93 50 3e bf 49 1d 82 be 87 c6 74 3d
       0.19931613 -0.74341697 -0.25412968 0.059759643
000180 7f 39 dc be 48 4a fa 3d ed 13 b0 be 24 13 9a bd
       -0.43012616 0.12221199 -0.34390202 -0.07523182
000190 b4 d5 de 3c 64 e0 14 be 30 3a 9b 3d 7c 1f 66 be
       0.027201511 -0.14538723 0.07579458 -0.22472948
0001a0 71 54 6e 3d 60 44 08 bd c5 50 08 3e fd 68 d2 bd
       0.058186 -0.033268332 0.13312061 -0.10273931
0001b0 6a 07 0d 3e ce 51 b7 bd a5 cb 0f bf 77 f5 14 3d
       0.1377236 -0.0895115 -0.5617011 0.036366906
0001c0 8d cf 96 3e 71 f4 53 be cd 61 ae 3e f1 ee c6 be
       0.29455224 -0.20698716 0.3405899 -0.38854173
0001d0 74 04 ed be 7e b4 b3 3e 00 ab 87 3d 38 5f 6a be
       -0.4629246 0.35098642 0.066244125 -0.22887886
0001e0 27 6d 35 bf ee 88 d3 3c 08 25 a7 3e c8 dd b9 be
       -0.7086968 0.02582213 0.3264544 -0.36302018
0001f0 26 62 d4 3e 02 e1 2b be 6f 8a e9 3e 36 c2 66 3e
       0.4148113 -0.16785052 0.4561343 0.22535023
000200 d1 d9 fb 3d 9d 35 35 be da 85 85 be 6a 22 f7 bc
       0.122974046 -0.17696233 -0.26078683 -0.030167777
000210 8a c6 99 3e ce 2b ef be e3 64 72 3e 51 de 0e bf
       0.30034286 -0.46713108 0.23671298 -0.5580798
000220 5c b6 88 3d e4 45 98 3e 77 6a 8a be 3e e7 8b be
       0.06675407 0.29740822 -0.2703435 -0.2732486
000230 3c cf 32 be 3e f1 02 bf 75 64 0e 3e 2b e7 c8 3e
       -0.17461866 -0.51149356 0.13905509 0.39238867
000240 af 42 25 3e 9d b6 88 be 33 86 32 be a4 22 d3 3e
       0.16138719 -0.26701823 -0.17434005 0.41237366
000250 1e b6 db be a5 81 8f be fa ba e8 3d 7d b8 f1 3d
       -0.42912382 -0.28028598 0.11363788 0.118027665
000260 e0 0e 8b bc 47 57 e0 be 93 71 96 3d ff 88 d1 bb
       -0.016974866 -0.43816587 0.07345881 -0.006394505
000270 12 d6 e6 bd cf 2d ba 3d 05 b3 49 3e 88 f5 00 be
       -0.112712994 0.090907685 0.19697197 -0.12593663
000280 10 06 51 3e 38 e3 e9 be 88 a0 c0 3d b8 9a a5 be
       0.20412469 -0.45681167 0.09405619 -0.32344604
000290 65 ec 92 bd 8e f4 6e 3d 3b 2a 88 3e 32 5e ba 3c
       -0.07173995 0.058338694 0.2659472 0.022749994
0002a0 4a e7 5f 3c bf 39 ef bd a2 57 1b 3f 2e 14 e4 bd
       0.013665983 -0.11680936 0.6068059 -0.111366615
0002b0 54 8b f7 bd d4 77 f9 be a0 ee 04 be b6 6f 83 3e
       -0.120871216 -0.48724234 -0.12981653 0.25671166
0002c0 6a 1f fb 3d 9e da 06 be 18 a6 e5 be 20 ab 53 be
       0.12261851 -0.13169333 -0.44853282 -0.20670748
0002d0 1a d8 5e be 50 eb 9b be cb c0 3e 3e 95 a7 67 be
       -0.21762124 -0.30452967 0.18628232 -0.22622521
0002e0 30 75 02 be 16 bb 07 bd af 06 7e 3e 05 73 12 3e
       -0.12740016 -0.033137403 0.24807237 0.14301689
0002f0 a1 39 85 3e 03 59 9f 3d 26 7b fa 3c 95 a4 1f 3f
       0.2602053 0.077806495 0.0305763 0.6236051
000300 9b be 08 be 8b 83 1c 3f 6e 0b 6e 3e 63 3b 5e 3e
       -0.1335396 0.6113822 0.23246548 0.21702342
000310 b2 b2 93 3e d6 b4 de 3c c7 ac 19 3e 68 75 cd bd
       0.2884727 0.027185839 0.15007316 -0.10032159
000320 c2 a9 c3 3d e8 a5 ad 3e 90 d7 5b bc af c2 0a 3e
       0.09553863 0.3391564 -0.013418093 0.13550828
000330 c1 62 06 3c eb 47 eb be b0 64 6c bd bd 16 ab 3c
       0.008202256 -0.45953307 -0.05771321 0.020884866
000340 cb 1c 0c 3e a0 ec f7 3d a5 5f 8d bc 00 ce 20 3e
       0.13682859 0.121056795 -0.01725752 0.15703583
000350 e0 e3 5a 3d 32 54 33 3e a7 1f 11 3f 9f eb b2 bd
       0.053439975 0.17512587 0.5668892 -0.087363474
000360 eb 9a 0a 3e c1 a4 bb 3e 0c 9e 2d 3e 9d b4 97 be
       0.13535659 0.36649135 0.16954821 -0.29629984
000370 f1 d8 cc 3d 77 e9 55 bf fc 95 bb be 07 8f 02 be
       0.10002316 -0.83559364 -0.36637866 -0.12749873
000380 c7 96 8d 3b af 00 99 bd e0 2c 93 be e6 8d de 3d
       0.0043209526 -0.074708335 -0.28745174 0.10866909
000390 5c f5 f7 be ea 0a ae bd 92 23 d3 be d2 93 88 3e
       -0.48429382 -0.084981754 -0.41238075 0.26675278
0003a0 8a f3 38 3d 52 9e 4f 3e b7 55 91 bc 42 28 65 3e
       0.045154132 0.20275238 -0.017741067 0.22378638
0003b0 75 ab 4d 3e d9 02 16 be a8 4d 4a bd d0 f3 9d 3e
       0.20084937 -0.14649524 -0.049390465 0.30850077
0003c0 c3 d9 48 bd a8 ce 00 3e 34 61 b7 be 80 a3 33 3f
       -0.0490358 0.12578833 -0.35816348 0.70171356
0003d0 ac f6 28 3d f8 d2 e7 bd 34 75 90 3e 94 ff fe be
       0.04125087 -0.11319536 0.2821442 -0.49804366
0003e0 65 28 9b 3e 08 35 fd 3d b7 40 b7 bc 1a bc 5d 3e
       0.30304256 0.123636305 -0.022369726 0.21653786
0003f0 9c 30 0e bf b4 7d 0e 3f 55 49 a7 bc ec e5 85 bd
       -0.5554292 0.5566056 -0.02042071 -0.06537995

network_body._body_endoder.seq_layers.0.bias f4 [128]
000000 2b 82 66 bd 69 d5 83 be f4 ee 5d 3c 82 95 11 3d
       -0.05627648 -0.25748757 0.01354574 0.035542972
000010 80 4b d0 3c bf 0c d2 bd bd 6c b1 3d 6e 8a 08 3e
       0.025426626 -0.102563374 0.08663318 0.13334057
000020 c1 47 61 be 7b 1b 4c be 75 c1 52 3d 38 5f 8f 3d
       -0.22000028 -0.19932358 0.051454026 0.070005834
000030 db cd fd 3c ba 46 cc bc 13 3e 8f bd 5c 7b a6 bc
       0.030981949 -0.024936069 -0.069942616 -0.020322494
000040 19 cc 2a bd ba a4 85 bd 09 d1 ba bc 75 d8 23 3d
       -0.04169855 -0.0652556 -0.022804754 0.04000135
000050 8b e0 0d be 61 a4 ea bc 78 3f 37 3b 38 76 3f bb
       -0.13855188 -0.028642835 0.0027961414 -0.002921475
000060 d1 15 82 bc 7a 73 09 3b fe 23 e9 bc ea ca 33 bd
       -0.015879543 0.002097337 -0.028459545 -0.043894686
000070 58 bd c5 bc 71 22 9f bb cb d9 43 bd ef f3 7d bd
       -0.024138138 -0.0048564007 -0.047815125 -0.06200021
000080 61 69 8f 3d 45 5a 39 3d f3 a6 ba 3d 0c c8 cd bb
       0.07002521 0.045252103 0.09113874 -0.006279951
000090 d6 f6 cb 3d b3 9c 21 bd 61 a3 2c 3d 1b 94 84 3d
       0.099591896 -0.03945608 0.042147998 0.064735614
0000a0 a6 64 5f bc 7d 46 cb 3d a3 d4 06 3d 8b d3 1b 3d
       -0.013634836 0.09925554 0.03291763 0.03804354
0000b0 35 c7 d2 3c 8b 6c 31 be ca 5f ed bc 7f f0 75 bd
       0.025729755 -0.17326562 -0.02897634 -0.060043808
0000c0 f6 9b 63 bd a5 22 aa 3c 8c da 34 bd 3c 95 5a be
       -0.055568658 0.020768473 -0.044153735 -0.21345991
0000d0 6d 94 c9 bc 7e 49 38 3d 44 65 b8 bd 08 4a 7d 3c
       -0.024606908 0.044991963 -0.0900369 0.015459545
0000e0 06 97 39 be 3a 03 09 3d f2 75 f4 3d b9 51 04 be
       -0.18124017 0.033450343 0.11936559 -0.129218
0000f0 e5 b6 77 3d 56 5b ec 3c de 89 1b be 15 2f e7 3d
       0.060477156 0.028852146 -0.15189311 0.11288277
000100 cf 44 e9 3a 38 53 16 bc b7 41 23 3b 79 ef d5 bd
       0.0017796996 -0.009175114 0.0024910995 -0.104460664
000110 8e 72 47 bd ce 2d 91 bd a0 5d 91 3c 27 57 9f bd
       -0.048693232 -0.07088815 0.01774484 -0.07780295
000120 d8 21 d9 3d a0 28 2f 3c 28 1e 8e 3b df 4a bd 3c
       0.10602158 0.010690838 0.004337091 0.02310699
000130 26 82 63 bd 68 88 c1 3d 6c 70 59 ba 38 8b 30 be
       -0.05554404 0.094498456 -0.0008294645 -0.17240608
000140 8c 60 50 bd 45 cf f8 3d 18 a7 7f be ca 7d 05 bb
       -0.050873324 0.121489085 -0.24966085 -0.0020369166
000150 fd a3 1d be 17 10 f5 3c b6 a3 d0 bd 95 30 3e 3d
       -0.15394588 0.029914899 -0.101874754 0.04643305
000160 1a 5d 32 bd 8b 01 de bd b8 10 e6 3d 9d e4 4d bd
       -0.04354582 -0.10840138 0.112336576 -0.05026685
000170 26 c9 c6 3c c8 0b 49 bc 1c c2 aa bc 54 40 f7 3c
       0.024265837 -0.012270875 -0.020844512 0.030182041
000180 cd 4e 38 3c 1e 49 19 bd 07 17 ad 3c ec 83 03 be
       0.011249256 -0.037423246 0.021129144 -0.12843293
000190 24 b2 aa 3d 36 3e 77 3d 2d fe 3b bd af ba 98 bd
       0.08334759 0.060362063 -0.045896698 -0.07457482
0001a0 1a 50 1e bd e0 ee 8b bd 36 e9 90 bd df f6 75 3d
       -0.03865061 -0.06832671 -0.070757315 0.060049888
0001b0 15 f7 be bd 49 07 1b be c2 88 fb bd 63 e8 72 bd
       -0.09324471 -0.15139498 -0.12281944 -0.059303652
0001c0 ee 7d a9 3a c4 69 e8 bc 5e be 7f 3b d3 da ff 3b
       0.0012931207 -0.028370745 0.003902338 0.0078080683
0001d0 43 7e 0a 3d 07 63 fd 3b 70 6d 32 bd cf 8d 76 3c
       0.03381182 0.0077327522 -0.0435614 0.015048458
0001e0 61 2c 8c bc d7 eb 3c be 0a e4 20 bc 23 f8 26 be
       -0.017111005 -0.18449341 -0.009819994 -0.16305594
0001f0 90 b0 e1 bd 31 1d 37 bd cc 77 54 39 08 bd 1d 3d
       -0.11020005 -0.044705573 0.00020262523 0.038510352

network_body._body_endoder.seq_layers.2.weight f4 [128, 128]
000000 49 44 a1 bc d8 94 41 3e 13 40 ee 3d 35 44 54 3e
       -0.019685881 0.18904436 0.11633315 0.20729144
000010 10 55 3c be 4a f4 9c be 9e 4f 13 3f 53 f3 e6 be
       -0.18391824 -0.30655128 0.5754336 -0.45107517
000020 c8 14 15 3e b0 70 9e 3e d7 95 30 3d 17 77 5b bc
       0.14558709 0.3094535 0.04311165 -0.013395092
000030 2d 21 02 be a2 5b f0 3d f8 bd 11 3e 24 81 88 3e
       -0.12707968 0.117362276 0.14232624 0.26661026
000040 d2 09 2b be 6d 27 37 bb d4 af 59 be 68 f5 9e 3e
       -0.16702965 -0.0027947084 -0.2125848 0.31046605
000050 37 a7 e3 be 0a 07 a5 3d a8 76 02 3f 28 b0 a0 3e
       -0.44463512 0.08057983 0.50962305 0.31384397
000060 50 39 36 bd 84 8d ce be 87 3b c5 be e7 9b d7 bd
       -0.04448825 -0.40342343 -0.38521978 -0.10527783
000070 eb ee 2c bf 24 81 4d 3c 7d 48 4e 3e 88 73 b7 bc
       -0.6755206 0.012542997 0.2014484 -0.022393957
000080 42 56 b2 bd 28 5b 82 be 5c ac b9 3d e1 96 44 bf
       -0.087078586 -0.25460172 0.09066078 -0.7679272
000090 d8 b5 e0 be 37 f1 ac 3e f2 93 e3 3d 0f 8b 4c 3e
       -0.43888736 0.33777782 0.11112203 0.19974922
0000a0 f1 55 19 bf 6b 9e 38 be ea 32 99 3d cc 3c 13 be
       -0.5989676 -0.18029182 0.07480414 -0.14378661
0000b0 16 c2 6f be 91 75 b8 be a4 bf 21 be 2d 10 0d 3d
       -0.23413882 -0.36027196 -0.15795761 0.034439255
0000c0 4d c0 1b be 4b 45 cd 3e 76 79 50 3e ee 76 d0 be
       -0.15210076 0.4009193 0.20358834 -0.40715736
0000d0 3d 6e f3 be 9c c6 69 bd 73 20 ac bd 61 2d f8 bd
       -0.47545043 -0.057074174 -0.08404627 -0.1211803
0000e0 9b c9 da bd 6b e8 36 be 7d d1 fa be 3c 7a 45 3e
       -0.106829844 -0.17862098 -0.48987952 0.1928491
0000f0 0f 6d 11 bc 19 7c 82 3e 5e e0 a2 3e 48 bc 1b 3e
       -0.008876099 0.25485304 0.31811804 0.15208542
000100 76 fb 47 3e 2f ae 21 be 13 a7 2c 3e 48 17 20 3d
       0.19529518 -0.15789102 0.16860609 0.039084703
000110 2e a6 78 3e 71 38 0a 3e 85 c5 5e be 0e 41 0a bf
       0.24282143 0.13498093 -0.21755035 -0.54005516
000120 e7 17 07 bf 1e fd f6 bd f5 06 f8 be de ed cc bd
       -0.5277085 -0.12059997 -0.48442808 -0.10006307
000130 39 52 c6 be 19 73 39 3d 98 21 f6 3d 63 52 52 3e
       -0.38734606 0.04527578 0.12018126 0.2053924
000140 9c 84 de 3e 38 5f 10 be 08 4a c5 3e 76 e2 9b bd
       0.43460548 -0.14098823 0.38533044 -0.07611553
000150 39 46 09 bd 11 2b 83 be 36 49 ae 3e 5f 05 31 3e
       -0.033514235 -0.25618795 0.3404023 0.17287205
000160 81 e7 19 3d bc df 55 3e 88 5f 8d bc 96 21 10 be
       0.037574295 0.20886129 -0.017257467 -0.14075312
000170 46 4a 19 3e 2b 3c 1d bf 64 5e 22 be cb 2b a6 be
       0.1496974 -0.61419934 -0.1585632 -0.32455286
000180 54 17 0f 3e 30 1d a2 be d1 0a e0 3d f2 08 b9 bc
       0.13973743 -0.31662893 0.10939563 -0.022587273
000190 a9 95 83 3d e7 3a 86 3b c2 5f 6f bd bf e4 d0 3e
       0.0642503 0.004096377 -0.05844093 0.4079952
0001a0 33 10 9a bd 9c 4d 8c bd b8 85 36 3e 8b 33 85 3e
       -0.07522621 -0.0685074 0.17824447 0.26015887
0001b0 b1 29 0a 3d c7 f2 0d 3e 05 85 9f be 9f 1b 85 bd
       0.033731166 0.13862143 -0.31156173 -0.06499409
0001c0 d0 34 48 be df cc e5 bd 54 a7 50 be a1 f9 50 be
       -0.19551396 -0.11220717 -0.2037633 -0.20407726
0001d0 1d ca 45 3e dd eb 9f be 87 73 c2 be b7 3a 7f 3c
       0.19315381 -0.31234637 -0.37978765 0.015577964
0001e0 50 79 a3 be 0d 69 26 be a1 7a a5 3d 51 e3 29 3e
       -0.31928492 -0.16251011 0.0808003 0.1659062
0001f0 c8 68 21 3d ee 59 bb be 44 96 0d be cf eb d5 3d
       0.039406568 -0.36592048 -0.13826853 0.104453675
000200 fc 75 75 3c fd 68 49 3e 5f f3 7d be f9 2b 1b bf
       0.014981743 0.19668956 -0.2479987 -0.6061397
000210 67 3c 14 be 2e f9 1a 3e 19 bd ed 3d 7f 82 e3 bd
       -0.14476167 0.15134117 0.11608333 -0.111088745
000220 00 c0 a2 b9 2d 6f b8 3d 8e 41 17 bf ac 6e b3 be
       -0.000310421 0.0900558 -0.59084404 -0.35045373
000230 6c 41 0a 3f 20 d5 cf bd e9 9b f4 be 98 24 5d 3e
       0.54006076 -0.10148072 -0.477752 0.2159599
000240 38 82 6c 3d 58 88 02 3d f3 14 3b 3e bc 02 12 be
       0.057741374 0.03186831 0.1826971 -0.14258856
000250 ff 33 9e 3e d1 8a ea bd ee 4b 97 be d0 62 29 bf
       0.30899045 -0.114522584 -0.29550117 -0.661664
000260 b1 10 b0 3d 27 e9 30 3e 5f ee bf 3d b3 a1 c5 3b
       0.08596934 0.1727644 0.093716376 0.006031239
000270 c3 8a 2f bd 1c 84 01 bd f1 f0 54 3e d5 e1 db bd
       -0.042856943 -0.03162013 0.20795037 -0.107364334
000280 51 bc 8f be fa 8c b1 3d 64 9a 21 bd 95 8e 4f 3e
       -0.28073362 0.08669467 -0.03945388 0.20269234
000290 51 59 25 3f b9 36 20 bf d2 fc bf be c4 96 f6 be
       0.6458941 -0.625835 -0.37497574 -0.481619
0002a0 af 1f fb bd 64 bd 37 be ae e7 39 3d 2d 2c 94 be
       -0.122619025 -0.1794334 0.045386963 -0.28939953
0002b0 a6 00 be bd 12 7b 24 3e ad 73 aa 3e b7 4c 73 3e
       -0.092774674 0.16062573 0.3329138 0.23759733
0002c0 07 58 5c 3e c0 8d 8e bc 57 d8 91 bc 17 15 c2 3e
       0.21517955 -0.017401576 -0.017803354 0.37906715
0002d0 cf b9 1b bd cd cd 9d be 4b ca 21 bd 13 f3 16 bf
       -0.038018998 -0.30821076 -0.039499562 -0.5896465
0002e0 2a b9 17 3e 67 56 21 3e 01 cb 97 bd c5 b7 66 3e
       0.14816728 0.15755616 -0.07411767 0.2253104
0002f0 e1 bb 0b bd ac 9f 6a be 6f 52 01 be 1f 73 07 bf
       -0.034114722 -0.22912472 -0.12629102 -0.52910036
000300 07 0d 1d 3e 9e 26 4e be 5c ca 0c 3d 93 08 9d 3e
       0.15337001 -0.20131919 0.034372672 0.30670604
000310 d9 39 22 bf 3a bf 16 be 07 8e 8d be a3 71 c8 3e
       -0.6336952 -0.14721385 -0.2764742 0.39149198
000320 75 74 4e 3e f3 c3 bd be 77 bd 70 bd fb 0d a5 3d
       0.20161612 -0.3706356 -0.058774438 0.08059307
000330 2d 12 9b 3d 7c 44 8e be e6 01 ba be a3 1c 27 bd
       0.07571826 -0.27786624 -0.36329573 -0.040798794
000340 01 62 2e be f3 e4 86 3e d5 d4 ac 3e 6e 55 7f 3d
       -0.17029573 0.2634655 0.33756128 0.06233733
000350 0b 94 92 3e 06 a9 fd bd a5 43 e9 3d f2 aa 5a 3e
       0.28628573 -0.12385754 0.11389855 0.21354273
000360 e7 fa 12 be d7 e1 00 3e c6 38 84 be b2 78 32 3e
       -0.14353524 0.12586151 -0.25824565 0.17428854
000370 50 7d e2 bc a0 3b 55 be d8 b8 85 bd 59 a8 b8 3e
       -0.027647644 -0.20823526 -0.06529397 0.3606594
000380 fa 0d 18 bf 11 d7 26 bf 65 e0 e8 3d 24 25 87 3e
       -0.59396327 -0.65171915 0.11370925 0.26395524
000390 b1 2c b9 bd 85 99 12 be 3e f8 6f be ed 5f 04 be
       -0.09041727 -0.14316376 -0.2343454 -0.12927218
0003a0 58 dd e3 be 7b 53 7d 3e 9b 12 60 3d e8 ab f1 bd
       -0.4450481 0.24738877 0.054705244 -0.11800367
0003b0 1a 45 95 be d0 95 d6 bd d4 01 71 3e 52 07 8a be
       -0.29154283 -0.10477793 0.23535854 -0.2695871
0003c0 7b 9f de 3d e5 56 99 3d f1 95 b6 3d 0a c6 f0 3d
       0.10870262 0.07487277 0.08915318 0.11756523
0003d0 95 c1 14 3e 56 df 05 be 93 77 17 3e 73 b4 cb bd
       0.1452697 -0.13073477 0.14791708 -0.09946527
0003e0 e4 0d 6f bd 3a 87 09 be 3f 9b 9f ba 53 63 16 3d
       -0.058362857 -0.13430491 -0.0012177004 0.036715817
0003f0 0c 98 ae 3e df 3f 3c 3d e0 f4 f7 bd f2 65 45 be
       0.34100378 0.04595935 -0.12107253 -0.1927717

network_body._body_endoder.seq_layers.2.bias f4 [128]
000000 9e c4 57 be 1e 0e 59 be ea 64 2c 3e 62 3b 01 3e
       -0.21071097 -0.21196792 0.1683537 0.12620309
000010 b1 69 98 3d 7f e3 6c bd af a7 f0 3b 39 94 ce 3d
       0.07442034 -0.057834145 0.007344208 0.10086865
000020 94 9e 43 3d a1 66 e8 3d 18 01 c9 3c 68 c6 74 bc
       0.047758654 0.113477 0.024536654 -0.014939882
000030 32 bb 16 be 42 4c 33 be dd e4 c7 bc 39 a4 4f 3e
       -0.14719847 -0.17509559 -0.024401123 0.2027749
000040 6c 12 35 be 31 f1 38 3e 05 cf 22 ba 51 23 44 bd
       -0.17682809 0.18060757 -0.0006210658 -0.047885243
000050 3d 9b ce bd 82 d3 b4 bd e8 f4 bc bd 06 38 07 3d
       -0.10088203 -0.088294044 -0.092264 0.033012412
000060 ba d7 2a bd da 4d 29 be 7d 1a 29 be 77 31 3f be
       -0.04170964 -0.16533604 -0.1651401 -0.18671213
000070 34 d5 af 3d 1d cf 8d bd ff 45 e9 bc b1 20 68 be
       0.08585587 -0.06924269 -0.02847576 -0.22668721
000080 01 8a 3b bc b0 ab e0 bd 17 29 5a 3d 7b db 03 3d
       -0.011446477 -0.10970247 0.053261843 0.032191735
000090 2c 21 2e 3e bb b8 84 bd 72 8b 6a 3d ee 9f 97 3d
       0.17004842 -0.06480547 0.05726189 0.07403551
0000a0 ac 24 b5 3d 65 86 5a 3d 6f b1 8b be 92 e2 2d be
       0.08844885 0.053350825 -0.2728381 -0.16980961
0000b0 e3 86 00 3e 23 f8 3d be 53 95 87 3d bd 74 9f 3d
       0.12551455 -0.18551688 0.06620278 0.07785938
0000c0 02 9f 25 bd f0 20 b4 3d cf 0f c0 3d 76 99 97 bd
       -0.040434845 0.08795345 0.09378015 -0.07402317
0000d0 01 f0 3c be ca d4 db bc 9e d0 c0 bd ba 5e e2 bc
       -0.18450929 -0.026834864 -0.094147906 -0.02763306
0000e0 0e e2 ad bd f3 b6 0c bb 26 99 55 be 66 f4 05 bd
       -0.08490382 -0.002147135 -0.20859203 -0.03270378
0000f0 ee df 15 bd 8b 3d c4 3d 47 cc 40 3e af da 0e bd
       -0.03659051 0.09582051 0.18827926 -0.03487652
000100 9f 12 89 3e 18 86 83 ba dd 95 0f bd 0d dd 25 3d
       0.2677202 -0.001003447 -0.03505503 0.040494014
000110 39 a7 81 3e f2 27 ef bd 1a d1 43 be 97 10 7b 3d
       0.25322893 -0.11677541 -0.19122735 0.06129512
000120 2a 31 ca 3d db b3 f0 bd 89 68 71 3d f0 f9 9f 3c
       0.098726586 -0.11753055 0.058937583 0.01952836
000130 b9 26 09 be d0 8f e1 3d 80 c0 0d 3e f2 25 03 3e
       -0.13393678 0.11013758 0.13842964 0.12807444
000140 b2 cf 99 bd 4c 15 43 3c 22 40 cc bd f5 fa c5 3d
       -0.07510318 0.011906933 -0.0997317 0.09667007
000150 3e cd c2 3d 51 13 78 be 9f 48 6c 3e c4 5d d9 bd
       0.09511803 -0.24226119 0.23074578 -0.106135875
000160 4a 52 e3 bd c1 df ee bd 66 be 8e bd 55 e2 16 be
       -0.1109968 -0.116637714 -0.06969909 -0.14734776
000170 5e c1 e1 3b f5 12 89 be 38 e2 30 be 08 73 8d bd
       0.0068895062 -0.26772276 -0.17273796 -0.06906706
000180 fd fb 3b bc f1 14 9f 3d bc 80 e1 3c 2f 1f 82 3d
       -0.011473653 0.07767666 0.027527206 0.06353604
000190 4b dc 8d 3d f6 92 2a 3d df a7 d6 bc 42 c6 db 3c
       0.06926783 0.04164406 -0.026203094 0.026827935
0001a0 be 47 e6 3c 06 0c 1e 3d bf 5d 0b 3e 91 dc b7 bd
       0.028110381 0.038585685 0.1360998 -0.089776166
0001b0 e4 95 48 3e 38 fa f0 3d d6 ac 36 bb e6 a8 2c 3d
       0.19588429 0.117664754 -0.0027874014 0.04215326
0001c0 e9 5a 29 bd 70 e5 9f 3d e9 e9 e8 bd 7c 28 7d be
       -0.041346464 0.078074336 -0.1137274 -0.24722475
0001d0 21 8f af 3d a2 1d 2b 3c e7 39 e2 3c 2f 67 c9 3c
       0.085722215 0.010444077 0.0276155 0.024585335
0001e0 1f 82 56 bc 64 a5 98 3d 00 05 24 3d 63 33 81 3d
       -0.013092547 0.07453421 0.04004383 0.06308629
0001f0 00 0b 51 be db dd ba 3c 4c e2 8f 3d a7 49 b8 bd
       -0.20414352 0.022810867 0.070255846 -0.08998423

action_model._continuous_distribution.log_sigma f4 [1, 4]
000000 80 44 73 40 26 4a 95 40 cf db f3 40 25 40 e0 40
       3.801056 4.6653013 7.620582 7.00783

action_model._continuous_distribution.mu.weight f4 [4, 128]
000000 72 c6 fd 3f 2d 91 a0 3f e2 2f d2 bf fe d7 da bf
       1.9826186 1.2544304 -1.6420863 -1.7097166
000010 8c 83 39 c0 0f c5 b0 3d 27 57 44 3e c7 c5 e4 3f
       -2.898654 0.08631336 0.19173871 1.7872857
000020 2d 81 aa bf 84 d5 02 c0 24 58 1e c0 8b 36 4a 40
       -1.3320671 -2.044282 -2.4741297 3.159579
000030 40 b9 42 40 fc d9 b3 bf 20 b9 d6 3f 90 65 1c 3f
       3.0425568 -1.4050899 1.6775246 0.6109247
000040 26 c2 fb bf 66 96 70 be cd c7 00 40 d3 74 d0 3f
       -1.9668624 -0.23494872 2.0121949 1.6285652
000050 e8 20 89 bf de c1 6f 3f 4b 53 31 40 53 bb d7 3f
       -1.0713167 0.9365519 2.7707088 1.6854042
000060 51 e1 ed 3e 11 ab a9 bf 08 7c 50 3e ed ac ba bf
       0.46460965 -1.325533 0.20359814 -1.4584023
000070 5b 04 9e be 6b 8e 00 c0 39 92 3c c0 63 42 46 be
       -0.30862698 -2.0086925 -2.9464247 -0.19361262
000080 4e b6 a3 bf da 3f de bf 11 54 c8 bf 53 84 9d 3e
       -1.279001 -1.7363236 -1.5650655 0.30765018
000090 85 98 47 bf 46 e3 a7 3f 50 c7 af bf 98 06 16 c0
       -0.779671 1.3116233 -1.37327 -2.3441525
0000a0 50 82 0a c0 61 d1 b8 bf 3e e0 39 be e0 bc 69 3f
       -2.1642036 -1.4438897 -0.18151948 0.91303825
0000b0 ba 87 b7 be 4e 88 57 c0 52 9d 17 bf 92 f6 47 bf
       -0.3584574 -3.3676944 -0.59224427 -0.7811061
0000c0 3a 9c 99 3d fa e2 1c 40 e7 2d a9 3f b9 2b 0f c0
       0.07500501 2.4513535 1.3217133 -2.2370436
0000d0 5f 11 02 40 07 bb 39 40 e3 a1 7b bf db db 2d bf
       2.0323102 2.9020402 -0.98293895 -0.679136
0000e0 d3 7e 3e c0 e6 30 9a 3f 73 a5 7e 3f 97 6b dd bf
       -2.9764907 1.2046173 0.99471205 -1.7298459
0000f0 5d 9c 04 3f 73 99 76 3f a3 0a be be f8 9a 27 c0
       0.5180109 0.96327895 -0.3711749 -2.6188335
000100 e4 fa bb bf 64 c9 d7 3f 07 f3 43 c0 89 56 2e 3f
       -1.4685941 1.6858335 -3.0617082 0.6810079
000110 09 46 e1 be db 77 07 40 5e 3d f6 bf 2b 7c d3 bc
       -0.43998745 2.1166904 -1.9237478 -0.025816044
000120 15 02 35 40 c3 38 7d bf 5c ad 65 3f 33 87 0e 3f
       2.828252 -0.98914737 0.8971765 0.5567505
000130 dc 45 da 3d 80 cf 88 bf 18 52 fb 3f 65 74 2a c0
       0.10657856 -1.0688324 1.9634428 -2.6633542
000140 9c a1 03 3f bd ed 27 40 e6 3a 8c bf f9 a4 95 bf
       0.5141847 2.6238854 -1.0955474 -1.1690971
000150 2b 32 27 40 13 7d 7c bf 67 c4 01 c0 a4 b7 8b 3f
       2.612437 -0.9862835 -2.0276124 1.0915418
000160 78 ff c6 bf ca 66 42 3e 18 2c 99 3f cd 07 58 bf
       -1.5546713 0.18984523 1.1966581 -0.84386903
000170 40 b6 08 40 d8 d7 04 3d 59 a6 9c 3f fb 6f 89 3f
       2.1361237 0.032432407 1.2238265 1.0737299
000180 4f b2 0c 40 e8 e4 13 40 9d e2 0a c0 b7 e4 09 c0
       2.198383 2.3108463 -2.1700814 -2.1545846
000190 bb 6f 92 3f c3 4b 33 40 99 7a 79 3f d1 0b 4f c0
       1.1440347 2.8014991 0.97452694 -3.2350962
0001a0 1b 35 48 3f 10 5f 05 40 1e 36 86 3f 2b df 62 bd
       0.7820603 2.0839272 1.0485265 -0.05538861
0001b0 43 45 7a be 9f 97 3b bd 6e 3c d6 bd c2 4e cd 3f
       -0.24440484 -0.045798894 -0.10460745 1.603966
0001c0 cc dd 95 bf 4c 81 1a c0 ca c9 8d 3f 0c 73 1b c0
       -1.1708312 -2.4141417 1.1077206 -2.428897
0001d0 e7 ff f2 bf a9 7a df 3f 9a 6c 01 40 e7 85 f2 bf
       -1.8984345 1.7459308 2.0222535 -1.8947114
0001e0 99 b7 38 3f 7d 8d a0 bf f3 e4 2a 40 a2 d2 e2 bf
       0.7215515 -1.2543179 2.670224 -1.772053
0001f0 f0 70 06 40 71 3b 07 40 43 72 31 40 17 5f e3 3e
       2.1006432 2.113003 2.772599 0.44408485
000200 d4 14 4d 40 a5 3a 95 be 83 53 d3 bf 14 8b 41 c0
       3.2043962 -0.29146305 -1.6509861 -3.0241137
000210 88 f9 fc bd 4c 7d cb 3d de d7 c2 be c9 3f 30 40
       -0.12352282 0.09936008 -0.3805532 2.7538931
000220 e3 74 0c 40 54 9e bb be 87 c6 2e c0 8f 24 46 bf
       2.1946342 -0.36644232 -2.7308671 -0.77399534
000230 1c bc b4 3f 24 62 67 40 62 dc 71 bf 7e d9 3d 40
       1.4119906 3.615365 -0.944769 2.9663997
000240 91 ff 3f c0 fb 38 b5 bc 29 ce f4 be a9 94 2a 3f
       -2.9999735 -0.022121897 -0.47813538 0.6663309
000250 c4 a9 49 bf 1c af 32 c0 be 33 3c 3f d6 81 a7 bf
       -0.78774667 -2.7919378 0.7351645 -1.3086498
000260 b7 46 fd bd 23 2a 3e bf 72 89 0b bf 7f 7b 03 40
       -0.123670034 -0.74283046 -0.545066 2.0544126
000270 13 13 1b c0 7b ef 23 40 7b b6 1b 3f c8 08 09 40
       -2.4230392 2.5614917 0.6082532 2.141161
000280 b0 ce 67 40 f3 aa 09 40 c7 75 b5 bf 5e 55 31 40
       3.6219902 2.151059 -1.4176568 2.7708354
000290 aa 1f 1f 40 3f 96 17 40 36 d1 2d c0 ba e3 ef bf
       2.4863076 2.3685453 -2.7158942 -1.8741372
0002a0 b8 5c 3b 40 b6 a4 0b 40 0c d7 6b bd c0 d2 19 bf
       2.927534 2.1819282 -0.05757813 -0.60087204
0002b0 55 04 d9 3e fc f0 9b bf b4 77 f3 3d c9 d0 44 c0
       0.42386118 -1.2182918 0.11888066 -3.0752432
0002c0 ce 15 a9 3f df 1d 0f bf b3 10 22 40 03 b8 0b be
       1.3209779 -0.55904955 2.5322692 -0.13644414
0002d0 8e 26 1b 40 f1 d7 0b 3e 69 35 1e c0 41 40 6e 40
       2.4242282 0.13656594 -2.47201 3.7226717
0002e0 f6 3b 1a 3e f3 9d d4 3f 3e 5a a2 bf 3c a1 4c 3e
       0.15061936 1.6610702 -1.268379 0.19983381
0002f0 ff 64 3a 3f e6 0c 51 c0 38 72 33 bf 2d 07 19 bf
       0.7281036 -3.2664123 -0.7009616 -0.59776574
000300 83 e6 c3 bf 7d b1 21 40 a9 bb 33 40 f3 69 65 c0
       -1.5304722 2.526458 2.8083289 -3.5845916
000310 05 c9 0f c0 1b 70 56 bf 2c 84 4b 3f 2f 27 43 40
       -2.2466443 -0.8376481 0.79498553 3.0492666
000320 84 30 9c bf 65 d5 05 3e 0f 86 3c c0 6f 4e 89 bf
       -1.2202306 0.13069685 -2.9456823 -1.0727061
000330 7a 8c 51 be 43 7a 1d bf 68 c3 81 3f 2b b9 2a 3f
       -0.20463744 -0.6151468 1.0137758 0.66688794
000340 cf 87 55 40 43 28 c0 bf c7 d0 11 40 bc eb 59 c0
       3.336414 -1.5012287 2.2783678 -3.405013
000350 a0 85 df 3e eb b6 66 3f cf 1c aa 3f 9e c0 4c c0
       0.43656635 0.9012286 1.3290042 -3.1992564
000360 65 30 40 40 5a 72 45 40 ec 60 29 3f 78 e8 0b 40
       3.0029538 3.0851045 0.66163516 2.1860638
000370 88 f4 c4 be f1 f8 f7 bf c5 cd ea 3f c5 b0 0d bf
       -0.38467813 -1.9372846 1.8344046 -0.55347854
000380 6f cd 9f bd b1 97 02 c0 86 c8 1d 40 52 38 f2 3f
       -0.07802855 -2.0405085 2.465364 1.8923438
000390 67 72 3d 40 12 5b 13 40 94 f3 48 bf 98 e5 83 be
       2.9601076 2.3024335 -0.7849667 -0.25761104
0003a0 e2 9a 25 3f fe 19 02 3f cf b9 e3 3f 32 18 d7 bf
       0.6468946 0.5082091 1.7791079 -1.6804259
0003b0 2f 81 73 40 ec 91 89 3e 79 e4 32 40 79 0d e1 bd
       3.8047597 0.26869142 2.7951949 -0.10988898
0003c0 a8 42 22 40 5b d2 7b bf 1a 89 2a c0 9c ae e1 3f
       2.5353184 -0.9836785 -2.664618 1.7631412
0003d0 19 01 a7 3f 29 04 13 c0 68 97 fb bd e2 c2 90 bf
       1.304721 -2.297129 -0.12284738 -1.1309474
0003e0 e9 12 8e 40 f7 06 f4 bf db 77 72 3f 2d 86 6f 40
       4.4398084 -1.9064626 0.94714135 3.7425644
0003f0 21 9f fd 3d cc 37 50 40 e0 1a ce 3e 1a d4 81 c0
       0.12383867 3.2534056 0.4025488 -4.0571413

action_model._continuous_distribution.mu.bias f4 [4]
000000 db 8f b3 3e 74 b9 20 be af db 41 3c 1e 26 1f 40
       0.3507069 -0.15695745 0.011832162 2.4867015

onnx::LSTM_102 f4 [1, 512, 128]
000000 82 4b ab 3e d2 91 86 3d a3 93 8a 3e 28 fa 5a 3e
       0.33456045 0.06570782 0.27065763 0.2138449
000010 91 1d 1b 3e 9e 4d 06 bf f1 6b 51 3d 87 d7 9d 3e
       0.15147997 -0.52462184 0.05112833 0.30828497
000020 67 1e 8c bd e4 92 9c 3e 9b 1f c0 be 9d 9b 8a be
       -0.06841736 0.3058082 -0.37524113 -0.2707185
000030 ad c2 7b 3e 53 26 cb be 05 15 05 bd 6b d7 e8 3e
       0.24585982 -0.39677677 -0.03249075 0.4547685
000040 4a e2 0c 3e f6 65 37 3e 55 41 da bd 17 11 9c be
       0.13758197 0.17909989 -0.10656992 -0.3048179
000050 e5 26 7e be 19 60 97 be a2 01 cf be d2 6f 98 3e
       -0.24819525 -0.29565504 -0.40430933 0.29772812
000060 90 f7 8c be d1 c7 31 be d5 18 82 be 1c 60 1f 3e
       -0.27532625 -0.1736138 -0.2540957 0.15564007
000070 1c 46 90 3e 97 45 be 3e 5f 46 13 3e 71 ed 54 3e
       0.2817849 0.37162468 0.14382313 0.20793702
000080 5e 57 5d bd 9a 6c aa be 67 32 fe 3c 56 bf 0e be
       -0.054038398 -0.3328598 0.031029893 -0.13940176
000090 0b 0e 78 3e 7d 50 77 be fb 72 1a 3f b8 bd a1 3c
       0.24224107 -0.24151798 0.60331696 0.019743785
0000a0 55 71 ae be 22 80 f5 bd 9d f1 9d bd 10 32 4f 3c
       -0.3407084 -0.1198733 -0.077121 0.012646213
0000b0 02 cb b9 bc ec ed 92 be 0f b3 a6 be a7 2f 91 3e
       -0.02267981 -0.28697145 -0.32558486 0.28356668
0000c0 1d a9 52 be 16 2d 27 3f 04 04 47 be a1 1d a7 be
       -0.20572324 0.6530317 -0.19435126 -0.32639793
0000d0 b7 d1 11 bf 1f bb c3 3c 08 53 e0 be bb 0b 18 bd
       -0.56960624 0.023892937 -0.43813348 -0.037120562
0000e0 3d 52 11 be 61 59 30 bf 78 be 99 3e 00 b8 4a bc
       -0.14191528 -0.6888638 0.3002813 -0.012372971
0000f0 66 1b f1 be ab 75 45 bd 61 71 9c 3d c2 a0 53 be
       -0.47091216 -0.04820792 0.07638813 -0.20666793
000100 5a ad 0b bf 1d 13 8a 3e 97 26 5e be 74 9f d7 bd
       -0.5456139 0.26967707 -0.21694408 -0.1052846
000110 da fb f3 3d 89 10 ea bd 83 ad 8a 3e 70 f4 ba 3c
       0.11913271 -0.11428935 0.27085504 0.022821635
000120 27 40 97 bd 2a f0 8b be 73 d2 a1 3e d4 c9 61 be
       -0.07385283 -0.27331668 0.31605873 -0.22049648
000130 90 f0 47 3e 3e 3a 48 3e 3d 67 80 bd d2 70 27 3c
       0.19525361 0.19553468 -0.06269691 0.01021977
000140 4e 9b ec be b7 7e ba 3c ec ec d0 bd a8 71 d0 3e
       -0.46212238 0.0227655 -0.10201439 0.40711713
000150 4d 8a dc 3e 9b 3b 96 3e 29 ed 64 3e 2a 16 8a bd
       0.43074265 0.2934235 0.22356094 -0.06742509
000160 3d fd ba bd 5c 2f 26 be ee 58 a5 3e f7 11 ae bd
       -0.091303326 -0.16229004 0.3229441 -0.0849952
000170 c7 e7 28 be 23 33 a3 be eb 3f 07 be 9e ba 01 3d
       -0.16494666 -0.31874952 -0.13207977 0.031672113
000180 8f 78 02 bd b3 cd a3 3e 85 a5 8b bd 9b 38 3e bc
       -0.031853255 0.31992874 -0.0681868 -0.0116101755
000190 ff 37 37 3d 74 fc 33 3f 77 8c f6 3c 47 9d 5b 3e
       0.044731136 0.7030709 0.030096276 0.21446715
0001a0 fb 66 6b 3d 82 e3 29 3e 53 00 e0 3d 18 aa 45 3e
       0.057471257 0.16590694 0.10937562 0.19303167
0001b0 ba 6b 45 3d f8 08 cc bd 84 5a 8a be e6 93 d0 3e
       0.04819844 -0.09962648 -0.27022183 0.40737838
0001c0 c5 ad 28 3d d8 e0 9a be e4 41 36 be 47 a4 a7 be
       0.041181345 -0.30249667 -0.17798573 -0.3274252
0001d0 73 8c 02 bf a4 27 90 bc ff 41 96 be d2 b9 46 be
       -0.5099556 -0.017597027 -0.29347226 -0.19406822
0001e0 07 dd c7 3e 16 99 13 3e 98 91 80 bd 9e a8 84 bd
       0.39035818 0.14413866 -0.0627777 -0.06477474
0001f0 4e 14 cd bd e8 ff 2a be 04 54 92 be 7f 5b 1c be
       -0.100136384 -0.16699183 -0.28579724 -0.15269278
000200 56 60 04 be d3 e4 20 3e b3 3a 31 be 0e c8 c1 be
       -0.12927374 0.1571229 -0.17307548 -0.37847942
000210 3b 9c 72 3e 64 25 7e 3e fc e7 14 3e 8f 57 d0 3b
       0.2369241 0.24818951 0.1454162 0.006358094
000220 ce be 3e be dc 83 80 3e e0 54 31 3e 70 c0 06 3f
       -0.18627474 0.251006 0.17317533 0.52637386
000230 44 84 ef bc 18 92 22 3e 34 32 5f 3d b8 5c e3 bc
       -0.029237874 0.15876043 0.054491237 -0.027754173
000240 8b d2 05 be 41 38 1a 3e c4 41 92 3e 18 ff dd 3d
       -0.13068597 0.15060522 0.285658 0.10839671
000250 92 ab 14 3d 58 c7 19 3e 9c 31 48 3e 08 d2 52 3e
       0.036296435 0.1501745 0.19550174 0.20587933
000260 5b 1a 64 3e 36 1b 22 bd 62 70 bd bd 85 4d 0e 3d
       0.22275679 -0.03957673 -0.09249951 0.034741897
000270 d0 99 e0 3d 6c 6d ef 3e 11 11 e6 3e f9 ce 40 3d
       0.109668374 0.4676317 0.44934896 0.047072385
000280 37 65 18 3e 9c 50 4c 3e 33 97 86 bc 1d 4a cd 3d
       0.1488236 0.19952625 -0.01642952 0.100239016
000290 e8 1b 62 3e 9c c5 cc 3e 43 e9 b2 3e cd c0 2b 3e
       0.22080958 0.39994514 0.3494359 0.16772766
0002a0 b2 16 86 3e 4c d9 07 3f ef 6a dd be 2f 62 9a be
       0.2618919 0.53065944 -0.43245646 -0.30153033
0002b0 be e3 f0 bd ef 90 74 bd cf fc 87 3d 18 ba e3 bd
       -0.117621884 -0.059708532 0.06640016 -0.11119479
0002c0 cf ed 19 bc 90 3f 6e be 42 55 62 3e 6b 19 c0 3d
       -0.009395077 -0.23266435 0.22102836 0.09379848
0002d0 90 0f f2 3d c2 bf 9f bb 11 0a d5 3c a7 2a 9e 3e
       0.118193746 -0.0048751542 0.026005777 0.30891916
0002e0 cd 93 45 bd bd c9 e3 3d 43 09 dc bd ab 97 af 3e
       -0.048236657 0.11122463 -0.10743954 0.342954
0002f0 81 e6 31 be 5a 27 2f be 79 33 64 3e b2 26 e0 3d
       -0.17373087 -0.17104855 0.2228526 0.109448805
000300 93 48 9a be d5 c0 03 be 49 40 5d 3c 2f e9 13 3e
       -0.30133495 -0.12866528 0.013504096 0.14444421
000310 9f 04 1a 3e 23 fa e0 3d 0c 1a 01 be 42 ff 2c 3e
       0.15040825 0.1098521 -0.12607592 0.16894248
000320 7f 55 d3 bb 25 3b bc 3e 12 41 6d 3e fc 6c 48 be
       -0.006449401 0.36763874 0.23169354 -0.19572824
000330 b4 a6 35 3e fb 20 15 bd f4 c3 80 3d 40 0a 86 3d
       0.17739373 -0.036408406 0.06287375 0.06544924
000340 b2 83 ff 3d 8b 3a d0 bd c5 e3 b6 3d 9d d0 d4 3e
       0.12476291 -0.10167416 0.08930162 0.4156541
000350 08 43 a3 3d cf 2d d8 3e a6 4e e9 3d 2b 40 8f be
       0.079717696 0.4222245 0.11391954 -0.27978644
000360 10 b9 c4 bd 16 b7 fb 3d 0c 1e 28 3e 87 29 0b 3e
       -0.0960561 0.1229078 0.16417712 0.1359006
000370 86 2d 74 3c 4d e6 d5 bd f9 4c ad bd 9b 26 ca bd
       0.014903432 -0.10444317 -0.08461947 -0.09870645
000380 de d1 ab 3d 9f 24 a8 3e 41 22 31 bd 67 4a 9e 3e
       0.08389638 0.3284044 -0.043245558 0.3091614
000390 93 8b bc 3d e1 72 cb bc 32 c5 41 3e eb 32 51 3e
       0.09206309 -0.024835052 0.1892288 0.2042958
0003a0 8f 04 25 3d 1b 62 b4 3d 74 18 3e 3e 69 d6 66 bc
       0.04028755 0.08807775 0.18564016 -0.014089205
0003b0 8c 49 fc 3d 46 30 ce 3e 28 f3 19 be b7 45 2c 3f
       0.123187155 0.40271205 -0.15034163 0.67293876
0003c0 45 1f ac 3e ac e5 96 3e 58 8b 8f be 5b 29 c2 3d
       0.33617607 0.294721 -0.28035998 0.09480544
0003d0 54 f4 03 3e 9d 90 85 3e 8e aa cf 3e 36 c0 04 3e
       0.12886173 0.26086894 0.4055981 0.12963948
0003e0 76 26 ec bd 4f 9d e5 ba ab 85 ca 3d 78 9e d1 3d
       -0.11530773 -0.0017518195 0.098887764 0.10235304
0003f0 24 d0 1a bd d4 5a c4 bd 17 e3 94 3d 96 8d 0b bc
       -0.037796155 -0.095876366 0.072698765 -0.008517643

onnx::LSTM_103 f4 [1, 512, 128]
000000 74 77 fb bd b3 2c dc 3e ad d3 02 bf 2a ae cd be
       -0.12278643 0.43002853 -0.5110424 -0.4017194
000010 3d e7 c9 be e6 d3 61 be 2f 1b 2c be c3 dd 24 3f
       -0.39434233 -0.22053489 -0.16807245 0.6440088
000020 cf 4e a2 be 78 96 ff be 61 b5 a5 3e c8 85 18 bf
       -0.3170075 -0.49919486 0.32364944 -0.59579134
000030 bc 20 4d 3e da 0e f1 be 79 e2 8d 3d bc 56 4b bf
       0.20032018 -0.47081643 0.06927962 -0.7942922
000040 a5 80 bc be 11 af 94 be dc 13 97 3e ae a0 d3 3d
       -0.36816898 -0.29039815 0.2950734 0.103333816
000050 8c d7 f7 3d 56 47 15 3e 63 35 58 bd ab 92 44 3e
       0.12101659 0.14577994 -0.05278529 0.19196574
000060 38 ed e3 bb 75 56 95 be 73 c4 dc be 48 2e 80 3e
       -0.006955769 -0.29167524 -0.4311863 0.2503531
000070 8c 9c 09 3d b7 2f 18 bf 18 d9 04 be 79 b0 d1 3e
       0.03359656 -0.5944781 -0.1297344 0.4095495
000080 9b 50 38 3f a1 89 d5 bd 3a 98 5e 3d b0 6a 8f bc
       0.71997994 -0.10426641 0.054344393 -0.017506927
000090 da 42 e0 be dc da 11 3f b6 93 a1 3d 25 00 9b 3e
       -0.43801004 0.5697458 0.07889502 0.30273548
0000a0 09 e9 28 be 13 b1 22 bf 13 52 86 be 5c c1 c7 bd
       -0.16495146 -0.63551444 -0.26234493 -0.09753677
0000b0 55 b8 cc be ce 3f a2 bd 5b 4a f3 be c5 32 ea 3e
       -0.39984384 -0.07922326 -0.47517666 0.4574186
0000c0 c5 4f 60 3e 3d 45 55 be 80 81 c0 3e 7d 0d 36 be
       0.2190543 -0.20827194 0.375988 -0.17778583
0000d0 29 4d 33 3e d6 50 05 3f 4f 63 7b 3d 48 e5 61 bd
       0.17509903 0.5207647 0.061374005 -0.0551503
0000e0 47 13 61 be d9 c3 02 3e 7b 0d 65 bd f3 86 8a be
       -0.2198001 0.12770022 -0.05592106 -0.27056083
0000f0 ab e4 46 3d 32 7e 2c 3f c9 f3 1f 3e 26 52 d1 bb
       0.04855792 0.6738006 0.1562034 -0.0063879667
000100 1a dc f6 3d 74 73 4f 3e f4 6e 4d 3e 99 ad 41 3f
       0.120537 0.20258886 0.20061857 0.75655514
000110 03 a9 bc 3c 1b c4 40 3e f6 af 8d 3e ec 5e e5 bc
       0.02302981 0.18824808 0.2767331 -0.027999364
000120 c0 29 8a be df 0e 40 be f8 0b 1b bf b8 9d 2b 3e
       -0.26984978 -0.18755673 -0.6056514 0.16759384
000130 df ed a0 bd 80 22 7a 3e 28 09 04 3e 4c 02 27 bf
       -0.0785787 0.24427223 0.12894118 -0.6523788
000140 fc 0f 0e 3c 29 32 e1 3e 68 b6 9b be b6 da 66 be
       0.008670803 0.43983582 -0.30412602 -0.22544369
000150 2c 99 2c be e7 10 2f 3e b3 b6 44 be 05 33 88 3d
       -0.16855305 0.17096291 -0.19210319 0.06650356
000160 86 ec c3 be 06 40 5d 3e 23 7b e9 bd 98 80 97 be
       -0.3826639 0.21606454 -0.114004396 -0.29590297
000170 de 5a b6 be 92 a1 87 3e 0f 14 c9 3e 0c 46 08 bc
       -0.356162 0.26490456 0.39273116 -0.008317482
000180 6d 81 f7 3e 04 d1 ba 3d 81 03 d6 be bf b3 18 3d
       0.48340932 0.09121898 -0.41799548 0.037280794
000190 83 2b 48 be c6 2d 36 be 64 97 8d 3e e4 7b 54 3e
       -0.19547848 -0.17790899 0.27654564 0.20750386
0001a0 37 5f c0 3e 09 84 ac 3d 4b a5 a4 3e 08 9b a0 bd
       0.37572643 0.08423621 0.3215736 -0.0784207
0001b0 2a 6b 9a 3e 08 3c ff be c6 d0 1e be ff 10 45 3d
       0.30159885 -0.49850488 -0.15509328 0.048111912
0001c0 97 3f b3 3e 82 5f 4e bf 59 51 e8 bb aa b9 46 bd
       0.35009453 -0.80614483 -0.0070897755 -0.048516907
0001d0 f3 2e 92 3c 3e 91 e6 3b fa ac af 3e 3d d9 a0 3d
       0.017844653 0.007036357 0.34311658 0.07853935
0001e0 aa 89 8a bd 1b 21 8d 3e 12 9e 50 be 18 2f 80 be
       -0.067645386 0.2756432 -0.20372799 -0.2503593
0001f0 ea 02 08 be e6 56 47 be a4 32 5d bc 8a e4 a2 bc
       -0.13282362 -0.19466743 -0.013500843 -0.019884367
000200 55 bb 0d be 90 72 52 bc c5 c7 d3 bd 89 31 06 3e
       -0.13840993 -0.012844697 -0.103408374 0.13104834
000210 8e e4 5a be 9d 34 ce bd be 50 26 3d 3f a0 b5 3d
       -0.21376249 -0.10068629 0.040604346 0.08868455
000220 38 74 a4 be 12 28 f4 be 27 52 08 be 97 aa 38 bf
       -0.32119918 -0.4768682 -0.13312589 -0.721353
000230 c0 68 f2 3d de e0 f2 bd 4a 72 fe 3d 1c 4b 81 b9
       0.11836386 -0.11859296 0.12424143 -0.00024660758
000240 0d 39 a8 3d 9a ad a0 bc b6 49 43 3e e7 ab dc bd
       0.082140066 -0.01961403 0.19071087 -0.10774975
000250 8f e7 08 3f 5c 5d d9 3d d6 1a 3f be 9e ec 3e be
       0.5347833 0.1061351 -0.18662581 -0.1864495
000260 06 f3 b6 3d 3b 1e e3 3e e1 a7 01 3d 26 6e ee 3d
       0.08933072 0.44359002 0.031654242 0.11642103
000270 70 f9 eb bd fc df f6 3a fc 74 52 bc 97 3d 30 bd
       -0.11522186 0.0018835063 -0.012845274 -0.043027487
000280 2e c2 80 3b b7 20 d5 bc 5c 5b db be 1e 20 4a 3c
       0.003929398 -0.026016576 -0.4284314 0.012336759
000290 2c 9b 36 3e d2 19 04 3e 5d 50 92 3e 63 44 5c 3c
       0.17832631 0.12900475 0.28576937 0.013444039
0002a0 ec da 93 be 5c 49 1e be 12 02 9f be 5f 95 74 3b
       -0.28877962 -0.15457672 -0.31056267 0.0037320477
0002b0 73 7f 8a 3c 32 7a 11 be 27 e9 90 be 91 ef a7 3d
       0.016906476 -0.1420677 -0.2830288 0.081999905
0002c0 8b 74 81 be 9f 4b 89 3e f3 bb 17 3e 7c 0a 5c 3e
       -0.25284228 0.26815507 0.1481779 0.21488374
0002d0 e0 dd 32 3e b1 d1 b4 be 18 84 0b be 05 e2 96 3d
       0.17467451 -0.35316232 -0.13624609 0.073673286
0002e0 8b 89 4e 3e 90 50 0a 3e 8a 0e 54 3c 83 8a 5f 3e
       0.20169656 0.13507295 0.0129429195 0.21830182
0002f0 7e 6e 98 bd 11 df a2 3e de e8 c8 3c 00 e7 47 3d
       -0.0744295 0.3181081 0.024525102 0.048804283
000300 72 93 bb bc 60 04 02 3e cb 17 eb 3d b7 64 45 3e
       -0.022897456 0.12696981 0.114791475 0.19276701
000310 ca 77 15 3e 58 1c 5e 3e 3f f1 c2 3d b4 6d 84 bd
       0.14596477 0.216905 0.0951867 -0.06466237
000320 ec 03 a3 bd 2c 78 72 be 23 d9 b0 bb 5e 55 c3 3d
       -0.079597324 -0.23678654 -0.0053969785 0.09537767
000330 5f 3c 4c bd 95 9a 75 be 49 c6 85 be 4c 66 22 3e
       -0.04986226 -0.2398475 -0.26127842 0.15859336
000340 d5 fa 75 bd 6b 96 c7 3d 3b 0d a8 be 99 d8 05 3e
       -0.060053665 0.09745487 -0.32822594 0.13070907
000350 34 a6 c0 3c b2 26 1d bf 97 2e fd be 0e 7e 0c 3e
       0.023516752 -0.6138717 -0.49449608 0.13719961
000360 37 05 b9 bc e7 ed 32 3e b9 13 c0 bc e8 f2 19 be
       -0.022585494 0.17473565 -0.023446904 -0.15034068
000370 3c 98 b6 be 57 c0 98 bd 10 a6 92 bc 72 a0 a2 bd
       -0.3566302 -0.07458561 -0.01790145 -0.07940759
000380 6d 4d fd 3c 48 1b c4 3d bd 35 4f bd 55 f5 e5 3e
       0.030920709 0.09575516 -0.05058836 0.44913736
000390 59 01 82 3d 7a 57 e5 3c 30 c3 49 3d 1d 67 c8 bd
       0.06347913 0.027995814 0.04925841 -0.09785292
0003a0 ed 9b 83 3e 5c 2f fe bd 1e 8a c9 3b c8 e7 13 3c
       0.257049 -0.12411377 0.006150498 0.009027429
0003b0 e5 ac a2 be 59 30 68 3e 03 8c db ba 44 b6 04 be
       -0.31772533 0.22674693 -0.0016750101 -0.12960154
0003c0 57 69 79 be cd de e5 3e d6 a7 3e 3e 18 33 05 be
       -0.2435659 0.44896546 0.18618712 -0.13007772
0003d0 c9 4f 8b bc 01 ea 8c 3e 11 d0 11 be b2 a4 32 3e
       -0.017005818 0.2752228 -0.14239527 0.17445639
0003e0 ba 52 56 3e f8 d2 a0 3e ea 56 0c 3e 26 be c9 bd
       0.20929995 0.31410956 0.1370503 -0.09850721
0003f0 96 e6 0c be b1 54 19 be 95 19 d4 3d 92 e2 c4 bd
       -0.13759837 -0.14973713 0.10356442 -0.09613527

onnx::LSTM_104 f4 [1, 1024]
000000 47 1d 4b 3e 00 a3 3d 3e 21 eb 94 3d 36 00 e6 bd
       0.19835387 0.18519211 0.0727141 -0.11230509
000010 52 48 bd 3d ee 59 88 3c 89 65 56 3d 88 aa 18 3d
       0.0924231 0.016644444 0.052342925 0.037272006
000020 88 66 2b be 82 10 fe 3d 6e 88 1c be 0a e2 2f be
       -0.16738331 0.12405492 -0.15286419 -0.17176071
000030 ed 0c a6 bd 95 0a ff bd 7d 7a 14 be 91 ed 32 3d
       -0.08107934 -0.1245319 -0.1449985 0.043683592
000040 92 01 a2 3d 07 37 12 3d 89 38 dd 3c 86 be 0b b9
       0.07910456 0.03569701 0.027004497 -0.00013327049
000050 74 cf cd 3c 5d f2 a9 3e dd a5 77 be 5b 9f e8 3d
       0.025123335 0.3319272 -0.24184366 0.1135852
000060 0d 03 8b be 24 53 9e 3c c1 14 2d be ee 5c e8 3d
       -0.27150765 0.019326754 -0.16902448 0.1134585
000070 95 00 98 3d f3 2b 04 3e de 15 ad 3d a9 e6 95 3c
       0.07421986 0.1290739 0.084514365 0.018298464
000080 0a ed 74 3e ea c2 1b 3e 27 5f a2 bd 29 e5 d1 bc
       0.23918548 0.15211073 -0.07928305 -0.025621967
000090 25 78 af 3c e1 55 38 3e f1 3d 0c 3e 3a e5 fe 3c
       0.021419594 0.1800151 0.13695504 0.031115163
0000a0 bc a3 9a 3e 8a fe 82 3d c7 0b bc 3b cb 65 00 be
       0.30203044 0.06396206 0.0057387087 -0.12538831
0000b0 31 02 00 3e 85 f8 26 bd 4a 3e b1 3d 08 65 ca 3d
       0.12500836 -0.04076435 0.08654459 0.098825514
0000c0 63 ee b8 3d 9e ea 15 3e 1d ab 33 be 54 89 4e 3e
       0.09029844 0.1464028 -0.17545743 0.20169574
0000d0 7a 15 28 3d 68 12 02 3e 38 5e 66 3e 78 62 e1 3d
       0.041036107 0.12702334 0.22496879 0.110051095
0000e0 dc cf 08 3e f6 4d 19 3d 1b 2a 13 3e 2d b2 ab 3a
       0.13360542 0.037427865 0.1437153 0.0013099365
0000f0 82 aa 1e 3d 5f 73 2c 3e 73 0a b6 3c e8 31 33 3e
       0.038736828 0.16840886 0.02222178 0.17499506
000100 29 d4 cd 3d 68 ff c8 3c f3 3f 95 bc ae 27 08 3e
       0.10050232 0.02453585 -0.01821897 0.13296387
000110 68 2f 0e 3e 73 43 2f 3e 91 25 7a 3d fd 59 48 be
       0.13885272 0.17115574 0.061070982 -0.19565578
000120 da 0a 40 3d 52 ec 1b bd 42 2e 29 3e 80 3e 58 be
       0.04688535 -0.03806717 0.16521552 -0.21117592
000130 22 e3 71 be a5 53 5d 3d 9c c9 9f bd 41 a0 14 bd
       -0.236218 0.054034848 -0.07802126 -0.036285643
000140 9e 5a 19 bd 2e fa 6f 3d 6e bc ac 3d 94 ef 01 be
       -0.037439935 0.0585882 0.084343776 -0.12689048
000150 13 68 44 bd b4 a8 c5 3c 82 ca f4 bc 10 9b 0d bc
       -0.047950815 0.024128295 -0.02988172 -0.008642927
000160 48 8e 0b 3e f2 2d 01 3e 1d b5 f8 bd 53 ff 6e 3e
       0.13628495 0.12615183 -0.121439196 0.23339586
000170 14 61 a4 3b 4e 41 31 bd a3 5e 9a 3d 74 96 0f bc
       0.0050164554 -0.04327517 0.07537582 -0.008763898
000180 56 b2 a6 3d bf c8 f8 3d 59 28 7f 3d c0 a3 f9 3c
       0.08139484 0.12147664 0.062294338 0.03047359
000190 52 93 a0 3d 08 c1 a7 3c 01 cb 44 3e 48 b4 b5 3d
       0.07840599 0.020477787 0.19218065 0.088722765
0001a0 f2 26 98 3d 64 bf 36 3e d1 7d 43 bd 4f 9e d0 bd
       0.07429303 0.17846447 -0.04772741 -0.10186445
0001b0 b0 47 e3 3b 81 26 c4 3d 05 08 50 3c c4 1c eb bd
       0.006936036 0.095776565 0.0126972245 -0.11480096
0001c0 0f a1 06 3d be 62 b0 bc 22 e4 11 3e b3 b0 51 bc
       0.03286844 -0.021531459 0.14247182 -0.012798476
0001d0 f9 92 87 3d 4a e4 74 3e 11 80 90 bd 06 b6 8f 3d
       0.0661983 0.2391521 -0.07055677 0.0701714
0001e0 61 56 24 3d f5 4b 84 bd 2a d0 2d 3d 8b ca 29 3d
       0.04012144 -0.064598 0.04243485 0.041452926
0001f0 31 72 bf 3d d2 f8 89 3c 87 87 ab 3d a2 73 2d 3e
       0.09347952 0.01684228 0.08375459 0.16938642
000200 b1 04 50 3e 5e c7 62 3d ed fa eb bd f6 a7 b8 3d
       0.2031429 0.055365913 -0.1152247 0.09016411
000210 22 58 6c 3e 98 5a 4f 3e 75 c2 3f 3e 63 7f b4 3c
       0.23080495 0.20249403 0.18726523 0.022033399
000220 86 45 e5 3c 72 e3 c8 3d 57 09 8f 3d d0 d0 5a bd
       0.027987253 0.09809007 0.06984203 -0.053421795
000230 6c a8 4f 3e 65 05 ae bb 06 3a 60 be 4b e3 84 be
       0.20279092 -0.0053107017 -0.21897134 -0.2595466
000240 49 14 87 bd 56 88 5d be 2b d7 0b 3e 1c 33 c5 3d
       -0.06595666 -0.2163404 0.13656299 0.09628889
000250 47 24 3a 3d 2c f9 05 3e 4e f7 82 bd 52 5b e5 3d
       0.045444753 0.13083333 -0.06394826 0.111990586
000260 6d b3 98 bd c8 e3 e6 bd 57 dd 79 bd 6a e4 04 be
       -0.07456098 -0.112739146 -0.0610021 -0.12977758
000270 9b 13 a8 bb fc 71 6c 3d 49 cd 02 be 52 3a 00 bb
       -0.0051292903 0.05772589 -0.12773623 -0.0019566012
000280 60 f8 3d 3d 12 c3 f6 bd b1 8d 4a 3e 56 f7 ee 3b
       0.046379447 -0.120489255 0.19780613 0.0072926683
000290 47 66 10 3e 68 c4 d5 bb f9 e0 40 3e 96 b0 81 3e
       0.14101516 -0.0065236576 0.1883582 0.25330037
0002a0 30 93 e1 bd dc 9b b6 bd c9 ca 23 3e b6 ff 0c be
       -0.11014402 -0.089164466 0.15995325 -0.13769421
0002b0 b4 84 8a be 3a 4a 5d 3d 81 fa 95 3c 6a f3 84 bd
       -0.2705437 0.054025866 0.018307926 -0.0649174
0002c0 e3 ff 45 3d 92 75 18 3e 2e 00 8d 3d b8 04 38 bd
       0.048339736 0.148886 0.068848 -0.044926375
0002d0 b9 0a 06 be 9c c6 37 bd 0b 14 35 3c 84 11 b1 bd
       -0.13090028 -0.044867143 0.011052142 -0.08645919
0002e0 25 ec 62 3e d1 e0 f7 bd 4f 43 19 3d 1d d7 97 3e
       0.22160394 -0.12103427 0.037417706 0.29656306
0002f0 2b 87 9c be c7 cd d4 3d 4e d9 99 be 52 ab db 3d
       -0.30571875 0.103908114 -0.30048603 0.10726036
000300 8a 1f b3 3e 19 61 7e 3e 8f fa d7 3d da d5 3f bc
       0.34985 0.24841727 0.10545837 -0.011708701
000310 20 f3 11 bc b5 bf fd bd a5 be 2a bc 01 52 a8 bd
       -0.008908063 -0.12390081 -0.01042143 -0.08218766
000320 ef d9 2d be 53 a3 9a 3d 43 49 c0 3d 50 2c 38 3e
       -0.16977666 0.07550683 0.093889736 0.17985654
000330 80 0d 1f 3e b2 7b 55 3e 6c f9 95 bd c4 4f 06 3d
       0.15532494 0.20847967 -0.07322964 0.032790914
000340 3b ad 23 3e b5 73 28 3e 6c 25 d8 3d 26 03 dc 3d
       0.15984051 0.16450389 0.10554013 0.10742788
000350 06 0e d8 3b 4b 1c 96 3e 33 d4 b2 3d 74 f2 5b bc
       0.0065934686 0.2931846 0.0873188 -0.013424505
000360 aa 80 29 3c fd 62 86 3d 1a a9 e6 bc e7 40 aa bd
       0.010345617 0.06561849 -0.028156806 -0.083131604
000370 f5 30 d2 3d a5 f4 dc 3d 95 e9 fa bc e0 47 68 3e
       0.10263244 0.1078885 -0.030628959 0.22683668
000380 b2 a3 7e 3d cd 40 f9 3d 96 18 93 3c 0c 34 de 3c
       0.06216783 0.12170563 0.01795606 0.027124427
000390 13 d1 88 3d e6 77 ab bd a4 81 8c 3d 66 32 f9 3d
       0.06680503 -0.08372478 0.068606645 0.12167816
0003a0 dc 43 c9 3b 77 32 c7 3d 08 d9 d9 3d a3 b3 94 bd
       0.0061421227 0.09726422 0.106370986 -0.072608255
0003b0 91 e0 1e 3e f5 ef 1f 3e 04 50 c5 3d c5 c0 d8 bd
       0.15515353 0.1561888 0.096344024 -0.10583643
0003c0 e7 a6 0a 3d 35 eb 53 be 52 37 88 3e e9 5b f9 bd
       0.033850577 -0.20695193 0.26604706 -0.121757336
0003d0 7a fd 55 bd 01 35 27 3e fd 9e 87 bd c8 90 7f bd
       -0.052243687 0.16328813 -0.066221215 -0.062393934
0003e0 03 9a 5c bd c9 c4 01 3d 99 17 49 3b a0 76 58 bd
       -0.053857815 0.03168181 0.0030684231 -0.052847505
0003f0 80 c2 12 bd 21 3a d7 3d a0 94 50 3e e2 8a 2a 3e
       -0.03583002 0.10509134 0.20369196 0.16654542
