ResultBackup/Backup/DroneAgentNew6/DroneAgent/DroneAgent-1599969.onnx (onnx, 724643 bytes, 10 tensors)

network_body._body_endoder.seq_layers.0.weight f4 [128, 236]
000000 66 f8 1a be 19 28 d9 bd e5 e0 aa bd a2 12 60 be
       -0.15133819 -0.10603351 -0.083436765 -0.21882108
000010 55 65 6f bd bc c4 db bd a2 fb 0e be 2d a6 6f be
       -0.058446247 -0.107308835 -0.13963178 -0.23403235
000020 d9 e1 3f be 5f 73 5d bd 23 89 38 be 15 66 f4 bd
       -0.18738498 -0.054065105 -0.18021064 -0.11933533
000030 84 9f ec bd 37 57 ca bd 08 11 d9 bd ab e3 2d be
       -0.11553863 -0.09879916 -0.105989516 -0.1698138
000040 57 cd de bd 1c e4 bf 3c 08 ba 71 be e1 45 2f be
       -0.10879009 0.0234242 -0.23606122 -0.171165
000050 03 8f 5e be cb 13 e9 bd d9 50 92 3d 7b ec e8 bd
       -0.21734242 -0.11380728 0.07144327 -0.1137323
000060 f6 97 0a be 5d 73 34 be 7c 8c a7 bd a8 d3 bc 3d
       -0.13534531 -0.17622133 -0.08181092 0.09220058
000070 76 d9 34 3c cb 24 1e be 18 3f 0d bd 63 bf 48 bd
       0.011038175 -0.15443723 -0.034484 -0.049010646
000080 cd d2 f2 bd 53 2e 2b 3c dd 6a 2d bc b8 05 f3 bd
       -0.11856613 0.010448056 -0.01058456 -0.11866325
000090 af a5 18 bd ce 5c f2 3c a4 21 60 bc a6 08 46 bd
       -0.037267383 0.029585268 -0.013679896 -0.04834809
0000a0 cb 8f a7 3d 65 43 89 bc e8 cd c2 3c ff 58 9e 3d
       0.08181723 -0.016755769 0.023779824 0.077318184
0000b0 72 a2 43 be bb 3f 60 be d6 40 ec 3b 60 90 21 be
       -0.19104937 -0.21899311 0.0072098775 -0.15777731
0000c0 51 73 a0 bd 69 7f 0d be 5c 31 aa be 02 0a 4b bd
       -0.07834495 -0.13818134 -0.33240783 -0.04957009
0000d0 69 47 c0 bc 96 91 fb 3c 63 66 6e 3d b5 38 c8 bd
       -0.023471551 0.03070907 0.058203112 -0.09776441
0000e0 dd 14 23 bc bc 27 30 bd f9 78 e2 bd 0f e3 40 be
       -0.009953705 -0.043006644 -0.1105823 -0.18836616
0000f0 28 58 d2 bc 08 65 49 3d 31 3b 77 be 2b 84 6f 3d
       -0.025676802 0.049168617 -0.24143673 0.058475655
000100 cf 32 7d bd a7 0b fe bd 9b a5 d6 bd 71 9e 90 bb
       -0.061816033 -0.12404566 -0.104808055 -0.004413419
000110 f0 be 05 be fe 53 2c 3d 90 96 40 be 28 89 88 bd
       -0.13061118 0.04207229 -0.18807435 -0.066667855
000120 f8 1c df bc 7f c3 68 3d dc 4d 04 be 9a 4d 9d bc
       -0.027235493 0.056827065 -0.12920326 -0.019202042
000130 da 35 f9 3b 49 df 90 bd f9 bc 04 bd cb a6 81 3d
       0.0076052966 -0.07073838 -0.03240678 0.06330641
000140 eb 0b 3f be 75 da 29 bd 4b 1b 83 bd 7f cc 34 3d
       -0.1865689 -0.041468102 -0.0640169 0.044140335
000150 6f f1 59 3d f2 19 d2 be ad 14 88 bd 41 6d 24 bd
       0.053208765 -0.4103542 -0.066445686 -0.040143255
000160 6c ff bc bd 45 8a b5 bc c0 59 19 be d0 f5 4d 3b
       -0.09228405 -0.022160659 -0.14975643 0.0031427033
000170 36 80 e5 bd d7 de df bd 36 5d aa bd 8f a1 6d be
       -0.11206095 -0.10931175 -0.0831856 -0.23206161
000180 12 46 4c bd 31 fd 8b 3d 30 f3 13 be 36 dd 71 bd
       -0.04987151 0.06835402 -0.14448237 -0.059048854
000190 4d e9 55 be 26 6f 0d be ab 9d bc bd a3 94 d7 3d
       -0.20889778 -0.13811931 -0.0920976 0.10526397
0001a0 7a 3a d6 bd 99 17 b8 bd 2a 6c fd bd 67 04 eb bc
       -0.10460372 -0.08988876 -0.12374146 -0.028688623
0001b0 07 d9 27 3e 1c 3c b1 3d ea 22 5f bd c8 e5 53 3d
       0.16391383 0.08654043 -0.054476656 0.05173281
0001c0 d0 7a 1f be 89 5c 53 be b4 5a 33 bd b6 d3 11 be
       -0.15574193 -0.20640768 -0.043787673 -0.14240918
0001d0 fb f6 95 bd f6 a0 0e be fa ad ae 3d ea 7f fb bd
       -0.073224984 -0.13928589 0.08529277 -0.12280257
0001e0 24 db bc be 7a 18 2e bd fb ea 4b 3d 29 6f 32 be
       -0.3688594 -0.04250381 0.04978464 -0.17425217
0001f0 bf 75 e4 bc 69 09 19 be eb d4 d6 bb be 70 0b be
       -0.027888177 -0.14944996 -0.0065561435 -0.13617226
000200 cb 81 a0 3d cb f6 db bd f9 ee 80 be e7 a0 f6 bd
       0.07837256 -0.107404314 -0.25182322 -0.120424084
000210 f9 43 1c be c5 3f d1 bd 88 bb b5 bd 0f ff b8 bd
       -0.15260305 -0.10217241 -0.08873659 -0.090330236
000220 53 ee ce bd b8 31 c1 bd 81 5b 9b bd 83 2c 5a be
       -0.101040505 -0.09433311 -0.07585812 -0.21306042
000230 14 a4 5f be 3f a0 ff 3d ff d6 fe bd cb e8 8f bd
       -0.21839935 0.124817364 -0.12443351 -0.070268236
000240 4e 7c f7 bd a8 14 dc bd 26 80 4b bc 52 76 47 bd
       -0.12084256 -0.10746127 -0.01242069 -0.048696823
000250 99 cf 14 3c 31 7a 31 be d6 2d 08 be 12 42 e3 bb
       0.009082698 -0.17331769 -0.13298735 -0.0069353664
000260 6c ff 3a be c0 c6 b1 bd 87 1d 96 bd 3d e2 9c be
       -0.18261498 -0.08680487 -0.07329851 -0.30641356
000270 d8 2c b8 bd cf 85 82 be 11 fb 4b bd 73 ad 23 be
       -0.08992928 -0.25492713 -0.049799982 -0.15984134
000280 15 9f c6 3b da 8d 6f bc 9a 23 b6 bd 8a a3 96 bd
       0.0060614445 -0.014621222 -0.08893509 -0.07355411
000290 ad 16 90 bd 44 c0 03 be be 87 39 be d4 e0 5c be
       -0.07035575 -0.12866312 -0.18118188 -0.2157014
0002a0 63 e8 07 3e a0 61 ed bc 8a c3 c4 3c fa ac cd 3a
       0.13272242 -0.028977215 0.024019022 0.001569181
0002b0 59 32 c1 bd 2f 3f 81 3d 0e 1f 8e bc 6c 90 40 3e
       -0.09433431 0.063108794 -0.017348792 0.18805093
0002c0 df b3 e4 bc c5 9a 96 be ae e6 ef 3d ec 30 32 be
       -0.0279178 -0.29414955 0.117139205 -0.17401475
0002d0 03 a8 2f bc 9a 7c 89 3c 68 26 d2 bd 2e ef 49 3d
       -0.010721209 0.016783047 -0.10261232 0.049300365
0002e0 2d cc 09 be 89 15 26 3e a6 01 30 be f0 08 16 be
       -0.13456793 0.16219153 -0.17188129 -0.14651847
0002f0 c6 a7 da 3d 61 01 7d be 91 76 72 3e 9d 79 54 be
       0.106765315 -0.24707557 0.23678042 -0.20749517
000300 91 88 5c be c8 3c 4d 3c 42 08 51 bc d1 f1 0d 3c
       -0.21536471 0.012526698 -0.0127583165 0.008663611
000310 14 90 ed bb 2a 48 a6 bb a4 9d 8f bd c1 41 fb bd
       -0.0072498415 -0.0050745206 -0.070124894 -0.12268401
000320 9b 7a f5 bd b8 7e b8 bd 36 c6 de bd 19 6d 88 bd
       -0.11986276 -0.09008545 -0.108776495 -0.06661434
000330 9b df 03 bc d8 f0 bb 3c 90 f4 b7 be e9 0c 5c bd
       -0.008048917 0.022941992 -0.35928774 -0.05372325
000340 1e c1 8d bc 61 b2 53 be e4 e8 46 3e 4f 7c 55 3e
       -0.017304 -0.20673515 0.19424778 0.20848201
000350 d0 48 86 be a3 7e 1d be c9 7d 0c be f1 f6 cf 3d
       -0.26227427 -0.1538034 -0.13719858 0.10154522
000360 94 b9 85 3d bc 0c a7 bd 55 68 8d be 3d 92 ee 3d
       0.06529537 -0.08156726 -0.27618662 0.116489865
000370 1a fc 90 bb 70 43 af be 40 5e 35 3e ac ed 58 3e
       -0.004424584 -0.34231138 0.17711735 0.21184415
000380 78 f7 98 bc 65 59 12 3e 79 78 1d be 0e 32 17 bc
       -0.01867269 0.14291914 -0.15377988 -0.009228243
000390 0d dc e9 3c d3 5b 3e be 5c d4 5d be d1 4b 85 3d
       0.028547311 -0.18589716 -0.2166304 0.065086015
0003a0 ea 03 43 bd 9f 2d f2 bd d3 13 20 3d 06 e5 21 be
       -0.047611155 -0.11825108 0.039081406 -0.15810022
0003b0 78 93 1e be b8 5b a4 bd 13 53 53 3e 47 92 e2 bc
       -0.15485942 -0.080253065 0.20637159 -0.027657641
0003c0 4a 27 9f bb 12 13 8a bd 41 b7 d9 3d e1 d8 a4 be
       -0.0048569785 -0.067419186 0.10630656 -0.32196715
0003d0 93 ef d6 bd f8 7d d9 3d b4 58 3a 3e 41 35 e9 bd
       -0.10494914 0.1061973 0.181979 -0.113871105
0003e0 2f 8c da 3e 58 3a a5 3c 9e 36 ce bc 37 b3 d3 bd
       0.42685077 0.020169422 -0.025172528 -0.10336917
0003f0 60 d6 30 3e 8d 42 aa be 9c d9 64 bd 24 ad e0 3c
       0.17269278 -0.332539 -0.05587159 0.02742631

network_body._body_endoder.seq_layers.0.bias f4 [128]
000000 f9 b9 36 be 0d e5 c1 3a 23 84 c8 3c 10 af 74 bc
       -0.1784438 0.0014792994 0.02447707 -0.014934316
000010 91 70 88 bc 56 2c e4 bb 8d 98 e0 bb b4 a5 d0 3c
       -0.016655238 -0.006963293 -0.006854123 0.025469638
000020 5d 98 f6 bd 49 9d 4c 3d 59 4d e6 3b cb b9 cc bb
       -0.1204078 0.049954686 0.0070282635 -0.006247734
000030 a8 ca 7b 3d 2a af d9 bc c7 70 e6 bd c1 3c 5a bc
       0.061472565 -0.026572783 -0.11251979 -0.013320149
000040 9b f7 fb 3c f2 ad de bd f6 4c 65 be 07 c0 82 3b
       0.030757716 -0.10873021 -0.2239264 0.0039901766
000050 d7 85 10 3d 91 09 70 3d 7a cb 4c bc d2 f2 3f bc
       0.03528389 0.058602873 -0.0124996845 -0.011715608
000060 ef d0 bd 3b b3 9b db bc 93 ed 9a 3b 2d c9 4d bd
       0.005792729 -0.026807642 0.004728028 -0.050240684
000070 b7 8f 05 be 4e 25 96 bc 53 b8 a7 bb 4d 4c c3 3b
       -0.13043104 -0.018328335 -0.0051184087 0.0059600235
000080 c7 39 c6 3c f0 03 8a bc b2 69 8d 3d 24 e5 d7 bc
       0.024197472 -0.01684758 0.069049254 -0.02635438
000090 61 fb 0f 3c 27 63 f1 3b a0 e2 32 bd e3 ab 9d 3b
       0.008787961 0.007366556 -0.043673158 0.0048117503
0000a0 f7 75 52 3d 46 d5 08 be 59 0f d9 3c 4c 85 02 3d
       0.05138203 -0.13362607 0.026496576 0.031865403
0000b0 09 f1 9d bd 65 7e 93 3c 4c 92 9b bd 91 1e 91 bd
       -0.077119894 0.018004606 -0.07596263 -0.07085908
0000c0 fb a8 fd 3b ac be 08 bd 6c f2 c1 3b a5 24 50 3d
       0.0077410913 -0.033384964 0.0059187915 0.050816197
0000d0 1f 79 7a bd 79 f7 49 3c a1 21 a6 3c e3 c2 4e bb
       -0.061150666 0.0123270685 0.020279707 -0.0031549267
0000e0 c2 08 3b be 0a 5f 46 bc 38 d1 31 3b db c7 3a 3b
       -0.1826506 -0.01210762 0.002713276 0.002850047
0000f0 49 e9 6b be 26 a7 b7 3c 9e 4d 4d be 5e c5 42 bc
       -0.2303821 0.02241857 -0.2004914 -0.011887876
000100 8f ab 84 3c c5 5d 3a 3d a0 01 51 bc d3 48 dd 3c
       0.016195087 0.04549958 -0.012756735 0.027012264
000110 b8 49 99 bc c9 28 1b 3d b4 98 62 bc ea f8 4b 3c
       -0.01871191 0.037880693 -0.013830353 0.012449482
000120 8d 1f 87 bc 4d e0 68 bc 1d 55 af 3c 73 e3 0a 3c
       -0.016494537 -0.014213634 0.02140289 0.00847708
000130 c9 ca 17 3d 42 9e df bc fa 95 94 bc a0 77 70 bd
       0.037058625 -0.027297143 -0.01813792 -0.058707833
000140 4c 39 d9 bc f8 f1 52 bc 2d c6 b7 bc fe 93 b2 3d
       -0.02651658 -0.012875073 -0.022433365 0.087196335
000150 08 7b 87 3c 98 24 ce 3b 04 f4 29 bc 6f 88 bf 3b
       0.016538158 0.0062909834 -0.010373119 0.0058451216
000160 42 7b 58 be 8b be a1 3c f3 91 6e 3c 02 1e 1c 3b
       -0.21140769 0.019744178 0.014561164 0.0023821597
000170 c8 8b c9 3c 25 ea 03 be 3b 8e 40 3c 71 a5 25 3d
       0.024602786 -0.12882288 0.01175266 0.04044098
000180 cc 7a ef 3c 9a 15 99 3d 15 4d 04 bd 62 85 8d bc
       0.029233359 0.07474823 -0.032300074 -0.017275516
000190 ba f4 80 3d 41 a3 c3 3c 57 3f a6 bc 5c d9 a0 3a
       0.06296678 0.023881556 -0.020293875 0.0012271809
0001a0 3d 00 30 3b f0 d6 4d bb f4 05 70 bb 9f 4c ec bd
       0.002685561 -0.003140863 -0.0036624642 -0.11538052
0001b0 08 01 29 3c aa 2d 36 bb d9 51 97 bc 64 7d 93 bc
       0.010315187 -0.0027798214 -0.018471645 -0.018004127
0001c0 b2 27 b9 3b 37 53 a7 3c de f9 0c bd 4c 37 50 3c
       0.005650484 0.020425422 -0.03441798 0.012708496
0001d0 55 f6 20 3d 55 37 81 3b 0c 89 95 bc 73 cc 21 be
       0.03929742 0.0039433637 -0.018253826 -0.15800647
0001e0 d1 d2 83 3d 47 2c 24 3d 5d 6a 28 bd c8 8a 1a bd
       0.064366944 0.04008129 -0.04111706 -0.03773001
0001f0 25 c1 3d 3d f5 a3 ab 3c c2 d3 53 3d 1d 3d 4a bc
       0.046326775 0.020952204 0.05171562 -0.012343672

network_body._body_endoder.seq_layers.2.weight f4 [128, 128]
000000 50 9f 6d 3c a8 6b 78 3e 1a 3d 2b 3d 98 78 94 bc
       0.014503315 0.24259818 0.041806318 -0.01812391
000010 98 80 99 3e a0 e2 9d bb eb 6b 49 bd ac 0a 00 3e
       0.29980922 -0.0048182756 -0.049175184 0.12504071
000020 d3 68 3a 3e 51 54 ff bd 20 99 19 3e 3f 68 0c 3e
       0.1820405 -0.12467254 0.14999819 0.13711642
000030 fd 60 46 bb 49 e4 10 3e 93 af c1 bb 71 84 d0 bd
       -0.0030270212 0.14149584 -0.0059108227 -0.10181511
000040 52 50 7f bd 5a 1e 23 be 1b bb 30 be 8d 97 f9 bd
       -0.06233246 -0.15929547 -0.17258875 -0.12187109
000050 34 69 b9 be 65 33 9e bc 98 99 e8 bd 56 e7 c2 3d
       -0.36213076 -0.019311616 -0.11357421 0.0951678
000060 de 8b 18 be eb ab 6e bd 17 20 0e be 0e 7a 4f bd
       -0.14897105 -0.058269423 -0.13879429 -0.05065351
000070 de b9 03 be a9 88 01 be 4a fd c7 3d 32 e9 8b 3e
       -0.12863871 -0.12649788 0.09765108 0.2732635
000080 73 35 9d be 10 39 a5 bd 97 95 a2 bd 58 bc 89 3e
       -0.3070484 -0.080675244 -0.07938688 0.26901507
000090 07 39 94 3d f6 55 41 be fe 1e 62 3c 1c 6b 15 3e
       0.072374396 -0.18880448 0.013801334 0.1459164
0000a0 88 98 11 be 30 97 70 3e 0a 4d 0d 3e 0a c9 4e be
       -0.14218342 0.23495173 0.1379892 -0.20193878
0000b0 76 eb 69 be 54 67 b5 bd 55 50 f2 3d 2c 18 fd 3b
       -0.22843727 -0.08857599 0.11831728 0.007723829
0000c0 e4 f2 4f be 23 eb 2e 3e 39 73 49 be 8f e4 c4 3c
       -0.20307499 0.17081885 -0.1967286 0.024034766
0000d0 32 ae 54 bd 5d 39 a7 3e 93 07 84 bd b0 ba 9e 3e
       -0.051923938 0.32660952 -0.06446757 0.31001806
0000e0 9e 91 0c 3e f8 b3 b2 bc c1 47 87 3e 97 4c 61 bc
       0.13727424 -0.021814331 0.2642193 -0.013751171
0000f0 06 63 bf 3c f0 5c 03 3c 6a c2 06 3d f4 fe 24 3e
       0.023362648 0.0080177635 0.03290025 0.16112882
000100 c2 40 c2 3b fb 28 b2 bd 36 c4 22 3e c9 32 0f 3c
       0.00592813 -0.08699223 0.15895161 0.0087401355
000110 0a cd 51 bc 98 6b cc 3d 5b b8 ec 3e aa ff c1 bd
       -0.012805233 0.099814594 0.46234402 -0.09472592
000120 24 86 d4 3d e6 42 85 3c 32 8d 14 be cb 9e 94 3e
       0.10377148 0.016267251 -0.14506987 0.290274
000130 80 fb 45 be 3d 78 58 be 5b 27 1c bd 7a f4 70 3e
       -0.19334221 -0.21139617 -0.03812347 0.2353076
000140 8f 74 c7 3c df cd db 3d c6 74 0a 3e 63 5b 23 be
       0.024347572 0.10732626 0.13521108 -0.1595283
000150 82 26 90 bc 19 5e 6a 3d 72 31 4a be 80 9f 9f 3e
       -0.017596487 0.057218645 -0.19745424 0.31176376
000160 75 6f a1 3c 36 70 2a 3e 59 1d 38 be 66 38 14 3e
       0.019706467 0.16644368 -0.17979945 0.1447464
000170 29 b1 88 be 82 fe cc be 56 95 ba 3d c0 71 b8 3c
       -0.26697662 -0.40037924 0.09110515 0.022515178
000180 e9 fb 44 3e 0d 85 6e be 0e af a9 be 4e d3 ca 3d
       0.19236721 -0.23292942 -0.3314137 0.099035844
000190 02 f8 64 bc 7d bb 99 3c 30 32 9e 3d 2a 5e 3b be
       -0.013975145 0.01876616 0.07724416 -0.1829764
0001a0 8d 25 94 be 6d e0 2f 3e 2a 04 5e 3e 9b 13 83 3c
       -0.289349 0.17175455 0.21681276 0.01600056
0001b0 8a 86 36 3e 1a 42 2e 3c 8f 24 2f 3e 57 75 df bc
       0.1782476 0.010635877 0.1710379 -0.027277632
0001c0 9b 4d 80 3e c4 18 6d bd df dc 3c 3e 1f 40 18 3e
       0.25059208 -0.057884946 0.1844363 0.1486821
0001d0 94 59 ae 3d e0 b0 a5 be 64 2e e4 3d 34 06 18 bd
       0.085131794 -0.32361507 0.11141661 -0.03711529
0001e0 0f 39 1b be 3a ec 2e be 6e bd c6 bd c5 91 c5 bb
       -0.15158485 -0.17082301 -0.097040996 -0.00602934
0001f0 eb d6 8c 3e 81 63 1d bc ff f6 91 be 98 0a 8c 3e
       0.2750772 -0.009606243 -0.28508756 0.27351832
000200 a8 91 f1 bd f1 c6 df be 5b 87 fe 3d 37 1e 00 be
       -0.1179536 -0.43706468 0.12428161 -0.12511526
000210 2e 35 c3 be c2 4c c4 3d 29 39 0a bf 9c 96 46 be
       -0.3812651 0.09584953 -0.5399347 -0.1939339
000220 3e 48 19 be 04 8c 74 3e 81 19 97 3d cf 8a e2 3d
       -0.14968964 0.23881537 0.07377911 0.11061632
000230 d6 af 15 be 64 e7 2c 3c f8 ac 97 be c2 2a 61 3d
       -0.14617857 0.010553215 -0.29624152 0.054972418
000240 23 e9 a9 3e 7d 50 42 3d 8e e7 ac bd 4b dc c3 bc
       0.33185682 0.04744004 -0.08442603 -0.023908755
000250 0c 7f c8 3d bc 0c a2 bd 3d 09 65 bc d5 c2 34 be
       0.09789857 -0.07912585 -0.013979253 -0.17652448
000260 cf 9c 3a 3e 88 74 01 bd 6e a5 28 3e d4 44 a3 bd
       0.1822388 -0.031605273 0.16469356 -0.07972112
000270 72 7c 11 3e 46 08 08 3e d3 22 f1 bd 3b f6 46 3e
       0.14207628 0.13284406 -0.1177422 0.19429867
000280 26 9b 51 3d 67 14 26 3d fb 9c ea bd 8d bb 3e 3d
       0.05117335 0.0405468 -0.11455723 0.04656558
000290 ad 6b a1 3d 5f e0 a1 3c 5d f4 69 3b 5e f2 40 3e
       0.07881866 0.019760309 0.003569863 0.18842456
0002a0 28 ef 17 3e c2 34 18 be 93 5e 14 bd b1 e5 5b 3c
       0.14837325 -0.14863876 -0.036223006 0.013421462
0002b0 33 59 5b 3d 77 ea ab 3e f9 a9 be bd e0 17 ab bc
       0.053551864 0.3357732 -0.093097635 -0.020885408
0002c0 1f d3 27 3e 06 f8 62 3e 2e b8 c1 3d c4 10 33 3c
       0.1638913 0.22164926 0.094589576 0.01092929
0002d0 c2 2d d9 3d b7 43 8d bd be fa 9f bd c9 a2 b4 be
       0.10604431 -0.06897681 -0.07811497 -0.35280445
0002e0 49 4e 20 be 13 f9 a0 3e 55 29 86 3c f8 02 09 be
       -0.15654863 0.3144003 0.01637713 -0.13380039
0002f0 04 6f 67 3d 8b 52 2e 3e ac f4 e7 bd 00 e9 39 3e
       0.056502357 0.17023675 -0.11325964 0.18155289
000300 41 d8 e5 3d a1 50 11 bd 24 f6 15 be 2b b9 6a bd
       0.11222888 -0.035477284 -0.14644676 -0.057305496
000310 c8 ab 4f 3e 81 da 57 3e a8 58 07 bf 20 46 02 be
       0.20280373 0.21079446 -0.52869654 -0.12722063
000320 ba b1 00 be 93 eb fd 3d 53 73 cf bd 79 97 15 be
       -0.12567797 0.12398448 -0.10129418 -0.14608563
000330 bd 65 3f be da 5f bc be f9 d4 11 3d ba 99 29 3e
       -0.18691154 -0.3679188 0.035603497 0.16562548
000340 ac 1e f0 3d 09 d8 7e 3e 82 ef ba 3c 1a d7 9a be
       0.117246 0.24887098 0.022819284 -0.30242234
000350 65 74 cf 3d 81 56 3c be 2c f9 a4 3e eb cb 10 bf
       0.10129622 -0.18392374 0.32221353 -0.56561154
000360 31 15 9a bd cc 14 07 3d c5 18 66 3e de f8 b5 3e
       -0.07523573 0.032978818 0.22470386 0.35541433
000370 51 6a 47 be 05 ca 03 be 18 f3 57 3d 82 41 d2 bd
       -0.1947415 -0.12870033 0.052722067 -0.10266401
000380 d8 74 13 be 76 72 b3 3d 44 2a 70 be 2f cd 44 be
       -0.14400041 0.08762066 -0.23453623 -0.19218896
000390 e8 91 a0 3e 76 13 b0 bb 3e 7b b6 be 02 04 66 bd
       0.31361318 -0.0053734137 -0.356409 -0.056156166
0003a0 09 fe 8f 3d 76 ce 0d be 04 43 d8 3d 39 cd a8 3d
       0.07030875 -0.1384829 0.10559657 0.08242268
0003b0 7f b5 03 bb ab 0f e9 bc 27 af 13 bd f4 2f 3d bd
       -0.0020097194 -0.028449854 -0.03605571 -0.04618831
0003c0 db ba b0 bc f9 e7 1b bc bf 5a 27 be a9 4e 1a 3e
       -0.021573475 -0.009515756 -0.1634321 0.15069069
0003d0 cd c1 f0 bd d9 83 04 be 02 95 26 3e e6 57 62 bb
       -0.117557146 -0.12940921 0.1626778 -0.0034537255
0003e0 18 f2 d6 39 e0 59 8b 3e 96 60 c6 3e 0b dc 15 b9
       0.00040997635 0.27217007 0.38745564 -0.0001429172
0003f0 5f 43 5b be 8e c8 07 bd b3 9a 3e bd c4 05 51 be
       -0.21412419 -0.03315025 -0.04653425 -0.20412356

network_body._body_endoder.seq_layers.2.bias f4 [128]
000000 8a 0e c6 3d 69 bb 0f 3c 7d f1 eb 39 ec 7e 46 bd
       0.09670742 0.008772709 0.00045002616 -0.048460886
000010 95 33 d6 3d 50 90 98 3c 54 7d 1a 3d 58 d7 24 3d
       0.10459057 0.018623501 0.03771718 0.04024443
000020 70 a6 ef 3c 90 45 e4 bd fe eb c2 3c 1f 13 5b 3d
       0.029254168 -0.111460805 0.02379417 0.053485032
000030 d2 ed 2b bc 48 81 d6 3a 5e 03 2d bd 11 01 fd bd
       -0.0104937125 0.0016365433 -0.04223954 -0.12353719
000040 43 32 c3 bd c0 89 b3 3d 40 dd 68 bd 56 ee e5 ba
       -0.09531071 0.08766508 -0.056851625 -0.0017542343
000050 4b 83 07 bb b2 1a 5a 3c 13 dd c4 bc 85 db 64 bd
       -0.0020677622 0.013312029 -0.024031198 -0.055873413
000060 b7 ab a2 bc 5a c2 62 3d 8a 01 5d 3c 3e 9e 12 3b
       -0.01985727 0.05536113 0.0134891365 0.0022372152
000070 53 fe 88 bc 63 d9 9b 3d d8 d2 3c bd 8e ab dd 3b
       -0.016722834 0.076098226 -0.046099514 0.0067648357
000080 7d 45 b2 3d ec 79 b8 3d d2 7d b3 bd 81 4b ee bc
       0.0870466 0.0900763 -0.08764233 -0.029088737
000090 df 1f cf 3d e1 21 84 3d 6e 68 57 bb f7 5c 00 3d
       0.10113501 0.064517744 -0.0032868641 0.03133866
0000a0 1f b9 3e bd f6 c5 47 bc 77 86 38 bd dc 79 fe 3b
       -0.046563264 -0.012193194 -0.04505011 0.0077659916
0000b0 e0 23 74 3d 3e 94 34 bd 4b e0 3e bd f6 26 69 bc
       0.059604526 -0.044086687 -0.04660062 -0.01423048
0000c0 f2 dd 42 39 26 05 e0 3d 64 5e 03 3d 0c 7d 39 bd
       0.00018583963 0.10938482 0.03207244 -0.04528527
0000d0 b0 3e 2a 3d 26 3d b8 bd 5a b8 1e 3d 0a 3b ba bd
       0.04156369 -0.08996038 0.03875003 -0.09093292
0000e0 85 f6 cf 3c 57 d1 0a bd 70 cd a1 bc 84 5f 30 bd
       0.025386104 -0.03389105 -0.01975128 -0.04305984
0000f0 65 d7 20 3b 42 ae 32 3c fb 25 22 bc 03 54 c5 3c
       0.0024542448 0.010905804 -0.009896751 0.024087911
000100 3c 3f 5d 3c cf eb 8a 3d d4 a8 5a bd 7d f9 21 bc
       0.013503846 0.06783258 -0.053383663 -0.009886143
000110 7e b5 d2 bb 9a 87 af 3d f6 84 5d ba 98 d1 0f bd
       -0.006430327 0.08570786 -0.00084502937 -0.035111994
000120 03 f8 4a 3d 4f dd ad 3c 7d e1 b5 bc 64 4b 2b 3d
       0.04955293 0.021223692 -0.022202248 0.041819945
000130 23 82 51 bd 19 e2 b6 3c 0f dc b0 bb e8 1d 92 3c
       -0.0511495 0.022324609 -0.005397327 0.017836526
000140 66 fb 3d 3b 51 57 90 3d 15 01 6f 3d 4e f6 93 bc
       0.0028988956 0.07047904 0.05835064 -0.018061783
000150 95 e7 95 bd 7c d5 be 3b c7 94 a4 bc 57 9d 01 3c
       -0.073195614 0.005823789 -0.020090474 0.007911048
000160 0e 91 df 3b 17 50 04 bc 5e ad 4e 3b f7 e7 dc 3c
       0.006822712 -0.0080757355 0.003153644 0.026966078
000170 45 54 84 bb d7 28 a0 3c a1 62 32 3d 29 be 17 3e
       -0.004038366 0.019550724 0.04355109 0.14818634
000180 6c d0 13 bd f2 e1 c4 bb e0 b7 0b 3d 24 07 20 bd
       -0.03608744 -0.00600838 0.034110904 -0.03906931
000190 14 49 9c 3c e6 06 5c 3d 9b f0 44 bd 77 74 5c 3d
       0.019077815 0.053717516 -0.04808102 0.053822007
0001a0 73 7c ff 3b c8 62 8b 3c a6 22 1e bd c6 5d 57 bd
       0.007796818 0.017014876 -0.038607262 -0.052579664
0001b0 c6 81 b1 3c c3 fa 22 3c d0 90 32 3d 01 e6 5b 3a
       0.021668326 0.009947482 0.043595135 0.000838846
0001c0 69 5f af bd c1 f9 d9 3c bb 51 0a bc 9f 31 04 bc
       -0.0856312 0.02660835 -0.008442338 -0.008068471
0001d0 af 25 05 3d 5c e3 6f 3d 80 e1 88 bb 8f e6 6a 3b
       0.03250664 0.058566436 -0.0041772723 0.003584299
0001e0 37 c9 f9 bb 0a c3 f9 bc 03 61 8e 3d 64 16 3a 3d
       -0.0076228636 -0.03048851 0.06952097 0.04543151
0001f0 92 65 3c bd 82 79 18 bd 4c 52 b6 bd be 5c 73 3c
       -0.045995302 -0.037225254 -0.08902416 0.014853654

action_model._continuous_distribution.log_sigma f4 [1, 4]
000000 50 84 07 be 2e 01 ce bd 29 f5 bf bf aa d2 24 3f
       -0.13234067 -0.10058819 -1.4996692 0.6438395

action_model._continuous_distribution.mu.weight f4 [4, 128]
000000 9d 8d 3c bd 66 0e 6d 3e c3 4f f5 be b6 4c a2 3e
       -0.04603349 0.23150024 -0.47912416 0.3169915
000010 57 a2 b9 3d 84 06 5e bd 62 e2 b9 3b cf 70 ab 3e
       0.09064167 -0.054205433 0.005672739 0.33484504
000020 bf 4f 46 3d d7 d2 5b 3d d3 6d 18 bd 58 b1 ae bc
       0.048415896 0.05366787 -0.03721411 -0.021324798
000030 c3 d1 04 3e b3 51 46 3a f2 ac 9a 3e 6c 9f 42 bc
       0.12970643 0.0007565275 0.30210072 -0.011878829
000040 31 f2 4d 3c da f9 60 3e 37 0e 02 be c3 ac e7 3d
       0.01256995 0.21970311 -0.12700735 0.113122486
000050 a4 a1 53 3d 08 29 ad 3e 3c bc de bd 9c 4b 72 3d
       0.051667824 0.33820367 -0.108757466 0.059154138
000060 b5 cb 52 be 74 ba cf be b4 d8 8d be f6 eb 31 3e
       -0.2058552 -0.4057194 -0.27704394 0.17375168
000070 66 83 4a be f5 78 38 be eb 67 07 bd 8c 20 d2 bd
       -0.19776687 -0.18014891 -0.03305809 -0.10260114
000080 f5 39 cd be 94 c5 e2 3d 87 a0 f6 be fa 55 9c be
       -0.4008328 0.11072841 -0.48169348 -0.30534345
000090 51 57 ad 3e 6a bb b3 be 8d 29 c0 bd f9 a5 75 be
       0.3385568 -0.35103923 -0.09382925 -0.23989095
0000a0 3b be c3 3e 18 45 9f be de 5c 83 3e d7 7a 94 b9
       0.38231072 -0.31107402 0.2565679 -0.00028320283
0000b0 5a ab 13 3e 60 8f c8 be 9f b9 c8 be ba 63 07 3e
       0.14420834 -0.39171886 -0.39204118 0.13221636
0000c0 34 4a f8 3c 47 f3 a3 ba 81 c0 1a be 95 5f 9c be
       0.03030882 -0.0012508415 -0.15112497 -0.30541673
0000d0 de dc 33 be 5a 0b dc bd 86 1a 6b be 03 66 4f bb
       -0.17564723 -0.10744353 -0.22959337 -0.0031646497
0000e0 8c c3 2f be ac 18 9d 3e 3f 78 ce bd f6 86 44 3e
       -0.17164439 0.30682886 -0.10081529 0.19192109
0000f0 54 07 12 3e 9d ab f2 3d 1b 59 59 be cf 2b 7d bd
       0.14260608 0.11849139 -0.21225397 -0.061809357
000100 23 19 a9 3e 99 61 9d bc 27 77 65 3d 26 ca 10 3d
       0.3302699 -0.019211577 0.056021836 0.035349034
000110 41 60 92 be 2e 33 a2 3e c2 60 54 be 6c 81 26 3e
       -0.2858906 0.31679672 -0.20740035 0.16260308
000120 41 5c 82 be 8e 33 05 3f 4d 53 56 be 7f 65 2b 3d
       -0.2546101 0.5203179 -0.20930214 0.04184484
000130 0f 5b 95 be b3 b9 9a 3e 35 21 02 bd 9a b3 69 3e
       -0.29171035 0.30219802 -0.03176995 0.22822419
000140 79 d1 b9 3e d2 99 11 3d 99 3e a7 be c2 72 55 3e
       0.36292627 0.035547085 -0.32664946 0.20844558
000150 46 58 8d be 6a 13 e3 bc 72 55 44 3b 52 00 73 bd
       -0.2760641 -0.027719218 0.0029958156 -0.059326477
000160 d9 b4 24 be 78 f7 23 3e b9 81 22 3e 61 1d 79 3e
       -0.16084613 0.1601237 0.15869798 0.24327613
000170 6c 32 af 3e 1f 33 e9 3d e9 3b 91 3d 9b f8 99 be
       0.34218156 0.11386704 0.07091505 -0.30072483
000180 ec 4b 75 be 59 4e 08 be 66 7d a5 3d 5b 7c f1 3d
       -0.23954743 -0.13311137 0.080805585 0.11791297
000190 bb ac b6 3d de fe 55 3e 9e 96 75 3c 3c 0d a2 bd
       0.089196645 0.20898005 0.014989523 -0.079126805
0001a0 48 48 2d 3c 22 a5 b0 be 83 73 d1 bc eb da 86 3e
       0.010576315 -0.34500986 -0.025567776 0.26338896
0001b0 98 69 19 be 5b 97 58 bc 74 d4 c1 3d 4a fc 2f 3e
       -0.14981687 -0.01321968 0.0946435 0.17186084
0001c0 33 f4 aa bc 8c 02 47 3e a6 78 e0 3d cb 90 0e 3b
       -0.020868396 0.19434565 0.10960512 0.0021753784
0001d0 51 82 0b be 03 89 68 be d4 d0 5d be 35 68 5a be
       -0.1362393 -0.22708516 -0.21661693 -0.21328814
0001e0 62 2f 0b 3e 35 a1 df 3d 50 4f 9a be 89 9e 55 3e
       0.13592294 0.1091942 -0.30138636 0.20861258
0001f0 93 94 6e 3d ab cd df be bc 61 91 be 50 de 65 3c
       0.05824716 -0.437116 -0.28394878 0.014030054
000200 c4 4f a2 bd f0 eb 2e bd 40 12 a8 3e ef 0a 22 3d
       -0.0792537 -0.042705476 0.32826424 0.03956121
000210 d3 ba 2c 3e 59 eb a3 be c5 91 d4 bd ea cb ab bb
       0.16868143 -0.32015494 -0.10379366 -0.0052428143
000220 9c be fa be 9c f3 2b 3d 85 21 0e be 6b 38 10 bd
       -0.48973548 0.04198037 -0.13879974 -0.035210054
000230 18 51 5c 3d 6d c2 91 3e 8c b5 1a 3e ad b9 90 3e
       0.053788275 0.28468648 0.15108317 0.2826666
000240 04 a2 6e be 5d 42 5d bc 9d 91 b8 bb af 80 81 be
       -0.23303992 -0.013504592 -0.005632593 -0.2529349
000250 f0 6a 5e 3d dc 4b a1 be 7d 78 93 3d c0 d3 f4 bc
       0.054301202 -0.3150319 0.07200716 -0.029886127
000260 1a a4 f4 bd 74 cd 12 3e c0 88 33 3d 6e 66 59 be
       -0.119453624 0.14336187 0.043831587 -0.2123048
000270 da f1 f7 bb ff 96 12 bd fc 46 e2 3d 36 b5 37 3e
       -0.0075666727 -0.035788532 0.110486954 0.1794022
000280 04 dd e6 3e 84 ec 0c 3e 3f 58 97 3c f0 8f 16 be
       0.45090497 0.13762099 0.018474696 -0.14703345
000290 bd 7e 4a bc 5e 87 fb bc 5b 15 4f be d0 8b ce bd
       -0.012359318 -0.030704197 -0.2022299 -0.10085261
0002a0 3a b2 d3 3d b1 4c 2d bd bd f3 c9 bc 4f 51 ec 3d
       0.103367284 -0.042309467 -0.024652356 0.11538946
0002b0 11 10 38 be e1 c7 87 3d 4c 55 d2 3d 50 e0 d7 3d
       -0.17974879 0.06629921 0.10270175 0.10540831
0002c0 d9 dc 13 3e 9c d2 1d be a3 6b 50 3d 53 1d f4 3d
       0.14439715 -0.15412372 0.0508839 0.11919656
0002d0 4e 68 f6 3d 63 c1 41 3d a2 74 73 3e d2 80 8b 3e
       0.12031613 0.04730357 0.2377496 0.2724672
0002e0 04 14 6d bb 34 c5 cb bc fc 60 8e bb 7a 4a 93 3d
       -0.003617526 -0.024874307 -0.0043450575 0.0719194
0002f0 dd b7 46 bd ba 5d 9e 3e 00 90 2e be c2 cb 18 bd
       -0.04851519 0.30930883 -0.17047119 -0.037303694
000300 3d b0 4b bc ff 82 a1 be 19 7a 98 3d 38 b9 a5 be
       -0.012432155 -0.31545255 0.07445163 -0.32367873
000310 1c f1 1f be 56 1c 13 3d b5 b9 67 be 66 a6 ea bd
       -0.1561932 0.035915695 -0.22629435 -0.11457519
000320 17 27 80 3e 28 b4 88 be 7f f7 15 be 09 9f 62 3e
       0.25029823 -0.26699948 -0.14645194 0.2213098
000330 48 92 db bb 61 84 80 3e ac 90 bd be 44 83 c7 3d
       -0.0067007877 0.25100997 -0.37024438 0.09741834
000340 a4 bb f9 3c 9a 7e 45 3c 8d bf 8e bd cf 3d 41 be
       0.030484982 0.01205411 -0.06970129 -0.18871234
000350 5a 9b ff be 06 8f 88 3d f5 13 85 3e 54 58 61 3e
       -0.4992321 0.066679046 0.25991789 0.22006351
000360 b2 73 80 be 55 f0 55 bd 5e 60 e9 3e 40 35 fa bc
       -0.2508827 -0.05223115 0.45581335 -0.03054297
000370 10 3e cc bd 17 95 8d 3e 9d 66 8b 3d 9a 13 d2 3e
       -0.09972775 0.2765281 0.06806681 0.4103058
000380 42 63 cf 3d a2 60 8f 3e 05 b6 9a 3e 1d 26 38 3d
       0.10126354 0.28003412 0.30216995 0.044958223
000390 70 54 da bd 42 1b a1 bd 05 e0 0c 3e 33 54 3b bd
       -0.106606364 -0.07866527 0.13757332 -0.045734596
0003a0 db fb 1a be 50 80 2e be df 76 c5 bc b7 80 e1 be
       -0.15135138 -0.17041135 -0.024104534 -0.44043514
0003b0 f2 49 16 be 01 4a 9f 3d b5 03 34 3d 13 31 cc be
       -0.14676645 0.07777787 0.043948848 -0.3988119
0003c0 7c ee 02 be 62 37 87 3d 3f 0c 0c be 53 67 0f 3e
       -0.12786287 0.0660236 -0.13676547 0.14004259
0003d0 cc e1 9e 3e 86 15 e2 bd 42 b2 3d 3e 96 11 e7 3d
       0.31031644 -0.110392615 0.18525031 0.11282651
0003e0 c4 17 9b be 55 41 97 be 51 ec 84 be 90 36 1b be
       -0.3029157 -0.29542032 -0.25961545 -0.15157533
0003f0 16 6a 0e be 8d 47 ea bd a1 03 f9 3d fd 65 81 be
       -0.13907656 -0.114394285 0.12158895 -0.25273123

action_model._continuous_distribution.mu.bias f4 [4]
000000 67 20 bd 3d cd e6 49 bd 00 c1 92 bd a5 0c 93 3d
       0.09234696 -0.049292374 -0.07165718 0.07180146

onnx::LSTM_102 f4 [1, 512, 128]
000000 8f fb 12 3d ba c0 98 be a7 09 7f be 29 1e 2b bd
       0.035884436 -0.2983454 -0.24906026 -0.04177681
000010 83 67 ad bd 31 b1 4e 3e 6d fe 84 3e b8 25 97 3e
       -0.08467009 0.2018478 0.2597536 0.29520965
000020 69 a4 ff 3d c7 d8 44 bc 61 d2 51 3e 58 7b 2a be
       0.124825306 -0.012014574 0.2049041 -0.16648614
000030 93 b7 ee bd 77 6b 36 be 47 46 1c bd 5d 1b 14 3e
       -0.11656108 -0.17814432 -0.03815296 0.14463563
000040 36 31 f3 bd 8b 73 d1 bc ea 49 50 3e 28 fe c4 3d
       -0.118746206 -0.02556779 0.20340696 0.09618789
000050 00 b9 a7 3d df a1 16 3d e3 44 2f bd 9a 09 5d be
       0.08189583 0.036775466 -0.042790305 -0.21585694
000060 b6 11 ab bd 93 61 4e 3e 4e 41 4a 3e ea 18 ec bd
       -0.083529875 0.20154409 0.19751474 -0.115281895
000070 91 bb 17 3e 3b 8b 14 be 22 fd 0f 3e 92 3f 17 be
       0.14817645 -0.14506237 0.14061406 -0.14770344
000080 f2 99 6c be ac dc d6 3d 51 1d bc be ba 6a 05 3e
       -0.231056 0.104913086 -0.36741117 0.13028994
000090 5c f5 5a 3e 2e 50 2e 3e 69 f7 53 3b a8 dd 09 3e
       0.2138266 0.17022774 0.0032343513 0.13463461
0000a0 0a 4f 28 be 93 10 b3 be 8d 54 b1 b8 61 c8 f3 3c
       -0.16436401 -0.34973583 -8.4557665e-05 0.029758634
0000b0 65 9b ec bb 3f 34 e0 bd 20 04 95 be f3 b6 75 3d
       -0.007220673 -0.10947465 -0.2910471 0.059988927
0000c0 5d 62 d5 bd 62 e9 36 bd 95 b6 2b 3d cf 58 21 3d
       -0.10419152 -0.044656165 0.04192217 0.039391335
0000d0 ed b1 df 3d 66 5e 2c be 8e 78 0d 3e d8 d1 20 3e
       0.109226085 -0.16832885 0.13815519 0.15705049
0000e0 86 a3 49 3e 88 35 90 3d 7f d6 3d 3d 68 91 59 bb
       0.19691285 0.0704146 0.046347138 -0.003319824
0000f0 94 6b c4 bd f2 e8 a3 3e e6 e6 58 3e af 82 e3 bd
       -0.095908314 0.3201366 0.21181831 -0.1110891
000100 b7 20 e9 3e a5 22 62 3e fd 23 a9 be c1 1b 92 bb
       0.45532772 0.22083528 -0.3303527 -0.004458875
000110 77 fc ba 3b a3 c9 fc bd 63 69 db 3d a9 fe 3e 3e
       0.0057063657 -0.12343147 0.1071346 0.18651833
000120 06 2a 71 bd d2 b5 a6 bd 64 78 43 bd 1c 3e c2 bc
       -0.058877967 -0.08140148 -0.047722235 -0.023711257
000130 4c b5 d6 bd 87 74 06 3d df bb 1c bd 66 3d ea 3e
       -0.104837984 0.032825973 -0.038265105 0.45749968
000140 17 7e d3 3d 41 4e 9d 3d 62 20 60 3e ec 94 a3 3e
       0.10326784 0.076809414 0.21887353 0.31949556
000150 e7 e1 b2 bd 5e e0 7e be e3 57 10 be f7 92 46 be
       -0.08734494 -0.24890277 -0.14096026 -0.19392
000160 6c 1b c1 3d 07 43 ab bd d3 dd b6 3d b8 b4 70 be
       0.094290584 -0.08362394 0.08929028 -0.23506439
000170 33 da 78 bd d2 6f c7 3b 44 db 30 3e da 7e c2 3e
       -0.060754966 0.006086328 0.17271143 0.37987405
000180 92 90 02 3e 0c d5 b4 bd 3f d0 00 be b2 04 f7 bd
       0.12750462 -0.08829698 -0.1257944 -0.120614424
000190 61 34 33 3d dd 0d 08 be d0 ec 53 3e f8 f4 b8 3e
       0.043751124 -0.13286538 0.20695806 0.36124396
0001a0 d6 d2 75 bc f2 76 ef 3d 91 28 a2 be 4d 72 65 bb
       -0.0150038805 0.11692609 -0.31671575 -0.0035010756
0001b0 8a 2f aa bd 8e f4 d0 bd 1c c3 b1 bd 23 da a8 bc
       -0.083098486 -0.10202895 -0.08679792 -0.020611828
0001c0 69 e6 0a 3e ce cf 8f 3a f8 ee 27 3e 79 d1 43 be
       0.13564457 0.0010971965 0.16399753 -0.19122876
0001d0 1f 31 d1 3b 4a 81 2f bd 17 55 a5 bc 27 1a e8 3d
       0.0063840295 -0.04284791 -0.020182176 0.11333113
0001e0 c5 bf 02 3f ce 4b 70 be 92 97 da 3d b0 d5 f1 3d
       0.5107387 -0.23466417 0.10673441 0.11808336
0001f0 7f 52 98 bd 45 7f 84 be 51 92 14 3d 2b c3 48 be
       -0.0743761 -0.2587835 0.03627235 -0.196057
000200 0a fa b4 be 7a 46 5d bd c6 a8 5a 3d 03 eb 1d 3d
       -0.35347015 -0.05402229 0.05338361 0.038554203
000210 26 c3 e2 bd 1e bf ed bd 32 c8 f9 3d ad c0 b2 3d
       -0.11072378 -0.11608718 0.12196387 0.08728156
000220 c2 ff c1 3e d4 bc 20 3d f5 a9 35 3e bd 12 9b bd
       0.3789044 0.03924258 0.17740615 -0.075719334
000230 6c c1 c7 bd 59 e7 ad bd 45 40 5d bd c9 0e 9c bd
       -0.09753689 -0.08491392 -0.05401637 -0.076200075
000240 04 87 24 3d 2f f9 56 be 7e 75 07 3d 44 90 84 3c
       0.040167823 -0.20993493 0.033071034 0.016182072
000250 c6 0e 5b 3e 9d bf 2e 3c 2d e6 a8 3e 02 16 94 3e
       0.21392354 0.010665801 0.3298811 0.2892304
000260 67 5b 8a 3e 99 39 78 3d ca d2 5c bd c3 d1 aa bc
       0.2702286 0.060601804 -0.05391196 -0.020851975
000270 9a e5 6c 3e 8b 17 35 be 6f 01 5f be 6d 12 48 be
       0.23134461 -0.17684762 -0.2177789 -0.19538279
000280 83 fa 06 be a9 92 aa be 1b 1d eb be f0 9d e1 3d
       -0.131815 -0.33315018 -0.45920643 0.11016452
000290 09 11 87 be 11 5b 1c bd 48 52 44 3d 9f 7f e7 3d
       -0.26380184 -0.038172785 0.047930032 0.11303639
0002a0 dd d1 04 be fb 6d 20 bd 71 37 18 3e 14 c6 a9 bd
       -0.12970681 -0.039167386 0.14864899 -0.082897335
0002b0 f0 9a 85 3e 77 8d 80 be 20 ce 87 3d 84 bc e0 3e
       0.2609477 -0.2510793 0.06631112 0.43893826
0002c0 b3 a4 ef 3d de 63 87 3d fe d8 0c be 27 f8 8e bd
       0.11701336 0.06610845 -0.13754651 -0.06980925
0002d0 1f 71 95 be 5a 05 0f 3d 7b 01 8f 3e 89 73 e9 bd
       -0.29187867 0.034917213 0.27930817 -0.1139899
0002e0 74 2f e1 bc 13 26 da bd 62 8a c3 bd af 18 73 be
       -0.027488448 -0.10651793 -0.09547879 -0.23739885
0002f0 2b b1 b8 be ba 7c d5 bd 8a aa 4d 3e 03 5f 3f be
       -0.36072668 -0.1042418 0.20084587 -0.18688588
000300 32 12 30 3e 97 91 75 be aa 8d b4 3d f8 de 9f 3e
       0.17194441 -0.2398132 0.08816083 0.312248
000310 c7 34 34 3e 7b d8 e6 3d ea cb 44 3d e5 25 d6 bc
       0.17598258 0.11271759 0.04804603 -0.026141116
000320 65 a9 78 be 29 2f 0e 3c 38 1f 78 3e 17 2f e9 3e
       -0.24283369 0.008678236 0.24230659 0.4554374
000330 77 35 b8 bd 6f c9 9b be ab 72 2b 3e 63 a1 09 bc
       -0.089945726 -0.3042712 0.16742961 -0.008400294
000340 4d 96 7a bd e8 24 ed bd 3f af d1 3d 6b 47 29 3d
       -0.061178494 -0.11579305 0.10238504 0.041327875
000350 4b 03 8b 3d d2 e0 c8 3e c1 c9 4a be 6b f0 9c 3d
       0.067877375 0.39234024 -0.19803526 0.076630436
000360 7a 08 27 3e 2b 43 b7 3e eb de 04 3f 61 f1 12 be
       0.16311827 0.35793433 0.51902646 -0.14349891
000370 5c 59 53 3e ef 6e 76 3e 3d 71 16 3e aa 0a b6 be
       0.20639557 0.24065755 0.14691634 -0.3555501
000380 16 16 99 3e cd 02 85 3e e7 ef 13 be d0 99 a0 be
       0.29899663 0.259787 -0.14446984 -0.3136735
000390 19 55 53 be e6 d9 db bd 9f 19 b6 bb 82 ac 10 3e
       -0.20637931 -0.1073492 -0.0055572535 0.14128307
0003a0 4f 30 52 be 2d bd 22 be 8c 7d a0 be e4 90 fb 3c
       -0.20526241 -0.15892477 -0.31345785 0.030708738
0003b0 e0 91 43 3d e3 72 b7 bc 0e 63 b0 3c 32 72 0b be
       0.04774654 -0.02239365 0.021531608 -0.13617781
0003c0 55 8b b6 3c 94 87 77 3d 11 50 47 3e 62 49 75 bc
       0.022283236 0.06043203 0.19464137 -0.014971109
0003d0 43 e9 06 bd 00 77 0c be 19 8c b8 be 62 c3 99 3e
       -0.0329373 -0.1371727 -0.36044386 0.30031878
0003e0 92 32 dc 3d b1 1b 02 be f7 29 45 be 18 3f 36 3e
       0.10751833 -0.12705876 -0.1925429 0.17797506
0003f0 95 8a d3 3d 59 ab a3 bc 1d f8 9b be d5 1a 59 3e
       0.10329167 -0.019979166 -0.30462733 0.21201642

onnx::LSTM_103 f4 [1, 512, 128]
000000 8d bf d2 3d c9 d5 99 be df e3 3c 3e b9 28 b7 bd
       0.10290442 -0.30045918 0.18446301 -0.08943314
000010 9c 10 8a be 56 29 ce bd 53 54 3d bd 7d d7 ad be
       -0.26965797 -0.10066478 -0.046222996 -0.33953467
000020 30 3e f7 bd be 76 72 be 88 b7 ab 3c ab 54 b3 be
       -0.12072408 -0.23678109 0.020961538 -0.35025534
000030 de 39 88 3e 9e b6 10 bd 88 c4 ea bd 4f 9c c4 bd
       0.2660665 -0.035330407 -0.114632666 -0.09600126
000040 7c eb e7 bd a1 6c ea bd 1a 5d fc 3d b3 de b0 bc
       -0.11324212 -0.114465006 0.12322445 -0.021590566
000050 f8 bc 45 3e 4f 5c 46 be 9b db 15 3e eb 19 9f 3e
       0.19310367 -0.1937115 0.14634554 0.3107446
000060 3c c9 4c bd 33 e9 fe 3d 91 6a 87 3d 93 d4 a8 bd
       -0.0499966 0.12446823 0.06612123 -0.0824367
000070 99 5c e7 3d 08 f5 4b 3e b0 14 53 be 8e f0 39 3e
       0.112969585 0.19917691 -0.2061336 0.1815817
000080 cb cf 4a 3e 31 6f 30 3d 2e 03 87 3e bb 6e 86 3e
       0.19805829 0.04307479 0.26369613 0.26256356
000090 37 67 ab be b1 7e 58 bd f4 8d 11 be 23 e3 a6 bc
       -0.33477184 -0.052855197 -0.14214307 -0.02037198
0000a0 4b 6e b8 3c e1 d5 00 bd 20 a7 d1 3d 36 ae 67 3e
       0.02251353 -0.03145397 0.10236955 0.2262505
0000b0 6e 71 62 bc 1d f7 80 3e 7c 7f 3b bd 98 92 38 3d
       -0.013820989 0.25188532 -0.045775875 0.045061678
0000c0 5b e3 52 be cd 31 ab 3d 32 6f 86 3d ec 96 5f be
       -0.20594542 0.08359108 0.065641776 -0.21834916
0000d0 1c 94 96 3e 7a 61 5d 3e c3 aa 73 3d 01 00 fc bd
       0.29409873 0.21619216 0.059489023 -0.12304688
0000e0 8f 89 cc 3d f3 41 01 3c 7f ad 7c 3e 1d 99 a4 bd
       0.09987175 0.007889259 0.24675559 -0.080370165
0000f0 50 47 51 3e 26 d0 44 be cf 63 15 be b9 34 a9 bc
       0.2043736 -0.19220027 -0.14588855 -0.020655023
000100 e5 4b 85 bd 33 54 12 bc ef 15 69 3c 6f f9 db bd
       -0.06508616 -0.0089312075 0.014226421 -0.10740935
000110 33 fe 36 3d 44 78 8d 3d 7a e0 36 3e 3b a0 8f 3d
       0.044676017 0.069077045 0.17859069 0.070129834
000120 f5 51 72 3e 17 7e 8a 3e d6 f4 4b be 46 cd c1 bd
       0.23664077 0.27049324 -0.19917616 -0.09462981
000130 1e 0d 18 3d 51 28 37 bd 43 34 d8 bc 03 4c a7 bd
       0.037121885 -0.044716183 -0.026392108 -0.08168795
000140 00 b9 76 be 89 79 2d be a0 7d 4e be 91 e1 6b be
       -0.2409401 -0.16940893 -0.2016511 -0.23035266
000150 40 6b 6f 3e bb 8d bb bc 18 9c b3 3e f2 44 8f be
       0.23380756 -0.02289473 0.35080028 -0.2798229
000160 ff b1 10 be f1 20 86 be 40 db 4b bd 1e 51 46 be
       -0.141304 -0.26197007 -0.04976964 -0.19366881
000170 d2 a5 73 3b d2 39 05 be c8 b4 a8 3e 4a d1 98 be
       0.0037177694 -0.13010338 0.32950425 -0.29847175
000180 36 da 93 3e 32 d8 c1 3d 79 bb 38 bd b2 f8 95 3e
       0.2887742 0.09465064 -0.045100663 0.29291302
000190 7a 6d 50 3e bb d1 de bc 3e 6f 80 be c4 1c c8 be
       0.20354262 -0.027199617 -0.2508487 -0.39084446
0001a0 61 b5 37 be 53 07 db bd 3d ff ac bd 90 fe e0 3d
       -0.17940284 -0.10694756 -0.0844712 0.10986054
0001b0 b3 ab 02 bc 1a 5d bb 3e 38 c9 a0 bc b6 78 b5 3c
       -0.007975507 0.36594468 -0.019627199 0.022152286
0001c0 fb 12 23 3e 37 be 7e be da 9b cc be c1 5b 4f 3e
       0.15925209 -0.24877249 -0.39962655 0.20249845
0001d0 78 3c 9a 3d b1 bb 23 3e b0 eb 19 3e ae 1a ec bc
       0.07531065 0.15989567 0.15031314 -0.028821316
0001e0 e4 2c 0a 3e 4d e5 4d be 3c 6e 60 bd d9 0d 31 be
       0.13493687 -0.20107003 -0.054792628 -0.17290439
0001f0 6d 15 ad bd 0e 76 f7 3d 42 d0 20 3d 80 4a a8 bd
       -0.08451352 0.12083064 0.03926111 -0.08217335
000200 50 40 ac 3d e6 94 18 3e 0c fc 0b 3e b4 6d 97 bc
       0.08410704 0.1490055 0.13670367 -0.018484928
000210 0c 98 98 bd 80 51 1b 3d 1e 81 19 be 3b 09 5a be
       -0.07450876 0.03791952 -0.1499066 -0.21292584
000220 53 49 5c be b7 ce 07 be e8 6f 83 be 9b f0 c5 3d
       -0.21512346 -0.13262449 -0.25671315 0.096650325
000230 0c 35 d3 bd 64 16 f0 3d fd 18 ec be 4e fb 80 be
       -0.10312852 0.11723021 -0.46112815 -0.2519173
000240 40 47 1c 3e 59 cd 6f 3e c6 01 b6 bd d1 00 da 3c
       0.15261555 0.23418178 -0.08887057 0.026611717
000250 67 95 31 be a8 63 4b bc 8e b9 59 be 94 40 89 bd
       -0.17342149 -0.012413897 -0.2126219 -0.067017704
000260 7e d6 00 3d d0 00 9b be 1e 2e 29 3e e4 6d 41 bd
       0.031454556 -0.30274057 0.16521499 -0.04722394
000270 5b 7b 08 3e 07 7d 41 3e 6f 4a c7 be 83 d6 0e bc
       0.13328306 0.1889535 -0.38923976 -0.008718136
000280 73 8e 97 3d 5c 18 00 3e 10 38 90 bd d4 c9 a7 3d
       0.07400217 0.12509292 -0.07041943 0.081927925
000290 d6 ec 75 be e0 74 09 be 6b 0c dc be 8c 60 e4 3d
       -0.24016127 -0.1342349 -0.42978224 0.11151227
0002a0 b8 8b 00 3e 42 72 6f be 48 5b f2 3d 8a da bf 3d
       0.12553298 -0.2338343 0.11833817 0.09367855
0002b0 a4 c8 20 3e d9 91 a6 3d 4f c6 63 bd 17 53 23 3e
       0.15701538 0.08133287 -0.055609044 0.15949665
0002c0 5d 47 3e be 96 b3 46 be 0e ac 02 be c5 50 c9 be
       -0.1858191 -0.19404444 -0.12760946 -0.39319435
0002d0 3d 33 7f 3d ab c0 ba 3d cb fe 1b 3e 48 6f a9 3d
       0.062304724 0.0911878 0.15233915 0.08273178
0002e0 82 ab 49 3e 84 e4 22 bd c2 a4 ca 3e c1 77 9b bd
       0.19694331 -0.03976871 0.39578825 -0.075912006
0002f0 9e ff 13 3e b1 48 6c be 05 e7 62 3d 9c ce d4 3c
       0.14452979 -0.23074605 0.0553961 0.025977425
000300 6b c3 04 bd 12 a4 84 3c 34 a5 33 be d3 fe 54 be
       -0.032412928 0.016191516 -0.17543489 -0.20800333
000310 16 27 37 3e bf 36 aa bd 8f 0c 30 3e 29 df 8b 3e
       0.17886004 -0.08311223 0.1719229 0.27318695
000320 b2 58 af be f8 75 95 3c 1d d2 61 3d 0e 6c 76 be
       -0.34247357 0.018244728 0.05513202 -0.24064657
000330 cc e5 83 3e 0d a0 a8 3c eb 6f b0 3e 48 98 90 bd
       0.2576126 0.02058413 0.34460387 -0.07060295
000340 cc b0 55 be 4c 39 c5 be ec 56 c3 3d 07 3d 34 3e
       -0.20868224 -0.38520277 0.095380634 0.17601405
000350 cc 13 80 3c 2a f8 03 be eb 5e a5 3d 19 61 31 bd
       0.01563444 -0.12887636 0.08074745 -0.04330549
000360 87 45 b2 bd bc a9 02 3e fb 92 d3 3d 56 bf f6 bd
       -0.087046675 0.12760061 0.10330769 -0.12048213
000370 dc 0e 36 3e 87 72 5c 3e 29 5c 7f 3d 05 17 b1 bd
       0.17779106 0.21528064 0.06234375 -0.08646969
000380 19 8a 49 3c de e0 11 3e 6a e3 f5 bd 35 be 42 bd
       0.012300991 0.14245936 -0.120062664 -0.047544677
000390 4f a7 90 be 3e bf 90 3e a6 d6 2a 3e 23 81 ed 3c
       -0.28252646 0.28270906 0.16683444 0.028992241
0003a0 a0 71 f9 3d 8b b0 72 be 37 ee 64 bd ce 53 94 bd
       0.121798754 -0.23700158 -0.055891242 -0.07242547
0003b0 75 de b5 bd d5 09 8b 3d 05 b5 8f 3e 65 40 4e bd
       -0.08880321 0.06788985 0.28067794 -0.05035438
0003c0 7e 77 34 3e 70 fd 97 be b4 64 76 3e cd d4 d5 ba
       0.17623708 -0.29685545 0.24061853 -0.001631403
0003d0 1a 16 a5 bd 71 16 01 bf 04 08 a0 3e 35 0e 46 be
       -0.08060856 -0.5042487 0.31256115 -0.19341357
0003e0 62 49 b3 be a9 3f 87 3e 4c b9 37 3e e8 5f 7e be
       -0.35016924 0.26415756 0.17941779 -0.24841273
0003f0 5a 31 48 3e 2a ec b2 3c 45 23 6f 3e 66 f9 09 be
       0.19550076 0.021841127 0.23353298 -0.13474044

onnx::LSTM_104 f4 [1, 1024]
000000 24 dd 9e 3c 82 46 cc bd 75 9d bd bd 61 b0 d6 3d
       0.019392557 -0.09974386 -0.09258548 0.1048286
000010 5e f8 a2 3d a1 48 8a bc f1 2c 9c bc c8 38 8d bc
       0.079575285 -0.016880335 -0.019064398 -0.01723899
000020 36 dd 26 3e 67 b5 d2 3c 82 a7 09 be d9 9f 4f 3c
       0.16295323 0.025721265 -0.13442805 0.012672388
000030 d2 ea c4 bd 0d 27 0a bd 02 f0 04 be 3a f9 91 3c
       -0.09615101 -0.033728648 -0.1298218 0.017819036
000040 73 1f cb 3d c6 26 18 bd c8 8c d2 bd 61 09 03 be
       0.09918108 -0.037146352 -0.10280758 -0.12796547
000050 ed ab 26 bd 77 34 ae bc da a2 44 3d 0f 9b fb 3d
       -0.040691305 -0.021265252 0.04800687 0.122854345
000060 a3 91 3e be 53 4a e1 3c 96 a1 88 3d 86 09 a6 3c
       -0.18610243 0.02750126 0.06671445 0.020268213
000070 52 90 82 be d3 7b 45 bd 67 42 1d 3e 27 bb c5 3d
       -0.25500733 -0.04821379 0.15357362 0.09654837
000080 81 27 a8 bd 3d c4 64 3d 78 8e 84 bd a7 de 9a 3d
       -0.0821066 0.05585121 -0.06472486 0.07561999
000090 16 ac ca 3c 41 44 2a be 6e d3 85 3d 97 0f ac 3b
       0.02474026 -0.166276 0.06534468 0.005250882
0000a0 e6 fe 00 b9 09 b9 13 bd 53 e6 e4 bd aa 79 a0 bd
       -0.00012301988 -0.036065135 -0.11176743 -0.078357056
0000b0 e5 c1 b6 3c 9d df 72 bd 53 9c 1c 3d 3f 11 8d 3b
       0.022309253 -0.059295285 0.03823502 0.0043050344
0000c0 26 7a 1d 3d 42 45 de bc 4b c0 47 bd 23 14 c0 3d
       0.038446568 -0.027132634 -0.04876737 0.09378841
0000d0 33 ed 4f bc aa 92 85 bd df 3d 81 3d 58 b7 81 3d
       -0.01269083 -0.065221146 0.06310629 0.06333798
0000e0 f6 02 03 3d a1 b6 02 3d 28 1a 00 be 03 b6 45 bd
       0.031985246 0.03191245 -0.12509978 -0.048269283
0000f0 5a de fc 3d 57 15 86 3d 5b 36 00 be 85 25 08 3e
       0.12347098 0.06547039 -0.12520735 0.13295563
000100 11 99 86 3d 9a 08 c9 3d a6 46 41 bd 98 4f 00 3e
       0.06572164 0.09816094 -0.047186516 0.12530363
000110 90 65 04 be b2 54 1f 3d a1 57 81 3d d6 82 31 be
       -0.12929368 0.03889913 0.06315542 -0.17335066
000120 c2 11 2a bc 49 e5 45 bd c6 c4 24 be 79 c8 11 be
       -0.01038021 -0.048314366 -0.16090688 -0.1423663
000130 3c 8f 4c 3d a5 cc 2c bd e0 fb b6 bd a0 8e cc bd
       0.049941286 -0.04218735 -0.0893476 -0.09988141
000140 3e a4 05 3d de 51 79 bc a5 3b b9 bd 9e 3f cc 3d
       0.032627337 -0.015217273 -0.090445794 0.099730715
000150 2c 43 ce 3d 5f e2 d8 bd 61 ed d3 bd f4 a3 0e be
       0.10071406 -0.10590052 -0.10348011 -0.1392973
000160 20 ee 13 3e 65 08 a7 bd ee 4c c9 3d 2e bb 21 bd
       0.14446306 -0.08155898 0.09829126 -0.03948515
000170 76 b8 61 bd ff 5a 46 bd f9 e9 8d 3c 05 6b 24 3c
       -0.055107556 -0.048426624 0.01732348 0.010035281
000180 c7 d1 79 bd a0 b8 dd bc 6c 83 e2 bc a9 1c 58 be
       -0.060991075 -0.027065575 -0.027650557 -0.21104683
000190 24 90 0c 3c bb 69 33 3e 27 0f 86 bc d0 f9 0e 3d
       0.008579288 0.17520802 -0.016364647 0.03490621
0001a0 aa 0d e7 bd 8e a8 bf bd ab 33 d6 3d 54 c1 50 3d
       -0.11281903 -0.09358321 0.10459074 0.050965622
0001b0 23 67 c8 3d b0 e3 52 bd 4e fa 82 be 00 f3 5c bd
       0.09785297 -0.05148667 -0.25581592 -0.05394268
0001c0 00 e1 6d 3d 99 16 23 3b c7 d6 72 be ee ee 12 3c
       0.058075905 0.0024885295 -0.23714744 0.008968098
0001d0 66 72 01 3e 6b 89 7d 3c 14 7b 8d bd 4a 20 09 be
       0.12641296 0.0154746575 -0.06908241 -0.13391224
0001e0 65 ea e9 bc bb 05 0e bc f0 e9 f1 3d b3 24 2f be
       -0.02855415 -0.008668358 0.11812198 -0.17103843
0001f0 9c e3 fb bd 89 49 2a be ca 62 d6 3d 2b 89 ff bc
       -0.122992724 -0.16629614 0.10468061 -0.031193336
000200 6c cc 2c 3d 84 b7 c6 3d 35 87 26 3d 14 0d 0a be
       0.04218714 0.097029716 0.040656287 -0.13481551
000210 c9 31 45 be 8e 21 57 be f3 2a 8e bd 4c 8d b8 bd
       -0.19257273 -0.21008894 -0.06941786 -0.09011325
000220 c9 0a fd bb d9 95 65 3d 7a 5e 6e bc 16 e6 eb bd
       -0.007722233 0.05605111 -0.014548892 -0.11518495
000230 35 92 4c 3d f5 d2 db bd 21 a9 59 3d 89 62 33 be
       0.04994412 -0.10733596 0.05313981 -0.17518057
000240 ec 35 dd bc 43 d4 94 bd 1f 16 e6 bc da 1b 22 3e
       -0.027003251 -0.07267048 -0.02808672 0.15830937
000250 df 88 81 3d dd 7a e9 3d 72 c5 2f 3e 6b 07 37 3b
       0.06324934 0.114003874 0.17165163 0.0027928005
000260 03 64 0b bd b0 0a 22 bd 9e 24 30 bd a8 9a 9c bc
       -0.034030925 -0.039560974 -0.04300367 -0.019116715
000270 34 62 56 bd 72 16 e7 3d 23 c0 00 bb 9c de e8 3b
       -0.052339748 0.11283578 -0.0019645772 0.007106615
000280 84 6a 15 be 07 99 3b bb 6d b5 3f be e6 d4 7d bd
       -0.14591414 -0.0028625147 -0.18721552 -0.061970614
000290 df b0 24 3d 87 ed 9d 3d 3c be 81 bd 5a 34 db 3d
       0.04020774 0.0771132 -0.063351125 0.10703345
0002a0 67 ee c0 3c 74 e8 7d bd c0 56 a9 bb c6 51 ea bc
       0.02355118 -0.061989263 -0.005167812 -0.028603446
0002b0 f6 c2 36 bd 43 41 dc 3d b0 ca 88 3e 0f c3 45 3e
       -0.044619523 0.10754635 0.26717138 0.1931269
0002c0 e2 d5 cb bd 88 05 f6 3d e8 9e 73 bd 80 ad b1 3d
       -0.09952904 0.12012774 -0.059477717 0.086756706
0002d0 cc 27 d7 bd 34 65 01 bd be 25 ff bd 23 2d 88 bd
       -0.105056375 -0.031590655 -0.124583706 -0.06649234
0002e0 4d 3d be 3d 48 98 d1 bb 3d ac 87 bc 54 ee 03 3d
       0.09289036 -0.006396327 -0.016561622 0.03220971
0002f0 f2 47 95 bd 81 0b 5e 3d b9 b2 2e 3b cd fe 88 3d
       -0.07289113 0.05421019 0.002665682 0.066892244
000300 81 3b 5b bd 55 55 af 3b 55 27 ac 3d 15 7d 9f 3d
       -0.053523544 0.0053507485 0.084059395 0.077875294
000310 32 c3 83 bd d9 68 07 be 06 d1 6f bd 39 b8 9b 3d
       -0.06433715 -0.1322359 -0.05854895 0.07603497
000320 30 ed 31 3e 9b 04 47 3c 8f 29 40 3e 20 80 b7 bc
       0.17375636 0.012147094 0.18765853 -0.022399962
000330 bf cb 65 bd 0c 66 30 bd a0 fa 22 bc b7 96 63 3c
       -0.05610251 -0.04306607 -0.009947449 0.013890914
000340 40 c3 ef 3b 15 c9 c0 3d fb e0 33 bd d4 84 ae bc
       0.007316977 0.09413353 -0.04391573 -0.021303572
000350 d9 c4 03 be ea 55 3c 3e 2e 13 8f 3c a9 53 85 3d
       -0.1286806 0.18392149 0.0174652 0.065100975
000360 89 55 bc 3d e6 fd 56 bb ce 72 b1 bd 6e a0 40 bc
       0.09196002 -0.0032805144 -0.086644754 -0.011756999
000370 32 0b e7 bb 3d 03 9b bd 3f 29 6b 3e a8 10 28 3c
       -0.007050895 -0.07568977 0.22964953 0.010257877
000380 57 1e ad bd a5 68 34 3c d4 68 1e be f1 f5 ef 3d
       -0.084530525 0.011011277 -0.15469676 0.117168315
000390 d3 20 49 bc 2c bc 8b bd 98 0d bb bd 6a db 58 bd
       -0.012275892 -0.06823 -0.09133452 -0.052943625
0003a0 22 90 e9 bd fe 45 0b be 80 be 69 3d a6 90 4a bd
       -0.11404444 -0.13600919 0.05706644 -0.049454354
0003b0 51 2e 21 be 25 94 c8 3d 59 dc 93 3d 6d 4c 47 bc
       -0.15740325 0.09793881 0.07219762 -0.012164217
0003c0 b2 54 59 3d 8d c4 6e bd be 77 7e 3c 93 19 20 3b
       0.053059287 -0.058292914 0.015531478 0.0024429306
0003d0 37 03 ff bd 32 73 a1 be ff bc b3 3b 3c 51 2d be
       -0.12451785 -0.315332 0.0054851766 -0.1692552
0003e0 ee 8f 1e bd dc 90 8e bd 84 da 17 be 5f 51 b6 3c
       -0.03871148 -0.069612235 -0.14829451 0.022255598
0003f0 ee 9c d4 bd 7b 5d 7d bd 35 65 6e be fa b8 45 be
       -0.103814945 -0.061856728 -0.23280795 -0.19308844
