results/DroneAgentMG6/DroneAgent/DroneAgent-4699992.onnx (onnx, 724643 bytes, 10 tensors)

network_body._body_endoder.seq_layers.0.weight f4 [128, 236]
-0.109207354 -0.23695296 0.14561048 0.1727346 0.093864106 0.35498998 -0.08542157 0.11801181
0.2786026 0.103240974 -0.1729522 -0.318832 0.10616935 0.22841744 -0.033103015 0.5056688
0.0063227885 -0.058824506 -0.010071947 -0.005461884 0.2024993 -0.17227022 0.22225578 -0.04896007
0.0103948 0.08811063 -0.5985395 -0.14113787 0.79206914 -0.026556518 -0.45202044 -0.19333275
0.00093542156 0.8491082 0.30115858 0.18206668 -0.46709892 -0.12728773 0.67364246 0.22806667
-0.40482408 -0.16576542 -0.031910576 0.66949093 0.26295674 0.27594244 -0.45827815 -0.19767074
0.85687536 0.11257604 0.23692094 0.08738262 -0.31478807 -0.28459978 -0.11462995 0.16077057
-0.05208216 -0.01611104 -0.3185319 -0.10975965 0.029980296 -0.10944961 0.14424491 -0.41968137
-0.24863555 0.42754328 0.055188242 0.1452387 -0.50455165 -0.14300604 -0.18209822 0.059242398
0.16961868 -0.35740188 -0.13974571 0.3238774 -0.21587183 -0.12263947 -0.26167423 -0.1913855
0.15783627 -0.18796565 -0.11632144 -0.36099836 -0.21594775 0.3181178 0.21485546 -0.025222497
-0.6411157 -0.25946358 0.062897265 0.114478804 -0.020866627 -0.54007435 -0.076553755 0.16097333
0.0061601987 -0.013293979 -0.41872314 -0.15965581 0.023243584 -0.07176283 -0.09379487 0.19619204
0.1465278 -0.03945054 -0.033137705 -0.037575733 -0.093353935 -0.03425048 -0.14811072 0.16051427
-0.020307923 -0.23318864 0.27812424 0.035771623 -0.50635433 0.10206746 0.116890855 -0.09290083
-0.25730103 0.042739518 0.08488242 -0.11409423 0.32382706 0.23877265 0.34112847 0.03140902
-0.09022601 -0.14685242 -0.07592234 0.1098759 0.1816328 -0.4426733 0.079465576 -0.04022618
0.29561028 -0.01261553 0.10097976 -0.24606137 -0.16776595 -0.46031937 0.12492331 0.14932366
0.016728204 -0.08557353 -0.26702714 0.30341297 -0.24875723 -0.20570539 0.1552534 -0.040531583
-0.11305358 0.17695133 -0.0052514775 0.2615136 -0.040395357 -0.07048758 -0.0116728 -0.27646977
0.23285802 -0.2711432 0.013199432 -0.22993949 -0.19196934 0.16923408 0.38720447 -0.054208547
-0.36958998 -0.21636721 0.32277235 0.027907567 -0.1338151 -0.17439973 -0.2186169 0.23609738
0.25987995 -0.22912271 -0.32767603 -0.15966241 -0.033833664 0.10262899 -0.018750608 0.00024249656
-0.21677288 -0.03594228 0.1693475 0.098951906 0.20548289 0.015720427 0.03316332 0.43508762
-0.12898326 0.5435145 0.0715216 0.21008821 0.18158758 0.03636942 -0.020249272 -0.23697837
0.088966556 0.23229955 -0.004354432 -0.034814075 -0.1284316 -0.44583157 -0.024120612 0.11019639
0.1667241 0.06811743 0.06293616 -0.020769235 0.006320473 -0.10302232 0.64019686 -0.07865808
0.04407399 0.35829097 0.24454087 -0.19684526 0.09616675 -1.1090055 -0.3001553 -0.07473859
-0.044557095 -0.0681232 -0.24488752 0.40599903 -0.14465809 -0.11005815 -0.48147333 0.7927837
0.21177779 0.46648088 0.07698285 0.08335263 0.24692798 -0.0036402137 -0.23001052 0.14712419
-0.21599877 0.2048768 -0.3448552 0.6932185 -0.14991596 -0.29433975 0.3075559 -0.3993057
0.3226085 -0.038266722 -0.2060631 0.39984146 -0.48924488 0.59912527 -0.33632907 -0.3358403
00000000: 1ba8 dfbd cca3 72be ea1a 153e 57e1 303e
00000010: d33b c03d 3fc1 b53e 81f1 aebd 2db0 f13d
00000020: 00a5 8e3e 0170 d33d 621a 31be f33d a3be
00000030: 516f d93d 43e6 693e 0797 07bd 8373 013f
00000040: 652f cf3b f7f1 70bd cf04 25bc 9bf9 b2bb
00000050: fa5b 4f3e 9b67 30be 0597 633e 5b8a 48bd
00000060: f44e 2a3c 5973 b43d e239 19bf 7286 10be
00000070: 0bc5 4a3f 0e8d d9bc 396f e7be 05f9 45be
00000080: 1437 753a 285f 593f 7531 9a3e b06f 3a3e
00000090: 9727 efbe b757 02be d573 2c3f 4f8a 693e
000000a0: 1a45 cfbe 69be 29be aab4 02bd c263 2b3f
000000b0: 44a2 863e 5448 8d3e 6fa3 eabe 336a 4abe
000000c0: 2f5c 5b3f 448e e63d 679b 723e a9f5 b23d
000000d0: e72b a1be 10b7 91be 1bc3 eabd 0aa1 243e
000000e0: 1a54 55bd 4dfb 83bc 9d16 a3be abc9 e0bd
000000f0: 3d99 f53c 1e27 e0bd f0b4 133e 7ae0 d6be
00000100: 519a 7ebe f4e6 da3e 110d 623d 74b9 143e
00000110: 4c2a 01bf 2d70 12be f577 3abe 28a8 723d
00000120: 85b0 2d3e 61fd b6be 8019 0fbe 42d3 a53e
00000130: 810d 5dbe 672a fbbd 2afa 85be 8ffa 43be
00000140: d59f 213e 117a 40be ef39 eebd c7d4 b8be
00000150: 6821 5dbe 56e0 a23e 1203 5c3e 699f cebc
00000160: 2920 24bf 69d8 84be 48d0 803d dd73 ea3d
00000170: 7df0 aabc 5042 0abf 37c8 9cbd 31d6 243e
00000180: 7edb c93b fdce 59bc e162 d6be d07c 23be
00000190: 5469 be3c 64f8 92bd 8617 c0bd 91e6 483e
000001a0: 620b 163e e496 21bd 67bb 07bd 03e9 19bd
000001b0: 5930 bfbd 3b4a 0cbd 56aa 17be da5d 243e
000001c0: cd5c a6bc 01c9 6ebe 4d66 8e3e 4485 123d
000001d0: 70a0 01bf bf08 d13d 7964 ef3d ca42 bebd
000001e0: f6bc 83be a20f 2f3d d6d6 ad3d 3caa e9bd
000001f0: a9cc a53e d180 743e 64a8 ae3e bfa6 003d
00000200: 6ac8 b8bd 7b60 16be 2c7d 9bbd 9e06 e13d
00000210: f3fd 393e 13a6 e2be d9be a23d 35c4 24bd
00000220: 3b5a 973e 5eb1 4ebc 7ace ce3d 83f7 7bbe
00000230: d6ca 2bbe fbae ebbe cbd7 ff3d 4de8 183e
00000240: 9609 893c 2d41 afbd c8b7 88be f258 9b3e
00000250: 37ba 7ebe 6fa4 52be bffa 1e3e 7204 26bd
00000260: a388 e7bd bb32 353e 9614 acbb 1ce5 853e
00000270: 9a75 25bd cb5b 90bd 463f 3fbc 728d 8dbe
00000280: 5572 6e3e 48d3 8abe 6e42 583c 4275 6bbe
00000290: 9c93 44be b34b 2d3e aa3f c63e c809 5ebd
000002a0: e63a bdbe 5e8f 5dbe 6b42 a53e 699e e43c
000002b0: d306 09be d895 32be 1cdd 5fbe 83c3 713e
000002c0: fc0e 853e 259f 6abe 27c5 a7be 8b7e 23be
000002d0: 2b95 0abd 262f d23d e09a 99bc ad46 7e39
000002e0: b6f9 5dbe 3638 13bd 6e69 2d3e 4ca7 ca3d
000002f0: 1b6a 523e 20c8 803c 43d6 073d cec3 de3e
00000300: 3014 04be c423 0b3f eb79 923d 5d21 573e
00000310: 18f2 393e 1af8 143d cde1 a5bc 75aa 72be
00000320: 1934 b63d efdf 6d3e a0af 8ebb 3499 0ebd
00000330: 9383 03be 0944 e4be 9798 c5bc a5ae e13d
00000340: b9b9 2a3e 2781 8b3d ace4 803d 3e24 aabc
00000350: f81b cf3b 5efd d2bd f1e3 233f 7d17 a1bd
00000360: ee86 343d ea71 b73e ec68 7a3e ce91 49be
00000370: 13f3 c43d e4f3 8dbf f5ad 99be 8c10 99bd
00000380: 8081 36bd 2d84 8bbd cbc3 7abe 1bdf cf3e
00000390: 4021 14be 2b66 e1bd ac83 f6be dff3 4a3f
000003a0: 47dc 583e 95d6 ee3e 2fa9 9d3d c9b4 aa3d
000003b0: b0da 7c3e a790 6ebb e187 6bbe b9a7 163e
000003c0: c82e 5dbe 39cb 513e dc90 b0be c576 313f
000003d0: 9283 19be b3b3 96be f877 9d3e cc71 ccbe
000003e0: f12c a53e 91bd 1cbd 3502 53be 05b8 cc3e
000003f0: 4e7e fabe 4660 193f 5333 acbe 43f3 abbe

network_body._body_endoder.seq_layers.0.bias f4 [128]
-0.033044446 -0.25257656 -0.14183123 0.027333334 -0.018197801 -0.090447694 0.043702576 0.13707541
-0.1880621 -0.26726744 -0.011708207 0.035962354 0.039607417 0.008338733 -0.008712343 -0.09268607
-0.10876726 -0.08098645 -0.07377776 0.032263305 -0.21119103 0.031602085 -0.023032242 0.007214471
-0.23744562 0.07356535 -0.05816326 0.01017185 -0.067302525 -0.08822156 -0.036013056 -0.06626411
0.0067393947 0.0068952846 -0.007811745 -0.03121611 0.07693231 -0.019222856 -0.047734514 0.0036388333
0.0024489283 0.069794044 0.037222803 0.017005522 0.0028611936 -0.18928565 -0.036200367 -0.08811645
-0.0038969503 0.096325204 -0.0826632 0.031552143 -0.011460956 0.04321126 -0.08358895 0.017532915
-0.057605863 0.044069715 0.0730921 -0.25001982 -0.0066572493 -0.037700918 -0.108393416 0.12215184
-0.0727012 0.06529437 0.026084313 -0.06941967 -0.122315414 -0.081465535 -0.0021413409 -0.03696016
0.034117453 -0.039795384 0.066247426 0.013776922 -0.07852854 0.07390081 0.019694667 -0.14332232
-0.078969084 0.12329442 -0.11045209 -0.075657494 -0.06629474 -0.012361692 -0.09906364 -0.014735867
-0.15548861 -0.09593682 0.069352545 -0.05382083 -0.023107314 -0.10990995 0.0048931614 0.0063900407
0.015390884 -0.04469024 0.052522305 0.008081453 0.048959054 -0.011712765 -0.084813744 -0.017061196
-0.04408717 -0.07456193 -0.0498113 0.04411864 -0.058224373 -0.10556816 -0.03342019 -0.02792513
0.020210814 -0.038844515 0.09359665 -0.04532475 -0.06652558 0.0030182602 -0.03276369 0.034690432
0.019533247 -0.07291488 -0.051840443 -0.2627635 -0.031455822 -0.0034148714 -0.020595258 0.03467317
00000000: 9d59 07bd b751 81be 353c 11be 28ea df3c
00000010: 8e13 95bc a43c b9bd 7901 333d 7f5d 0c3e
00000020: 5a93 40be 47d7 88be c8d3 3fbc 434d 133d
00000030: 633b 223d 2e9f 083c 37be 0ebc 32d2 bdbd
00000040: 5fc1 debd 39dc a5bd cb18 97bd 8726 043d
00000050: 7642 58be 3071 013d 1dae bcbc 5f67 ec3b
00000060: f224 73be 6ea9 963d 993c 6ebd d5a7 263c
00000070: e8d5 89bd 81ad b4bd 6d82 13bd 7ab5 87bd
00000080: 24d6 dc3b d7f1 e13b abf9 ffbb edb8 ffbc
00000090: b08e 9d3d 4079 9dbc 4485 43bd 7e79 6e3b
000000a0: 337e 203b 2ef0 8e3d f076 183d 2a4f 8b3c
000000b0: dd82 3b3b 19d4 41be d646 14bd 6676 b4bd
000000c0: fa63 7fbb 2646 c53d 534b a9bd d23c 013d
000000d0: bcc6 3bbc 4afe 303d af30 abbd 30a1 8f3c
000000e0: 20f4 6bbd 7282 343d 50b1 953d 9902 80be
000000f0: 0e25 dabb 476c 1abd 5efd ddbd be2a fa3d
00000100: 5ee4 94bd 0eb9 853d c5ae d53c e62b 8ebd
00000110: 8180 fabd 67d7 a6bd bd55 0cbb 8963 17bd
00000120: bebe 0b3d 7c00 23bd bbac 873d 99b8 613c
00000130: 92d3 a0bd 4f59 973d b656 a13c 16c3 12be
00000140: 8bba a1bd c981 fc3d b534 e2bd 51f2 9abd
00000150: 89c5 87bd b288 4abc e1e1 cabd b56e 71bc
00000160: 6838 1fbe 867a c4bd b508 8e3d 3b73 5cbd
00000170: 8d4b bdbc 7818 e1bd d056 a03b 8c63 d13b
00000180: 0c2a 7c3c 1d0d 37bd a121 573d 1268 043c
00000190: 4a89 483d e6e6 3fbc d4b2 adbd ecc3 8bbc
000001a0: c094 34bd edb3 98bd ef06 4cbd bfb5 343d
000001b0: ae7c 6ebd 1f34 d8bd 9ce3 08bd 3ec3 e4bc
000001c0: 2691 a53c 6d1b 1fbd 9aaf bf3d 72a6 39bd
000001d0: 903e 88bd 01ce 453b 3833 06bd 8e17 0e3d
000001e0: 3004 a03c 6654 95bd a556 54bd f088 86be
000001f0: d2d7 00bd 09cc 5fbb 63b7 a8bc 7405 0e3d

network_body._body_endoder.seq_layers.2.weight f4 [128, 128]
-0.06790214 0.10706616 0.19651778 0.34906882 -0.11719173 -0.12278051 0.30595937 -0.3868841
-0.012574979 0.39383206 0.100098625 0.00048781707 -0.3527608 -0.16415954 0.21462351 0.00816624
-0.2644258 0.008900735 -0.29243672 0.21924524 0.047696784 0.048641987 0.6962818 0.4582327
-0.029283848 -0.40392014 -0.55100405 0.08909857 -0.62874466 0.084140934 0.18417166 -0.11384203
-0.10730281 -0.004115419 0.4067421 -0.39863646 -0.22587743 0.28743514 0.2108159 0.3756239
-0.3438886 -0.21266522 0.025699377 0.122147925 -0.33262095 -0.3644066 -0.008667285 -0.11352646
-0.13657577 0.32125482 0.20263918 -0.49434844 -0.32635078 -0.04926253 0.050559815 0.1539327
0.03439363 -0.16674133 -0.43051633 0.25366095 0.12077358 0.003592121 0.415749 0.037648607
0.12762706 0.07917671 0.2888752 0.12496759 0.13312438 0.21099797 -0.18390521 -0.5397612
-0.48844346 0.18479621 -0.4088865 -0.10784624 -0.09861309 0.06917296 0.06314717 -0.043689657
0.37029287 0.035681322 0.26229396 0.10118756 0.083000086 -0.075913794 0.19843271 0.23131935
0.33237642 0.28192374 -0.19710506 0.051070124 0.19047298 -0.4017078 -0.3356188 0.05045262
0.12186589 0.03393826 0.1799409 0.12989789 0.06211269 0.13682456 0.17208456 0.5860277
-0.15834008 -0.24465254 0.3896761 0.26180673 0.008502645 0.15692812 -0.5677666 -0.024755545
0.13770889 -0.25898802 -0.013734124 -0.14890376 0.21455415 -0.23851553 -0.14733563 -0.09698237
-0.09318853 0.006706991 0.19101363 0.039577577 -0.04436261 -0.39800003 -0.15526976 0.12558341
0.2827054 -0.07552711 -0.17632149 -0.79235065 0.049594 0.32723933 0.42545843 -0.24893245
-0.03421062 0.32591712 -0.4027553 -0.054497316 0.32355013 -0.3211241 -0.4821856 0.11357632
-0.0010557475 -0.06495286 -0.10003029 -0.17076612 0.40765437 -0.04018178 0.121931784 -0.4666058
0.0093999375 0.29127145 0.0989465 -0.30912966 0.26404005 0.17863235 0.021662144 -0.0667478
-0.45738983 -0.0691496 -0.02180044 0.15970843 0.44316393 -0.58212525 -0.24071717 -0.280218
0.14620921 -0.008238983 -0.014250483 -0.10477234 -0.1161978 0.3151179 0.12478246 0.10335936
0.020415522 0.016424816 -0.10899092 0.4090472 0.16588284 -0.14274503 -0.2831577 -0.2961551
0.2995334 0.30135047 -0.24634463 0.35132548 -0.027736824 -0.15953161 -0.23783013 -0.26909673
0.013325524 0.16774073 -0.045683503 0.14038469 -0.43266696 0.040789768 -0.4042087 0.22598955
0.46536815 -0.18455058 0.031545006 0.05284239 0.49236602 -0.13580585 -0.23517479 -0.08991178
-0.30001092 0.51672196 0.084332965 0.3498248 0.3603868 -0.12735675 0.055889968 -0.15653476
0.10043206 0.21981622 -0.11743707 0.213305 0.16847304 -0.0033792874 -0.025740338 0.40384877
-0.43667585 -0.07311666 0.27727208 0.28770715 0.014083251 -0.07690551 -0.20929767 -0.19054623
-0.3471072 0.23288625 0.20960468 0.08382557 -0.13769759 -0.00043723505 0.29654276 -0.18273544
0.17060563 -0.025858477 0.29172295 0.04951126 0.1757066 0.018636009 0.15085915 -0.2763083
0.2903732 0.2909389 -0.31331328 0.0119924 0.18545502 0.119501576 0.08963392 -0.25982305
00000000: 4710 8bbd 8145 db3d f53b 493e 26b9 b23e
00000010: 3802 f0bd 5974 fbbd b5a6 9c3e ac15 c6be
00000020: 4907 4ebc 5ba4 c93e 8200 cd3d b3c1 ff39
00000030: 109d b4be 7019 28be 44c6 5b3e b1cb 053c
00000040: d262 87be 63d4 113c 44ba 95be d381 603e
00000050: b45d 433d d23c 473d 863f 323f 7a9d ea3e
00000060: aee4 efbc 9fce cebe 9a0e 0dbf 5079 b63d
00000070: 69f5 20bf 1552 ac3d 7f97 3c3e 0326 e9bd
00000080: 93c1 dbbd a3da 86bb 8040 d03e 141a ccbe
00000090: 6a4c 67be b32a 933e 20e0 573e c751 c03e
000000a0: 2b12 b0be e9c4 59be 8087 d23c b128 fa3d
000000b0: 4b4d aabe 8093 babe 3a01 0ebc 9080 e8bd
000000c0: 85da 0bbe 837b a43e a580 4f3e 3d1b fdbe
000000d0: 7317 a7be 82c7 49bd cf17 4f3d 89a0 1d3e
000000e0: 56e0 0c3d 3dbe 2abe a36c dcbe d9df 813e
000000f0: 2458 f73d ca69 6b3b 0edd d43e 6d35 1a3d
00000100: abb0 023e 6627 a23d 73e7 933e 02ef ff3d
00000110: c251 083e da0f 583e a651 3cbe ca2d 0abf
00000120: 4315 fabe 383b 3d3e 9259 d1be 7dde dcbd
00000130: a9f5 c9bd 8eaa 8d3d 4e53 813d edf3 32bd
00000140: 0797 bd3e 9426 123d 654b 863e 6c3b cf3d
00000150: f3fb a93d b178 9bbd f231 4b3e fbde 6c3e
00000160: 3e2d aa3e 4f58 903e e9d5 49be e82e 513d
00000170: 590b 433e a5ac cdbe 3ad6 abbe 68a7 4e3d
00000180: d394 f93d d802 0b3d 6d42 383e f403 053e
00000190: e069 7e3d bd1b 0c3e ef36 303e e905 163f
000001a0: e723 22be 3286 7abe a083 c73e 880b 863e
000001b0: ae4e 0b3c c4b1 203e 2759 11bf 24cc cabc
000001c0: 8f03 0d3e 149a 84be 1705 61bc 3a7a 18be
000001d0: 15b4 5b3e 6a3d 74be 27df 16be b19e c6bd
000001e0: a1d9 bebd 51c6 db3b 1499 433e 191c 223d
000001f0: 91b5 35bd a9c6 cbbe 09ff 1ebe f098 003e
00000200: c3be 903e f5ad 9abd 9f8d 34be 7ed7 4abf
00000210: 1423 4b3d ea8b a73e b0d5 d93e 26e8 7ebe
00000220: 6f20 0cbd 9cde a63e f135 cebe 9438 5fbd
00000230: 5da8 a53e 616a a4be 08e1 f6be b49a e83d
00000240: 0261 8aba 0106 85bd aedc ccbd 50dd 2ebe
00000250: 13b8 d03e a695 24bd 5fb7 f93d f5e6 eebe
00000260: 3202 1a3c 8821 953e 76a4 ca3d 3e46 9ebe
00000270: 4230 873e 66eb 363e cf74 b13c 12b3 88bd
00000280: 002f eabe 4e9e 8dbd d696 b2bc 9b8a 233e
00000290: 62e6 e23e 2906 15bf 907e 76be bc78 8fbe
000002a0: deb7 153e cdfc 06bc dc7a 69bc e192 d6bd
000002b0: 1df9 edbd 2257 a13e f28d ff3d 12ae d33d
000002c0: 743e a73c 568d 863c a236 dfbd a26e d13e
000002d0: 31dd 293e c12b 12be 0cfa 90be a4a1 97be
000002e0: 715c 993e 9c4a 9a3e c441 7cbe efe0 b33e
000002f0: 5638 e3bc 415c 23be be89 73be 0cc7 89be
00000300: 4c53 5a3c 3ac4 2b3e a01e 3bbd 01c1 0f3e
00000310: 8686 ddbe 2c13 273d 71f4 cebe ce69 673e
00000320: bc44 ee3e d4fa 3cbe 5635 013d 4371 583d
00000330: 6617 fc3e b010 0bbe a9d1 70be ab23 b8bd
00000340: 089b 99be e447 043f c3b6 ac3d 3c1c b33e
00000350: 9e84 b83e cf69 02be e1ec 643d a64a 20be
00000360: 53af cd3d 8117 613e d982 f0bd a06c 5a3e
00000370: 3284 2c3e 0977 5dbb 67dd d2bc 44c5 ce3e
00000380: fa93 dfbe 30be 95bd 9bf6 8d3e 5a4e 933e
00000390: 70bd 663c a380 9dbd 2152 56be 8d1e 43be
000003a0: 09b8 b1be bc79 6e3e 9ca2 563e beac ab3d
000003b0: 9900 0dbe b23c e5b9 74d4 973e 001f 3bbe
000003c0: 3eb3 2e3e 28d5 d3bc b65c 953e 52cc 4a3d
000003d0: 6eec 333e 8baa 983c d27a 1a3e 4878 8dbe
000003e0: ccab 943e f2f5 943e 996a a0be c57b 443c
000003f0: ece7 3d3e 3ebd f43d fd91 b73d 8707 85be

network_body._body_endoder.seq_layers.2.bias f4 [128]
-0.01190004 -0.08739046 -0.031987846 0.07694824 0.16343375 -0.06598365 0.051152907 0.07252093
-0.048542846 0.1595468 0.06824261 -0.007041118 -0.022756968 -0.033268746 -0.068556346 0.09997226
-0.19017461 0.0477811 0.14573967 -0.055774216 -0.031797342 -0.026354922 -0.004814566 0.025736751
0.05551791 0.009943015 -0.0784765 -0.2221883 0.09614419 -0.1016035 -0.10158533 -0.26387116
-0.09459359 -0.19087857 -0.044660892 0.029738097 -0.04322691 -0.088456385 0.09790103 0.07216096
0.058468785 0.10749334 -0.13032289 -0.15160605 0.12274023 -0.16608785 0.099483766 -0.037895642
-0.05255579 0.10786317 0.06188749 -0.017322108 -0.21188979 -0.08258512 -0.13792853 0.007180696
-0.08218953 -0.04243984 -0.061509985 -0.00914359 -0.037605308 0.1077509 0.059407666 0.00071239355
0.11467414 0.014239974 -0.15725686 0.027970005 0.12569176 -0.097343095 -0.16112849 0.05814693
0.119907364 -0.01769217 0.052889016 0.05073644 0.006098698 0.043529704 0.10757653 -0.0060102856
-0.21080762 -0.05806174 -0.0017569616 -0.020604666 0.018247772 0.04229073 0.11375971 0.004705989
-0.1683988 -0.036486976 0.03928262 -0.07589876 -0.1706901 -0.2125261 -0.24101822 -0.16439718
-0.124315225 0.097475566 0.09412202 0.03300163 0.17920224 0.1075098 -0.08443137 -0.041563172
0.014619527 0.04886667 0.05379059 -0.059399825 0.060469814 0.10508388 0.12440215 0.13449347
-0.037649743 -0.045131948 0.08768112 -0.1302858 0.056058016 0.020218546 0.06915914 -0.042712994
0.13046876 0.14525484 0.11381144 0.03163474 -0.119734935 0.03747661 -0.08117089 -0.14557593
00000000: 63f8 42bc c5f9 b2bd b005 03bd 0a97 9d3d
00000010: 2d5b 273e 7022 87bd b685 513d da85 943d
00000020: ddd4 46bd 3d60 233e c8c2 8b3d 2eb9 e6bb
00000030: d26c babc cf44 08bd 4567 8cbd 42be cc3d
00000040: 22bd 42be 1db6 433d c83c 153e 8173 64bd
00000050: ee3d 02bd 47e6 d7bc 82c3 9dbb e1d5 d23c
00000060: bf66 633d 07e8 223c 4ab8 a0bd 5485 63be
00000070: 3fe7 c43d 7f15 d0bd f80b d0bd 1f1a 87be
00000080: 49ba c1bd ac75 43be 57ee 36bd 4f9d f33c
00000090: b30e 31bd 9f28 b5bd 5680 c83d 20c9 933d
000000a0: f77c 6f3d 7825 dc3d 5d73 05be 9e3e 1bbe
000000b0: 3b5f fb3d ef12 2abe 25be cb3d 7638 1bbd
000000c0: bd44 57bd 5ee7 dc3d bd7d 7d3d 18e7 8dbc
000000d0: a3f9 58be 6322 a9bd 233d 0dbe 0b4c eb3b
000000e0: fc52 a8bd 66d5 2dbd e5f1 7bbd ffce 15bc
000000f0: 0608 1abd 81ac dc3d 7455 733d ecbf 3a3a
00000100: 47da ea3d c84e 693c f107 21be 5a21 e53c
00000110: 57b5 003e d15b c7bd defe 24be 7a2b 6e3d
00000120: fe91 f53d 2bef 90bc 27a2 583d 03d1 4f3d
00000130: 96d7 c73b 344c 323d 1551 dc3d eef1 c4bb
00000140: f4dd 57be 26d2 6dbd d949 e6ba 1ecb a8bc
00000150: 5a7c 953c 0b39 2d3d dafa e83d b234 9a3b
00000160: bc70 2cbe 5e73 15bd d0e6 203d cf70 9bbd
00000170: 63c9 2ebe 71a0 59be 7bcd 76be bc57 28be
00000180: fb98 febd 45a1 c73d 0cc3 c03d b82c 073d
00000190: cb80 373e 192e dc3d 5bea acbd 253e 2abd
000001a0: be86 6f3c 6b28 483d 8653 5c3d 3b4d 73bd
000001b0: 32af 773d 3836 d73d 8ec6 fe3d a8b8 093e
000001c0: 9e36 1abd 47dc 38bd 2992 b33d a469 05be
000001d0: 179d 653d 5da1 a53c 4fa3 8d3d d2f3 2ebd
000001e0: 9a99 053e afbd 143e f915 e93d 6e93 013d
000001f0: 9737 f5bd 1381 193d ec3c a6bd db11 15be

action_model._continuous_distribution.log_sigma f4 [1, 4]
2.8798504 3.4841914 5.553188 4.573521
00000000: 784f 3840 fefc 5e40 b7b3 b140 495a 9240

action_model._continuous_distribution.mu.weight f4 [4, 128]
1.4325701 1.561902 -1.3337452 -0.81164944 -1.783443 -0.08076348 0.7980144 1.1988395
-0.4493499 -1.3410182 -1.0838302 1.775771 1.44073 -0.7370766 0.3119469 0.45668578
-1.3081473 -1.1530939 1.4020576 1.3246877 -0.82313263 0.59852064 1.5199324 0.6593491
0.67422163 -0.046104178 0.6943393 -0.790569 -0.17155503 -1.3847421 -0.3446187 -0.067064375
-0.9790362 -0.9581842 -1.3297191 -0.540769 -0.34604076 0.52366513 -1.457413 -1.0692451
-1.5949962 -0.72959584 -0.3931496 0.7088697 -0.7288654 -1.1553575 -0.5530753 -0.50062567
0.029059533 1.6114751 0.8182324 -0.76905006 1.1687193 1.192323 -0.6997869 0.6795176
-1.8563496 1.0702554 0.5891687 -1.4359288 0.8239434 0.71811783 -1.0430982 -0.30580404
-1.0879617 0.9207107 -1.5897057 0.24892682 -0.12790433 0.7013701 -0.44593656 -0.047605194
1.3028849 -0.492242 1.0497291 0.76017666 0.5980097 -0.9833047 1.0755075 -1.5012378
0.22567779 1.5584366 -0.6727576 -1.3266803 1.7879821 -1.1479322 -1.5120355 0.4987274
-0.95867985 0.20923854 1.028909 -0.6637184 1.8223344 0.30262914 0.22854868 0.77356327
0.8729899 0.85290945 -1.0390568 -1.3228203 0.6312689 1.0481762 0.8169871 -1.8424506
-0.550831 1.3401484 0.62492025 -0.15719983 -0.42936724 0.26048678 0.2665121 0.14167885
-0.3650354 -0.7888879 0.97770894 -0.63884175 -0.97325784 1.4820365 1.4045846 -0.95979714
0.6838636 -0.46575665 1.590282 -1.0456947 1.5919297 0.99549216 0.6690636 0.45894963
1.7180618 -0.21229059 -1.3238435 -0.83721364 -0.054654226 1.2438514 -0.37034112 1.4260266
0.78723115 -0.4976998 -1.3415161 -0.82832575 1.1842324 2.40245 -0.68575877 1.4580721
-1.8712652 0.21403484 0.12729698 0.05069974 -0.16747661 -1.3373954 0.20680651 -0.7677103
-0.48208472 -0.011057398 1.6288857 0.644801 -1.362359 1.6221936 2.1941028 1.3308274
1.9533634 1.7170885 -0.65914994 1.8666482 1.1242588 1.6197146 -1.5527792 -0.78948593
1.261364 1.091493 0.4312668 -1.1344832 1.6406258 -1.6007819 0.12823585 -1.197168
0.88246787 -0.1884932 1.6815813 0.42483315 1.2960302 -0.43491536 -0.97114015 1.7931275
-0.86013466 1.4245604 -0.2106282 1.1004205 0.7538247 -1.8139963 -1.0713745 -1.8439262
-0.9591575 1.670307 1.6302127 -2.043443 -1.0376766 -0.5771884 0.65517014 1.0955584
-0.75336975 -0.15971398 -0.48795393 -1.1377434 -1.4717753 -0.3060234 0.09829655 0.38901946
1.8267225 -1.1461334 1.3619395 -1.3181411 0.8241249 0.38234818 0.69986475 -1.7071211
1.8539128 1.5865508 0.3181542 0.94151217 -0.014578325 -0.66819733 0.83837324 -0.040159058
0.23424768 -1.7947444 1.2286184 1.4754727 0.9568633 1.9268367 -0.074618526 0.29725555
0.5823605 0.8568335 1.2040044 -1.3984354 1.7281194 -0.1533695 1.4802507 0.33678097
1.504486 -0.3752342 -1.3663588 1.2715068 -0.02037383 -1.4483045 -0.17204489 0.21122381
1.325117 0.0037516528 -0.20337911 2.2222054 -0.19844393 1.3119882 0.684319 -2.2243192
00000000: 755e b73f 68ec c73f 2ab8 aabf 42c8 4fbf
00000010: dc47 e4bf 5367 a5bd ac4a 4c3f 9373 993f
00000020: 3111 e6be 7ca6 abbf f3ba 8abf 774c e33f
00000030: d769 b83f 0db1 3cbf 81b7 9f3e b8d2 e93e
00000040: 5f71 a7bf 9598 93bf a076 b33f 5e8f a93f
00000050: d2b8 52bf a638 193f 258d c23f 1acb 283f
00000060: ca99 2c3f bcd7 3cbd 38c0 313f bb62 4abf
00000070: 1fac 2fbe 3b3f b1bf dd71 b0be 0c59 89bd
00000080: 1ea2 7abf 8f4b 75bf 3c34 aabf d66f 0abf
00000090: 412c b1be eb0e 063f 828c babf 06dd 88bf
000000a0: d628 ccbf cbc6 3abf e84a c9be 7c78 353f
000000b0: ec96 3abf c1e2 93bf 5896 0dbf 0129 00bf
000000c0: 420e ee3c d144 ce3f ae77 513f 77e0 44bf
000000d0: 9898 953f 0a9e 983f 3c25 33bf def4 2d3f
000000e0: dd9c edbf 21fe 883f c3d3 163f 84cc b7bf
000000f0: f4ed 523f 92d6 373f 3e84 85bf 5992 9cbe
00000100: 5442 8bbf b2b3 6b3f 7a7b cbbf ace6 7e3e
00000110: 5af9 02be fe8c 333f cc51 e4be aafd 42bd
00000120: efc4 a63f 2507 fcbe 865d 863f f09a 423f
00000130: 2a17 193f dbb9 7bbf 3baa 893f 8f28 c0bf
00000140: 1418 673e da7a c73f d839 2cbf a9d0 a9bf
00000150: 99dc e43f 71ef 92bf 618a c1bf 3359 ff3e
00000160: 0b6c 75bf a142 563e 4ab3 833f 73e9 29bf
00000170: 4142 e93f 35f2 9a3e aa08 6a3e 3e08 463f
00000180: 447c 5f3f 4658 5a3f d0ff 84bf 2d52 a9bf
00000190: d79a 213f a32a 863f 1126 513f 6cd5 ebbf
000001a0: 4303 0dbf fc89 ab3f c6fa 1f3f fef8 20be
000001b0: 06d6 dbbe 865e 853e 4674 883e 4314 113e
000001c0: ece5 babe 8ff4 49bf 224b 7a3f 228b 23bf
000001d0: 6d27 79bf 5fb3 bd3f 6ec9 b33f 44b5 75bf
000001e0: af11 2f3f a877 eebe 5c8e cb3f 53d9 85bf
000001f0: 5ac4 cb3f 93d8 7e3f c147 2b3f 72fb ea3e
00000200: 73e9 db3f b462 59be b473 a9bf a253 56bf
00000210: 1cdd 5fbd 8636 9f3f 5a9d bdbe 0a88 b63f
00000220: fb87 493f 82d2 febe cdb6 abbf 280d 54bf
00000230: ed94 973f bec1 1940 e38d 2fbf 1ba2 ba3f
00000240: 9e85 efbf f32b 5b3e 245a 023e 88aa 4f3d
00000250: fd7e 2bbe c62f abbf 16c5 533e aa88 44bf
00000260: cfd3 f6be 172a 35bc 547f d03f ae11 253f
00000270: c861 aebf 0aa4 cf3f 2e6c 0c40 8d58 aa3f
00000280: d007 fa3f 8ec9 db3f 0dbe 28bf 54ee ee3f
00000290: b6e7 8f3f cf52 cf3f 78c1 c6bf c01b 4abf
000002a0: 6074 a13f 0bb6 8b3f 01cf dc3e bf36 91bf
000002b0: 0700 d23f 6ce6 ccbf 4250 033e cd3c 99bf
000002c0: 6ae9 613f 5d04 41be 0e3e d73f bb83 d93e
000002d0: 51e4 a53f 3aad debe a49c 78bf 3485 e53f
000002e0: c931 5cbf ff57 b63f ebae 57be 94da 8c3f
000002f0: a8fa 403f 0831 e8bf cd22 89bf c605 ecbf
00000300: 598b 75bf 9fcc d53f cfaa d03f c5c7 02c0
00000310: 96d2 84bf 9ec2 13bf 3bb9 273f 423b 8c3f
00000320: d7dc 40bf 108c 23be 19d5 f9be 93a1 91bf
00000330: 2263 bcbf 19af 9cbe b44f c93d 8f2d c73e
00000340: 0bd2 e93f 80b4 92bf 0954 ae3f d9b8 a8bf
00000350: d9f9 523f 24c3 c33e 562a 333f f282 dabf
00000360: 044d ed3f 1914 cb3f 1be5 a23e f106 713f
00000370: edd9 6ebc fb0e 2bbf a19f 563f d37d 24bd
00000380: a0de 6f3e 2fba e5bf 5e43 9d3f 4adc bc3f
00000390: fef4 743f 96a2 f63f 99d1 98bd e131 983e
000003a0: 9415 153f 7159 5b3f d11c 9a3f eeff b2bf
000003b0: 0433 dd3f e50c 1dbe db78 bd3f 8e6e ac3e
000003c0: ff92 c03f b21e c0be d8e4 aebf bcc0 a23f
000003d0: 05e7 a6bc 0b62 b9bf 892c 30be 0e4b 583e
000003e0: 6f9d a93f 4ade 753b 9d42 50be 9d38 0e40
000003f0: e334 4bbe 3bef a73f 882f 2f3f 3f5b 0ec0

action_model._continuous_distribution.mu.bias f4 [4]
0.34186125 -0.09057924 0.14292237 0.5429607
00000000: 7008 af3e 9c81 b9bd 3e5a 123e 79ff 0a3f

onnx::LSTM_102 f4 [1, 512, 128]
0.16501741 0.23099114 0.27488983 0.13418938 -0.06743984 -0.3185363 0.05208172 0.11103088
-0.18770592 0.16320059 -0.44546926 -0.10758137 0.15515384 -0.29828507 0.16120407 0.23833261
-0.007945718 0.10528524 0.13841932 -0.17361258 -0.21372202 -0.4052159 -0.2822129 0.080546394
-0.17831111 -0.08288757 -0.103276506 0.29503876 0.29346463 0.40529963 -0.046707362 0.048810977
-0.08849878 -0.5197551 -0.15269768 -0.3339677 0.39363712 0.13094053 0.41165882 -0.022155229
-0.17360996 -0.13795921 -0.28596413 0.03340895 0.31303835 -0.26374856 0.03747245 0.26732975
-0.21556613 0.7150049 -0.09096113 -0.3294613 -0.5660213 -0.27040583 -0.2675182 -0.18005688
-0.21901639 -0.5702083 0.19642273 0.34497708 -0.19182725 -0.17046814 0.056222726 0.0450772
-0.13283074 0.2187957 -0.10690423 -0.10620201 0.20272101 -0.31782955 -0.048918907 0.07241583
-0.08174715 0.07250985 0.505122 -0.1893597 0.38079667 0.4327766 -0.1273693 -0.17429604
-0.5577586 -0.1316137 -0.0686429 0.26741615 0.1751465 0.529088 0.34890643 -0.043523174
-0.3352601 -0.106727056 0.14388883 -0.28954643 -0.15517935 -0.32033086 -0.22536989 0.07609497
-0.4253665 0.5275848 0.02301982 -0.086989604 -0.04522483 0.55294806 0.1318667 0.16052319
0.0713356 0.21301648 -0.06664488 0.12253232 0.129565 -0.034698915 -0.27583462 0.43839532
0.09250515 -0.31876034 -0.087554164 -0.3256527 -0.28455198 -0.15454626 -0.092777446 0.04231127
0.36159906 -0.098524496 0.09627908 -0.1652583 -0.15342821 -0.038005196 -0.34384882 0.015783457
-0.030478187 0.10615801 -0.05586955 -0.31797516 0.11967786 0.19126898 -0.15985127 0.10093919
-0.13012113 0.2057493 0.030191438 0.1090543 -0.14627297 0.07113159 -0.010993212 -0.04813956
-0.04778933 0.09871278 -0.0825617 -0.060003124 -0.24047382 -0.024485141 0.024466965 0.03198642
0.19943649 -0.13868016 0.2877319 -0.102773525 0.26758286 0.2745098 0.40003484 -0.18050058
0.3738406 0.09812209 -0.09383644 0.13476573 0.04386587 0.14034584 0.22537747 0.19271208
0.19130972 0.21261863 -0.24380054 -0.38058162 -0.26530573 -0.20204097 -0.08528326 -0.14570145
-0.0038591183 -0.14768082 0.29167682 -0.035729486 0.23902357 0.06530625 0.14750552 0.1954272
0.17351148 -0.21841763 0.0068989783 0.15821055 -0.029805647 -0.12340468 0.35849094 -0.06263214
-0.32394287 0.16462539 -0.13698801 -0.030021496 0.26124534 -0.17288093 -0.17861508 0.3224782
-0.121031284 0.117038056 0.27444106 -0.079338975 0.13195166 -0.030468384 0.13929531 -0.17318296
0.2596805 -0.18607661 -0.22365977 0.3559568 -0.13936211 0.35348 0.03427912 -0.33750162
-0.084376976 -0.08444797 0.062511 -0.27180228 -0.12365166 -0.3170842 -0.16322257 0.09023478
0.027901135 0.19413072 0.13719717 0.000813402 0.22900717 0.10084662 0.03340625 -0.044782195
-0.18369414 -0.06702239 -0.13405609 -0.26968798 -0.099851236 0.03773454 0.2184285 0.25475407
0.27128288 0.19856775 -0.07442313 -0.03876356 -0.032572184 0.3238135 0.32886392 0.26946455
-0.2867561 -0.19428219 0.21033736 0.08422811 -0.08924983 0.0034778228 0.054285247 -0.107202075
00000000: 53fa 283e f188 6c3e 5cbe 8c3e f168 093e
00000010: e61d 8abd 3117 a3be a453 553d 2864 e33d
00000020: fb35 40be 0e1e 273e 8c14 e4be 9f53 dcbd
00000030: a6e0 1e3e d2b8 98be ae12 253e 770d 743e
00000040: c22e 02bc ca9f d73d cbbd 0d3e 7fc7 31be
00000050: f2d9 5abe 7578 cfbe 367e 90be 82f5 a43d
00000060: 3097 36be f5c0 a9bd a282 d3bd 520f 973e
00000070: ff40 963e 6f83 cf3e 3850 3fbd 05ee 473d
00000080: d93e b5bd ac0e 05bf c85c 1cbe d0fd aabe
00000090: ce8a c93e 4615 063e f2c4 d23e e27e b5bc
000000a0: cfc6 31be 2e45 0dbe e469 92be d3d7 083d
000000b0: 9046 a03e 0d0a 87be b67c 193d 72df 883e
000000c0: 5ebd 5cbe 900a 373f d449 babd 27af a8be
000000d0: c6e6 10bf a272 8abe 25f8 88be d560 38be
000000e0: d545 60be 2cf9 11bf 0a23 493e d6a0 b03e
000000f0: 5d6e 44be 338f 2ebe cd49 663d dfa2 383d
00000100: c804 08be fb0b 603e 9bf0 dabd 7080 d9bd
00000110: 1996 4f3e 8eba a2be 315f 48bd c04e 943d
00000120: 0d6b a7bd 0b80 943d ad4f 013f 82e7 41be
00000130: c8f7 c23e e594 dd3e 196d 02be a97a 32be
00000140: 45c9 0ebf bec5 06be a694 8cbd c5ea 883e
00000150: 9b59 333e 5072 073f dda3 b23e 5b45 32bd
00000160: 36a7 abbe b793 dabd 9857 133e 6e3f 94be
00000170: 56e7 1ebe 6802 a4be 5dc7 66be aed7 9b3d
00000180: a3c9 d9be cc0f 073f 1094 bc3c 9b27 b2bd
00000190: ac3d 39bd 018e 0d3f 1008 073e 3160 243e
000001a0: 6618 923d fe20 5a3e 1c7d 88bd 3af2 fa3d
000001b0: b0ac 043e 7320 0ebd 323a 8dbe 5a75 e03e
000001c0: 5773 bd3d 8e34 a3be 994f b3bd f3bb a6be
000001d0: ccb0 91be 6041 1ebe 1a02 bebd 954e 2d3d
000001e0: 8323 b93e 36c7 c9bd f72d c53d 7939 29be
000001f0: 491c 1dbe 56ab 1bbd f40c b0be 4f4c 813c
00000200: 64ad f9bc 5f69 d93d 78d7 64bd a4cd a2be
00000210: aa19 f53d 04dc 433e 0db0 23be 35b9 ce3d
00000220: 793e 05be f2af 523e 0954 f73c dc57 df3d
00000230: 95c8 15be 70ad 913d e01c 34bc fd2d 45bd
00000240: bfbe 43bd ed29 ca3d 1c16 a9bd d6c5 75bd
00000250: c53e 76be 1095 c8bc f26e c83c 3104 033d
00000260: 1439 4c3e 2c02 0ebe 9851 933e ed7a d2bd
00000270: 9f00 893e 8c8c 8c3e 5ed1 cc3e 25d5 38be
00000280: 0968 bf3e 3cf4 c83d 522d c0bd 0700 0a3e
00000290: b3ac 333d d2b6 0f3e 5ac9 663e 5156 453e
000002a0: b2e6 433e b3b8 593e d9a6 79be 98db c2be
000002b0: 27d6 87be d4e3 4ebe fda8 aebd c332 15be
000002c0: 43e9 7cbb a439 17be aa56 953e 1559 12bd
000002d0: 98c2 743e 48bf 853d b00b 173e 111e 483e
000002e0: feac 313e dfa8 5fbe d310 e23b f201 223e
000002f0: f92a f4bc 98bb fcbd 208c b73e 4845 80bd
00000300: d7db a5be 8f93 283e 9646 0cbe a4ef f5bc
00000310: f3c1 853e b307 31be dfe6 36be dd1b a53e
00000320: 40df f7bd a6b1 ef3d 8a83 8c3e 797c a2bd
00000330: 561e 073e d598 f9bc 6ea3 0e3e e056 31be
00000340: d8f4 843e de8a 3ebe 1107 65be f83f b63e
00000350: f1b4 0ebe 55fb b43e 4368 0c3d 03cd acbe
00000360: d6cd acbd 0ff3 acbd c405 803d ab29 8bbe
00000370: 153d fdbd dc58 a2be d123 27be 03cd b83d
00000380: ec90 e43c 34ca 463e 6a7d 0c3e 7c3a 553a
00000390: db80 6a3e ac88 ce3d fed4 083d 896d 37bd
000003a0: 511a 3cbe 0943 89bd 0046 09be 8b14 8abe
000003b0: ce7e ccbd 888f 1a3d b9ab 5f3e 206f 823e
000003c0: 97e5 8a3e 5855 4b3e 276b 98bd 8ac6 1ebd
000003d0: 696a 05bd e2ca a53e da60 a83e 42f7 893e
000003e0: b2d1 92be e9f1 46be ad62 573e ca7f ac3d
000003f0: 9dc8 b6bd 2fec 633b 355a 5e3d c38c dbbd

onnx::LSTM_103 f4 [1, 512, 128]
-0.014009923 0.2389039 -0.30723163 -0.39635026 -0.5246355 0.07417132 0.1414136 0.6008535
-0.050396595 -0.07084333 0.42308983 -0.506062 -0.31364244 -0.4107442 -0.18118472 -0.6343232
-0.18254185 -0.42847958 0.46393883 0.17637071 0.17109971 0.017856637 0.11449659 0.3181003
-0.2603732 -0.48931396 -0.6440204 0.15384363 -0.2748635 -0.5209332 -0.28586873 0.16241665
0.44063094 -0.1187067 -0.091567054 0.36657917 -0.04255379 0.61554265 -0.25011182 0.49752653
-0.16826457 -0.23470366 0.025251636 -0.09574599 -0.24968933 0.025484523 -0.2588287 0.50761366
0.038389523 -0.5048113 0.3618274 -0.13200991 0.3015204 0.49813887 0.013996857 -0.14409705
-0.377882 0.19177996 -0.15411435 -0.22322792 0.5919527 0.76074857 -0.11046392 0.087863036
-0.011683588 0.1647093 0.07061952 0.68531275 0.25949827 0.17414209 0.4762929 -0.048707236
-0.4208178 -0.17456321 -0.37642992 0.11028402 -0.0731392 0.014933722 -0.4041761 -0.24287732
-0.12311592 0.47895867 -0.15499243 -0.33776617 0.1509745 0.0147342365 -0.20034763 0.10975436
-0.22561137 0.42363414 -0.06995989 -0.25199375 -0.44868863 0.17571956 0.1892348 0.15592583
0.19083627 0.24531128 -0.37491617 0.008120144 -0.07844727 -0.4249578 0.22947258 0.14529747
0.15026337 0.09458522 0.41663316 -0.042786773 0.2888247 -0.6479169 0.15713878 -0.27330855
0.5460578 -0.56354094 -0.049111873 0.23446234 0.4352558 0.55326205 0.23430549 0.255484
-0.096883394 0.28083968 -0.15414067 -0.3299052 0.1932318 -0.09247777 -0.34751615 -0.24040309
-0.025424879 0.0006883818 -0.30689174 -0.058161788 -0.06327574 0.028072933 0.29485208 0.11113045
-0.383408 -0.4577343 -0.0694354 -0.5453044 -0.09653391 -0.31005937 0.0032423658 -0.01466902
-0.0583672 -0.09241746 0.27158928 0.020609308 0.5962974 0.3592545 -0.16489567 -0.044517945
-0.13395369 0.4385889 -0.06871993 0.1688161 -0.16770197 -0.03982026 -0.28739575 0.07901173
-0.23050182 0.2774594 -0.4133557 -0.06732685 0.2778547 0.13714448 0.14826642 0.2403429
-0.1375464 -0.32449293 -0.68487597 -0.026840558 0.062414102 -0.2517112 -0.50176114 0.053962927
-0.3656256 0.36282584 0.33007964 0.22319232 0.27680036 -0.1639397 -0.5204806 0.0028803144
-0.13279155 0.14512236 0.108763956 -0.032092053 -0.35954812 0.30575103 0.09738091 0.031844
-0.20297508 0.16645753 0.08290994 0.30789077 0.038986184 0.38345322 0.11147566 -0.002587064
0.06421209 -0.1945337 0.11177255 0.13610104 -0.080261044 -0.2317018 -0.06717117 0.24095647
0.019381508 0.20586714 -0.3417804 -0.17235793 0.19011301 -0.57353055 -0.37081206 0.11468932
0.06808208 0.41653514 -0.16408211 -0.12857673 -0.32013968 -0.2209392 -0.015315351 0.22858891
0.22521059 0.3750169 0.006992305 0.3664932 -0.08965236 0.059613697 -0.021406133 -0.16923304
0.3429164 0.22576946 0.19421412 0.12901281 -0.14415745 0.115821436 0.3180815 -0.24773104
-0.10039679 0.41288215 0.230961 -0.24631663 -0.046903554 0.35046604 -0.39458525 0.1413241
0.24393521 0.45498684 0.19783895 0.03134719 -0.015541438 -0.20751448 0.13297816 0.058994945
00000000: e089 65bc 39a3 743e 774d 9dbe 6cee cabe
00000010: 834e 06bf 22e7 973d bace 103e 89d1 193f
00000020: a96c 4ebd 4f16 91bd 3b9f d83e 478d 01bf
00000030: be95 a0be 104d d2be 7d88 39be 0163 22bf
00000040: 40ec 3abe ad61 dbbe 6489 ed3e 869a 343e
00000050: c334 2f3e 1548 923c 307d ea3d 0bde a23e
00000060: a34f 85be 5c87 fabe 85de 24bf 2f89 1d3e
00000070: e9ba 8cbe e15b 05bf 635d 92be 8d50 263e
00000080: 619a e13e 801c f3bd 8287 bbbd 44b0 bb3e
00000090: e24c 2ebd 3494 1d3f a80e 80be ccbb fe3e
000000a0: 8c4d 2cbe 2856 70be 85dc ce3c 7916 c4bd
000000b0: 8fae 7fbe ebc4 d03c 3285 84be f8f2 013f
000000c0: 553e 1d3d 503b 01bf 7141 b93e 9b2d 07be
000000d0: e260 9a3e 0f0c ff3e 1353 653c 2d8e 13be
000000e0: c079 c1be f761 443e 27d0 1dbe dc95 64be
000000f0: 368a 173f 6bc0 423f e83a e2bd 89f1 b33d
00000100: 856c 3fbc 8ea9 283e f8a0 903d a870 2f3f
00000110: f5dc 843e 4e52 323e aadc f33e 3d81 47bd
00000120: 6e75 d7be b3c0 32be 6cbb c0be 97dc e13d
00000130: 01ca 95bd 92ac 743c 2bf0 cebe d5b4 78be
00000140: 3324 fcbd 123a f53e 56b6 1ebe b0ef acbe
00000150: 0f99 1a3e de67 713c ee27 4dbe e5c6 e03d
00000160: ab06 67be 93e6 d83e 2147 8fbd 5305 81be
00000170: 84ba e5be d4ef 333e c4c6 413e 05ab 1f3e
00000180: 956a 433e e132 7b3e 03f5 bfbe 5a0a 053c
00000190: f6a8 a0bd 1294 d9be dcfa 6a3e dcc8 143e
000001a0: a4de 193e e5b5 c13d f150 d53e 2f41 2fbd
000001b0: d5e0 933e e2dd 25bf fde8 203e 19ef 8bbe
000001c0: 72ca 0b3f 3844 10bf 8829 49bd e516 703e
000001d0: d9d9 de3e 95a2 0d3f c7ed 6f3e cdce 823e
000001e0: cd6a c6bd 38ca 8f3e 0dd7 1dbe 56e9 a8be
000001f0: 8fde 453e fc64 bdbd a3ed b1be 3a2c 76be
00000200: d647 d0bc 8574 343a ea20 9dbe 0e3b 6ebd
00000210: b696 81bd 35f9 e53c daf6 963e 5d98 e33d
00000220: 0e4e c4be 265c eabe 2634 8ebd 1299 0bbf
00000230: 92b3 c5bd 1ac0 9ebe df7d 543b 5456 70bc
00000240: 7212 6fbd 5e45 bdbd c00d 8b3e dad4 a83c
00000250: f2a6 183f 35f0 b73e 69da 28be 7358 36bd
00000260: 282b 09be b98e e03e 09bd 8cbd 21de 2c3e
00000270: 11ba 2bbe 921a 23bd 8925 93be e7d0 a13d
00000280: ab08 6cbe 290f 8e3e 5ca3 d3be a9e2 89bd
00000290: f942 8e3e 9a6f 0c3e 27d3 173e 731c 763e
000002a0: f7d8 0cbe f023 a6be 0854 2fbf bbe0 dbbc
000002b0: eea5 7f3d 4ae0 80be 6b73 00bf 3b08 5d3d
000002c0: 4733 bbbe 4fc4 b93e 3300 a93e 878c 643e
000002d0: c7b8 8d3e cfdf 27be 373e 05bf a8c3 3c3b
000002e0: 82fa 07be f59a 143e a3bf de3d f572 03bd
000002f0: b116 b8be 668b 9c3e a46f c73d db6e 023d
00000300: b3d8 4fbe d873 2a3e b0cc a93d dca3 9d3e
00000310: faaf 1f3d fb53 c43e 5a4d e43d bb8b 29bb
00000320: a181 833d d833 47be 02e9 e43d 125e 0b3e
00000330: e75f a4bd 3d43 6dbe 0a91 89bd 4bbd 763e
00000340: f8c5 9e3c d6ce 523e d7fd aebe 997e 30be
00000350: fcac 423e e6d2 12bf 14db bdbe 3ce2 ea3d
00000360: 9e6e 8b3d 1844 d53e 2405 28be 9ea9 03be
00000370: 59e9 a3be e33d 62be 3ded 7abc 3613 6a3e
00000380: 9b9d 663e 3702 c03e b51f e53b ffa4 bb3e
00000390: a89b b7bd 7e2d 743d ea5b afbc 6d4b 2dbe
000003a0: bd92 af3e 1c30 673e 11e0 463e ef1b 043e
000003b0: 039e 13be ca33 ed3d 94db a23e 35ad 7dbe
000003c0: d59c cdbd 4a65 d33e 0a81 6c3e 6d3a 7cbe
000003d0: f11d 40bd 4970 b33e 1407 cabe 44b7 103e
000003e0: 27ca 793e 09f4 e83e 4b96 4a3e e965 003d
000003f0: 84a1 7ebc ad7e 54be 6d2b 083e afa4 713d

onnx::LSTM_104 f4 [1, 1024]
0.2308691 0.15255763 0.09189999 0.046360053 0.12762898 -0.055891182 0.08954558 -0.072909325
-0.13552146 0.10431893 -0.038155712 -0.07822994 -0.10017634 -0.042788774 -0.116227984 0.055057555
0.09254674 0.05207863 -0.041877035 0.074641086 -0.03801547 0.3404638 -0.12609944 0.073901325
-0.1164828 -0.10578661 -0.1448466 -0.15778565 0.069848284 0.18960364 0.052888796 -0.05044613
0.17224833 0.055267926 -0.18629007 0.100467004 -0.07148644 0.03260929 0.11555811 0.14616446
0.31364277 0.040847387 -0.081018336 -0.23544385 0.09870027 -0.123372994 0.10299655 0.06784831
-0.0050431183 0.015257783 -0.09246761 0.13965023 0.1650183 0.076493695 0.059171107 -0.03931672
0.08559178 -0.17533882 0.099384956 -0.07279638 0.010983606 0.13357608 0.0439622 0.086209275
0.1977468 0.02375284 0.10977201 0.040048745 0.07371262 0.094292365 -0.020641277 -0.32365116
0.0047963215 0.07914241 0.028841952 -0.09601027 0.08679643 0.05788197 -0.079408295 -0.15667383
0.02790553 -0.13836166 0.008160895 -0.07980789 -0.024521474 -0.0612631 -0.013249846 0.0801617
0.05228531 0.11313807 0.00975399 0.17902698 7.283658e-05 0.082693845 0.06826249 0.03677651
-0.07952767 0.15967916 0.12399123 -0.02448083 -0.13958816 -0.08756463 0.16365518 0.07461162
0.06217048 0.020861713 -0.048835326 -0.23172048 -0.024253132 0.11744155 -0.065627694 -0.15093078
0.07297959 -0.12017207 0.045315776 -0.054138668 0.05648538 0.18018787 0.15355115 0.18232346
0.026069673 0.11762681 0.046259854 -0.021458028 -0.095052175 0.00197778 -0.021786936 0.105550095
0.101874135 0.09142144 -0.12621076 0.013339313 0.17323361 0.042380065 -0.037863445 0.027885428
-0.038065262 0.17231941 0.040921018 -0.04085738 0.1322476 0.051235806 -0.0026175645 -0.16230577
-0.08634749 -0.003219868 -0.08723828 0.046334658 -0.029655656 0.167097 -0.057248767 0.092701346
0.038036723 -0.057226967 -0.04510366 -0.16047499 -0.007630296 0.07875392 -0.07220212 0.049961764
0.16370437 -0.19614284 0.14555383 0.039110783 0.16414951 -0.18046255 0.12522356 0.22024733
0.029361831 -0.16872402 -0.080912195 0.04480611 0.014738601 0.20386592 0.0015397444 -0.096361704
-0.0923514 0.16550283 0.10487422 0.0020660483 -0.13036817 -0.061782174 0.048263054 -0.10910673
0.22842532 -0.10015624 0.09725455 0.23892762 -0.097713776 0.071069755 -0.11109515 -0.08426368
0.23625697 0.25951812 0.080146395 0.009241748 -0.056514017 -0.06394628 -0.12385568 -0.02768915
-0.02956351 0.046438817 0.09042619 0.17307766 0.09710002 0.046984557 -0.070399106 0.13207486
0.15889388 0.13133939 0.010019998 0.043603353 0.007018164 0.3102132 0.055622607 -0.07565878
0.0012095907 0.11173089 -0.093366936 -0.0495305 -0.06536634 0.15837006 0.0851083 0.06154872
0.007149767 0.081622444 -0.013245511 -0.008339134 0.07732791 -0.1822321 0.028797207 0.15633956
0.087792054 0.059305105 0.041939132 -0.00067226525 0.062158585 0.1133862 0.151038 0.09304377
0.17478572 -0.19702366 0.27991274 -0.034705758 0.06417847 0.21063888 -0.00069732167 0.07646616
-0.14808542 0.09995611 0.00051874155 -0.011766905 0.061236016 0.21164376 -0.018599467 0.054322
00000000: f368 6c3e 1138 1c3e 1036 bc3d 0ae4 3d3d
00000010: 2cb1 023e 27ee 64bd ac63 b73d 7c51 95bd
00000020: 23c6 0abe 2aa5 d53d 2a49 1cbd 0537 a0bd
00000030: 4129 cdbd 4843 2fbd f008 eebd 0884 613d
00000040: 2589 bd3d 6750 553d 4187 2bbd 6ddd 983d
00000050: 1cb6 1bbd 4551 ae3e 3620 01be 9459 973d
00000060: 898e eebd a6a6 d8bd ab52 14be 9092 21be
00000070: 9e0c 8f3d 7527 423e eca1 583d 9aa0 4ebd
00000080: de61 303e 9f60 623d d3c2 3ebe a5c1 cd3d
00000090: 7c67 92bd 5291 053d bba9 ec3d 23ac 153e
000000a0: c995 a03e 974f 273d f1ec a5bd 3118 71be
000000b0: 5e23 ca3d fbaa fcbd dbef d23d 0ef4 8a3d
000000c0: be40 a5bb c8fb 793c a95f bdbd 7800 0f3e
000000d0: 8ffa 283e baa8 9c3d 675d 723d 920a 21bd
000000e0: be4a af3d 058c 33be 578a cb3d 4516 95bd
000000f0: 95f4 333c 2bc8 083e b511 343d 7d8e b03d
00000100: 237e 4a3e 5195 c23c 26d0 e03d 270a 243d
00000110: a4f6 963d 5b1c c13d e517 a9bc 9bb5 a5be
00000120: 762a 9d3b 6a15 a23d f545 ec3c 08a1 c4bd
00000130: 54c2 b13d a515 6d3d d1a0 a2bd 1b6f 20be
00000140: 239a e43c aeae 0dbe 46b5 053c 5272 a3bd
00000150: 42e1 c8bc 04ef 7abd e215 59bc d12b a43d
00000160: 1f29 563d efb4 e73d 33cf 1f3c d952 373e
00000170: d7bf 9838 645b a93d 34cd 8b3d f7a2 163d
00000180: 67df a2bd ef82 233e 1def fd3d 068c c8bc
00000190: 33f0 0ebe 1655 b3bd 3995 273e facd 983d
000001a0: 79a6 7e3d 2fe6 aa3c 8d07 48bd 2248 6dbe
000001b0: 81ae c6bc 3285 f03d d067 86bd 998d 1abe
000001c0: 5376 953d c61c f6bd 099d 393d 82c0 5dbd
000001d0: 375d 673d 2b83 383e 833c 1d3e 00b3 3a3e
000001e0: 1190 d53c 53e6 f03d f97a 3d3d bfc8 afbc
000001f0: b7aa c2bd a49d 013b 847a b2bc a62a d83d
00000200: 63a3 d03d 2a3b bb3d 653d 01be 228d 5a3c
00000210: 2764 313e b896 2d3d b316 1bbd fb6f e43c
00000220: 52ea 1bbd 8074 303e cc9c 273d 115a 27bd
00000230: ea6b 073e a3dc 513d 728b 2bbb 7c33 26be
00000240: f4d6 b0bd 6c04 53bb fca9 b2bd 69c9 3d3d
00000250: 6bf0 f2bc 7a1b 2b3e af7d 6abd 34da bd3d
00000260: 65cc 1b3d d366 6abd 9ebe 38bd 8e53 24be
00000270: 9007 fabb bc49 a13d b5de 93bd b5a4 4c3d
00000280: 1ea2 273e abd9 48be 100c 153e a132 203d
00000290: cf16 283e 2dcb 38be 9b3a 003e 8488 613e
000002a0: 3988 f03c fdc5 2cbe 4bb5 a5bd 9d86 373d
000002b0: 2c7a 713c 3ac2 503e 40d1 c93a 4959 c5bd
000002c0: bb22 bdbd 9379 293e 4cc8 d63d 8a66 073b
000002d0: 3c7f 05be 4e0f 7dbd 7baf 453d 5973 dfbd
000002e0: 54e8 693e b71e cdbd 652d c73d 71a9 743e
000002f0: 291e c8bd 058d 913d db85 e3bd 7092 acbd
00000300: 59ed 713e 8fdf 843e cb23 a43d b36a 173c
00000310: 3e7b 67bd 44f6 82bd 0ca8 fdbd 5bd4 e2bc
00000320: 2d2f f2bc a136 3e3d 5e31 b93d 453b 313e
00000330: 60dc c63d e172 403d 682d 90bd a23e 073e
00000340: 14b5 223e d57d 063e eb2a 243c 6e99 323d
00000350: a0f8 e53b 44d4 9e3e 88d4 633d fef2 9abd
00000360: 218b 9e3a 2ad3 e43d 2a37 bfbd 7ee0 4abd
00000370: cade 85bd c32b 223e 434d ae3d 831a 7c3d
00000380: 9848 ea3b ab29 a73d b303 59bc dda0 08bc
00000390: 185e 9e3d 0d9b 3abe 1fe8 eb3c 7a17 203e
000003a0: 52cc b33d e9e9 723d 5ec8 2b3d f53a 30ba
000003b0: 009a 7e3d 0637 e83d b5a9 1a3e bb8d be3d
000003c0: 07fb 323e 92c0 49be b950 8f3e a027 0ebd
000003d0: 0070 833d b8b1 573e 77cc 36ba 4a9a 9c3d
000003e0: b4a3 17be cab5 cc3d 28fc 073a fac9 40bc
000003f0: 9ed2 7a3d 24b9 583e e95d 98bc bf80 5e3d
