results/DroneAgentMG11/DroneAgent/DroneAgent-4899941.onnx (onnx, 724643 bytes, 10 tensors)

network_body._body_endoder.seq_layers.0.weight f4 [128, 236]
00000000: 5f09 0dbe 4fbc 8fbe 94df d23d fe3e 833e
00000010: dcc0 393e 8154 113f dfd9 10be 5895 583e
00000020: 9185 b53e b42a 513e 81f0 02be ca58 adbe
00000030: 697e 413c bad1 973e c0dc 683d 47a4 2c3f
00000040: 8957 44bd 3dcb 48bd 9bba 423d 492c af3d
00000050: 36ad 173e e0f9 26be 4534 a13e 50aa 6ebc
00000060: 0184 e63d 551c 693e b2cd 11bf 198b 5cbe
00000070: 325a 393f d086 60bd e9cf a2be 5ffc 1cbe
00000080: d3c3 533d 57f5 353f 5efb 9e3e 4a60 cb3e
00000090: 7f0d ebbe eae3 b4be bf5a 2a3f c813 603e
000000a0: 9c57 4bbd c4e5 65be 7ef4 b2bd 61d4 0d3f
000000b0: d49c 7b3e 8868 113f 589b febe f27f edbe
000000c0: c45b 603f d8b4 c83d 1df0 253f a9f5 b23d
000000d0: aeea 2fbe 4f1a 33bf b9bd b1be 9641 213f
000000e0: 1a54 55bd 8bcc e43c 7230 25bf e464 89be
000000f0: b4c6 0a3f 1e27 e0bd 18a0 af3d e6af 45bf
00000100: a6ee f4be caac 1f3f 110d 623d 87e2 083c
00000110: 6996 e3be 6f4e 00be e568 023e 28a8 723d
00000120: afe1 8d3d fbb0 c5be 43a6 34be 7729 de3e
00000130: 7b27 c3be 52e8 c8be 8d30 6ebe 1004 87be
00000140: fb3f 8a3e edf7 9bbe a5d6 cdbe 12a5 96be
00000150: 5c3f a5be d1c5 ed3e a039 c83c cfd5 3dbe
00000160: 5895 35bf 9f0c b2be c790 333e 0798 a8bc
00000170: 49cb d0be 3ac5 d1be 8108 8abe ef2e 973e
00000180: 2494 92bd 5592 b3bd d968 03bf 0d60 91be
00000190: a771 0b3e 676e e6bd 1ff8 9fbe 5745 393e
000001a0: 62f6 9d3d c74a 253e f323 44be 9aca cbbd
000001b0: f292 51bd 883b 2bbe 7794 2ebc 44ba e63d
000001c0: ba85 2ebe dc5b 6ebd 89e6 453e 7947 ba3e
000001d0: 6446 3cbf 8f43 10be ea23 4cbd f19b a9be
000001e0: 71f8 09bd 3712 9d3e ef95 92be 68ba dd3d
000001f0: 81fa 893e 9855 233f a57a 713e 4264 e8bd
00000200: 9248 69be 0eca babe b7ee be3d 9bb8 a13e
00000210: 172e 89bc 0486 8dbe 2de8 873d acd7 cf3e
00000220: f44d b83c e32c ddbc 2fa9 64bd 88a4 d9be
00000230: fd00 57bd 22e4 52be 4c6b 783d 5b08 093f
00000240: 0da2 0d3e 11b3 d73e 4cd3 96be 6751 883e
00000250: e8f6 a0be 0eec 8cbe 16ee 553d ac9e 9ebd
00000260: cd67 28bd 79b7 a23e 223e 2b3e 93e4 ec3e
00000270: 8472 0abe c8af 75bd 38ad bd3d e6dd 8cbe
00000280: 2876 9b3d baad 18bf 99af 063e efbe ffbe
00000290: eec0 b1bd 8b63 d9bd 8213 b03e fa3b b73d
000002a0: c898 a4be adc5 40be 1bff 823d 0238 0c3e
000002b0: 5619 efbc 2190 80be cebe 9dbd 0ec2 f83c
000002c0: dc85 e73e 9220 c5bd c5e0 edbe 51bc 42be
000002d0: 3e76 37be 6403 173c ce33 183d 78d8 613e
000002e0: 6afc 91bd 7506 903d 1088 3d3e 71d3 383e
000002f0: c9b9 22be 3c25 8fbc 61f3 a1bd 5f25 e63e
00000300: e7fb a3bd e7c5 5c3f 88c0 653e 1489 b03e
00000310: 71b4 a63c 1b95 d03d 96d4 043e 6ed1 5cbe
00000320: bf0b 653e 6489 913d 825c 7a3d f6d4 eb3d
00000330: a654 dbbd 7a6a 0bbf b492 b7bc 405f df3d
00000340: 57c4 283f c7d4 a63d 4c5d 453d a987 a43d
00000350: b2db 36bc c77d 533d 63d2 593f ec3a 70be
00000360: fcbd 133d 9e88 fe3e c6df df3e 7521 9bbe
00000370: a35b 9bbd 8e36 93bf dba9 c53d 4bd5 33be
00000380: f778 0b3d 0a7d 29be 6f39 8bbe e40f c83e
00000390: a0b6 783d 2e65 b1bd a89a e4be bc77 673f
000003a0: d4fc 493e dbf8 313f af70 ac3d fa40 fbbc
000003b0: 9a5f 003e d747 bb3e 7612 f2be 89d6 b1bd
000003c0: c5ff 25be 80fd a93d dacb 55bc 975e 133f
000003d0: 3b59 64be 5e55 4dbe a9ca 263e e3a8 55bd
000003e0: e262 bfbd c20b dbbd f728 edbd db16 fc3d
000003f0: c3db 1bbf 94bf c03e 3995 93bd 3934 51be
-0.13773106 -0.28073356 0.102965504 0.25633997 0.18139976 0.5676957 -0.14145611 0.2115072
0.35453466 0.20426446 -0.12787057 -0.33856803 0.011809924 0.29652196 0.05685115 0.6743817
-0.047935043 -0.049021948 0.047541242 0.085533686 0.14812168 -0.16306257 0.3148519 -0.014566973
0.112556465 0.22764714 -0.5695449 -0.21537437 0.7240325 -0.054816067 -0.31799248 -0.15330647
0.051700424 0.71077484 0.31051153 0.397219 -0.45908734 -0.35330135 0.6654472 0.21882546
-0.049644098 -0.2245093 -0.087380394 0.5540219 0.24571544 0.5680013 -0.49727893 -0.46386677
0.87640023 0.09800118 0.6481951 0.08738262 -0.17179367 -0.6996202 -0.3471506 0.629907
-0.05208216 0.027929565 -0.64527047 -0.26834786 0.54209447 -0.10944961 0.08575457 -0.77221525
-0.47838324 0.6237303 0.055188242 0.00835479 -0.4445069 -0.1252992 0.12735327 0.059242398
0.06927811 -0.38611588 -0.17641549 0.4339101 -0.3811606 -0.39239746 -0.23260708 -0.26370287
0.27001938 -0.3046259 -0.40202823 -0.29422814 -0.32274902 0.46439984 0.02444154 -0.18538593
-0.70931005 -0.34775254 0.17535697 -0.020580305 -0.40780094 -0.40970784 -0.26959613 0.29527995
-0.07157162 -0.08768145 -0.5133186 -0.28393593 0.13617574 -0.11251526 -0.3124399 0.18092857
0.077130094 0.16141807 -0.19154339 -0.099507526 -0.05116553 -0.16721928 -0.010655514 0.11265996
-0.170432 -0.058193073 0.19326223 0.36382654 -0.7354491 -0.14088272 -0.049838938 -0.33126786
-0.033684198 0.3067796 -0.28630015 0.1082657 0.26948932 0.6380248 0.23581941 -0.11347248
-0.2278159 -0.3648228 0.09322875 0.31586155 -0.01674561 -0.27641308 0.06636081 0.40594232
0.022498108 -0.026998943 -0.05582541 -0.4250834 -0.052491177 -0.20594838 0.0606492 0.53528374
0.13831349 0.42128804 -0.29458082 0.26624605 -0.31438375 -0.27523845 0.05222901 -0.07745108
-0.041114617 0.31780604 0.1672292 0.46268138 -0.13520247 -0.05998209 0.092615545 -0.27513045
0.07590896 -0.59640086 0.13152923 -0.49950358 -0.086793765 -0.106146894 0.34389883 0.089469865
-0.32147813 -0.18825407 0.06396314 0.1369324 -0.029186886 -0.25109962 -0.07702409 0.03036597
0.45219314 -0.09625353 -0.46460548 -0.1901715 -0.179162 0.009217117 0.03715878 0.22055233
-0.07128222 0.070324816 0.18508935 0.18049408 -0.15891184 -0.01747381 -0.07907749 0.44950387
-0.08007031 0.86239475 0.22436726 0.34479582 0.020349713 0.101846896 0.1297172 -0.21564266
0.22367762 0.07106283 0.06112338 0.115152285 -0.10709505 -0.54459345 -0.02240882 0.10906839
0.6592459 0.08146053 0.048184678 0.080336876 -0.011160778 0.051633622 0.8508665 -0.23459977
0.036069855 0.49713606 0.43725413 -0.30298963 -0.07585838 -1.1501024 0.09651538 -0.17561834
0.034050908 -0.16551605 -0.27192256 0.39074624 0.06072104 -0.086618766 -0.44649243 0.90417075
0.19725353 0.6952035 0.0841993 -0.030670632 0.12536469 0.36578247 -0.4727971 -0.086834975
-0.1621085 0.083003044 -0.01304909 0.5756621 -0.22299664 -0.20052096 0.16288246 -0.052163016
-0.09345032 -0.10695602 -0.11580079 0.12309047 -0.60882205 0.37646163 -0.07206196 -0.20430078

network_body._body_endoder.seq_layers.0.bias f4 [128]
00000000: 8e54 6d3d c4af 52be 6e07 913b 9ea2 2abc
00000010: 91c7 093d 3c9f cebd 3a28 b23c c31c 013c
00000020: 74ff 16be 0fbd c2be b8f5 fa3d c823 0fbe
00000030: 4b61 dd3d a4f6 023e 70a0 14bd 384d 243c
00000040: e1fe af3c c91f 18be fc38 13be 347d b7bd
00000050: e59d d7bd 579f 2e3d 8b1e 313d 5b06 0fbd
00000060: 0d70 a4bd d80c ac3d f92e 98bd 1c20 fdbd
00000070: 482d 40bd cb51 38bc 43a4 413d 1cf5 edbc
00000080: 8266 b53d 9859 1f3d 9750 b7bd 2104 71bd
00000090: f0c3 043e ed68 9ebc a43a 86bc 9470 a53d
000000a0: beb3 f83c 44eb fc3d 1d31 963d 7aeb 8c3c
000000b0: 6cac ec3b ce38 3bbe ede9 b73c 5715 15be
000000c0: c65a e3bc b5f5 3a3d efc6 b3bd c2ba 743c
000000d0: dfe4 a9bd 1998 02bd 6ebd 16be 3928 83bc
000000e0: 799c a23c 057a 883d c7f6 853d aa3f 5cbe
000000f0: 170c 10bd 2e15 d03a 5c2e cabd 0c62 153e
00000100: f7b0 28bd 30a9 ee3c c5e9 e63c 84ef a1bd
00000110: 729a d9bd 2b72 6bbd 0cb3 adbb 884a 95bd
00000120: 3c98 c3bd d1ea cabd ecd1 bc3d e510 083d
00000130: 894c a4bd da1a ba3d 789b 213d f3aa 3fbe
00000140: 6242 883c e597 d03d 3d02 ffbd 95ce fbbb
00000150: 5405 13be e8b7 bb3d dee9 22be 183b aabd
00000160: be60 44be b7b3 2bbe 2b32 0d3e 074f 41bd
00000170: 3745 31be 159c ddbd fbb8 8fbd 781c 143e
00000180: ec10 b13d c1a2 c3bc ac68 1abd 2275 a1bc
00000190: 760c 223d ee46 9d3d 67bc 92bd a4c9 a2bc
000001a0: 87f0 aebd f738 dbbc 41f1 04be 1159 1cbc
000001b0: 1711 5ebe efbe 39bd 9c39 f03c aa11 61bd
000001c0: a620 d83c 1a3f 173e f909 f63d ae4b bcbd
000001d0: 9820 bbbd 47df 343d e1e3 44bd bfe8 fd3d
000001e0: 8b99 483d 3a58 b2bd c7e8 d2bd a32d aabe
000001f0: 6b70 59bd 245a 3b3d b34d 3d3d 5948 aa3d
0.057941966 -0.20574862 0.0044259345 -0.0104147475 0.033637587 -0.10088965 0.021747697 0.0078803925
-0.14745885 -0.38034865 0.122538984 -0.13978493 0.10809573 0.12789398 -0.036285818 0.010028176
0.02148384 -0.14855875 -0.14377207 -0.089594275 -0.10528163 0.042632427 0.04324202 -0.03491817
-0.080291845 0.08400887 -0.07430834 -0.1235964 -0.046918184 -0.01124997 0.047275793 -0.029047541
0.088574424 0.038903803 -0.08950918 -0.05884183 0.12965369 -0.019337142 -0.016385384 0.08078113
0.030359145 0.12349561 0.07333586 0.017202128 0.0072227027 -0.18283388 0.022450412 -0.14558922
-0.027753245 0.04564448 -0.08778178 0.014937105 -0.08295607 -0.031883333 -0.14720699 -0.01601039
0.019850003 0.066638984 0.0654121 -0.21508661 -0.03516778 0.0015875453 -0.098721236 0.14588183
-0.04118439 0.02913341 0.028187642 -0.07907012 -0.10625161 -0.057481926 -0.005300885 -0.07289606
-0.09550521 -0.09908069 0.09219727 0.033219237 -0.080224104 0.09087153 0.039454907 -0.18717556
0.016633216 0.101852216 -0.12451599 -0.0076845386 -0.14357501 0.09165937 -0.15909526 -0.083120525
-0.19177529 -0.16767775 0.13788669 -0.047194507 -0.1731156 -0.10820786 -0.07017704 0.14463985
0.08645806 -0.023881318 -0.03769748 -0.019709174 0.039562665 0.076795444 -0.07164841 -0.01987154
-0.08541971 -0.026760561 -0.12982656 -0.009542719 -0.21686207 -0.045348104 0.029324345 -0.054948486
0.026382755 0.14770165 0.12013621 -0.09194122 -0.09137076 0.044158246 -0.048068885 0.123979084
0.048974555 -0.08708234 -0.10298305 -0.33237943 -0.053085726 0.04574026 0.046216678 0.083145805

network_body._body_endoder.seq_layers.2.weight f4 [128, 128]
00000000: 2f19 82be 322d 573e 59fd b73e 8f91 eb3e
00000010: de36 bbbe e2b4 b23d 7b96 b53e 72fe 05bf
00000020: 40d6 9f3e 6d6b 893e 4bfd 24be 4d0a ecbc
00000030: 9ebe 8cbe e9d2 b8be db56 873e 6aec ca3e
00000040: 3b99 b0be 26d6 8c3e 46e5 8dbe 5b42 2d3e
00000050: a62e 123e 2347 a93d 9759 0b3f 0ab0 0b3f
00000060: e2ef 85be a0bf fbbe 39db ccbe ca0f 2c3e
00000070: 9b1a c7be 6374 c03e 7e55 2c3e f5a3 2cbd
00000080: 7409 b6be 70a2 9b3d b87e 143f d282 2fbe
00000090: 2186 6bbe 9414 073e 7723 b93e ce08 313f
000000a0: 11ba 31bf 216e a9be 9c57 ee3c 6627 2ebd
000000b0: 34ec 62be 4fd2 84be 8404 3dbe c54e 82be
000000c0: 579f aebe 7fb8 173d 107f d53e 9373 04bf
000000d0: e641 25bf 2818 b63c ec97 5ebc e4ab 023e
000000e0: 62a1 67bc 0ccc e0bd b24b 1abf 5df6 463e
000000f0: adf8 2d3e 2755 84be 7cad c93e c878 6d3e
00000100: 9545 133f 5bd6 233e dad3 8c3e 368a 783c
00000110: a7bc 753d 99b8 073e cec3 13be d593 48bf
00000120: 5eed edbe 4994 b13e 8545 2abf aa5d 82bc
00000130: 669c 17be 4799 db3e 6db1 013e f440 d2be
00000140: 083a 863e a2d9 c83d 684d b23e 7021 4a3e
00000150: 0448 0b3d 1944 48be 4fbe 603e 7177 833e
00000160: 1d6d 563e 9f59 533e 990d dbbe 18b6 1b3e
00000170: 390a d63d b4d1 cabe 0441 3bbe a353 753e
00000180: 782c 1dbd bfc2 fb3d d19d 5c3e 2129 f73d
00000190: 092d 1a3e 2cce 953c e036 d13d 8566 d03e
000001a0: 6cd1 4bbd 4884 6fbd a27e e43e e0fc e73e
000001b0: c56a 763d cb86 2d3e eb02 57bf b8c6 39be
000001c0: 961e 123e 02c5 d9be 34bf f7bd 24a8 f0be
000001d0: 0f70 c33c d7fa 56be 418a 95be be26 13be
000001e0: be69 13be 9cf2 78bd 9227 ad3e 4af9 423e
000001f0: 22fb 6fbe f8a0 58be 3647 dabd 397f d93d
00000200: 90e2 7e3d 28dc 71be d973 22be 9724 34bf
00000210: 0bc5 003d 41e3 0e3e cbf6 003f 6762 a6bd
00000220: 82cf 97be 3b3c 823e fe26 1bbf 3c0e 263d
00000230: 0b7a 6e3e 5b43 2abe 0bbd 48bf c753 0abe
00000240: c878 29be c3bf 4cbe 2cff 413e 3cd4 cdbd
00000250: 7e58 a83d b7e6 91be ec9d 8f3e fe79 1bbf
00000260: 1c9c 663e 68e4 c43e a6e2 123e 9341 7dbe
00000270: 9147 043d c01f 633e 2ff1 7f3e 62a2 02bf
00000280: 3bea 0bbf df6b 79be f6c8 c43e f399 ecbc
00000290: 8430 5d3e cc0f 0bbf 3bf0 6fbd e3ec f3bd
000002a0: f72c a33e 31aa 503e 7310 24be 018b 2bbe
000002b0: e101 ffbe 039b 4f3e bfff 473e 96f1 503e
000002c0: ce52 06be f546 823e 3562 31be 9ba7 993e
000002d0: 6ac1 673e ec60 90be dc93 5cbd d959 e1be
000002e0: 59ea 1a3f 7d52 c23e af80 98be 950e 053f
000002f0: 891c 60bd eeb4 0dbe 567c c6be 8cb6 50be
00000300: f944 5abe e7c0 c43d c7a6 dbbd 0141 853e
00000310: 4719 b1be 5ed8 333d db60 a7be 9c7f e63e
00000320: e75b 963e 20d4 37be bba7 e83d ff9a ea3d
00000330: 07fd 193f 1881 79be 91ca 01bf c20c 2c3e
00000340: 57df a1be f652 1f3f cfe4 953a 52a5 f63e
00000350: 5b99 943e 5aa8 3cbd 78e8 003d 2706 02bf
00000360: f1ff 463d e4c0 593e b1f4 0fbe 1cc5 193e
00000370: e2d8 cf3d 4c38 8c3d e018 0dbe ebed 95bd
00000380: 8f3d ecbe 4c4c 52be ee30 883e a73e bd3e
00000390: f3af 9fbe a66f 63be 3760 a6be de19 5bbe
000003a0: 57e9 10be 96d5 573e d2c6 dc3d 2636 3d3d
000003b0: 5d72 563d 4852 34be 3986 643e 2ece acbe
000003c0: 554a e13d dfce bdbd 6c4f 72bd 85eb 4f3d
000003d0: 0047 fc3e bb57 453d 25a6 393e b1de 99be
000003e0: 074e 563e ba17 8d3e be03 87be 2e10 3e3e
000003f0: 0370 b43e 8423 d1bc 0255 2e3e 529a d9be
-0.2540984 0.21013334 0.35935476 0.4600949 -0.36565298 0.08725907 0.3546637 -0.5234138
0.31218147 0.26839772 -0.16112249 -0.028813506 -0.2748918 -0.36098412 0.26433453 0.39633495
-0.34491906 0.27507132 -0.27713984 0.16919844 0.14275607 0.082655214 0.5443358 0.5456549
-0.2615958 -0.49169636 -0.40011004 0.16802898 -0.38887486 0.37588796 0.16829488 -0.04214855
-0.35554087 0.07599342 0.5800586 -0.17139748 -0.23000385 0.13191444 0.3615987 0.6915406
-0.6942454 -0.33091834 0.02909451 -0.042518042 -0.22160417 -0.25941703 -0.18458754 -0.2545072
-0.34105942 0.037041184 0.41698503 -0.5173885 -0.6455368 0.022228315 -0.013586026 0.12760884
-0.014137598 -0.10976419 -0.6027175 0.19429918 0.16989394 -0.25846216 0.3939017 0.23190606
0.5752805 0.15999739 0.2750538 0.015169671 0.059994366 0.13254012 -0.14430162 -0.78350574
-0.4647016 0.34683445 -0.6651233 -0.015913803 -0.14805755 0.4289038 0.12665339 -0.4106518
0.2621615 0.09807135 0.3482468 0.19739318 0.034004226 -0.19557227 0.21947597 0.25677064
0.20940061 0.20639656 -0.42783812 0.15206182 0.104511686 -0.39613116 -0.1828652 0.23957686
-0.038372487 0.12293004 0.21544577 0.120683916 0.15056242 0.018286787 0.10215545 0.40703216
-0.049760267 -0.058475763 0.44627863 0.45310116 0.060160417 0.1694595 -0.8398883 -0.18142211
0.1426948 -0.42533118 -0.12097016 -0.4700328 0.023857145 -0.20994125 -0.29207042 -0.14370248
-0.14395806 -0.060778245 0.33819252 0.19040409 -0.23435643 -0.21155155 -0.10658114 0.10619969
0.062227786 -0.23619139 -0.15864505 -0.7036833 0.031437915 0.13953878 0.50376576 -0.081242375
-0.29650503 0.25436577 -0.6060637 0.04054092 0.23288743 -0.16627257 -0.78413457 -0.13508521
-0.1654998 -0.19995026 0.18944997 -0.10050246 0.082200035 -0.28496334 0.28050172 -0.6073302
0.22520489 0.3845551 0.14344272 -0.24732046 0.032294814 0.2218008 0.24994348 -0.51029027
-0.5465428 -0.24357556 0.3843457 -0.028882002 0.21600538 -0.5432098 -0.05857871 -0.11910417
0.31870243 0.20377423 -0.160219 -0.16752245 -0.4980612 0.20273976 0.19531153 0.20404658
-0.13117525 0.2544476 -0.1732262 0.30010685 0.22632375 -0.28198946 -0.053851947 -0.4401386
0.60513836 0.3795356 -0.29785678 0.51975375 -0.054714713 -0.1383855 -0.38766736 -0.20382136
-0.21315373 0.09607106 -0.1072517 0.26026157 -0.34589598 0.043907516 -0.32691082 0.45019233
0.2936699 -0.17952013 0.11360117 0.114553444 0.60151714 -0.24365652 -0.50699717 0.16801742
-0.31615707 0.62235963 0.0011435988 0.48173004 0.2902325 -0.04605899 0.0314717 -0.5079064
0.04858393 0.21264988 -0.14058186 0.15016598 0.10148789 0.06846675 -0.1377902 -0.0732077
-0.46140715 -0.20536917 0.2659983 0.36961862 -0.31188926 -0.22210559 -0.3249528 -0.21396586
-0.14151512 0.2107757 0.107801095 0.046194218 0.05235516 -0.17609513 0.22316827 -0.33751053
0.11000506 -0.09267973 -0.059157774 0.05076172 0.4927292 0.04817937 0.18129785 -0.30052713
0.20928203 0.27557164 -0.26370043 0.1856086 0.35241708 -0.02552963 0.17024615 -0.4250055

network_body._body_endoder.seq_layers.2.bias f4 [128]
00000000: a00d 4ebd b306 d9bd baec db3c fea5 d93d
00000010: c192 e13d 9b12 d9bd e7c0 f9bd d379 e13b
00000020: 6f28 9cbc f770 223d bbcc 893d d384 08bd
00000030: 0cb9 b3bc 2d49 aabd 3a6a 19be 262d 973d
00000040: 700c 72be 3762 9f3d f9c6 0a3e 80d7 9abd
00000050: 786e 52be d3ea 6ebd cf7f 3fbd 46ad 153d
00000060: 4700 e2bc a83a b2bd 0fff 25be c229 babe
00000070: b6f3 d23d c741 c6bd d640 88bd 53bf 94be
00000080: b259 99be 9580 13be 005c c13d 122f 5dbd
00000090: 2966 8ebd 0186 383d 62d0 b1bb 0997 283e
000000a0: f666 d43c 3c4e 303e 9fab a7be 306e 76be
000000b0: ef03 d03c 26b9 9ebe 3fcd 1a3e 47b9 aabd
000000c0: 19af b8bd 9ab0 893d 4ceb 943c 163b 3ebd
000000d0: fc5e 52be 1920 123e 2d9b 0cbd 91d3 b7bb
000000e0: 47b7 79bd 7311 7c3c c949 b1bd 5fac f2bd
000000f0: a2cb 693d cb0d 943c c411 8b3d 9146 ebbd
00000100: 42d0 113e 0573 cebc 1f1b 05be 9d39 be3d
00000110: 68b0 0b3e f204 3abd 505b 1ebe af98 013d
00000120: 396c 283d b25b 01be 1cc8 f33d 5a57 673c
00000130: 7900 7abd aad1 da3d d552 39bb 2761 8e3d
00000140: 0f09 61be 15f3 16be 9ad8 783d bc99 c6bd
00000150: d025 ab3c e419 acbc 00b2 7f3e 1909 21be
00000160: 393a 5ebe 3902 9abd 1513 973c 1e49 073b
00000170: d9bc 49be 6987 56be d41d 26be 2159 1fbe
00000180: ee05 89bd 371b bd3c 3cb7 7fbd 2b13 953d
00000190: 485b 3b3e 8dc7 cabc e203 a6be bd2f 5abe
000001a0: 5f52 123e a661 8e3d 4a63 e53d a596 9cbd
000001b0: 2e32 393e 2949 b0bc c9bc 673e a3c8 643d
000001c0: 4dfd e2bd b72c afbd 2067 8e3d 8c90 93be
000001d0: d458 a1bd 8972 50bd 4823 f83d 9aca 08be
000001e0: dcbe 5e3e ee9f 073e f92e d13d 54db 413d
000001f0: 166d c3bd 1913 41bb 7faf adbc 3a98 15be
-0.050305963 -0.10596981 0.026846278 0.106273636 0.11014319 -0.10599252 -0.12194996 0.0068809777
-0.019062249 0.039658513 0.06728502 -0.033329796 -0.021938823 -0.083147384 -0.14981928 0.07381658
-0.23637557 0.07782405 0.13552465 -0.075606346 -0.20549953 -0.058329415 -0.046752747 0.0365422
-0.027588023 -0.08702594 -0.16210578 -0.36359984 0.103003904 -0.09680515 -0.066529915 -0.2905222
-0.29951245 -0.14404519 0.09441376 -0.053999968 -0.06953079 0.04504967 -0.0054264525 0.16463865
0.025928002 0.17217344 -0.32748124 -0.2406547 0.0253925 -0.31000632 0.15117358 -0.0833612
-0.09017772 0.06723137 0.018178605 -0.046443067 -0.20544046 0.14270057 -0.034327675 -0.0056099375
-0.060965803 0.01538502 -0.086566515 -0.118492834 0.057078965 0.018072983 0.06790498 -0.11488069
0.142396 -0.02520133 -0.12998627 0.092883326 0.13641512 -0.045414872 -0.1546452 0.03163975
0.041118834 -0.12632635 0.11903402 0.014119947 -0.061035607 0.106845215 -0.0028278132 0.06952124
-0.21976112 -0.14741166 0.060753442 -0.09697291 0.020892054 -0.02100844 0.24970245 -0.15726127
-0.21701898 -0.07519955 0.018441716 0.0020642946 -0.19700946 -0.20950092 -0.16222316 -0.15561344
-0.06690584 0.023084266 -0.062430605 0.072790466 0.1829654 -0.024753356 -0.32424837 -0.21307273
0.14289235 0.06952219 0.112005785 -0.07645921 0.18085548 -0.02151926 0.2263061 0.055855405
-0.110834695 -0.085534506 0.06953263 -0.28821218 -0.07878271 -0.05089048 0.12116104 -0.13358536
0.21752495 0.13244602 0.102140374 0.04732831 -0.09542291 -0.0029460846 -0.021201847 -0.14608851

action_model._continuous_distribution.log_sigma f4 [1, 4]
00000000: 2376 6a40 17d4 8d40 741e a140 fd1d 9840
3.6634605 4.43214 5.0349674 4.7536607

action_model._continuous_distribution.mu.weight f4 [4, 128]
00000000: 3574 1e40 707d 4640 68cf 2ac0 55bd 07c0
00000010: d8a2 4cc0 e779 82be d752 c53f 5ff2 2c40
00000020: f600 95bf 4eb5 03c0 9489 09c0 5d00 8140
00000030: b886 1d40 b975 a5bf cbe9 673e a0b0 b53f
00000040: ebb0 0fc0 b1dc 23c0 428d 1d40 048d 4040
00000050: 3142 1dc0 837a 8b3f 8ef1 3640 cf7f b83f
00000060: f2e5 0d40 3f4e 383e 0e80 943f 7ac7 aabf
00000070: 22af 52be 222e 0ec0 0604 22bf af8f 5bbe
00000080: 6837 e3bf 4e08 ccbf 40fe 3ec0 aa74 29bf
00000090: 2cce 80be f31c 5c3f 3886 d0bf e79f 0dc0
000000a0: 8217 25c0 f9e9 9bbf b7a3 c1bf 667b eb3f
000000b0: 5225 91bf ee67 eebf f04b e5bf 57ea 7dbf
000000c0: b82c 26be f635 2b40 0449 0040 b68d 89bf
000000d0: 1c28 1340 0202 2440 86d3 98bf 17db 953f
000000e0: 6599 38c0 233c 0e40 2c21 553f d94e 14c0
000000f0: 0c52 b13f 2a8f 733f fe96 03c0 9ce3 82bf
00000100: 64ef 14c0 0069 d73f f9b9 27c0 afe0 0c3f
00000110: 916a dfbe ad4c dd3f c525 a5bf 0c55 f93e
00000120: 5b91 0d40 e8bc 71bf 370d 1f40 0290 e03f
00000130: e304 733f b15d d7bf 73a8 0a40 0e37 64c0
00000140: c321 373f 0a37 2540 11cc 08bf c79a 3fc0
00000150: be6d 5240 0fe0 82bf 58df 42c0 9160 fa3e
00000160: bf87 b7bf 40f7 953e 917b 3740 b46e 7ebf
00000170: 5d04 4140 4112 b13e 4be2 d63f e712 663f
00000180: 4d2f a83f 1f97 bd3f 27eb f9bf 05b6 0ec0
00000190: 7879 ff3e 1d25 0f40 96b8 e43f 69d3 61c0
000001a0: a0fc 0ebf 840f 2f40 dc23 373f e79f 15bf
000001b0: 1cff f2be b1e3 4a3f 65c9 3c3f 8622 9abe
000001c0: 757d 03bf eabf 9ebf d145 e33f 215e fabe
000001d0: 1414 c9bf 1c41 3840 efaf 3140 2183 aabf
000001e0: a3ef 7f3f 3666 9cbe e21f 4640 2280 d7bf
000001f0: 9738 5840 cac3 1540 0891 0a40 bd68 813f
00000200: 466e 2940 4931 e8bf 10fa 0cc0 b7c2 68c0
00000210: c137 e13f 299c 8840 a481 9f3e b32b 663f
00000220: 8aa0 0940 672a 28c0 4e58 11c0 259c 2cc0
00000230: b096 5a40 9424 8840 2ef8 06c0 2f00 0f40
00000240: 81fa 69c0 20a9 d53e 2c9d c03f ca05 23bf
00000250: 634c 643f 52ce 5bc0 c83a ccbf 6e38 10c0
00000260: be0c d6be e311 353f 4ede 7c40 75a5 6d3f
00000270: 518b 0cc0 f701 5240 bea8 af40 203d 7740
00000280: a7a0 8a40 1960 7740 57f1 473d 4758 9e40
00000290: c2b7 f13f 84dd 3640 d1d3 8ac0 5ec8 21bf
000002a0: 2c49 2940 04d9 bf3f f050 c83f 4a59 22c0
000002b0: 9520 6640 a15f 70c0 1def 453f 95b9 67c0
000002c0: b559 2f40 2aac f33e 6c5e 3540 a5a0 1b3f
000002d0: d92f 2940 cbbb 2dbf de58 c2bf d4a8 0e40
000002e0: 0436 81bf de7a 7740 a54f d8bd 6991 3c40
000002f0: 7226 6c40 a22f 5ac0 4347 eebf 8c62 bcc0
00000300: 4859 fbbf 001e 8d40 8693 6c40 a246 b2c0
00000310: e271 1cc0 1b7b ebbf 2831 0e40 e1d8 b53f
00000320: 2f34 0ac0 2ee2 cd3e 7adc 2bc0 c71e 11c0
00000330: 5454 30c0 433c 74bf b65d 473f 68c6 243f
00000340: 276b 6a40 c8e3 2fc0 9846 3840 6d6b 4fbf
00000350: 416e b43e 660b 84bf 932c 1040 ef84 6ec0
00000360: d4a2 9840 e2a6 a940 d09c 443e 058b 813e
00000370: 9d1c b53f d7ca 1cc0 59f4 8140 a773 7dbf
00000380: 1810 073f 4f5b 68c0 6fa1 1040 4872 9340
00000390: d17e 4c40 cb07 9e40 c761 76bf b1f6 403f
000003a0: 7f93 e43e 5b2c 5240 f8b6 6340 f9f9 93c0
000003b0: 59be 9940 0f07 7abf 1114 3640 41f2 2340
000003c0: 4061 7540 2024 ecbd ec43 2fc0 9548 7140
000003d0: f4e2 94be 2496 4ec0 a23c 1e3f 68bc e8bf
000003e0: 8bf6 8140 7900 2dbf 4768 c7bf 00f9 a340
000003f0: f415 23bf b704 8c40 876d 3e40 a172 c6c0
2.4758427 3.101406 -2.668909 -2.120931 -3.1974392 -0.2548363 1.5415906 2.7022932
-1.1640918 -2.057941 -2.149022 4.0312943 2.4613476 -1.2926551 0.22647779 1.4194527
-2.2451732 -2.560345 2.4617467 3.008607 -2.457165 1.0896763 2.8584933 1.4414004
2.2171597 0.17998599 1.1601579 -1.3342125 -0.2057462 -2.2215657 -0.6328739 -0.2144153
-1.7751284 -1.5940034 -2.9842682 -0.6619364 -0.25157297 0.85981673 -1.629096 -2.2128847
-2.5795598 -1.2180778 -1.5128087 1.8397033 -1.1339514 -1.8625467 -1.7913799 -0.991857
-0.16227996 2.6751685 2.0044565 -1.0746372 2.299323 2.5626225 -1.1939552 1.1707486
-2.8843625 2.2224205 0.8325374 -2.3173125 1.3853164 0.95140326 -2.0560908 -1.0225711
-2.3271112 1.6828918 -2.6207259 0.5503034 -0.4363599 1.7289025 -1.2902151 0.48697698
2.2119968 -0.94428873 2.4851816 1.7543948 0.9492933 -1.6825467 2.1665313 -3.5658603
0.7153589 2.5814843 -0.5343638 -2.9938219 3.2879481 -1.0224627 -3.0448818 0.489018
-1.4338301 0.292902 2.866917 -0.9938767 3.0158913 0.3458424 1.6787809 0.8987259
1.3139435 1.4811743 -1.9524888 -2.2298596 0.4989736 2.2366402 1.7868831 -3.5285285
-0.55854225 2.735322 0.7153909 -0.58447117 -0.47460258 0.7925368 0.73744804 -0.30104464
-0.5136331 -1.2402318 1.7755681 -0.4889994 -1.5709252 2.878974 2.7763631 -1.3321267
0.9997503 -0.3054673 3.095696 -1.6835978 3.378454 2.340075 2.165102 1.0110089
2.6473556 -1.8140041 -2.2027626 -3.6368845 1.759514 4.2690625 0.31153595 0.8991043
2.1504235 -2.627588 -2.2710147 -2.6970303 3.4154472 4.254465 -2.1088977 2.2343862
-3.6559145 0.41730595 1.5047965 -0.6368071 0.89179057 -3.4344678 -1.5955439 -2.2534442
-0.41806597 0.7073042 3.9510684 0.9283059 -2.1960032 3.28137 5.4893484 3.8631058
4.332111 3.8652403 0.048814144 4.948276 1.8884203 2.8572702 -4.3383565 -0.6319636
2.645091 1.4988103 1.56497 -2.5366998 3.5957386 -3.7558367 0.7731798 -3.620702
2.7398503 0.47592288 2.833888 0.60792 2.6435454 -0.67864674 -1.518337 2.2290545
-1.0094609 3.8668742 -0.10562066 2.9463751 3.6898465 -3.4091573 -1.8615497 -5.8870296
-1.9636621 4.409912 3.696504 -5.571122 -2.4444509 -1.8396944 2.2217503 1.4206811
-2.159435 0.40211624 -2.6853318 -2.2675035 -2.755147 -0.9540445 0.77877367 0.64365244
3.66279 -2.7482777 2.8793087 -0.81023294 0.35240367 -1.0315979 2.2527206 -3.7268636
4.7698765 5.3016214 0.19200444 0.25301376 1.4149357 -2.4498804 4.0610776 -0.99004596
0.5275893 -3.630573 2.2598531 4.6077003 3.1952403 4.9384513 -0.96242946 0.7537642
0.4464378 3.2839572 3.5580425 -4.6242642 4.804486 -0.9766702 2.8449748 2.561661
3.8340607 -0.11530328 -2.7385206 3.770055 -0.29079401 -3.2279139 0.6181127 -1.8182497
4.0613456 -0.67578846 -1.5578698 5.1241455 -0.6370537 4.3755755 2.975435 -6.201493

action_model._continuous_distribution.mu.bias f4 [4]
00000000: c663 323f 84b0 a6be 59f1 103f 7205 bb3d
0.6968349 -0.32556546 0.5661827 0.09131898

onnx::LSTM_102 f4 [1, 512, 128]
00000000: f838 cd3d f65a 9a3e bc67 b83e d7fd 923e
00000010: c3e9 8c3e 3252 01be 31f0 693e a17c db3d
00000020: 685a 70be e11f c23e adfa 30bf ed3c 84bd
00000030: ed32 483b 1300 84be 64ee 833e 05c2 2f3e
00000040: 23c3 ae3d 6032 4e3d 0bbf 6dbc f63d b1bd
00000050: 7325 2bbd 92e1 82bf accd 5fbe 0313 683d
00000060: 6c71 81be 2801 30be b9f3 053e 06fb 0b3f
00000070: c029 283e ab85 003f 9ccb 97be 8be3 3dbd
00000080: 298f 01be 8411 e5be 1ab1 7a3c a66e 85be
00000090: ecbc 253f 3f73 923d 9517 cb3e ed9f 32bd
000000a0: 8c18 ffbd 664c babd c7d0 bdbe 64a8 a0bd
000000b0: 71b7 163f 7f44 b9be 677a 3c3e 69da a03e
000000c0: 90f7 babe 00f9 1f3f 5dc7 62be 6e1d c4be
000000d0: 6380 16bf 883d 513e bae1 613d 27cf 9abd
000000e0: b5e0 0ebe b8ce 23bf 0cdd 3d3e 1479 073f
000000f0: dbfb 5fbe a0c0 213b bc64 953e 3431 9abc
00000100: b415 4ebe 791a e13e d3a2 5cbe e76e 453d
00000110: 641b 513e fb5d 05bf 9873 1bbe 641e a63c
00000120: a571 87be 66ea c839 7024 0f3f 3728 c0bd
00000130: 630f f13e 3410 ec3e cc9d 6dbe 6dfa 043d
00000140: ffc7 37bb 06dc e9bd 5bd0 ea3d 6590 903e
00000150: d983 9e3e b6c8 433f c086 963d 4d79 553e
00000160: 452f 15be 9326 00bd 229d 2f3e 263e e7be
00000170: afed c8bd 6189 90be 8ca4 7c3e f796 113f
00000180: 34a6 a3be b75e 323f 023e e63d 7073 cebd
00000190: 6a7b 043d 0095 c83e aa5d 023e 23ac d13e
000001a0: 4b5f 6ebd 84b9 583e fb7a 003d 5d84 193e
000001b0: a311 48bd ca30 16bc 95f3 83be d486 873e
000001c0: 405f 803e 583f d4be 6b7a 873a c078 143c
000001d0: c21b 8cbe 577d 09be 970b 9a3d 5e4c 5fbc
000001e0: dbde 8f3e 5479 f7bd c9cf 513e 7797 8ebe
000001f0: fbcb f2bd 8856 f3bd 55c1 413d 054e 8bbe
00000200: 368a a4be 7f7d 023e 84c8 763e 9e14 09bf
00000210: db7a b03d 509a b23d b310 86be 4d3c 33bd
00000220: ece1 f6bd c739 c63e 5b3b 1abd 341c 1e3d
00000230: a1a8 e5be bed1 313e 4c93 f7bc 898d 63be
00000240: 5146 29be 47e9 9cbd 19df 4abe cbb2 59be
00000250: 77ab bbbe 02ba 5f3e 32e9 053d 9d5c 51bd
00000260: 48fa 6b3d b4bb 2f3e 133d c93e 655b a93d
00000270: 12ad 333e f904 a43e 0596 213e e176 45be
00000280: 17b4 d63e d610 933e 0f56 5bbe 3893 4bbd
00000290: f5b3 573c 8eed 0a3f fac8 e93d 0561 833e
000002a0: 4223 1b3e c376 4b3e ac5a c0be 30fe bcbe
000002b0: 4376 8cbe 2681 98bd 5e12 8fbe 5158 c6be
000002c0: c06d 20bf dcfa c8be fc26 c23e 442e d23c
000002d0: b6dc a33b d026 853e 403a 02bd 5a02 03bd
000002e0: 1d7a a33e 38e8 1ebf d9a7 1abe 3751 3a3e
000002f0: 8a80 1dbe d6e0 7ebe 92e2 923e f88f 56be
00000300: 1831 15bf 1a82 0c3f ff2e a8be 3c13 043e
00000310: 53be 2e3e 7f26 87be 3f86 05bf c3e3 733e
00000320: 6e58 d0be 475f a23d 2c7c 053e 65f6 0bbe
00000330: 03ca da3d 0637 52be d764 3abe ddff 3ebe
00000340: 2c98 f73e dbfe b7be b56b 80be f03a ec3e
00000350: 4227 a9be aa81 8e3e 924f 8c3e ab66 06bf
00000360: 7787 7f3d b15c ccbd b4af b9bd 4dce a7be
00000370: 90c1 763e 1577 d8be ed66 11be 72ff a83c
00000380: 1405 49be e0b5 7d3e d887 0dbe d841 a83d
00000390: 2392 5aba c43a 8c3d a090 d4bc 5625 e5bc
000003a0: 50a3 0dbf c760 49be c89c 58be 395d 9cbe
000003b0: 2def a8be 6f6f 793d bc51 063d 5cbb b93e
000003c0: 7282 af3e ca4a f0bc e30e a6be c778 483e
000003d0: e077 3a3e e4ee 623e cb74 503e c857 513e
000003e0: 3db0 ddbe 177d 35be 0114 313e e176 333d
000003f0: 02cd 67be 9758 98bd 9287 debd 0a47 49be
0.100206316 0.30147523 0.36016643 0.2870929 0.27522096 -0.12629011 0.22845532 0.107171305
-0.23471987 0.37914947 -0.691325 -0.06456933 0.0030547932 -0.25781307 0.25767815 0.17163856
0.08533313 0.05034101 -0.01451088 -0.08654396 -0.04178376 -1.0225089 -0.21855801 0.056658756
-0.25281847 -0.17187941 0.13081254 0.54679906 0.16422176 0.5020396 -0.2964753 -0.04635958
-0.12652268 -0.44739926 0.015301013 -0.2606098 0.64741397 0.07150888 0.3966643 -0.04360955
-0.12455854 -0.09096603 -0.37073347 -0.07844618 0.5887366 -0.3618507 0.18406068 0.31416634
-0.36517 0.6248932 -0.22146364 -0.38303703 -0.5878965 0.20433629 0.05514691 -0.075590424
-0.13952906 -0.639873 0.18541354 0.52919126 -0.21873419 0.0024681464 0.29178417 -0.01882229
-0.20125467 0.4396551 -0.21546488 0.048201468 0.20420605 -0.5209653 -0.15180814 0.020278163
-0.2645389 0.00038321613 0.55914974 -0.093826704 0.47082052 0.46106112 -0.23204726 0.032465387
-0.002804279 -0.11418919 0.11465522 0.28235164 0.30959967 0.76478136 0.0734992 0.20847054
-0.14568813 -0.031286787 0.17149785 -0.45164603 -0.098109595 -0.28229812 0.24672145 0.5687098
-0.3196274 0.69675773 0.11242296 -0.10080612 0.03234426 0.39176178 0.12731043 0.40951642
-0.058196347 0.21164519 0.031367283 0.14991899 -0.048844945 -0.009166906 -0.25771776 0.26470053
0.2507267 -0.41454577 0.0010336166 0.009061992 -0.27364928 -0.1342672 0.07521742 -0.013629047
0.28099713 -0.120836884 0.2048942 -0.27849934 -0.118553124 -0.11881739 0.047303516 -0.27207962
-0.32136697 0.12743185 0.24099928 -0.53547084 0.08617183 0.08720839 -0.26184615 -0.04375868
-0.1205481 0.38715956 -0.037654262 0.038601115 -0.44855216 0.17365167 -0.030221604 -0.2222196
-0.1653073 -0.076616816 -0.19811668 -0.2125961 -0.36654255 0.218483 0.032693096 -0.051113714
0.057611734 0.17161447 0.39304408 0.08269385 0.1754649 0.32035044 0.15779884 -0.1928363
0.41934273 0.28723782 -0.21419547 -0.049700946 0.013165464 0.5426873 0.11415286 0.25659958
0.15150169 0.19869523 -0.37569177 -0.3691268 -0.27433977 -0.07446508 -0.279437 -0.38739255
-0.62667465 -0.3925389 0.37920368 0.025656827 0.005000676 0.26006174 -0.031793833 -0.031984664
0.31929103 -0.6207309 -0.15103091 0.18195044 -0.15381065 -0.24890456 0.28688484 -0.20953357
-0.58278036 0.5488602 -0.32848355 0.12897962 0.1706479 -0.26396558 -0.5215797 0.23817353
-0.40692466 0.07928329 0.13035649 -0.13668211 0.10683062 -0.20528802 -0.1820253 -0.18652292
0.48358285 -0.35936627 -0.25082174 0.46138716 -0.33037764 0.278333 0.27404457 -0.5250041
0.06238505 -0.09978617 -0.09066716 -0.32774583 0.24097276 -0.42278352 -0.1419942 0.020629618
-0.19630843 0.24776411 -0.13821352 0.08215684 -0.0008337816 0.06847146 -0.025947869 -0.027971905
-0.5532732 -0.19665824 -0.21153557 -0.30539873 -0.32994977 0.060897287 0.03279279 0.36275756
0.3427921 -0.029332537 -0.32433233 0.19577323 0.18209791 0.22161442 0.20357053 0.20443642
-0.43298522 -0.17723499 0.17292787 0.043814544 -0.22636798 -0.07438772 -0.10865702 -0.19656006

onnx::LSTM_103 f4 [1, 512, 128]
00000000: f90c a5bd e10e ec3d d6d2 d2be b27a 3cbf
00000010: 65f2 16bf c9c8 343d b5fc 253e 8372 c33e
00000020: 9209 c13d 206b 4ebe 9ef9 103f 481d 69be
00000030: fbdd cabe d8fb 80be e898 e8bd c8bb e6be
00000040: ebc2 96bd caa8 10bf 5dee fc3e fe62 593e
00000050: 9dfe f13e 267f 7c3d fac9 2d3e 5e0b bc3e
00000060: 9c73 25be 02ca 2ebf 27c4 4ebf 1e69 c63d
00000070: 2570 85be 7869 52bf f495 c6be 74b3 cc3d
00000080: f70a 8c3e e392 49be e49d 16be 5c85 823e
00000090: 3fc9 843d 745d 2e3f 8e38 1fbe 801f 143f
000000a0: eb4b 8ebe 4a6a 79be d8e3 0a3e 4af7 a3bd
000000b0: 5652 e4be 114f 9c3e bccd cfbe 35fd 353f
000000c0: fd48 2a3e 4240 d0be 64aa 903e 3e99 63be
000000d0: 650c f83d e6c6 a03e d116 483e 6bed 87be
000000e0: 26d6 a6be 8404 c53d 2084 debe bd6b f3bd
000000f0: d1d0 403f 4be9 4e3f 8817 db3d a896 1b3e
00000100: 8ea2 a8be 89fc 063e fd3b 613e 7be1 373f
00000110: 1dd6 6e3e 024e 6d3e 883b fb3e b4f2 a6bd
00000120: a533 93be c97e 7dbe f6cb aebe fb9c 853d
00000130: 4cf8 033d 638a a5be 83b9 d2be 68cd d9be
00000140: 4541 0b3d 6109 c33e 15f3 d6be df33 d3be
00000150: ebb8 873d c106 22be 3363 81be f901 473e
00000160: 2343 8abe c72d ee3e 97a7 2d3e 8d48 99be
00000170: d878 0abf e592 c0bd a945 9a3e c8f8 323e
00000180: 7501 b43e ad05 a33e d782 f2be 40db 78be
00000190: af94 c9bb d097 aabe 236a 083d 87a2 2d3e
000001a0: 60b0 b53d c496 853e 9dd0 0b3f 516d e33c
000001b0: f9b6 a73e 15c2 3abf 5813 0e3d 1489 32be
000001c0: c715 f23e 5714 1abf 57ed ca3d d676 d33d
000001d0: ece3 cf3e ee03 da3e c57a 6f3e 688a 963e
000001e0: 6bff 283e 271d 833d 322a 11be 2754 79be
000001f0: 639d 15bd 986c cd3d 4057 8abe 8b50 91be
00000200: ae34 4dbe 3440 8f3c a03a 7fbe fc1f 1ebe
00000210: f034 d03c 426b 4abd c825 623e b60e c53d
00000220: c42c d2be c075 e6be 3ca9 9cbd d9df fabd
00000230: ada9 0f3d 8936 bcbd 0855 88bc d09e f5bc
00000240: d410 06be 0bb5 28bd ffce 1c3e 919f 3bbd
00000250: 2bc2 a13e 11c0 e93e ed1c 5fbe fbbd 7dbe
00000260: c587 adbc cc99 f23e 1b49 1a3e 7ef0 d23d
00000270: 54ee bfbd 8834 5fbe d7ae f1bd b229 103e
00000280: 1ff8 4ebe 15c7 cf3d f41f 9cbe 904d afbe
00000290: cd56 3c3e 843f 613e 3db0 61be 061a cc3e
000002a0: 42c1 15be 107d b8be 049e 2bbf 8e52 973d
000002b0: 2535 acbd 85dd f5be 2703 c5be 4492 9dbe
000002c0: a03e b6be a18b 973e f35c a23e 6cb0 973e
000002d0: 9486 af3e 1bc5 acbe ff46 c9be 4007 423e
000002e0: 7b8a ffbd b641 7a3e 0d66 763e 8577 2d3d
000002f0: c594 40be 8817 693e d0f6 76bd 924c cd3c
00000300: b75a c6bd 9fe3 b43e 1d96 3a3e a221 843e
00000310: e417 0b3e e0a4 0f3e 1655 5fbb fc85 82be
00000320: 029a 0fbd 8b2e 273c e0e8 5b3e f015 b8bc
00000330: 4fec 29be 47d4 f6bd 4895 c13e 3592 a33e
00000340: 27c6 c43d c7bb ce3d a0a1 4dbe 0cba f83c
00000350: dc0b 7d3e 4508 27bf aff6 aabe 6c1b 5f3e
00000360: 7d64 21bd 215e fe3d 46a1 4dbe 0da9 0abc
00000370: 49ba 373c d66d e9bd 102e f93d 8e6e 663e
00000380: ecf3 d33e 1ccd 893e 0ce0 4d3d 6e0f aa3e
00000390: f72e 8d3d 504f 813d 28e3 833d 5675 94bd
000003a0: 0219 b93e 8b61 a03e a6e0 2f3e 38a8 adbd
000003b0: 8000 62be 28e7 4c3e 9532 833e 4b99 d6be
000003c0: 0eec c5be 7f67 c43e 8989 5d3e 97dc 7fbe
000003d0: f130 57be 1cf2 773e 7a5f 3f3d 779c 193a
000003e0: e9f3 a43e d259 813e 7a78 a53e ddda c93c
000003f0: 38a3 18bd 028e 5abe ccee 1d3e 39fd e5bd
-0.08059115 0.115262754 -0.4117648 -0.7362472 -0.58963615 0.044136796 0.16209681 0.38173303
0.094256535 -0.20158052 0.56630886 -0.22765076 -0.39622483 -0.25192142 -0.113572896 -0.4506514
-0.073613964 -0.5650755 0.49400607 0.21229169 0.47264567 0.061644696 0.16971579 0.36727422
-0.16157383 -0.6827699 -0.80768055 0.09688018 -0.26062122 -0.8219218 -0.3878628 0.099951655
0.27352116 -0.19684939 -0.14708668 0.2549237 0.06483697 0.6811135 -0.15548918 0.57860565
-0.27792296 -0.24356952 0.13563478 -0.08006151 -0.44594067 0.30529073 -0.4058665 0.7108949
0.16629405 -0.40674025 0.28254998 -0.22226426 0.12111739 0.31401747 0.19539954 -0.26548323
-0.32585257 0.09620002 -0.43460178 -0.11885784 0.7531863 0.80824727 0.106978476 0.1519419
-0.3293652 0.13182272 0.2199554 0.7182843 0.23323865 0.23174289 0.49068856 -0.08151761
-0.2875034 -0.24755396 -0.34139985 0.06524082 0.032219216 -0.32332143 -0.4115716 -0.42539525
0.033997793 0.38093093 -0.41982332 -0.41250512 0.06627067 -0.15822889 -0.25270995 0.19434346
-0.27004346 0.465193 0.16958462 -0.29938164 -0.5409064 -0.09403018 0.3013127 0.17477715
0.35157362 0.31840268 -0.47365448 -0.24302387 -0.0061517577 -0.3331895 0.033304345 0.1695653
0.088715315 0.26091588 0.54615194 0.027762087 0.32756785 -0.72952396 0.034686416 -0.17435104
0.4728224 -0.60187286 0.0990855 0.103254005 0.40603578 0.42581123 0.23386677 0.2940247
0.16503684 0.06402045 -0.14176252 -0.24348508 -0.03652705 0.10030478 -0.2701969 -0.28381762
-0.20039627 0.01748667 -0.24924707 -0.15441889 0.025415868 -0.049418695 0.22084725 0.096219465
-0.41049778 -0.4501171 -0.076494664 -0.12249727 0.035073925 -0.09190089 -0.016642109 -0.029982954
-0.13092357 -0.04118828 0.15313338 -0.04580647 0.3159345 0.45654348 -0.21788378 -0.24779503
-0.021182904 0.47382963 0.1506695 0.102997765 -0.09371629 -0.21797383 -0.11800926 0.14078405
-0.20211838 0.10145394 -0.30493128 -0.34238863 0.18392487 0.21996886 -0.22039886 0.39863604
-0.14624503 -0.36032915 -0.6703799 0.07388793 -0.08408574 -0.48020568 -0.38478968 -0.30775654
-0.35594654 0.29598716 0.3171154 0.29626787 0.34282362 -0.3374413 -0.39311978 0.18948078
-0.12477585 0.24439129 0.24062367 0.04235031 -0.18806751 0.22762883 -0.060293972 0.025060926
-0.09685271 0.3532991 0.18221326 0.2580691 0.13583332 0.14027739 -0.0034077815 -0.25492847
-0.035058983 0.010203968 0.21475554 -0.022471398 -0.16594051 -0.120522074 0.37809205 0.31947485
0.09608107 0.100944094 -0.20081186 0.030362152 0.24711555 -0.65246993 -0.3339133 0.21787804
-0.039402474 0.124202974 -0.20081052 -0.008463156 0.011213847 -0.11397903 0.12166989 0.22503111
0.41397035 0.269143 0.050262496 0.33214897 0.068937235 0.06313956 0.06439811 -0.072489426
0.36151892 0.3132442 0.1717554 -0.08479351 -0.22070503 0.20010054 0.2562453 -0.41913828
-0.38656658 0.3836021 0.21634497 -0.24986492 -0.21014763 0.24213451 0.046721913 0.0005859802
0.3221734 0.2526384 0.3231848 0.024640495 -0.037265033 -0.21343234 0.15423125 -0.11229939

onnx::LSTM_104 f4 [1, 1024]
00000000: 8dc2 913e 9512 a4bc de5d 573d b3a2 fe3c
00000010: 816e 213e 0e63 a0bd f2ec e83d eedf 143d
00000020: 837f 1fbe 958a c43d 7c45 c13d 3063 2a3d
00000030: ff74 0d3d 5ca4 9bbd 3fd7 69be 37ce 963d
00000040: 7f9b 9c3d e861 1fbd 7511 32be aff9 243c
00000050: dc73 d5bc ee03 6a3e c273 cebd 5c75 223d
00000060: 9879 813d f703 033e 1925 dcbd a579 003d
00000070: ee4d 073e 933e 7f3e a80a 753c 830f bebc
00000080: 2512 0d3c 16a0 68bd 5f50 debd 5e54 a63d
00000090: 17fc 22bc e8da fb3d fc1c 313d 79c2 263e
000000a0: 6f03 d33e 734c e3bc 1841 acbd 6270 ccbd
000000b0: 6982 643d 59c8 b7bd c921 24bd 50e8 a83d
000000c0: eee2 0f3e aa95 0f3e 2e24 49bd e623 2b3e
000000d0: 9907 a83e 1db7 073e 9a69 87bd cd9a a6bd
000000e0: 3e5b f03d 83a4 dbbd a849 ec3d 9b0c 133d
000000f0: 34d4 83bd 2c53 833e 730e ccbb 5bbc 273e
00000100: b2e6 9a3e 2bc7 1a3e 4297 5e3e c9c6 e03d
00000110: c6b1 093d 6316 8e3c e86d 5c3b 1f59 96bd
00000120: d4a6 05bc 4931 0dbb e488 303e 062e b3bd
00000130: f827 403e 1ef0 853d f023 1bbd e118 17be
00000140: af60 29be 33d3 65bc 3708 263e 2271 11bd
00000150: a7c6 a2bd 6c5e a53d 8a85 87bd 3ef9 f83d
00000160: 3b0d 103e 9334 aebd fa9b 3bbd cf3f 3d3e
00000170: 6bf3 e83c 51b4 223e 68b9 c53d bb07 0e3e
00000180: 2a56 46be 0170 243e d302 133e ed17 d53d
00000190: d197 0f3d afa8 75bb b32f 633e ceb6 aa3d
000001a0: 704b 433e 4068 e83c fa03 883d eb14 02be
000001b0: 3ab2 f8bc becc 243e 6f37 983d 5f66 4dbe
000001c0: b965 af3d 0852 e8bd ed26 793d a3f0 f83d
000001d0: 0190 003e 0462 023e dafc fb3d c81b 263e
000001e0: 4025 7b3d 7c5d 3f3e 7f26 6b3d 8762 2a3b
000001f0: 25b5 883c efdc ff3d 76ce 643d 08f7 c43b
00000200: 12c3 713e 5b8b 253d 643c e5bd 83f7 023d
00000210: 2452 153e 0127 a13c 6f96 a8bd dbff a6bb
00000220: 3f3b 24be 310b 193e 9c44 183e 814e b6bd
00000230: 92bc ce3d a34f 80bd 9dfe 353c 0e25 bc3c
00000240: 5f77 553b f7ec cc3c a567 1dbd 183d c13b
00000250: 530c 5a3d 07da 013e c000 383d 5647 08bd
00000260: 4fe3 3fbd a96a 3cbc ad7f 0fbe 760d aebd
00000270: 600c ef3c 4d7c e33d c167 c1bb 3950 2a3e
00000280: d793 203d de88 43be d118 5a3d 9e4f 8a3c
00000290: 9707 1f3e 3a5c 20bd 73c2 a73e 644d 9e3e
000002a0: 52fe 28bd 20b0 e5bd 6606 3abe 486d a53e
000002b0: 1857 573e 3158 163e 5b7f 8f3d 1b57 83bd
000002c0: f169 58bd 85a2 173e 476c 133d 33b0 ffbc
000002d0: ee6c 14be 00bd a43c fadc bd3d 8e48 aabd
000002e0: 2614 793e f834 f6bd 6b4d 19bd 9e23 9e3e
000002f0: a652 97bd 85bc 0f3d c348 51bd a816 29bd
00000300: 2890 7e3e 90ae 803e ffc8 fb3b 38fc ddbd
00000310: c4a1 003d 3730 98bd 840c fb3c 9e32 803d
00000320: 9268 b7bd 17bf e13d 50ae 873e 8cae 963e
00000330: 3b9d e43d 3d0a a13c 44d2 db3d 48b9 173e
00000340: 970a 5a3e af36 863d 7696 35bd d202 133d
00000350: dc48 6b3d da57 9a3e 998f fd3d 7490 78bd
00000360: 2658 96bd 3ac6 e63d 145b efbd 94ce 53bd
00000370: b375 7cbd 3518 9c3b ca16 d63d f0fb 163e
00000380: 3ea4 95bd 8ee7 9cbb c795 08bd a0d5 b6bc
00000390: 9a52 133d 7e75 f5bd 9a4b 903d 15a9 6a3e
000003a0: 8247 a8bb 9b5f 133e c98b 753d 9119 093d
000003b0: 082c 023e 4a95 b63e 5f6b 263e c784 283e
000003c0: 2a7d 1f3e 275a 39be e58c 993e 085e 70bd
000003d0: b2e2 373e b0b2 2f3e 8264 0bbe fe74 123e
000003e0: 6817 823d 4ce6 0c3e 4c8c 9cbd df31 2dbd
000003f0: 2a6d 153a e94a 913e d37a cabc ea15 a53c
0.28468743 -0.020028392 0.052579753 0.03108344 0.1576481 -0.07831393 0.11373319 0.03634637
-0.15575986 0.09596745 0.09437081 0.0415985 0.034535404 -0.075997084 -0.22836016 0.07363551
0.07646846 -0.03891173 -0.17389472 0.010069295 -0.026056223 0.22853062 -0.10080673 0.039662704
0.0632202 0.12794481 -0.10749263 0.03136601 0.13213322 0.24926214 0.014956154 -0.023200756
0.008610283 -0.056793295 -0.10855173 0.081215605 -0.009947798 0.122976124 0.043240532 0.16285123
0.41213557 -0.027746415 -0.08410853 -0.09982373 0.05578843 -0.0897376 -0.040071283 0.08247435
0.1405141 0.14021936 -0.04910677 0.16712913 0.32818297 0.13253446 -0.06611939 -0.08134995
0.11736153 -0.107247375 0.11537486 0.035900693 -0.06436959 0.25649393 -0.0062273084 0.16380446
0.30254132 0.15115039 0.21737388 0.10975415 0.033616804 0.01734466 0.0033634845 -0.07341217
-0.008157451 -0.0021544269 0.1723972 -0.08749013 0.18765247 0.06539939 -0.03787607 -0.14755584
-0.16540788 -0.014027405 0.16214071 -0.035508282 -0.07948046 0.0807465 -0.066172674 0.12156914
0.14067547 -0.085061215 -0.045803048 0.18481372 0.028436383 0.15889098 0.09654504 0.13870136
-0.19368806 0.16058351 0.14356546 0.10404954 0.035056893 -0.0037484576 0.22186165 0.083356485
0.19071746 0.028370023 0.066413835 -0.12703292 -0.030358423 0.16093728 0.07432448 -0.20058583
0.08564324 -0.11343771 0.06082814 0.12155273 0.12554933 0.12732702 0.12304087 0.16221535
0.06131482 0.18688005 0.05740976 0.0025998668 0.016687939 0.124933116 0.05586096 0.0060108937
0.2360957 0.040416103 -0.11193159 0.031974327 0.14582115 0.019671919 -0.08231818 -0.0050964183
-0.16038226 0.14945675 0.14869922 -0.08901692 0.10094561 -0.062651895 0.011108068 0.022966888
0.0032572371 0.025015337 -0.03842892 0.0058971755 0.05323441 0.12680827 0.04492259 -0.033271156
-0.046847638 -0.011500039 -0.14013548 -0.08498661 0.029180706 0.11107693 -0.005902261 0.16632165
0.03920349 -0.1909518 0.053246323 0.016883668 0.15530239 -0.039150454 0.3276554 0.3091842
-0.041258164 -0.11215234 -0.18166503 0.32309937 0.21029317 0.1468208 0.07006713 -0.064130984
-0.05283541 0.1480809 0.035991933 -0.031211948 -0.14494678 0.020109653 0.092706636 -0.0831462
0.24324092 -0.12021822 -0.037427347 0.3088655 -0.07388811 0.035091896 -0.05109478 -0.041281372
0.24859679 0.2513318 0.0076838727 -0.108391225 0.03140427 -0.07431071 0.030645616 0.062596545
-0.08955492 0.110227756 0.26500177 0.29430044 0.11162802 0.019658202 0.10733464 0.14816773
0.21293102 0.06553399 -0.044332944 0.03589136 0.05744253 0.3014515 0.12380905 -0.060684636
-0.07341032 0.112682775 -0.11687294 -0.05171068 -0.061635684 0.004763628 0.104535654 0.14744544
-0.07306717 -0.0047883457 -0.033345964 -0.022318661 0.035967447 -0.119853005 0.0704567 0.22916062
-0.0051354775 0.1439194 0.059947763 0.033471648 0.12712109 0.35660774 0.16251896 0.164569
0.1557509 -0.18100797 0.29990306 -0.058683425 0.17957571 0.17158008 -0.1361256 0.14302441
0.06352121 0.13759726 -0.07643947 -0.04228389 0.00057001656 0.28377464 -0.02471677 0.020152051
