results/DroneAgentFix2/DroneAgent/DroneAgent-499948.pt (torch, 870712 bytes, 44 tensors)

network_body._body_endoder.seq_layers.0.weight f4 [128, 103]
000000 76 05 9d be 54 a3 8b be d1 a6 1e be 2f 97 ab bc
       -0.3066823 -0.27273047 -0.15493323 -0.020946113
000010 95 17 8f bd 44 ac 08 be 38 6e cc 3c 0d ad 6f 3d
       -0.0698692 -0.13346964 0.0249549 0.058514643
000020 69 04 92 3d 84 0a 84 3d 32 bb ad 3d 2d a3 9c bd
       0.071297474 0.06447318 0.0848297 -0.07648311
000030 cd f9 51 3e d2 e9 8f be 7d 47 ec 3b d1 1a 18 be
       0.20505448 -0.28108078 0.0072106705 -0.1485398
000040 0d 9b 4c be 01 57 06 3e 3b 14 3e 3d 85 f2 a5 3d
       -0.19981022 0.13119127 0.046406012 0.081028976
000050 ed 29 79 bc af 9a 48 bd 37 c5 2a 3d 03 c4 3a 3d
       -0.01520775 -0.048975643 0.041691985 0.045597088
000060 67 bf 55 be 82 3f 52 bd 4e ba b0 bd d7 31 44 3e
       -0.20873795 -0.051330097 -0.08629285 0.19159637
000070 df 17 cf bd f6 7a a2 bd 24 1a 55 bd 79 c4 d3 bc
       -0.10111975 -0.07933609 -0.052026883 -0.025850521
000080 35 94 5c 3b e4 36 9a 3d 24 31 15 bc 77 81 8b bd
       0.0033657674 0.07530001 -0.009105954 -0.06811803
000090 1c a1 7f bd 4d b2 34 3d 7d 79 86 3d 9e 7c e8 bc
       -0.062409505 0.044115353 0.06566141 -0.028379735
0000a0 f1 d0 c9 bd 3f 48 ba bd 6a be a6 bd 72 ef 49 be
       -0.098543055 -0.09095811 -0.08141787 -0.19720247
0000b0 c2 9c 45 3e 0f 16 0f 3e c4 9a 1b 3d 61 ef 24 be
       0.1929808 0.13973258 0.037989393 -0.16106941
0000c0 64 1d bf bd 4a d4 09 bd 12 e6 40 bc 67 01 88 bd
       -0.09331778 -0.03364972 -0.011773603 -0.066408925
0000d0 99 d4 39 3d b8 0c a5 bd 97 ca c6 3d e8 e7 56 bc
       0.045368765 -0.080590665 0.0970661 -0.013116814
0000e0 2f 5c 37 bd f1 04 98 bd c6 eb 0e 3e de 10 29 bd
       -0.044765648 -0.074228175 0.13957128 -0.04127585
0000f0 16 34 fc 3d 64 e4 bd bd 9c 4f 02 3d 79 69 6b bd
       0.12314622 -0.09272078 0.031814203 -0.057473633
000100 c5 07 f5 bd b5 b3 de 3d 03 d0 44 3e 0a 27 87 3d
       -0.119643725 0.1087412 0.19219975 0.06599243
000110 c4 61 bc 3c 5f e0 aa bd 40 a9 d5 3d 2d a6 59 3d
       0.022995837 -0.08343577 0.104326725 0.053136993
000120 5a ac 4e 3d 68 a0 d6 3d b6 2a 8c 3d 98 fa 6f 3d
       0.050457336 0.10479814 0.06844084 0.058588594
000130 49 11 ed 3d 45 71 62 3d 8c 9a 27 39 e5 18 55 3c
       0.115755625 0.055283803 0.00015983934 0.013006424
000140 d9 9c 98 3d 71 31 be 3d 06 18 8e bc 79 8d d0 bd
       0.07451791 0.09286774 -0.01734544 -0.10183234
000150 cc 21 0e be 17 3c 1a be f5 cf 19 3e 93 f5 15 3e
       -0.1388008 -0.15061985 0.15020736 0.1464446
000160 10 ba 4c bc f0 e3 24 3e eb 47 8c 3d 27 15 03 3e
       -0.012495533 0.16102576 0.06849655 0.12801038
000170 22 39 1e be 1a 9b c8 3d e6 1c 00 bc 2b 53 a7 3b
       -0.15451482 0.09795208 -0.00781939 0.00510635
000180 df 0a 8c bd 0e e2 4e bd a8 f9 9b bd 28 33 23 be
       -0.06838011 -0.05050855 -0.076159775 -0.15937483
000190 a7 74 5f 3d 95 21 87 bd 79 42 8f 3d ae 2d 3e be
       0.054554608 -0.06598202 0.069951005 -0.18572113
0001a0 7a d5 a5 bc 6a 4e 04 be 90 38 e1 bc 48 7f 21 bd
       -0.020243395 -0.12920538 -0.027492791 -0.039428025
0001b0 16 8e 15 be cb ca ef bc 38 32 2a bd 53 d6 f7 bc
       -0.14604983 -0.029271504 -0.0415518 -0.030253565
0001c0 df ad 5c 3b 10 e1 31 3e 81 b4 ad bd 83 ce 1c bc
       0.0033672971 0.17371011 -0.08481694 -0.009570721
0001d0 ca 16 7d bd 76 a2 ed bd e6 1d a0 be c0 cb 90 3c
       -0.06178931 -0.116032526 -0.3127281 0.01767528
0001e0 46 3d 19 3e e7 ea 81 3c 3f c7 54 3d ea f1 7c be
       0.1496478 0.01585908 0.05194783 -0.24701658
0001f0 f8 73 51 3d c7 2a e6 3d 2e e6 32 bd 60 82 42 3d
       0.051135987 0.11238628 -0.043676548 0.047487617
000200 af 32 c5 bd 16 2c 8f 3b 2b d9 6f 3d bc 87 e3 3d
       -0.09628808 0.004369269 0.058556717 0.11109874
000210 d0 63 35 bc 52 69 e4 bd 76 fb 94 bc 6c 16 27 3e
       -0.01107116 -0.11152901 -0.018186312 0.16317147
000220 1e 2b 46 be 35 4a 98 3c 9a 53 95 3d 79 4c fa bc
       -0.19352385 0.018590072 0.07291336 -0.030554043
000230 60 cd 9e 3b 0c f6 7b 3e 59 20 16 be 29 fc c5 bb
       0.00484626 0.24605578 -0.14660777 -0.0060420227
000240 95 f7 a8 bd 66 3c 22 3e 5c f2 c9 bd be f7 03 bd
       -0.082503475 0.15843353 -0.098606795 -0.032218687
000250 90 3f e0 bd e0 ea 1d b9 97 4e 94 3d b9 7b 48 be
       -0.109496236 -0.00015060185 0.07241552 -0.19578446
000260 3e 06 7a 3d 82 2a 17 be 19 36 28 bd 48 87 c6 bd
       0.06104111 -0.14762309 -0.041067217 -0.096937716
000270 4e 9c 0e be 9a f2 fd 3a b2 fc e3 3d 90 c2 ed bc
       -0.13926813 0.0019374669 0.11132182 -0.029023439
000280 ba 38 30 3c 9b 56 dd bc 85 d8 0c bd b5 85 08 3e
       0.010755712 -0.027018836 -0.034386177 0.13332255
000290 8f d3 f6 3c 5b 10 e5 3c 0b f1 7b 3d d9 af 48 3d
       0.030130176 0.0279619 0.061509173 0.048995826
0002a0 f0 ea fe 3d 63 99 0a 3e a3 97 85 be 1d 53 d3 bc
       0.124471545 0.13535075 -0.26092252 -0.025796467
0002b0 84 af ea bd 93 d6 0d bb 0a 35 cc bd b8 2f 92 ba
       -0.11459258 -0.0021642789 -0.09971054 -0.0011153137
0002c0 72 97 05 3d 22 1a 12 3c ef 2a 4d be c8 73 95 3c
       0.032615133 0.008917363 -0.20035909 0.018243685
0002d0 12 33 47 3c 03 8d ee 3b b2 73 72 bc b5 94 88 bd
       0.012158172 0.0072799935 -0.014798092 -0.066689886
0002e0 aa cf 9a 3d 1d 51 30 bd 32 28 33 be 66 8d 6b be
       0.0755914 -0.043046106 -0.17495802 -0.23003158
0002f0 11 d2 8b ba 69 0c a0 3d 83 57 be bd bd ef 9a 3c
       -0.0010667463 0.07814867 -0.09294035 0.018913144
000300 ed 80 d2 be f3 9c 4a bc fb 36 a0 3c 6c 2d 1a 3d
       -0.41113988 -0.012366521 0.019557467 0.037640974
000310 6a 2c 61 3e 87 bd 89 bd 27 2b 6e 3d 37 ed 41 bd
       0.21989599 -0.067256026 0.058146622 -0.047345366
000320 46 d6 11 bd c8 d2 05 be a1 af a3 bd 8e 66 58 3e
       -0.035604738 -0.13068688 -0.07992483 0.21132872
000330 3c bb 3d bd ea 8a 03 bd 6f c2 13 3c 6d 1c d1 3d
       -0.04632114 -0.0321149 0.009018525 0.102105
000340 5b 94 7b 3b 1e c7 8d 3d 0a 57 c9 bc 41 8d 24 be
       0.0038387987 0.06922744 -0.024577636 -0.16069509
000350 e1 6d c8 3d f5 7a fa bd 4f 0e 5e 3b a7 4e a5 3d
       0.09786583 -0.122304834 0.003388304 0.08071642
000360 25 a3 05 be c0 14 f8 bd 66 91 eb 3d 6e 42 56 3e
       -0.13050516 -0.12113333 0.11502342 0.20923778
000370 6d 1c b3 bc f7 e1 0b 3e e8 4f 05 be 79 ea 83 be
       -0.02186414 0.13660417 -0.13018763 -0.25764826
000380 a9 71 80 bc f1 e5 a4 bc d1 c9 73 3e 10 e6 7d bd
       -0.015679197 -0.020129176 0.23807456 -0.061986983
000390 69 7d 7c bd 5a fe 5a bb 2c ce 74 be 2d 33 1c 3d
       -0.061643038 -0.0033415766 -0.23906773 0.038134743
0003a0 73 12 da bc c2 2f 3b be a6 c7 3c 3d 39 57 d1 bc
       -0.026620125 -0.18279937 0.046088837 -0.025554286
0003b0 f3 0a 27 3e de 7b 22 3d 29 19 0d 3d 3b d1 da 3d
       0.1631277 0.03966891 0.034447823 0.10684439
0003c0 f5 b4 d0 3c 08 7a 1c 3e 9e 0b 4a 3e bc 5b 0c bc
       0.025476912 0.15280926 0.19730994 -0.008566793
0003d0 58 d5 a6 bd 75 fe 87 bd b9 53 82 bd 93 d4 f7 bd
       -0.08146161 -0.06640331 -0.06363625 -0.12101092
0003e0 ca 90 2a 3d 6a 1e f0 3d 0a f7 d2 bd 83 e7 96 bd
       0.041641988 0.11724551 -0.10301025 -0.07368376
0003f0 1f 5c eb 3d ef 90 76 be 5f e1 bb bd 93 6f d5 bd
       0.1149218 -0.24078725 -0.091738455 -0.10421672

network_body._body_endoder.seq_layers.0.bias f4 [128]
000000 74 a3 c2 bb fb 5a 90 bb 39 a2 6b bc 63 95 c8 bc
       -0.0059398953 -0.004405377 -0.014381939 -0.024485296
000010 b8 b7 1d 3c 91 35 71 bc 2b 35 c7 bc 64 fe 01 bd
       0.0096263215 -0.014722244 -0.024317345 -0.031736746
000020 90 4d 63 3b 2e d0 83 3c f6 e8 67 3d 24 c9 d4 3c
       0.0034683682 0.016090479 0.056618653 0.025974818
000030 07 84 6e bc 96 5e 2e bd 2d cd d2 bc e1 ea 99 3c
       -0.014557845 -0.042570673 -0.025732601 0.018788757
000040 17 3a fa bc c3 80 87 3c fa d9 5f bc 55 ef 02 bd
       -0.030545278 0.01654089 -0.0136628095 -0.031966526
000050 3f e4 e2 bc 2c 77 de 3b fd 88 da bc 29 70 de bc
       -0.027696727 0.0067891087 -0.02667665 -0.027153092
000060 f9 ac e8 bb 5d f6 de bb 23 8c e6 bb 32 45 59 bc
       -0.007100698 -0.006804271 -0.0070357486 -0.013261126
000070 e4 cf 91 bc 70 4f 53 bb e5 81 45 bd 68 07 77 bc
       -0.017799325 -0.0032243393 -0.04821958 -0.015077449
000080 bd 92 a1 3b fa 40 54 bd 08 4c af 3c 27 94 f2 bb
       0.0049308226 -0.05181978 0.02139856 -0.007402915
000090 9b 08 a6 bb 16 72 cc b9 8c 03 d5 3c e6 f5 84 3b
       -0.005066944 -0.00038994913 0.026002668 0.0040576337
0000a0 7c e8 31 3c 46 3b a9 3b 60 c3 c0 bb 14 96 10 bb
       0.010858651 0.0051645366 -0.0058826655 -0.002206211
0000b0 a6 51 13 3b be de c5 3c d1 01 ac 3a 2d 93 cb bc
       0.0022479086 0.024154063 0.00131231 -0.024850452
0000c0 40 e9 5d bc bb b7 43 3a f0 34 9a 3c 76 6e fd ba
       -0.013544381 0.00074660376 0.01882407 -0.0019335288
0000d0 11 94 48 bc 87 a4 25 bd dc 2b 4c 3c 60 17 29 bc
       -0.012242333 -0.04044011 0.012461629 -0.010320514
0000e0 15 2a f1 3c d0 36 2c bd 80 98 42 bd 00 12 69 bc
       0.029439012 -0.04204446 -0.047508717 -0.014225483
0000f0 04 c8 f5 bb c6 73 e0 bc c6 6a 3a bb a3 60 84 bc
       -0.0075006504 -0.027398955 -0.002844499 -0.016159361
000100 2a 0f a3 3b 2c b8 46 bb 7b d5 19 bc 97 23 f1 3c
       0.004976173 -0.0030322177 -0.009389277 0.029435916
000110 3f cc 7b 3c f6 69 0c bc 00 00 92 3b c6 d3 19 bd
       0.01536852 -0.008570185 0.0044555664 -0.03755548
000120 6b ee 33 3b be 86 2d bd 25 b9 fd 3b dd 7c 0a 3c
       0.002745534 -0.04236483 0.007743018 0.008452621
000130 c0 cf 10 bd d9 92 c6 bc cd 91 b4 3b 7d cb 88 bb
       -0.035354376 -0.024239944 0.005510545 -0.0041746483
000140 ab f5 95 3c 95 93 97 bc df 39 ae bc 5d 3c 0b bd
       0.01830562 -0.01850299 -0.02126783 -0.033993114
000150 4d 0b 66 3c ad 8d e6 bc 27 44 77 bd 3b 36 c3 3b
       0.01404078 -0.028143728 -0.06036773 0.0059573925
000160 e6 f6 c3 bc bf 80 00 bc 32 12 c0 3a 1a 5f 09 bd
       -0.023921441 -0.007843195 0.001465386 -0.03353796
000170 ea 78 7e 3c d8 0e 5e bc 60 dc e3 3c 28 a9 cd 3c
       0.015531758 -0.013553344 0.027815044 0.025105074
000180 b7 89 4e 3b 81 b4 a1 bc 46 c2 36 bd 9a 65 1f 3b
       0.003151519 -0.019739391 -0.044618867 0.0024322034
000190 79 ce 1f bd a8 32 92 bc 35 45 01 3c 2c ad 2e bc
       -0.039015267 -0.01784642 0.007890035 -0.010661405
0001a0 4e 38 f0 3b cd 2a 01 bc d0 0d fb ba b8 44 b4 ba
       0.007330931 -0.00788374 -0.0019153897 -0.001375339
0001b0 c9 97 0a 3d fd 8d 4c 3d 5f 17 34 bc e4 63 a6 3c
       0.03383616 0.049940098 -0.0109919 0.020311303
0001c0 cf d6 05 bd d2 91 94 bb 23 f6 04 bd 53 02 5f bc
       -0.03267556 -0.0045339847 -0.032461297 -0.013611394
0001d0 b2 44 dc 3c 85 c0 c0 3c 42 16 fc 3a 5c b4 fd bb
       0.026888225 0.0235293 0.0019232708 -0.007742448
0001e0 56 87 b1 3c 61 a5 11 bd cc 38 70 bc 35 73 03 3d
       0.021670979 -0.03555811 -0.014661979 0.03209229
0001f0 ac 87 fe 3b f7 43 35 3c 32 13 8b bc 6b d1 b9 3b
       0.007767638 0.011063567 -0.016976926 0.0056707165

network_body._body_endoder.seq_layers.2.weight f4 [128, 128]
000000 4f 79 26 3e ab ac 29 bd 05 a3 66 bc 94 5e b1 be
       0.16257213 -0.041424435 -0.014076953 -0.3464247
000010 59 ac 4f bc 44 ee 96 3d d6 2e 91 3d 5e 3b f8 3d
       -0.012675368 0.07369664 0.07089011 0.121206984
000020 cd 29 3d be 38 5b f4 bd c2 09 2e be ab dd 03 3d
       -0.18472977 -0.11931461 -0.1699591 0.03219382
000030 3f 52 b6 3d 58 a6 b1 bd 80 b7 1d 3d 47 7a a5 3d
       0.08902406 -0.08674306 0.038505077 0.08079963
000040 b3 b7 bf 3c 19 9a e3 bc b2 fa 0b bd 51 be 0f bd
       0.023403024 -0.02778344 -0.03417463 -0.03509361
000050 cb 5d 20 3d 0e 99 be bd 97 ce 34 bb 58 37 a3 3c
       0.039151948 -0.093065366 -0.0027588957 0.01992385
000060 ed 02 ad 3d 06 75 bb bd 0e a0 5d 3c 0e a0 43 bd
       0.08447824 -0.0915318 0.01352693 -0.047760062
000070 fa b1 2d 3d 2e cf 89 3b 37 76 1d bd 73 fd 0b be
       0.04240606 0.004205606 -0.038442817 -0.13670902
000080 47 c7 dc bd 74 b5 14 bc 21 da 3d bd 22 c5 4b bd
       -0.10780197 -0.009076465 -0.046350602 -0.049748547
000090 f6 cb 16 3e 7c a8 12 3c 34 7f 5f bd 1c 68 44 3d
       0.14726242 0.008951303 -0.05456467 0.04795085
0000a0 20 a2 66 3d 64 2a 0b bd 75 67 17 bc e7 c1 1a 3e
       0.05630696 -0.033975974 -0.009240975 0.1511303
0000b0 78 ea 21 3d f6 44 bf bd 03 e7 c6 bc 9b e6 cf bb
       0.039530247 -0.09339325 -0.024280077 -0.006344629
0000c0 04 48 27 bc fa 10 d9 3c 27 df 7a be 75 30 f7 bd
       -0.010210041 0.026497353 -0.24499188 -0.12069789
0000d0 56 cc df bb 8b 8e d2 bd 43 17 cf bd 9f 7e ab 3d
       -0.0068297787 -0.10281094 -0.10111859 0.083737604
0000e0 a6 f5 d5 bd ae ff 3f bd d7 53 78 3d 9d c6 73 bd
       -0.10447244 -0.046874695 0.06062683 -0.059515584
0000f0 a9 36 01 3e 69 35 03 be a1 01 85 bc 28 d9 ee bc
       0.12618507 -0.12813343 -0.016236128 -0.029156283
000100 0f 47 66 bd fe 8d d6 bd d9 f6 36 3d 4a 9e 20 be
       -0.05622011 -0.104763016 0.044669006 -0.15685382
000110 ca dc 9c bd 25 1e 0b bb a4 f7 68 bc c5 73 1b 3d
       -0.076593 -0.0021227684 -0.014219198 0.037952203
000120 ac 13 ad bc 1c 93 ec 3c db da 66 3d e5 b2 2b 3e
       -0.021127544 0.028878741 0.05636106 0.16767462
000130 08 ae a0 3d 90 bc 0b 3e 97 8a 71 be 3c dd c0 bc
       0.07845694 0.1364615 -0.23588024 -0.023542993
000140 ee 38 0a 3e 08 b0 e5 3d 15 60 84 bd 6a 71 00 be
       0.1349828 0.11215216 -0.06463639 -0.12543264
000150 2f ff 53 bc c3 12 97 bb 57 9c d7 bd 4c ca 20 3e
       -0.0129392585 -0.004610391 -0.10527866 0.1570217
000160 72 3b 2b 3e cd fb df 3c 8b b0 4c 3d 98 50 8c 3d
       0.16721895 0.027341748 0.049973052 0.068513095
000170 d1 d0 75 3b 3b 2c 0e be fd 01 ba 3d fc 5c 01 bc
       0.0037508497 -0.1388406 0.090824105 -0.007895704
000180 27 81 86 bd bf ee 14 bd 1f 39 a2 3c e7 d8 bb 3d
       -0.065676026 -0.0363605 0.019802628 0.0917223
000190 ad 2f 0b 3e eb f8 00 3d a9 69 2c bd cc 65 30 bc
       0.13592406 0.031487387 -0.042092953 -0.010766458
0001a0 06 5b 7d bb 01 7e 6a bc fc ae 0d 3e 83 46 f9 3d
       -0.003865899 -0.014312268 0.13836282 0.12171652
0001b0 af 59 0f 3e 1d 2e ac 3d ee f9 7e 3c 3e 5e 40 bd
       0.13999055 0.08407233 0.015562518 -0.046964876
0001c0 81 90 91 bd 38 e2 16 be d1 85 4d 3c e1 15 49 bc
       -0.0710764 -0.14734733 0.012544111 -0.012273283
0001d0 e8 9a 8f 3c 87 82 13 3d aa 9e de 3a 77 e9 be bd
       0.01752992 0.036013152 0.0016984541 -0.09321874
0001e0 37 b1 28 bb 0b 58 0c bd af 7c a5 bd 66 1b 36 3d
       -0.0025740394 -0.03426365 -0.08080422 0.044459723
0001f0 44 80 a9 bd fd 72 03 bd 28 4e bd 3d 5a 25 f9 3d
       -0.08276418 -0.032092083 0.09243423 0.12165327
000200 e8 0d 66 bc 71 a9 f2 3d 33 da 14 be cb 3d 08 3e
       -0.014041401 0.11848725 -0.14536361 0.13304822
000210 c4 04 55 be cb 83 23 be c2 69 e4 3b 3d c6 90 bd
       -0.20802599 -0.15968244 0.006970615 -0.07069061
000220 66 69 2e bd b2 88 56 3d 99 1d 73 3d 9d ed 0b 3e
       -0.042580985 0.052376457 0.0593544 0.13664861
000230 05 72 bc bd 7d e7 b2 3b a7 65 76 bd eb 8f 96 3c
       -0.09201435 0.0054597245 -0.060155537 0.018379172
000240 57 36 13 3e 9e 68 2e bc f9 aa a9 bd 82 ab 1f bd
       0.14376198 -0.01064506 -0.082845636 -0.038981922
000250 2e 50 a5 3d 56 c0 0b 3e c1 42 68 bd b6 ba b3 3d
       0.08071934 0.13647589 -0.056704286 0.08775847
000260 95 45 66 3d 10 db 75 be f4 e0 e6 bd 20 c5 77 3d
       0.056218702 -0.24009347 -0.11273375 0.060490727
000270 ab 0c 81 3d d5 1a 61 bd 21 4c ef bc 83 1e 0e be
       0.06301244 -0.05495723 -0.029211106 -0.13878827
000280 34 32 48 3d 25 56 d0 3d ea 50 07 bc 04 d6 02 bb
       0.048876002 0.10172681 -0.0082590375 -0.001996399
000290 1e 0c cc bd aa c5 2b be be b3 86 3d 37 9d 07 bd
       -0.09963249 -0.16774622 0.06577252 -0.033108916
0002a0 07 89 c8 3d 6b ad 00 3d 5f 59 e0 bd 7b 7c 04 be
       0.09791761 0.031415384 -0.10954546 -0.1293811
0002b0 4d 75 d5 3c a8 e2 ea 3c 12 49 2e 3e c1 37 a0 3d
       0.02605691 0.028672531 0.17020062 0.07823134
0002c0 06 0d ba 3a d5 1f 55 3d 7a 95 0f be 48 c7 07 bd
       0.0014194555 0.05203231 -0.14021865 -0.033149034
0002d0 c5 e0 8f bd f7 30 df bd 87 19 21 3e e5 a5 c0 3d
       -0.07025293 -0.10898011 0.15732394 0.09406642
0002e0 2f 01 3c 3c 22 c8 ae bd 33 c8 05 bd f1 96 f5 3c
       0.011474892 -0.08534266 -0.032661628 0.029979201
0002f0 60 98 77 be 07 1d 14 bd 9d 00 0c be c0 bd 81 bd
       -0.2417922 -0.036160495 -0.13672109 -0.0633502
000300 90 bf 1c 3c 3a 5f 3f 3d ff 16 1f 3e a1 8a ee bd
       0.009567156 0.046721675 0.15536116 -0.11647535
000310 4f 97 c5 3d be 51 aa bd f7 1e 8b bd 6a db 10 bd
       0.096480004 -0.08316372 -0.067930155 -0.0353655
000320 2a 82 b1 bc 1d 4d d3 bd fe da f7 3c 1f 3f ae 3d
       -0.021668512 -0.103174426 0.03025579 0.08508133
000330 06 39 50 bd 52 14 26 3e 1c 82 ae bc c2 d8 d4 bc
       -0.05083563 0.16218689 -0.021302275 -0.025982264
000340 8f 46 b9 3d 37 cf 03 be 95 61 99 bd bf 09 c9 3d
       0.09046661 -0.12872015 -0.074893154 0.09816312
000350 f1 9b 90 bd 80 32 09 be 0a 88 c1 bb f8 d0 e0 3d
       -0.070609935 -0.1339817 -0.0059061097 0.109773576
000360 2a d2 5d be b8 16 4d 39 08 06 9b bd 92 bb 68 bd
       -0.21662202 0.00019558787 -0.0756951 -0.056819506
000370 ec c5 a2 3d e8 31 50 3e 3e 16 f0 3d 3e 3a 95 3d
       0.07947907 0.20331538 0.11722992 0.072864994
000380 ac 68 02 3e 16 32 27 bd 10 b2 5e 3d 96 11 37 3d
       0.12735242 -0.04081925 0.054369032 0.044694506
000390 01 20 20 3a 26 d9 a5 3c ad bc c0 3d ec 7c a0 bd
       0.00061082846 0.020245146 0.09410987 -0.07836327
0003a0 7f 2c 40 bd 3c d3 f2 bd c1 cc 0a be 8f 9e b4 3d
       -0.046917435 -0.11856696 -0.1355467 0.08819305
0003b0 53 ee a5 3d b6 4e 13 be 05 6c 34 3c 02 3a a6 3e
       0.08102097 -0.14385495 0.011012082 0.3246613
0003c0 73 44 21 be 79 b7 20 be 9b ef bf bd 79 37 57 3e
       -0.15748768 -0.1569499 -0.09371873 0.21017255
0003d0 a5 93 6f 3c e1 42 5a bd 84 b9 96 3d 99 4e 89 3c
       0.014622604 -0.053286437 0.07359603 0.016761111
0003e0 6f 80 0c 3e 68 98 67 be 1b c2 e4 3d 01 02 36 3d
       0.13720869 -0.22616732 0.11169835 0.044435505
0003f0 39 4b 85 3d 32 53 e1 3c fc 13 4f 3d ab 58 ed 3c
       0.06508488 0.02750549 0.050556168 0.028972944

network_body._body_endoder.seq_layers.2.bias f4 [128]
000000 cf 6e b3 bb ea 84 41 bd 79 c6 4b bc f8 57 2e 3c
       -0.005475856 -0.047245897 -0.012437456 0.010641091
000010 19 02 33 bc 30 2b 71 bd e6 74 d7 3c 74 b7 7c 3a
       -0.010925793 -0.058879077 0.026300859 0.0009640374
000020 15 4a ae bc 5f 68 24 bb 4a 71 3c bd 06 fb ff 39
       -0.02127556 -0.0025086624 -0.04600648 0.00048824417
000030 49 5b e8 bc d8 01 59 3a cc 3a 98 bb 80 5a 02 3c
       -0.02836384 0.0008278168 -0.004645681 0.007956147
000040 bf 35 9d bc a2 69 e4 3b 65 7e c9 bc 9d a0 ce bb
       -0.019190667 0.0069706 -0.024596402 -0.0063057677
000050 30 c7 d9 bc c6 61 65 bd 0a 10 c9 bc df 5b 15 bc
       -0.026584238 -0.056001447 -0.02454378 -0.009116142
000060 e1 3e 5b 3a b7 11 c1 bc b9 27 9d bc a8 b0 d6 3c
       0.00083635567 -0.023568017 -0.01918398 0.026207283
000070 01 10 fb bc 36 37 06 3c d2 0a c0 bc 20 ef a9 3b
       -0.03064728 0.008191874 -0.02344266 0.0051859766
000080 c0 1b 0b bc 1b 5b 08 bc 89 0d e4 bb c8 1b 0b bd
       -0.008490503 -0.0083225025 -0.0069596213 -0.03396204
000090 78 10 8b 3c dc 41 3f bb 64 da d5 3c da f9 9f 3c
       0.016975626 -0.0029183542 0.026105113 0.019528318
0000a0 81 4a 69 bc 69 d7 ae 3b da e2 64 bb 5a 24 83 3b
       -0.0142389545 0.0053357375 -0.0034925253 0.004002136
0000b0 bf 62 1a bc d8 59 a3 3c 62 ba ba 3b 18 22 16 bd
       -0.009422957 0.019940302 0.005698488 -0.036653608
0000c0 78 94 e7 bc c9 20 39 3d 81 da 08 bd 79 b9 80 bb
       -0.028269038 0.045197282 -0.033411507 -0.00392836
0000d0 db 9e 5a 3b 3b 65 24 bd 16 a8 17 3b 7b 8c 11 bd
       0.0033358845 -0.040135603 0.0023140959 -0.035534363
0000e0 75 55 ed bc 8c e0 27 bc 6d 94 fe bc c4 b3 2f 3d
       -0.028971413 -0.010246407 -0.031076634 0.042896047
0000f0 95 3d 0d bc f7 5e 35 3b 97 c2 97 ba 1e 0c f1 bb
       -0.008620639 0.0027675012 -0.0011578378 -0.007356181
000100 c2 70 f6 bc 18 94 b5 bc 24 be 16 bd d1 e3 bf 3c
       -0.030083064 -0.022165343 -0.036802426 0.023424061
000110 c4 f2 0b bc e2 91 a9 bc a7 0f 37 3c 61 eb ef bc
       -0.008541767 -0.020699445 0.011173165 -0.029287042
000120 50 c3 0c bd bf 50 01 3b 33 60 ac 3c 7d 9a 13 3b
       -0.034365952 0.0019731966 0.021041965 0.0022522502
000130 68 92 6c 3b 25 9b bc 3b 0d b5 3e bb 69 a2 f1 bc
       0.0036098007 0.0057557994 -0.0029099614 -0.029496389
000140 a3 0e a9 bc f8 6a 7b bd 2b 29 38 bc 63 e0 11 bd
       -0.020636862 -0.06138131 -0.011240284 -0.035614382
000150 c8 90 f4 bc 24 dd 0c 3b d4 49 6f bc 8d 6d f8 bc
       -0.029854193 0.0021494115 -0.014605004 -0.030325675
000160 b3 a5 80 bc aa 9c 8d bc 4e a2 34 bb a1 ae f9 bc
       -0.015704012 -0.017286617 -0.0027562561 -0.030478777
000170 c0 4b 33 ba cb 5c 8e 3c 15 e6 0b bd 94 2c 30 bd
       -0.0006839596 0.017378232 -0.03415497 -0.043011263
000180 91 e4 67 bc e7 b6 f7 bc 8b 81 d0 bc 44 9c 61 3b
       -0.014153616 -0.030238582 -0.025452396 0.0034425417
000190 d2 b8 d8 ba a9 96 a5 bc 24 fe 80 bb 7f b5 84 bb
       -0.0016534573 -0.020213442 -0.003936546 -0.0040499563
0001a0 68 64 f9 bc 14 ef 9f bc af f4 9a bc f9 d3 f1 ba
       -0.030443385 -0.019523181 -0.018915502 -0.0018450014
0001b0 a7 45 16 3c 86 88 69 bc b1 9c bc bc d7 ab 1b bc
       0.00917188 -0.014253741 -0.023023935 -0.009501419
0001c0 dc b1 08 bd 4d 01 4c bc 70 7c a7 ba f1 dc b1 3c
       -0.033372745 -0.012451482 -0.0012778174 0.021711798
0001d0 a9 b7 d9 bc 3e 1c c2 3c dd 4c e9 bc 20 ce 96 bc
       -0.026576834 0.023695108 -0.028479034 -0.018408835
0001e0 99 0b fb bc bc 72 bf bb 19 21 87 3c 3c d8 c0 ba
       -0.030645179 -0.005842535 0.016495274 -0.001471288
0001f0 8d 90 08 3c bb 4b 80 bc 94 10 59 bd 67 3a ac 3a
       0.008335245 -0.015661111 -0.052994326 0.0013139964

action_model._continuous_distribution.log_sigma f4 [1, 4]
000000 e7 28 53 c0 e4 b1 57 c0 f2 81 57 c0 d4 14 56 c0
       -3.2993715 -3.3702326 -3.3673062 -3.3450212

action_model._continuous_distribution.mu.weight f4 [4, 128]
000000 26 49 7c 3c de 10 93 bc 6b 6f 22 bd 2e 34 c5 bd
       0.015398299 -0.017952379 -0.039657038 -0.09629093
000010 e6 74 24 bd 01 54 76 bc 0d 15 8d bd 5a 56 78 bd
       -0.040150546 -0.0150346765 -0.06888781 -0.060629226
000020 cc a3 56 bc e8 d6 c8 bb 7e fa 1e bc e6 87 2a 3c
       -0.013100576 -0.0061291344 -0.009703277 0.010408377
000030 3b 9e 1c bb 4a b7 2b 3c 88 63 e0 bc 29 21 64 bd
       -0.0023898024 0.010480711 -0.02739121 -0.055695686
000040 6d 64 69 bc 49 cb ae 3c 5d a2 f9 3a 19 43 18 bd
       -0.014245135 0.021337168 0.001904558 -0.037173364
000050 86 20 20 bd 4d 0f 5b 3a a4 bb a1 bc 2a cc 22 bc
       -0.039093517 0.0008356467 -0.019742794 -0.009936372
000060 1d 77 7e bd 22 bc f0 bc f0 66 f1 39 8d 4c 54 bd
       -0.062125314 -0.029386584 0.00046043796 -0.051830817
000070 c8 cf 7a bb 78 54 15 3d 35 36 d4 bc 49 66 2e bd
       -0.003827082 0.03645751 -0.025904754 -0.042578015
000080 69 7b 6f 3c 16 3a 06 3c 0c be 8a bd 82 d2 08 bd
       0.014616826 0.00819256 -0.0677453 -0.03340388
000090 f4 7c ad bd 19 48 fa 3b e5 c7 c0 bd 80 ab 8c bd
       -0.084710985 0.0076379892 -0.09413127 -0.068686485
0000a0 67 2d 06 bc 4d 80 3e 3c 9a 88 b8 bd 68 60 56 3c
       -0.008189536 0.011627269 -0.0901043 0.0130845085
0000b0 5d cc 01 3c 1e a1 a2 3c 26 52 da bd 89 d9 0c bb
       0.007922259 0.019852217 -0.106602 -0.0021491966
0000c0 54 79 96 bd 01 ff 7d 3d 24 16 16 bc 59 3f d3 3c
       -0.0734736 0.06201077 -0.009160552 0.025787042
0000d0 3f 9b b4 bd af c1 1d bd c0 fe 3a 3c cc 73 90 bc
       -0.08818673 -0.03851479 0.011413276 -0.017633341
0000e0 1e 01 49 bb 51 9e 65 bd 4a 19 14 bd c4 b1 3c bd
       -0.0030670832 -0.056059185 -0.03615693 -0.046067968
0000f0 79 07 84 bb 53 ea c8 bc 8d 10 2f 3a 24 ce a2 3d
       -0.004029211 -0.024525797 0.00066781865 0.079494745
000100 0d 13 64 bb cf 23 64 ba 9f 2e 22 3c cc df db 3c
       -0.0034801394 -0.00087028457 0.009898811 0.026840113
000110 09 87 7c bc 7b c7 e5 bc 58 2f 9f 3c ef 9c c8 bc
       -0.015413054 -0.028049221 0.019431755 -0.024488894
000120 b6 b4 4a bc c9 da 8f 3b 3d cd 9b bd 0f 13 6d bd
       -0.012372186 0.004390095 -0.076075055 -0.057879504
000130 a7 64 08 bd 71 cd 79 bd 14 6a 1e bd 4c f5 2c bd
       -0.033299115 -0.06098694 -0.038675383 -0.04222612
000140 6d 5b ac bc 97 1c 07 ba 1a 46 e0 3b e2 64 f1 bc
       -0.021039689 -0.00051541015 0.0068442943 -0.02946705
000150 0c 82 2f 3a c9 57 1f bd f5 96 60 bd 15 93 97 bc
       0.0006695099 -0.038902078 -0.054831464 -0.018502751
000160 91 7a 66 3b 4a 55 6e bb 2a 4f 71 bd 3c d1 d2 bc
       0.003516827 -0.0036366754 -0.058913387 -0.025734536
000170 e2 3c f7 bb 69 0d f1 3c e9 e0 21 3c 59 80 f0 ba
       -0.0075450996 0.02942534 0.009880283 -0.0018348797
000180 e7 87 36 bd 56 da c8 bb f5 b9 ee bc fe 81 b3 bd
       -0.0445632 -0.0061295433 -0.029141406 -0.087650284
000190 7f b1 ca bd de 2c 8a bd 32 cb 93 3c 00 8a 57 3b
       -0.09897136 -0.06746839 0.018041227 0.003288865
0001a0 d4 b2 ed bc 24 f4 72 bc f4 a6 b3 bc 4d f5 27 bd
       -0.029015936 -0.0148287155 -0.021930195 -0.04100542
0001b0 d4 1d 2d bd 69 27 28 bd b9 ff 70 3a 16 ff 0c 39
       -0.042264774 -0.04105321 0.0009193379 0.00013446467
0001c0 37 73 3f 3b e4 bf 48 bd c9 fb b7 3b a0 7d 6b bd
       0.002921296 -0.049011126 0.005614732 -0.057492852
0001d0 5e 82 0f bd b7 20 85 bd 41 36 f0 bb d1 f4 04 bd
       -0.035036437 -0.065003805 -0.0073306863 -0.032460038
0001e0 74 8e 96 bc 92 4b a2 bb 64 90 68 bd 3d 33 aa 3b
       -0.018378474 -0.0049528563 -0.056778327 0.0051940964
0001f0 91 2e c4 3c c4 d4 74 bd c2 e2 ec 3a 1f dc bc 3c
       0.023947986 -0.05977322 0.001807295 0.02305418
000200 d2 7d 12 bc 21 3c 5a bb a3 51 cd bb 83 9d e2 bc
       -0.008941131 -0.00333 -0.0062658354 -0.027662998
000210 2c 59 23 bc 9b 0b 04 bb 30 c6 38 bb 3f 23 95 bc
       -0.009969991 -0.002014852 -0.00281943 -0.018205283
000220 39 37 23 bb 57 f6 cb 3b ab 0c 57 3c 1e a9 ed 39
       -0.0024904741 0.0062244344 0.013125579 0.00045330165
000230 ec df ff 3a ad 92 83 bb d9 76 a5 bc d3 3d 20 bd
       0.001952169 -0.004015288 -0.020198273 -0.03912146
000240 f8 24 02 bc 4c 59 a0 3a 24 41 35 bd 6d f7 c1 bb
       -0.007943384 0.0012233644 -0.044251576 -0.005919388
000250 4b 20 59 bc 19 35 c8 bc 3e 85 9c bb 31 a0 83 3b
       -0.013252328 -0.024439381 -0.004776626 0.004016899
000260 a1 3e 90 bc 32 67 35 3c 98 4e a0 ba eb 7d 97 bc
       -0.017607989 0.011071967 -0.0012230454 -0.01849266
000270 e9 41 14 bb 23 3f 2c b7 66 83 43 3c 37 e8 8a 3c
       -0.0022622293 -1.0266699e-05 0.011933183 0.016956432
000280 b3 5f 96 ba 05 9e 01 3c 56 34 70 3c 7d 8f a2 3b
       -0.0011472612 0.00791121 0.014660915 0.004960953
000290 73 82 6a 3c a6 3a 1c 3b 4c 46 90 bc d9 17 0c bd
       0.014313328 0.0023838668 -0.017611645 -0.03420243
0002a0 37 f3 e3 3b da 7d b5 bc 8d 0a c1 bc fd 8e 51 3c
       0.0069564837 -0.022154737 -0.023564601 0.012790439
0002b0 79 5d 63 3b 3c f5 19 3c 91 0b d0 bc a9 f5 00 3b
       0.0034693165 0.009396847 -0.02539614 0.0019677675
0002c0 b1 44 8e bb 56 49 fd 3c e0 2b ae 3b c7 51 44 3c
       -0.0043416847 0.030918758 0.005315289 0.011982388
0002d0 b0 e1 f9 bc a0 52 4c 3b 8c 3d fe 39 f8 d3 ad 3b
       -0.030503124 0.0031177178 0.0004849251 0.0053048097
0002e0 d1 66 c6 3a a8 f2 7c 3c 5a b6 98 bc e9 82 f0 bc
       0.0015136843 0.015438713 -0.01864164 -0.029359298
0002f0 0b d8 da ba f7 f0 66 bb 87 19 c3 ba 22 67 ea 3c
       -0.0016696466 -0.003523884 -0.0014884927 0.02861363
000300 ad 7c 0a 3b c5 5e b2 b9 22 0a 46 bb 66 e3 63 3a
       0.0021131441 -0.00034021414 -0.0030218442 0.0008693248
000310 be e6 7e bb 1f 42 2b bc ea ec 28 3c a9 91 65 bc
       -0.0038894857 -0.010452776 0.010310391 -0.014011779
000320 2d e6 c1 bc fd 75 d9 b8 1b f8 87 bb 33 28 57 bc
       -0.023669327 -0.00010369343 -0.0041494495 -0.013132143
000330 10 9e 07 bb e1 1c c2 bb 72 2a 06 3c 27 ee 18 bb
       -0.0020693578 -0.005923853 0.008188831 -0.002333531
000340 e9 b4 f5 3b b4 4d d4 ba 84 a9 d2 3a 03 bc fd 3a
       0.007498373 -0.0016197474 0.0016072248 0.00193584
000350 4b 79 18 bb ee 6c c8 3a a9 d8 8a 3a 78 d2 98 bc
       -0.0023265656 0.0015291253 0.0010593134 -0.018655047
000360 db 29 1a 3b 34 71 23 39 3e e1 ce 3b 13 a9 51 bb
       0.0023523483 0.00015587063 0.006313472 -0.0031991645
000370 34 1d a5 3b 58 92 28 3b 95 57 ea 3b f8 ca 63 bb
       0.0050388817 0.0025721993 0.007151554 -0.003475843
000380 3f f7 c2 bb c7 a0 ac 3b 20 7d ff bb 8c 94 ac bc
       -0.005949884 0.0052681896 -0.0077968985 -0.021066926
000390 67 ab 12 3b df 06 ad 3c fb cd fa bb a7 88 9e bb
       0.0022379996 0.02112144 -0.0076539493 -0.0048380676
0003a0 35 4c ea 3b 73 a7 6b bb dd bf d3 bb 74 54 c4 bc
       0.007150198 -0.0035957962 -0.006462081 -0.023966052
0003b0 3b 5f 11 bc 4f d5 87 3b 91 01 ee 3c b7 77 ce 39
       -0.008872802 0.0041453014 0.029053481 0.00039380576
0003c0 12 a1 a1 3c 9b 98 27 bc cf 79 bb bc 95 7f 1e bd
       0.019730125 -0.010229255 -0.022885231 -0.03869589
0003d0 02 9e 7f bb 36 73 23 bd 24 44 4e 3c ca f1 5e bc
       -0.0039004092 -0.039904796 0.012589488 -0.013607452
0003e0 28 2a 16 3c da 2a 96 3b 53 ad 90 bc 64 ab 36 3c
       0.009165324 0.004582745 -0.017660772 0.011149261
0003f0 50 22 e9 bb bc cb e6 bb 7a d4 c4 3a f1 49 a0 3c
       -0.007114686 -0.00704333 0.0015016936 0.019566508

action_model._continuous_distribution.mu.bias f4 [4]
000000 08 93 1d 3d cf 82 b5 3b 6b 6c 41 3c be 83 ca 3a
       0.038470298 0.0055392752 0.011805634 0.0015450639

exp_avg f4 [128, 103]
000000 04 00 00 00 95 db a3 ba 00 00 00 00 b7 9a 9a 38
       6e-45 -0.0012501354 0.0 7.37211e-05
000010 ac f4 69 38 00 00 00 00 00 00 00 00 29 32 9a ba
       5.5779397e-05 0.0 0.0 -0.0011764216
000020 99 a3 f5 31 14 9d 8d b9 26 ad 25 b8 04 00 00 80
       7.1490374e-09 -0.00027010648 -3.9500323e-05 -6e-45
000030 7e 99 9a 38 19 ae 9e ba ac 11 9e ba 04 00 00 80
       7.3718824e-05 -0.0012106329 -0.001205971 -6e-45
000040 e4 4b c5 17 89 9f 94 ba 39 4c 32 b8 9a 46 4c ba
       1.2749984e-24 -0.0011339049 -4.2509495e-05 -0.0007792503
000050 04 00 00 00 04 00 00 00 09 30 9a ba f4 12 71 b3
       6e-45 6e-45 -0.0011763583 -5.6129423e-08
000060 c8 e9 8c ba 00 00 00 00 44 ae 9e ba 42 88 0f 38
       -0.0010750825 0.0 -0.0012106379 3.4220757e-05
000070 a2 f8 3a 31 a9 34 5a b8 00 00 00 00 10 00 00 80
       2.7207894e-09 -5.2024294e-05 0.0 -2.2e-44
000080 1f 37 9a ba 8c 86 26 34 0e 9b 40 ba 00 00 00 00
       -0.0011765695 1.5508903e-07 -0.00073473237 0.0
000090 64 ae 9e ba 3b 8f 0f 38 04 00 00 80 b5 69 d5 b7
       -0.0012106416 3.422725e-05 -6e-45 -2.5440802e-05
0000a0 00 00 00 00 b0 0b 5e 32 59 32 9a ba 04 00 00 80
       0.0 1.2924758e-08 -0.0011764272 -6e-45
0000b0 6d 7b 30 b8 00 00 00 00 6a f8 5e 32 59 32 9a ba
       -4.207662e-05 0.0 1.29785835e-08 -0.0011764272
0000c0 04 00 00 00 0b f7 f9 b7 00 00 00 00 6a f8 5e 32
       6e-45 -2.9798151e-05 0.0 1.29785835e-08
0000d0 59 32 9a ba 04 00 00 00 0b f7 f9 b7 d5 85 0f 38
       -0.0011764272 6e-45 -2.9798151e-05 3.4218498e-05
0000e0 ac 11 9e ba 89 9f 94 ba 9a 46 4c ba 09 30 9a ba
       -0.001205971 -0.0011339049 -0.0007792503 -0.0011763583
0000f0 c8 e9 8c ba 01 32 9a ba a9 34 5a b8 1f 37 9a ba
       -0.0010750825 -0.001176417 -5.2024294e-05 -0.0011765695
000100 0e 9b 40 ba ea 31 9a ba b5 69 d5 b7 ea 31 9a ba
       -0.00073473237 -0.0011764143 -2.5440802e-05 -0.0011764143
000110 6d 7b 30 b8 ea 31 9a ba 0b f7 f9 b7 ea 31 9a ba
       -4.207662e-05 -0.0011764143 -2.9798151e-05 -0.0011764143
000120 0b f7 f9 b7 95 db a3 ba ac f4 69 38 29 32 9a ba
       -2.9798151e-05 -0.0012501354 5.5779397e-05 -0.0011764216
000130 14 9d 8d b9 c1 30 32 3d 99 a6 7d bb 6d 8c 15 bc
       -0.00027010648 0.043503527 -0.0038704036 -0.009127718
000140 46 da ae 38 de 64 80 b9 17 53 98 ba 83 09 6b 3c
       8.337623e-05 -0.00024489214 -0.0011621442 0.0143455295
000150 a1 0a 6f 3c 00 00 00 00 00 00 00 00 8b 8a e1 3a
       0.0145899365 0.0 0.0 0.0017207427
000160 b7 5b d9 3a fe 2b 8f 39 1e eb 8e 39 9b bd b5 ba
       0.0016583119 0.00027307862 0.00027259527 -0.0013865711
000170 3d 87 2c 3a 28 20 34 3c 9b 0f c9 b7 cb d2 61 34
       0.00065814314 0.010993995 -2.3968334e-05 2.1031444e-07
000180 6f 80 20 37 d9 82 2c 3d c7 30 a6 39 65 7f 25 3c
       9.566646e-06 0.042116974 0.0003169833 0.010101174
000190 38 fe 37 b6 de 32 83 b9 9d b4 96 ba 04 00 00 00
       -2.74171e-06 -0.00025024166 -0.0011497919 6e-45
0001a0 ae da e5 ba 00 00 00 00 2c 7b 8a 37 73 3c 91 b7
       -0.0017536485 0.0 1.6508238e-05 -1.7313496e-05
0001b0 00 00 00 00 00 00 00 00 77 b0 e3 ba 62 4a 10 b2
       0.0 0.0 -0.0017371316 -8.398816e-09
0001c0 37 29 b2 b9 b7 b2 9d b8 04 00 00 80 00 0c 8b 37
       -0.00033981513 -7.5196316e-05 -6e-45 1.657568e-05
0001d0 c7 01 dc ba ef 15 e2 ba 04 00 00 00 ac ad 00 19
       -0.0016785198 -0.0017248968 6e-45 6.652518e-24
0001e0 14 fa e0 ba 33 ab ad b7 93 31 9b ba 04 00 00 00
       -0.0017164373 -2.0702928e-05 -0.0011840336 6e-45
0001f0 04 00 00 00 31 b2 e3 ba 4d 4a 39 33 bb c2 c3 ba
       6e-45 -0.0017371831 4.3141245e-08 -0.0014935354
000200 00 00 00 00 8f ff db ba 6e 44 76 b8 6e e1 ef 32
       0.0 -0.0016784536 -5.87147e-05 2.7925775e-08
000210 6c 77 9d b8 00 00 00 00 06 04 00 00 19 b1 e3 ba
       -7.5085874e-05 0.0 1.443e-42 -0.0017371505
000220 90 32 30 32 c8 95 89 ba 00 00 00 00 4f ff db ba
       1.0256045e-08 -0.0010496909 0.0 -0.0016784462
000230 61 2e 76 b8 04 00 00 80 2a 0d 42 b8 00 00 00 00
       -5.8694164e-05 -6e-45 -4.6265464e-05 0.0
000240 35 9d da 32 99 b1 e3 ba 04 00 00 80 55 cc 91 b8
       2.545003e-08 -0.0017371654 -6e-45 -6.9521986e-05
000250 00 00 00 00 a2 92 bf 32 7f b1 e3 ba 04 00 00 80
       0.0 2.2302007e-08 -0.0017371624 -6e-45
000260 36 ee 4e b8 00 00 00 00 a2 92 bf 32 7f b1 e3 ba
       -4.933608e-05 0.0 2.2302007e-08 -0.0017371624
000270 04 00 00 80 36 ee 4e b8 60 df 75 b8 ef 15 e2 ba
       -6e-45 -4.933608e-05 -5.8620586e-05 -0.0017248968
000280 14 fa e0 ba 93 31 9b ba 31 b2 e3 ba bb c2 c3 ba
       -0.0017164373 -0.0011840336 -0.0017371831 -0.0014935354
000290 af b1 e3 ba 6c 77 9d b8 19 b1 e3 ba c8 95 89 ba
       -0.001737168 -7.5085874e-05 -0.0017371505 -0.0010496909
0002a0 c1 b0 e3 ba 2a 0d 42 b8 c1 b0 e3 ba 55 cc 91 b8
       -0.0017371402 -4.6265464e-05 -0.0017371402 -6.9521986e-05
0002b0 c1 b0 e3 ba 36 ee 4e b8 c1 b0 e3 ba 36 ee 4e b8
       -0.0017371402 -4.933608e-05 -0.0017371402 -4.933608e-05
0002c0 ae da e5 ba 73 3c 91 b7 77 b0 e3 ba 37 29 b2 b9
       -0.0017536485 -1.7313496e-05 -0.0017371316 -0.00033981513
0002d0 01 bd 9a 3d 81 46 bb bb 0c b3 57 bd 49 00 bd 38
       0.07555581 -0.005715192 -0.052660987 9.0122754e-05
0002e0 ca ee 9c b9 52 00 e0 ba dc 2d be 3c 68 6d bc 3c
       -0.0002993255 -0.0017089939 0.023215227 0.023001388
0002f0 00 00 00 00 00 00 00 00 d8 53 58 3b 79 4f 60 3b
       0.0 0.0 0.003300896 0.0034227057
000300 f9 93 9c 3a e4 8a 96 3a 94 fb c5 ba fd 98 1b b9
       0.0011945955 0.0011485484 -0.0015104883 -0.00014838944
000310 d3 5a 84 3c 51 b9 c8 b7 0d 48 ea b6 ff 55 6d 37
       0.01615659 -2.3928153e-05 -6.9821313e-06 1.4146323e-05
000320 16 a5 97 3d c6 f5 2a ba ec 6d c7 bc a3 a8 8d b6
       0.074045345 -0.00065216084 -0.024344407 -4.2217594e-06
000330 76 f4 d0 b9 f2 58 dd ba 04 00 00 80 6f e1 7e 3a
       -0.0003985499 -0.001688747 -6e-45 0.0009722923
000340 00 00 00 00 83 ef 88 ba 36 65 c4 ba 00 00 00 00
       0.0 -0.0010447357 -0.0014983776 0.0
000350 00 00 00 00 c8 e5 97 b8 67 39 64 b2 a6 e8 0a ba
       0.0 -7.243041e-05 -1.32843985e-08 -0.00052989495
000360 0d d1 98 ba 04 00 00 80 ca e9 88 ba 03 1e 0c 3b
       -0.0011658982 -6e-45 -0.0010445651 0.0021380193
000370 80 b9 77 3a 04 00 00 80 db 2a f3 19 d6 c3 4c 38
       0.0009449944 -6e-45 2.514292e-23 4.8819777e-05
000380 c7 4e fe b8 b1 ec 16 b8 04 00 00 80 04 00 00 00
       -0.00012126337 -3.5983223e-05 -6e-45 6e-45
000390 28 82 98 b8 79 0f 95 34 40 f1 07 3a 00 00 00 00
       -7.272168e-05 2.776467e-07 0.00051857904 0.0
0003a0 69 20 0c 3b 65 e4 10 bb 38 2e 92 34 65 bd 96 ba
       0.0021381623 -0.002210879 2.7228248e-07 -0.0011500536
0003b0 00 00 00 00 bc 01 00 80 68 34 97 b8 b6 8b b8 b4
       0.0 -6.22e-43 -7.2100025e-05 -3.4374324e-07
0003c0 17 e3 11 39 00 00 00 00 a9 20 0c 3b 13 e0 10 bb
       0.00013912875 0.0 0.0021381772 -0.0022106215
0003d0 04 00 00 00 3c ab 03 ba 00 00 00 00 1b 45 6e b3
       6e-45 -0.00050227693 0.0 -5.5476544e-08
0003e0 48 cf 97 b8 04 00 00 00 74 d1 f7 b9 00 00 00 00
       -7.23885e-05 6e-45 -0.00047267566 0.0
0003f0 54 3a 93 b3 48 c8 97 b8 04 00 00 80 58 32 af b9
       -6.855831e-08 -7.2375464e-05 -6e-45 -0.0003341611

exp_avg_sq f4 [128, 103]
000000 b7 91 bd 2d 94 51 bf 37 00 00 00 00 86 09 0c 35
       2.1551523e-11 2.2806962e-05 0.0 5.216792e-07
000010 44 62 d6 35 00 00 00 00 00 00 00 00 b6 ef bf 37
       1.5972842e-06 0.0 0.0 2.2880598e-05
000020 1d 47 c5 34 29 f0 b4 36 be e8 be 35 6b 0b 96 2e
       3.674585e-07 5.3923764e-06 1.422384e-06 6.8232385e-11
000030 40 9b d4 34 47 98 a4 37 c5 36 be 37 53 c1 c1 2e
       3.9601036e-07 1.9621233e-05 2.2675269e-05 8.810965e-11
000040 96 de b7 30 b1 6b c9 37 e4 b4 73 33 4c f5 29 37
       1.3378265e-09 2.4011215e-05 5.6742365e-08 1.0130298e-05
000050 26 c0 06 2f 7d 93 80 2d d5 9f b4 37 41 6e 98 35
       1.2255494e-10 1.4617413e-11 2.15321e-05 1.1356971e-06
000060 a7 aa 9d 37 00 00 00 00 05 2c 61 37 3b 07 06 37
       1.8795325e-05 0.0 1.3421294e-05 7.988706e-06
000070 cb 48 91 2d 17 9f 0e 36 00 00 00 00 a2 3b 58 2c
       1.6516918e-11 2.1252251e-06 0.0 3.072855e-12
000080 48 86 ca 37 74 b7 ce 32 d9 b6 21 37 00 00 00 00
       2.4142806e-05 2.4064981e-08 9.63892e-06 0.0
000090 fa 1c 5c 37 37 58 0d 37 29 ae a1 21 c0 74 3d 35
       1.31197685e-05 8.424794e-06 1.0955884e-18 7.057788e-07
0000a0 00 00 00 00 cb df 94 35 33 d8 b5 37 3e a0 a6 2e
       0.0 1.1091992e-06 2.1677557e-05 7.577271e-11
0000b0 2f bc 3b 35 00 00 00 00 d5 ce 97 35 3c 2b b5 37
       6.993677e-07 0.0 1.1310573e-06 2.1597014e-05
0000c0 e4 12 03 2e 99 cd bd 34 00 00 00 00 d5 ce 97 35
       2.980273e-11 3.5353585e-07 0.0 1.1310573e-06
0000d0 3c 2b b5 37 e4 12 03 2e 99 cd bd 34 0a fe ea 35
       2.1597014e-05 2.980273e-11 3.5353585e-07 1.7508294e-06
0000e0 c5 36 be 37 3e 6d c9 37 4c f5 29 37 2e a0 b4 37
       2.2675269e-05 2.4011937e-05 1.0130298e-05 2.1532262e-05
0000f0 a7 aa 9d 37 6e f3 ca 37 17 9f 0e 36 3c 86 ca 37
       1.8795325e-05 2.4193632e-05 2.1252251e-06 2.4142784e-05
000100 d9 b6 21 37 07 ef ca 37 c0 74 3d 35 cf ee ca 37
       9.63892e-06 2.4191582e-05 7.057788e-07 2.419148e-05
000110 2f bc 3b 35 28 ef ca 37 99 cd bd 34 28 ef ca 37
       6.993677e-07 2.4191642e-05 3.5353585e-07 2.4191642e-05
000120 99 cd bd 34 72 51 bf 37 44 62 d6 35 b6 ef bf 37
       3.5353585e-07 2.28069e-05 1.5972842e-06 2.2880598e-05
000130 29 f0 b4 36 ed 9c 79 3d 32 49 89 39 85 ff 4e 3b
       5.3923764e-06 0.06094067 0.0002618521 0.0031585407
000140 2b 81 3c 34 53 ea ff 34 ed ee c2 37 81 e9 82 3b
       1.7555855e-07 4.7667945e-07 2.323786e-05 0.003995121
000150 0c 37 83 3b 00 00 00 00 00 00 00 00 c8 97 74 39
       0.004004365 0.0 0.0 0.00023326196
000160 af 90 75 39 3c a3 15 37 6c 41 15 37 32 ba 53 38
       0.0002341892 8.919098e-06 8.896324e-06 5.0479728e-05
000170 58 bc 2c 39 55 97 ed 3a 7d 66 8e 35 91 76 a5 36
       0.00016473362 0.0018126765 1.0609652e-06 4.931186e-06
000180 ec 16 87 37 28 26 6d 3d 08 f0 47 39 40 f0 e4 3a
       1.6103928e-05 0.057897717 0.00019067538 0.001746662
000190 79 ae 10 30 8f 2c 94 35 51 f2 c0 37 92 aa f6 2e
       5.2634835e-10 1.1039828e-06 2.3001021e-05 1.1217084e-10
0001a0 cd 3d c2 38 00 00 00 00 6d 71 5a 34 1b d8 98 36
       9.262152e-05 0.0 2.0344096e-07 4.555111e-06
0001b0 00 00 00 00 00 00 00 00 43 f0 a6 38 aa 80 6c 36
       0.0 0.0 7.960249e-05 3.5241633e-06
0001c0 21 27 02 38 8e bb 91 36 68 10 7a 2e 95 cb 02 35
       3.1030857e-05 4.343171e-06 5.685799e-11 4.8725025e-07
0001d0 f0 6c a2 38 43 fc be 38 88 7d ba 30 f0 d6 d1 31
       7.745053e-05 9.1068934e-05 1.3568959e-09 6.107136e-09
0001e0 e0 99 c3 38 35 c8 36 32 19 8b 3a 38 13 a1 9f 30
       9.326986e-05 1.0639316e-08 4.44754e-05 1.1614553e-09
0001f0 dc ef 2a 2d 0c 80 bd 38 28 38 1e 35 ba 87 8b 38
       9.716641e-12 9.036073e-05 5.8941305e-07 6.6533175e-05
000200 00 00 00 00 82 ae 4d 38 89 35 23 38 62 3b c9 30
       0.0 4.903833e-05 3.8912087e-05 1.4641552e-09
000210 8d 39 37 37 00 00 00 00 27 2a e1 2e 7f df c3 38
       1.092105e-05 0.0 1.0239303e-10 9.339954e-05
000220 1b e9 4f 32 86 55 0c 38 00 00 00 00 99 3a 48 38
       1.2101988e-08 3.345825e-05 0.0 4.773829e-05
000230 b4 cd 2b 38 4a 64 13 27 5e 39 95 36 00 00 00 00
       4.0961153e-05 2.0454715e-15 4.4472245e-06 0.0
000240 ae 6c d9 36 c7 8d a0 38 1f 51 82 2e 35 f0 8e 36
       6.479756e-06 7.6558026e-05 5.9261256e-11 4.2598936e-06
000250 00 00 00 00 1e b9 e5 36 49 eb 9f 38 73 6f 05 2f
       0.0 6.8462823e-06 7.625536e-05 1.2135874e-10
000260 a9 5b 12 36 00 00 00 00 1e b9 e5 36 49 eb 9f 38
       2.1809049e-06 0.0 6.8462823e-06 7.625536e-05
000270 73 6f 05 2f a9 5b 12 36 45 71 af 36 43 fc be 38
       1.2135874e-10 2.1809049e-06 5.2285927e-06 9.1068934e-05
000280 8d e9 c3 38 19 8b 3a 38 f0 7f bd 38 ba 87 8b 38
       9.341827e-05 4.44754e-05 9.0360525e-05 6.6533175e-05
000290 dc e6 c3 38 8d 39 37 37 c4 dd c3 38 86 55 0c 38
       9.3413255e-05 1.092105e-05 9.339632e-05 3.345825e-05
0002a0 17 ec c3 38 5e 39 95 36 0b ec c3 38 35 f0 8e 36
       9.3423e-05 4.4472245e-06 9.342291e-05 4.2598936e-06
0002b0 d7 eb c3 38 a9 5b 12 36 d7 eb c3 38 a9 5b 12 36
       9.342253e-05 2.1809049e-06 9.342253e-05 2.1809049e-06
0002c0 00 3e c2 38 1b d8 98 36 43 f0 a6 38 21 27 02 38
       9.262189e-05 4.555111e-06 7.960249e-05 3.1030857e-05
0002d0 a5 e9 8a 3e e8 8a 84 3a 34 9b f8 3d 0d e1 9b 34
       0.27131382 0.0010112198 0.12138978 2.9034746e-07
0002e0 d2 1f e1 35 98 15 bf 38 57 a4 a2 3c fd 3b a3 3c
       1.6773067e-06 9.111612e-05 0.019853754 0.019926066
0002f0 00 00 00 00 00 00 00 00 ac 0d 92 3a da 48 92 3a
       0.0 0.0 0.001114299 0.0011160627
000300 f4 9f f0 38 a3 3d f2 38 39 1b a9 38 00 eb db 39
       0.000114738854 0.0001155094 8.0636186e-05 0.00041946024
000310 65 35 d3 3b 9c 78 b5 36 81 c6 48 38 e9 f0 b4 38
       0.006445574 5.408261e-06 4.7868587e-05 8.627942e-05
000320 ab f6 86 3e e3 44 04 3a 03 b0 39 3d 97 57 18 31
       0.26360068 0.00050456653 0.045333873 2.21687e-09
000330 37 9c a3 36 81 32 b9 38 a0 06 06 33 b0 fe 94 39
       4.8759644e-06 8.8308945e-05 3.120533e-08 0.00028418517
000340 00 00 00 00 39 1f 93 38 cc 17 06 39 00 00 00 00
       0.0 7.015322e-05 0.00012788101 0.0
000350 00 00 00 00 90 e9 c9 39 bc 96 6d 36 c9 ba df 38
       0.0 0.00038511725 3.540349e-06 0.0001066826
000360 1d c8 b0 38 df e5 17 30 a3 cf 0a 38 fe a8 3f 39
       8.429608e-05 5.5260146e-10 3.309514e-05 0.00018278134
000370 74 fe 9d 39 59 af b5 34 21 3f 1b 32 55 e2 d2 39
       0.00030134956 3.384146e-07 9.036541e-09 0.00040222952
000380 92 1c f5 35 e4 e6 47 39 d9 56 b1 34 db 75 07 2f
       1.8262238e-06 0.00019064132 3.303201e-07 1.2320049e-10
000390 ea 84 cf 39 0c ba 37 36 67 61 88 39 00 00 00 00
       0.00039581145 2.7377419e-06 0.00026012512 0.0
0003a0 5c f1 8b 38 29 4d 8f 39 da b6 9b 34 01 f0 a0 38
       6.672993e-05 0.00027332574 2.9004042e-07 7.674099e-05
0003b0 00 00 00 00 32 b4 dc 2e 68 6e d5 39 1b 5a 88 34
       0.0 1.0036451e-10 0.00040708785 2.5397534e-07
0003c0 77 f3 12 39 00 00 00 00 08 3e 88 38 d1 ce 91 39
       0.00014014343 0.0 6.4965396e-05 0.00027810645
0003d0 89 37 bb 29 5b d9 d1 37 00 00 00 00 64 56 f8 36
       8.314102e-14 2.5015956e-05 0.0 7.401033e-06
0003e0 b1 c0 c3 39 6c 67 bc 2f 15 17 d1 37 00 00 00 00
       0.00037336865 3.4270486e-10 2.492549e-05 0.0
0003f0 47 4f 03 37 4f 33 c3 39 ec 30 4e 33 01 2d 56 37
       7.826667e-06 0.00037231526 4.8007607e-08 1.2765872e-05

exp_avg f4 [128]
000000 ea 31 9a ba c1 b0 e3 ba 1b ed 97 b8 55 86 b8 3a
       -0.0011764143 -0.0017371402 -7.2444054e-05 0.001407812
000010 dd 5a 60 39 1e f5 5f ba 81 82 d4 39 49 40 0d ba
       0.00021396154 -0.00085433 0.00040533024 -0.00053883024
000020 d7 8d 72 b9 aa 42 9d b8 eb fd d0 b7 17 d6 3c 3a
       -0.00023131758 -7.4987605e-05 -2.4913772e-05 0.0007203533
000030 80 79 7a ba 19 53 ae 39 fc 31 10 3a 18 53 79 37
       -0.0009554848 0.0003324978 0.00055006123 1.4860903e-05
000040 31 ae 16 3a ad cf c4 b6 22 03 90 38 b7 0b 45 39
       0.00057480024 -5.865432e-06 6.8670386e-05 0.00018791748
000050 d3 ca a2 33 e4 9f 5f 39 d7 99 8e b9 fe 0a bc b8
       7.5806064e-08 0.00021326501 -0.0002719897 -8.966586e-05
000060 53 b4 ca b7 60 18 d4 b7 d3 65 d1 b7 96 84 8f b9
       -2.4164246e-05 -2.528372e-05 -2.4962157e-05 -0.0002737387
000070 2f ae 31 38 4d ee 9e b8 f9 84 c9 37 39 be 89 37
       4.236231e-05 -7.578414e-05 2.4022987e-05 1.6420252e-05
000080 42 d2 4e 3a cf eb 59 b4 8f e9 58 38 25 36 ef 39
       0.0007889607 -2.0295487e-07 5.171593e-05 0.00045625973
000090 e5 35 62 3a 62 94 40 b8 45 db 5a 37 46 ef 9f ba
       0.0008629247 -4.591456e-05 1.3044865e-05 -0.0012202046
0000a0 61 9b 04 3a 46 40 a3 ba 63 03 af ba 2e ba 08 ba
       0.00050585537 -0.0012455068 -0.001335245 -0.0005215731
0000b0 c0 60 cd b6 b2 b4 11 3b 07 f2 b2 36 c8 69 da 39
       -6.1207393e-06 0.0022232947 5.332989e-06 0.00041659013
0000c0 72 9f 12 37 aa 77 e0 38 15 65 c8 39 c0 aa 6d bb
       8.739402e-06 0.000107034415 0.00038222285 -0.0036265105
0000d0 a1 bb aa b8 b0 78 d2 b8 f5 46 26 39 f1 e4 8a 3a
       -8.14118e-05 -0.0001003606 0.00015857427 0.0010596794
0000e0 fe e3 0f 38 78 65 83 b9 9f 3a 49 b8 c9 88 2b ba
       3.430619e-05 -0.00025061867 -4.797673e-05 -0.0006543515
0000f0 33 64 4a ba a4 a7 68 b7 a6 73 34 ba e8 4d 33 ba
       -0.00077206193 -1.38673095e-05 -0.0006883688 -0.0006839917
000100 59 c2 90 39 1c 0c 14 b9 19 f6 6d b8 a1 9b 99 b8
       0.0002761062 -0.00014118891 -5.67344e-05 -7.324597e-05
000110 9f 59 10 3a 60 fe fd 39 85 47 33 39 12 62 d7 b9
       0.00055065186 0.00048445445 0.00017097413 -0.00041081064
000120 07 9e 5d 39 6a 5f da 39 57 81 d9 b4 0a da 82 b9
       0.00021135072 0.0004165129 -4.0513507e-07 -0.00024957984
000130 f7 5c 37 3a 85 14 9c 3a 6a 17 eb 37 60 df 91 38
       0.0006994749 0.0011907971 2.8025086e-05 6.9557456e-05
000140 ba af d7 38 7b 80 24 38 fc 8e 09 3a 1b 17 a5 ba
       0.000102847305 3.9220304e-05 0.00052474416 -0.0012595387
000150 b3 8f b5 38 8c 76 fb b7 11 74 11 39 f3 9b e7 39
       8.6575186e-05 -2.9976734e-05 0.00013871516 0.00044175945
000160 ba ba 96 3a 09 d4 63 b9 6e 40 aa b6 d2 66 8c 39
       0.0011499741 -0.00021727396 -5.0738954e-06 0.00026779488
000170 22 56 b4 b9 8e f2 e6 36 3b 6b 2c ba 5f 09 30 b9
       -0.0003439645 6.8827712e-06 -0.0006577258 -0.00016788159
000180 d7 c0 d5 b9 ab 31 c4 b9 ea 99 2f b3 5e c5 e9 b9
       -0.00040770203 -0.0003742104 -4.0885347e-08 -0.00044588273
000190 d7 a7 35 39 87 59 77 b9 ce c9 28 39 3f 87 1b ba
       0.0001732403 -0.00023589107 0.00016096907 -0.0005932934
0001a0 7e a3 47 38 6e 13 b5 39 d0 e2 1f 3b a6 8b 62 ba
       4.759756e-05 0.00034537486 0.0024396665 -0.0008642025
0001b0 20 b5 ae b8 c9 d6 23 ba d7 be 2b 38 40 7a 22 b7
       -8.330704e-05 -0.0006249962 4.094731e-05 -9.684416e-06
0001c0 c0 11 4a b9 0c 9c 19 38 80 bc 18 39 88 79 f3 b7
       -0.00019270834 3.6623373e-05 0.00014566071 -2.902445e-05
0001d0 69 e6 25 39 5d 11 b9 38 3b d0 8b b9 88 41 a8 b7
       0.0001582146 8.8247216e-05 -0.0002666729 -2.0057676e-05
0001e0 c6 02 54 38 31 b1 eb 39 cf eb 8d 3a a9 b4 7e 38
       5.054732e-05 0.0004495471 0.0010827723 6.0726572e-05
0001f0 68 48 df 38 a5 81 62 3a 88 27 62 b8 42 aa f2 b5
       0.00010646955 0.00086405344 -5.3919415e-05 -1.8079957e-06
