results/DroneAgentTrack10/DroneAgent/DroneAgent-5000021.onnx (onnx, 659442 bytes, 10 tensors)

100 f4 [1, 512, 128]
00000000: 6899 953e be98 afbe ed09 dbbc db89 62be
00000010: 27d6 cabd 7be7 8fbe 5d1e c53e 5996 05be
00000020: 34f3 1e3e 2b01 573e f8da 033e 0415 a03e
00000030: d824 07be 6298 a93e d249 cc3e 899e cb3e
00000040: a1bc 40be cf06 c1bd b66c a5bd 64f4 e6bc
00000050: 9093 a13d 5d70 9bbe f504 9b3d 4de9 973d
00000060: 8411 1f3e 8abc b0bd a21c 98be 6e46 11be
00000070: 4664 4cbe 9cc9 e13d b569 fcbd 5dd6 473e
00000080: f200 2c3e dc4b 5ebe e934 133e 5d27 80bd
00000090: de40 ac3d aada 16bd 3b13 5fbc 0cdf 3e3e
000000a0: f61f d7bd 382b cb3d 71f5 8ebd c308 cf3e
000000b0: 6ad3 f73d 97fb da3d a60e 12be 8305 343e
000000c0: 19c6 673d bf1a 8fbd 02cb 9abe 2883 1fbd
000000d0: e772 a5be 7f10 083e 3d1e 8dbd ccd3 073e
000000e0: 58b1 503d 63e6 0dbf e262 d9bd cc7c 84bd
000000f0: 1219 e8bd 7f62 cabd 8263 5c3e 203d f93d
00000100: 2048 5c3d 1e9d 6e3e 4e93 69ba 1be3 9abd
00000110: 6d20 38be 156d cc3e 9af5 7fbb 86c7 a0be
00000120: 621e 7d3e 3551 8e3e 4e63 2aba ae24 c23e
00000130: 9b75 4ebe dd8a b1bd fef5 de3e 56d8 3bbe
00000140: 3260 f0bd f927 debd 5b7d 033c fd7b 213e
00000150: 0776 633e 2490 dc3d d747 9fbe b56b 543c
00000160: 2a7c dbbd f948 4cbe e005 e7be 95ec a43d
00000170: d107 8ebe 72f7 c23e bef9 10bd 7f1d a7be
00000180: 9b1c 20be 2e9d 293e d295 5f3d 7849 3d3e
00000190: 8c93 b23c e860 3bbd 0c63 ecbc 797d 103e
000001a0: 45ca 62be ca95 abbd f5f7 1cbe bb03 a9be
000001b0: 2ed2 723e fe23 84bd c227 a43d a7e7 a63e
000001c0: c1a8 9ebe 917f 5ebe 1b12 45bd dc6b f5bc
000001d0: 259a 04bd a486 0f3d c15f 943e 192c 8f3d
000001e0: 89ea 83bd 3fc3 d83c e941 cebd 3163 7a3e
000001f0: 838e f53d 832f 263b 02b3 913d 731c 913e
00000200: 919a c9bd 6a03 4ebe 6aae 62bd 52b5 383d
00000210: f531 033e 9d92 d23d 6a5e 353e 81b9 fd3d
00000220: 243d f23c 28c0 3abe c7c4 8bbe 2c69 85be
00000230: 3384 513c 998b 4cbe 8b13 6bbd 918c 9d3e
00000240: 096c 763e 3f3f 133f 451f dfbd 0708 563c
00000250: 110c 43be a56f 68be bc60 033f 1be8 1dbe
00000260: 598a 603d 5033 0bbe b3b6 bbbd 540f 093e
00000270: a9f4 83be a479 ba3e 3205 b4be aac8 4a3f
00000280: 8a25 9b3d c01c 88bc ed34 f1be 1de0 463e
00000290: 6832 56bd 4dd0 4b3e 4715 80bd 4fab 19be
000002a0: 5773 00be c164 233d 7a37 e43c 3175 e3be
000002b0: e3a8 19bd 9f2f 0abe cfd3 47be a36d b03e
000002c0: bfbd 20bd 1c3e 893d d4f1 db3d 1170 f13e
000002d0: 850c 413f f3d6 cbbe b719 5dbe 4477 c8bd
000002e0: d93c 4cbe 879a a13e 55c5 f43d ad19 f93d
000002f0: c277 5dbe 97ad 21bd da14 173d cd18 f0bd
00000300: bf53 c2be cb33 343e 0ace dcbe 6f08 bebd
00000310: f41d 77bd 5d18 82be 5907 e33d e80b 933e
00000320: 99d0 40bc 07d3 32bf 5569 6ebe 3c1d 293e
00000330: a896 223c 89e9 e13e 79d2 473e 660a ba3e
00000340: 03fe d73b c3d8 60bb 73a3 103e 5634 b63e
00000350: 13f2 86bc c6f0 8d3d 16a4 50be a889 dbbd
00000360: e081 883e f29c 4cbd b205 a53e 6080 99bd
00000370: 5eb7 5e3e be0a 8dbe 016f 42bd 5c2b 73bc
00000380: a14a 33be 9cf9 c33d c1e2 453e 5f88 7bbd
00000390: a2c0 ee3e 7d4d 013d 4dcf b3bc 5de6 513e
000003a0: 13a8 94be 1248 753e a93c 80be f937 e43d
000003b0: 1483 55be 62c1 a3bd 5933 94be 6583 cabd
000003c0: a030 d8bd cab0 7d3c 9c63 c6bd 6254 093e
000003d0: ad23 b53e 07de 48be 7cfc c4bc 44bb 25be
000003e0: 4376 a63d 2168 7e3d ac5e a7be f8ea af3d
000003f0: eeb8 a43c 9a20 0d3d 8dd1 ca3e 45c5 59be
0.29218602 -0.3429622 -0.026738131 -0.221229 -0.099041276 -0.28106293 0.38499728 -0.13045634
0.15522462 0.2099654 0.12876499 0.31266034 -0.13197649 0.3312407 0.3990007 0.3976939
-0.18821956 -0.09425127 -0.080773756 -0.028192706 0.078894734 -0.30359164 0.07569305 0.074175455
0.15534025 -0.08629711 -0.29709345 -0.14187023 -0.19960126 0.11024782 -0.123248495 0.19515367
0.16797236 -0.21708626 0.14375652 -0.06257508 0.0841081 -0.036829628 -0.013615425 0.18639773
-0.10504143 0.09920353 -0.06980408 0.40436372 0.12100871 0.10692518 -0.142634 0.17580228
0.056585405 -0.06987523 -0.30233008 -0.03894344 -0.32314226 0.13287543 -0.06890533 0.13264388
0.05095038 -0.5542967 -0.106145635 -0.064691156 -0.11332907 -0.09882068 0.21522334 0.12169862
0.05377972 0.23302123 -0.0008910195 -0.07562848 -0.1798112 0.39926973 -0.0039056302 -0.31402224
0.24718621 0.2779633 -0.0006499783 0.3791861 -0.2016205 -0.08669064 0.43547052 -0.18344244
-0.11737098 -0.10847468 0.008025493 0.15769954 0.22212993 0.1076968 -0.31109497 0.0129651325
-0.10717042 -0.19949712 -0.4512167 0.08052937 -0.27740338 0.3807941 -0.035394423 -0.3263969
-0.15635912 0.16563866 0.05458624 0.18485057 0.021798871 -0.045746714 -0.028855823 0.14110364
-0.22147472 -0.08378179 -0.15328963 -0.3301066 0.2371299 -0.064521775 0.08015396 0.32598612
-0.30988124 -0.2172835 -0.04811297 -0.029958658 -0.032373566 0.035040513 0.28979304 0.06990833
-0.064412184 0.026460288 -0.10071165 0.24451901 0.119900726 0.002535791 0.07114221 0.28342018
-0.09843934 -0.2011849 -0.055342115 0.045094796 0.12812026 0.102818705 0.17711797 0.12388898
0.02957017 -0.18237364 -0.27298567 -0.26056802 0.012787866 -0.19975127 -0.057391685 0.30771306
0.2406465 0.5751838 -0.10894636 0.013063437 -0.19047572 -0.22698839 0.5131948 -0.15420572
0.05481944 -0.13593793 -0.091657065 0.13384753 -0.25772598 0.3642093 -0.35160214 0.7921244
0.075755194 -0.016615272 -0.47110692 0.1942143 -0.052294165 0.19903679 -0.06254058 -0.15006755
-0.12543999 0.03989101 0.027858485 -0.44425347 -0.03751458 -0.13494729 -0.19514392 0.34458646
-0.039243456 0.067012995 0.107394844 0.47155812 0.7540973 -0.3981243 -0.2159184 -0.09788373
-0.19945087 0.31563208 0.119517006 0.121631004 -0.21627715 -0.03947219 0.03688512 -0.117234804
-0.37954518 0.17597882 -0.43125945 -0.09278952 -0.0603313 -0.25409213 0.11085386 0.2872002
-0.011768484 -0.6985325 -0.23282368 0.16515058 0.009923615 0.44123486 0.19513883 0.36336058
0.00659156 -0.0034308888 0.14124851 0.35586804 -0.016472852 0.069306895 -0.20375094 -0.10719615
0.26661587 -0.049954362 0.32230908 -0.07495189 0.21749637 -0.27547258 -0.047469143 -0.014841881
-0.17508937 0.095690936 0.19324781 -0.06140935 0.46631342 0.03156804 -0.021949435 0.20498033
-0.2903448 0.23953274 -0.2504628 0.111434884 -0.20850784 -0.07995869 -0.28945425 -0.09888343
-0.105561495 0.015484044 -0.09686968 0.13411096 0.3537878 -0.19615947 -0.024046175 -0.16184717
0.081280254 0.062111024 -0.32689416 0.085897386 0.020107713 0.03445492 0.39613 -0.21266659

101 f4 [1, 512, 128]
00000000: 5a43 8e3c 7072 a93e f9cb cb3d 0735 233e
00000010: 7d02 153e a8c2 283c 54aa bb3e 6490 c9be
00000020: a9ec c13d 997a debd a3f6 89bd 1bdf dbbd
00000030: dc93 c7be ddae 0c3d 2c7a 993e 3d7b 82be
00000040: 44b7 923e f1c5 b9be 8839 ee3d dbde 5fbe
00000050: f150 b63d 00a7 973d 824e 3bbe f1ef b9be
00000060: 471e 303c 02af 013e 1976 473d c974 a73e
00000070: f6da 07be 2978 64bc b3d7 64be 4eee 8f3e
00000080: 2e4b 613c 720e f1bc 032f 4bbe ed99 e23d
00000090: 4d7c 5e3d 924a 783b f5d3 8dbe 514a 08be
000000a0: c869 e7bd b03b 553e b308 03be bf75 8c3e
000000b0: e995 053d 0d0d 603e 9e1a 353e 4f17 5e3e
000000c0: 1639 c5bc b765 68be 3752 cebd 5177 8c3e
000000d0: bc42 3ebe bfbe 233e 7a9c b73d d715 15be
000000e0: 5b89 13be ea60 063f 80bf d83d 385c 903d
000000f0: 7855 a4bd 50d1 bc3d f269 07bb e5fa f5bd
00000100: 57ba e6bd b916 20be 22d7 7cbe 2ea9 4e3d
00000110: 450b e5bd e720 32bd d74f 343d 08fd 32be
00000120: b71d f1bd e09f c5bd c037 aebc cc70 e63d
00000130: 64f5 48bd a4bd 18bd e4a6 b73d c701 f1bd
00000140: 7a4c 3abd 584c e93e 5890 903b 4b82 f33d
00000150: afd0 ab3e 49f9 5cbe 007b 393d d6b6 923d
00000160: 9881 10bd a17c adbc cad6 963e 9a06 8ebd
00000170: a68c 2a3e 6052 c4bd 51c8 05be 80bc 903d
00000180: b265 1d3e b4c0 753d f0e8 873e 0855 1d3d
00000190: 598e 463e d6af 3a3e 4a25 1b3d adf1 00be
000001a0: c44f a23c c5eb 1e3e ff3c b6be ecbe 7dbe
000001b0: fcbe 2b3e a574 15be ab0f cb3d 6d2d 573d
000001c0: 34a9 b43e 570c 843e d0af 59be f487 ad3e
000001d0: e1da 1ebe 1fd5 92bd 1471 cebe 1fd6 babd
000001e0: a025 903e 1919 cf3d 3eea 75be 634c 42be
000001f0: 5bc7 993d e7af ce3d aa99 723e b770 8abc
00000200: 7cbc 0d3e 82c8 363e b549 be3d 0c97 07be
00000210: 0e7e 5c3d 0732 47be 9731 113e 7f27 8fbd
00000220: 453b 7cbd 0137 04be b425 dc3d fce6 c7bd
00000230: 7f76 9cbd 3753 a3be ab4d 9cbe 362e 873e
00000240: ec56 b43e 7731 9ebc aacb f3bd c67a 783e
00000250: edfa 0fbd a8d2 423e 1eb6 8f3d adab 413e
00000260: b2ab e23b fe9f 903e 77ce 913e dd8b 86be
00000270: 722f 373d 74b5 9dbe a8bd 9bbe 490b 20be
00000280: ce62 19be b01c 213e d141 d83d 93f6 edbd
00000290: 6629 b9b9 3308 1ebe 441d fe3c 1bca a13c
000002a0: 641b c4bd 8238 563e a7c4 7cbe 158d 19be
000002b0: a804 b9be 9930 003e 329c 32be 2355 cebe
000002c0: ce9b ad3d bf46 343d a57a f1bd 89e9 0abe
000002d0: b276 d63c 6ebf 5d3e 065b 86ba df6a 9bbe
000002e0: 18e9 8dbd 7876 a2be f04e 6a3e ac46 e63d
000002f0: 652b 0abd 8bbf 49bd 1384 9f3e c574 26bd
00000300: 9746 243c 317e babe d9a1 993e aaf3 75be
00000310: 79f1 133f 56ab b8bd 1ddd f2bc 4fc6 4fbe
00000320: b03d ba3e 3991 0d3d 5eb8 543d cbae dbbd
00000330: e86f c1bd b08f e13e 58a0 a5be 31d5 70b9
00000340: 62b3 5fbd 94fd d2bd 19bf c93d 3d10 c73d
00000350: 1edd d4bd c75b 023f 3294 81bd 7e10 a13e
00000360: f1ff 833e cd1c 963e a46c 893b 2c4e d63d
00000370: 6028 883e 72ec 3e3d 13a6 883e 27a4 1ebe
00000380: 1060 80be 1286 153e dd57 d53c 9edf e1be
00000390: e082 48bd 5830 dfbd 98a2 ab3e 0f5c 143c
000003a0: 0659 b4bd 6b79 2f3d eadd be3d 6b15 7bbd
000003b0: 441f f63d 7b85 143f 8c92 a7be 0700 51be
000003c0: 7c3d e93e 206b 8d3e fc30 71bd f853 83be
000003d0: 6601 68be fe19 283e f8b1 9f3d 8bef 0cbe
000003e0: f8ae 54be dd31 97be 7d16 b5be 8433 b63d
000003f0: 1b2f c73e 9e43 3abe 5b50 7e3e eb7e e13d
0.0173661 0.3309512 0.09951014 0.15938197 0.1455173 0.010300316 0.36653388 -0.39367974
0.094689675 -0.108632274 -0.06736495 -0.10735913 -0.38979995 0.03434645 0.29976022 -0.25484648
0.28655446 -0.3628383 0.11632067 -0.21862356 0.08902157 0.074048996 -0.18291667 -0.36315873
0.010749406 0.12664416 0.04869661 0.32706288 -0.1326712 -0.013944664 -0.22347908 0.281115
0.013750834 -0.029425833 -0.19842152 0.11064515 0.05431776 0.0037886244 -0.27700773 -0.133096
-0.11299473 0.2082355 -0.12796287 0.27433583 0.03261367 0.21879978 0.17685935 0.21688579
-0.024075072 -0.22695051 -0.10074275 0.2743478 -0.18580145 0.15990733 0.089653924 -0.14559112
-0.14407866 0.5249163 0.10583401 0.07048839 -0.08024114 0.09219611 -0.0020662514 -0.12010745
-0.1126601 -0.15633668 -0.24691442 0.05045431 -0.1118379 -0.04348841 0.044021454 -0.17479336
-0.11773246 -0.09649634 -0.021266818 0.11251983 -0.049062148 -0.03729023 0.08967379 -0.11767917
-0.04548309 0.45566058 0.0044117384 0.11890086 0.3355765 -0.2157947 0.045283318 0.071637794
-0.03527984 -0.021177592 0.29460746 -0.06934853 0.16655216 -0.09586024 -0.13064696 0.070672035
0.15370825 0.05999823 0.26544905 0.03841117 0.19390239 0.18231139 0.03787736 -0.12592192
0.019813426 0.15519626 -0.3559341 -0.24779862 0.16772074 -0.14595278 0.09915098 0.052533556
0.35285342 0.25790665 -0.21258473 0.33892787 -0.15513183 -0.07169556 -0.40320647 -0.091228716
0.28153706 0.10112209 -0.24015138 -0.18974452 0.07508727 0.100921445 0.2369143 -0.01689945
0.13841432 0.17849925 0.09291402 -0.13241214 0.053831153 -0.19452678 0.14179073 -0.06989955
-0.06157996 -0.12911607 0.10749379 -0.09760854 -0.07639789 -0.31899425 -0.30528006 0.26402444
0.35222566 -0.019310696 -0.1190408 0.24265584 -0.03515141 0.19025671 0.07017158 0.18913145
0.0069174403 0.28247064 0.28477833 -0.26278582 0.04472298 -0.308025 -0.30418134 -0.15629305
-0.14979097 0.157336 0.105594285 -0.11619296 -0.00035316794 -0.15432815 0.031019814 0.019749692
-0.09575537 0.20919994 -0.24684392 -0.14995225 -0.36136365 0.12518539 -0.17442396 -0.4029933
0.08476983 0.04401278 -0.11790971 -0.13565649 0.026179645 0.21655056 -0.0010250516 -0.30354974
-0.06929225 -0.3173101 0.22881675 0.11243948 -0.03373279 -0.049254935 0.31155452 -0.040638704
0.010026596 -0.364244 0.30006292 -0.24018732 0.57790333 -0.09017055 -0.02964645 -0.20290492
0.3637519 0.034562323 0.05193364 -0.107266985 -0.094451725 0.44054937 -0.32348895 -0.00022967604
-0.054614432 -0.103022724 0.09850902 0.09719894 -0.10393737 0.5092129 -0.06327094 0.31457895
0.25781205 0.29318848 0.004193859 0.10464129 0.26593304 0.04661221 0.26689205 -0.15492307
-0.2507329 0.14601925 0.026042873 -0.4411592 -0.048952937 -0.10897893 0.33522487 0.009055152
-0.088060424 0.042840403 0.093196705 -0.061299723 0.12017682 0.58016175 -0.32728994 -0.20410167
0.4555472 0.27620792 -0.058884606 -0.2565 -0.22656783 0.16416165 0.07797617 -0.13763253
-0.2076987 -0.2953023 -0.3536872 0.088965446 0.38903126 -0.18189856 0.2483534 0.11010536

102 f4 [1, 1024]
00000000: 6096 14be 5b9c dc3d d76e 3d3e 2a26 183e
00000010: 2777 583d 6822 c73e cebf e73d f06d 92bc
00000020: 1c55 e13d 158c 8d3e fb4a 3d3e 1c87 fdbb
00000030: 0fb7 dd3d 22d3 fe3d 3395 523e d965 3fbd
00000040: fff2 863b 41da 403e d66d b43d 2ab8 0a3e
00000050: 4c2f da3e 0f61 82bb 339d 6c3e ba8d ef3d
00000060: b743 3d3e 128a 3f3e 2115 c53d 494b 0f3d
00000070: ae8f 9d3e d542 453e 5dbf 843e 1886 303c
00000080: 3909 a33d 46db 093e 5016 ae3d 62fe 283d
00000090: 2c10 f43c ecd0 2abd 25e2 283c e755 023e
000000a0: 2d8f 803c 610f fe3c 96dd 233d 85e8 173e
000000b0: d735 8a3e 4903 d73d e0db 693e e260 37bb
000000c0: 2e38 febd b232 f7bc 0315 c73c d47e fc3d
000000d0: 7902 833e 904b 813c 5cdb 8e3e 0e01 873e
000000e0: 099d 9cbd 443c 183e 039b 0c3d ccc3 ab3d
000000f0: a368 1a3e dc2c babd 744f 00be 6a0b 76bd
00000100: f245 a53d 2adb ca3d 621b 7a3e 1fc2 8b3e
00000110: ea94 4d3e 61fd ce3c 0a8a eb3d 4f66 fc3d
00000120: c295 803e c803 a33d 9b90 843d ceeb ee3d
00000130: d1b8 d1bc 198f 783e 92c7 813e 453a 433e
00000140: d850 6b3e 251d 083e 4610 243e b895 2a3d
00000150: 7427 853e e3c9 cc3d c577 67be 856a 1f3d
00000160: d66e 263e 994f 673d bbfb 8e3e 360f 0c3c
00000170: 4bfb 93bd 53bb a83d 9f12 0a3e 90b1 8ebd
00000180: 7d17 773e c192 9abc 66d2 833e 1fd1 8f3e
00000190: e7e0 c73d 89ea bc3e 4f1a f13d 9edb 633d
000001a0: 36a6 4ebd 9ffb 33bd 5710 953e 8d2f 683e
000001b0: f11c e1bd b93a 8abc e706 183e 3077 51be
000001c0: 9f80 d93d 7f44 bb3d 05b3 6b3e 3a3b a8bd
000001d0: 9e6a c33d 1aff 363e 22f9 9b3e 047b dbbd
000001e0: 6677 b33d a525 2a3c b68e 013e dc84 323d
000001f0: 1885 4b3e d063 043e 55f1 373e fe92 a2bd
00000200: d170 a8bd f2a3 be3d 26a5 a13e b4f2 8b3e
00000210: 666f b3bd feda f63d 444a 793b 4aa5 11be
00000220: 265c 493e 8798 b73e 89be 813e 08d4 b33d
00000230: aae5 abbd 34fb 053e 4ac2 833d 92b0 4b3d
00000240: 9287 e13b eb46 d43e 1237 c53d a2dd 943e
00000250: dd4c d83e ddee 24be d472 953e 560e da3d
00000260: 4634 6b3e e0a5 233e 34e8 9c3c 22cb c1bc
00000270: 490a 073e 893a 593e b04f a33e d10d 963d
00000280: 8c4b 013e 5b01 7b3e 6f26 b1ba bfae 623c
00000290: a8e3 243e b1b5 c4bd ce83 43bc 8a39 6b3e
000002a0: f6c3 0a3e 3780 993d 4d76 973e f477 b63d
000002b0: 7f5d 613d 7aa8 843e 7b2f a53e fbdd 863d
000002c0: 9a2f cebb b962 39bd 555c 383d 905b e1bd
000002d0: 9600 343e d788 f33c ec96 3b3d 5bab 733e
000002e0: fbef e33d 7cb2 943d ee56 1f3e 03f8 dd3d
000002f0: ad5d 0f3e d7f3 623d d561 263d a6f4 29be
00000300: 479c 9b3d e5b7 9f3b ae14 203e ffd2 1e3e
00000310: 96a7 2f3d b782 e13d 00f6 963d b672 2ebd
00000320: f70c 8c3d 1cc9 f23d 624b c13e be8b 803e
00000330: b45e 023e 0570 993e ad08 383e 55e2 283e
00000340: 4fd1 993e 379f 173d 226b a83c d9c6 cebd
00000350: 7832 9f3e 5875 c23e 9d23 413e 935b 54be
00000360: b78a b9bd 5c76 2b3d c539 743e 3c68 c4bc
00000370: 7108 15bd baab 2dbb 1531 f9bc 513f 2fbc
00000380: 62df 50bd 33c2 54bb c2d8 783e 6bed ce3d
00000390: 5346 b63d 0b65 973e 0b89 cd3d d7bb c53d
000003a0: aca6 db3d 51b1 93bd a0d4 1f3e 0a2f 0b3d
000003b0: 29e2 063e d87a eb3c e084 1b3e 6521 16bd
000003c0: 9875 8e3e 6443 073e f892 603e e39e a33c
000003d0: f423 4e3e 70b4 fa3d d676 953e 1c43 bb3d
000003e0: b4e8 023e 0ada 9a3e 7ad5 84bc 4b62 f43d
000003f0: aa23 f23d 58d0 6b3e 2f4a 62be 4a0b 6e3e
-0.14510489 0.1077201 0.18499313 0.14858308 0.052848008 0.38893437 0.11315881 -0.017874688
0.110025615 0.27645937 0.18485634 -0.0077370536 0.10825931 0.12442614 0.20564727 -0.04672799
0.004118323 0.18833257 0.08810012 0.13546816 0.4261421 -0.0039788554 0.23106842 0.11696954
0.18482862 0.18705013 0.09623171 0.034983907 0.3077368 0.19263776 0.2592725 0.010774158
0.079607435 0.13462552 0.085003495 0.041258223 0.029792868 -0.04170315 0.010307823 0.12728082
0.015693272 0.031013193 0.040006243 0.14834793 0.26994202 0.104986735 0.22837782 -0.002798133
-0.12413059 -0.03017554 0.024302011 0.12328878 0.25587824 0.015783101 0.27901733 0.26367992
-0.076471396 0.1486674 0.03432752 0.08386955 0.15078978 -0.090905875 -0.12530309 -0.06006948
0.08069982 0.099050835 0.24424508 0.2729654 0.20076337 0.025267305 0.11500938 0.12324201
0.25114256 0.079597056 0.06472894 0.1166607 -0.025600823 0.24273337 0.25347573 0.19065197
0.22980058 0.13292368 0.16021833 0.04164669 0.26006663 0.09999444 -0.22604282 0.038919944
0.16253218 0.056472395 0.2792643 0.008548548 -0.07225665 0.08238854 0.13483666 -0.06967461
0.24130054 -0.018868806 0.2574646 0.28089234 0.097596936 0.36897686 0.11772596 0.055629365
-0.05045148 -0.043941136 0.2911403 0.22674389 -0.10991848 -0.016873704 0.14846383 -0.20455623
0.10620236 0.09143924 0.2301751 -0.082144216 0.0954182 0.17870751 0.3046351 -0.10716823
0.08763008 0.010384952 0.12652096 0.043583736 0.1987499 0.129287 0.17963155 -0.07938193
-0.08224643 0.09308614 0.3157131 0.27333605 -0.08761482 0.12053488 0.003803865 -0.14223209
0.19664058 0.35858557 0.2534068 0.08780676 -0.08393414 0.13084108 0.06433542 0.049728937
0.0068826163 0.41460356 0.096296445 0.29075342 0.42246142 -0.16106744 0.2918917 0.106472656
0.2296916 0.15981245 0.019153692 -0.023656432 0.13187517 0.21213736 0.31896734 0.07326854
0.12626475 0.24512236 -0.0013515482 0.013835608 0.16102469 -0.096049674 -0.01193328 0.22971168
0.13551316 0.07495158 0.29582444 0.08909598 0.055020805 0.25909787 0.32262787 0.06585308
-0.0062922956 -0.045260165 0.04500993 -0.11003792 0.17578349 0.029728336 0.045798227 0.23795836
0.11129757 0.07260606 0.15560505 0.1083832 0.14000578 0.055408325 0.040620644 -0.16597232
0.07598167 0.004874217 0.15632889 0.15510176 0.04288443 0.1101126 0.073711395 -0.042589866
0.0683841 0.11854765 0.37752825 0.25106615 0.12731439 0.29968277 0.1797206 0.16492589
0.30042502 0.037017073 0.020558897 -0.10096521 0.31093192 0.3798015 0.18861242 -0.20738058
-0.09059661 0.041860923 0.23850162 -0.023975484 -0.036385003 -0.0026500062 -0.030418912 -0.010696248
-0.050994284 -0.0032464385 0.24301437 0.10103878 0.08900132 0.29569277 0.100359045 0.09654968
0.107251495 -0.07211555 0.15608454 0.033980407 0.13172211 0.0287451 0.15187407 -0.03665294
0.27824092 0.13209301 0.21931064 0.019973224 0.20130903 0.12241447 0.29192227 0.091436595
0.12784082 0.30244476 -0.016215075 0.119328104 0.11823209 0.23028696 -0.22098611 0.23246494

action_model._continuous_distribution.log_sigma f4 [1, 4]
00000000: 4310 8840 0f53 8240 a850 cc40 2b6f a040
4.251985 4.072639 6.3848457 5.0135703

action_model._continuous_distribution.mu.bias f4 [4]
00000000: 7501 443e a647 733c afb4 30be 714d 4d3f
0.19141181 0.014848625 -0.17256425 0.8019629

action_model._continuous_distribution.mu.weight f4 [4, 128]
00000000: d040 5940 177c 183f ad94 a43f 0f84 e8bf
00000010: 9144 7a3f b05b a73f e59a 9fbf 0e11 0340
00000020: 9fad e0bf 578b 4340 2530 edbe b45f a1bf
00000030: 670d dbbf ccba 22c0 9aac 3bc0 88f7 bc3e
00000040: 8587 86bf 5a17 963f a25f 4a3f f94a 7f40
00000050: a68f a1bf bac9 f1be c60b 6540 a69b 15bf
00000060: 8248 9d3f 2163 babe 0830 a43d 004b 28c0
00000070: 2e68 57bf 2649 bfbf e34b 393f 9be4 9ebf
00000080: d932 67bf 23bb 333f 8e19 8abe 127b 8b3f
00000090: ab6e 53c0 1749 b53f 9e9c 71be 8714 e13f
000000a0: 0b9a c83f 6c7c 2fc0 11fa 0c3f 3106 1ec0
000000b0: 7682 343e 483c 46c0 a4dc c2bd b369 903f
000000c0: dcb9 87bf 870f 31c0 88ad 5dc0 181f 20bf
000000d0: 9799 083f 165f cebf babc cb3f f01f 5a40
000000e0: 3407 32c0 52b1 dcbf e36f dbbf 42b3 4ebd
000000f0: 4ddd 85bf b0a2 cabf a152 2c40 b2ed 2d3e
00000100: 175e 33c0 cd9e cebf 4f9c 4e40 3715 4dc0
00000110: 4fc3 b03f 465a 2c40 cf5a 5cc0 b234 c23f
00000120: e07d 0a40 408f 36c0 7ac6 1840 e532 fdbf
00000130: b7fd 07be 25ad bd3f 2380 403f 6381 87bf
00000140: 0e70 b63f bb04 aa3d bd43 03c0 fa6d 36c0
00000150: 564d 80c0 0723 583f b39a 993f c8c7 3bbf
00000160: bf53 d33d 6b4f 79bf 8a73 c83f ab95 5e40
00000170: ffc6 513f e662 2640 b017 2d40 2041 49bf
00000180: 87bb 0ebf 5a6c 1cbf eb81 9dbf e579 f4bf
00000190: 9b84 2340 e4a7 5540 8824 16bf 3942 633f
000001a0: 6d2e 1c40 c684 4e3f 8aea 6140 0636 8fbf
000001b0: 71df 03c0 ee41 b9bf b8d1 07bf 9dc0 4dbe
000001c0: 0f0a b2bf b841 bb3f 88b3 3d40 15db 0f3f
000001d0: b173 d1bf 3342 4040 03c5 83bf acaa 423f
000001e0: 12d7 49bf 4c0e 35c0 1615 40bf 76ff 34bf
000001f0: 4b47 c33f 5afd 87c0 5125 77bf 9347 913f
00000200: cad9 d23e f096 bfbf 7b1d 3b40 a971 ad3f
00000210: ceec 5ac0 1584 9c3f 013e eb3f ebdf d7bf
00000220: 6c8f 0540 f926 f03f c4c5 f3bf f8b3 8b3f
00000230: 9e9d f03f e508 9c3f a156 afbf 2538 17c0
00000240: cb9a a7bf 9e3a 82c0 b49b 0240 1672 e1bc
00000250: 8585 8940 0abf 3ec0 cea1 27bf ec7d f83f
00000260: 22d8 15c0 3933 7ac0 bbb5 5bc0 b858 4cbe
00000270: 8e8c edbf a480 f1bf 0019 babf 2dd2 183e
00000280: d2b1 4bc0 8ba8 61c0 e54a 3dc0 75a0 3940
00000290: c3fe d9be 08d9 9abd 93c3 27c0 c804 11c0
000002a0: dd1f 19bf ce48 fd3f 08ca e8be f220 b63f
000002b0: f832 79c0 861d f13f 234c 0440 dcf7 4840
000002c0: b767 833f e08a a83f 81e5 89be d58e a53f
000002d0: 2f2f 32be 153b 4ebf d8aa 2840 9b7f 06c0
000002e0: ce72 88bf 4ba6 4040 0198 fd3d 1a30 cc3f
000002f0: 0b5d 2f3f afc8 20be 3453 fabe a324 5abf
00000300: 3a06 d83e 0172 27c0 ba7b f6bf c1e9 4cbf
00000310: c60b c23f 7771 863f 2e95 d0bd 9ab6 b73f
00000320: e235 803f 0337 cd3e d757 d13f 308b f4bf
00000330: 051a 1240 69ae 43c0 1730 3bbf 1754 5140
00000340: 411e 86bf fb86 1240 7c9d d03e 748d f5bf
00000350: 3d99 b7bf 80d8 983f a8dc 1040 20e4 923f
00000360: 2080 92bf a14b d7bf a116 903e 230a c73e
00000370: 4a09 ba3f 518b b63f d2bc d53f ca43 5c40
00000380: 7827 0440 9a97 69bf 23d4 b3be db8f acbf
00000390: cb3f fc3e 9647 0940 83f2 12c0 4441 0f40
000003a0: e83c 473f 58e7 a5bf 70e7 843e 936c d7bf
000003b0: 6c6a f23f f29b ffbf 38ae 82bf 6f42 4040
000003c0: 990b 41c0 70c9 d53d cb75 823f a322 2dc0
000003d0: 9d92 2940 ba6a 1fbf 0f92 53bf eb4e 2240
000003e0: 3a39 163f 8216 093f ede1 c5be cbf6 87c0
000003f0: e001 1840 3d53 23c0 419c 9bbe f424 b83f
3.3945808 0.59564346 1.2857872 -1.8165301 0.97760874 1.3074856 -1.2469145 2.047916
-1.7552985 3.0553796 -0.46325794 -1.2607331 -1.7113465 -2.5426512 -2.9324098 0.369076
-1.0510107 1.1725876 0.79052174 3.988951 -1.2621963 -0.47224218 3.5788436 -0.58440626
1.2287753 -0.36403754 0.08016974 -2.6295776 -0.8414334 -1.4944198 0.7238142 -1.2413515
-0.9031196 0.7020742 -0.26972622 1.0896933 -3.3036296 1.416293 -0.23594901 1.758439
1.567201 -2.741969 0.5506907 -2.469128 0.17627892 -3.0974293 -0.0951474 1.1282257
-1.0603595 -2.7665727 -3.4637165 -0.62547445 0.5335936 -1.6122768 1.591697 3.4081993
-2.7816896 -1.7241614 -1.714352 -0.050463922 -1.0458161 -1.5830898 2.6925433 0.16985205
-2.8026178 -1.6142212 3.2282903 -3.2044199 1.3809603 2.6930099 -3.4430425 1.5172331
2.1639328 -2.8524933 2.387114 -1.9781157 -0.13280378 1.4818465 0.7519552 -1.0586361
1.4252946 0.083016835 -2.0510094 -2.8504624 -4.0094404 0.8442845 1.2000335 -0.73351717
0.10318708 -0.9738681 1.566026 3.477885 0.8194427 2.5997863 2.7045708 -0.78615
-0.55754894 -0.6110283 -1.2305273 -1.9099699 2.5549686 3.3383722 -0.5864949 0.8877292
2.4403336 0.80671346 3.5299401 -1.1188362 -2.0605128 -1.4473245 -0.5305438 -0.20093007
-1.390932 1.4629431 2.9640827 0.5619367 -1.6363431 3.0040405 -1.0294498 0.76041675
-0.78843796 -2.8289976 -0.75032175 -0.707023 1.5256132 -4.2496767 -0.96541315 1.1349968
0.41181785 -1.4967937 2.9236743 1.3550311 -3.4207034 1.2227808 1.8378297 -1.6865209
2.0868788 1.8761894 -1.9044728 1.0914297 1.8798101 1.2190214 -1.3698312 -2.3628018
-1.3094114 -4.0696554 2.0407534 -0.02752022 4.297549 -2.98041 -0.6548127 1.9413428
-2.3413167 -3.9093764 -3.432967 -0.19955719 -1.8558519 -1.8867383 -1.4538879 0.14923926
-3.1827283 -3.525912 -2.9576962 2.9004185 -0.4257718 -0.07560927 -2.621312 -2.2659168
-0.59814245 1.9787843 -0.45466638 1.4228804 -3.893736 1.8837135 2.067147 3.1401281
1.0266026 1.3167381 -0.2693291 1.2934214 -0.17400812 -0.805589 2.6354275 -2.1015384
-1.0660036 3.0101497 0.12382508 1.595218 0.6850135 -0.15701555 -0.48891604 -0.85212153
0.4219225 -2.6163332 -1.9256508 -0.8004418 1.5159843 1.0503377 -0.10184704 1.43526
1.0016444 0.40081033 1.6354932 -1.9104977 2.282838 -3.0575202 -0.73120254 3.2707574
-1.0477983 2.2894886 0.4074515 -1.9183793 -1.434364 1.194107 2.2634678 1.1475868
-1.1445351 -1.6819955 0.28142264 0.3887492 1.4534085 1.4261266 1.6698248 3.4416375
2.064909 -0.9124695 -0.35122785 -1.3481401 0.4926742 2.1449943 -2.2960517 2.2383585
0.7782731 -1.2961226 0.25957823 -1.6830009 1.8938727 -1.9969466 -1.0209417 3.0040548
-3.0163329 0.10438812 1.0192198 -2.705239 2.6495736 -0.62272227 -0.8264474 2.5360668
0.5868107 0.5354997 -0.3864893 -4.248876 2.3751144 -2.5519555 -0.3039265 1.4386277

network_body._body_endoder.seq_layers.0.bias f4 [128]
00000000: 4846 9d3b eecb 9abd a6cd 553d 4de5 b2bd
00000010: 5a23 bcbd 49e1 0fbd ea66 353d 05e8 c7bd
00000020: cefb e9bb c32a bebc 8b5a b13b bb0a 2dbd
00000030: 4fcc a1bd 8a8d 063e d5a7 46bd 98e7 093d
00000040: aac9 c1bc c8fe 40bd bb31 0fbe 4e80 5a3d
00000050: a026 87bc 2234 ddbb f342 253d 73dc 9b3d
00000060: 7d77 45bd 2ca1 c0bb 2c24 863c 12fc 8b3b
00000070: 5a7e 7abb 6035 19bc 2bf4 2bbd 68db 2cbb
00000080: 3b2c f73b e255 ab3d c96d ddbd d32a d93c
00000090: 4256 0f3d 4dd0 903c 522a 20bd ff3c 02bc
000000a0: 82a0 c1bc f18b 4bbd ec80 00bd 20ac c7bc
000000b0: 8990 7bbd eb5f 1b3d 46ef 7bbd 92f7 f1bd
000000c0: 2368 923d 43b0 cf3c 01a1 11bd 243c 593d
000000d0: 7dd5 90bd 9da2 9fbd a591 5fbb 116c 86bb
000000e0: 1ee6 f13c ce51 3e3b 54c1 85bd 5c5c fc3c
000000f0: 8153 b3bc d500 173d 0122 c63b d993 1d3e
00000100: e8ae d2bd 7ab7 4cbd 2e05 93bd e964 1abc
00000110: 31f4 18bd 245a d7bc 81c0 fe3d a42b d9bc
00000120: 6aab 3abb 538f b03d b423 ab3b f6f7 86bd
00000130: 9ccd 67bd 7b57 0a3e e8a2 253c e164 4b3c
00000140: eafe 7c3b ca51 eebc c229 c13d 52ad f33c
00000150: 3e53 8fbd 0c9a 803c 2401 223c f45f cbbb
00000160: 9ee8 613c 7085 113d 54d8 903d d3a8 e7bc
00000170: faba dfbc 8c09 5d3c 7334 ccbb d627 103d
00000180: 308f abbc 826d 3b3c 6d8c 05be 6a64 bd3d
00000190: 9a6d 743d 9139 95bd f0fb a63c 96b9 d33d
000001a0: 1de8 85bd cd86 87bc 84b7 143c f7ff ce3c
000001b0: c7e2 853c 6d9f 0d3d 08b8 ccbc c236 9cbd
000001c0: 1eca 1aba b5b4 db3c b894 653d 9bc5 dcbc
000001d0: 667e 5c3c 4e2a 1ebd 77cc 2a3d 1a68 053d
000001e0: 421c fbbd 2584 adbb 7227 ce3d 15c6 58bb
000001f0: 1553 edbc a2cd af3d ae91 aa3d 0b1d aebd
0.004799638 -0.07558428 0.052198075 -0.08735142 -0.0918643 -0.035126958 0.0442876 -0.09761051
-0.007140613 -0.02321375 0.005412405 -0.04224656 -0.07900297 0.1313993 -0.0484999 0.03366813
-0.023655731 -0.04711798 -0.13983814 0.053345017 -0.01649791 -0.0067505995 0.04034705 0.07610407
-0.048209656 -0.005878588 0.01637467 0.0042719925 -0.0038222284 -0.0093511045 -0.041980904 -0.0026375894
0.0075431145 0.0836599 -0.108119555 0.026509678 0.03499437 0.01767745 -0.03910286 -0.007949113
-0.023636106 -0.049694005 -0.03137295 -0.024374068 -0.061417136 0.03793327 -0.061507486 -0.118147984
0.07148769 0.025352603 -0.035553936 0.05303587 -0.0707197 -0.07794688 -0.003411391 -0.004102238
0.029528674 0.0029040459 -0.06531015 0.03080576 -0.021890404 0.036866028 0.006046534 0.1538843
-0.10287267 -0.049979664 -0.07178722 -0.009423473 -0.037342254 -0.0262881 0.12439061 -0.026510067
-0.0028483518 0.08621087 0.005222762 -0.065902635 -0.05659257 0.13509934 0.010109641 0.012414188
0.003860409 -0.029091734 0.09431793 0.029745732 -0.06998299 0.015698455 0.009887967 -0.006206507
0.01378837 0.035527647 0.07072511 -0.028278744 -0.027310837 0.013491046 -0.0062318384 0.03519424
-0.0209423 0.011439683 -0.1304185 0.09247668 0.059674837 -0.072863705 0.020383805 0.10338132
-0.06538413 -0.01654377 0.009076957 0.025268538 0.016343487 0.03457587 -0.024990097 -0.07627632
-0.00059047516 0.026819566 0.056050032 -0.026949694 0.01345787 -0.038614564 0.0416989 0.032569982
-0.12261249 -0.005295294 0.10066117 -0.003307705 -0.02897028 0.08584143 0.083285674 -0.08501633

network_body._body_endoder.seq_layers.0.weight f4 [128, 116]
00000000: 9860 abbc 6a73 1a3e 303e 20bd 6da3 57be
00000010: 4247 50bd 0c4d cbbd 05fd c6bd 8d60 1bbe
00000020: d698 4ebe 6346 4a3e 3ec6 58be fdf9 56bd
00000030: 6855 0cbe a4c6 bbbe ea42 b73d f807 e53d
00000040: 120b ce3d ea7c 3f3e 1770 b13e cbe6 403e
00000050: d10d ab3d 8e16 263d 6710 9c3d 11a9 b4be
00000060: 943e 42bc 9b17 4b3d fc09 0abe 465d 713c
00000070: b40a dd3e 7ed2 5cbd c814 e73b 0de6 463e
00000080: 4625 dfbd b5dc bcbc cdfb 3fbd f317 d83d
00000090: 2069 8b3e 4a6a d93b 044a 2c3e df87 08bd
000000a0: 07dc dd3d 8721 603d dfe7 b5bd 6cfc 8fbc
000000b0: d76d 71bd ee7e 2cba e811 83be 99ca 2fbd
000000c0: 2232 053c ca3e 8c3d 0d70 1cbd f0a3 b33d
000000d0: c926 483e 7223 59bd bf54 a8be 3e02 18bd
000000e0: 06e2 a63d 6fe2 31bc f351 98bd cae2 b0be
000000f0: 1740 113d 2d5f 8cbd bf1b b53d fd69 b7bd
00000100: f2cf abbe 09e8 28be 7eca 6bbc 1ecc bc3c
00000110: 1f21 0fbe f81b aa3d be6b 9f3d 3bb7 7e3e
00000120: 8855 ffbc 0bdb b23e 47e7 df3e a0db 43be
00000130: 7127 45be 4c2c 443d 52b6 febd 537c 0e3e
00000140: 4032 6fbe 536c a33e e537 903e 94fd 253c
00000150: f812 563e 5a1c 7fbe 4fb8 16be 3d59 9a3e
00000160: eeda 75bd cc73 a0bd 8634 63be 7897 973d
00000170: ade5 a83f 18d5 b23f c3a7 703d 817d 163f
00000180: 479e 2dbe 4edf 6e3e 14bb 8abc d2b9 3bbd
00000190: 30b7 8c3d 49f6 903e 5dc2 dfbe c364 9a3c
000001a0: 1e2f 94bd eb6a 24bd 089f 29bf 7020 a93d
000001b0: 92d9 f33e 62a1 04be f6ef 78be 1bbc 71be
000001c0: 5c4e 77bc 1cf8 eabd d574 5f3d 1f00 07be
000001d0: 25b9 9cbd ab3c f7bc 7915 c1be cf18 f6bd
000001e0: 1b03 03bf 2e7d 0d3e 6a02 d2bc 08b0 9bbe
000001f0: f375 f23d b61a 84bd 50f8 093e 012d 87be
00000200: 06f1 9fbd a0aa 963d 0c27 3abd 6935 e83e
00000210: 03d8 09bc 3224 2fbe 37d4 133e f91c 75be
00000220: d059 883e ac73 b83d 3e2f 52bf 72a4 de3e
00000230: ecec 083e d6a7 5f3d 1fa6 2c3d 5621 c23b
00000240: 6680 863e 4125 70be 64ad b2bd 0d83 943d
00000250: d492 96be 85aa ab3d b425 a93d 8fd2 4ebd
00000260: b34c 943e 55e1 803d ae8a 33bf 86c4 30be
00000270: 428e 18bd 4f69 9e3d 81c2 563d 2a08 83be
00000280: 395b 7f3e 7a98 aebe f5a2 c73e f209 903e
00000290: b82e 01bf bcaf c4bd 8328 3a3e beec 223e
000002a0: 9013 8bbe 439b aa3e c2ab b33d baf2 273e
000002b0: 1b64 de3e 45dd b4bd fffa 3a3e 8054 01be
000002c0: 9d8e f63d ca87 463e dec0 3bbe e5d9 bc3e
000002d0: 4c5e 29be 283b 143e dc22 cbbe 1d36 0a3e
000002e0: f2d5 35bf 42e6 5bbe fe84 3e3e e452 36be
000002f0: ef3c e5bd 252b e2be f380 02bf 40c1 143e
00000300: b7a4 86be 6dfb d13d 8017 83be a3f5 743e
00000310: 53e8 223e cc1d f9be 79fa fabd e18c 4bbf
00000320: d23a 27bf c307 3d3b 5633 06bc 0eaa 9fbd
00000330: 4a08 f53c 72a1 393e a3b2 bb3c 2be0 febe
00000340: 6419 403e 38cb d73c 0155 b83d 5107 a13d
00000350: 3fce 3b3c a220 b8be 4edd 05bf 3534 bcbc
00000360: 08da 4dbe 75b5 e7be 0724 89bc 2de3 ddbe
00000370: af60 9c3d 8cec edbd 0310 063e 796f 18be
00000380: ad3b c53d e9a1 133e 31c0 313d beec 1e3e
00000390: 076d b6be 5763 5e3d 6732 c33d 66cb 2e3f
000003a0: ea4d 25be 75ac 613b eb35 24be 9746 993d
000003b0: d55f 87bd f6ff c53e cb3f ac3c bb06 053f
000003c0: ec07 90be 4b50 a0bc 4fd4 6b3c 4765 c63d
000003d0: a4ac 613e 8cda cd3e 5f44 9cbd 30f8 7d3e
000003e0: d349 95be a8ed 033d 50d8 b43d f49a e8be
000003f0: d8d1 383e 1ff6 4a3e 9256 e3be c438 df3e
-0.020920083 0.1508309 -0.039121807 -0.21058436 -0.050849207 -0.09926805 -0.097162284 -0.1517355
-0.2017549 0.19753413 -0.21169373 -0.0524845 -0.13704455 -0.36674988 0.0894831 0.111831605
0.10060705 0.18699995 0.3465583 0.1883804 0.08352245 0.040548854 0.07620316 -0.35285237
-0.01185574 0.04958306 -0.13480371 0.014731711 0.43172228 -0.05391168 0.007052038 0.19423695
-0.10895781 -0.02305446 -0.046870995 0.10551443 0.27228642 0.006634985 0.1682511 -0.0333327
0.108329825 0.054719474 -0.088821165 -0.017576419 -0.058942642 -0.00065801933 -0.255996 -0.04291782
0.008129628 0.068479136 -0.038192797 0.08771503 0.19546045 -0.05301232 -0.32877156 -0.037111513
0.08148579 -0.010857209 -0.074375056 -0.34548026 0.03546151 -0.06854091 0.08843183 -0.089557625
-0.33557087 -0.16494764 -0.01439154 0.02304655 -0.13977478 0.08306116 0.07784222 0.24874584
-0.031168714 0.34932742 0.43731138 -0.19126749 -0.19253327 0.047893807 -0.124371186 0.13914613
-0.23359013 0.31918582 0.28167644 0.0101312585 0.20905674 -0.24913159 -0.14718746 0.30146208
-0.06002324 -0.078345865 -0.22188005 0.07401937 1.3195091 1.3971281 0.05875374 0.58785254
-0.1695491 0.23327371 -0.016934909 -0.04583151 0.06870878 0.283129 -0.43702975 0.018846875
-0.072355494 -0.040141027 -0.6625829 0.0825814 0.4762693 -0.12952188 -0.24310288 -0.23606913
-0.015094366 -0.11473104 0.05455478 -0.1318364 -0.07652501 -0.030180296 -0.37711695 -0.120164506
-0.51176614 0.13817284 -0.025635917 -0.3040774 0.11838903 -0.06450407 0.1347363 -0.26401523
-0.078096434 0.07356763 -0.045447394 0.4535325 -0.008413318 -0.17103651 0.14436422 -0.23936833
0.26631021 0.09006438 -0.82103336 0.43484837 0.13371629 0.05460342 0.042150613 0.005924384
0.26269835 -0.23451711 -0.08724478 0.072515585 -0.29408896 0.083821334 0.082591444 -0.050493773
0.28964767 0.06292979 -0.70133483 -0.17262468 -0.037245043 0.0773493 0.052431587 -0.25592166
0.24937142 -0.34100705 0.38991514 0.28132588 -0.5046191 -0.09603831 0.18179516 0.15910622
-0.27163363 0.3332158 0.087729946 0.16401187 0.4343575 -0.08831266 0.1825981 -0.1262989
0.1203892 0.19387737 -0.18335292 0.3688499 -0.16539878 0.14475691 -0.39675033 0.13497205
-0.7102958 -0.21474555 0.1860542 -0.17805058 -0.11193263 -0.44173542 -0.5097801 0.14526844
-0.26297542 0.10253034 -0.25603867 0.23921828 0.15908937 -0.48655546 -0.12254805 -0.7951184
-0.6532413 0.0028843738 -0.00819095 -0.07796107 0.02991118 0.18127993 0.022912329 -0.49780402
0.18759686 0.02634202 0.09000588 0.078627236 0.011462747 -0.35962397 -0.5229081 -0.022974113
-0.20102704 -0.45255628 -0.016740812 -0.43337384 0.076356284 -0.11617383 0.13092045 -0.14886273
0.09630523 0.14417233 0.04339618 0.15519997 -0.35630056 0.054293957 0.09531098 0.6827911
-0.16143003 0.0034435068 -0.16036193 0.07484167 -0.066100754 0.38671845 0.021026513 0.51963395
-0.28131044 -0.019569537 0.01439388 0.09687286 0.22038513 0.402058 -0.07630228 0.24801707
-0.29157886 0.03220907 0.08830321 -0.4543072 0.18048799 0.1982045 -0.44401985 0.43597996

network_body._body_endoder.seq_layers.2.bias f4 [128]
00000000: ee83 a83b c3f5 25bd 6bf2 1a3e e6a1 4e3d
00000010: 7671 d1bd 2813 a93c 5360 81bd 2e0c 06be
00000020: 5668 75be e447 d53d 1edc da3c a827 01be
00000030: 9e02 dabd fcdd e8bd 45cd 763d e216 0b3c
00000040: 96c3 2f3d 4f06 22bc 1fdb 173a a916 503d
00000050: d564 843d 8e64 dcbd 9ac5 3c3d ebd8 543d
00000060: 1e95 9cbd f786 833d 5580 293d be62 26bd
00000070: e9f0 fb3c dab3 1bbd 7473 06be 0607 60bd
00000080: 1897 56be f28a 76be b3d3 87bd 8559 f73d
00000090: 1086 ecbd f43e bfbd a258 a83d 21a1 d03c
000000a0: 054c 6fbe 9ec9 9cbd 0216 ea3d 50c1 953b
000000b0: bd58 81bd 7ae4 56bd 8175 bfbc 8989 b1ba
000000c0: 561e cd3c 98d9 8bbd 974c 463d 2139 363d
000000d0: 4048 0bbe 1f9a 5bbd 7b70 e2bc 3337 3cbe
000000e0: b4fa 73be 35e1 903c d349 f03b 3c16 a23d
000000f0: 6b8c 56bd 66a6 47bd 8fe3 68bd 4e67 313c
00000100: 6873 e73c 9eb1 acbc 03da de3d fabd c23d
00000110: 9062 4c3d 299e dbbd 48a1 45bd d775 edbc
00000120: 48b3 f43a abc5 97bd c327 d4bc 55a2 35bc
00000130: 39bf be3c b46c a5bc e41e 13bd 0cb5 1abd
00000140: b62c cbbd cef7 a3bc 8089 183d 7cb6 59bd
00000150: d794 693d 9312 053b 0630 04bc 0f53 55bc
00000160: d75d c53d f103 30be 5a90 b5bd 87de 78bd
00000170: 9b16 febc d58e c8bd b844 93bd a192 1c39
00000180: 3741 c2bc df23 043d d486 193c 2c8a 533c
00000190: 83b0 ebbd ae5c 01be 83e8 153d 43e6 c5bd
000001a0: 3fd9 0cbd 41e0 40bd f441 293c b2c9 533d
000001b0: dd61 da3c 31c2 42bb e713 293d c312 463c
000001c0: 5df3 9c3b b936 5ebd 9557 9d3d aa0c 07bb
000001d0: d442 13be 6e26 eb3b d563 353d 4174 a13b
000001e0: c039 04be 10ca babd 72ba a4bc 1a33 5e3d
000001f0: 2e1d 27bd cc98 84bc aa38 d63c 2b40 22be
0.0051426804 -0.04051758 0.15131538 0.050447367 -0.10226719 0.020639017 -0.063172005 -0.13090584
-0.23965582 0.10414103 0.026716288 -0.12612784 -0.106450304 -0.11370465 0.060254354 0.008489342
0.042911135 -0.009889199 0.00057928445 0.05080286 0.06464545 -0.10761367 0.046086885 0.05196468
-0.07645629 0.06422227 0.041382153 -0.04062151 0.030754523 -0.038013317 -0.1312998 -0.054694198
-0.20956075 -0.24076441 -0.06632175 0.12077621 -0.11549008 -0.09338179 0.0822003 0.025467457
-0.23368843 -0.07655643 0.11429979 0.004570164 -0.063157536 -0.052463986 -0.02337146 -0.0013545017
0.02503888 -0.06828612 0.048412886 0.044488076 -0.1360178 -0.05361378 -0.027641525 -0.18380432
-0.23826104 0.017685512 0.0073330193 0.07914397 -0.052380007 -0.048742674 -0.05685764 0.010827852
0.028253272 -0.021080788 0.10881426 0.095088914 0.049898684 -0.10723526 -0.048249513 -0.028986854
0.0018669153 -0.07410749 -0.025897866 -0.011086066 0.023284541 -0.020193435 -0.03591813 -0.037770316
-0.09920637 -0.020015623 0.037240505 -0.053152546 0.05702671 0.002030526 -0.00806809 -0.013020291
0.09637039 -0.17189004 -0.088654235 -0.060759094 -0.031016639 -0.09792868 -0.071908414 0.00014931943
-0.023712737 0.03226077 0.009370524 0.012911361 -0.11508276 -0.1263301 0.036598694 -0.096630596
-0.03438687 -0.047088865 0.010330666 0.051706024 0.026657993 -0.0029717798 0.041278746 0.012089434
0.0047897534 -0.054251406 0.076827206 -0.0020606914 -0.14380962 0.007176212 0.04428466 0.0049271886
-0.12912655 -0.091205716 -0.020108435 0.054247953 -0.040799312 -0.01618614 0.026150066 -0.1584479

network_body._body_endoder.seq_layers.2.weight f4 [128, 128]
00000000: bc47 5e3d 5e3f ba3d 5d8c a63d d154 23bd
00000010: 94f5 c33d a594 d33d fbdd 633e f64f 20bd
00000020: 347e e93a 8101 d63d e9c8 733d c547 bfbd
00000030: 7e10 c0bd 0079 2a3d b1a7 4fbe bbda 973d
00000040: eb9d 0dbf c4bf 3b3e fa9a 423e 2673 0c3e
00000050: 2a9d 8a3d a31d 853e c95d 4a3e a115 9fbc
00000060: 3884 6ebe b571 273e 4301 793d 9d1d 803c
00000070: eba6 89bc 4995 9abe add5 babe ce4d c43e
00000080: f34b b53d 16a7 05be 29fd 9d3d 5ba0 e3be
00000090: 6dd7 ff3c 980d a8bc b2ab acbc ba33 a73e
000000a0: 2f0b f53e f159 a7bc 45a7 0dbe b2b0 693e
000000b0: ef8d 1e3c 36a1 aebd 5f8b 1d3e 16cb 04be
000000c0: 59f7 abbe c9f2 65be 53ad 58bd a2ea 913d
000000d0: e9b6 f0bd 86d3 6cbe 35e4 1f3e a14e 873d
000000e0: bdd6 d0be 4224 41be 8f7c 483e f6ee f0be
000000f0: 83de f1be 2b2f 2a3c 7fd7 783d 6bfb 383e
00000100: 8e9c 463d 712c 213e e59b f0be 6e37 333d
00000110: f21d 22bc 45f3 5b3e eaa3 fb3c 01af 5fbe
00000120: 364e 0f3e 5e71 1dbe de5e 343e 4806 113e
00000130: ce7a f5bd 3f14 3fbd 2b9f 0c3e 88b5 4d3e
00000140: 2f3c fd3c 875f dfbc 4791 12bf a3fd 0d3e
00000150: 9398 95bc b199 193e 0f65 7f3e 6fe4 39bd
00000160: 00f1 87bd b57e f9bd a7d9 d33d cb30 4a3d
00000170: 2e11 06be 3e41 d63d ae4b 1d3d e3ce 01be
00000180: 2e3c f6be c0e2 c23d 2232 b2bc a4a3 973d
00000190: bd10 523b 847f 7cbd 5421 69be 2a47 e83d
000001a0: 45fb 0cbe 8d4e fc3d 7175 083e c730 fdbe
000001b0: 5a23 f5be 4f3b 333e 6c81 a8be 58bc 023d
000001c0: 33d1 bcbe c89a c3be a841 b03e 1abb 003e
000001d0: fd86 813d b23d adbd 6a49 bcbe b0fb 11be
000001e0: 85c1 be3d da10 6b3e f279 c4be 74e3 61bd
000001f0: ea41 8c3e a462 77bd 34ff 1d3e 091b bdbe
00000200: f32a 8abe 9dc6 a1bd 57d5 d7be c4cb 81be
00000210: a738 3b3e 8fcb cdbe 0d89 353d 117b f93d
00000220: 23e5 90bc ad9f 223e d81f 2bbe 43ba 65bc
00000230: e329 92bc 07d5 3bbe 8bd6 913d 2d09 debe
00000240: f8a1 613e 93cf 05be c6b3 8d3b 6f37 8f3d
00000250: 48d5 423e 5380 3dbf 1374 94be 83e6 b93e
00000260: 457b b6bb c874 08be 91ab c2bd f8a1 bd3e
00000270: c79d de3c 4ab8 ff3d b219 b73e 31a3 463e
00000280: 39b8 d7be 536d d2be a4ea 3fbe 1924 fc3e
00000290: c90c 663d f9f7 c9bd d904 bf3d be50 0cbe
000002a0: 0e43 c73c b857 b23d 226f 44be 5c5b 0d3d
000002b0: 6485 04bf 40c6 84be 1e15 813e d15b 983e
000002c0: 5d7d 9f3e 71cb c6be 3bb7 a5be a173 ecbe
000002d0: d7ac 93bc 7fdd f83d 2ab3 a9bd c7f5 52be
000002e0: dbb7 b93e 0634 1cbe ef0e 62be e9d8 f93e
000002f0: f43a 883e 57d5 4dbd 0968 8e3e fd1f 1ebe
00000300: 0ba4 2cbe 752f 043f 7af7 823e d80b 533e
00000310: f326 e43e 36b9 2c3e be79 aebe 9fbc 703b
00000320: 652e 1cbe afc7 acbe 5449 b13e 56aa 7abc
00000330: aa67 7fbe cf75 94bd c6db 89be 42da c8be
00000340: 4460 b1be c956 d03e 0622 813e 9142 a03e
00000350: ab8f 0e3e d1ec 21be 39fd a03a 18cf 6d3e
00000360: 9c62 d83d dc27 8ebe 8488 bdbe 68de ed3d
00000370: 45f8 a73c 3cdf 5b3d b36d 11be 9ce8 393d
00000380: 14e8 83bb 71ff 76be a92d 093d 4dab 79be
00000390: 1140 183e 1a3e e03e faaf 9c3d c907 e8bd
000003a0: 19f6 61be f478 82be 5fc4 55bd af9e de3e
000003b0: d461 d83e 6787 48bd 7a56 72bd c268 843e
000003c0: cd78 e1bd 7e66 1e3d ff05 ac3d bc52 d6be
000003d0: d0cc 0b3e cc4f 2cbe 97d6 263e afbc 173e
000003e0: adc8 843e f13c 43bc d517 023e 0cea 4f3e
000003f0: 6089 e2bd 4a2e 49be 9790 603e 77ee 8ebd
0.05426763 0.090941176 0.08132241 -0.03987581 0.09568325 0.10331086 0.22252648 -0.039138757
0.0017814101 0.104495056 0.059517775 -0.09339861 -0.09378146 0.0416193 -0.20278813 0.074147664
-0.5531909 0.18334872 0.19004431 0.137158 0.06768258 0.25999174 0.19762339 -0.019419493
-0.23292625 0.1635197 0.06079222 0.01563912 -0.016803226 -0.3019202 -0.36491147 0.3834061
0.08852377 -0.1305202 0.07714302 -0.4445828 0.031230653 -0.020514295 -0.021077964 0.32656652
0.47860095 -0.02042863 -0.1383334 0.2282131 0.009677394 -0.08526842 0.15385197 -0.12968096
-0.3358715 -0.22455896 -0.05289967 0.07124831 -0.11753637 -0.23127565 0.15614398 0.06606794
-0.40788832 -0.18861488 0.19578765 -0.47057313 -0.47240075 0.010387222 0.060752388 0.18064658
0.048489146 0.1573961 -0.46993938 0.043754034 -0.009894835 0.21479519 0.030717809 -0.21844102
0.13994679 -0.15375277 0.17614314 0.14162552 -0.11986314 -0.046650168 0.13732593 0.2008878
0.030912487 -0.02726723 -0.57252926 0.13866286 -0.01826123 0.15000035 0.24940895 -0.045383867
-0.06637764 -0.121823706 0.10344248 0.04936294 -0.13092491 0.10461663 0.038402252 -0.12676577
-0.48092788 0.095159054 -0.02175242 0.07404259 0.0032053434 -0.061645046 -0.2276662 0.113416985
-0.13767727 0.1231967 0.1332605 -0.49451277 -0.47878534 0.17503093 -0.3291124 0.0319179
-0.36878356 -0.38204026 0.34425092 0.12571374 0.06324575 -0.08459033 -0.3677476 -0.14256167
0.09314255 0.22955647 -0.38374287 -0.055148557 0.27394038 -0.060396805 0.15429384 -0.3693469
-0.26985893 -0.078992106 -0.42154953 -0.25350773 0.1828333 -0.40194365 0.044320155 0.12181676
-0.017687386 0.15881224 -0.16711366 -0.014021459 -0.017842239 -0.18342982 0.07120999 -0.43366376
0.22034442 -0.13067465 0.004324409 0.06992995 0.19026673 -0.7402393 -0.28994808 0.3630868
-0.005568894 -0.13325799 -0.0950538 0.37037635 0.027174843 0.12486322 0.3576179 0.1939819
-0.42132738 -0.41099033 -0.18741852 0.4924629 0.056164537 -0.0986175 0.093270965 -0.13702676
0.024323966 0.08708137 -0.19183019 0.034510955 -0.5176604 -0.25932503 0.25211424 0.2975755
0.31150332 -0.38827088 -0.32366356 -0.46181968 -0.018026752 0.12151622 -0.08286126 -0.20601569
0.36273083 -0.1525422 -0.22076009 0.48798302 0.26607478 -0.050252285 0.27813748 -0.1544189
-0.16859452 0.51634914 0.25579435 0.20609987 0.44560966 0.16867527 -0.34077257 0.003673352
-0.15252073 -0.33746096 0.34626257 -0.0152994 -0.24941888 -0.07249033 -0.26925486 -0.39229017
-0.34643757 0.40691212 0.2522127 0.31300786 0.13921992 -0.15812995 0.0012282497 0.23223531
0.10565683 -0.27764785 -0.37018216 0.11614686 0.020504126 0.05367969 -0.14202003 0.04538785
-0.0040254686 -0.2412088 0.03349081 -0.24381752 0.1486819 0.4379738 0.07650752 -0.1132961
-0.22066535 -0.25482905 -0.052189227 0.4348044 0.42262137 -0.048957255 -0.0591645 0.25861174
-0.11009369 0.038671963 0.08399581 -0.41859996 0.13652349 -0.16827315 0.16292797 0.14818071
0.25934353 -0.011916385 0.12704404 0.20304126 -0.110613585 -0.19646564 0.21930157 -0.06979077
