ResultBackup/Backup/DroneAgentNow2/DroneAgent/DroneAgent-3599963.onnx (onnx, 658379 bytes, 10 tensors)

100 f4 [1, 512, 128]
000000 38 ec 9f be 06 77 8b bd d6 6c 60 3b 52 8d 9c bd
       -0.31234908 -0.06809811 0.0034244559 -0.07644142
000010 bb e3 8c 3e 09 24 4a 3e 5e 0d f6 3b 87 76 1b 3e
       0.27517495 0.19740309 0.0075089177 0.15181933
000020 ff c9 63 bc f4 2e 85 be 44 81 9b 3d 04 c6 73 3d
       -0.01390314 -0.26012385 0.07593015 0.059515014
000030 5f 19 af be 8c cc 02 be a9 d2 2a be 99 be 09 bc
       -0.34199044 -0.12773341 -0.16681923 -0.008407258
000040 ae e7 1a 3e 33 50 35 3d 07 2e bf 3c 55 b1 9b bd
       0.15127441 0.044265937 0.023337377 -0.07602183
000050 6e 54 43 3c 3a 9e 10 3e 62 e9 ba bd 46 9e 9e be
       0.011921985 0.14122859 -0.091265455 -0.30980128
000060 05 f2 33 3e 30 da 37 3e 63 f6 82 3e a1 a8 1e be
       0.17572792 0.17954326 0.25578603 -0.15494014
000070 8a 8d 1b 3d 99 7c 66 be 65 a8 0d 3e 14 8c 8e 3b
       0.03797678 -0.22508468 0.13833769 0.0043501947
000080 23 66 ce bd aa 81 0e be f0 fa 4c 3e 98 18 f0 3c
       -0.10078075 -0.1391665 0.200176 0.029308602
000090 5b 01 98 be a3 70 1c 3e 2a 0f 03 3e 99 46 82 3e
       -0.29688534 0.15277342 0.12798753 0.25444487
0000a0 fc 03 b9 bd 7b 1f a0 bd e6 76 c4 3c d1 7b ee 3d
       -0.09033963 -0.078185044 0.023982476 0.1164471
0000b0 e9 0f 00 3a 3e 67 5d 3d 16 90 29 bd d2 08 1a 3e
       0.00048851833 0.054053538 -0.041397177 0.15042427
0000c0 df cd 37 be 0a 0b e2 bd 66 75 d8 3c 1c 17 d2 3d
       -0.17949627 -0.11037262 0.026423167 0.10258314
0000d0 b7 84 26 3d 0d 33 69 bd 35 45 3e 3e 5c c9 54 bd
       0.04065391 -0.05693345 0.18581088 -0.051949844
0000e0 b2 a7 d8 3a 59 64 93 3d d9 53 02 be e0 4c 9c 3e
       0.0016529469 0.07196874 -0.12727298 0.305274
0000f0 c7 33 09 3e 71 fb de 3d 12 88 68 3e 18 5e 12 be
       0.13398658 0.108878024 0.22708157 -0.14293706
000100 9d 44 89 be 5b 54 56 be 70 86 16 bd 32 19 a9 bd
       -0.2681016 -0.20930617 -0.036749303 -0.08256759
000110 12 74 82 bd e0 96 13 be dc 36 82 be 4e cc 8b be
       -0.06369795 -0.14413023 -0.2543248 -0.2730431
000120 c7 d0 a1 3c e2 e9 44 3d ca 28 43 bd d2 22 0d 3e
       0.019752873 0.04807461 -0.04764632 0.13782814
000130 35 fb c5 bd 71 6f c6 3d c0 48 d0 3d e1 a6 c0 3d
       -0.096670546 0.096892245 0.10170126 0.094068296
000140 8f 73 d4 bd d7 2c 51 3e 53 6d 96 be 5f 31 e2 bd
       -0.103736036 0.20427261 -0.29380283 -0.11044573
000150 b9 de 4f 3e 92 7e cf 3d 8f 71 86 bd 22 d6 1b 3c
       0.20299806 0.10131563 -0.06564628 0.009511502
000160 10 ac 90 be 37 22 65 bd 28 92 c4 3d 06 64 49 3e
       -0.28256273 -0.055940833 0.095981896 0.19667062
000170 cb 67 fe be 92 f5 71 3d d6 35 34 be 7e 6c bd bd
       -0.49688563 0.059072085 -0.17598662 -0.09249209
000180 f9 2a 2c 3d 76 e3 3f bd 7d da 31 3e 4b 9f 9d bc
       0.04203317 -0.046847783 0.17368503 -0.019240996
000190 d4 94 02 3e db de 86 bd 6f 13 83 3c 2c 94 34 3d
       0.12752086 -0.06585475 0.016000478 0.04408662
0001a0 46 0c 83 3d 03 f2 4e 3c 27 65 d4 3d bb ca 0e 3e
       0.06398825 0.012630942 0.10370856 0.13944523
0001b0 de a0 54 be 7f ac 0b 3d 3e 58 2d be fb 14 30 3e
       -0.20764491 0.034100052 -0.16928193 0.17195503
0001c0 be d6 9f 3d 48 47 85 be a0 35 95 bb 78 8b 0e 3e
       0.07804631 -0.26030946 -0.0045535117 0.1392039
0001d0 39 6e 3a 3e ee ef 43 be 97 45 7d bd b9 b0 21 be
       0.18206109 -0.19134495 -0.061833944 -0.1579007
0001e0 57 ff 3c bd f7 bb 43 3e 0f e6 19 be 4b 43 9a 3d
       -0.04614195 0.19114672 -0.15029167 0.07532366
0001f0 bf f0 35 3e 0d 85 a3 3d 93 f1 07 3e 7c b2 89 3e
       0.17767619 0.07984362 0.13275747 0.26893985
000200 75 d4 00 3e f3 4f 45 3e 0b 71 ca bc 94 1b d8 3e
       0.12581046 0.1926878 -0.024712106 0.4220854
000210 cf 26 24 be 4c e3 f3 bd 23 f4 8f bd 53 04 f5 3b
       -0.1603043 -0.11908588 -0.07028987 0.007477322
000220 73 07 99 be ab 7a af bb f2 5b da be bc ae 90 3d
       -0.29888496 -0.0053551993 -0.42648274 0.07064578
000230 e1 c9 a9 be ad 6f 1c be dd 03 55 3e c6 83 26 3e
       -0.33161834 -0.15276976 0.20802255 0.16261205
000240 3a 6f 26 be 0c 5c 22 be 94 4d f7 3d a6 6e 5c bd
       -0.16253367 -0.15855426 0.12075344 -0.05381646
000250 c5 77 11 be f3 66 bb bc 27 c1 7d be bd 17 92 3d
       -0.14205845 -0.022876238 -0.24780713 0.07133434
000260 05 4a 2a be 59 da ab 3d 30 d2 24 be d6 f1 10 be
       -0.16629799 0.08391256 -0.16095805 -0.14154753
000270 5b 3d d4 be 94 ac a2 3d 7e 73 3c 3d 44 0d ef 3d
       -0.4145306 0.07943073 0.04600858 0.11672452
000280 1c 08 d8 be 14 46 3d 3e a1 48 cd be 91 6c 04 3e
       -0.42193687 0.18483764 -0.40094474 0.1293204
000290 fd e3 dd bd cd 0a c5 3d 18 02 5f 3e 35 d6 66 bd
       -0.10834501 0.09621201 0.21778142 -0.056356627
0002a0 39 8b 2d be d5 e8 a2 bd 5c 8b 17 3e 4d 9d 0b be
       -0.1694764 -0.079545654 0.14799255 -0.13634224
0002b0 a3 53 49 3e 28 3e 25 3e 8d 24 c6 3d 84 3a 08 3e
       0.19660811 0.16136992 0.0967494 0.13303572
0002c0 e9 fb 37 be 2e e2 51 bd e0 32 b5 be 48 ba 19 bd
       -0.1796719 -0.051241092 -0.35390377 -0.037531167
0002d0 9c 1d a2 3d 7a 2f 15 bd 1e 45 83 3d 1c 41 2d bd
       0.07915804 -0.03642223 0.064096674 -0.04229842
0002e0 0f b0 04 3c 77 1a f8 3c bb 4f 11 be 84 14 d2 be
       0.008098616 0.030286057 -0.14190571 -0.41031277
0002f0 64 86 d8 3b 8d de d1 bd b1 c6 01 3d 3b d9 61 be
       0.0066078175 -0.10247526 0.031683628 -0.22055523
000300 59 6c c7 bd 4f 33 9f bd a4 e2 51 be 8f 92 12 3e
       -0.097374626 -0.07773458 -0.20496613 0.1431372
000310 8c 10 c9 bd ce c2 cb 3c 53 13 f7 be d1 07 08 be
       -0.09817609 0.024873164 -0.4825693 -0.13284232
000320 16 4d 26 3d 75 cf 0a bd 64 e6 3b bb 98 e1 ed bd
       0.04060086 -0.033889253 -0.002867126 -0.11615294
000330 f2 25 dc bd 48 b6 1d be 13 24 6a 3b 8f 41 8f 3d
       -0.10749425 -0.15401566 0.0035727068 0.06994926
000340 30 90 cc 3d 75 1c 39 be 0f 16 9b bd 4b 78 af bd
       0.09988439 -0.18077262 -0.07572567 -0.08567866
000350 c3 8c 3f 3c e0 45 a5 bd e1 ef fc 3b 51 75 69 3c
       0.011691275 -0.08069968 0.0077190255 0.014249162
000360 5e 81 38 bc 4a c9 2a be ce b0 68 be cc 81 ad bd
       -0.011261312 -0.16678348 -0.22723696 -0.084720224
000370 6c d4 c8 bc ae 3b 48 3e d0 ac 5c 3d d9 49 73 3c
       -0.024515353 0.19554016 0.053875744 0.01484915
000380 f1 1f 7e bc 83 07 12 be 82 f4 05 bd 0f 83 f6 bd
       -0.015510545 -0.14260678 -0.032703884 -0.12036716
000390 3f 6d aa 3e a6 59 46 3d 6b 33 8a be 29 62 07 3b
       0.33286473 0.04842534 -0.26992354 0.0020657873
0003a0 eb c3 5e be f8 46 73 bd eb ce 8b 3e e1 92 55 be
       -0.21754424 -0.059393853 0.27306303 -0.20856811
0003b0 19 4a 4a be 19 27 5d be 2c 62 97 3c 3d af f5 3d
       -0.19754829 -0.21596946 0.01847943 0.11996315
0003c0 9b 2d 5b 3d 37 db 39 be 98 71 29 be 2f 57 30 be
       0.05351029 -0.1815003 -0.16547239 -0.17220758
0003d0 43 30 ca 3d a6 ac b0 bd 44 95 62 bc e7 fe a5 3d
       0.098724864 -0.0862668 -0.013829533 0.081052594
0003e0 66 4a 19 be b4 01 2e 3e d7 fc 2d 3d 89 9a c3 bd
       -0.14969787 0.16992837 0.042477455 -0.095509596
0003f0 1c 62 4e be a8 4d 98 3d 49 24 21 3e de b1 38 be
       -0.20154613 0.07436687 0.15736498 -0.18036601

101 f4 [1, 1024]
000000 e4 fd 95 39 16 39 83 be 7a 7c 86 be ea ac b7 bd
       0.00028608658 -0.2562949 -0.26266843 -0.089685276
000010 f5 7c b2 3d 5b 5c bc bd bd cf 1c bd 40 e8 4d ba
       0.0871524 -0.09197303 -0.038284052 -0.00078547373
000020 a7 85 40 be 54 18 c9 bd 2a 42 a5 bd 84 90 0f be
       -0.18800984 -0.09819093 -0.080692604 -0.14019972
000030 9c ad ec bd db e5 52 be 38 72 5b 3d 2f 6c dd bd
       -0.11556551 -0.20595495 0.053575724 -0.1081165
000040 4c d6 37 bc d3 05 29 3e 64 25 2a bd 00 17 a3 3c
       -0.011220526 0.16506128 -0.041539565 0.019908428
000050 5a 60 d1 bd f3 92 11 be 22 58 01 3e 88 9c a1 bc
       -0.10223456 -0.14216213 0.12631276 -0.01972796
000060 2d 83 18 3e b4 5d 07 be e1 3b 42 3b 90 8c 54 bc
       0.1489379 -0.13219339 0.0029637741 -0.012972966
000070 74 66 22 be 77 af 06 be 09 47 c3 bd 5c 05 b6 3d
       -0.15859395 -0.13152872 -0.09535033 0.08887741
000080 ce 85 ef bd a9 b1 2e 3d de f2 10 be 22 ee 5c 38
       -0.11695443 0.0426499 -0.14155146 5.2673866e-05
000090 03 80 54 be dd ae 47 be b5 fd 81 bd d7 96 f4 3b
       -0.20751958 -0.19500299 -0.06347219 0.0074642706
0000a0 56 f5 ec 3d 5d cd 5f be ec 03 0f 3b 1e 58 ca bd
       0.115702316 -0.21855684 0.0021822406 -0.09880088
0000b0 f3 3e 6b be 85 a4 48 3d a5 e7 0f be 8b f6 02 be
       -0.22973232 0.048985023 -0.14053209 -0.12789361
0000c0 cf e9 92 3c 17 d0 1a be e3 25 df 3c 52 f1 5d bd
       0.017933754 -0.15118442 0.027239745 -0.05418522
0000d0 31 fe 2f 3a 91 3e 2e be 83 c8 11 3e 92 bb 56 3d
       0.00067135977 -0.17016055 0.14236645 0.052424975
0000e0 cc 43 db 3c cc ff 0d be 3a 78 b5 bc 04 d9 0c 3c
       0.026765727 -0.1386711 -0.022152055 0.008596662
0000f0 8e 01 92 3d 1c 6e 13 be 13 6a de bd 67 0a 81 bd
       0.07129203 -0.14397472 -0.10860076 -0.06300812
000100 b6 6f 71 be f1 47 0e be 4f 18 f7 3c 78 b0 27 be
       -0.2357777 -0.13894631 0.030162958 -0.16375911
000110 3b f2 81 be fe 05 36 3d a7 5f d5 3d 17 8d 2c be
       -0.2538012 0.04443931 0.10418635 -0.16850697
000120 f2 10 dd bc c7 99 11 3e 9c 9f 72 bc a3 97 b6 bc
       -0.02698562 0.14218818 -0.014808562 -0.022289103
000130 ab 82 88 bd 2f 67 e7 3d 53 3f 66 3d f5 ab 08 3d
       -0.06665548 0.112989776 0.056212734 0.033367116
000140 ed 2e 69 be a0 ec 4e 3e 2c 21 78 3d 55 79 e0 bd
       -0.22771807 0.20207453 0.06057851 -0.10960642
000150 27 e1 d0 bd ec 29 2f be 23 04 90 be df f7 2f 3d
       -0.101991944 -0.17105836 -0.28128156 0.042960998
000160 e0 75 d3 3a 02 14 d6 bc f6 c7 8b be dd 77 d4 bc
       0.0016133152 -0.026132587 -0.27300996 -0.025936062
000170 a7 c8 a5 3d 34 09 05 bd 77 39 10 be ae 40 03 be
       0.08094912 -0.03247948 -0.14084421 -0.12817642
000180 f0 3f 4e bb a4 02 2a bd ee 6e 44 bc aa d9 8c bd
       -0.0031471215 -0.041506425 -0.011989338 -0.068774536
000190 eb 7d 8b 3d 64 b8 04 bd 2a b3 fc 3b 18 45 a6 bc
       0.06811126 -0.03240241 0.0077117877 -0.020296618
0001a0 39 ba 84 be 67 54 30 be 95 9e 42 bd 7d 64 a1 3d
       -0.25923327 -0.17219697 -0.047514517 0.07880495
0001b0 46 4a cf bd 94 49 3f 3e 72 35 92 3c 53 fc 3f be
       -0.101215884 0.18680412 0.01784775 -0.18748598
0001c0 55 02 54 3b d6 07 a7 bd 91 0c 34 3d ca 49 fe 3d
       0.0032350023 -0.081557915 0.043957297 0.12416418
0001d0 d8 9c 71 3d e9 6f 01 3e 0b 62 e3 bd 33 7a 3c 3d
       0.05898747 0.12640347 -0.111026846 0.046014976
0001e0 19 fe 55 bd d0 a6 1c be ce 11 f2 bd f3 3c 12 be
       -0.05224428 -0.15298009 -0.11819802 -0.14281063
0001f0 80 3f e3 bd 7d 83 d3 ba 95 f7 81 be 2a aa ff 3c
       -0.11096096 -0.0016137209 -0.25384203 0.03120907
000200 df 08 84 3d 1c 2b a5 3c bd c9 ec 3c 49 54 4a 3d
       0.064470045 0.020162158 0.02890479 0.049396787
000210 88 e8 73 3c 5c f6 bb bd cf 7f 2a be 83 96 0a 3e
       0.014886983 -0.09177849 -0.16650318 0.13533978
000220 77 7e ce 3d 9a 0e ab bd 89 6c 9e bd 05 89 8b 3d
       0.10082715 -0.083523944 -0.07735545 0.06813244
000230 c9 d9 36 bd 04 a1 c5 bd 88 f6 d1 bd 63 48 fc bd
       -0.04464129 -0.09649852 -0.102521 -0.12318494
000240 ba be 9c 3c 1b fc 85 bd 68 73 1f be 89 44 0b bc
       0.019133914 -0.06542226 -0.15571368 -0.008500227
000250 67 66 14 3e f0 f2 86 bd b9 cd 5b 3d ad 95 ed bd
       0.14492188 -0.065893054 0.05366299 -0.11600814
000260 29 29 ee bd 0b dc f5 3d 02 df 11 3e ec 58 83 3c
       -0.116289444 0.120048605 0.14245227 0.016033612
000270 f0 e7 78 bd a3 df 6a bc 58 dd ce 3d b2 de 1f 3c
       -0.060768068 -0.014335546 0.10100812 0.009757685
000280 3c 17 e4 3c fc 25 51 3d ba bf f9 bc 33 6a 3c be
       0.02784311 0.051061615 -0.03048693 -0.18399887
000290 1f e9 6e bd 13 58 af bc aa cf 1e be 63 e9 28 be
       -0.05832779 -0.021404302 -0.15508905 -0.1649528
0002a0 85 8d ba 3d f4 bd 07 bd 84 8a cd bd d8 80 7d 3d
       0.09109024 -0.033140138 -0.100361854 0.061890453
0002b0 d4 7b b1 3d 6a 7d 87 3c d6 62 a8 3b b0 6e 35 bd
       0.086661965 0.016539294 0.0051387353 -0.044295013
0002c0 20 12 e7 bd 34 d2 3c 3d 98 b8 42 be 78 bb 01 be
       -0.11282754 0.046098903 -0.1901573 -0.1266917
0002d0 1f 2a 62 bd 45 e3 e0 3d de d2 b5 3d 81 d5 87 bc
       -0.05521595 0.10980848 0.0887811 -0.016581299
0002e0 9f 03 5a bd 92 d3 f6 3a dd 86 a3 bd 6c 14 aa bb
       -0.05322611 0.0018831363 -0.079847075 -0.0051904228
0002f0 6b ee 09 be e3 f4 a8 bd f2 74 39 bd 0a e2 37 bd
       -0.13469855 -0.082498334 -0.045277543 -0.044893302
000300 d5 c5 b2 3d b0 bd 98 bd 8d 44 14 3e 6e eb 93 3d
       0.0872914 -0.07458055 0.14479275 0.07222639
000310 cc fa a0 3d 3c 5b bc bd 36 a0 cd bd 90 e0 72 3d
       0.07860336 -0.09197089 -0.100403234 0.05929619
000320 25 4f ae 3d 89 bc 8f 3c 2a 99 56 bd 03 c7 0a bc
       0.08511189 0.017545955 -0.052392162 -0.0084703
000330 74 07 86 3d 7d ae d3 bd b2 5a 2b be 1d 1b 71 bc
       0.0654439 -0.103360154 -0.16733816 -0.014715937
000340 57 05 35 3d 4d 83 31 bc 3c 0d 57 3e 9a 36 81 3b
       0.044194546 -0.010834527 0.21001142 0.0039432766
000350 05 54 bc bd 5c 49 ba bd ff 44 03 3d 49 c3 83 3d
       -0.09195713 -0.090960234 0.03204822 0.06433732
000360 9a 33 f3 bc 79 50 7e 3d e9 48 b7 3c 35 44 fd bd
       -0.029687691 0.062088463 0.022373633 -0.12366525
000370 b6 31 ce bd b0 8c 36 3d d4 a9 5f bd 81 da 0c bd
       -0.10068075 0.044567764 -0.05460532 -0.03438807
000380 66 92 57 bd e9 a1 05 3d bd 01 69 bd 00 3b 8d 3d
       -0.05262985 0.032625113 -0.056886423 0.06896019
000390 ad 96 30 3c c4 2e fe bd fc 77 f0 bc c1 8b 6a bc
       0.010778111 -0.124112636 -0.029354088 -0.0143155465
0003a0 88 83 a1 3c 39 2a 4f bc 6b bf 9d bd a9 2b dc 3b
       0.01971604 -0.012644344 -0.07702526 0.006719072
0003b0 54 bc 56 3e 7f 2c 92 bd 54 f7 b3 bc 9e 38 60 3c
       0.20970279 -0.07137393 -0.021968521 0.013685374
0003c0 ec 17 4d bd df ce 92 3c 0a 00 21 3b 24 55 55 be
       -0.05007164 0.01792091 0.0024566674 -0.2083326
0003d0 27 97 34 3e 9c 53 0c be f1 9f a0 ba ff 42 12 bc
       0.17635785 -0.1370377 -0.0012254698 -0.008927106
0003e0 e2 e3 cb 3d fa 50 0c be 1e fc 17 3d 50 f5 1c 3d
       0.099555746 -0.13702765 0.037105672 0.038319886
0003f0 6b d0 91 bd ae e3 78 3d c3 dd ce 3c 69 b4 d8 bb
       -0.07119831 0.060764007 0.025252229 -0.0066133034

99 f4 [1, 512, 128]
000000 d9 33 4f 3c 76 20 01 3e 15 d0 4d 3d c4 ff 80 be
       0.012646639 0.12610039 0.05024727 -0.25195134
000010 a3 05 e7 bd 6c 88 8c 3d 67 62 e4 3d 19 1f 5d be
       -0.11280372 0.06861958 0.11151581 -0.21593894
000020 bd 4a 22 3e fc 9d 3d be 3d 5d 94 3e 71 91 fc bc
       0.15848823 -0.18517298 0.28977385 -0.03083107
000030 75 6e da 3d 5a ce 0b bd 50 fa ad 3e e9 33 a8 3e
       0.10665599 -0.03413234 0.33980036 0.32852104
000040 d3 a7 08 3e 6d 0a 4d be 83 be 97 3d 38 75 9f be
       0.1334527 -0.20023508 0.07409384 -0.31144118
000050 ec f7 8a 3e af f9 77 3d 91 a8 7f 3c 13 74 c7 bc
       0.27142274 0.06054085 0.015604154 -0.02434734
000060 e7 83 a3 3e 0a 5b 1a be 9e 27 a4 be 0f 3e 89 3e
       0.3193657 -0.15073791 -0.32061476 0.2680516
000070 cd e3 cb bd 78 3f d5 3e 2d 79 05 3e 44 bf 28 3d
       -0.09955559 0.41649985 0.13034506 0.04119803
000080 e2 64 9e 3d 4a d1 89 be d4 a5 13 3e 3d e1 f3 bd
       0.077340856 -0.26917487 0.14418727 -0.11908195
000090 be ba 07 bd ad 00 05 be 64 9e 0b be 02 7c d7 bd
       -0.033137076 -0.12988539 -0.1363464 -0.105216995
0000a0 f1 18 14 be da 54 18 3d 9f c6 fb bd a4 cd 24 3e
       -0.1446264 0.037190296 -0.12293743 0.1609407
0000b0 f8 14 9d 3d f9 33 d8 3d 89 6b 58 3d a5 08 eb bd
       0.07670015 0.10556788 0.05283693 -0.11476258
0000c0 a7 56 38 3e 30 b5 8e be df eb 96 bc 03 c4 3d 3e
       0.18001805 -0.2787261 -0.018423019 0.18531804
0000d0 1d cb 7d be 5f 1d 4c 3e 93 71 dd 3d d5 da 20 be
       -0.24784513 0.19933079 0.10812678 -0.15708478
0000e0 4e 89 67 be 02 bf 97 3e 36 ac af 3c dd 5f b5 bc
       -0.22610971 0.29637915 0.021444421 -0.022140438
0000f0 07 6e f4 3d ec 3a 46 be c5 49 ae be 21 4d 6e bd
       0.119350486 -0.19358414 -0.34040657 -0.058179025
000100 8f 35 e0 be 6c 26 e7 3e 24 fe 8b bd 83 37 47 3e
       -0.43790862 0.451465 -0.06835583 0.1945477
000110 2d e3 9b 3c 8b 2a e8 3d 95 38 dc bd 38 ba 5c bd
       0.019029224 0.113362394 -0.1075298 -0.05388853
000120 bf 57 0f 3c 42 03 0a 3e f0 12 9b bd b8 d6 40 3e
       0.008748948 0.13477805 -0.075719714 0.18831909
000130 21 90 0d 3e 9f e5 a3 3d c4 bb a3 bd 07 b0 ea 3d
       0.13824512 0.08002781 -0.07994798 0.11459356
000140 d1 95 92 3d 03 bc 81 bd 2c 6a 57 bd ac a2 98 bd
       0.071574815 -0.063346885 -0.052591488 -0.07452902
000150 66 a5 aa bd d3 a2 91 be 5a 37 16 3d 0b 65 4f bc
       -0.083323285 -0.28444538 0.03667388 -0.012658368
000160 00 19 9a ba 91 14 c4 3d 5a ca 99 3b 46 f8 23 3d
       -0.0011756718 0.09574235 0.0046933116 0.040031694
000170 4d e0 58 3e 2b 77 1e be 21 e1 0e bd 5f cd 1e bc
       0.21179314 -0.15475146 -0.03488267 -0.009692519
000180 e5 a0 b5 bc 5f 61 86 3d b4 85 ae bc 14 ed a3 3d
       -0.022171447 0.06561541 -0.021303989 0.080042034
000190 52 95 4b 3e 89 0c 6f be e0 16 a4 3e 97 94 85 3c
       0.1988118 -0.23344626 0.32048702 0.016306205
0001a0 9f 8f 53 bb 5a 4d 66 be 19 a8 15 3e 43 39 9b 3c
       -0.003228165 -0.22490445 0.14614905 0.018948203
0001b0 fe 3d 8a 3c d9 91 64 3d ef d4 56 be 1e 60 08 3e
       0.016875263 0.055803154 -0.20979665 0.13317916
0001c0 1d 3d 70 3e f0 03 70 3e 4f be 9f 3d 9a 9a a5 bd
       0.23460813 0.23439002 0.0779997 -0.080861285
0001d0 26 7f d1 3d 06 9d 05 bd 3c e9 29 be 64 a8 19 be
       0.1022933 -0.032620452 -0.16592878 -0.15005642
0001e0 25 b6 6c be fe db 19 3e 62 64 a6 bd 98 75 1b 3c
       -0.23116358 0.15025327 -0.08124615 0.009488486
0001f0 17 10 53 be 2c 5a 28 3a 16 84 21 3f 8d f2 7f 3e
       -0.20611607 0.0006422128 0.6309217 0.2499487
000200 16 fd f6 bb cf 11 58 be 62 77 ba 3d 15 ac 2b be
       -0.0075374944 -0.21100543 0.09104802 -0.16764863
000210 41 96 b7 3e f4 a5 71 be e1 3b e1 3c af 33 24 be
       0.35856822 -0.23598462 0.027494373 -0.1603534
000220 cc 19 95 3e 98 f9 77 bd d1 a7 a4 3d 2e da 63 3e
       0.29121244 -0.060540766 0.08039821 0.22251198
000230 20 05 a0 be 69 9e d5 be 35 0a e5 3b 7b f2 09 be
       -0.3125391 -0.4172242 0.006989742 -0.13471405
000240 56 dc 18 3e 21 a2 b0 bb be bf 80 3d 13 60 cb be
       0.14927801 -0.005390421 0.06286572 -0.39721736
000250 b6 4c 39 bd 0a 95 47 be 7a 54 81 3e 14 ba a3 3d
       -0.045239173 -0.19490448 0.25259763 0.07994476
000260 01 3b 12 bc 6c f8 d6 bd a9 05 12 be e5 25 7d 3d
       -0.0089252 -0.104966015 -0.14259972 0.061803717
000270 33 24 84 be 64 a7 c4 3d 6a 1a ae 3e 1c 25 8c be
       -0.25808868 0.0960224 0.34004527 -0.27372062
000280 90 d8 70 be 1a da 64 be df c9 de bd 08 b8 47 be
       -0.23520112 -0.22348824 -0.108783476 -0.19503796
000290 21 8b 72 bc 33 b3 a3 be 5b 13 ab be a6 76 ec bc
       -0.014803679 -0.31972656 -0.33413205 -0.02886517
0002a0 bd 08 c7 3e cd e7 7d 3d 30 db 06 3c 3b af 88 be
       0.38873854 0.06198864 0.008230969 -0.2669619
0002b0 f2 ca d6 bc 38 13 27 3c 30 ea bf 3d 47 21 e1 be
       -0.026219819 0.010197453 0.093708396 -0.439707
0002c0 9f ee 29 be 42 0f 95 bd 6e f9 de bd 92 c7 d1 3d
       -0.16594933 -0.07278301 -0.10887419 0.10243143
0002d0 31 1f 83 3d 76 9e a6 bd c4 8d be be d5 3c e0 bd
       0.06402434 -0.08135693 -0.37217534 -0.10949103
0002e0 c0 42 bb 3e 91 c3 31 3e 56 bd c7 bd 26 d3 ef bd
       0.36574364 0.17359759 -0.0975291 -0.11710195
0002f0 66 a7 46 3e a4 4e ea bd 40 81 4b 3e e1 8b ed bc
       0.19399795 -0.11440781 0.19873524 -0.028997364
000300 ed 59 a9 be 2e 01 98 be fc c3 11 bc 23 c2 d5 3c
       -0.3307642 -0.296884 -0.008896824 0.026093548
000310 2f d0 49 3d 70 89 58 bd c7 71 b3 3d 39 59 de bd
       0.049270805 -0.052865446 0.08761936 -0.108568616
000320 4b 9e 18 3e eb 41 c8 bd 16 81 a8 bd ea 94 b2 3d
       0.14904134 -0.09778198 -0.08227746 0.08719809
000330 4a 0b 72 bc 9c a2 25 be b1 b7 18 be 3f 69 e2 bd
       -0.014773199 -0.16175312 -0.14913823 -0.1105523
000340 1f 34 9a be f7 06 fd 3c 32 4f ea bd 86 e6 54 bb
       -0.3011789 0.03088711 -0.114408866 -0.0032486035
000350 6b c1 a3 be b8 0f 81 3e 79 1c 00 be 76 66 bf bd
       -0.31983504 0.25207305 -0.12510861 -0.09345715
000360 0a 79 67 3e 4e 48 4e be 47 af 4b be 09 d4 03 be
       0.22604766 -0.2014477 -0.19891082 -0.12873854
000370 87 7a 0f 3e bd 20 ac bd 63 1e a3 3e 30 e6 38 be
       0.14011584 -0.08404682 0.3185912 -0.1805656
000380 8f 7d 85 3e 50 8a 01 be 70 e8 9d bd 13 fc 01 3c
       0.26072356 -0.12650418 -0.077103496 0.007933634
000390 7d 26 09 be 60 a4 37 be 12 43 8b be 19 47 08 3e
       -0.13393588 -0.17933798 -0.27199608 0.13308372
0003a0 40 1a 8e be 29 df 0f be 0e 06 09 be fa 5a 54 3d
       -0.27754402 -0.14049973 -0.13381216 0.051844575
0003b0 14 83 a3 bd bc 36 ea be 64 c3 df bc 67 00 1e be
       -0.079839855 -0.45744884 -0.02731485 -0.15429841
0003c0 80 7e de bd ce e9 87 bc 6d 3e 3e be 28 9c 49 bd
       -0.10863972 -0.016590979 -0.18578501 -0.049221188
0003d0 5a a8 1a 3d 0f eb 86 be 18 d8 83 be ac 7f d6 3b
       0.03775821 -0.2635121 -0.25750804 0.0065459814
0003e0 cc ab 90 be f1 d9 2a 3d 0d 05 e3 3d 90 04 16 3d
       -0.2825607 0.04171175 0.11084948 0.036625445
0003f0 58 4a ae be 76 b9 d7 bd 44 f8 77 3d 7f ca 74 3e
       -0.34041095 -0.10533421 0.0605395 0.23905371

action_model._continuous_distribution.log_sigma f4 [1, 4]
000000 75 5f cd 39 b8 a9 0a c0 68 56 bd be 13 70 2f 3e
       0.00039171768 -2.1666088 -0.36979985 0.17132597

action_model._continuous_distribution.mu.bias f4 [4]
000000 aa b1 54 3e f3 2a 54 bc 42 d2 55 3d 22 4f 04 3d
       0.20770898 -0.012949693 0.05220247 0.03230203

action_model._continuous_distribution.mu.weight f4 [4, 128]
000000 cf a3 87 3e eb b1 98 3e 18 9a a3 bd b7 33 94 3e
       0.26492164 0.2982324 -0.079883754 0.28945705
000010 5b 5b 3b bd 12 62 81 be e3 29 35 be c0 c7 60 be
       -0.04574142 -0.25270134 -0.1769176 -0.21951199
000020 c5 8d ea be 3d ff ac 3e a1 b4 60 be 23 47 94 3e
       -0.45811287 0.3378848 -0.21943904 0.28960523
000030 dd 29 c5 3d 21 02 96 3e 11 bd 15 3d ce 8c 22 3e
       0.096271254 0.292985 0.03655726 0.15874025
000040 f3 bc 90 be b3 f0 d5 bc 03 0b d2 be b8 a5 ca 3e
       -0.28269157 -0.02611575 -0.41024026 0.39579558
000050 ff 47 0d 3f f9 0e d1 bd d9 dc 9e 3e 5b df b9 be
       0.5518798 -0.10207934 0.31027868 -0.3630322
000060 2c 81 26 bd 61 26 cf 3d 93 68 bd 3d ed b7 56 3e
       -0.04065053 0.10114742 0.092484616 0.209686
000070 61 1a 47 3e 91 71 26 3d 05 48 d4 bd e6 16 69 be
       0.19443657 0.04063565 -0.10365299 -0.22762641
000080 16 5f 80 3e a3 b5 8f 3e 4a 5b 8e 3d cc 8d 8c be
       0.25072545 0.28068265 0.06951006 -0.27451932
000090 ae 38 b6 be d5 dc 36 be 65 f5 82 3d 91 39 41 3e
       -0.35590118 -0.17857678 0.063944615 0.18869616
0000a0 6f 30 ea bc 2e 13 ce 3d c7 0f 1b be e5 6b f2 bd
       -0.028587548 0.10062252 -0.15142737 -0.118369855
0000b0 4b cd a4 3e 99 ea 93 3e 39 08 07 be 66 04 52 3d
       0.32187876 0.2888992 -0.1318673 0.051273726
0000c0 b9 08 d0 3c 63 be 9b 3d a3 26 ba be 08 55 8c bd
       0.025394784 0.07604673 -0.36357602 -0.06852156
0000d0 5c 0c 94 be 92 79 37 bc ed 8f e3 be 69 0b 94 be
       -0.2891568 -0.011198418 -0.44445744 -0.28914955
0000e0 f3 14 d7 be bb 1d 09 be cc 75 88 bd 12 ee 23 be
       -0.4200817 -0.13390248 -0.06663093 -0.16008785
0000f0 28 19 7a 3e 25 96 ed be 0b c1 ae 3e 71 2a 8b 3d
       0.24423659 -0.46403614 0.34131655 0.067952044
000100 44 0a ac 3a c5 f7 0b bc 0d 90 f2 3e 2a 46 af 3e
       0.0013125618 -0.00854296 0.47375527 0.34233218
000110 e0 71 50 be 74 79 fd 3e 2d 0c f0 3d 20 56 37 3e
       -0.2035594 0.49506724 0.11721072 0.17903948
000120 1b aa 84 be 7e 42 d1 3d 96 9a 6e 3e c6 54 c5 3d
       -0.2591103 0.102177605 0.23301157 0.0963531
000130 e0 06 9a 3d 3c 48 8a bd 9e 76 ff bd 15 11 53 3e
       0.075208426 -0.06752059 -0.12473796 0.20611985
000140 44 de 16 3d 6f 46 b9 be bb 2f ec 3d 8a 64 2a 3e
       0.036833063 -0.3618655 0.11532541 0.16639915
000150 1d 92 81 3c 75 1c 8a be 02 60 a5 bd f9 61 f5 3c
       0.015816743 -0.26974836 -0.08074953 0.029953944
000160 6e ed 51 be ad 2e f7 3e 25 b9 28 be ad a1 8c 3e
       -0.20500728 0.48277798 -0.16476877 0.274671
000170 bb d5 94 3d 75 90 be 3e 47 e8 28 be d7 5a b9 be
       0.07267328 0.37219587 -0.16494857 -0.36202118
000180 9a 41 9d be 1c b2 dd 3e 48 cb b1 be ee 92 e7 be
       -0.30714113 0.4329995 -0.34725404 -0.45229286
000190 67 58 77 3d 85 26 2e be 31 ae f4 be 60 d6 15 be
       0.06038704 -0.17006882 -0.47789147 -0.14632559
0001a0 07 9b db 3c c5 48 6c be 1f 83 e3 3e 87 7d ca 3e
       0.026807321 -0.23074634 0.44435975 0.39548895
0001b0 5d 35 ae be 82 bc a6 3d cd 17 33 be 9e e5 aa 3e
       -0.34025088 0.08141424 -0.17489548 0.3337831
0001c0 2e 85 d4 be 66 82 1a 3e 2c 63 d8 3c 57 63 a6 be
       -0.41507858 0.15088806 0.026414476 -0.32497665
0001d0 c7 6d d2 3b 1f f3 6e be 44 c6 9e 3e 03 b3 b8 3d
       0.006421778 -0.23334931 0.3101064 0.09018519
0001e0 74 17 a6 be c3 31 e9 bd 43 68 f1 3d 2d d8 57 be
       -0.32439768 -0.113864444 0.117874645 -0.21078558
0001f0 f8 a1 d1 bb db 9f 78 bc d3 c9 bd 3d 3f ae ad 3b
       -0.006397482 -0.015174831 0.092670105 0.005300313
000200 6c 33 de bc 82 1a 02 3d ed bb 12 3d bc e5 d9 3c
       -0.02712413 0.03176356 0.03582375 0.026598804
000210 0f 4b 43 bd 2c 57 90 bc c9 d8 1f bc a8 1d 40 bc
       -0.047679003 -0.017619692 -0.009756275 -0.011725821
000220 ab 4d dd ba 00 75 dd 3d 90 42 64 3d 97 27 bb bc
       -0.0016884109 0.108133316 0.05572754 -0.022846026
000230 e5 70 42 ba f4 2b 33 bd 90 75 05 3d 1f e7 db 3c
       -0.00074173353 -0.04374309 0.03258282 0.026843606
000240 6c 43 18 3d 6b c1 7b bc 1c 0e 9d 3b e3 74 e6 3c
       0.037173674 -0.015365939 0.0047929417 0.028131908
000250 11 76 f2 3c ed f0 66 3d b3 e6 e7 3b ec f7 84 bc
       0.029597314 0.05638211 0.007077062 -0.0162315
000260 98 c2 17 bc ef ff b7 3b c7 46 bc 3c de a5 b0 3c
       -0.009262703 0.0056152265 0.022982968 0.021563467
000270 38 30 c7 3c 71 54 01 bc dc b9 76 bd 32 75 d7 3c
       0.024314985 -0.007893668 -0.060235843 0.026301
000280 cb 29 41 3d 42 34 91 3a f5 94 44 bc 98 27 58 bc
       0.047158998 0.0011078196 -0.011998405 -0.013193034
000290 0a 9b a5 bc 36 e5 25 bd 8b 39 24 bc 7f 05 b9 3c
       -0.02021553 -0.040501796 -0.010023485 0.022585629
0002a0 ef 54 bc bc 29 86 71 3c df ab 0c bc da 86 bc bc
       -0.022989718 0.014741459 -0.008585899 -0.023013521
0002b0 6d 3d 06 bc 36 a6 d4 3c e2 79 6b bd bb 7e ff bd
       -0.008193356 0.025958162 -0.057489283 -0.12475344
0002c0 47 cd 96 3c 38 e7 86 3b 03 55 38 3d c1 54 82 bd
       0.01840843 0.004116919 0.04500295 -0.06363822
0002d0 b6 4b 10 bd 6f db 85 3c 62 4c ca bc f1 ba a5 3b
       -0.035228454 0.016339986 -0.024694625 0.0050576855
0002e0 2c 56 93 3b 10 a5 42 bc 94 d9 51 3d b9 6c 37 3b
       0.0044963565 -0.011880174 0.05123289 0.0027988388
0002f0 6a 77 16 bd c5 5f 96 bc 24 19 8f 3b b1 05 18 3c
       -0.036734976 -0.018356213 0.0043670107 0.009278701
000300 82 76 af bb d1 a1 88 3d 0b f6 b8 bb e6 a0 89 bd
       -0.0053547034 0.06671489 -0.005644565 -0.06720142
000310 4f 88 c3 bc 32 d9 5d ba 58 26 16 3b 37 2c 8f bd
       -0.023868708 -0.00084628456 0.0022911038 -0.06990855
000320 3d cb 19 3c ba aa 42 bb f8 db 12 bc 6d 08 ef 3c
       0.009386835 -0.0029703812 -0.008963577 0.029178822
000330 60 3b a0 bd ec bd 3a 3b da 47 ee bc 6b de 68 bd
       -0.07823825 0.002849455 -0.029086996 -0.05685274
000340 18 2a fe ba e7 08 c1 bc 67 e6 30 bc ad 74 ae bb
       -0.0019391207 -0.023563815 -0.01079712 -0.0053239674
000350 cd 4c 85 3c 40 a0 9b bc e1 df a7 bc 8c 28 5c bc
       0.016271973 -0.018997312 -0.020492496 -0.0134374015
000360 84 51 24 3b aa 97 ed 39 52 a9 36 bc 08 05 28 bc
       0.0025073 0.0004531716 -0.011148768 -0.010255106
000370 65 a5 54 bd 02 ae 59 bc ec 67 ab 3c 6d 74 a2 3c
       -0.051915545 -0.013286116 0.020923577 0.019830907
000380 5b 17 dd bc c8 1b af bc 65 09 93 3b fe 5e 47 ba
       -0.026988676 -0.021375552 0.004487204 -0.00076054025
000390 41 25 1c 39 41 99 bb bc eb 64 27 bd f3 81 95 ba
       0.00014891197 -0.022900226 -0.040867727 -0.0011406526
0003a0 bb 2d 1a bd 7e d9 ac 3c 9d c7 23 bd fb 49 c5 bb
       -0.03764127 0.021099802 -0.039985288 -0.006020782
0003b0 21 2c 7e 3d 9a 72 be 3c 13 61 a3 3c b2 14 fb bc
       0.062053803 0.023248006 0.01994375 -0.030649517
0003c0 90 43 86 bc 8f 57 b6 3c e1 f7 a1 3c c0 41 9a 39
       -0.016389638 0.022258548 0.019771518 0.00029422157
0003d0 28 ac bc 3c 4c 12 2e 3b 55 6d 63 bc 55 22 4d 3c
       0.02303131 0.0026561199 -0.013881047 0.012520392
0003e0 64 49 0d bd d6 03 54 3c 71 8b 5b 3c 45 0c b9 3c
       -0.03449382 0.012940368 0.013399945 0.022588858
0003f0 18 3d 5a 3c 3a c3 02 bc 12 3b cc bc bb aa 9f bc
       0.01332023 -0.007981116 -0.02493051 -0.01949059

network_body._body_endoder.seq_layers.0.bias f4 [128]
000000 d6 4d bb bb a1 26 51 be 85 4a 56 3d 49 65 29 3b
       -0.005716066 -0.20424892 0.05231716 0.0025847724
000010 54 de a2 bd 93 ba 15 bd 21 78 46 bd 07 b3 1c 3c
       -0.07952562 -0.036554884 -0.048454408 0.009564168
000020 4a ae ce bc 3c 92 de 3d 8d e4 1b ba e8 3f 0e 3c
       -0.025229592 0.10867736 -0.00059468375 0.008682229
000030 60 b6 24 3a 80 7d da 3c 8c e5 29 bd 2f c5 37 3d
       0.00062832795 0.026671171 -0.04147868 0.044865783
000040 04 d1 85 bc a6 9e 09 3d eb 2f 3d 3d f9 9b 06 bc
       -0.016335018 0.033598565 0.046188276 -0.008215898
000050 e3 bd a8 3c f8 b2 42 be e1 f2 67 bc 00 5c af 3b
       0.020598358 -0.19013584 -0.014157028 0.0053515434
000060 f3 7d a2 3d 02 9b f7 bc 98 98 88 3c 94 23 4f bc
       0.07934179 -0.03022528 0.016674325 -0.01264276
000070 c8 75 4e 3c 18 38 73 3c ae 54 de bd b4 a7 3a bd
       0.012601323 0.014844917 -0.10855995 -0.04557009
000080 9d 49 00 be 4b ca 90 bc 3b e2 5e 3d fa 40 69 3d
       -0.12528081 -0.017674586 0.05441497 0.056946732
000090 fc 4e 1d 3c 0d a3 f4 bc 6c 75 d4 bd 57 4a c9 3c
       0.009601351 -0.029862905 -0.10373959 0.02457158
0000a0 3f 1b 41 3d f5 cd e0 3c 4c 19 f7 3c 30 8f 94 3c
       0.047145125 0.027441958 0.03016343 0.018134683
0000b0 df fa b2 bd 29 cf 3d 3d 7e d6 4b bd 61 50 88 bc
       -0.08739256 0.04634014 -0.049765103 -0.01663989
0000c0 dd 43 31 3c 81 8d 76 bc 40 d0 35 bd 01 c2 84 bd
       0.0108194025 -0.015048386 -0.044388056 -0.06482316
0000d0 b9 4b b6 bc 42 e4 bd bc b8 f5 03 bc 47 84 fd 3c
       -0.022252904 -0.02318013 -0.008054189 0.030946864
0000e0 a7 93 9f 3d 37 98 70 bc 6e da 97 bc 0b 36 a9 bc
       0.07791834 -0.014684728 -0.018536773 -0.020655653
0000f0 5d f9 fc 3c 74 e8 67 3c 42 3d 77 b9 29 cf c9 3c
       0.030880624 0.014154542 -0.00023578576 0.024634914
000100 29 cb d0 bc d7 f9 c3 ba 71 d3 3a be cb 87 4a 3d
       -0.0254875 -0.0014951777 -0.18244721 0.04944591
000110 de 3b 65 be 4c 18 0f 3b 2b f8 8d 3d ff 69 8a 3d
       -0.22386119 0.002183455 0.069321 0.067584984
000120 ab 2e 80 3d ed b7 cd 3b 30 fe 22 bd bd 65 e6 bc
       0.06258901 0.006278029 -0.039793193 -0.028124684
000130 e5 69 20 3d 1b fb e9 bc 75 55 e4 3c 15 93 cd 3d
       0.03916349 -0.02856212 0.02787278 0.10037819
000140 e4 58 30 3d 11 91 06 3d ae e2 2a bd c4 d5 43 be
       0.043053523 0.03285319 -0.041720085 -0.19124514
000150 45 25 57 3d 67 a4 9a 3b e7 39 0b 3c bb 9d b6 bd
       0.052525777 0.0047193053 0.008497692 -0.089168034
000160 42 f4 09 3d 86 2c 87 3c 97 ff 9f bd 8c e7 cc 3a
       0.033680208 0.016500723 -0.07812422 0.0015632971
000170 04 01 97 bc ef f1 2b bd 6d 69 b2 3c 66 09 f4 bc
       -0.018433101 -0.041978773 0.021778787 -0.029789638
000180 a1 fb a1 3c 88 10 94 3d 20 bc 06 3c 9f f7 e3 bd
       0.019773306 0.072297156 0.008223563 -0.11131214
000190 d2 88 a2 3d 78 f8 2a bd 93 1b 4e 3d 66 4d 76 bc
       0.07936253 -0.041740865 0.050319266 -0.015033102
0001a0 6f 2e d3 bc 67 4d 35 3d 39 5c 32 bd 1e 3e 20 bc
       -0.025778977 0.04426327 -0.04354498 -0.009780435
0001b0 3d 21 35 3d cb 97 36 3d c4 c2 05 3d 40 36 22 bd
       0.04422115 0.044578355 0.032656446 -0.039602518
0001c0 d7 65 25 38 6a f1 69 3d c5 e9 50 ba 29 7a d1 bc
       3.943391e-05 0.057114996 -0.00079694047 -0.025570946
0001d0 a6 42 52 3d 66 79 4e be ae 41 80 bd b7 b8 2c be
       0.051333092 -0.20163497 -0.062625274 -0.16867338
0001e0 96 8e 99 ba 09 c2 29 3d 16 af c7 3d 8c 9a 5f 3d
       -0.0011715468 0.041444812 0.09750192 0.054590747
0001f0 b9 d4 91 3d c4 e7 26 bd 4c c2 d3 bc 4a b5 50 3c
       0.07120652 -0.040748373 -0.025849484 0.012738535

network_body._body_endoder.seq_layers.0.weight f4 [128, 114]
000000 80 f1 94 bc 98 5a 1a be 0b 6f 75 3e f3 a6 0a 3e
       -0.018181562 -0.15073621 0.23968141 0.13540249
000010 5f d1 d6 3d 0f af 60 3c 4e 95 1b 3d 9e 58 31 3d
       0.10489153 0.013713612 0.037984185 0.043297403
000020 1b 3f 61 3d 0d 06 dd bd d5 ce 5b 3e 42 75 2d be
       0.054991823 -0.1079217 0.21465619 -0.16939262
000030 2d 46 d9 3d f4 be b1 bd 7d 1e dc 3d 1c 29 13 be
       0.10609088 -0.086789995 0.10748003 -0.1437115
000040 98 d0 5a 3e 04 5d c6 bd 42 04 0e 3e 49 62 41 3d
       0.21368635 -0.0968571 0.13868812 0.047212873
000050 d2 01 38 be 20 0f 1b 3e 49 bc 78 3d 69 14 68 be
       -0.17969444 0.15142488 0.060726438 -0.22664036
000060 10 f6 be bd 49 21 04 3e 60 ec af bd ed 37 a2 bd
       -0.093242764 0.12903322 -0.08590007 -0.07920823
000070 c6 f0 86 3e 1d 8f ef bc fb 97 3c 3e da c6 4f be
       0.2635557 -0.029243046 0.18417351 -0.202907
000080 43 a4 e4 3d 3d f0 59 be 55 64 e3 bd be 9c 65 be
       0.11164143 -0.2128305 -0.11103121 -0.22423074
000090 ce 3f d8 3e 03 f8 86 be 84 b5 64 3d 83 b9 3a bd
       0.4223618 -0.26361093 0.05583717 -0.045587074
0000a0 12 f3 ff 3d 7d c2 ea bd e6 99 70 3b d6 6a 85 3d
       0.12497534 -0.11462877 0.0036712824 0.06514518
0000b0 af 1e 4e be 49 2f 93 bd e5 05 bd 3e d1 d7 99 be
       -0.20128892 -0.07186753 0.3691856 -0.30047467
0000c0 86 75 38 bd 86 d5 89 be 5e 82 0c bc cb 8b cb 3e
       -0.045033954 -0.26920718 -0.008576004 0.3975509
0000d0 ea a8 3b bd bb 33 88 bd 59 24 88 be 0a 39 03 3d
       -0.045815386 -0.06650492 -0.2659023 0.03203682
0000e0 a2 a8 19 3c 2d b6 50 3c a0 4f 43 3d 40 29 c7 bd
       0.009378584 0.012738747 0.04768336 -0.09724665
0000f0 e6 90 3b be 64 fc a7 3d 11 4c 2a be ea e1 09 3e
       -0.18316993 0.082024366 -0.1663058 0.13465086
000100 70 a5 c3 be 0c 76 2a 3e af 45 61 bd 5b 93 7a 3c
       -0.38212156 0.16646594 -0.054998096 0.015293921
000110 b8 0a 50 bd 15 df b5 bc ac 26 0d 3c 88 a8 0d be
       -0.050791472 -0.0222011 0.008615177 -0.13833821
000120 e1 59 7d 3d 87 be ed bc ff 59 59 be d1 c0 20 bd
       0.061853293 -0.029021515 -0.21225737 -0.039246384
000130 e9 32 4f 3e 8c ff 6d be 1c 25 a4 bd 89 30 ad bd
       0.20234264 -0.23242015 -0.080148906 -0.08456523
000140 39 58 54 be 5f a5 d9 3d 35 c5 25 bd f2 ef 98 3d
       -0.2073678 0.10627245 -0.040471274 0.07467641
000150 31 b8 4a be 1b c0 96 bd 8e d4 f1 3d 3d e8 04 3d
       -0.19796826 -0.0736086 0.1180812 0.032448042
000160 cd 1b 13 3d 33 5a 3d 3e be b4 84 bd 83 98 2d be
       0.035915185 0.1849144 -0.06479786 -0.1695271
000170 ae a2 23 3e d9 c5 80 bd cd 40 11 3f 1f 6b 8d 3d
       0.15980026 -0.062877364 0.56739503 0.06905197
000180 14 f8 58 bf eb a0 85 3c 9b de 81 3d ea b3 49 be
       -0.8475354 0.016312083 0.06341287 -0.19697538
000190 de fc 97 be e1 c1 c6 be 8a af 30 bd 3a 02 c3 3d
       -0.2968511 -0.38819793 -0.043136157 0.09521909
0001a0 a0 94 c1 3c 5d 7b 1a 3e fe b5 5c be 9c 64 0e 3e
       0.02363044 0.15086122 -0.215538 0.13905567
0001b0 c9 21 93 be eb eb 64 3e c6 a4 32 3c 67 84 a2 bd
       -0.28736714 0.2235562 0.010903543 -0.0793541
0001c0 77 d0 a4 bc 33 41 7a 3e 06 d8 22 3d 23 89 ac be
       -0.020118935 0.24438934 0.039756797 -0.33698377
0001d0 76 7b 73 bd fb 63 8f 3c 1e a3 00 be 48 ae 84 bd
       -0.059443913 0.01750373 -0.12562224 -0.06478554
0001e0 64 aa a2 bd b8 92 c9 bd f8 99 d7 bd 7f fb 5a be
       -0.07942656 -0.098424375 -0.10527414 -0.21385
0001f0 5f 78 a3 be 05 ac 30 bc f6 2e c3 bd 11 3a c8 3c
       -0.31927773 -0.0107832 -0.095304415 0.02444175
000200 23 46 7b 3d 2c d0 fb bd 41 34 85 bd f6 80 99 3d
       0.061346184 -0.12295565 -0.06504107 0.074953005
000210 a3 54 7e be 29 7f 2c bd 2f 96 3b 3e 23 23 16 be
       -0.24836974 -0.042113457 0.18319009 -0.14661841
000220 7d e0 0e 3d d5 8e 66 bd fa ff fe bd 55 91 0b be
       0.034882057 -0.05628856 -0.124511674 -0.13629659
000230 9f f7 e2 3d 99 ab 1e be 58 ee 42 3d 6e 01 2d be
       0.11082386 -0.15495147 0.047590584 -0.16895077
000240 48 29 5e 3e 99 42 b2 3d 56 e7 90 be ea 4d 0c be
       0.21695435 0.08704109 -0.28301495 -0.13701597
000250 81 f7 89 be 58 0c 8a 3e 28 7c 9c bd a4 cd 7a be
       -0.26946643 0.26962543 -0.076408684 -0.24492508
000260 76 7c b6 3d 7f a8 67 bc cb 3d be 3e e7 3b dd 3c
       0.08910458 -0.014139294 0.3715652 0.027006103
000270 16 62 24 be 54 0f 18 bf 84 4e d7 be 53 49 0a 3e
       -0.16053042 -0.5939839 -0.4205209 0.13504533
000280 fd 19 d1 bd 6b ba af bd 19 42 ef bc eb 39 84 bc
       -0.10210035 -0.08580478 -0.029206323 -0.016140899
000290 0b 81 b5 bd f5 75 ff 3d a8 f6 82 be b4 89 59 bd
       -0.088625036 0.124736704 -0.2557881 -0.05310984
0002a0 19 bf 42 bc 74 e9 4d be ed f1 82 bc e9 64 f3 bd
       -0.011886382 -0.20108587 -0.0159845 -0.118844815
0002b0 9e 04 06 3b d8 58 05 bd 92 be 02 be d4 64 14 be
       0.002044953 -0.03255543 -0.1276801 -0.14491588
0002c0 40 51 66 be 08 4b 48 3b a0 54 9f be 12 7f d5 3d
       -0.22491932 0.00305623 -0.3111925 0.10424627
0002d0 c6 40 85 be 63 88 06 be 1a 8c 64 be b7 43 46 be
       -0.2602598 -0.13137965 -0.2231907 -0.19361769
0002e0 c4 aa 65 bd c7 6d 5b be 60 af 8f be 9f 64 ed bd
       -0.056071058 -0.21428595 -0.28063488 -0.115914576
0002f0 b1 67 51 be 8d c0 0b 3c 8f b2 0f be 3e 81 94 bb
       -0.20449711 0.008529794 -0.14032958 -0.0045320084
000300 69 13 ba be 81 74 b3 be 3b 16 6f bd c9 7e 84 be
       -0.36342934 -0.35049823 -0.05837081 -0.2587798
000310 16 b3 4b be 97 1d f9 bd 4b 58 ad bd 72 33 20 3e
       -0.19892535 -0.12163847 -0.08464106 0.15644625
000320 9d 40 21 be 3f 36 74 be 13 05 83 be 7b 3d 62 be
       -0.15747304 -0.23848818 -0.2558981 -0.22093765
000330 3e 88 44 be 30 4c 35 3e 79 8f 4c 3e 6b 8e 06 bf
       -0.19192597 0.17704844 0.19976605 -0.5256106
000340 f2 5b 47 3e c8 34 30 3e 21 c9 74 be 11 49 1a be
       0.19468668 0.17207634 -0.2390485 -0.15066935
000350 c3 38 3f 3e fb 40 99 bd 08 99 cc bb ce 42 ec bd
       0.18673997 -0.07483097 -0.0062438287 -0.115361795
000360 cb 15 47 bd 5f ca 9d be 82 b4 54 be 6e 2c d9 bd
       -0.048604768 -0.3081846 -0.20771983 -0.106041774
000370 ee b0 84 3d d3 d6 38 bd 16 25 72 ba cb 87 6b bd
       0.06479059 -0.045126747 -0.00092370936 -0.05750255
000380 b1 5b 5e be 61 39 0e 3e 5c 20 a8 3e 9d 33 3d 3e
       -0.21714665 0.13889076 0.32837188 0.1847672
000390 99 02 56 3e b8 18 bd bd 9e e8 56 3e 69 80 8d 3e
       0.20899428 -0.0923323 0.20987174 0.27637032
0003a0 8a 6a 4c be 0a 53 b4 be 26 a5 96 3e 35 79 48 3e
       -0.19962516 -0.35219604 0.29422873 0.19577487
0003b0 34 0e e2 bd fa 27 f2 bc 88 57 89 bd 9e 37 99 be
       -0.11037865 -0.029560078 -0.067061484 -0.29925245
0003c0 47 9c b3 3d 2f a3 a8 bd c3 99 29 be ae a0 8c 3c
       0.08770042 -0.0823425 -0.16562562 0.017166462
0003d0 ec f2 44 3d c9 4d 1e 3e f9 cc 4d 3e 41 9a b2 bd
       0.04808323 0.1545936 0.20097722 -0.08720828
0003e0 11 3d c8 bc ec 97 a0 3d 6a fb 3c bd d4 87 df 3d
       -0.024443181 0.07841477 -0.046138205 0.10914579
0003f0 d2 31 5c bd 03 e3 e3 3e 27 33 63 be d2 ce 65 3d
       -0.05375845 0.44509134 -0.22187482 0.056105442

network_body._body_endoder.seq_layers.2.bias f4 [128]
000000 61 13 0b bc 58 18 29 3c 41 66 34 3c 15 d6 e9 3c
       -0.008488507 0.010320745 0.011010707 0.028544465
000010 c1 91 86 bd e7 da e7 3d 04 d5 eb 3d 7f fd 98 bd
       -0.06570769 0.11321049 0.11515239 -0.074702255
000020 51 18 a3 bc eb ca 3b bd 16 46 66 bc ff 8c 43 3d
       -0.019909056 -0.045847815 -0.014054796 0.047741886
000030 40 60 2f 3e ab c4 16 3d 3a c7 37 bc 42 dc 15 3d
       0.1712656 0.03680865 -0.011216933 0.036587007
000040 80 80 7f 3d fd e2 9e bd f7 1e d5 3d 0c f8 aa 3d
       0.062378407 -0.07758138 0.10406297 0.083480924
000050 1c 5a 2a 3d dd d6 2b 3d c0 87 39 be 65 d6 b1 bd
       0.04158984 0.041952956 -0.18118191 -0.08683471
000060 b8 2f ba bc bd 1c 9c 3c 63 65 05 bc 03 8a 49 bc
       -0.022727832 0.019056672 -0.008141848 -0.012300971
000070 fc 30 e3 bc 67 7b 86 bc 43 a3 b3 bd 48 5c 5a bc
       -0.027733319 -0.016416265 -0.08771374 -0.013327666
000080 bb a6 2f bc 38 90 fd 3b bd 0a ee 3b 88 91 0c 3d
       -0.010720904 0.0077381395 0.0072644637 0.034318477
000090 9b 2f 91 bc a2 5c 06 3e 21 ac 6b 3c 6e 33 85 bc
       -0.017722895 0.13121274 0.0143843 -0.016259875
0000a0 a1 2d 8d bd 31 91 d1 3c bd 9f 7d 3d d3 0a 24 bd
       -0.06893469 0.025581928 0.061919916 -0.040049385
0000b0 df f3 94 3d fd 70 11 3e 4d c7 52 bd 6c be 33 3c
       0.07273077 0.14203258 -0.0514596 0.010970693
0000c0 3d c6 9b 3b 13 46 dc bd 5d 90 a3 3c d1 97 88 3d
       0.0047538565 -0.10755553 0.019966299 0.06669582
0000d0 d8 af 63 3d 6f 19 90 bb 55 9e ac 3d 4a 68 fb 3d
       0.05558762 -0.004397563 0.08428637 0.12275751
0000e0 d0 77 b4 bd b5 92 9e 3d b1 f0 f3 3b 89 05 9b 3b
       -0.08811915 0.07742826 0.007444464 0.0047308845
0000f0 34 22 a1 3d 80 5c fd 3c ff 26 2a 3d 2c 85 67 3b
       0.07867852 0.030927896 0.041541096 0.003532718
000100 42 d1 6d bc a8 e4 cc 3c c2 37 54 3d 93 73 25 3d
       -0.014515223 0.025011376 0.051810987 0.040393423
000110 1a c0 df 3d 68 7a e0 3d 22 cb 88 bc 35 08 48 3d
       0.10925312 0.10960847 -0.016698424 0.04883595
000120 eb c7 f5 3c 8f 9e db 3c eb b1 a9 3d 2b 3f a4 3d
       0.030002555 0.026809005 0.08285888 0.08019861
000130 87 7c 8b bc b8 fd 6d 3c 49 c2 25 bb 1e af c5 3c
       -0.017027153 0.014525823 -0.0025292805 0.024131354
000140 12 1d 14 3d 67 2f 24 bc 4e b2 fc bc cf bc 2d 3d
       0.036160536 -0.010021067 -0.030846741 0.04241639
000150 7d a4 39 3e 11 c6 88 bd bc 80 74 3d cf f3 bd bd
       0.18129154 -0.06678403 0.059693083 -0.092750184
000160 7b 88 b3 3d 6d 3f c9 bc 2b 8a e7 bd f9 59 ae 3d
       0.08766266 -0.024566377 -0.1130565 0.08513255
000170 a7 50 ae 3b 5b e8 f6 bc 7c 11 b8 ba 94 0a 40 bd
       0.005319673 -0.030140093 -0.0014043297 -0.046885088
000180 3b ff 40 3d 03 2a a2 bc b0 55 3f bd 45 ad 73 bc
       0.047118407 -0.019795423 -0.046712577 -0.014872854
000190 e6 19 91 3d 65 e3 07 3c 54 c3 9d bc cf 07 fe 3c
       0.07085018 0.008293961 -0.019258179 0.031009583
0001a0 0b 92 e8 3c d8 cb b2 3c 13 58 25 3d 85 5f 13 3c
       0.028389951 0.021825716 0.040367197 0.008994942
0001b0 ad 54 b5 3d 5f d8 e5 3c fe ae ec 3d 58 ca 0c bd
       0.08854041 0.028057275 0.115568146 -0.034372658
0001c0 eb 82 76 3d e4 ec 27 3c bd 2f 01 3c 05 45 cb bc
       0.060183447 0.01024935 0.007884917 -0.024813185
0001d0 13 3e 1b 3d ad a5 b0 bd 0d d9 ec 3d 99 01 95 3d
       0.037900995 -0.0862535 0.11564837 0.07275695
0001e0 62 14 77 3d 0d c3 be 3c 18 b3 00 be a9 88 31 be
       0.060322173 0.023286367 -0.12568319 -0.17337288
0001f0 d5 bc 5f 3c f7 6f 67 bb 8c 1a 4c b8 3b fd 5b 3d
       0.013655861 -0.003531454 -4.8662114e-05 0.053708296

network_body._body_endoder.seq_layers.2.weight f4 [128, 128]
000000 b4 2b 85 bd 54 d6 be 3c aa 10 14 3e d4 8a 21 bd
       -0.06502476 0.023295559 0.14459482 -0.039439037
000010 73 74 fc bd 54 d3 d4 bd de cc 87 3d aa a0 9d bc
       -0.123268984 -0.1039187 0.06630872 -0.01924165
000020 33 7b d5 3d 5e ec e9 3d c5 7f d3 3d 24 d1 84 3d
       0.10423889 0.114220366 0.103271045 0.06485203
000030 82 87 91 bd 39 44 dc be a8 e1 a4 3d d0 54 2a 3d
       -0.07105924 -0.430208 0.08050853 0.04158479
000040 27 f3 95 3d c7 bb 98 be eb 48 05 3e 62 57 46 bd
       0.07321768 -0.29830763 0.13016097 -0.04842318
000050 57 d6 4c be bf 14 21 3e 62 3d e3 bd 98 33 e1 bd
       -0.20003639 0.1573057 -0.11095692 -0.10996169
000060 95 28 53 bd 8b 4d ba 3d bf 35 89 3e 13 da 46 bd
       -0.051552374 0.090968214 0.26798818 -0.048547816
000070 53 6a 3b be 84 27 3d be e4 7d 74 be 91 4b 2e 3e
       -0.18302278 -0.18472105 -0.23876148 0.17021014
000080 58 4a 0c 3e 5b 11 8b bd 87 75 01 3e dc 91 2a bc
       0.13700235 -0.0679042 0.1264249 -0.010410752
000090 e5 71 56 be c1 1f 57 3d 38 06 e8 bd b4 55 3a be
       -0.20941885 0.052520517 -0.11329311 -0.18196756
0000a0 07 96 c6 bd 5f d0 2e bd 03 e2 37 be 61 84 cc bd
       -0.09696584 -0.042679187 -0.1795731 -0.09986187
0000b0 96 27 a0 bd 34 d1 a0 3e b2 36 15 3e 16 f7 56 3e
       -0.078200504 0.3140961 0.14571646 0.20992693
0000c0 e7 3d 23 3e f1 de 16 be 77 d4 95 bc 97 c2 48 3e
       0.15941583 -0.14733483 -0.018289788 0.1960548
0000d0 c0 86 eb bd af ba 33 be d6 c1 30 3e f8 70 25 3d
       -0.11500311 -0.17551683 0.17261443 0.04039094
0000e0 40 4b bf bd bd 8b 63 bc 6b 26 1b be 0f 26 fb bd
       -0.09340525 -0.013888297 -0.15151374 -0.122631185
0000f0 d6 4c 00 be 20 b9 16 be fe 91 0e 3d 3d 22 30 3e
       -0.1252931 -0.14719057 0.034807198 0.17200561
000100 35 a4 0b bd 87 82 72 bc 13 cc 19 3d 7c df 92 bd
       -0.034092147 -0.014801628 0.037548136 -0.071715325
000110 a9 da 55 bb e3 9b a8 3e 69 01 98 be cf a6 a4 be
       -0.0032631552 0.32931432 -0.29688576 -0.32158515
000120 be ef 0e be f0 b7 b3 bb 8d 14 69 3e f6 1f a1 bd
       -0.13958642 -0.0054845735 0.22761746 -0.07867424
000130 b4 bb 3f 3c 91 59 39 3e 7f cc 7c be d1 f9 05 be
       0.011702467 0.18100573 -0.24687384 -0.13083579
000140 75 26 a9 be 02 de 0a 3d f3 37 9c be ea 7b 81 3d
       -0.33037153 0.03390313 -0.30511436 0.06322463
000150 2a b6 a0 3b cd 7e 85 be 32 1c 01 3e b9 bf 2c bb
       0.004904528 -0.26073304 0.12608412 -0.0026359393
000160 62 9c 63 3c 94 97 23 3d 11 26 50 be ba 7d 7c bd
       0.013892265 0.039939478 -0.20327021 -0.06164334
000170 81 80 5e be e7 49 5c 3e e9 b7 db 3d eb d5 77 bd
       -0.21728708 0.21512567 0.107284375 -0.060506742
000180 a9 be 28 be 06 e2 dd bd 7e 37 71 3e 5a 89 09 bd
       -0.16478981 -0.10834126 0.23556325 -0.033578254
000190 c1 33 bb be 98 e1 8f bd 25 a0 34 be 7f 8c 23 3d
       -0.36562923 -0.070254505 -0.17639215 0.03992891
0001a0 7b 7b c8 3c 1c a4 82 bd 3d af 8c 3e 14 69 fb bd
       0.024472943 -0.06378958 0.27477446 -0.122759014
0001b0 83 14 08 be c1 a4 92 be 18 5a 0a bd 24 0a 22 3e
       -0.13289075 -0.28641322 -0.033777326 0.15824181
0001c0 b0 3b 19 3d 36 09 60 bc 1f ca 02 be 37 0c 22 bc
       0.037410438 -0.013674071 -0.12772416 -0.009890608
0001d0 46 32 2e be 7b 95 6b bd 56 48 da bd 96 7d 1b bd
       -0.17011365 -0.057515603 -0.10658328 -0.037961565
0001e0 ff 19 a4 bd de 9f 5d bd 11 31 ae 3c 35 eb d5 3c
       -0.08012771 -0.05410754 0.021263631 0.026113132
0001f0 86 86 01 be c2 f7 0e 3e b4 69 c9 bd be 3c 1d bc
       -0.12648973 0.139617 -0.098346144 -0.009597002
000200 e8 75 19 be 50 69 43 be 3e 8f 93 bd 68 3b 6f 3e
       -0.14986384 -0.19083142 -0.07205056 0.23362505
000210 7c f4 cc bd 02 cd c3 bd 93 1d 40 be 0b c9 4b bd
       -0.10007569 -0.095605865 -0.18761282 -0.049752276
000220 7c 15 57 be 81 57 d6 3c 4a 85 30 3e 0a 84 1e 3d
       -0.2100429 0.026164772 0.17238346 0.03870014
000230 a9 e1 21 3e 59 78 10 be 76 55 31 be a7 16 62 bd
       0.15808739 -0.14108409 -0.17317757 -0.055197384
000240 48 69 71 bc 7e 12 bd 3d 84 fa cb 3e 77 ac 52 bc
       -0.014734574 0.09232043 0.39839566 -0.012858502
000250 3c 0e 02 be 56 b8 1b be 46 22 93 be ed 9a 04 be
       -0.12700742 -0.15207037 -0.28737086 -0.12949724
000260 ba c2 dd 3d d6 fd 13 3e 89 fc 42 bd 2b 90 09 3b
       0.10828157 0.144523 -0.047604118 0.0020990472
000270 c2 1d bc 3d 02 88 04 be b4 58 c4 bd 30 eb 52 3e
       0.09185363 -0.12942508 -0.09587231 0.2059753
000280 51 81 39 3d eb 07 65 be d7 a0 f9 3e 38 00 fe 3d
       0.04528934 -0.22366302 0.48755524 0.124023855
000290 2b 1b b2 be d8 d5 49 bd dc ee 85 be c4 99 54 bb
       -0.34786353 -0.049276203 -0.26158798 -0.0032440284
0002a0 74 9b d4 3d 73 38 49 bb 95 1d a0 bd 6c 03 3e 3d
       0.10381213 -0.0030703812 -0.07818142 0.046389982
0002b0 76 70 21 be 41 32 ea 3d 50 e3 d2 be 79 46 8f 3e
       -0.15765557 0.114353664 -0.4118905 0.27983454
0002c0 1f 6f 52 be 98 01 ad be de 49 54 be 83 9d 36 3d
       -0.20550202 -0.33790278 -0.20731303 0.04458381
0002d0 5b f6 26 be af db 95 bd 6f 67 90 3d 96 f9 e2 3d
       -0.16304915 -0.07317292 0.070509784 0.11082761
0002e0 df 94 06 3e 8a a6 11 3e bd 02 98 3d 53 d3 4b bd
       0.13142727 0.14223686 0.07422397 -0.04976208
0002f0 d1 1b 10 be 88 8d f2 3e fa ed 36 3e 6d a5 0d 3d
       -0.14073111 0.47373605 0.17864218 0.03458159
000300 3b 6b 50 be ee 3f 18 be a1 05 f5 bd 0b c5 42 3e
       -0.20353405 -0.14868137 -0.11963964 0.19020478
000310 07 58 b4 bd c3 39 86 3e 00 56 22 3e cb dc e2 bd
       -0.088058524 0.26215944 0.15853119 -0.11077269
000320 30 de 0d 3e ec 91 77 3d a5 f9 67 3d b5 33 5b be
       0.13854289 0.060441896 0.056634564 -0.21406443
000330 d7 b7 56 3e e2 a2 a2 be 78 f2 cf be 23 78 02 3e
       0.20968567 -0.31764895 -0.40614676 0.12741141
000340 8d 20 2a 3e ea 07 57 be d0 23 77 be 32 08 40 be
       0.1661398 -0.20999113 -0.24134755 -0.18753126
000350 26 6d 99 3d 95 c6 e4 bd 52 0c e7 3d f7 df c2 3b
       0.074915215 -0.11170689 0.11281647 0.005947109
000360 e1 27 b1 bd 03 aa 32 3e e0 63 00 be 89 0c 19 be
       -0.086501844 0.17447667 -0.125381 -0.14946188
000370 77 5f d4 bd c2 f3 5b be 1f b6 73 3e 4e 8c 17 be
       -0.10369771 -0.21479705 0.23799942 -0.14799616
000380 a8 29 80 bd e8 5f 1c 3e df 22 c2 bd de 9d 45 bd
       -0.06257945 0.1527096 -0.094793074 -0.048246257
000390 fd 4c 7e 3e d7 62 75 be 82 4e ca bd d0 ca a9 bb
       0.24834056 -0.23963486 -0.098782554 -0.005181648
0003a0 80 cf 1f be fa 2b d6 3d 15 37 98 bd 26 b6 82 bc
       -0.15606499 0.104576066 -0.07432381 -0.015955996
0003b0 43 cc 9d 3e 86 c3 70 be 03 83 b5 bc e6 29 1d be
       0.30819902 -0.23512086 -0.022157198 -0.15348014
0003c0 73 23 04 3e a5 85 74 be ca f8 48 3e 88 13 30 bd
       0.12904148 -0.23879106 0.19626155 -0.042987376
0003d0 1e df 0c bd 07 4b 5d be b2 31 65 be cb b8 6d be
       -0.03439247 -0.21610652 -0.22382239 -0.23215024
0003e0 7c 9c 2c be ed 70 ef 3c 07 36 b8 3c 57 32 a9 3e
       -0.16856569 0.029228652 0.0224867 0.3304622
0003f0 f1 bf 28 3d 3e 7d c8 bd 5b 5f 82 be 7b 2c 25 3d
       0.041198675 -0.09789513 -0.25463375 0.040325623
