results/DroneAgentTrackFast/DroneAgent/DroneAgent-4999957.onnx (onnx, 659442 bytes, 10 tensors)

100 f4 [1, 512, 128]
0	0x3f0a48cb	0.54017323
1	0xbe80ce1a	-0.25157243
2	0xbe358c58	-0.17729318
3	0xbd85c79c	-0.06532213
4	0x3e6bec99	0.23039474
5	0xbe8f7891	-0.28021672
6	0x3f281eee	0.65672195
7	0x3e7b1367	0.2451912
8	0x3ea8e271	0.3298526
9	0x3f01f5d1	0.5076571
10	0x3e6a09a7	0.22855245
11	0x3ee7a120	0.45240116
12	0xbd41f8b8	-0.047356337
13	0x3e959fa1	0.2922335
14	0x3edfb4c6	0.43692607
15	0x3f0cfc23	0.5507223
16	0xbd9b7a99	-0.07591743
17	0xbcf40cc4	-0.029791243
18	0x3cdbfd8e	0.026854303
19	0x3c9b5a59	0.01896398
20	0x3c60dde5	0.013724779
21	0xbdb1330f	-0.08652317
22	0xbdce4d1d	-0.10073302
23	0x3ea20a2a	0.3164838
24	0x3edc1471	0.42984346
25	0xbd91b23e	-0.07114075
26	0xbe0e54f7	-0.13899599
27	0xbe347de1	-0.17626144
28	0xbe0eaab3	-0.13932304
29	0x3e4b65df	0.1986308
30	0xbd151abc	-0.03640245
31	0x3d36615a	0.044526435
32	0x3ee14a0f	0.44001815
33	0xbe7d62cd	-0.24744721
34	0x3de83c14	0.11339584
35	0xbe3c50c4	-0.18390185
36	0x3dee5f1c	0.116392344
37	0xbdc58348	-0.096441805
38	0x3da56a9c	0.08076975
39	0x3e5a86d2	0.21340492
40	0x3e9a4458	0.30130267
41	0x3e5c0b46	0.21488675
42	0xbd8a53da	-0.06754275
43	0x3efe6b2c	0.4969114
44	0x3ea2bc95	0.31784502
45	0x3e83e1a8	0.257581
46	0xbe7ef231	-0.24897076
47	0x3e24009c	0.16015857
48	0x3c89c0bb	0.016815534
49	0xbe74420f	-0.23853324
50	0xbe8fb5d9	-0.28068426
51	0xbe16e68a	-0.14736381
52	0xbea98fe1	-0.33117583
53	0x3e004a9a	0.12528458
54	0xbd103f83	-0.03521682
55	0x3e360fc6	0.17779455
56	0x3dfe5699	0.12418861
57	0xbf0cd5ab	-0.5501353
58	0xbe10a175	-0.14124091
59	0x3e0cc917	0.13748585
60	0xbe20d2b5	-0.15705378
61	0xbd80e418	-0.062935054
62	0x3e509697	0.20369945
63	0x3ec20560	0.37894726
64	0x3d3b4893	0.04572351
65	0x3e9c2779	0.30498865
66	0xbd11dca6	-0.035610817
67	0xbe4095c2	-0.18807128
68	0xbe081ffb	-0.1329345
69	0x3ef9f57a	0.48820096
70	0xbd8f3bfe	-0.069938645
71	0xbe621ca6	-0.22081241
72	0x3e18b900	0.14914322
73	0x3de3b89c	0.11119196
74	0xbc808907	-0.01569034
75	0x3f0cf014	0.5505383
76	0xbdc80ebf	-0.097684376
77	0xbde54fac	-0.11196837
78	0x3e91c180	0.2846794
79	0x3d387f7d	0.045043457
80	0x3e0690f7	0.13141237
81	0xbd3c6c10	-0.046001494
82	0xbeb6cd8a	-0.3570369
83	0x3df1cb7e	0.11806391
84	0x3e8b6518	0.27225566
85	0x3ecea7c9	0.40362385
86	0xbecc44bf	-0.398962
87	0x3e0de2e1	0.13856079
88	0xbdf62978	-0.12019628
89	0xbe31c07e	-0.17358586
90	0xbf07b8eb	-0.5301654
91	0x3d5e8930	0.05433005
92	0xbcec9bff	-0.028882978
93	0x3ebf61a6	0.37379187
94	0x3de5562b	0.11198076
95	0xbee5f1d0	-0.4491105
96	0x3e118f4f	0.14214824
97	0x3e346c35	0.17619403
98	0xbdf9f962	-0.12205769
99	0x3e0f753d	0.14009567
100	0x3e6d8927	0.2319685
101	0x3e81e26b	0.25368056
102	0x3e044589	0.1291715
103	0x3ec59ad1	0.38594678
104	0x3e271fba	0.16320696
105	0xbde44988	-0.111468375
106	0x3b377ae4	0.0027996833
107	0xbecec19c	-0.40382087
108	0x3ea0e27f	0.31422803
109	0x3e5eb403	0.21748357
110	0x3d0b7a7c	0.034052357
111	0x3f10497d	0.56362134
112	0xbe527896	-0.20553812
113	0xbea20c10	-0.31649828
114	0xbe3cc59b	-0.18434756
115	0xbd097ca2	-0.033566125
116	0x3e4456c1	0.19173719
117	0x3d386bb7	0.0450246
118	0x3e9d5dc8	0.30735612
119	0x3e2a097e	0.16605183
120	0xbdae8ea8	-0.08523303
121	0x3e1e5537	0.15462194
122	0xbd0db559	-0.034596775
123	0x3e016c99	0.12639083
124	0xbd11a1ed	-0.035554815
125	0xbdf236f5	-0.118268885
126	0x3e992a2c	0.29914987
127	0x3eeb6afe	0.45980066
128	0xbe14d22f	-0.14533304
129	0xbe894ddd	-0.26817217
130	0xbc6c633c	-0.014427956
131	0x3e3dcbe4	0.1853481
132	0xbc184fa6	-0.009296333
133	0x3e19a6d6	0.15005049
134	0x3e2189a8	0.15775168
135	0x3de4d39d	0.111731745
136	0xbb82185f	-0.0039701904
137	0xbe3c7169	-0.18402638
138	0xbe274d4e	-0.16338083
139	0xbe5b09c3	-0.21390443
140	0xbe056335	-0.13026126
141	0xbe773ac1	-0.24143507
142	0xbcdd99f6	-0.027050953
143	0x3ef99fdd	0.48754779
144	0x3e8e19b6	0.2775399
145	0x3ed841ef	0.42237803
146	0x3d629748	0.055320054
147	0xbceda665	-0.029010007
148	0xbdb09220	-0.08621621
149	0xbe48e358	-0.19617975
150	0x3f021ec3	0.5082819
151	0xbdafc0e9	-0.085817166
152	0x3db1dff0	0.08685291
153	0x3ccbbec0	0.02487123
154	0xbe587665	-0.21138914
155	0x3ddacb1b	0.106832705
156	0xbe86ed5a	-0.2635296
157	0x3eda8851	0.42682126
158	0xbe9aea83	-0.30257043
159	0x3f494414	0.78619504
160	0x3d9b295c	0.07576248
161	0xbdadfc12	-0.08495344
162	0xbf0845f3	-0.53231734
163	0x3e402f1d	0.18767972
164	0xbdc13fd2	-0.09436001
165	0x3e2c9b39	0.16856088
166	0x3d5be442	0.05368448
167	0xbe516f3c	-0.20452589
168	0xbe912eb2	-0.28355938
169	0x3e7eba90	0.24875855
170	0x3e0cca21	0.13748981
171	0xbee7df7a	-0.45287687
172	0x3cd87736	0.026424032
173	0x3d0f5de3	0.035001647
174	0xbe34ec02	-0.17668155
175	0x3e7137a8	0.23556387
176	0x3bfd47d7	0.0077295112
177	0x3e667f59	0.22509517
178	0x3dc8b08a	0.09799297
179	0x3f0315eb	0.5120532
180	0x3f3dee20	0.74191475
181	0xbeca0032	-0.39453274
182	0xbe563f7b	-0.20922653
183	0xbe474c3e	-0.19462678
184	0xbe94b9ee	-0.29048103
185	0x3ebee7cc	0.37286222
186	0x3e31181b	0.17294352
187	0x3dc7448f	0.097298734
188	0xbea7cabe	-0.32771868
189	0x3d93fde2	0.07226159
190	0xbe70d6de	-0.23519465
191	0xbd03efd5	-0.032211144
192	0xbea2915d	-0.31751528
193	0x3eb18384	0.3467065
194	0xbec8ed0d	-0.39243355
195	0xbe4e0c9b	-0.20121996
196	0xbc85d08f	-0.0163348
197	0xbe94939d	-0.2901887
198	0x3d92d407	0.07169347
199	0x3e91c398	0.2846954
200	0xbbc12b2a	-0.005895038
201	0xbf16c33b	-0.5889165
202	0xbe88ccd5	-0.26718774
203	0x3dd01195	0.101596035
204	0x3e1ad71e	0.15121123
205	0x3eabafc4	0.33532536
206	0x3e35db38	0.17759407
207	0x3eb7e22e	0.3591475
208	0xbdef1620	-0.11674142
209	0x3d0bfb41	0.03417516
210	0x3d68d793	0.056846213
211	0x3edade4b	0.4274772
212	0x3d11dfa2	0.035613663
213	0x3ce1e1b9	0.027573453
214	0xbe94ac92	-0.2903791
215	0x3d9e2e04	0.077236205
216	0x3ec9ad56	0.39390057
217	0xbdd0922d	-0.10184131
218	0x3e9a84e9	0.30179527
219	0xbd6c8ed8	-0.057753414
220	0x3df30fb2	0.11868228
221	0xbe717c23	-0.2358251
222	0xbe668c73	-0.22514515
223	0xbe051289	-0.12995352
224	0xbdc8b705	-0.09800533
225	0x3e2a4d0d	0.16630955
226	0x3e12666b	0.14296882
227	0xbc9fbb8d	-0.01949861
228	0x3ee52cf3	0.44760856
229	0xbe29b687	-0.16573535
230	0x3d65c273	0.056093644
231	0x3ec03aab	0.3754476
232	0xbe7e939c	-0.24860996
233	0x3e68a34b	0.22718541
234	0xbe860008	-0.261719
235	0x3d9125de	0.07087301
236	0xbe151477	-0.14558588
237	0xbe71a2c3	-0.23597245
238	0xbe8995bf	-0.2687206
239	0xbd2a3ef7	-0.041563954
240	0x3bacf962	0.005278752
241	0xbddf2120	-0.1089499
242	0xbe80f4ea	-0.25186855
243	0x3e8554b1	0.26041177
244	0x3eae2d2f	0.34018847
245	0xbea9f272	-0.33192784
246	0xbd018176	-0.031617604
247	0xbe3c23b3	-0.18372993
248	0x3dae5ddd	0.08513997
249	0x3d61ae3d	0.055097807
250	0xbdeb494c	-0.1148859
251	0x3db880a6	0.09008913
252	0xbd232d60	-0.039838195
253	0x3cbe2b23	0.023213929
254	0x3ed96d45	0.4246618
255	0xbd43de41	-0.04781938

101 f4 [1, 512, 128]
0	0xbd797178	-0.060899228
1	0x3eb6de5b	0.3571652
2	0xbe20a3e0	-0.15687513
3	0x3ea07b85	0.31344238
4	0x3e2836c5	0.16427143
5	0x3e28b482	0.16475108
6	0x3edb886b	0.42877516
7	0xbef819a4	-0.48457062
8	0x3d5415d7	0.05177864
9	0xbe418024	-0.18896538
10	0xbe247112	-0.16058758
11	0xbd3f8e60	-0.04676664
12	0xbeaf86ba	-0.34282476
13	0x3e18a985	0.14908417
14	0x3ef930dd	0.48670092
15	0xbe8bca7b	-0.27302918
16	0x3ece827d	0.4033393
17	0xbf0a7591	-0.5408564
18	0xbe46bca6	-0.19407901
19	0xbe2da520	-0.16957521
20	0xbd5841ed	-0.052797247
21	0x3e1655bb	0.14681141
22	0xbeda1583	-0.42594537
23	0xbebd3f00	-0.36962128
24	0x3b979413	0.004625806
25	0x3e91b308	0.28456903
26	0x3dd08edc	0.10183498
27	0x3ed853b8	0.42251372
28	0xbe91f268	-0.28505254
29	0x3dab62f1	0.08368481
30	0xbe2a00b8	-0.16601837
31	0x3eb2ac1c	0.34896934
32	0xbce405e6	-0.027834844
33	0x3d7362cc	0.059420392
34	0xbe7f9d3b	-0.24962322
35	0x3d362cac	0.044476196
36	0x3e60d68a	0.2195684
37	0xbdc58f5e	-0.09646486
38	0xbe6eb7fe	-0.23312375
39	0xbda3c5e6	-0.079967305
40	0xbd532850	-0.051552117
41	0x3e6462d5	0.22303326
42	0xbdff298e	-0.12459098
43	0x3e098225	0.13428552
44	0x3df30ded	0.118678905
45	0x3ef5f067	0.48034975
46	0x3e83a0a8	0.25708508
47	0x3e33075d	0.17483278
48	0x3daad357	0.08341091
49	0xbdf85dce	-0.12127267
50	0x3dc69e92	0.09698214
51	0x3ed9d3be	0.4254436
52	0xbe969cfb	-0.29416642
53	0x3ec4ac84	0.3841287
54	0xbdd748a0	-0.10511899
55	0xbe18d59e	-0.14925238
56	0x3e569782	0.20956233
57	0x3ed128f9	0.40851572
58	0x3e20e5ce	0.15712664
59	0xbd07a7dd	-0.03311907
60	0x3d9e5947	0.07731872
61	0x3e85fd5b	0.26169857
62	0xbdba89ef	-0.0910834
63	0xbd347fbb	-0.044067126
64	0xbdc7a258	-0.097477615
65	0xbd2a9af4	-0.04165168
66	0xbeed05a0	-0.46293354
67	0x3e0b1c79	0.1358508
68	0xbeb11d42	-0.34592634
69	0x3d1986c5	0.037482042
70	0x3e26b56f	0.16280149
71	0xbda1d74a	-0.07902391
72	0xbe1e775a	-0.15475217
73	0xbba37a3f	-0.004988938
74	0xbca9c4f1	-0.020723792
75	0x3ea6a12d	0.32544842
76	0xbc258fbd	-0.010105071
77	0xbb7c29f0	-0.0038477145
78	0x3e6558e8	0.22397196
79	0xbca21d2a	-0.019789297
80	0xbe7aaaa2	-0.24479154
81	0x3ec40acb	0.38289484
82	0x3cf93fde	0.030425962
83	0x3e1b4351	0.15162398
84	0x3f416036	0.7553743
85	0xbeba3929	-0.36371735
86	0x3e1ef99a	0.15524903
87	0x3dcbbee6	0.0994852
88	0x3c171828	0.009222068
89	0x3d8a403d	0.06750534
90	0x3ea4a68b	0.32158312
91	0xbe1b28fe	-0.15152356
92	0x3e1b827f	0.15186499
93	0xbdbaa790	-0.09113991
94	0xbe65d94a	-0.2244617
95	0xbdb8a9dc	-0.09016773
96	0x3e593a54	0.21213657
97	0x3d9ce17d	0.07660196
98	0x3eaf35b1	0.3422065
99	0x3dfbd08a	0.12295635
100	0x3e13ba1a	0.14426461
101	0x3e14c100	0.14526749
102	0x3e2674dc	0.16255516
103	0xbe74611b	-0.23865168
104	0xbd308dd2	-0.043104
105	0x3e0a897f	0.13529013
106	0xbf10b9b8	-0.56533384
107	0xbeb2c0a5	-0.349126
108	0x3ec166a3	0.37773618
109	0xbe0fae88	-0.14031422
110	0x3e383efa	0.17992774
111	0xbd38fae2	-0.045161135
112	0x3e4a8ffb	0.19781487
113	0x3e4db187	0.20087253
114	0xbe871c0d	-0.2638859
115	0x3ef0bf38	0.47020888
116	0xbdf43c63	-0.1192558
117	0x3e8ff6f0	0.28118086
118	0xbeafb2cb	-0.34316096
119	0xbdd66db7	-0.10470145
120	0x3eaf34f3	0.34220085
121	0x3d976871	0.073929675
122	0xbe30cde2	-0.17266038
123	0xbe5c43ca	-0.21510234
124	0x3c649c84	0.013953332
125	0x3e0b1945	0.13583858
126	0x3e42e197	0.19031368
127	0xbd067c0b	-0.03283314
128	0x3d7d9933	0.06191368
129	0x3dd13c68	0.102166
130	0x3d9b21b8	0.07574791
131	0xbe3d6db2	-0.18498877
132	0x3e0af471	0.1356981
133	0xbdf762be	-0.120793805
134	0x3d960a76	0.07326214
135	0xbdf1e4d0	-0.11811221
136	0xbe9110b1	-0.28333047
137	0xbd373fbe	-0.044738524
138	0x3e0ecaee	0.13944599
139	0xbe28ca49	-0.16483416
140	0xbe3e43cd	-0.18580551
141	0xbea7f312	-0.32802635
142	0xbe79bcdf	-0.24388455
143	0x3dee8324	0.11646107
144	0x3ed50b58	0.41610217
145	0xbdf9c68e	-0.121960744
146	0xbeb35793	-0.3502775
147	0x3e48b0ee	0.19598743
148	0xbd0dfc9f	-0.034664746
149	0x3e9cdddb	0.30638012
150	0x3dbe69df	0.09297537
151	0x3dab6401	0.083686836
152	0x3e7a9654	0.24471408
153	0x3f1222fd	0.5708464
154	0x3ec4c45d	0.38431063
155	0xbe974f82	-0.29552847
156	0x3d6123a5	0.054965634
157	0xbed1bef4	-0.40965998
158	0xbe640538	-0.22267616
159	0xbe8075e5	-0.25089946
160	0xbe6f430b	-0.23365419
161	0x3ea72c72	0.32651097
162	0x3e5c7214	0.21527892
163	0xbdfb6181	-0.12274457
164	0xbe196cf5	-0.1498297
165	0xbe72b63c	-0.2370233
166	0x3e00963e	0.12557313
167	0x3e0f9267	0.14020692
168	0xbe275c6e	-0.16343853
169	0x3eb1824f	0.3466973
170	0xbed6a612	-0.41923577
171	0xbe1f06a7	-0.15529881
172	0xbec40d57	-0.38291427
173	0x3e88a2ed	0.26686803
174	0xbe0fb807	-0.14035045
175	0xbef88e03	-0.48545846
176	0x3e276ebc	0.16350836
177	0x3d101e3f	0.035185095
178	0xbdf40cc5	-0.11916498
179	0xbddac816	-0.106826946
180	0x3e0b9c9b	0.13633959
181	0x3e6c6824	0.23086601
182	0xbc98a5b8	-0.018633708
183	0xbe9dbcc9	-0.30808094
184	0xbd5de918	-0.054177374
185	0xbe9fc815	-0.31207338
186	0x3e623498	0.22090375
187	0x3e29159c	0.1651215
188	0xbe22cbfa	-0.15898123
189	0xbd9d3782	-0.07676603
190	0x3e9430a9	0.28943375
191	0xbdadf5a5	-0.084941186
192	0xbc90a4b8	-0.017656669
193	0xbea50a07	-0.32234213
194	0x3e4c8126	0.19971141
195	0xbe8312ec	-0.25600374
196	0x3eea55e5	0.45768657
197	0xbe064154	-0.13110858
198	0xbda65581	-0.08121777
199	0xbea7d1d7	-0.32777283
200	0x3e8a1471	0.2696872
201	0xbcfec9f0	-0.03110215
202	0xbc4f9cf4	-0.012671698
203	0x3daf3e71	0.08556832
204	0xbecb7ae1	-0.39742187
205	0x3f01cbe7	0.50701755
206	0xbecd5462	-0.4010344
207	0xbb631924	-0.0034652436
208	0xbe3d03cf	-0.18458484
209	0xbd7144a3	-0.058903348
210	0x3d4e0f2e	0.050307445
211	0x3e6a59ee	0.22885868
212	0x3db5d0b8	0.088777006
213	0x3f1d215b	0.6137902
214	0xbdb2b09c	-0.08725092
215	0x3e8e9f37	0.27855846
216	0x3e486282	0.19568828
217	0x3eb3c798	0.35113215
218	0x3dc05f87	0.093932204
219	0x3dd6e640	0.104931355
220	0x3e38cd93	0.1804717
221	0xbc37e206	-0.011223322
222	0x3e707087	0.23480426
223	0xbe770413	-0.24122648
224	0xbe809898	-0.2511642
225	0x3e43cc6e	0.19120952
226	0x3d98f95d	0.07469437
227	0xbee51871	-0.4474521
228	0xbb8d78ea	-0.0043173926
229	0xbeb21ea3	-0.34789
230	0x3e974180	0.2954216
231	0xbcac42e6	-0.021027993
232	0xbd599e07	-0.053129222
233	0xbc6599ac	-0.014013689
234	0x3e032fa0	0.12811136
235	0xbe10ca86	-0.14139757
236	0x3d8935ee	0.066997394
237	0x3f3ccf78	0.7375407
238	0xbebca339	-0.3684328
239	0xbe3bcd2c	-0.18339986
240	0x3f1a8fa7	0.60375446
241	0x3e91b649	0.28459385
242	0xbdbec57d	-0.09315012
243	0xbe89ba51	-0.2689996
244	0xbe81e21f	-0.2536783
245	0x3e494147	0.19653808
246	0x3e1e2f7b	0.154478
247	0xbe839281	-0.2569771
248	0xbed7a259	-0.4211605
249	0xbe8bcff5	-0.27307096
250	0xbea8d32c	-0.3297361
251	0x3e110e87	0.14165698
252	0x3ebfda05	0.37471023
253	0xbe11705f	-0.14203022
254	0x3e82f162	0.25574785
255	0x3e6362c8	0.22205651

102 f4 [1, 1024]
0	0xbe83f382	-0.2577172
1	0x3e135654	0.143884
2	0x3e72642e	0.23671028
3	0x3e4829dd	0.1954722
4	0xbab6364e	-0.0013901682
5	0x3eb6b132	0.35682064
6	0x3d8b2e79	0.06795973
7	0x3de00e43	0.1094022
8	0x3eb173ba	0.34658605
9	0x3e6773b2	0.22602728
10	0x3e6cdf3f	0.23132037
11	0x3ddafd7d	0.1069288
12	0x3df1307e	0.11776827
13	0x3e006715	0.12539323
14	0x3eb073e1	0.3446341
15	0x3db24929	0.087053604
16	0xbdc0e261	-0.09418178
17	0x3e9ba780	0.3040123
18	0x3e88f2d1	0.26747754
19	0x3e59d52a	0.21272722
20	0x3edae39f	0.42751786
21	0x3daa047b	0.08301636
22	0x3ea12504	0.31473553
23	0x3e0501d1	0.12988974
24	0x3eb166dd	0.3464879
25	0x3e8d8265	0.27638546
26	0x3e28af05	0.16473015
27	0xbd1bc21c	-0.038026914
28	0x3f00bd3f	0.50288767
29	0x3e8f448a	0.2798198
30	0x3e302831	0.17202832
31	0xbd58351d	-0.052785028
32	0x3d927727	0.07151633
33	0x3dcc7c18	0.099846065
34	0x3e83312a	0.25623447
35	0x3e3fefe1	0.1874385
36	0x3cdc70a9	0.02690919
37	0xbda2f49f	-0.07956814
38	0x3d03825d	0.032106746
39	0x3e104877	0.14090143
40	0xbd93431d	-0.07190535
41	0x3da72050	0.0816046
42	0x3e252243	0.16126351
43	0x3e261c39	0.16221704
44	0x3e7729a8	0.24136984
45	0x3d634a78	0.05549094
46	0x3e9e761e	0.3094949
47	0x3e1bce8a	0.15215507
48	0x3dde157a	0.1084394
49	0x3e0bcb45	0.1365176
50	0x3b1b494a	0.0023694807
51	0x3b44e8ef	0.0030046066
52	0x3e796584	0.24355131
53	0x3d625749	0.055259023
54	0x3e6294cf	0.22127078
55	0x3e85d5cb	0.26139674
56	0xbd961089	-0.073273726
57	0x3e7722de	0.24134395
58	0xbd49f380	-0.049304485
59	0x3e2a5c02	0.1663666
60	0x3de0fb58	0.1098544
61	0xb9aac749	-0.00032573406
62	0xbd8c7047	-0.06857353
63	0xbcd246e6	-0.025668573
64	0xbb1663d9	-0.0022947697
65	0x3de27d3f	0.11059045
66	0x3e5e4efc	0.21709818
67	0x3ea78662	0.32719713
68	0x3e7ec9c1	0.2488165
69	0x3e2f9099	0.17145003
70	0x3e051f05	0.13000114
71	0x3e44cbbc	0.19218343
72	0x3e9930e2	0.29920107
73	0xbbfb7263	-0.007673548
74	0x3e6c9653	0.23104219
75	0x3e597bdc	0.21238655
76	0xbd488151	-0.04895145
77	0x3e51b227	0.20478116
78	0x3ea168d3	0.31525287
79	0x3e0fb41a	0.14033547
80	0x3ea781cb	0.32716212
81	0x3da9ea03	0.08296587
82	0x3e39faeb	0.18162124
83	0x3dc2b286	0.09506707
84	0x3e725bbe	0.2366781
85	0x3e0debd0	0.13859487
86	0xbe287b56	-0.16453299
87	0xbe01910c	-0.12652987
88	0x3e6b6fef	0.22991918
89	0x3da7e6b4	0.081983
90	0x3e7c7231	0.24652936
91	0x3def7721	0.11692644
92	0xbd2dbb1c	-0.04241477
93	0x3e4aa5e7	0.19789849
94	0x3e31bf7d	0.17358203
95	0x3d68669d	0.056738485
96	0x3e8b86fd	0.27251425
97	0xbd729e71	-0.059233133
98	0x3deda801	0.1160431
99	0x3ea442fc	0.32082355
100	0x3e05855c	0.13039154
101	0x3e775f12	0.2415736
102	0x3e46f0b5	0.1942776
103	0x3df1e2ae	0.11810814
104	0x3c08466a	0.008317569
105	0xbd8467e2	-0.064651266
106	0x3ebf41a3	0.37354764
107	0x3e85ff5c	0.26171386
108	0xbdf8b5f6	-0.12144081
109	0x3e7fa91e	0.24966857
110	0x3e16c817	0.14724766
111	0xbcd3c458	-0.02585046
112	0x3e4f631c	0.20252651
113	0x3e16721a	0.14691964
114	0x3e4376c3	0.19088273
115	0xbcff7309	-0.031182783
116	0x3e2124c6	0.15736684
117	0x3e05121e	0.12995192
118	0x3ebbb68f	0.3666272
119	0x3def632f	0.1168884
120	0x3e197c5f	0.1498885
121	0xbd136155	-0.035981495
122	0x3e7155a5	0.23567827
123	0x3e6ffa7d	0.23435397
124	0x3e9d73cb	0.30752406
125	0x3e283786	0.1642743
126	0x3d4116f0	0.047141016
127	0xbdba8a76	-0.091084406
128	0xbd3368bd	-0.043801058
129	0x3d8a9ff1	0.06768788
130	0x3e971a1c	0.29512107
131	0x3e34784a	0.17624012
132	0xbcc5c4b6	-0.02414165
133	0x3e55b2ab	0.20868938
134	0xbda6a4a7	-0.08136874
135	0x3e14ada0	0.14519358
136	0x3e8f5a01	0.27998355
137	0x3ec43f35	0.38329473
138	0x3eac3fbf	0.33642384
139	0x3e173c5e	0.14769122
140	0xbd44b9ff	-0.048028942
141	0x3e458c18	0.19291723
142	0x3e11f89c	0.14254993
143	0x3dca80dc	0.09887859
144	0xbdff40d2	-0.12463535
145	0x3ecf42f3	0.40480766
146	0x3e69f7c5	0.22848423
147	0x3ea7f942	0.32807356
148	0x3e933b2a	0.28756076
149	0xbddd9776	-0.108199045
150	0x3ed146f4	0.40874445
151	0x3e42275c	0.18960327
152	0x3e94a795	0.29034105
153	0x3e748dab	0.23882167
154	0x3c1bf58c	0.009518992
155	0xbc23065c	-0.009950247
156	0x3e52b58c	0.20577067
157	0x3e7d8861	0.24759056
158	0x3eeb1099	0.459111
159	0xbcaaaef3	-0.020835375
160	0x3e30302c	0.17205876
161	0x3e8cdfe2	0.2751456
162	0x3d51c4bd	0.051213015
163	0x3b85532b	0.0040687523
164	0x3e4edb99	0.20200957
165	0x3cba22d6	0.02272169
166	0xbaff1062	-0.0019459839
167	0x3ed6c923	0.4195033
168	0x3eb274e7	0.34854814
169	0x3d81beec	0.063352436
170	0x3ee15395	0.4400908
171	0x3e27fb5a	0.16404477
172	0x3e46d32d	0.19416495
173	0x3e3c39d2	0.18381432
174	0x3ed9bfa0	0.4252901
175	0x3daf95c3	0.08573487
176	0x3e89b357	0.26894638
177	0xbdcf2b31	-0.1011566
178	0x3db39f8c	0.087706655
179	0xbc73146e	-0.014836414
180	0x3e51a64b	0.20473592
181	0x3e1cea0e	0.1532366
182	0x3e340fcf	0.17584155
183	0x3e4b4d2a	0.19853655
184	0x3e61f53a	0.22066203
185	0x3dffc3f5	0.12488548
186	0x3e8aeda7	0.2713444
187	0x3df2869c	0.11842081
188	0x3ea9e7ed	0.33184758
189	0x3e017ed0	0.12646031
190	0x3da2a185	0.07940964
191	0xbe1c36a9	-0.15255226
192	0xbba05685	-0.0048931264
193	0xbc58c7f6	-0.013231268
194	0x3e854551	0.26029447
195	0x3e8269e2	0.25471407
196	0x3e74f8d2	0.23923042
197	0x3e17d125	0.14825876
198	0x3d73a03e	0.05947899
199	0xbbd29ab2	-0.0064271325
200	0x3e3d1b0e	0.18467352
201	0x3e38696e	0.18008968
202	0x3eec4377	0.46145222
203	0x3eca4e2a	0.3951276
204	0x3e42abc4	0.19010836
205	0x3ea92b1b	0.330407
206	0x3e8950a9	0.2681935
207	0x3e345c18	0.17613256
208	0x3ebba576	0.36649674
209	0x3d329aa8	0.043604523
210	0xbc56c7c9	-0.013109156
211	0xbdad108b	-0.08450421
212	0x3ebbd093	0.36682567
213	0x3e961107	0.29309866
214	0x3e8a868a	0.2705577
215	0xbe2eb6fb	-0.17061989
216	0xbda28ec2	-0.07937385
217	0x3d1de500	0.03854847
218	0x3e848ced	0.25888768
219	0x3bf98ae8	0.007615436
220	0x3d72f6ea	0.059317507
221	0x3b634ea5	0.0034684327
222	0x3da1652d	0.07880626
223	0x3d4758b3	0.048668575
224	0xbd9c2626	-0.07624464
225	0xbddd9c5f	-0.10820841
226	0x3e9530f6	0.29138917
227	0x3e6144a1	0.21998836
228	0x3db89b13	0.09013953
229	0x3eb457fa	0.3522337
230	0x3e5ebc92	0.21751621
231	0x3dcdd4b4	0.100503355
232	0x3dcd416e	0.10022245
233	0xbe0b1942	-0.13583854
234	0x3e0978ab	0.13424937
235	0x3e8345bd	0.25639144
236	0x3e4d28fe	0.20035169
237	0x3e6e3562	0.23262551
238	0x3e96fb21	0.2948847
239	0xbd0f79ea	-0.035028376
240	0x3e971c41	0.29513744
241	0x3d4a5cfd	0.049405087
242	0x3e7a6919	0.24454154
243	0x3d212a7b	0.039347153
244	0x3e91afd7	0.28454468
245	0x3e667c5c	0.22508377
246	0x3eabdcad	0.335668
247	0x3e44eb1d	0.19230314
248	0x3e6289fb	0.22122948
249	0x3ebf2baf	0.37338015
250	0x3db2ee45	0.087368526
251	0x3e73db8e	0.23814222
252	0x3e6e78fa	0.23288336
253	0x3ea3d7d8	0.32000613
254	0xbe6692f6	-0.22516999
255	0x3d2dd25e	0.04243695

action_model._continuous_distribution.log_sigma f4 [1, 4]
0	0x40a2b21e	5.084243
1	0x409eab6f	4.958427
2	0x410459ba	8.271906
3	0x40b6a4ce	5.7076178

action_model._continuous_distribution.mu.bias f4 [4]
0	0x3dfb3957	0.12266796
1	0xbe723060	-0.23651266
2	0xbe71b3ba	-0.23603716
3	0x400a5160	2.1612167

action_model._continuous_distribution.mu.weight f4 [4, 128]
0	0x40cd95b4	6.4245243
1	0x3fa658c5	1.299584
2	0x4038e261	2.888817
3	0xc081fdd8	-4.062237
4	0x3fc8cf7f	1.5688323
5	0x40125270	2.2862816
6	0xc01d45da	-2.4573884
7	0x40a2db2b	5.089254
8	0xc04e2539	-3.221022
9	0x40b1dcd4	5.5582066
10	0xbf8236ab	-1.0172933
11	0xc00213c0	-2.0324554
12	0xc037b238	-2.8702526
13	0xc0a6f23c	-5.2170696
14	0xc0bb3c13	-5.8510833
15	0x3f572a61	0.8404904
16	0xc011edd8	-2.2801418
17	0x403153bd	2.770736
18	0x403a9982	2.9156194
19	0x410230b7	8.136893
20	0xc0147a3b	-2.3199604
21	0xbf5480cb	-0.8300902
22	0x40ea8e9b	7.329908
23	0xbf8bbca1	-1.091694
24	0x4017404b	2.3632991
25	0x3da15bba	0.078788236
26	0x3eedb59c	0.4642762
27	0xc0a381f7	-5.109615
28	0xbf4f68d8	-0.81019354
29	0xc0384411	-2.8791544
30	0x3fd34879	1.6506492
31	0xbfffbc1b	-1.997928
32	0xbffabe49	-1.958932
33	0x3fe6d77d	1.8034512
34	0xbf268f69	-0.65062577
35	0x3fc0df29	1.5068103
36	0xc0d115b5	-6.5339
37	0x400722f6	2.1115088
38	0x3d8eac41	0.069664486
39	0x403acfe4	2.9189386
40	0x4029cdb3	2.65318
41	0xc0af346f	-5.4751506
42	0x3fb7a4af	1.4347132
43	0xc0a167e0	-5.04393
44	0x3e3b05ae	0.18263885
45	0xc0d97d1d	-6.7965226
46	0xbeaf4cea	-0.34238368
47	0x4004bb9c	2.0739508
48	0xbfa234fa	-1.2672417
49	0xc0ba255d	-5.817061
50	0xc0d3c73c	-6.6180706
51	0xbf89b6a1	-1.0758859
52	0x3fc0f0f5	1.5073534
53	0xc027933d	-2.6183617
54	0x404c4afb	3.1920764
55	0x40d9282c	6.786154
56	0xc0bdfaad	-5.93685
57	0xc0740c82	-3.8132634
58	0xc0733ded	-3.8006546
59	0x3e3184e0	0.17335844
60	0xc039599d	-2.8960946
61	0xc033e0b7	-2.8105905
62	0x408c23bc	4.379362
63	0x3e6440dd	0.22290368
64	0xc0af3fa6	-5.4765196
65	0xc024bbd9	-2.5739653
66	0x40c9f129	6.3106885
67	0xc0e8bbe4	-7.272936
68	0x4052f189	3.2959921
69	0x409188fa	4.547971
70	0xc0d7a425	-6.738787
71	0x4008f51b	2.13996
72	0x40ae4259	5.445599
73	0xc0b6a07f	-5.707092
74	0x4082c437	4.086452
75	0xc083083a	-4.094754
76	0x3dedc001	0.116088875
77	0x405f335a	3.4875093
78	0x3f50bdf5	0.8153985
79	0xbfefe549	-1.8741847
80	0x407963c5	3.8967144
81	0x3c29bbde	0.010359732
82	0xc07ec8d6	-3.981008
83	0xc0abb1d8	-5.3654594
84	0xc0ea3bf3	-7.319818
85	0x3fe4440e	1.7833269
86	0x3fd79319	1.6841766
87	0xbf11ed57	-0.57002777
88	0x3e2d5aab	0.16929118
89	0xbfbdfc5a	-1.4842637
90	0x405d5931	3.4585688
91	0x40d59c91	6.675362
92	0x3fa3b2f7	1.2788991
93	0x408522f8	4.1605186
94	0x40bfd7f6	5.9951124
95	0xbfb074de	-1.3785665
96	0xbfa2e0ea	-1.2724888
97	0xbf169407	-0.5881962
98	0xbfe30363	-1.7735409
99	0xc072843a	-3.7893205
100	0x4094525e	4.6350546
101	0x40ce6545	6.449862
102	0xbf440fb1	-0.76586443
103	0x3fa259e2	1.268368
104	0x40a40c02	5.126466
105	0x3fc4f062	1.5385859
106	0x40dc0058	6.875042
107	0xbfeda340	-1.8565445
108	0xc06056f8	-3.5053082
109	0xc03b4b9b	-2.9264896
110	0xbf5f5338	-0.87236357
111	0xbf702334	-0.93803716
112	0xbff87b1f	-1.9412574
113	0x3ffb1356	1.9615276
114	0x40e21fcc	7.0663815
115	0x3f4b6264	0.7944701
116	0xc0374876	-2.8637977
117	0x40aab3da	5.3344545
118	0xc0275c84	-2.6150217
119	0x3fa08fef	1.2543925
120	0xbf9d7476	-1.2301166
121	0xc0a82973	-5.2550597
122	0xbf70f3ec	-0.94122195
123	0xbfc11231	-1.5083677
124	0x401d4b9f	2.4577405
125	0xc0ea5894	-7.3233128
126	0xbfc8c2e1	-1.5684472
127	0x40249b44	2.5719767
128	0x3f310e0f	0.69162077
129	0xc0300436	-2.750257
130	0x40a44fe7	5.1347537
131	0x402df207	2.7178972
132	0xc0bd829e	-5.9221945
133	0x4016f361	2.3586047
134	0x404ad679	3.1693404
135	0xc0480370	-3.1252098
136	0x40899962	4.2999735
137	0x40497c77	3.1482217
138	0xc056f29a	-3.3585572
139	0x3ff02e24	1.8764081
140	0x4053cf74	3.309537
141	0x40178dc9	2.3680289
142	0xc016c619	-2.355841
143	0xc0816825	-4.043963
144	0xc04431f6	-3.0655494
145	0xc0d5c624	-6.680437
146	0x408b1339	4.3460965
147	0xbebf8207	-0.3740389
148	0x410335a2	8.200594
149	0xc0a2067e	-5.0632925
150	0xbf7c41de	-0.98538005
151	0x4081fe5f	4.062301
152	0xc09e8477	-4.95367
153	0xc0d11ab2	-6.5345087
154	0xc0c168e8	-6.044056
155	0xbe40ce20	-0.1882863
156	0xc0464b8d	-3.0983613
157	0xc035923d	-2.8370507
158	0xc044aac8	-3.0729237
159	0x3eb5eb06	0.3553087
160	0xc0a42070	-5.1289597
161	0xc0cd6403	-6.4184585
162	0xc0b457f5	-5.635737
163	0x40a09481	5.018128
164	0xbfbfa137	-1.4971074
165	0xbed98a7e	-0.42488474
166	0xc084d936	-4.151515
167	0xc081f519	-4.061169
168	0xbf4386c7	-0.7637753
169	0x4047a094	3.119176
170	0xbf97b39a	-1.1851685
171	0x404d61dc	3.2090979
172	0xc0b891d1	-5.7678
173	0x402437b3	2.5658996
174	0x406d5d61	3.7088244
175	0x40aa08c6	5.313571
176	0x3ff325d7	1.8995923
177	0x400be05d	2.185569
178	0xbf08bde8	-0.53414774
179	0x4000a00c	2.0097685
180	0xbf726ae0	-0.9469433
181	0xbfa64e36	-1.2992618
182	0x40ad3215	5.4123635
183	0xc06ac046	-3.6679854
184	0xc000adaa	-2.0105996
185	0x40ae058d	5.4381776
186	0x3f0272e5	0.50956565
187	0x4072bebf	3.7928922
188	0x3f94b03a	1.161628
189	0xbe69a152	-0.22815445
190	0xbfb76efe	-1.4330747
191	0xbfbf4456	-1.494273
192	0x3f847e4a	1.035104
193	0xc0909663	-4.5183578
194	0xc071d2b8	-3.7784863
195	0xbfb2c2e3	-1.3965725
196	0x4042b354	3.0421953
197	0x3f97bd8f	1.1854724
198	0x3ab0dc8b	0.0013493461
199	0x3ff95900	1.9480286
200	0x3fe34a36	1.7757022
201	0x3f4556e9	0.7708574
202	0x404246ca	3.0355706
203	0xc05fd62a	-3.4974465
204	0x4082d1ab	4.088094
205	0xc0a34390	-5.1019974
206	0xbf8c548f	-1.0963305
207	0x40bb6023	5.8554854
208	0xc017ad19	-2.36994
209	0x408b0638	4.344509
210	0x3f864630	1.049017
211	0xc0507ff1	-3.257809
212	0xc01bd994	-2.435155
213	0x402c92ae	2.6964526
214	0x407e134c	3.9699278
215	0x4008e133	2.138745
216	0xbfcb53a1	-1.5884897
217	0xc0358137	-2.8360116
218	0xbe43f4a0	-0.19136286
219	0x3f14817b	0.5801007
220	0x405c9e53	3.4471633
221	0x401b1551	2.423176
222	0x404d100b	3.2041042
223	0x40a501f9	5.156491
224	0x4085cee3	4.1815047
225	0xbfabb1fc	-1.3413692
226	0xbf0446e8	-0.51670694
227	0xc018fcec	-2.3904371
228	0x3f22da37	0.6361422
229	0x40654163	3.582116
230	0xc0aa0893	-5.3135467
231	0x4080d664	4.0261707
232	0x3fa6e730	1.3039303
233	0xc017c0fc	-2.3711538
234	0x3efb1006	0.49035662
235	0xc0412c70	-3.0183372
236	0x405e792b	3.4761455
237	0xc08b9c98	-4.3628654
238	0xbfbfa304	-1.4971623
239	0x40a4e419	5.152844
240	0xc0a5c399	-5.1801267
241	0xbe8aea7b	-0.2713202
242	0x3ffc2c0f	1.9700946
243	0xc0a29786	-5.0809965
244	0x4086f614	4.217539
245	0xbf988e58	-1.191844
246	0xbfb970f1	-1.4487592
247	0x409d5f37	4.917873
248	0x3fa69066	1.3012817
249	0x3f8b8ab8	1.0901709
250	0xbf358112	-0.7090007
251	0xc0f90b6b	-7.782644
252	0x40a14369	5.039479
253	0xc07b3b69	-3.925501
254	0xbeeb41d4	-0.4594866
255	0x4034861c	2.8206854

network_body._body_endoder.seq_layers.0.bias f4 [128]
0	0x3c60248c	0.013680588
1	0xbd8c96b5	-0.068646826
2	0x3ca2cbf0	0.019872636
3	0xbcf8de0f	-0.030379323
4	0xbd81f648	-0.063458025
5	0xbd220439	-0.03955481
6	0x3d6b9d23	0.057522904
7	0xbe168f78	-0.14703166
8	0xbcaa1cac	-0.020765625
9	0x3cb13c9b	0.021635344
10	0xbc97bc5d	-0.018522436
11	0x3d033b32	0.032038875
12	0xbd96c4aa	-0.073617294
13	0x3dea0fbf	0.114287846
14	0xbd21f838	-0.03954336
15	0x3d134f24	0.035964146
16	0xba11a614	-0.00055560586
17	0xbd567ede	-0.052367084
18	0xbe1ae3f6	-0.15126023
19	0x3d58d658	0.05293879
20	0xbc1afe62	-0.009460064
21	0xbc85a091	-0.016311916
22	0x3d19c31f	0.037539598
23	0x3d6c1791	0.057639662
24	0xbd47feec	-0.048827097
25	0xba90d84a	-0.0011050787
26	0x3c3e93fa	0.01163196
27	0xbca9128f	-0.020638732
28	0xbb990b2d	-0.0046705217
29	0xbd044b4c	-0.03229837
30	0xbc97e288	-0.018540636
31	0x3d17ddc4	0.037076727
32	0x3d102d08	0.035199195
33	0x3d1af0cb	0.037827294
34	0xbe0f78c2	-0.14010909
35	0x3cc8b225	0.024499008
36	0xbc43add6	-0.011943301
37	0xbc520c44	-0.012820307
38	0x3cc1c68c	0.023654245
39	0xbd05a466	-0.032627486
40	0x3c88e185	0.016709099
41	0xbd5f639b	-0.05453835
42	0xbd127110	-0.035752356
43	0x3ce832d5	0.028344551
44	0xbda9b307	-0.082861
45	0x3cece3b2	0.028917167
46	0xbd636b54	-0.055522278
47	0xbdc18bb4	-0.094504744
48	0x3d3da5e1	0.046300773
49	0x3c84535a	0.016153026
50	0xbd2b8610	-0.0418759
51	0x3d83c90a	0.064348295
52	0xbdc048b9	-0.09388871
53	0xbda0310c	-0.07821855
54	0xbd305f9a	-0.043059923
55	0xbd1cb7a9	-0.03826109
56	0x3cd38273	0.025819039
57	0xbd51d0e3	-0.0512246
58	0xbc46dfc6	-0.012138313
59	0x3c570d4e	0.013125731
60	0xbd273cbe	-0.040829413
61	0x3d4af8f4	0.049553826
62	0xbba3dbfd	-0.00500059
63	0x3e5bd59e	0.21468207
64	0xbe0809be	-0.13284966
65	0xbce4419e	-0.02786332
66	0xbd3d626f	-0.04623645
67	0xbc9d1666	-0.01917572
68	0xbd658a7b	-0.05604027
69	0xbb5ce551	-0.003370602
70	0x3e104de9	0.1409222
71	0xbcc61926	-0.024181914
72	0x3d377502	0.04478932
73	0x3daa2407	0.08307653
74	0xbca8a3cb	-0.020585915
75	0xbdb9badb	-0.09068843
76	0xbd416b1b	-0.047221284
77	0x3dc4ea45	0.09614996
78	0x3c51a051	0.01279457
79	0x3d9178d5	0.07103125
80	0xbcb669a8	-0.022267178
81	0xbc2b4597	-0.010453603
82	0x3d51874f	0.05115443
83	0x3deeb4ac	0.11655554
84	0xbddfe781	-0.10932828
85	0x3d2dd264	0.042436972
86	0xb91f77c2	-0.00015208035
87	0xbd812eb7	-0.06307738
88	0x3d6a8caf	0.057263073
89	0x3d007f08	0.031371146
90	0x3d889c18	0.066703975
91	0x3959e4c4	0.00020779955
92	0x3c4be78e	0.012445344
93	0x3c0b3cf8	0.008498423
94	0x3d1492b8	0.036272734
95	0x3cf180fc	0.02948045
96	0xbc9e5e61	-0.019332113
97	0x3c9f2044	0.019424565
98	0xbe0b6d95	-0.13616021
99	0x3db24523	0.08704593
100	0x3d12c96e	0.03583663
101	0xbddcce1e	-0.10781501
102	0x3cee8007	0.029113783
103	0x3de65226	0.11246137
104	0xbdb5a228	-0.088688195
105	0x3cf6bc37	0.030119045
106	0x3c53501d	0.012897518
107	0x3d2805f1	0.04102129
108	0x3d02d80e	0.031944327
109	0x3c938a72	0.018010352
110	0xbd856679	-0.06513686
111	0xbda3a03c	-0.07989547
112	0xbd45bf08	-0.048277885
113	0x3d32af4a	0.0436242
114	0x3d97ebb9	0.074180074
115	0xbc5b51e3	-0.0133862225
116	0xbcb38529	-0.021914082
117	0xbc878b56	-0.016545933
118	0x3cd8d190	0.026467115
119	0x3c1b94d9	0.009495937
120	0xbe0ef65d	-0.13961168
121	0x3be9bcc7	0.0071330997
122	0x3dd87829	0.10569794
123	0x3aa09f49	0.0012254502
124	0xbd0642da	-0.0327786
125	0x3db66ed0	0.089078546
126	0x3dba13b8	0.09085792
127	0xbd127628	-0.035757214

network_body._body_endoder.seq_layers.0.weight f4 [128, 116]
0	0xbc7914fc	-0.015202757
1	0x3dc499c7	0.09599643
2	0x3dacd3b5	0.084388174
3	0xbe7f2edc	-0.24920219
4	0xbde03db1	-0.10949267
5	0xbda03058	-0.07821721
6	0xbdc6fd05	-0.097162284
7	0xbd3e6897	-0.046486463
8	0xbe5948d9	-0.21219195
9	0x3e253db3	0.16136818
10	0xbe3da3b5	-0.1851948
11	0xbcfbed86	-0.030752908
12	0xbddea181	-0.10870648
13	0xbebf9000	-0.3741455
14	0x3e0b8134	0.13623506
15	0x3e959698	0.29216456
16	0x3e4539b3	0.19260292
17	0x3dda820a	0.10669334
18	0x3ed20d51	0.41025785
19	0x3e822092	0.25415474
20	0x3d9b0225	0.075687684
21	0x3dbbcbd8	0.091697395
22	0x3d5ab188	0.053391963
23	0xbe71aee9	-0.23601879
24	0x3e19fad1	0.15037085
25	0x3d395b1d	0.045252908
26	0xbe002f20	-0.12517977
27	0x3d10dea9	0.035368595
28	0x3eb41401	0.35171512
29	0xbdaa1f46	-0.08306746
30	0x3e08ac1d	0.13346906
31	0x3e812cf9	0.25229624
32	0xbe2e8bc1	-0.170455
33	0x3db84de9	0.08999235
34	0x3d617d5b	0.05505119
35	0xbd85518f	-0.06509697
36	0x3e97c94f	0.29645774
37	0x3d418783	0.047248375
38	0x3e285b33	0.1644104
39	0xbdcad46f	-0.099038
40	0x3e06217d	0.13098712
41	0x3cbf0a4b	0.023320338
42	0xbdd0f883	-0.1020365
43	0x3d2b37ca	0.04180125
44	0xbb08d475	-0.0020878587
45	0x3d4b25d7	0.049596634
46	0xbe73528f	-0.23761962
47	0xbd15a8f8	-0.036538094
48	0xbd7cdad5	-0.061732132
49	0xbc6e7a10	-0.014555469
50	0x3c46d88c	0.01213659
51	0x3d9751dd	0.07388661
52	0x3e3ac463	0.18238978
53	0x3cd19f26	0.025588583
54	0xbe96356a	-0.29337627
55	0xbd36304e	-0.04447966
56	0x3da3d9b8	0.08000511
57	0x3b424dea	0.0029648491
58	0xbdf2ff53	-0.118651055
59	0xbea41acf	-0.32051703
60	0x3ce633fb	0.028100958
61	0xbd8f6771	-0.07002152
62	0x3dd15a9c	0.102223605
63	0xbe091f3e	-0.13390824
64	0xbe9f062d	-0.310594
65	0xbe87708f	-0.26453063
66	0x3dc75284	0.097325355
67	0xbc0d0321	-0.008606703
68	0x3d61a7f2	0.055091806
69	0x3e321eb7	0.1739453
70	0x3dd750d1	0.105134614
71	0x3e9cfb4a	0.30660468
72	0xbd3c9de5	-0.046049017
73	0x3ec172c0	0.3778286
74	0x3ee7b04d	0.45251694
75	0xbea8bdcf	-0.32957312
76	0xbe4741e0	-0.19458723
77	0x3d9f123b	0.07767149
78	0xbe14a953	-0.14517717
79	0x3e2f470c	0.17116946
80	0xbdb8fe26	-0.0903285
81	0x3e65a519	0.22426261
82	0x3e8598dd	0.26093188
83	0x3dfeedf1	0.124477275
84	0x3e6082ff	0.21924971
85	0xbe9f6135	-0.3112885
86	0xbdcce160	-0.10003924
87	0x3e935a8d	0.28780022
88	0x3c7a602d	0.015281719
89	0xbd1c9803	-0.038230907
90	0xbeaca70d	-0.337212
91	0x3df4df33	0.11956634
92	0x3fc78292	1.5586722
93	0x3fca4b32	1.5804198
94	0x3df13e31	0.1177944
95	0x3f000901	0.5001374
96	0xbdf4a8a2	-0.11946227
97	0x3e5bfaf3	0.21482448
98	0xbda06df4	-0.07833472
99	0xbda1e746	-0.0790544
100	0x3d28d28e	0.041216426
101	0x3e95fc91	0.29294255
102	0xbed3290d	-0.41242257
103	0x3da06b4c	0.07832965
104	0x3d67e284	0.056612507
105	0xbc85521e	-0.016274508
106	0xbf49c808	-0.7882085
107	0x3d841c0a	0.064506605
108	0x3f0df497	0.5545134
109	0xbe047449	-0.12934984
110	0xbe802b47	-0.25033018
111	0xbeab3c81	-0.33444598
112	0xbcdb725d	-0.026787931
113	0xbe315442	-0.17317298
114	0x3c0ad28d	0.008473051
115	0xbdbac20d	-0.091190435
116	0x3d057c7d	0.032589424
117	0x3c2bf80b	0.01049615
118	0xbee8c76c	-0.45464647
119	0x3dac5837	0.08415263
120	0xbf130713	-0.5743267
121	0x3dbbe9f0	0.091754794
122	0xbcd2026a	-0.025635917
123	0xbe1ca138	-0.15295875
124	0x3dd65664	0.104656965
125	0xbd38ca91	-0.045115057
126	0x3e06637d	0.1312389
127	0xbe7b9c75	-0.24571402
128	0xbe7bc3fc	-0.24586481
129	0x3e82c3a8	0.255399
130	0xbdabb501	-0.08384133
131	0x3ed94959	0.42438772
132	0x3d0b6c60	0.0340389
133	0xbe0c3b9c	-0.13694614
134	0xbe1c6230	-0.1527183
135	0xbe9d1bfd	-0.30685416
136	0x3e1ef3b1	0.15522648
137	0x3e9066f3	0.28203544
138	0xbf739aa4	-0.9515784
139	0x3f00b2f3	0.50273055
140	0x3e4e3dae	0.20140716
141	0xbcb58f14	-0.022162952
142	0x3d9d8a87	0.076924376
143	0x3cc794db	0.024362972
144	0x3e201390	0.15632463
145	0xbe6d90a7	-0.23199712
146	0xbda96a8d	-0.08272276
147	0x3e55a661	0.2086425
148	0xbec14ef1	-0.3775554
149	0x3dc45a5c	0.09587547
150	0x3da509cc	0.08058509
151	0x3deeb176	0.11654942
152	0x3e0c4ee4	0.1370197
153	0x3da454c0	0.08023977
154	0xbf4e8087	-0.8066487
155	0xbe68f36e	-0.22749111
156	0xbd746d21	-0.059674386
157	0x3e49e608	0.19716656
158	0xbce40512	-0.027834449
159	0x3c591aac	0.013250988
160	0x3e8e31f7	0.27772495
161	0xbee693a1	-0.45034507
162	0x3e85188d	0.25995293
163	0x3eb7a02b	0.35864386
164	0xbef02db6	-0.46909875
165	0xbd2b43b3	-0.04181261
166	0x3e764802	0.24050906
167	0x3e777095	0.2416404
168	0xbe820694	-0.25395644
169	0x3e657ff2	0.22412089
170	0x3d32b9a6	0.04363408
171	0x3e161328	0.14655745
172	0x3f0ec369	0.5576692
173	0xbdc97820	-0.09837365
174	0x3e265c5a	0.16246167
175	0xbce780c2	-0.028259639
176	0x3dd2cf89	0.102934904
177	0x3ea266d8	0.3171909
178	0xbe460beb	-0.19340484
179	0x3eb288c1	0.3486996
180	0xbd89f509	-0.0673619
181	0x3e17cc0a	0.14823928
182	0xbeba1ef3	-0.36351737
183	0xbc64c71a	-0.013963485
184	0xbf4d7695	-0.80259067
185	0xbe175e2c	-0.14782017
186	0x3e6e2b82	0.23258784
187	0xbd9e4f71	-0.07729996
188	0xbdce6cb7	-0.100793295
189	0xbec57bd5	-0.3857104
190	0xbed258fb	-0.41083512
191	0x3e4c45dc	0.19948524
192	0xbde83a54	-0.1133925
193	0x3c31bc31	0.010848091
194	0xbe48e4a8	-0.19618475
195	0x3e8f5e55	0.28001657
196	0x3de9b66d	0.11411748
197	0xbe839067	-0.25696108
198	0xbd6f8115	-0.05847271
199	0xbf8c4d75	-1.0961138
200	0xbf1b77cd	-0.60729676
201	0xbd80f667	-0.062969975
202	0x3ea48311	0.32131246
203	0xbe0548e5	-0.13016088
204	0x3d0b3719	0.033988092
205	0x3e89b71c	0.26897514
206	0xbd95b943	-0.073107265
207	0xbf03998b	-0.5140616
208	0x3b85db2a	0.0040849643
209	0xbceae8ff	-0.028675554
210	0xbd26222b	-0.04055993
211	0x3e0b9eee	0.13634846
212	0x3d77301d	0.06034862
213	0xbec31489	-0.38101605
214	0xbeb1e900	-0.34748077
215	0x3d31ef4c	0.043441102
216	0xbe99e594	-0.30057967
217	0xbf3f4219	-0.7471023
218	0xbdc710c8	-0.09719998
219	0xbf1b4128	-0.60646296
220	0x3d8e82cc	0.06958541
221	0xbe42cd79	-0.19023694
222	0x3e896825	0.26837268
223	0xbd97fa95	-0.074208416
224	0x3cbd9ac3	0.023145085
225	0x3d0d8269	0.034548197
226	0x3c855fa5	0.016280958
227	0x3e92941c	0.28628623
228	0xbec888b1	-0.39166787
229	0xbd270680	-0.040777683
230	0x3bae6075	0.005321557
231	0x3f0f35c7	0.5594143
232	0xbed246fc	-0.41069782
233	0xbd1dc17f	-0.03851461
234	0xbe439857	-0.19101082
235	0x3e43cca3	0.19121031
236	0xbc1da35c	-0.009621467
237	0x3ee699de	0.45039266
238	0x3cac3fcb	0.021026513
239	0x3ef1e16a	0.4724229
240	0xbea88999	-0.3291748
241	0xbdcbdcc0	-0.09954214
242	0xbc22d0c7	-0.009937472
243	0x3ea2bd2e	0.31784958
244	0x3de21586	0.110392615
245	0x3e0e7c92	0.13914707
246	0xbdc8cb30	-0.0980438
247	0x3dad1305	0.08450893
248	0xbea8036e	-0.32815117
249	0x3d6ac8af	0.057320293
250	0x3e14e9ed	0.1454236
251	0xbe9a4da8	-0.30137372
252	0x3e8634e1	0.26212218
253	0x3dd14a5e	0.102192625
254	0xbf12e8af	-0.57386297
255	0x3f09510d	0.536393

network_body._body_endoder.seq_layers.2.bias f4 [128]
0	0x3d22013b	0.039551955
1	0xbdad7f4f	-0.08471548
2	0x3e09b37c	0.13447374
3	0xbc87ecad	-0.016592348
4	0xbe115d93	-0.14195852
5	0xbd9ca5ec	-0.076488346
6	0xbe130021	-0.14355518
7	0xbde5bcbb	-0.11217638
8	0xbe578b5a	-0.21049252
9	0xbd757046	-0.059921525
10	0x3d01924b	0.031633656
11	0xbc0ecc89	-0.008715757
12	0xbe1cdc18	-0.15318334
13	0xbdf5d602	-0.120037094
14	0x3d86ddfc	0.06585309
15	0xbd1df7f9	-0.038566563
16	0x3d79c54a	0.060979165
17	0xbd4f9235	-0.050676543
18	0x3d250b8d	0.04029422
19	0x3daf2449	0.08551843
20	0x3bd79740	0.0065793097
21	0xbceee937	-0.02916394
22	0x3d2284e7	0.039677527
23	0x3e10db6f	0.14146207
24	0xbd8e1930	-0.06938398
25	0x3d8d3547	0.068949275
26	0xbc94723b	-0.018120876
27	0xbcf480c5	-0.029846558
28	0xbcf2a21f	-0.029618321
29	0xbca5d5fa	-0.020243634
30	0xbe1223ae	-0.14271423
31	0xbd15edfd	-0.036603916
32	0xbe6a5f93	-0.22888021
33	0xbe9e7b92	-0.30953652
34	0xbde39371	-0.111121066
35	0x3df31f69	0.118712254
36	0xbdce3814	-0.1006929
37	0xbdc1e958	-0.09468335
38	0x3c7e9607	0.015538699
39	0xbc575fd8	-0.0131454095
40	0xbe5557f9	-0.2083434
41	0xbdd9c246	-0.10632758
42	0x3d9cc06e	0.076538906
43	0x3cfa294f	0.030537276
44	0xbe437c8c	-0.1909048
45	0xbce20cad	-0.027593935
46	0xbd709c9f	-0.058743116
47	0xbd07a948	-0.033120424
48	0x3c4567d5	0.012048681
49	0xbda5bad4	-0.08092275
50	0x3c8dd755	0.017314592
51	0x3d8b0940	0.06788874
52	0xbe45403e	-0.19262788
53	0xbd0ad2ba	-0.03389237
54	0xbd1604a9	-0.036625538
55	0xbe7e6033	-0.24841385
56	0xbec1b914	-0.37836516
57	0xbd8813e1	-0.066444166
58	0xbbbd2813	-0.0057725995
59	0x3d4a77fe	0.04943084
60	0xbda368c8	-0.0797897
61	0xbdd656a7	-0.104657464
62	0xbe0a8524	-0.13527352
63	0x3cd63790	0.026149541
64	0xbd7649f0	-0.060129106
65	0xbcd17a8f	-0.025571136
66	0x3de6b0e4	0.11264208
67	0xbc649000	-0.013950348
68	0x3c6de08a	0.014518866
69	0xbe3c2c99	-0.18376388
70	0xbd20ca9f	-0.039255735
71	0xbe018d5b	-0.12651579
72	0xbd1b8ba7	-0.03797498
73	0xbe1c1a56	-0.15244421
74	0xbd925a1d	-0.07146094
75	0xbd88554d	-0.06656895
76	0x3d709e8f	0.058744963
77	0xbc161beb	-0.00916193
78	0x3b956e9e	0.0045603057
79	0xbe1956eb	-0.14974563
80	0xbd5649de	-0.05231654
81	0x3b6fab59	0.0036570637
82	0x3d8e426a	0.06946261
83	0xbc84a4ff	-0.016191958
84	0x3dcabc8f	0.09899246
85	0x3cc2d889	0.023784893
86	0xbd2e3f9e	-0.04254114
87	0x3d10e1cc	0.035371587
88	0x3d9f661a	0.07783146
89	0xbe6838a3	-0.22677855
90	0xbd91ab25	-0.07112721
91	0xbd813a00	-0.06309891
92	0xbd1eeb74	-0.038798764
93	0xbdb98fa6	-0.09060602
94	0x3ccc334c	0.024926804
95	0xbbe03671	-0.0068424274
96	0xbd3ce19a	-0.046113588
97	0x3d31041b	0.043216806
98	0x3d18bae5	0.03728761
99	0x3c0085cd	0.007844401
100	0xbe09b95a	-0.13449612
101	0xbe5ce984	-0.21573454
102	0x3d7a01e9	0.061036978
103	0xbde722f6	-0.11285965
104	0xbdba5f0c	-0.0910016
105	0xbd4d821a	-0.050172903
106	0x3d2a28fd	0.041542996
107	0xbb234743	-0.0024914301
108	0xbd629d8c	-0.05532603
109	0xbcbaf34d	-0.022821093
110	0x3d7d4aa6	0.06183877
111	0x3ca980a2	0.02069122
112	0xbd66eb63	-0.056376826
113	0xbc1fb35f	-0.009747355
114	0x3d44204c	0.047882363
115	0xbd390a76	-0.045175992
116	0xbe770439	-0.24122705
117	0xbda5137e	-0.080603585
118	0x3dac6fcc	0.08419761
119	0x3c366abe	0.011133848
120	0xbd3113ea	-0.043231882
121	0xbdc80f33	-0.09768524
122	0xbc1836c5	-0.009290402
123	0x3da20688	0.07911402
124	0xbd0e7cf1	-0.034787122
125	0xbc16cba8	-0.009203829
126	0xbd9aceb0	-0.07558954
127	0xbe1983e4	-0.14991719

network_body._body_endoder.seq_layers.2.weight f4 [128, 128]
0	0x3db92d15	0.09041802
1	0xbdbc0af4	-0.09181777
2	0x3e329eb9	0.1744336
3	0x3e02ea5c	0.12784714
4	0x3e8f7040	0.28015327
5	0xbdcd54fc	-0.10025975
6	0x3e608ac5	0.21927936
7	0x3d58224b	0.05276708
8	0x3c86b733	0.016444778
9	0x3ea92578	0.330364
10	0x3db8fa62	0.09032132
11	0xbe8a7e93	-0.27049693
12	0xbdd2c8ea	-0.102922276
13	0x3e22791e	0.15866515
14	0xbe86c112	-0.26319176
15	0x3b56ce99	0.003277695
16	0xbf4025b9	-0.7505756
17	0x3e948b85	0.29012695
18	0x3e04ffc4	0.12988192
19	0x3e671317	0.22565876
20	0x3c54b87d	0.012983439
21	0x3e2b3dbc	0.16722769
22	0x3e51ff0d	0.2050745
23	0x3d115a5f	0.035486575
24	0xbde661ad	-0.11249099
25	0xbd232085	-0.039825935
26	0x3c2331b0	0.009960577
27	0x3c207d52	0.009795504
28	0x3cdcecb0	0.02696833
29	0xbebab6f0	-0.36467695
30	0xbe8dbee3	-0.27684698
31	0x3eb65f5b	0.35619625
32	0xbda2e5a2	-0.07953955
33	0xbdf3b403	-0.11899569
34	0x3d33d960	0.043908477
35	0xbeca6225	-0.39528003
36	0xbd98e654	-0.074658066
37	0x3dfba483	0.122872375
38	0xbe6d51aa	-0.23175684
39	0x3e906b5d	0.28206912
40	0x3ee09af5	0.43868223
41	0xbc001fba	-0.007820064
42	0xbe990881	-0.298893
43	0x3e0aab24	0.13541847
44	0xbdf15b74	-0.117850214
45	0xbd5d221c	-0.053987607
46	0x3e369fee	0.17834446
47	0xbe47416b	-0.19458549
48	0xbeae180f	-0.3400273
49	0x3ddbdda4	0.10735634
50	0x3d7f1a1a	0.06228075
51	0x3cdf33fc	0.027246468
52	0x3c68a12b	0.014198582
53	0xbeaa7533	-0.3329254
54	0x3e921da1	0.2853823
55	0x3e656621	0.2240224
56	0xbe7af601	-0.24507906
57	0xbe24e615	-0.16103394
58	0x3ec22701	0.37920383
59	0xbf2016e1	-0.6253491
60	0xbec524c5	-0.38504615
61	0x3d85d5a8	0.06534892
62	0x3e1e88a0	0.15481806
63	0x3da0adb2	0.0784563
64	0x3d2d889d	0.042366613
65	0xbd6a57c3	-0.057212602
66	0xbeeb06f4	-0.45903742
67	0xbd9507da	-0.07276888
68	0xbe95c5c9	-0.2925246
69	0x3ec8f0a7	0.39246103
70	0xbd1c310c	-0.038132712
71	0xbe3a5833	-0.18197708
72	0x3e59877d	0.21243091
73	0xbcce0e1a	-0.025153209
74	0x3e114f48	0.141904
75	0x3e27bbf2	0.16380289
76	0x3d7da2c1	0.061922792
77	0xbe30a66f	-0.1725099
78	0xbd623b69	-0.05523244
79	0x3e3b8289	0.18311514
80	0x3e10e6d0	0.14150548
81	0xbe3ea726	-0.1861845
82	0xbf279a2d	-0.6546963
83	0x3dcbb22b	0.09946092
84	0xbd0c3b47	-0.03423622
85	0x3db67e15	0.08910767
86	0x3e4c9ed7	0.19982468
87	0xbe1b6480	-0.15175056
88	0xbc9d2383	-0.019181972
89	0xbe06429f	-0.13111351
90	0x3e5a2383	0.21302609
91	0x3c97c348	0.018525735
92	0xbdffe386	-0.124945685
93	0x3e27e31e	0.16395232
94	0x3d750649	0.059820447
95	0x3c9e2463	0.01930446
96	0xbee36141	-0.44410136
97	0x3e1a8eaf	0.15093492
98	0x3dbc01fe	0.091800675
99	0x3cb8baa8	0.022549942
100	0xbddb0349	-0.10693986
101	0xbdf1d4fe	-0.11808203
102	0xbde09e7b	-0.10967728
103	0x3e57e138	0.21082008
104	0xba1edcb5	-0.00060601096
105	0x3d708723	0.058722626
106	0x3e934652	0.28764588
107	0xbed49bdc	-0.4152516
108	0xbeb7f186	-0.35926455
109	0x3ed13b36	0.40865487
110	0xbecc480c	-0.39898717
111	0x3cfc094a	0.030766148
112	0xbf0f28cb	-0.5592162
113	0xbebb7daf	-0.36619326
114	0x3eb6e102	0.35718542
115	0x3e013415	0.12617524
116	0x3e1b1b48	0.15147126
117	0x3d006c43	0.031353246
118	0xbeace670	-0.3376956
119	0xbe151cfc	-0.14561838
120	0xbd61f8de	-0.05516898
121	0x3e89dada	0.26924783
122	0xbeef8afd	-0.46785727
123	0x3b154083	0.0022774048
124	0x3ee04201	0.43800357
125	0x3aeb9b55	0.001797537
126	0x3e4886e4	0.19582707
127	0xbebfe3c1	-0.3747845
128	0xbe9a6c50	-0.3016076
129	0x3e76142d	0.24031134
130	0xbeb7f936	-0.3593232
131	0xbe95955e	-0.2921552
132	0x3dc658e1	0.09684921
133	0xbecf4ae0	-0.40486813
134	0x3e0b0d38	0.13579261
135	0x3e14df1c	0.14538234
136	0x3d0309d4	0.031991795
137	0x3e77913d	0.24176498
138	0xbe3c7106	-0.1840249
139	0xbd7975c7	-0.060903337
140	0x3c6edc81	0.014578939
141	0xbe6c8cee	-0.23100635
142	0x3dc096ad	0.09403739
143	0xbee2314b	-0.44178233
144	0x3e2da856	0.16958746
145	0xbe77e647	-0.24208938
146	0x3d3b018d	0.045655776
147	0x3d7ccfa1	0.061721448
148	0x3e63f445	0.2226115
149	0xbf3285fe	-0.69735706
150	0xbe6b3319	-0.22968711
151	0x3ec968fe	0.39337915
152	0xbca0cfd7	-0.019630356
153	0xbd9739c5	-0.073840655
154	0x3c3a95d9	0.0113882655
155	0x3ebebd26	0.37253684
156	0x3c940f6a	0.018073756
157	0x3e5d38c4	0.21603686
158	0x3e443691	0.1916144
159	0x3e8bbffe	0.27294916
160	0xbf0e5b1c	-0.5560777
161	0xbf107b31	-0.56437975
162	0xbda5893d	-0.08082817
163	0x3ecc2cdd	0.39877978
164	0x3e235756	0.15951285
165	0xbdcd3347	-0.10019546
166	0x3deccf34	0.11562958
167	0xbe4f0865	-0.20218046
168	0xbce31770	-0.027721137
169	0x3e1397bb	0.1441335
170	0xbe48f8d8	-0.19626176
171	0x3e28acb4	0.16472131
172	0xbf0fbcf9	-0.56147724
173	0xbe864201	-0.26222232
174	0x3eaaa30c	0.3332752
175	0x3eb4fed6	0.35350674
176	0x3eccec4e	0.40024036
177	0xbea5adc6	-0.3235914
178	0xbedff1bc	-0.43739116
179	0xbed7cb98	-0.42147517
180	0xbc689406	-0.014195448
181	0x3e2d0f7c	0.16900438
182	0xbe8fc7d4	-0.28082144
183	0xbdde5224	-0.10855511
184	0x3e9899e3	0.29804906
185	0xbe597bfc	-0.21238703
186	0xbe0ef5bb	-0.13960926
187	0x3f00e5ac	0.5035045
188	0x3d9604b1	0.073251136
189	0xbd5cb7fa	-0.05388639
190	0x3e896523	0.26834974
191	0xbe809cad	-0.25119534
192	0xbea978fc	-0.33100116
193	0x3f1ee32b	0.6206538
194	0x3e60dbf7	0.2195891
195	0x3e12d6f4	0.1433981
196	0x3eb843dd	0.35989276
197	0x3e025cf2	0.12730768
198	0xbf0e1c34	-0.55511785
199	0xbcaf7083	-0.021415954
200	0xbe4c5d6a	-0.1995751
201	0xbee94c83	-0.45566186
202	0x3e95095b	0.291087
203	0xbdc07f42	-0.093992725
204	0xbee12af0	-0.4397807
205	0xbe517e35	-0.204583
206	0xbea9f7b4	-0.33196795
207	0xbea20725	-0.31646076
208	0xbede3c12	-0.43405205
209	0x3ede1fbc	0.43383586
210	0x3ed18dd0	0.40928507
211	0x3eed7c63	0.46383962
212	0x3e06ff1c	0.13183254
213	0xbdf70dce	-0.1206318
214	0x3d09a8d7	0.033608284
215	0x3e85769d	0.26067057
216	0x3de914a5	0.11380891
217	0xbe386e93	-0.1801093
218	0xbec5976d	-0.3859209
219	0x3cffb06b	0.031212052
220	0x3dc36e07	0.095424704
221	0x3da41fb9	0.08013863
222	0xbe40551e	-0.1878247
223	0xbdd6c46e	-0.10486685
224	0xbdfbfcb2	-0.12304057
225	0xbebfef09	-0.37487057
226	0xbccb690e	-0.024830367
227	0xbe9be729	-0.304498
228	0x3b83a1e3	0.004017101
229	0x3efb2f81	0.4905968
230	0x3dc20eb3	0.0947546
231	0xbd39986f	-0.045311388
232	0xbea9edc8	-0.33189225
233	0xbef14947	-0.4712622
234	0xbd30985d	-0.043114055
235	0x3f004c51	0.5011645
236	0x3ea549c4	0.3228284
237	0xbdebcf36	-0.11514132
238	0x3b7fdf40	0.003904298
239	0x3ea45a2a	0.3210004
240	0xbe92af48	-0.28649354
241	0x3d928056	0.071533844
242	0x3dd28658	0.1027953
243	0xbf0c7ab6	-0.5487474
244	0x3d5666ba	0.05234406
245	0xbe5bf605	-0.21480568
246	0x3d99ec20	0.075157404
247	0x3e020810	0.12698388
248	0x3e573d3f	0.21019457
249	0x3c26e891	0.010187284
250	0x3db13ad3	0.08653798
251	0x3e25f746	0.16207609
252	0xbdfce16d	-0.12347684
253	0xbe13633e	-0.14393327
254	0x3e1bf9c2	0.15231994
255	0xbd672683	-0.056433212
