results/DroneAgentTrackNew/DroneAgent/DroneAgent-2199947.onnx (onnx, 659442 bytes, 10 tensors)

100 f4 [1, 512, 128]
0.09702238 0.0447765 0.15544729 0.09703992 -0.09897663 0.06539188 0.022983149 0.18832277
0.10487545 0.03528745 0.07121192 -0.07613155 0.07291762 0.16169703 -0.097530626 -0.0016779843
-0.0294226 0.06395668 0.038452063 -0.09545749 -0.06744702 0.052855726 0.06342776 0.09893441
0.18046097 -0.010013524 0.08939804 0.03305509 0.1285204 0.18502373 0.14584991 0.08235431
0.13080858 -0.03296155 0.11321019 0.03799431 -0.10647846 0.12430695 0.13080959 -0.01336721
-0.12673968 0.07173973 -0.06379971 0.14550018 0.011091618 0.049533725 0.14027803 -0.12814194
-0.033443827 -0.07668583 -0.007831097 0.07309198 -0.033393793 0.17517841 0.06797988 0.0913893
0.07385566 0.017506693 0.050842796 -0.06464553 0.0625563 0.006009058 0.028201174 0.066659234
0.058399033 0.0021957778 -0.07225476 0.06140521 -0.06575735 0.036498707 -0.12223025 -0.09311516
-0.00071173295 0.16993709 0.14785297 0.064982936 -0.0031296876 -0.11373199 0.11846359 -0.08874959
-0.03502194 -0.0088655 -0.0012171721 -0.005521496 -0.086679935 -0.12469148 0.14737687 -0.033846047
0.12969011 -0.03147136 0.12941104 0.1191427 0.009354812 0.053983107 0.19129305 0.08362536
-0.10090036 -0.16092867 -0.013531369 -0.005844598 -0.035833087 0.052640546 -0.09874606 -0.03161938
0.16978662 0.03446496 0.15507354 0.07751584 -0.06677763 0.015490236 0.014435859 0.024640726
0.11164483 0.12305094 -0.05501658 0.024366438 -0.07340358 0.10902949 -0.03816909 0.06129701
-0.097990565 0.0287914 0.035534713 0.040693108 -0.093629785 0.0013070663 0.12414846 -0.08220249
0.16494499 0.1766722 0.13133669 -0.03693124 0.00076498766 -0.035998847 0.037408404 0.1527004
-0.036109883 0.004102161 0.14018726 -0.100369416 0.13667458 0.13049985 0.18213487 0.09985327
0.16098735 0.029561652 0.10424022 0.1764248 -0.0044775507 0.1310115 0.1175942 0.07629641
-0.024384731 -0.05627627 0.07920208 -0.0034420094 0.17752028 0.09106143 0.118961655 -0.047485042
0.11143802 -0.015812334 -0.04529936 0.017416494 -0.0068126856 -0.09811285 -0.15216528 0.07501651
0.03862871 -0.10095598 0.011305497 0.050839312 0.034586124 0.19895777 0.17561118 0.0921499
0.009390927 0.037399147 0.022494225 -0.081793964 -0.09047792 0.058981232 0.09344684 -0.025696564
0.16367687 -0.09959727 0.11774408 0.16720079 -0.07938536 -0.0129622305 -0.1335846 0.14635336
-0.052902773 0.0070710755 0.08702166 0.16256869 0.016639268 -0.09810004 -0.0069434606 0.06366255
-0.034576252 0.13361889 -0.105095625 0.038431514 -0.04163244 -0.107434385 0.02818384 -0.027397677
0.16228226 0.018120017 0.026756566 -0.13383767 0.06324084 0.17835803 -0.01436454 -0.08466668
0.14880186 -0.036569502 0.16772754 0.08948852 0.11369456 -0.08153401 -0.009584889 0.11376206
0.100464925 -0.12966046 0.032415595 0.16789736 0.024595147 0.031955164 0.1657134 0.15599358
0.086090565 -0.114265144 0.037108827 0.06086483 -0.00881879 0.072502084 -0.09911436 0.00076720753
-0.09490392 -0.04295723 0.062390033 0.10978997 0.10663686 0.1042149 -0.025131326 0.04116603
0.027265856 0.045854982 -0.114071324 0.1200209 0.08314582 0.16788499 -0.055303935 0.023752175
00000000: abb3 c63d 9067 373d 932d 1f3e debc c63d
00000010: 42b4 cabd 2eec 853d 2847 bc3c afd7 403e
00000020: f1c8 d63d 9389 103d 8ed7 913d dcea 9bbd
00000030: d555 953d e893 253e 23be c7bd cfef dbba
00000040: aa07 f1bc b8fb 823d e97f 1d3d 377f c3bd
00000050: aa21 8abd 3f7f 583d 6ae6 813d 209e ca3d
00000060: c3ca 383e c40f 24bc 5216 b73d c664 073d
00000070: da9a 033e dc76 3d3e ae59 153e 60a9 a83d
00000080: aff2 053e b102 07bd beda e73d ec9f 1b3d
00000090: 6111 dabd a494 fe3d f3f2 053e 2402 5bbc
000000a0: 0cc8 01be 48ec 923d 6ca9 82bd 00fe 143e
000000b0: 9eb9 353c e0e3 4a3d 0ba5 0f3e a437 03be
000000c0: 65fc 08bd 760d 9dbd 004e 00bc 3fb1 953d
000000d0: eec7 08bd f861 333e 0939 8b3d 502a bb3d
000000e0: a341 973d 326a 8f3c 8940 503d e064 84bd
000000f0: 841d 803d a2e7 c43b 2606 e73c a384 883d
00000100: d333 6f3d 0ae7 0f3b 4efa 93bd 0884 7b3d
00000110: caab 86bd ab7f 153d da53 fabd 29b3 bebd
00000120: 9793 3aba fd03 2e3e c566 173e c615 853d
00000130: 721b 4dbb 51ec e8bd 0a9d f23d 58c2 b5bd
00000140: 2a73 0fbd 9a40 11bc 8589 9fba aaed b4bb
00000150: 4085 b1bd 3f5e ffbd f6e9 163e 27a2 0abd
00000160: 7ccd 043e 1de8 00bd 5484 043e 1701 f43d
00000170: ed44 193c 641d 5d3d 53e2 433e c643 ab3d
00000180: d9a4 cebd 7cca 24be adb2 5dbc 0b84 bfbb
00000190: b7c5 12bd 9d9d 573d 603b cabd 5383 01bd
000001a0: 8bdc 2d3e 212b 0d3d 99cb 1e3e a0c0 9e3d
000001b0: b6c2 88bd c2ca 7d3c 6284 6c3c 59db c93c
000001c0: 0ba6 e43d 2202 fc3d 1159 61bd 209c c73c
000001d0: 9e54 96bd da4a df3d 3157 1cbd 9312 7b3d
000001e0: 47af c8bd f1db eb3c d98c 113d d1ad 263d
000001f0: f9c0 bfbd de51 ab3a 8c41 fe3d c759 a8bd
00000200: 57e7 283e 8fe9 343e 207d 063e 3645 17bd
00000210: 7489 483a 8773 13bd 8e39 193d 7e5d 1c3e
00000220: f5e7 13bd 6c6b 863b 408d 0f3e 7b8e cdbd
00000230: 6cf4 0b3e c1a1 053e 9081 3a3e df7f cc3d
00000240: ded9 243e 472b f23c e57b d53d b4a8 343e
00000250: 6bb8 92bb e127 063e 3ad5 f03d 4b41 9c3d
00000260: 7dc2 c7bc f281 66bd b334 a23d 5693 61bb
00000270: e0c7 353e 6a7e ba3d 2ba2 f33d ad7f 42bd
00000280: 9e39 e43d de88 81bc d28b 39bd 09ad 8e3c
00000290: f33c dfbb 64ef c8bd 37d1 1bbe 42a2 993d
000002a0: 2339 1e3d 02c2 cebd b13a 393c e23c 503d
000002b0: 2eaa 0d3d 96bb 4b3e 6bd3 333e 16b9 bc3d
000002c0: 67dc 193c d92f 193d cf45 b83c 9883 a7bd
000002d0: 7d4c b9bd 4e96 713d 0f61 bf3d 9a81 d2bc
000002e0: e99a 273e a7f9 cbbd cf23 f13d af36 2b3e
000002f0: cb94 a2bd 895f 54bc 67ca 08be a8dd 153e
00000300: 94b0 58bd 7bb4 e73b 6938 b23d 6878 263e
00000310: 134f 883c ace8 c8bd f885 e3bb 8361 823d
00000320: d49f 0dbd 64d3 083e 603c d7bd 5d6a 1d3d
00000330: c786 2abd 8f06 dcbd cce1 e63c 1871 e0bc
00000340: 522d 263e 6e70 943c 9630 db3c be0c 09be
00000350: 6a84 813d 7da3 363e 3f59 6bbc b965 adbd
00000360: 845f 183e e7c9 15bd c5c0 2b3e c245 b73d
00000370: b2d8 e83d 4efb a6bd f009 1dbc 15fc e83d
00000380: 8ec0 cd3d b6c5 04be 37c6 043d 49ed 2b3e
00000390: c37b c93c 6be3 023d c6b0 293e c8bc 1f3e
000003a0: 4050 b03d d803 eabd 6dff 173d 664d 793d
000003b0: b07c 10bc f97b 943d 78fc cabd 6d1e 493a
000003c0: fd5c c2bd ecf3 2fbd b18c 7f3d 90d9 e03d
000003d0: 6d64 da3d 9f6e d53d 36e0 cdbc b69d 283d
000003e0: a55c df3c 6fd2 3b3d 3a9e e9bd 85cd f53d
000003f0: 5b48 aa3d 0bea 2b3e 6186 62bd ec93 c23c

101 f4 [1, 512, 128]
0.07327925 -0.033731632 0.021625912 -0.13903777 -0.066976726 -0.099960744 -0.123080224 0.07907327
0.09306659 -0.020188272 0.06436424 0.081706196 -0.1453 0.106939696 -0.16579233 0.04236343
-0.05112269 0.06737367 0.015344346 -0.014289718 0.091909885 -0.021302922 0.141174 0.16093339
-0.10256404 -0.08099697 -0.049139466 0.051799107 -0.15876022 -0.08347526 0.08564769 0.08008649
-0.039109822 0.16041228 0.029110407 0.09885851 0.08606068 -0.07360362 -0.06786195 0.023748647
-0.12602073 0.096052594 -0.026254434 -0.15964268 0.062876664 0.03674548 -0.10339875 0.055749673
0.049317244 -0.1077517 -0.069753684 -0.084928796 0.09499682 -0.18489839 -0.07380425 0.11888671
-0.026005598 0.037167586 0.0320324 0.074226744 0.06076327 -0.035354473 0.13921165 -0.030025773
-0.0051376233 -0.1267437 -0.037487984 -0.045606572 0.005904306 -0.10701531 -0.07709871 -0.117681
-0.07657382 -0.14440498 -0.06645358 0.0033851445 0.11765675 0.0611888 0.106608324 0.023545785
0.1433244 -0.042022996 0.061909217 -0.12153096 0.06166953 0.09149159 -0.02705902 0.06076352
0.1799331 0.023365458 0.09169522 -0.05817542 0.18499732 0.13479562 0.1626222 -0.0030921658
-0.03846687 -0.109698296 0.0690068 -0.15994163 0.07642337 0.05225556 0.051128834 0.14044511
0.028729014 -0.18957864 0.048635557 -0.02262283 -0.062190447 0.09054065 0.033727445 0.10061191
0.098431736 0.027098188 0.07807349 0.17984429 0.11928043 0.11858312 -0.028175933 0.09549399
-0.029096063 -0.034164913 0.004276669 0.07891666 -0.019540535 0.080116294 -0.0057186987 -0.017430343
-0.1407579 -0.07176506 -0.100476176 -0.071412705 0.14910787 0.03511628 0.12322383 0.06946579
0.109263174 -0.13111477 0.104353406 0.09702366 0.06183619 0.016635057 0.08497474 -0.116514176
0.051697567 -0.07188968 -0.04839679 -0.08114578 -0.004633291 0.08330826 -0.07875045 0.121132895
-0.009651465 -0.026317226 -0.027522303 0.13059592 0.0339233 -0.04701204 -0.008761826 -0.047701936
0.0065144585 -0.14065665 0.0114349555 0.13828519 -0.12836348 -0.042280883 -0.14366564 -0.12767695
-0.034646478 -0.08965419 -0.025851993 0.17215367 0.10665972 0.05057603 -0.009236032 0.15641849
0.12890358 -0.038861364 0.15004747 -0.021602228 -0.16209498 -0.054304622 -0.024745971 0.1538673
0.116981834 -0.08758 0.12599052 0.1176534 0.064264864 -0.062799744 0.021832267 -0.05716554
-0.10031523 -0.083794504 -0.12271639 0.07632746 0.004049528 0.030075043 -0.1548897 0.04591373
-0.17467216 -0.1573507 0.122656755 -0.100377426 0.10007192 0.027779933 -0.11623985 0.027482616
0.18750665 0.044852957 -0.016854465 0.09576734 -0.0072773136 0.02795113 -0.004436913 0.109736286
0.11122793 0.15996788 -0.10391486 -0.09185397 0.13242526 0.091411 -0.04778475 0.011517046
-0.05741514 0.13658561 -0.109900825 -0.15158309 -0.0831551 -0.09790814 0.032043025 -0.04636518
0.05050543 -0.10367176 -0.013637298 -0.12322634 0.12184921 0.02051576 0.121297605 0.021521047
0.041828636 -0.047518287 -0.110184 0.10282857 0.012115853 -0.0968543 0.06653884 -0.10713886
0.036908817 -0.0699327 -0.06893074 0.09621546 0.08594007 -0.09379355 -0.10490551 -0.024052948
00000000: 6e13 963d 2e2a 0abd d328 b13c eb5f 0ebe
00000010: 182b 89bd 38b8 ccbd 7c11 fcbd 2bf1 a13d
00000020: b299 be3d e061 a5bc 66d1 833d 9455 a73d
00000030: 86c9 14be 3303 db3d 77c5 29be 4785 2d3d
00000040: 0766 51bd 35fb 893d da66 7b3c 6c1f 6abc
00000050: 403b bc3d 7783 aebc eb8f 103e b9cb 243e
00000060: 180d d2bd bde1 a5bd 7746 49bd 4d2b 543d
00000070: 0a92 22be 14f5 aabd 0e68 af3d 6304 a43d
00000080: 9f31 20bd 1e43 243e f378 ee3c 5576 ca3d
00000090: 9540 b03d 7fbd 96bd 35fb 8abd 868c c23c
000000a0: 940b 01be 39b7 c43d 8a13 d7bc 5f79 23be
000000b0: 7bc5 803d 6e82 163d b9c2 d3bd c559 643d
000000c0: e100 4a3d ecac dcbd 05db 8ebd 26ef adbd
000000d0: b18d c23d 0156 3dbe af26 97bd e07a f33d
000000e0: b109 d5bc 0a3d 183d 6834 033d 3104 983d
000000f0: e8e2 783d dacf 10bd 808d 0e3e 9cf8 f5bc
00000100: 8259 a8bb 1ac9 01be 008d 19bd f5cd 3abd
00000110: e978 c13b d82a dbbd eee5 9dbd bc02 f1bd
00000120: bcd2 9cbd e6de 13be d118 88bd 4dd9 5d3b
00000130: 06f6 f03d 1ba1 7a3d 7755 da3d 17e3 c03c
00000140: a2c3 123e 4e20 2cbd 8594 7d3d 39e5 f8bd
00000150: 3099 7c3d f15f bb3d e1aa ddbc 2be3 783d
00000160: 6240 383e eb68 bf3c b4ca bb3d 5949 6ebd
00000170: f06f 3d3e dd07 0a3e 6f86 263e efa5 4abb
00000180: 708f 1dbd 80a9 e0bd 7053 8d3d bdc7 23be
00000190: db83 9c3d ed09 563d 786c 513d d8d0 0f3e
000001a0: 1c59 eb3c e720 42be 1436 473d 8353 b9bc
000001b0: 69bb 7ebd 606d b93d ca25 0a3d 9e0d ce3d
000001c0: 9496 c93d 05fd dd3c fee4 9f3d 1a29 383e
000001d0: 4c49 f43d b5db f23d 37d1 e6bc 5a92 c33d
000001e0: de5a eebc 82f0 0bbd 4d23 8c3b 0f9f a13d
000001f0: 7913 a0bc 0314 a43d ec63 bbbb 14ca 8ebc
00000200: d722 10be 8ff9 92bd 74c6 cdbd d340 92bd
00000210: bcaf 183e 17d6 0f3d c65c fc3d 1544 8e3d
00000220: 5fc5 df3d f342 06be 3db7 d53d 57b4 c63d
00000230: f247 7d3d 3e46 883c 3d07 ae3d fc9e eebd
00000240: d4c0 533d e63a 93bd b63b 46bd c22f a6bd
00000250: ddd2 97bb 859d aa3d ea47 a1bd 8614 f83d
00000260: 2e21 1ebc 3997 d7bc 7476 e1bc f0ba 053e
00000270: 29f3 0a3d b28f 40bd c38d 0fbc 1b63 43bd
00000280: 3d77 d53b 4c08 10be ae59 3b3c a29a 0d3e
00000290: b771 03be b82e 2dbd 161d 13be bfbd 02be
000002a0: 77e9 0dbd 9e9c b7bd 8fc7 d3bc 0d49 303e
000002b0: 6970 da3d d028 4f3d ba52 17bc 2b2c 203e
000002c0: 4dff 033e 182d 1fbd 0ba6 193e 28f7 b0bc
000002d0: 3afc 25be 866e 5ebd 10b8 cabc 648f 1d3e
000002e0: 2c94 ef3d 255d b3bd a903 013e 44f4 f03d
000002f0: 4c9d 833d 279d 80bd 95d9 b23c 6a26 6abd
00000300: 1272 cdbd 749c abbd bb52 fbbd 9251 9c3d
00000310: e7b1 843b f05f f63c 689b 1ebe 0910 3c3d
00000320: 42dd 32be 8b20 21be 7733 fb3d ae92 cdbd
00000330: 82f2 cc3d be92 e33c 290f eebd 3923 e13c
00000340: be01 403e bcb7 373d 6012 8abc ab21 c43d
00000350: 8876 eebb c5f9 e43c 8663 91bb 6bbd e03d
00000360: 78cb e33d 9fce 233e 50d1 d4bd ef1d bcbd
00000370: 7d9a 073e b135 bb3d f1b9 43bd feb1 3c3c
00000380: 232c 6bbd 19dd 0b3e af13 e1bd 9938 1bbe
00000390: 394d aabd 1084 c8bd 8c3f 033d 6ae9 3dbd
000003a0: c8de 4e3d dc51 d4bd f96e 5fbc 175e fcbd
000003b0: 148c f93d ab10 a83c e16a f83d e84c b03c
000003c0: 8154 2b3d 89a2 42bd 26a8 e1bd c997 d23d
000003d0: 9281 463c 8c5b c6bd 8445 883d 9e6b dbbd
000003e0: b32d 173d e038 8fbd 8f2b 8dbd 9c0c c53d
000003f0: 5901 b03d d516 c0bd b3d8 d6bd b00a c5bc

102 f4 [1, 1024]
0.0441009 0.03182177 0.03948982 0.05965855 0.054787833 -0.019406708 -0.01031807 0.009418729
0.008241915 0.014349941 0.03401111 -0.029547881 -0.009114308 -0.044854958 -0.004857273 0.031813882
-0.06963222 -0.029695325 -0.03509132 -0.017192889 0.013165528 0.010536168 -0.0008379758 0.019601457
0.037456926 0.09273393 0.02096531 0.031220475 0.051524486 0.06610025 -0.0555008 -0.0388742
-0.015211378 0.011021691 0.060860876 0.050503723 -0.026392385 0.03467013 0.0036919531 -0.0917545
0.028074859 0.03872604 0.013627435 0.008623928 0.030101899 -0.0045996225 0.016409209 -0.0009147428
0.018303197 0.0063839788 0.10405252 0.008361676 0.042051755 -0.016043682 0.055403475 0.03807871
0.02391539 0.051670868 0.055658977 0.00759334 -0.016009843 -0.034229383 0.02553514 0.007854858
0.05068128 0.022695232 -0.034251384 0.009962057 0.004223595 0.028571647 0.059878215 0.029019946
-0.0122823715 -0.04999055 0.023676492 0.024358815 0.02256247 0.0074985195 0.007128466 0.08811067
0.05867378 0.0024610548 0.07911368 0.008886349 0.030293083 0.025333244 0.048049636 -0.0009051864
-0.049945906 0.025382152 -0.04657735 -0.024410991 0.06770997 -0.035352 0.06123412 0.073887765
0.08456247 0.0191177 -0.06471241 0.0049221762 0.03186188 -0.03761024 0.052275777 0.080157526
0.04734068 0.045301378 0.037189573 0.075234435 -0.04258649 -0.029219734 0.008518897 -0.020304209
0.022052487 -0.013134 -0.013615269 0.00553602 -0.0142079275 0.00012494446 -0.077919744 0.043151062
0.043460324 0.04479149 0.0033667034 -0.0036107786 0.06030317 0.061368745 0.008531596 -0.024857635
-0.03166315 -0.013859424 0.0010635705 0.035779152 -0.033457644 -0.011218261 0.01314402 -0.011242982
0.008245113 -0.013728322 0.0038713804 0.017654467 0.028318742 -0.029797444 0.014320633 -0.050021194
0.008810035 0.0281378 -0.0038278901 0.038327195 -0.016500508 0.034676664 -0.03249781 0.02554878
0.013345901 -0.021626087 -0.04518283 0.01958612 0.049539685 0.06439544 0.014645736 0.024140636
0.048273746 0.058828846 -0.017382832 -0.017549843 -0.006613938 0.03933951 -0.047184795 -0.01785267
0.047164883 0.042254414 0.066078745 0.05162604 -0.024454383 0.012020463 0.010472619 -0.010954141
-0.033152275 0.040259548 0.058506638 0.01268778 -0.031943597 -0.0059717046 0.045726664 0.044917762
0.015112376 0.020159518 0.043279275 -0.030254409 0.051587604 0.04467234 0.0024452687 -0.0039776815
-0.03779124 -0.02676313 0.0014838633 -0.0032452736 -0.03426316 -0.028486172 0.023069907 0.00630734
0.04400295 0.046946667 0.002970843 0.02275906 0.0368952 -0.0077463454 -0.0161487 0.013285292
0.0069548935 -0.023654636 0.02517255 -0.012004423 0.0014350218 0.049697038 -0.016002223 0.03694992
0.002858226 0.027198005 -0.008931406 0.012216984 0.052823745 -0.007209155 0.0019051733 0.008334981
0.04003089 0.025112303 -0.0062352913 -0.0058772434 -0.007927182 -0.017948711 -0.013822001 -0.042691376
0.037282027 -0.026932692 0.019840948 0.09044792 -0.01448031 0.02355799 0.011829771 -0.014405612
0.00026305806 0.0123842 0.0044049295 0.02005637 -0.012391495 -0.019198243 -0.024161411 0.012977514
0.015864784 -0.05626124 0.023161124 0.013316441 0.025690403 -0.032912765 0.060500633 -0.0048510525
00000000: 25a3 343d 8b57 023d 14c0 213d 865c 743d
00000010: 3569 603d d1fa 9ebc 1f0d 29bc 0351 1a3c
00000020: 1909 073c 041c 6b3c 3c4f 0b3d 660e f2bc
00000030: 2e54 15bc d5b9 37bd c229 9fbb 464f 023d
00000040: 569b 8ebd 9c43 f3bc eabb 0fbd 1ad8 8cbc
00000050: 3ab4 573c e49f 2c3c 9bab 5bba 3c93 a03c
00000060: 6f6c 193d 49eb bd3d 71bf ab3c 15c2 ff3c
00000070: 570b 533d 915f 873d cf54 63bd 8e3a 1fbd
00000080: 2539 79bc 5394 343c 4149 793d fedc 4e3d
00000090: d834 d8bc 4402 0e3d b2f4 713b c9e9 bbbd
000000a0: 3ffd e53c 329f 1e3d 9b45 5f3c 604b 0d3c
000000b0: 4298 f63c 6eb8 96bb 9b6c 863c 5acb 6fba
000000c0: 96f0 953c b230 d13b 7d19 d53d 69ff 083c
000000d0: 763e 2c3d 0a6e 83bc c1ee 623d 6cf8 1b3d
000000e0: 35ea c33c d5a4 533d abfa 633d 8dd1 f83b
000000f0: 1327 83bc 1c34 0cbd 122f d13c aab1 003c
00000100: 2d97 4f3d 5aeb b93c 2e4b 0cbd e537 233c
00000110: 1566 8a3b 160f ea3c dc42 753d 3dbb ed3c
00000120: 003c 49bc e4c2 4cbd 34f5 c13c 238c c73c
00000130: eed4 b83c 24b6 f53b e895 e93b 5e73 b43d
00000140: eb53 703d a649 213b 5a06 a23d 0d98 113c
00000150: 3329 f83c aa87 cf3c b2cf 443d 084a 6dba
00000160: 1494 4cbd 3bee cf3c e4c7 3ebd 8ff9 c7bc
00000170: 86ab 8a3d 42cd 10bd a1d0 7a3d 7852 973d
00000180: 172f ad3d b99c 9c3c f187 84bd 354a a13b
00000190: 9a81 023d 320d 1abd 201f 563d a129 a43d
000001a0: 4de8 413d f08d 393d 1854 183d 8314 9a3d
000001b0: 2c6f 2ebd 395e efbc d892 0b3c 0355 a6bc
000001c0: 6ba7 b43c fd2f 57bc 9412 5fbc 8067 b53b
000001d0: 5ec8 68bc 8603 0339 6394 9fbd 2bbf 303d
000001e0: 7403 323d 4877 373d e9a3 5c3b d0a2 6cbb
000001f0: 7500 773d cb5d 7b3d 1bc8 0b3c 3da2 cbbc
00000200: 38b1 01bd a312 63bc 8167 8b3a 298d 123d
00000210: e20a 09bd cccc 37bc 045a 573c 7c34 38bc
00000220: 8316 073c c2ec 60bc fcb6 7d3b 1aa0 903c
00000230: b5fc e73c c519 f4bc 17a1 6a3c 06e3 4cbd
00000240: f757 103c 3e81 e63c 57dd 7abb fafc 1c3d
00000250: 132c 87bc 1e09 0e3d 6c1c 05bd ad4b d13c
00000260: c4a8 5a3c 3129 b1bc a211 39bd 1273 a03c
00000270: 20ea 4a3d c2e1 833d abf4 6f3c 95c2 c53c
00000280: b1ba 453d 84f6 703d 7166 8ebc b0c4 8fbc
00000290: bcb9 d8bb 7722 213d d844 41bd c33f 92bc
000002a0: f72f 413d f712 2d3d 4b54 873d d475 533d
000002b0: 8f54 c8bc 7af1 443c 5995 2b3c ff78 33bc
000002c0: aeca 07bd 32e7 243d a8a4 6f3d 68e0 4f3c
000002d0: 4ad7 02bd 4aae c3bb e24b 3b3d b0fb 373d
000002e0: e699 773c 9325 a53c 9c45 313d 18d8 f7bc
000002f0: 864d 533d 58fa 363d cd40 203b 3657 82bb
00000300: fdca 1abd 5a3e dbbc 317e c23a a8ae 54bb
00000310: 8757 0cbd d55b e9bc 1afd bc3c cead ce3b
00000320: 703c 343d 264b 403d 7ab2 423b 3571 ba3c
00000330: 6c1f 173d 0ed5 fdbb 474a 84bc 8eaa 593c
00000340: e0e5 e33b 5ec7 c1bc aa36 ce3c 33ae 44bc
00000350: 5717 bc3a 1f8f 4b3d 1817 83bc cd58 173d
00000360: 1351 3b3b 5ace de3c 0855 12bc bf29 483c
00000370: b65d 583d c63a ecbb 02b7 f93a 728f 083c
00000380: 6ef7 233d 51b8 cd3c 6a51 ccbb e495 c0bb
00000390: 03e1 01bc 2d09 93bc ad75 62bc 27dd 2ebd
000003a0: 0ab5 183d f3a1 dcbc 7c89 a23c c23c b93d
000003b0: d23e 6dbc b0fc c03c a8d1 413c 8405 6cbc
000003c0: 0eeb 8939 19e7 4a3c 3a57 903b 424d a43c
000003d0: b205 4bbc a245 9dbc 27ee c5bc a49f 543c
000003e0: ddf6 813c 3072 66bd 66bc bd3c 342d 5a3c
000003f0: ae74 d23c 89cf 06bd 83cf 773d 94f5 9ebb

action_model._continuous_distribution.log_sigma f4 [1, 4]
0.4750023 0.39208475 0.3099966 0.43576324
00000000: 8033 f33e 55bf c83e e0b7 9e3e 5c1c df3e

action_model._continuous_distribution.mu.bias f4 [4]
0.014181965 -0.00075089413 -0.0066521256 0.007901608
00000000: 795b 683c a7d7 44ba 13fa d9bb bf75 013c

action_model._continuous_distribution.mu.weight f4 [4, 128]
0.04150418 0.038788136 0.1513241 0.0866767 -0.06891101 -0.00712754 0.085276425 0.107384555
0.03751908 0.00564932 -0.0034928487 0.0012333309 0.0016637116 0.020353574 0.12646876 -0.047117967
-0.06984535 0.09684808 0.05111651 0.099764004 -0.010674377 -0.09641277 0.014164603 -0.062694624
-0.020247698 -0.04535385 0.06526057 -0.11869888 -0.0035193618 -0.04894721 -0.028337175 0.051954627
-0.04893192 -0.02630779 -0.0551972 -0.029966196 0.021635072 0.044585656 -0.04361913 -0.04793455
-0.04188696 0.013862044 -0.037781656 0.013537551 0.10301444 0.083429076 0.052552685 -0.051010516
-0.005413861 0.12318415 0.055054687 -0.05622943 -0.004615759 0.03081848 -0.10716602 0.10701025
-0.048960004 0.03849644 -0.20378305 0.09080684 0.061561145 -0.04074894 0.111466125 0.015414012
-0.02565868 0.02787236 0.071033955 0.040733095 -0.09062679 -0.027201882 -0.0087462505 -0.007881251
-0.0016821504 0.13000117 -0.046142187 -0.0053261584 0.12860191 0.12585168 -0.028064884 -0.11893959
0.029007748 0.011615076 -0.041859902 0.066206574 -0.01738474 -0.11445385 -0.044175696 -0.109931454
0.041955043 -0.12376323 -0.07168612 0.015435016 0.021648308 0.01835427 -0.06589355 -0.0640084
0.122594506 0.06437841 -0.09535847 0.04594718 0.11520099 -0.09426073 0.08120579 -0.0037541809
-0.02517668 -0.12553683 0.044219438 0.03471326 -0.06384464 0.010114524 -0.05495922 -0.09962865
0.008865887 -0.041076913 -0.041796405 0.086444676 0.032417055 0.084831186 0.041955467 0.12715247
-0.011246934 0.10570811 0.050200954 0.18309529 0.10238909 0.0064973934 0.016454725 -0.01716204
0.07566587 0.07441118 0.049992204 0.10739495 0.034009114 -0.034369804 -0.019602984 0.01975903
-0.023789292 -0.009434783 0.01416159 0.07162076 -0.085359156 0.00575741 -0.017950248 0.041209947
0.0151085295 -0.0170678 0.014848637 -0.0019058951 -0.058474313 -0.010367149 0.050106812 0.06307878
0.027941952 0.07438517 -0.08650214 -0.017336782 0.14664198 0.113818616 -0.06494223 0.11010884
0.07557367 0.07206615 0.074004814 -0.051133674 -0.009931303 0.026553486 0.018520584 0.07946945
-0.14254493 0.11316307 0.03654287 -0.12879291 -0.034460593 0.009982094 0.015419131 -0.00064982823
0.0051593226 -0.08707224 -0.07986598 0.050419375 0.011975754 0.07417906 0.014823813 -0.07185442
0.10056642 0.11252559 0.05433551 -0.024549441 0.009492466 0.1173715 0.058570173 -0.08710878
-0.10067653 -0.03688056 -0.08674328 -0.02152881 0.017560799 0.067977905 0.13216917 0.07826866
0.13485311 -0.04667416 0.06516058 0.014261189 -0.00648894 0.012818812 0.069902405 -0.096318476
0.0787878 0.070437595 -0.060814414 -0.032526687 -0.08350693 0.10435178 0.041070852 0.040767822
-0.05008243 0.07304447 0.08751802 0.14040343 -0.0770157 -0.06545145 -0.012954157 0.035230026
-0.038786042 0.0024951135 0.0028659594 0.019666651 0.014263263 0.05558901 0.0022549727 -0.02066506
-0.15558474 -0.09738269 -0.014316917 -0.013336386 -0.06578624 -0.014823485 -0.040104326 -0.05383041
0.027912347 0.052336093 -0.07459527 0.04304942 0.019832974 -0.032222193 -0.08656767 -0.00060539227
-0.077564955 -0.03696704 -0.036527537 0.03067132 -0.015438351 -0.059176262 0.13054542 -0.046710465
00000000: 4900 2a3d 4fe0 1e3d b4f4 1a3e 8e83 b13d
00000010: 3721 8dbd 248e e9bb 68a5 ae3d 6fec db3d
00000020: 9bad 193d ee1d b93b 47e8 64bb b8a7 a13a
00000030: e610 da3a 8abc a63c 0781 013e c5fe 40bd
00000040: 140b 8fbd 4958 c63d 8c5f 513d 1251 cc3d
00000050: 95e3 2ebc 0f74 c5bd a712 683c 0a66 80bd
00000060: 80de a5bc f5c4 39bd 55a7 853d 6618 f3bd
00000070: 18a5 66bb df7c 48bd 5d23 e8bc 60ce 543d
00000080: d66c 48bd 6f83 d7bc 7616 62bd ab7b f5bc
00000090: 093c b13c 739f 363d f9a9 32bd 0557 44bd
000000a0: a991 2bbd a01d 633c f0c0 1abd 9bcc 5d3c
000000b0: 3cf9 d23d dddc aa3d 7c41 573d 67f0 50bd
000000c0: c266 b1bb f947 fc3d 0681 613d d550 66bd
000000d0: cb3f 97bb 0977 fc3c dc79 dbbd 3128 db3d
000000e0: 498a 48bd 71ae 1d3d 81ac 50be f0f8 b93d
000000f0: 8a27 7c3d 5ce8 26bd 5a48 e43d 0d8b 7c3c
00000100: 2732 d2bc 9354 e43c 407a 913d bfd7 263d
00000110: 8a9a b9bd 7bd6 debc 6f4c 0fbc 5d20 01bc
00000120: 9a7b dcba 071f 053e 97ff 3cbd 0e87 aebb
00000130: 38b0 033e 43df 003e 54e8 e5bc 9a96 f3bd
00000140: a8a1 ed3c 294d 3e3c 4a75 2bbd 5097 873d
00000150: 716a 8ebc c866 eabd 93f1 34bd be23 e1bd
00000160: 0dd9 2b3d 9477 fdbd 2cd0 92bd 26e3 7c3c
00000170: cb57 b13c b25b 963c 33f3 86bd d616 83bd
00000180: d412 fb3d d4d8 833d 4d4b c3bd 1c33 3c3d
00000190: 7fee eb3d c50b c1bd 394f a63d b408 76bb
000001a0: 533f cebc ba8c 00be 711f 353d 7e2f 0e3d
000001b0: fbc0 82bd 63b7 253c eb1c 61bd 1b0a ccbd
000001c0: 3a42 113c 4440 28bd b532 2bbd e809 b13d
000001d0: bfc7 043d f9bb ad3d 7fd9 2b3d 4234 023e
000001e0: 0f45 38bc 7e7d d83d 849f 4d3d 557d 3b3e
000001f0: 5fb1 d13d 16e8 d43b 0fcc 863c 6897 8cbc
00000200: b5f6 9a3d e464 983d a0c4 4c3d e2f1 db3d
00000210: 244d 0b3d 5ac7 0cbd 7096 a0bc b0dd a13c
00000220: c3e1 c2bc 5994 1abc 0306 683c e8ad 923d
00000230: c8d0 aebd a8a8 bc3b 660c 93bc c3cb 283d
00000240: c489 773c c5d1 8bbc b347 733c 3acf f9ba
00000250: c382 6fbd f9da 29bc cd3c 4d3d 732f 813d
00000260: 85e6 e43c 4157 983d 0928 b1bd de05 8ebc
00000270: 5129 163e bc19 e93d 6f00 85bd be80 e13d
00000280: 5ec6 9a3d 6b97 933d d68f 973d 8b71 51bd
00000290: e7b6 22bc b286 d93c 7bb8 973c e1c0 a23d
000002a0: 4cf7 11be 0ac2 e73d faad 153d 4ae2 03be
000002b0: 8d26 0dbd f08b 233c 86a0 7c3c 3c59 2aba
000002c0: 890f a93b ee52 b2bd c690 a3bd 8c84 4e3d
000002d0: f435 443c 31eb 973d 94df 723c 6928 93bd
000002e0: c4f5 cd3d d173 e63d e98e 5e3d e91b c9bc
000002f0: 4a86 1b3c 7860 f03d 47e7 6f3d 1766 b2bd
00000300: 7f2f cebd 1210 17bd 76a6 b1bd 305d b0bc
00000310: aadb 8f3c 0038 8b3d 5b57 073e 524b a03d
00000320: ef16 0a3e 672d 3fbd e972 853d c3a7 693c
00000330: 2da1 d4bb ff05 523c fe28 8f3d 9f42 c5bd
00000340: 805b a13d 9641 903d 8918 79bd b43a 05bd
00000350: ae05 abbd 63b6 d53d e939 283d 29fc 263d
00000360: 3c23 4dbd 5798 953d a63c b33d ebc5 0f3e
00000370: 68ba 9dbd 690b 86bd ac3d 54bc 5c4d 103d
00000380: 1dde 1ebd 0f85 233b d2d2 3b3b f51b a13c
00000390: 76b0 693c 4db1 633d 2ac8 133b c649 a9bc
000003a0: 9b51 1fbe 9370 c7bd 8191 6abc db80 5abc
000003b0: f0ba 86bd 34de 72bc 6f44 24bd 477d 5cbd
000003c0: 6fa8 e43c 5f5e 563d 68c5 98bd 9754 303d
000003d0: c378 a23c 6bfb 03bd 644a b1bd 30b3 1eba
000003e0: 60da 9ebd c06a 17bd e69d 15bd 6c42 fb3c
000003f0: 23f1 7cbc cf62 72bd b3ad 053e 7953 3fbd

network_body._body_endoder.seq_layers.0.bias f4 [128]
0.042375095 -0.009876463 -0.0011001314 -0.0052817566 0.06971981 0.038366564 0.01809631 -0.020130819
0.037244353 0.03437077 0.04000027 -0.051748507 0.05429901 -0.07916883 0.013869835 0.0143886395
0.01889454 -0.03241441 -0.0066423835 0.03528464 0.005529414 0.0036292127 -0.017457528 -0.044715576
-0.068906665 0.03958987 -0.039931566 0.07045948 0.0008261873 0.0018805517 0.011625487 -0.0054254406
-0.003429896 0.01377456 -0.01938896 -0.026642594 0.02073543 0.03709969 -0.015564681 0.03130036
-0.0007435523 0.0034735948 0.038746074 0.021556411 0.013732037 0.0042964295 -0.0074676275 0.04778109
0.028878627 -0.007885169 0.043531805 0.010994827 0.030895587 -0.0006730079 -0.0049115396 0.028771043
-0.030369852 0.008112839 0.027240934 0.029753266 0.014680653 -0.014826516 -0.012072889 -0.017955113
0.050585307 0.023939809 0.03235344 0.05688614 -0.015406458 0.017504165 0.0047466895 0.009061218
0.03228736 -0.036972288 0.038034726 0.032518983 0.032923833 -0.0033788132 -0.036871098 0.0099569615
0.010513519 -0.010527146 0.030588733 -0.024655275 0.007756043 0.015108058 -0.017905125 0.009590154
-0.060983814 0.027717806 0.024608703 -0.0053400365 0.01203549 0.011706063 0.04523991 0.05553658
0.0035489018 -0.053101648 -0.009766978 -0.00017588021 -0.0049874955 -0.007398498 -0.01072391 0.0068241577
0.0018872864 -0.013777047 -0.08043469 -0.007189508 -0.014453086 0.044902273 0.038037915 0.044076405
0.0022722485 0.05225849 -0.072257206 0.008583119 0.018467285 -0.0069334893 0.026702607 0.043780576
0.025760949 0.04422761 0.03820854 -0.0011424395 0.021652412 0.0052093063 0.011123746 0.040537182
00000000: 8291 2d3d e3d0 21bc 4932 90ba 9612 adbb
00000010: 42c9 8e3d 4226 1d3d b63e 943c 63e9 a4bc
00000020: 898d 183d 5dc8 0c3d 53d7 233d 3ef6 53bd
00000030: a468 5e3d 4423 a2bd 4e3e 633c 54be 6b3c
00000040: b9c8 9a3c f9c4 04bd 5aa8 d9bb a086 103d
00000050: 1630 b53b 16d8 6d3b 1703 8fbc ae27 37bd
00000060: f01e 8dbd fd28 223d 488f 23bd 0f4d 903d
00000070: 7e94 583a d87c f63a d478 3e3c e5c7 b1bb
00000080: 1bc8 60bb b1ae 613c 99d5 9ebc 9241 dabc
00000090: 59dd a93c d8f5 173d 0103 7fbc ce34 003d
000000a0: f3ea 42ba 40a5 633b 34b4 1e3d 1297 b03c
000000b0: 56fc 603c 10c9 8c3b 00b3 f4bb 1bb6 433d
000000c0: df92 ec3c cc30 01bc 684e 323d a623 343c
000000d0: be18 fd3c cc6c 30ba fbf0 a0bb 40b1 eb3c
000000e0: 32ca f8bc b7eb 043c 6128 df3c 1fbd f33c
000000f0: 1f87 703c eaea 72bc 5ecd 45bc 9a16 93bc
00000100: 8a32 4f3d 6b1d c43c 0a85 043d 7101 693d
00000110: 5e6b 7cbc e564 8f3c 1e8a 9b3b 8175 143c
00000120: c03f 043d 4170 17bd 4dca 1b3d a032 053d
00000130: 24db 063d 146f 5dbb 2606 17bd 8622 233c
00000140: e540 2c3c 0d7a 2cbc 3995 fa3c dcf9 c9bc
00000150: 6826 fe3b ca87 773c c5ad 92bc 0520 1d3c
00000160: 2aca 79bd 7410 e33c 3198 c93c 79fb aebb
00000170: 8130 453c c9ca 3f3c 7c4d 393d 537a 633d
00000180: b194 683b 1d81 59bd ad05 20bc 7c6c 38b9
00000190: 256e a3bb 196f f2bb 57b3 2fbc 2f9d df3b
000001a0: d35e f73a 20b9 61bc f1ba a4bd f795 ebbb
000001b0: a3cc 6cbc 72eb 373d a5cd 1b3d 7689 343d
000001c0: 01ea 143b 000d 563d 96fb 93bd 36a0 0c3c
000001d0: b448 973c 5332 e3bb 6dbf da3c 4353 333d
000001e0: a008 d33c 0328 353d 8f80 1c3d e9bd 95ba
000001f0: 6660 b13c d4b2 aa3b 5f40 363c 510a 263d

network_body._body_endoder.seq_layers.0.weight f4 [128, 116]
-0.1066371 0.041146513 0.037442036 0.07877302 0.030857107 0.06513056 0.018638363 -0.052881863
-0.0914032 -0.03997645 0.103908785 0.05784853 0.021297716 0.14316009 -0.03104467 0.07295706
-0.094697 0.041700196 -0.06900287 -0.033372287 -0.11059972 0.05880367 0.05887964 0.08480535
0.010024707 -0.16558467 0.0071857627 0.07646096 0.008566874 0.08716844 -0.221137 0.0115143815
0.06454541 0.00036912825 0.147846 -0.023114432 0.034212314 -0.019331394 -0.07697521 -0.07825941
0.05540826 -0.008050138 -0.05697044 0.112772144 -0.07460017 -0.12361201 0.10700026 -0.07903234
-0.0016079376 -0.13169889 0.1254597 0.029413685 -0.033330977 -0.074056 0.31912765 0.062444836
-0.10437493 0.16718006 -0.22550856 -0.05913128 -0.08571981 0.2124166 0.052408174 -0.103507824
0.052966483 0.101899266 -0.18443786 -0.08548491 0.0070131794 -0.02826053 -0.011632928 -0.07447149
-0.20905307 0.017792175 -0.029618213 0.013763762 -0.086439885 -0.07952325 -0.0006668492 0.16281232
-0.106853865 0.11422176 -0.0014287237 -0.19510826 0.09872501 -0.042831264 0.22517554 0.0822658
-0.11186745 0.06967861 0.19660766 0.048490234 -0.042892516 0.12201299 0.19141899 -0.281464
-0.1346844 -0.042333186 -0.04726946 -0.4867008 -0.094365455 0.3606147 0.08201477 0.004592005
-0.024076087 -0.0091735115 0.13724351 0.0077347374 -0.033385362 0.14543705 0.094037324 -0.30937862
-0.19272178 0.096096806 0.3202205 -0.0064308443 -0.078214705 -0.012621847 -0.19025236 -0.06677026
0.009431823 0.07633621 -0.11398139 -0.029620003 -0.07138347 -0.015787262 0.03186912 -0.10680509
0.065894805 -0.014291301 0.024333345 -0.003416461 0.01388733 0.078272395 -0.018413067 0.009622424
0.13605711 0.082607396 0.029422684 -0.00064933003 0.037461035 0.055205338 -0.13513052 -0.029592654
-0.12081809 -0.1810136 -0.020457016 0.06992288 0.07772211 -0.08779621 -0.16790637 0.06745799
-0.027427647 -0.052943036 -0.21705225 0.12149479 0.029707864 -0.12222686 -0.068849996 0.13157362
-0.025470644 0.051083054 -0.000983712 -0.01136802 -0.04259636 -0.10888843 0.12148686 0.021972356
0.0007886306 -0.20505622 -0.2533212 -0.1634991 0.123637766 0.08094697 -0.06018949 -0.10217857
0.00087245344 -0.01148429 0.033209354 0.01941681 -0.09783803 -0.047886565 -0.11539565 0.052180987
-0.1422458 0.024693208 -0.08904995 -0.08172764 -0.041157335 0.021059068 -0.052546363 0.07431183
-0.0441087 -0.07050583 -0.1761105 -0.102500975 -0.020601965 0.18053512 -0.084350556 0.006163108
-0.12389497 -0.37199396 -0.020134468 -0.14386545 0.018041566 -0.075888894 -0.2335183 0.07182736
-0.02510041 -0.13876411 -0.051680017 -0.3725354 -0.1480426 -0.039876845 0.1275416 0.18554929
0.37650102 -0.09218742 -0.10877969 0.118591316 -0.092386544 0.027076121 -0.10194736 0.10978147
-0.0010898984 0.09142115 -0.10982606 0.031866148 0.0874231 -0.11563578 0.19151175 -0.11569656
-0.19845577 -0.13509744 -0.001251305 -0.061397534 0.15038675 -0.016212422 0.067403786 0.014194352
-0.060596034 -0.03413438 -0.14696047 0.061661113 -0.060344703 0.05087323 0.016621634 -0.22686508
-0.10279922 -0.070442624 0.036312144 0.036323085 0.20458616 0.12762901 -0.0030705417 -0.2816053
00000000: 8d64 dabd 3f89 283d d25c 193d c053 a13d
00000010: 0bc8 fc3c 2c63 853d 7baf 983c a79a 58bd
00000020: 9a31 bbbd 59be 23bd 21ce d43d 95f2 6c3d
00000030: 8c78 ae3c 8f98 123e 6451 febc 836a 953d
00000040: 80f0 c1bd d3cd 2a3d 6051 8dbd 61b1 08bd
00000050: 1b82 e2bd 1edc 703d c72b 713d 6dae ad3d
00000060: ab3e 243c 078f 29be 8c76 eb3b 9097 9c3d
00000070: 135c 0c3c 5e85 b23d bd71 62be d1a6 3c3c
00000080: 6230 843d 8e87 c139 f164 173e 7a5a bdbc
00000090: 3622 0c3d df5c 9ebc 2ea5 9dbd 7846 a0bd
000000a0: c6f3 623d bae4 03bc d659 69bd 15f5 e63d
000000b0: f9c7 98bd 4b28 fdbd f422 db3d b5db a1bd
000000c0: 6fc1 d2ba 13dc 06be 8278 003e f8f4 f03c
000000d0: 1086 08bd acaa 97bd b364 a33e 28c6 7f3d
000000e0: 86c2 d5bd 4031 2b3e b7eb 66be a433 72bd
000000f0: de8d afbd bd83 593e f4a9 563d e9fb d3bd
00000100: 62f3 583d 90b0 d03d 47dd 3cbe b612 afbd
00000110: d0ce e53b a182 e7bc 0998 3ebc 8284 98bd
00000120: 0212 56be e5c0 913c e5a1 f2bc 6781 613c
00000130: 6507 b1bd 16dd a2bd 7ecf 2eba 46b8 263e
00000140: 33d6 dabd 19ed e93d 0344 bbba 76ca 47be
00000150: 5730 ca3d d66f 2fbd 6b94 663e f97a a83d
00000160: c31a e5bd a9b3 8e3d 8553 493e b29d 463d
00000170: 10b0 2fbd f2e1 f93d 5703 443e 0d1c 90be
00000180: b5ea 09be 9065 2dbd 9f9d 41bd d930 f9be
00000190: ad42 c1bd 7da2 b83e 5cf7 a73d 8878 963b
000001a0: 373b c5bc 7f4c 16bc 9089 0c3e ae73 fd3b
000001b0: 17bf 08bd 73ed 143e a496 c03d e066 9ebe
000001c0: dc58 45be 67ce c43d f1f3 a33e d5b9 d2bb
000001d0: 082f a0bd ddcb 4ebc 84d1 42be d9be 88bd
000001e0: ef87 1a3c 2956 9c3d 136f e9bd a6a5 f2bc
000001f0: 7f31 92bd 4a54 81bc 3289 023d a1bc dabd
00000200: dbf3 863d 1026 6abc b956 c73c b4e6 5fbb
00000210: af87 633c 474d a03d 00d7 96bc 5fa7 1d3c
00000220: 8e52 0b3e 112e a93d d707 f13c cd37 2aba
00000230: be70 193d fe1e 623d a85f 0abe 4b6c f2bc
00000240: 7a6f f7bd a15b 39be 7995 a7bc ba33 8f3d
00000250: c52c 9f3d 80ce b3bd a6ef 2bbe 6a27 8a3d
00000260: f2af e0bc ccda 58bd f242 5ebe 43d2 f83d
00000270: e85d f33c 1352 fabd 3a01 8dbd 3cbb 063e
00000280: d0a7 d0bc 773c 513d e6ef 80ba ef40 3abc
00000290: 8579 2ebd e600 dfbd 1ace f83d 5fff b33c
000002a0: 1bbc 4e3a 42fa 51be 51b3 81be 4f6c 27be
000002b0: cc35 fd3d 86c7 a53d 4189 76bd 0043 d1bd
000002c0: 5cb5 643a 9a28 3cbc 8806 083d 0010 9f3c
000002d0: 4e5f c8bd b424 44bd 8e54 ecbd bbbb 553d
000002e0: e2a8 11be 6949 ca3c d25f b6bd d260 a7bd
000002f0: 9894 28bd 1184 ac3c db3a 57bd cd30 983d
00000300: 53ab 34bd 5c65 90bd 5056 34be 08ec d1bd
00000310: 74c5 a8bc 33de 383e fcbf acbd e6f3 c93b
00000320: a5bc fdbd fe75 bebe 0af1 a4bc 7751 13be
00000330: e8cb 933c a36b 9bbd 6c1f 6fbe 391a 933d
00000340: 609f cdbc 2e18 0ebe 6dae 53bd f6bc bebe
00000350: 7b98 17be e755 23bd 449a 023e a200 3e3e
00000360: bec4 c03e c2cc bcbd e3c7 debd 01e0 f23d
00000370: 2835 bdbd bece dd3c c7c9 d0bd 1bd5 e03d
00000380: ecda 8eba 033b bb3d 7cec e0bd 1486 023d
00000390: e20a b33d 74d2 ecbd a81b 443e 51f2 ecbd
000003a0: fd37 4bbe fc56 0abe d402 a4ba fb7b 7bbd
000003b0: fcfe 193e eacf 84bc ff0a 8a3d 6d8f 683c
000003c0: 8c33 78bd 7ed0 0bbd ce7c 16be 5d90 7c3d
000003d0: 022c 77bd 7360 503d 182a 883c 524f 68be
000003e0: 6688 d2bd 3944 90bd 0bbc 143d 84c7 143d
000003f0: 097f 513e 2eb1 023e 243b 49bb 922e 90be

network_body._body_endoder.seq_layers.2.bias f4 [128]
0.015264069 -0.028354213 -0.012014094 0.02625278 0.016091246 0.050807666 0.027593736 0.015711542
0.0032281538 0.015929816 0.021252813 0.042065136 -0.018077163 0.025227735 0.013168622 0.033766996
0.021773482 0.0037397167 0.057900764 0.007252033 0.03357643 0.01829063 -0.016844485 0.009209022
-0.0031858375 0.040275957 0.005537532 0.01771593 0.00093081663 0.008935547 0.003919989 0.039849885
0.00045433146 0.010669881 0.006462391 0.017950915 0.0049145003 -0.024028946 0.021031234 -0.012310183
-0.040255193 -0.0013451466 0.014933145 0.048838098 0.033212457 0.017279187 0.042826258 0.024888478
0.004617615 0.013336916 -0.015132342 0.0045570936 0.027622707 0.017464576 -0.0013858506 0.0027406372
-0.011206559 0.011191067 0.0023059614 0.015110391 0.013306365 0.03472946 0.052634813 0.038200065
0.03130694 0.020713065 0.023127684 0.024432668 -0.009064939 -0.005877638 0.0035432805 0.0040435805
0.032344226 0.03231048 0.0070831776 0.023316601 0.023728976 0.0021726391 0.05767673 -0.008717947
-0.012215844 0.011568888 -0.016809598 0.005035987 0.025748998 0.014630336 0.0045206505 0.009091869
0.02817387 0.02107813 0.0070172404 -0.00042070504 0.016309882 0.024967961 -0.0080670435 0.0152968485
0.036512747 -0.06276575 0.024144437 0.019985048 -0.011049446 0.040979814 -0.017653925 0.008921462
0.0061844583 0.007410468 0.005360614 0.021183267 0.019663518 0.0021721167 0.007997179 -0.0030917504
0.028642984 0.015311076 0.03793671 0.0046876078 0.013182207 -0.0031532503 -0.0137592675 0.006531078
0.04224918 0.0003829325 0.024781762 -0.005533706 0.042159162 0.0125718 0.030489469 0.010719603
00000000: 2516 7a3c 1847 e8bc c3d6 44bc 1210 d73c
00000010: cad1 833c b31b 503d 420c e23c 7eb5 803c
00000020: 6f8f 533b 3f7f 823c 611a ae3c 7e4c 2c3d
00000030: 8f16 94bc 65aa ce3c 34c1 573c 434f 0a3d
00000040: 4d5e b23c 0916 753b 5a29 6d3d 76a2 ed3b
00000050: 7087 093d 3bd6 953c 72fd 89bc 70e1 163c
00000060: 7cc9 50bb 67f8 243d 2f74 b53b ff20 913c
00000070: 0c02 743a 6766 123c 4073 803b a239 233d
00000080: 5633 ee39 b9d0 2e3c 77c2 d33b cc0d 933c
00000090: d109 a13b 5ad8 c4bc b249 ac3c a6b0 49bc
000000a0: a1e2 24bd a14f b0ba 26aa 743c 750a 483d
000000b0: c909 083d 158d 8d3c 966a 2f3d ece2 cb3c
000000c0: 5d4f 973b 1583 5a3c a5ed 77bc ac53 953b
000000d0: 0449 e23c df11 8f3c 6ea5 b5ba 439c 333b
000000e0: b79b 37bc bd5a 373c 9d1f 173b 9391 773c
000000f0: f102 5a3c 7a40 0e3d 9a97 573d ac77 1c3d
00000100: b53b 003d 72ae a93c 4576 bd3c 0527 c83c
00000110: 1c85 14bc 3399 c0bb 6236 683b 0380 843b
00000120: 617b 043d fe57 043d 001a e83b 7502 bf3c
00000130: 4563 c23c d662 0e3b 6f3e 6c3d b8d5 0ebc
00000140: f724 48bc 6f8b 3d3c 48b4 89bc ec04 a53b
00000150: 90ef d23c 14b4 6f3c f721 943b 10f6 143c
00000160: e3cc e63c 0bac ac3c e1f0 e53b 1392 dcb9
00000170: 4d9c 853c 9c89 cc3c a22b 04bc a29f 7a3c
00000180: 648e 153d 548b 80bd 8eca c53c afb7 a33c
00000190: bc08 35bc 73da 273d f79e 90bc 532b 123c
000001a0: ffa6 ca3b 83d3 f23b 17a8 af3b 8888 ad3c
000001b0: 6315 a13c 125a 0e3b 9a06 033c f79e 4abb
000001c0: b1a4 ea3c 4fdb 7a3c 8663 1b3d 819a 993b
000001d0: 2ffa 573c c3a6 4ebb 8d6e 61bc a702 d63b
000001e0: 7a0d 2d3d 55c4 c839 1f03 cb3c 1754 b5bb
000001f0: 16af 2c3d f3f9 4d3c 0dc5 f93c 46a1 2f3c

network_body._body_endoder.seq_layers.2.weight f4 [128, 128]
-0.1170157 -0.036722247 0.018481947 0.05119271 0.016164599 0.18858749 -0.0018675879 -0.044927754
-0.102640346 -0.177733 0.1991332 0.18959753 -0.084563084 0.054704458 -0.05152069 0.03117663
0.07243092 -0.1077144 -0.036659777 0.020534316 0.15160947 -0.07669136 0.13021436 -0.071330525
-0.01993984 -0.06177034 0.075057805 0.18142308 0.04992543 0.11101138 0.19149548 -0.008179758
-0.11422427 0.14278749 0.11444024 0.020457163 0.00650083 -0.061314076 0.2196175 -0.035967592
0.06816548 0.04351923 0.23747796 0.11589855 -0.15407127 -0.14893438 0.18165371 0.009071065
-0.10836296 -0.080640405 0.07881157 -0.1118175 -0.15306206 0.026382852 -0.024654597 -0.008352161
-0.05458214 0.03708144 0.010005278 -0.12331267 0.0273474 -0.11153634 -0.040149733 0.08738442
0.004061375 -0.027651932 -0.062020782 0.19943604 0.083338976 -0.021537717 0.13048145 0.025375854
-0.1159951 0.015422114 -0.030809565 0.16308165 -0.015661499 0.13608935 0.07846227 -0.018762887
-0.029481668 -0.047340073 -0.13879186 0.07515891 -0.12443829 -0.21973358 0.12612554 -0.081139006
-0.00054054486 -0.047700528 -0.12626684 -0.044802252 0.12028172 -0.09980354 -0.21015655 -0.07390322
0.022206575 0.032699093 0.03269466 0.12838359 -0.14266501 0.01921206 0.009031295 0.25323552
0.16360985 -0.08490103 0.04206147 0.00028422914 -0.05534938 0.14694065 -0.3140419 -0.0826522
-0.017104896 0.045519136 -0.037677303 0.030670501 0.25276652 -0.05275896 0.05738707 0.06452273
-0.0015648877 0.120347485 -0.047176704 0.060120296 0.17855573 -0.02390129 -0.008526729 0.12084589
-0.10359305 0.08218955 0.21091005 0.031756815 -0.15079254 0.090780705 0.004452218 0.08332219
0.1278781 0.032371193 -0.07092955 0.060404804 0.04662655 0.1368474 0.20449722 0.014360664
0.1939441 -0.090064384 0.09076686 -0.0052111745 -0.0720481 0.059636902 0.053015266 -0.040983997
0.112435184 0.15764448 0.10294904 0.22206765 -0.14579429 -0.08396697 -0.015652722 0.011015534
0.02462401 0.0074231434 0.076249905 0.03000282 -0.03392281 0.13660318 -0.05498501 -0.00091176253
-0.034560326 0.013678392 -0.11869411 -0.09688184 -0.07847136 -0.06917483 0.029812977 0.035341676
-0.28749332 0.07110672 0.122077584 -0.022404198 0.14015777 -0.021166718 -0.1531212 -0.01914962
0.1660909 -0.07961646 -0.13419673 -0.0073355427 -0.00029706146 -0.18824504 -0.036571518 -0.014614135
0.01607517 0.15454778 -0.06004982 -0.025396118 0.060781904 -0.14543806 0.043998566 -0.0116844755
-0.08375324 0.096557714 0.10048646 -0.1272785 0.20946041 0.13095644 -0.122772306 0.018750252
0.19031785 0.1219126 0.030125573 -0.1532744 0.069364734 -0.25108874 0.0031220624 0.06384607
0.2180183 0.018261293 0.051644087 -0.17854355 -0.102057144 -0.026045226 -0.008555763 0.07785877
0.10124688 -0.08683442 0.056053802 0.016411815 0.0518391 -0.17590444 0.09145128 -0.0059893243
-0.028804017 -0.0697568 -0.009225109 -0.10970922 0.083514795 0.07395526 0.0847064 -0.10620521
-0.18202701 0.22190832 -0.0040367497 -0.10246418 -0.087115265 -0.08849071 -0.13691711 -0.082748346
0.058515668 0.0718092 0.003075259 -0.09203816 -0.12232733 0.08654666 -0.09286314 -0.15162452
00000000: eda5 efbd 116a 16bd 7467 973c 72af 513d
00000010: 9f6b 843c 141d 413e dac9 f4ba 2a06 38bd
00000020: 1a35 d2bd a4ff 35be 93e9 4b3e db25 423e
00000030: 692f adbd c811 603d 5c07 53bd 2266 ff3c
00000040: aa56 943d 5e99 dcbd 9028 16bd 9537 a83c
00000050: 833f 1b3e 5c10 9dbd ea56 053e bd15 92bd
00000060: e058 a3bc e502 7dbd e8b7 993d f9c6 393e
00000070: 9c7e 4c3d ef59 e33d 6417 443e 6404 06bc
00000080: 6aee e9bd e236 123e a55f ea3d c895 a73c
00000090: ea04 d53b 7824 7bbd 69e3 603e c152 13bd
000000a0: 589a 8b3d 3841 323d 6c2d 733e 385c ed3d
000000b0: dcc4 1dbe 4182 18be 6e03 3a3e ce9e 143c
000000c0: 66ed ddbd cc26 a5bd f667 a13d 9300 e5bd
000000d0: 4dbc 1cbe da20 d83c 70f8 c9bc 81d7 08bc
000000e0: 8691 5fbd b5e2 173d 2ded 233c 5a8b fcbd
000000f0: a807 e03c 2a6d e4bd 0c74 24bd 9af6 b23d
00000100: 4815 853b 4e86 e2bc 8109 7ebd f638 4c3e
00000110: a0ad aa3d de6f b0bc ee9c 053e 06e1 cf3c
00000120: d78e edbd 09ad 7c3c 5764 fcbc e0fe 263e
00000130: 8b4c 80bc 025b 0b3e d4b0 a03d a0b4 99bc
00000140: 8a83 f1bc aae7 41bd 741f 0ebe eaec 993d
00000150: 81d9 febd d701 61be 0e27 013e 352c a6bd
00000160: 5ab3 0dba a161 43bd 184c 01be 9182 37bd
00000170: 4356 f63d cc65 ccbd 4733 57be 925a 97bd
00000180: 90ea b53c 7cef 053d d6ea 053d fd76 033e
00000190: c716 12be 9c62 9d3c fff7 133c 16a8 813e
000001a0: 5789 273e 97e0 adbd a648 2c3d 9704 9539
000001b0: 08b6 62bd 9c77 163e 1aca a0be 8e45 a9bd
000001c0: 911f 8cbc 4672 3a3d 8453 1abd b440 fb3c
000001d0: 9d6a 813e c719 58bd b40e 6b3d 7e24 843d
000001e0: eb1c cdba be78 f63d 5c3c 41bd b340 763d
000001f0: 50d7 363e a3cc c3bc b2b3 0bbc 0d7e f73d
00000200: 9828 d4bd ff52 a83d cef8 573e 6f13 023d
00000210: 5c69 1abe 3ceb b93d e9e3 913b d3a4 aa3d
00000220: 7af2 023e a897 043d 8343 91bd 076b 773d
00000230: 7bfb 3e3d ba21 0c3e b867 513e fe48 6b3c
00000240: 4899 463e ad73 b8bd fae3 b93d 80c2 aabb
00000250: f48d 93bd d345 743d 8926 593d d6de 27bd
00000260: 6b44 e63d 8e6d 213e f2d6 d23d b465 633e
00000270: 194b 15be e0f6 abbd 233a 80bc 807a 343c
00000280: 4bb8 c93c d73d f33b e928 9c3d 79c8 f53c
00000290: a5f2 0abd b4e1 0b3e f637 61bd 5903 6fba
000002a0: 218f 0dbd 561b 603c e615 f3bd fc69 c6bd
000002b0: 98b5 a0bd 89ab 8dbd 583a f43c 6fc2 103d
000002c0: 5332 93be 66a0 913d d003 fa3d 0289 b7bc
000002d0: 8585 0f3e d365 adbc cecb 1cbe aadf 9cbc
000002e0: bc13 2a3e f40d a3bd de6a 09be fe5e f0bb
000002f0: eabe 9bb9 4fc3 40be 04cc 15bd 2070 6fbc
00000300: 13b0 833c c641 1e3e cdf6 75bd 850b d0bc
00000310: 72f6 783d b7ed 14be d737 343d 3e70 3fbc
00000320: d286 abbd 0dc0 c53d d8cb cd3d 4c55 02be
00000330: ca7c 563e 7219 063e 0c70 fbbd 219a 993c
00000340: afe2 423e 50ad f93d e8c9 f63c f7f3 1cbe
00000350: 190f 8e3d b48e 80be 849b 4c3b bac1 823d
00000360: 3040 5f3e b598 953c c088 533d 1fd4 36be
00000370: 5603 d1bd cc5c d5bc 792d 0cbc 6b74 9f3d
00000380: 865a cf3d 3fd6 b1bd ac98 653d 1272 863c
00000390: 3c55 543d 4b20 34be cf4a bb3d 1842 c4bb
000003a0: 67f6 ebbc a7dc 8ebd e924 17bc 3aaf e0bd
000003b0: ce09 ab3d db75 973d 8d7a ad3d 1e82 d9bd
000003c0: 4a65 3abe ef3b 633e b646 84bb bdd8 d1bd
000003d0: 7d69 b2bd 9e3a b5bd 0034 0cbe f777 a9bd
000003e0: 20ae 6f3d b410 933d 498a 493b 817e bcbd
000003f0: c086 fabd 603f b13d 082f bebd 7543 1bbe
