results/DroneAgentup2/DroneAgent/checkpoint.pt (torch, 521579 bytes, 44 tensors)

network_body._body_endoder.seq_layers.0.weight f4 [128, 6]
00000000: e39f 343e 86ff 633e 501c 073e 96e7 823e
00000010: 44aa bd3e 707e 473e 68b9 cd3e 8b9a 2f3f
00000020: 097b 13bf dc2c 5bbf e2de ba3e e401 ccbd
00000030: 6305 74be b00d d1be dd73 173c 0650 20bf
00000040: d30b 0b3f 21db 69bd 3848 973e 7238 debe
00000050: 3b2d 9ebe 3ed5 8e3e 5747 8dbe afa8 7d3d
00000060: 2a39 393f f7c2 87be 594b 0f3f e9fc 0bbd
00000070: da30 9b3d 15ec 543f eaff 7e3e 8e3f ef3e
00000080: 5620 f8be cf9a 31bd 984c c43e e139 693f
00000090: 3d5b 82bf 2b8a c33e 7492 a1bd fc5f 87be
000000a0: 95fe 903c cabf 11bf 0bc1 273e cd6d dabd
000000b0: 848a 133d 8c09 113f 4936 c33d d062 603e
000000c0: 290a 4abe f0d7 873f f000 d2bd ee8c a63f
000000d0: b947 8bbe e548 ecbd c017 4dbe 6769 9ebe
000000e0: 205d 8f3e f5ef 4cbe f394 1dbe 220a 413e
000000f0: 3325 a8be 4f9e c7be 636a 78be 1786 873f
00000100: 386d 9a3e 6e6c c23c fec4 383e 3a0d e03e
00000110: ccbf fabd c217 233f b2a3 c4be 9bda 6abc
00000120: 542e 2b3f 8604 383f 649a 9abe 402a 203f
00000130: 376e 6d3e bca0 753d 098c b43e 46db d83e
00000140: c391 f23d ebf6 ed3e c2a5 e53e cc85 e03e
00000150: a21d 4e3e ea40 823f 3cf6 843e c564 443e
00000160: 8f8c c2be 959b 2b3e a1df 05bf 7e13 06be
00000170: 1ef7 463b c46c 0b3d 77a6 3a3e e4ed 013f
00000180: 2686 a9be 4d97 8a3e 23ec b13e 5cf2 8a3e
00000190: 5077 debd 1ea2 19be a439 213d 0778 23bf
000001a0: 6c9f 83be 4129 9e3e 688d c33e da1b d1be
000001b0: f5aa e93e 3656 ca3d dfe9 11bf bd11 e23e
000001c0: ff4e d33e daf7 18bf 7bcb 4a3e 24ba 9bbe
000001d0: 78fc ca3d bf80 0a3f 6112 293e 19d7 a93e
000001e0: a3af 2abd b585 d7bd df63 d23e f56b e8bd
000001f0: 6721 523e 09ab 0ebf 6d2a 0cbe 597e 0f3e
00000200: 7a20 8f3e 677f 933f d87b 1c3e e540 053f
00000210: 6266 003f 7cb5 923e 347c aa3e 3dc2 b03e
00000220: 91f6 df3e 634e 1ebe 5614 0e3e 1329 ac3f
00000230: 19c7 4d3f 824a 9e3d c4ef eebe 5b15 b13e
00000240: 9a8b 1ebf 1d78 02bd 2a2a 4bbe 1518 9f3e
00000250: 3ebf b73e a5ee cfbe 2b7a cd3e c3e0 debe
00000260: 8883 c8be 0de4 28bd 6ae3 153e 3e59 db3e
00000270: e76f 27bf 088a bd3e 9b3d d4be dc61 3f3f
00000280: 00be 95bc 063f ae3e 4fe9 58bd 7ec0 a23e
00000290: 0c96 48be 8c95 af3e 4f37 2ebf e116 dd3e
000002a0: b85c 72bd f4bb 1fbe 9dda bcbe 4e23 babd
000002b0: 554b 663f 0cd6 90be 69ea f2be 3643 5fbd
000002c0: 9435 be3e d336 953e 986f 5fbe 5d3c 0f3e
000002d0: fd18 d9be 9b89 9dbe c549 ccbe 3bfa 37bd
000002e0: 3ee4 e7be 856b f9bd 1bcb c3be fdcc 523e
000002f0: 897f 533b a9b1 1d3f 7bae 3dbf da49 8cbe
00000300: c6da 48be 8811 4c3e 2bcc 94be 5595 0cbe
00000310: eb18 293e d343 7cbd c67a 4dbe b1f8 72be
00000320: 21ac 27bf 5435 abbf 0b9d 58bd 8c14 adbe
00000330: 207c b63e 4cee f6be 198b 363e eb80 b8bc
00000340: d218 99bd af5e 4d3e 745b 71be f6f0 d33e
00000350: ad7a 7f3d 99e0 3fbe 2f75 2e3e 34e5 d53c
00000360: 4680 0dbe e5e2 90be 04e1 493e 2ba9 40bf
00000370: 344d 213f a001 0f3d 075d 3ebe c5df a1bd
00000380: 24cf fabe d14b e6be c1f2 c93d 9998 f2be
00000390: e854 3d3f 7e62 db3e e3ca eebe 0916 3abc
000003a0: 7952 ae3e d66e a83c 836e 783f ad7e 78bf
000003b0: bbaf 39bf 2b39 fb3e cf72 933e 423f 4d3e
000003c0: 1901 823e edc5 dfbd 0172 45be f6e4 a43c
000003d0: ee36 c93d 15d5 84bc 7ca6 12be 7c55 23bf
000003e0: c699 47be 472d 21bf f694 07be 933f 4dbf
000003f0: 8476 44bf 3d77 fabe ae0e cebe 73d1 463e
0.17639117 0.22265443 0.13194394 0.2556731 0.37043965 0.19481826 0.40180516 0.6859519
-0.5760961 -0.85615325 0.3649817 -0.09961298 -0.2383018 -0.40830755 0.009243933 -0.62622106
0.5431492 -0.057093743 0.29547286 -0.4340244 -0.30893883 0.27897066 -0.2759349 0.061928447
0.7235285 -0.26515934 0.55974346 -0.03417674 0.07577677 0.8317273 0.24902311 0.46728176
-0.4846217 -0.043360528 0.38339686 0.9110394 -1.0184094 0.3819135 -0.07889262 -0.26440418
0.01769952 -0.5693327 0.16382234 -0.10665474 0.03602077 0.5665519 0.095318384 0.21912694
-0.19730438 1.0612774 -0.10254085 1.3011758 -0.27203158 -0.11537341 -0.20028591 -0.3093979
0.28000736 -0.20013411 -0.15388851 0.18851522 -0.3284088 -0.38987967 -0.24259333 1.0587796
0.30161452 0.023733344 0.18043897 0.4376009 -0.122436136 0.63708127 -0.3840614 -0.014334346
0.66867566 0.718819 -0.30195916 0.6256447 0.23186575 0.05996774 0.35263088 0.42354792
0.11844208 0.46477446 0.44853026 0.4385208 0.20128492 1.017606 0.25969112 0.19179066
-0.37997863 0.16758569 -0.52294356 -0.13093373 0.0030359696 0.034039274 0.18227564 0.5075362
-0.3311016 0.27068558 0.3475047 0.2713803 -0.10862601 -0.15003249 0.03936161 -0.6385502
-0.25707567 0.3089085 0.38193822 -0.40841562 0.45638242 0.09879725 -0.56997484 0.44154158
0.41271207 -0.5975319 0.19804184 -0.30415452 0.09911436 0.541027 0.16510917 0.3317192
-0.041671406 -0.105235495 0.4109182 -0.11348716 0.20520554 -0.5572973 -0.13688059 0.14013042
0.27954465 1.1523255 0.15281618 0.52052146 0.50156224 0.28654087 0.33297884 0.34523192
0.43742803 -0.1545959 0.13874945 1.3450035 0.80381924 0.07729055 -0.46667302 0.34586605
-0.61931765 -0.03185283 -0.19840303 0.3107306 0.35888094 -0.4061176 0.4013227 -0.43530855
-0.3916285 -0.04123311 0.14637533 0.42841524 -0.65405124 0.37019372 -0.4145325 0.74758697
-0.018279076 0.34032458 -0.052956875 0.31787485 -0.19588488 0.34293783 -0.68053144 0.43181518
-0.059170455 -0.15599042 -0.3688554 -0.09088765 0.899587 -0.28288305 -0.47444466 -0.054507457
0.37150252 0.2914339 -0.21819913 0.1398787 -0.42401877 -0.30769047 -0.39900032 -0.044916373
-0.45291322 -0.12178711 -0.38240895 0.2058601 0.0032272062 0.6159921 -0.7409436 -0.27400094
-0.19614705 0.19928563 -0.29062018 -0.1372884 0.16513412 -0.06158812 -0.20066366 -0.2372768
-0.6549702 -1.337565 -0.052884143 -0.3380474 0.35641575 -0.4822868 0.17826499 -0.02252241
-0.07475437 0.2005565 -0.23570043 0.41394776 0.062372852 -0.18738021 0.1703689 0.02611027
-0.13818464 -0.28298107 0.19714743 -0.7525813 0.6300843 0.03491366 -0.18590175 -0.07904009
-0.4898616 -0.44979718 0.09860755 -0.47382048 0.7395768 0.4284858 -0.46639165 -0.011357793
0.34047297 0.020560663 0.9704363 -0.9706829 -0.7253377 0.49067053 0.2879853 0.20043662
0.25391462 -0.10926423 -0.1928177 0.020128708 0.0982493 -0.016214887 -0.14321321 -0.63802314
-0.19492254 -0.6295971 -0.13240418 -0.8017513 -0.7674334 -0.48919097 -0.40245575 0.19415836

network_body._body_endoder.seq_layers.0.bias f4 [128]
00000000: 13c5 323c 523c abba 6db0 32bc 14d5 463c
00000010: 3691 eebc 6fab 383b bb2e 073c 65e6 ba3c
00000020: 8188 883c 1a1b a1bc 9a09 aabc a6ff bc3c
00000030: 90c7 9a3c ec47 a53c c3e6 873c 6156 a8bc
00000040: e30b 0b3c 7578 e03c b6ae 9f3c 6196 e9bc
00000050: de73 a1bc af54 dc3c 1c07 9e3c 999a aa3c
00000060: 3b51 09bc 10a8 efbc 7893 813c 6989 c93c
00000070: 23ac 6cbc cc3f 60bc cc95 743c 0ad5 a7bc
00000080: 5775 e9bb 35e7 23bc cd83 893c 4e89 c63c
00000090: 5403 9abc c2de bebc 7b49 a23c 95a8 3d3c
000000a0: eb63 bfbc 437a c43b 92d1 8d3c 8424 89bc
000000b0: bf1d 363b cd10 263c 7cd3 abbc 6a38 0ebd
000000c0: 5254 b63c fdb9 e33c e05e ae3c 478f 62bc
000000d0: b2b3 07bc 65fa c23c 6713 da3c 50b4 a63c
000000e0: 4683 803c a4d5 3f3c 3c01 40bc 405d 633c
000000f0: c145 623c 70eb 96bc de06 c3bb d257 883b
00000100: 8379 bb3c c4e7 82bc c0ab 94bc 0afc b63c
00000110: c5ef f5bb 7f8a 8c3c 6c78 b33c f7c2 b03c
00000120: 6f0e 90bc 4442 b63c 3878 0fbb 7cc5 aa3c
00000130: f4cd 583c 48a6 bebc b693 71bc 8930 a53c
00000140: c4a3 d43c a487 953b 575b b13c 1f5a e9bc
00000150: 5443 b4bc 739d b93c 8630 af3c e916 cfbc
00000160: d959 f23c 055d af3c bde6 4f3c 3ad6 bb3c
00000170: fac3 43bc c346 893c a596 0ebd 8573 64b9
00000180: 98a3 87bc 0075 913c 3f78 783c 945c b13c
00000190: 49ca 9a3c 2ffd 833c 4714 f5bb 12cf a3bc
000001a0: f46f c43c ee03 8ebc 649f b7bc 3a0a 78bc
000001b0: e472 ae3c eb97 8ebc 4e48 2abc b744 89bc
000001c0: 5abe cd3c 5e96 78bc 7c69 acbb b1db b03c
000001d0: a29d d1bc 0aa2 a8b9 b75e 9b3c 97ad 30bc
000001e0: 3ab6 dc3a 3cb5 a3bc 381a a4bc c947 963c
000001f0: 6dbe b23c 5e2a 54bc 8f76 bdbc 5217 383c
0.010911244 -0.0013064242 -0.010906321 0.012135763 -0.029121976 0.0028178354 0.0082508875 0.022814939
0.016666653 -0.019666243 -0.020756532 0.023071121 0.018893987 0.020175897 0.016589528 -0.020549001
0.008486721 0.027401188 0.019492488 -0.028514089 -0.01970857 0.026895849 0.0192905 0.020825671
-0.008381183 -0.029254943 0.015817389 0.024601655 -0.0144453375 -0.013687085 0.0149282925 -0.020487327
-0.0071245837 -0.0100038545 0.01678648 0.024235394 -0.018800415 -0.023299579 0.019810429 0.011575838
-0.023363074 0.00599602 0.017311845 -0.016741045 0.0027788726 0.010135842 -0.020974867 -0.03472177
0.022257004 0.027798647 0.021285474 -0.013828105 -0.008282589 0.023801038 0.02662058 0.020349652
0.015687596 0.011708651 -0.011719044 0.013877213 0.013810576 -0.018422812 -0.0059517464 0.0041608596
0.02288509 -0.015979655 -0.018148303 0.022336978 -0.0075053894 0.017155884 0.021908008 0.021577341
-0.017585007 0.022248395 -0.0021891724 0.020846121 0.013232697 -0.023272648 -0.01474469 0.020164745
0.025956996 0.0045632888 0.02165 -0.028485356 -0.02200476 0.022658085 0.021385442 -0.02527948
0.029583858 0.02140666 0.01268929 0.0229293 -0.01194858 0.016757375 -0.034811635 -0.00021786809
-0.0165575 0.017755985 0.015165388 0.02165059 0.018895285 0.016111938 -0.007479224 -0.0199962
0.023979165 -0.017335858 -0.02241487 -0.015139157 0.021295018 -0.017406425 -0.010393215 -0.016756399
0.02511518 -0.015172569 -0.005261598 0.021589132 -0.02558786 -0.00032164186 0.018966062 -0.010783575
0.0016838976 -0.01998388 -0.020032033 0.018344777 0.021819318 -0.012949554 -0.023127822 0.011236029

network_body._body_endoder.seq_layers.2.weight f4 [128, 128]
00000000: 7774 393e 15d1 913c 1c2d c33c b664 9a3c
00000010: dd20 cdbc debf 293d 4879 c83d b650 0d3c
00000020: cb38 96bd d7d1 11bd 37e3 c0bd 12f7 57bc
00000030: eab9 093e c003 27be d061 1e3d b9e7 d83d
00000040: 6777 6e3d 4fe3 013e 13a9 e4bd 0519 eabd
00000050: 9616 f13d be99 713d 9988 a5bd e7c4 0dbd
00000060: 935e 033e e136 de3c 0b40 58bd 96f1 deba
00000070: ea66 7cbc ad5e d73c d7c8 bc3c 5247 553d
00000080: 19f4 eb3c a16a 793d d337 173c cab2 143c
00000090: c17d 1fbe 901c 4fbd 5403 f83d f6de 49be
000000a0: 02c6 08be 646d 8dbc 6b5b 94bd 04c6 18bd
000000b0: f256 0fbd 3c69 c63c cd15 c13d 5833 2fbc
000000c0: 6ae4 653d 007d 01be b79d 2cbd cba0 28be
000000d0: 4287 56bd 505f 0f3d 7d35 033e 408d 093d
000000e0: ee11 4fbe 4d8a 3fbd 566c a53a 616b 8cbd
000000f0: 2728 15bd 163d 283e 969b cebd ffab b5bd
00000100: 6225 17bd e5fc c9bc d562 f4bc 6768 a8bb
00000110: 46d2 1cbe c79b a03d 3e41 54bd 1b78 453d
00000120: 28bf f5bc 5840 19be 9a76 123e 9f5f ddbb
00000130: 1e02 8ebb e28a 83bd 6c21 b2bd ab85 2abe
00000140: ae23 c8bd 489a 06ba 3ab9 f13b 355d c03d
00000150: ec3b e4bd f37b 1abd 627b fe3c a8a3 6f3d
00000160: 542e a73d 15ab 4cbc 699f 8fbd 4ece f4bd
00000170: eaef 093e 5771 06bd c082 c53d 29ca 00bd
00000180: 282f 8ebd 5584 5a3b adc3 823c 17c2 3dbd
00000190: 5f95 e93c f911 c9bd 47d1 b33c 1d22 0b3e
000001a0: e2ff 3e3d 1aec e8bd 1741 c1bd c4a6 393c
000001b0: d969 2abc 2275 163d 82b1 b2bd 83c3 60bd
000001c0: 3bce 24be 957b ff3d fdd6 ec3b 69da d63c
000001d0: 3742 063e 8ca1 283e 5b53 29be f197 d13d
000001e0: 32a5 7d3d 0156 5cbc 94c2 aabc 7420 353d
000001f0: 7391 cbbd 8570 a0bd d7fd 51be 13b5 0cbe
00000200: 0ef8 be3d 50aa 31bd 0032 16be 45c5 ccbd
00000210: 9cff ed3c 5099 b2bb 6b1d 063d 0744 e2bd
00000220: d6f0 143e 0baf 4abd 26de 21bd 26d7 87bd
00000230: dc0e b63d 4866 c1bd 99db 50bd 2533 073e
00000240: 9d8f b3bd 82aa 1cbd a9c0 61bd 051f 8b3d
00000250: 32d7 793c a141 003d f3c9 66bd 0e49 1b3d
00000260: 06cb 6d3d 21fd 17be b2a2 4e3d 2177 6f3d
00000270: 31d3 553d 5476 6b3a 6553 c2bc 742c 973d
00000280: 0b11 013d 364e d03d 5ab5 4d3d 9e25 05be
00000290: 3e33 313e 002a 0739 2451 99bd 773c dd3d
000002a0: 6178 1dbd 4864 b73b 2ee7 853e c39c b2bc
000002b0: 433e 27bd 0683 bb3c 3929 123d c13f 483d
000002c0: 7e51 073d 38a5 1dbc d592 2dbd a4f5 6a3d
000002d0: 60d6 06bd 6646 33bd 03fc fcbd 01b4 163e
000002e0: e0e3 e3bd f90f d33d c763 9f3d a4e0 45be
000002f0: 5c6d c9bc f78d 273d a26d a9bc 6cf2 09be
00000300: da2f 74bd fa08 2fbd cf21 2e3c 4692 103d
00000310: f600 ec3d 6a75 173e 58d8 f43d 8213 273c
00000320: 2bce 5cbd 6ef7 38be 692a 9dbd 465a acbc
00000330: 914c 27bb 32a3 583d 959c 583d 1677 ad3c
00000340: 3273 0b3e 7d05 19bc fa9f 09be a535 4a3d
00000350: 521b 9dbc 9fd4 f1bd 02da ffbc ba1e 78bc
00000360: 32a0 48bd 0b55 7f3b e147 a5bd 65bc a13d
00000370: 13a3 b83d ec53 e7bc 13a3 ae3d 0b2b abbc
00000380: da54 1abd 5a08 14bd 24ad 16be b981 603d
00000390: b8e9 43bd 9d2f 4b3d 3d19 d53c 6652 093e
000003a0: f39d abbd d30c 0c3d 801a 783d d4a8 76bd
000003b0: 9b9b 9dbd 38a4 1d3d 86cc 9e3d 0516 db3d
000003c0: ba15 813d 96af e53d 59c6 f0bc 301b b3bd
000003d0: d0a1 9dbc c4b0 3b3d a65a 293d 8819 163d
000003e0: e348 f1bd 2fde 42bd 4654 d8bd 9f6f 6cbd
000003f0: f644 a2bd ea0e 1c3c 2dca 0f3e 206d 0fbe
0.18110834 0.017799893 0.02382522 0.01884685 -0.025040084 0.041442744 0.097887576 0.0086252
-0.07335051 -0.03560051 -0.09418338 -0.013181465 0.13449827 -0.16310024 0.0386675 0.105910726
0.05821934 0.12684368 -0.11165061 -0.11430553 0.11771886 0.05898451 -0.080826946 -0.03461161
0.12829046 0.027125778 -0.05279545 -0.0017009254 -0.015405396 0.026290262 0.023044987 0.05206997
0.028802918 0.060892705 0.009229618 0.00907583 -0.15575315 -0.05056435 0.1211001 -0.19713959
-0.13356784 -0.017264076 -0.07243999 -0.037298217 -0.034995027 0.024220102 0.09427986 -0.010693394
0.056126036 -0.1264534 -0.042142596 -0.16467588 -0.052375086 0.035003006 0.12813373 0.033581972
-0.20221683 -0.046762753 0.0012620788 -0.068564184 -0.036415245 0.16429552 -0.100882694 -0.08870696
-0.036900885 -0.024656722 -0.029832283 -0.005139399 -0.15314588 0.07842212 -0.051820032 0.048210245
-0.029998377 -0.14965951 0.14303055 -0.0067557837 -0.0043337485 -0.06422974 -0.08697781 -0.16652553
-0.0977243 -0.0005134684 0.007376817 0.09392778 -0.11144242 -0.037715863 0.031064693 0.058505684
0.08163133 -0.012491961 -0.07012827 -0.11953412 0.13470426 -0.032822933 0.09644079 -0.031442795
-0.06942588 0.0033343036 0.015962446 -0.046327677 0.028513609 -0.09817881 0.021950377 0.13587232
0.046630748 -0.11373158 -0.09436243 0.011331264 -0.010401213 0.0367328 -0.08725263 -0.054873955
-0.16094296 0.12474743 0.007227777 0.026227193 0.13111196 0.16467875 -0.16535704 0.10234059
0.06192512 -0.013448239 -0.020844735 0.044220403 -0.099398516 -0.078339614 -0.20506988 -0.1374095
0.093246564 -0.043375313 -0.14667511 -0.09998564 0.029052548 -0.005450405 0.0327429 -0.110481314
0.14544997 -0.04948334 -0.039518498 -0.06632833 0.08889553 -0.09443337 -0.050990675 0.13203104
-0.087676264 -0.038248546 -0.055115376 0.06793026 0.0152490605 0.03131259 -0.056344938 0.037911467
0.058054946 -0.14842655 0.050448127 0.05846322 0.05220336 0.0008982171 -0.023721406 0.07381526
0.031510394 0.101711676 0.05022178 -0.13002631 0.17304704 0.0001289025 -0.074861795 0.108025484
-0.03844488 0.0055966713 0.2615294 -0.021803265 -0.04083086 0.022889625 0.035683844 0.048888925
0.0330367 -0.009621911 -0.042376358 0.057363167 -0.032919288 -0.04376831 -0.12352755 0.14717104
-0.11127448 0.10305781 0.07782703 -0.19323975 -0.02458828 0.040906873 -0.02068216 -0.13471383
-0.059615947 -0.04273317 0.010628178 0.035295747 0.11523621 0.14790884 0.11955327 0.010197522
-0.053907555 -0.18063137 -0.07674105 -0.02103914 -0.0025527815 0.05289001 0.052883703 0.021174949
0.13618162 -0.009339687 -0.13439932 0.049367566 -0.019178066 -0.118081324 -0.031231884 -0.0151440445
-0.0489809 0.0038960602 -0.080703504 0.078972615 0.09015479 -0.02823826 0.08527198 -0.020894548
-0.037678577 -0.036140777 -0.14714485 0.054811213 -0.047830313 0.049605954 0.026013011 0.13410339
-0.08379736 0.034191918 0.060572147 -0.0602196 -0.07695695 0.03848669 0.077538535 0.10697559
0.06302972 0.11215131 -0.029391455 -0.0874542 -0.019242197 0.045822874 0.041346215 0.036645442
-0.1178148 -0.047575172 -0.10562949 -0.057723638 -0.079233095 0.00952504 0.14041968 -0.14006472

network_body._body_endoder.seq_layers.2.bias f4 [128]
00000000: 0274 72bc 9883 7bbc 140d a13c 04c5 70bc
00000010: 2630 143c af60 bc3c e463 a93c 540b c43c
00000020: 0248 8e3c cb02 7abc a50f a83c 192f 42bc
00000030: b877 a13c e725 68bc 62d5 a83c 233e ba3c
00000040: 62d9 a7bb 1627 b73c 935f 993c 9577 08bc
00000050: 7388 b73c 6fa3 84bc 7f82 a23c 0d26 873c
00000060: a5e4 b73c 8bec 5bbc ac65 71bc 5d9b 08bc
00000070: 46ba 41bc 9417 ba3c 5653 933c 48a9 5abc
00000080: 7baa 7bbc 15db 9b3c 9356 833c c15b 31bc
00000090: bd29 67bc 9820 5d3c 446a edbb b153 24bc
000000a0: 4eec 5fbc f47d 52bb f4ea bc3c 56c6 babb
000000b0: 9f27 da3c 5373 53bc 3757 3b3c 7900 61bc
000000c0: b754 9d3c 3d77 c03c 3471 973c 2a1f c6bb
000000d0: 3bae 48bc 3259 75bc 70ab 88b9 c753 583a
000000e0: 5d2d 673c 49cf 0ebc 770e f5bb 2bfd 52bc
000000f0: 5f92 893c 20f7 80bc 25fb 9e3c 03d4 b5bb
00000100: 6b56 4abc 7183 80bc 6194 813c d1fc e138
00000110: a896 34bc e0a8 9b3c 1048 c33c 80c1 50bc
00000120: f289 6abc 096c 8abc 9aec 553c fd76 26bc
00000130: dc10 65bc 33c2 633c 4503 3f3c dac3 1cbc
00000140: 5372 3abc 274d 9b3c f2b6 e03b 183d b13c
00000150: acba 6abc e9a2 69bc 6a58 14bc 18f7 58bc
00000160: a142 a23b f6f4 62bc b659 57bc 2333 5abc
00000170: 7499 fdbb 303a b4bb 874f d13c 7cd0 7f3c
00000180: 5cf5 553c efb6 dd3c 69ca 2a3c 0062 b63c
00000190: 6caf 44bc 960b 6d3b eaa7 62bc 5064 b73c
000001a0: 62c2 843c e28b a1b9 cc50 72bc 13a0 853c
000001b0: 8244 46bc a617 803c d6a7 b93c bd12 203c
000001c0: 89c7 74bc 0e89 8f3c 7e9b c63c 7fa8 153c
000001d0: a12a 5bbc a9ac 74bc 72d9 34bc a5f4 d13c
000001e0: f24b 8a3c 38bc 08bc 2307 a73c ad79 03bc
000001f0: 4d79 aabb ef91 eaba bf62 263c 7d3e 973a
-0.014798166 -0.015351199 0.019659556 -0.01469541 0.009044683 0.022995321 0.020677514 0.023931183
0.01736832 -0.015259455 0.020515272 -0.011852049 0.019710407 -0.014169193 0.020609561 0.022734707
-0.0051223496 0.022357505 0.018722331 -0.008329292 0.022403931 -0.016191212 0.019837616 0.016497636
0.022447893 -0.013423095 -0.014733713 -0.008337823 -0.011824196 0.022716321 0.017984074 -0.013346024
-0.01536047 0.019025365 0.016032493 -0.0108250985 -0.014109072 0.0134965405 -0.007245334 -0.010029719
-0.013667179 -0.003211853 0.023061253 -0.005699913 0.026630221 -0.012905913 0.011434368 -0.013733023
0.019205434 0.023494357 0.018486597 -0.0060461955 -0.012248571 -0.014974879 -0.00026067672 0.000825223
0.014109937 -0.008716413 -0.007478531 -0.012877743 0.016793428 -0.015742838 0.019406864 -0.0055489554
-0.012349705 -0.015687676 0.015817823 0.00010775927 -0.011022247 0.019001424 0.023838073 -0.0127414465
-0.014315115 -0.016897218 0.0130568985 -0.010160205 -0.01398107 0.013901281 0.011658494 -0.009568179
-0.011379796 0.018957688 0.0068577463 0.021635577 -0.014326733 -0.014260032 -0.009054283 -0.0132425055
0.0049517904 -0.013852349 -0.013143947 -0.013317856 -0.0077392403 -0.0055001006 0.025550617 0.015613671
0.0130589865 0.027064769 0.010424235 0.022263527 -0.012004714 0.0036170236 -0.013833979 0.0223867
0.01620597 -0.00030812534 -0.014789771 0.01631168 -0.0121012945 0.015636276 0.022663038 0.009770093
-0.014940151 0.017521407 0.024244066 0.009134411 -0.013376863 -0.0149337435 -0.011038171 0.02562935
0.016881917 -0.008345656 0.020389145 -0.008024615 -0.0052024485 -0.0017896275 0.010155379 0.0011539009

action_model._continuous_distribution.log_sigma f4 [1, 4]
00000000: 20d3 89bd 367a 7bbd 9814 84bd b0d1 77bd
-0.06729722 -0.061395846 -0.064492404 -0.060502708

action_model._continuous_distribution.mu.weight f4 [4, 128]
00000000: 3cee 9f3c 6619 2b3b 37dd 8f3a 9e37 ca3b
00000010: 8636 ca3c 1099 fdbc 0dea a93b cd38 073c
00000020: 9b74 cf3a fd3f 093c 72ad ac3b 8e37 3dbd
00000030: 3078 9eb8 4e20 88ba fcec 98ba c638 4ebc
00000040: 41da 86bc 8653 9fbc 5974 983c 279f 833c
00000050: 655b 71bd 116e a1bc 3b58 90bc 2da4 983c
00000060: 5a8d bc3b 5743 8d38 5200 873b 4688 2a3b
00000070: f84d 77bc c385 4bbc 0858 073c 0a01 e9bb
00000080: 790c 593c 055c b53b a3ee 9a3c a6d1 eebc
00000090: e9d1 07bb d150 563c 0993 3c3b 54b4 61bc
000000a0: cae1 023c 7cc6 aa3c 0293 f43b 91b2 0ebd
000000b0: e92d c9bc 6dc0 d7bb f2ec 173d 7dd1 d23c
000000c0: 45ef 253c c16d 1cbc 47c0 c13c 2ea1 1dbc
000000d0: bd7b d4bc 24a2 023c fbcc 4fbc 93ca c83c
000000e0: dc51 a33c 5464 18bc 9003 92bb 5177 9e3b
000000f0: 1da7 ab3c 515a 123c d33e a4bb d3ac 68bc
00000100: 5e42 563c 99e8 583c 8f00 8e3c 8e9a d0bc
00000110: 44c1 28bd a23b 483c b128 15bd 3718 1abc
00000120: e0d1 e93b 62f5 f93c b24e 17ba e6d1 fcbc
00000130: 6587 073b 9d0e c63a 72b8 733c ae50 193c
00000140: 914a 403c fc13 7e3b d3ad 843b 6716 3ebc
00000150: af2d a03c a37e 4abc f104 723c 3066 a73c
00000160: 021a b8bb bc75 3dbb 63b5 0fbc 2e8c 8fbc
00000170: 54ce eb3c e710 bfbc 8046 94bc e197 453d
00000180: 69b1 5c3d 668b 3fbc 612a fbbb fd23 70bb
00000190: bedc 973c 75fd b53b dd58 0a3c d4e2 c139
000001a0: 1af8 b23c beaa eebc 439c acbc 5591 923c
000001b0: 4f4b ba3b ab1f 803d 811c cabc 1189 c9bb
000001c0: d7a7 e53c 25b6 0eb7 409e 4c3b 3a73 3c39
000001d0: 1e9c 673c 7e38 293c 3273 dc3c 3ca2 d8bc
000001e0: fbfd 95bc 8a0e 003d ab26 aeba 22f9 cc3b
000001f0: 101e a33c cbb5 debc 4b04 debc 2f14 04bc
00000200: 123b d9bb 0340 e13b 6349 093b 0741 f33b
00000210: a65b 37bc 56d2 dc3b 6ec9 f3bc d46b 8bbc
00000220: 9191 953c c610 1138 f91e 223c 0a07 9b3c
00000230: 436b 5f3c 768d 023d 30fa 0c3c d771 b3bb
00000240: f38a 363c 3406 3b3c 4205 cdbc e0f2 35bc
00000250: 191a 3fbc 5ff3 eabc 33a6 a83b 6156 423c
00000260: 5659 98bc 8573 d63c ecaa ab3c 8045 343c
00000270: cf05 21bd a4d6 f4ba 1cab 9abc 1b1a 183c
00000280: 3e25 4d3c 09da 1f3c 107c 0a3d 3bfe d1bc
00000290: cd1d d9bc b449 1c3c 7926 29bc f7a4 183c
000002a0: bf9c 27bc 7337 d4bc e4eb 1fbc a877 963b
000002b0: 703a 4c3c faf8 3c3b 5526 4abc b937 243d
000002c0: ac5a 9a3c c815 0b3c dc47 483b 3a65 a6bc
000002d0: dccc a1bc 0a2c 273c befb cebc b1f7 22bd
000002e0: 5b70 443b d817 c4bc 323b 07bd b7b0 873c
000002f0: dbeb 5cbb bc7a 28bb c0cc 6a3c bb01 eeba
00000300: 92fe 9e3c 56c2 293c e7c2 263c b703 abbc
00000310: 8fb4 5fbc 87f6 5539 c6a3 e83b 5737 f23a
00000320: 4bff fd3b 4e3a d1bc ff4b f43c 4732 c7bc
00000330: 1dc1 36bb 7dca a03c 6bdf 2d3c 4e37 07bd
00000340: 8082 0f3c c155 6bbc c191 0fbc 70af a93c
00000350: a203 c13c 4d22 bbba 1f55 233c f6a9 f2bc
00000360: b933 d73c 768d 55bc cc61 8cbc ee64 5abb
00000370: 74d8 013d 9dcd bfbb 8737 8b3c 46dd b23c
00000380: cc6c bebb 04c7 7bbc f826 9f3b e770 8fbc
00000390: 13aa b7bc ce2a 1c3a 9fbc 123c 7441 933c
000003a0: 83e8 233a 21cf ac3c 4dec b1bb 70f8 f4bc
000003b0: b0cf a8bc 2e7a a9bc b956 1239 84e9 403d
000003c0: 6540 c73c 58c2 d53b 5ac4 903c bd60 1bbc
000003d0: 39af 383d 254b 013c d9d1 243d b6e4 47ba
000003e0: cd26 85ba 945c 893c 072c 3dbd c754 63bc
000003f0: 10df 4e3c ab86 7d3c 3a84 c1bc 4fa7 bebb
0.019522779 0.0026107668 0.0010975961 0.006171181 0.024684202 -0.030956775 0.0051853717 0.008253288
0.0015827598 0.008377072 0.0052696997 -0.04619556 -7.556414e-05 -0.0010385604 -0.0011667307 -0.012586778
-0.016461493 -0.019449007 0.018610166 0.0160671 -0.05892505 -0.019705804 -0.017620197 0.018632973
0.005754155 6.735947e-05 0.004119911 0.0026021167 -0.015094273 -0.012422028 0.008260734 -0.0071107196
0.013247603 0.005534651 0.018912619 -0.029152703 -0.0020724481 0.013080792 0.0028774163 -0.013775904
0.007988403 0.020846598 0.0074638138 -0.034838263 -0.024558024 -0.0065842182 0.037091203 0.025734657
0.010127847 -0.009547652 0.023651255 -0.009620948 -0.02593791 0.007973228 -0.0126831485 0.024510657
0.019936495 -0.009301264 -0.004455991 0.004836001 0.02095371 0.008932666 -0.005012372 -0.014201361
0.013077347 0.013239049 0.01733425 -0.025464322 -0.041199937 0.012221249 -0.03641576 -0.009405187
0.0071356148 0.030512515 -0.00057719194 -0.030861806 0.0020680067 0.0015110556 0.014875518 0.009357614
0.011736528 0.0038769236 0.004049042 -0.011602021 0.019553034 -0.012359294 0.014771686 0.020434469
-0.0056183347 -0.0028909286 -0.008771273 -0.017522898 0.028784908 -0.02332349 -0.018100023 0.048240546
0.05388013 -0.01169095 -0.007664964 -0.0036642544 0.018537875 0.005553896 0.008444038 0.0003698083
0.02184682 -0.02913415 -0.021070605 0.017891565 0.005685247 0.0625604 -0.024671795 -0.006150373
0.028034134 -8.506268e-06 0.0031222254 0.00017972002 0.014136342 0.01032841 0.026910398 -0.026444547
-0.018309584 0.031263866 -0.001328667 0.006255285 0.019911796 -0.027186295 -0.027101656 -0.008061453
-0.006629356 0.006874086 0.0020948283 0.0074235233 -0.011191284 0.006738941 -0.029759135 -0.01701919
0.018257888 3.4586315e-05 0.00989508 0.018924255 0.013636413 0.03187319 0.008604571 -0.0054762173
0.0111415265 0.011415053 -0.025026921 -0.011105269 -0.011663937 -0.028680502 0.0051467656 0.011861415
-0.018597286 0.02617813 0.020955525 0.011002898 -0.03931218 -0.001867969 -0.01888042 0.009283568
0.012521086 0.0097565735 0.03380972 -0.025633922 -0.026503468 0.009539057 -0.010324114 0.009316674
-0.010230242 -0.025905346 -0.009760831 0.004591901 0.012465104 0.0028834925 -0.012338241 0.040092204
0.018842064 0.00848908 0.003056041 -0.02031194 -0.019751005 0.010203371 -0.025266524 -0.039787
0.0029974196 -0.02393715 -0.033015437 0.016563756 -0.0033709917 -0.002570792 0.014331043 -0.0018158475
0.019408498 0.010361275 0.010178304 -0.020875795 -0.013653888 0.00020405102 0.0070996014 0.0018479627
0.0077513806 -0.025540497 0.029821394 -0.024315966 -0.00278861 0.019627804 0.010612349 -0.033011727
0.008759141 -0.014363707 -0.008762778 0.020713538 0.023561303 -0.001427719 0.009969025 -0.02962206
0.02626978 -0.013034215 -0.017136477 -0.003332432 0.031700566 -0.0058533684 0.016994251 0.021834027
-0.0058113094 -0.015367273 0.0048569404 -0.01750989 -0.022419965 0.0005957306 0.008956104 0.017975546
0.00062526035 0.02109486 -0.0054297806 -0.02990362 -0.020606846 -0.020688143 0.00013955952 0.047097698
0.024322698 0.0065234117 0.017671753 -0.009483513 0.04508898 0.007891451 0.04023919 -0.0007625328
-0.0010158658 0.016767778 -0.046184566 -0.013875193 0.012626424 0.015474002 -0.02362262 -0.0058182846

action_model._continuous_distribution.mu.bias f4 [4]
00000000: f15d a339 1ae3 afba f922 5dbb 359e 8a3c
0.00031159775 -0.0013419122 -0.003374277 0.016921142

exp_avg f4 [128, 6]
00000000: 45d2 24b6 6948 bfb9 b575 98b7 5d2e 8ab6
00000010: 1017 00b9 a402 4eb7 3fe7 59b6 10e3 fcb9
00000020: 7d8f c9b7 d1ac a4b5 6b81 29b9 06f8 76b7
00000030: 1f05 ed34 5289 8938 5c3e 5b36 69d3 1f34
00000040: ca62 b837 ed58 0536 00e8 ccb3 a0cd 6db7
00000050: cb89 3db5 5cdd c6b3 3c53 9fb6 0d80 f2b4
00000060: 649a ef34 0e09 8b38 00a2 5d36 2bc7 5135
00000070: 2329 ba37 55f2 1c36 8ef3 7635 9c4c 0f39
00000080: 0f6e e436 6d28 22b5 387a 4038 5330 2136
00000090: 957e 43b6 69e1 e2b9 16d5 b4b7 327d 26b6
000000a0: bb00 18b9 1260 6bb7 9411 88b5 01ea 1db9
000000b0: 21ba fbb6 3c2b 94b5 c28e 53b8 2597 a5b6
000000c0: e841 b4b6 7f32 51ba f6bc 26b8 d973 a6b6
000000d0: 9925 8cb9 e6c9 ddb7 a588 4934 b2e3 e937
000000e0: 316b ba35 eebc 6c34 9fab 1c37 e322 7535
000000f0: d862 25ae 3f26 c0b1 f41d 99af fe50 0f34
00000100: d88b 45b2 e7b3 2634 8241 c1b6 5248 60ba
00000110: 03c3 32b8 f064 dbb6 2f3b 96b9 ed10 eeb7
00000120: af93 bcb4 17da 5ab8 dc6e 2eb6 90e5 39b6
00000130: 617f 91b7 565e 74b6 8765 bfb6 ed1f 5eba
00000140: bc0a 31b8 d0ee d0b6 99cb 94b9 3303 ebb7
00000150: cd25 a3b6 2e57 3dba 65e9 16b8 ffb7 a7b6
00000160: 32b7 7db9 3396 bfb7 123f 7535 574f 0e39
00000170: 63da e236 143d 2f35 9baa 3e38 e25a 9936
00000180: 4469 5fb6 bba3 01ba c5a7 ceb7 b138 8bb6
00000190: d6ad 2db9 0ebb 85b7 cad8 14b3 61be acb6
000001a0: eaae 89b4 b476 e5b3 e0fd e6b5 26ea 61b4
000001b0: 0853 bfb5 6b0a 5eb9 98f9 30b7 dc20 f3b5
000001c0: 1ab2 94b8 ea5b fab6 5b58 0335 a46e 9838
000001d0: 10fd 7236 d78b 3f35 3828 cc37 eb1e 2536
000001e0: d3d4 0f36 46ec a639 430b 8537 5ac9 2b36
000001f0: 9f9e df38 b84c 3137 c90b 85b6 fe67 1aba
00000200: a122 f6b7 8a26 abb6 20d6 4eb9 561d a4b7
00000210: 014a 0eb6 1e22 a5b9 129e 83b7 e25f 35b6
00000220: 3f2d ddb8 4f17 35b7 7f26 a3b6 f557 3dba
00000230: fde9 16b8 9db2 8eb6 7fb3 7db9 7324 c6b7
00000240: 700c b7b4 bd6f 54b8 f251 29b6 4ed0 cbb4
00000250: ec57 8eb7 c920 cdb5 c282 3033 5ad9 cc36
00000260: bd45 a334 990f 6433 872d 0936 5009 6634
00000270: c74c f8b5 ee14 90b9 5fad 65b7 db74 59b6
00000280: aae1 c0b8 6a5d 2ab7 72b0 24b6 2b21 bfb9
00000290: 6956 98b7 7fc0 1cb6 ad09 00b9 5ad4 4ab7
000002a0: 8d0d 94b4 8ed2 2bb8 e6f2 08b6 ee7a 2d35
000002b0: cea5 66b7 ba29 92b5 5002 a834 7bfb 4238
000002c0: 9168 1b36 bbe9 4d33 70a8 8237 720b cf35
000002d0: 5b01 99b3 de91 31b7 a787 0db5 ee27 aab3
000002e0: 94e3 6db6 aa6f beb4 eace 1936 6f80 b239
000002f0: ca45 8e37 f667 db35 f33c ef38 3fa5 3137
00000300: 4c9a 8334 0fbb 1838 0f77 f335 05f4 07b5
00000310: 9c68 4d37 2fc9 e934 5f9e 0d34 e15a a437
00000320: 43ff 8235 1c14 7f34 2c07 dc36 2057 4835
00000330: 352b 62b3 5b3d 03b7 c334 d1b4 e5df d3b3
00000340: 83b6 2fb6 e159 94b4 2ff6 a6b6 51c4 41ba
00000350: 8470 1ab8 1f81 7eb6 70d7 81b9 14fe c2b7
00000360: 1dc8 9a35 a5a1 3339 532c 0f37 9f8d cc35
00000370: b399 7038 5f2d c636 649f cd35 7aa2 6e39
00000380: 6e33 3e37 a97d c635 44e1 9f38 a2f1 f436
00000390: d606 81b5 e1bd 15b9 02b3 eeb6 90e0 74b6
000003a0: 5c00 48b8 5851 e5b6 f226 96b4 3142 2eb8
000003b0: 07e4 0ab6 0ef1 8fb4 9d81 69b7 83a3 b0b5
000003c0: 1d5c eb35 b392 8839 34b5 5937 2683 e835
000003d0: 2afd b638 8dc8 0d37 dc48 b4b3 7f3a 51b7
000003e0: 69c3 26b5 82db bfb3 6e14 8cb6 5360 f7b4
000003f0: 2d38 dcb4 2d93 7fb8 f1b3 4bb6 9fa5 96b4
-2.4560297e-06 -0.0003648431 -1.8174624e-05 -4.118118e-06 -0.00012215623 -1.2279172e-05 -3.2470123e-06 -0.0004823436
-2.4027884e-05 -1.2269248e-06 -0.00016165308 -1.472049e-05 4.4148416e-07 6.558247e-05 3.266984e-06 1.488494e-07
2.1980512e-05 1.9870306e-06 -9.541691e-08 -1.4174177e-05 -7.06085e-07 -9.2603585e-08 -4.748259e-06 -4.5169182e-07
4.4629553e-07 6.629723e-05 3.3025863e-06 7.8148395e-07 2.2192084e-05 2.3386867e-06 9.199656e-07 0.00013666082
6.807742e-06 -6.040853e-07 4.5890192e-05 2.4018998e-06 -2.9130945e-06 -0.00043274023 -2.1556898e-05 -2.48088e-06
-0.00014496122 -1.402946e-05 -1.0137906e-06 -0.0001505986 -7.502051e-06 -1.1039442e-06 -5.0439274e-05 -4.9349787e-06
-5.3720905e-06 -0.0007980242 -3.9753468e-05 -4.960672e-06 -0.00026730893 -2.643927e-05 1.8769295e-07 2.7881793e-05
1.3889277e-06 2.2047945e-07 9.338283e-06 9.132038e-07 -3.7604447e-11 -5.5922835e-09 -2.785182e-10 1.3347378e-07
-1.1498706e-08 1.5525403e-07 -5.7594743e-06 -0.00085556984 -4.2620126e-05 -6.5384593e-06 -0.00028654325 -2.8379693e-05
-3.5125183e-07 -5.2178362e-05 -2.599255e-06 -2.7700771e-06 -1.7344662e-05 -3.6413744e-06 -5.704063e-06 -0.0008473385
-4.2210086e-05 -6.2266845e-06 -0.00028380452 -2.8015673e-05 -4.862179e-06 -0.00072227686 -3.5980152e-05 -4.998408e-06
-0.00024196206 -2.2838916e-05 9.136139e-07 0.00013571732 6.7607484e-06 6.528146e-07 4.545842e-05 4.5703355e-06
-3.3290862e-06 -0.0004945357 -2.4635237e-05 -4.1491226e-06 -0.00016563325 -1.594194e-05 -3.4656104e-08 -5.1481625e-06
-2.5645505e-07 -1.06852355e-07 -1.7210223e-06 -2.103994e-07 -1.4254774e-06 -0.00021175451 -1.0548531e-05 -1.8114474e-06
-7.090364e-05 -7.461281e-06 4.8929877e-07 7.268533e-05 3.6208112e-06 7.135654e-07 2.4337423e-05 2.4604913e-06
2.143254e-06 0.00031838025 1.586008e-05 2.5598188e-06 0.00010663014 1.0567885e-05 -3.965081e-06 -0.000589013
-2.934161e-05 -5.1006837e-06 -0.00019725459 -1.9563984e-05 -2.1202725e-06 -0.00031496672 -1.5690024e-05 -2.7026913e-06
-0.00010546529 -1.0793868e-05 -4.86226e-06 -0.00072228845 -3.5980705e-05 -4.252723e-06 -0.00024194828 -2.3620412e-05
-3.4095456e-07 -5.0648803e-05 -2.523066e-06 -3.7963258e-07 -1.6968661e-05 -1.5283232e-06 4.1097117e-08 6.104977e-06
3.0411857e-07 5.3099573e-08 2.0441091e-06 2.1423807e-07 -1.8499785e-06 -0.00027481414 -1.368983e-05 -3.2403539e-06
-9.197307e-05 -1.0154539e-05 -2.454061e-06 -0.0003645507 -1.816005e-05 -2.335786e-06 -0.00012210636 -1.208958e-05
-2.7577008e-07 -4.096567e-05 -2.0406965e-06 6.462641e-07 -1.3747673e-05 -1.0889992e-06 3.129412e-07 4.6487414e-05
2.3157666e-06 4.794286e-08 1.5575642e-05 1.5426033e-06 -7.124864e-08 -1.05839845e-05 -5.2723993e-07 -7.923505e-08
-3.544822e-06 -3.5471504e-07 2.2919216e-06 0.00034046496 1.6960217e-05 1.6347028e-06 0.00011407761 1.05884965e-05
2.4512917e-07 3.6413836e-05 1.8139561e-06 -5.0646514e-07 1.2243308e-05 4.3546012e-07 1.3189263e-07 1.9592642e-05
9.760046e-07 2.3756041e-07 6.557346e-06 7.463259e-07 -5.2659022e-08 -7.822494e-06 -3.8967673e-07 -9.866179e-08
-2.6183268e-06 -2.7632544e-07 -4.975845e-06 -0.0007391619 -3.682125e-05 -3.7924108e-06 -0.0002476531 -2.3244917e-05
1.1532135e-06 0.00017130988 8.533784e-06 1.5240402e-06 5.7363603e-05 5.9061417e-06 1.5320079e-06 0.00022757976
1.1336857e-05 1.4788722e-06 7.62367e-05 7.2998964e-06 -9.613238e-07 -0.00014280483 -7.113792e-06 -3.6489546e-06
-4.768405e-05 -6.8342015e-06 -2.7968014e-07 -4.154648e-05 -2.0696332e-06 -2.6811216e-07 -1.391806e-05 -1.316061e-06
1.7535673e-06 0.0002604924 1.2976398e-05 1.7323516e-06 8.725592e-05 8.450949e-06 -8.395156e-08 -1.247099e-05
-6.212418e-07 -8.934059e-08 -4.1747035e-06 -4.607742e-07 -4.1019067e-07 -6.0933806e-05 -3.0354097e-06 -2.8060182e-07

exp_avg_sq f4 [128, 6]
00000000: 83b6 332e b90c 7235 50c4 1931 6216 792e
00000010: 8767 da33 cd19 d82f a8ef de2d 0622 1635
00000020: eebf be30 e980 0b2e 6c82 8733 ddad 7a2f
00000030: edae df2a d1a2 1632 9063 bf2d da6b 042b
00000040: 6bfe 8730 3103 6d2c d036 c628 f87b 0530
00000050: d598 a92b 2bc9 0229 77da 702e f776 792a
00000060: 230d 0e2c 0d53 3f33 de15 f32e fa8b 352c
00000070: 579d ac31 8306 b32d 03b3 8f2e 4c8b c135
00000080: c6e7 7531 a7f3 d72e 68ad 2e34 926c 2330
00000090: d54e 012e 2829 2e35 3647 dd30 dd46 302e
000000a0: 8219 9d33 c511 a92f a216 882c 154b b733
000000b0: 98e1 682f 7ca4 f22c 4551 2532 9cc3 2e2e
000000c0: e076 582f 4ec6 9136 5e36 3932 b04c 902f
000000d0: 7087 0335 19aa 0531 d3af 072a 9dc0 3631
000000e0: ae31 e82c 0147 382a 68d9 a42f a6ec b02b
000000f0: f684 ae2a 000e eb31 ba52 952d 707b 132b
00000100: 1921 5430 0a3a 462c 62c7 0c2f 599c 3d36
00000110: 61e8 f031 26d6 4b2f a503 ab34 2666 bc30
00000120: 162f 5a2e b9ee 9235 ffae 3a31 fcee a02e
00000130: 9491 0434 230a 0730 470e 282f 5b59 6236
00000140: ecca 0f32 f9bb 672f 6f2c cc34 9e9e dc30
00000150: c8c7 722e 277f a335 a6ba 4f31 47cb a42e
00000160: ea7c 1334 2302 1c30 7b4f 422d fbda 8234
00000170: c841 2630 3e4c 572d 1e2f ec32 4baf e82e
00000180: 10d5 3c2e 1355 7e35 d891 2131 a78c 922e
00000190: a680 e533 71c8 da2f 710e 2429 69f6 5c30
000001a0: eb5e 0c2c 003c 5929 ed5e c72e 1548 ca2a
000001b0: 5fd8 5d2e f765 9535 fdd0 3d31 94a8 982e
000001c0: d1d1 0634 8513 0330 3ef5 b52b d212 f532
000001d0: 16b0 9b2e 01ef 052c 1617 5d31 4cf1 642d
000001e0: acf1 862d 7dc0 b534 49ec 6630 abb8 d32d
000001f0: f7e5 2333 64e0 392f b44b 722e 9f2b a335
00000200: 7450 4f31 1ab6 bc2e 3d28 1334 6988 2230
00000210: be81 fc2d f90b 2a35 160d d830 a016 342e
00000220: 1562 9933 9841 a62f 5a58 c62e 8992 0536
00000230: 80b5 a931 899e 0a2f c2f9 7034 1d60 8130
00000240: c0f6 452c d650 8533 0362 292f 811d 452c
00000250: 05b4 f031 5c51 db2d d5f3 0029 9eae 2d30
00000260: 83ab dc2b 8d2b 0229 e9be 9c2e 6e07 9b2a
00000270: a93f 492e 2387 8735 8731 2c31 f1f4 9b2e
00000280: 1b7b f433 f825 0530 5a74 d02d 6761 0c35
00000290: df5b b230 b936 232e 0937 7d33 79e2 8b2f
000002a0: edd7 cc2c d9f2 0934 e244 af2f b5ec fd2c
000002b0: 7d1e 7932 909a 4c2e 0d38 072c 4a1f 3633
000002c0: b964 e72e 7928 2b2c a262 a431 4201 982d
000002d0: 9468 3b29 1f6a 7c30 eb59 202c 52d3 7c29
000002e0: cebf e32e 1cde e62a bff9 372d 87ca 7734
000002f0: 096a 1d30 4633 752d a58d df32 7a68 e72e
00000300: 0276 2b2d 7bef 6634 d1b4 1230 579d 7a2d
00000310: f774 d032 1e06 bb2e ed51 3b2b ac4b 7c32
00000320: 9246 202e b883 422b ecad e330 8ae1 e42c
00000330: 19b8 dc28 cea3 1430 56da bc2b 942a 2429
00000340: 8019 862e a72b 892a 26ef 682e b4dd 9c35
00000350: f04d 4731 b003 992e 8a82 0d34 c4f5 1530
00000360: ef02 412d 09fb 8134 3a25 2530 00bf 802d
00000370: 6383 ea32 40c8 f92e 6c18 c72c e913 0634
00000380: e159 aa2f d413 0c2d d6e1 7132 04bb 812e
00000390: 68fb a32e c5dc dc35 a14e 8c31 d801 f22e
000003a0: 0442 4734 b632 4e30 980c 2f2a b9c4 6b31
000003b0: cac6 152d 2bc3 8a2a dea4 d42f ca87 e52b
000003c0: e5c5 212d 15e3 5934 c36a 0a30 de21 672d
000003d0: 9888 c432 2ef8 d32e dc80 542a 671b 8f31
000003e0: bed2 352d 4954 862a 5f28 0130 c6d5 f62b
000003f0: a6dd 1a2b 8295 5032 cf81 042e 4cc5 402b
4.086199e-11 9.017054e-07 2.237602e-09 5.6635925e-11 1.01702476e-07 3.9308504e-10 2.5344907e-11 5.5928865e-07
1.3878869e-09 3.1719436e-11 6.310151e-08 2.2799136e-10 3.9734137e-13 8.768169e-09 2.17584e-11 4.7045495e-13
9.894853e-10 3.3681497e-12 2.2006187e-14 4.856129e-10 1.2050592e-12 2.9040284e-14 5.4763718e-11 2.2156917e-13
2.0186706e-12 4.4546187e-08 1.1054245e-10 2.579935e-12 5.0237463e-09 2.0352836e-11 6.534686e-11 1.4420161e-06
3.578394e-09 9.8203494e-11 1.6268098e-07 5.945334e-10 2.940122e-11 6.487994e-07 1.6100106e-09 4.0080706e-11
7.315522e-08 3.0753547e-10 3.8678652e-12 8.535259e-08 2.1180424e-10 6.896315e-12 9.622743e-09 3.9736756e-11
1.9687318e-10 4.3444225e-06 1.0780779e-08 2.6247937e-10 4.899839e-07 1.9450737e-09 1.205141e-13 2.6593974e-09
6.599352e-12 1.6367117e-13 2.9985903e-10 1.2571235e-12 3.100087e-13 6.8409918e-09 1.6976077e-11 5.2396195e-13
7.7172185e-10 2.816971e-12 1.2803761e-10 2.82542e-06 7.0113377e-09 1.8538823e-10 3.1853884e-07 1.3707833e-09
4.9609282e-11 1.0947325e-06 2.7166036e-09 7.31841e-11 1.2346419e-07 4.912712e-10 1.5284583e-10 3.3728636e-06
8.369835e-09 2.1076109e-10 3.803029e-07 1.6052188e-09 5.520187e-11 1.2181453e-06 3.0228562e-09 7.493966e-11
1.3735885e-07 5.6755506e-10 1.10452715e-11 2.4373716e-07 6.048393e-10 1.2238264e-11 2.7495442e-08 1.0581277e-10
4.293549e-11 9.4746173e-07 2.3511486e-09 6.664296e-11 1.06870445e-07 3.979639e-10 3.642784e-14 8.0385704e-10
1.9947887e-12 4.823572e-14 9.0663345e-11 3.5932425e-13 5.044176e-11 1.1131041e-06 2.7621916e-09 6.942105e-11
1.2556053e-07 4.768526e-10 1.2928892e-12 2.8530312e-08 7.079863e-11 1.903311e-12 3.2172855e-09 1.3013878e-11
1.534136e-11 3.385393e-07 8.4009294e-10 2.4069932e-11 3.8160547e-08 1.6905372e-10 5.5091667e-11 1.2157142e-06
3.0168197e-09 8.581598e-11 1.370508e-07 5.9129107e-10 2.87067e-11 6.334736e-07 1.5719788e-09 4.0947357e-11
7.142459e-08 3.024183e-10 9.019692e-11 1.990384e-06 4.9391815e-09 1.260735e-10 2.2442603e-07 9.413302e-10
2.8132358e-12 6.207999e-08 1.5405281e-10 2.8011762e-12 7.005385e-09 2.4933548e-11 2.86332e-14 6.318518e-10
1.5679544e-12 2.8903573e-14 7.127971e-11 2.7538686e-13 4.575865e-11 1.0097614e-06 2.5057447e-09 7.092094e-11
1.1384528e-07 4.8439075e-10 2.3698533e-11 5.2295803e-07 1.2977316e-09 3.7110513e-11 5.8956207e-08 2.544487e-10
5.8220013e-12 1.2847467e-07 3.188126e-10 7.2169722e-12 1.450064e-08 4.652151e-11 1.9215768e-12 4.2403634e-08
1.0522556e-10 2.4323028e-12 4.7842414e-09 1.7280958e-11 4.1613048e-14 9.1827873e-10 2.2787282e-12 5.613853e-14
1.0356836e-10 4.1010327e-13 1.04578e-11 2.3077347e-07 5.726695e-10 1.3938023e-11 2.602503e-08 1.05232226e-10
9.746428e-12 2.1507542e-07 5.3371446e-10 1.4245791e-11 2.4267576e-08 8.504862e-11 6.654944e-13 1.4685536e-08
3.6442467e-11 6.910544e-13 1.6565855e-09 6.5051896e-12 2.4504746e-14 5.4074867e-10 1.3418804e-12 3.6452246e-14
6.098144e-11 2.4366379e-13 5.29631e-11 1.168743e-06 2.9002614e-09 6.9582895e-11 1.3179138e-07 5.455514e-10
1.0971431e-11 2.4210775e-07 6.007955e-10 1.4636736e-11 2.7300933e-08 1.13587806e-10 5.6586315e-12 1.2486966e-07
3.0986683e-10 7.962481e-12 1.4079395e-08 5.8994615e-11 7.4570405e-11 1.645553e-06 4.0834753e-09 1.10052134e-10
1.8557336e-07 7.501443e-10 1.5547492e-13 3.4308825e-09 8.5138094e-12 2.464915e-13 3.867972e-10 1.6309118e-12
9.195732e-12 2.0292312e-07 5.0355825e-10 1.313835e-11 2.2879519e-08 9.639255e-11 1.887409e-13 4.164963e-09
1.0335453e-11 2.3861666e-13 4.69873e-10 1.7538685e-12 5.501939e-13 1.2141188e-08 3.012862e-11 6.8485907e-13

exp_avg f4 [128]
00000000: 45c4 00b9 aa3c 2ab9 022c b937 3f15 a0b6
00000010: 9e30 bb37 46ee 4038 e3ba 18b9 7b9b 54b8
00000020: 7dd3 8cb9 bf72 1d37 c619 01b1 33fb 96b9
00000030: 5953 93b7 5287 95b9 1beb 7eb9 4a99 3f38
00000040: 3e8a 2eb9 ba92 e8b5 e178 95b8 0a3a cd37
00000050: 86bc e038 6ee2 4fb9 a953 deb8 23ec 7eb9
00000060: be01 8fb7 2be6 0936 ecfb c1b8 d8a9 00b9
00000070: 2d55 67b7 cf41 8337 1c12 6fb6 4c53 f038
00000080: f5a0 4d37 6347 dd36 c2b1 30b6 5670 82b9
00000090: add8 7138 85a4 a038 b79a 49b8 d89c 6ab7
000000a0: f6df b738 e7d8 8cb6 de0b acb7 b416 1538
000000b0: fa8f 41b7 c2b1 ad38 a3a1 6c38 e64d dbb4
000000c0: decc 2fb7 582c 0fb9 aa4b 02b9 da11 f035
000000d0: 7b42 03b8 2566 85b9 24f8 76b9 2779 21b9
000000e0: 7260 bfb8 4bd2 cd37 2636 5237 e597 39b7
000000f0: b0c8 7fb7 b554 df36 ccb5 bfb8 7cdb 4838
00000100: 5bf0 58b9 fcb5 c737 cbe2 9c38 74e8 8eb9
00000110: 1943 aab5 e4dc e837 4b21 dfb6 fc7e 7db9
00000120: 879d cf37 480e d6b8 527c d837 799a 72b9
00000130: 9080 0bb9 28dd 7d38 09d5 3f38 3dc8 2eb9
00000140: 8f49 74b8 816c e6b8 caaf b8b9 0601 7c37
00000150: 73d0 f937 8430 20b9 eef7 5bb9 bfda 2539
00000160: 9133 2fb9 a0a2 0ab8 f524 88b6 c73e 1fb9
00000170: 6628 c536 1a1f 19b9 ff8f ee36 47d4 8cb8
00000180: 07cd 3a37 d9b1 3bb9 2b18 0bb8 cd34 36b9
00000190: a736 87b9 b65b 9bb8 43e7 8135 60c0 9f37
000001a0: e8bc 47b7 22f2 0038 b406 3437 fb0e fc35
000001b0: f825 99b8 89db 89b6 653a 24b7 a20c dc36
000001c0: 80cf 4db7 fc4e b237 5b4d a0b8 fd1b 7eb9
000001d0: d49f 7d37 adfe 0ab8 2a03 efb8 af56 0537
000001e0: edbd 8637 375f a538 260c 99b7 a48b 0eb9
000001f0: fbc5 8eb9 3b46 50b7 e218 3a38 732e 7738
-0.00012280147 -0.00016235063 2.2074211e-05 -4.770845e-06 2.2314776e-05 4.5998277e-05 -0.0001456547 -5.068954e-05
-0.00026860452 9.384646e-06 -1.8786621e-09 -0.00028797387 -1.7562577e-05 -0.00028520316 -0.00024310911 4.568071e-05
-0.00016645432 -1.732805e-06 -7.127389e-05 2.446493e-05 0.000107162676 -0.0001982541 -0.00010601368 -0.00024311295
-1.704774e-05 2.0548566e-06 -9.249881e-05 -0.00012270303 -1.37885045e-05 1.5647061e-05 -3.5624316e-06 0.00011459607
1.2256428e-05 6.5946238e-06 -2.6329512e-06 -0.0002487923 5.7660673e-05 7.660039e-05 -4.8066224e-05 -1.3984005e-05
8.767836e-05 -4.197576e-06 -2.0509524e-05 3.5545512e-05 -1.1537219e-05 8.282393e-05 5.641732e-05 -4.0848607e-07
-1.0478512e-05 -0.00013654062 -0.00012425953 1.7886589e-06 -3.129475e-05 -0.0002544384 -0.00023552828 -0.00015399289
-9.125554e-05 2.453583e-05 1.2529583e-05 -1.1062225e-05 -1.5245911e-05 6.655779e-06 -9.141452e-05 4.7888127e-05
-0.00020688905 2.3807392e-05 7.480903e-05 -0.00027257542 -1.2685515e-06 2.7759415e-05 -6.6497937e-06 -0.00024175266
2.4749677e-05 -0.00010206975 2.5807098e-05 -0.00023136464 -0.00013303966 6.052587e-05 4.5736353e-05 -0.00016668528
-5.824264e-05 -0.00010987465 -0.00035226188 1.5020609e-05 2.978018e-05 -0.00015276863 -0.00020977829 0.00015817115
-0.0001670851 -3.305322e-05 -4.057418e-06 -0.00015186808 5.8757605e-06 -0.00014602803 7.109716e-06 -6.71526e-05
1.1134201e-05 -0.00017899963 -3.316269e-05 -0.00017376542 -0.00025789926 -7.4080584e-05 9.678555e-07 1.9043859e-05
-1.19053075e-05 3.0743082e-05 1.0730397e-05 1.8779823e-06 -7.302681e-05 -4.1084754e-06 -9.788758e-06 6.5579816e-06
-1.22672645e-05 2.1256034e-05 -7.643803e-05 -0.00024233754 1.5117188e-05 -3.313895e-05 -0.000113969974 7.9476e-06
1.6062486e-05 7.885548e-05 -1.8244678e-05 -0.00013594195 -0.00027231858 -1.2414118e-05 4.436903e-05 5.893265e-05

exp_avg_sq f4 [128]
00000000: 4860 db33 cb11 8833 8386 8830 eaf5 712e
00000010: 0e67 ad31 036a 2f34 b8d8 9d33 a31f 2632
00000020: 911e 0435 1da2 a52f 4e09 5530 63d9 ab34
00000030: 382b 0534 6725 cd34 702e 1434 0c32 ed32
00000040: 1782 e633 9b43 c82e 4e67 0734 d91d 5e31
00000050: 00ba 2433 b7e2 1334 2b1e 9a33 d41e 7234
00000060: bda7 f131 a669 9d2e 39aa f533 0676 7e33
00000070: 8c0d 7a32 e70f a531 22c5 e42e 6994 e032
00000080: 8c4d d132 86a9 e430 5fb7 862e fb2b 0e34
00000090: 189c eb32 5709 7332 672c 4834 e4ae d52f
000000a0: 107a c532 a5b3 0130 8d0b bd30 4a8e 4f32
000000b0: c277 f82f 9ef0 7532 4b95 ac32 6f15 b62c
000000c0: 1ce6 f22f b50e a633 603f 5c34 3879 6731
000000d0: 41d8 c232 525f b834 bdd3 8c34 cda6 a334
000000e0: 8613 e833 b4fb 8731 c6cb 1533 451d 3b30
000000f0: 4f36 6032 81f0 3231 90ae 7132 3dc5 4132
00000100: af76 6534 38fa 3031 3b16 2833 70bc 3c34
00000110: 3388 082f 92d4 2633 7e38 ac30 6c15 3e34
00000120: a8c8 d931 f1d0 fc32 b53d 8f31 4de4 1034
00000130: 0d85 2133 8f1d 8232 3f12 8332 878e cf33
00000140: 44f5 2432 e011 1e33 c72f 5334 6278 0331
00000150: ccb2 2e32 691b 1134 0695 1034 c735 c033
00000160: 0d8d b833 2df5 4431 fc0e 3331 c5a8 5533
00000170: 3b7e 4d2f 3efd 3133 0e76 892f 3a36 2e32
00000180: b51d 7930 3311 3834 6c49 b032 b7f5 1f34
00000190: 908a 6334 8814 0033 6cd5 872d 8793 af30
000001a0: ab15 d230 7565 0a33 fcc9 b32f abda be30
000001b0: 6dcb fb32 a48a bf31 26ad 972f d81f 102f
000001c0: 857b dc30 5ffc 4832 a8d5 b832 dbd9 6b34
000001d0: 36d5 6330 ddbb ba33 4971 4834 1aae ed2f
000001e0: 7f6c 8531 78f7 ba32 40f8 6c32 5467 7433
000001f0: 27ba be34 7309 9231 609b c231 dcbb 4533
1.0215496e-07 6.33623e-08 9.933533e-10 5.501547e-11 5.0466786e-09 1.6336712e-07 7.350303e-08 9.669665e-09
4.921831e-07 3.0128514e-10 7.750217e-10 3.2009402e-07 1.2402313e-07 3.821144e-07 1.3800468e-07 2.761319e-08
1.0733873e-07 9.106956e-11 1.2610437e-07 3.2322218e-09 3.835339e-08 1.377292e-07 7.176671e-08 2.2549222e-07
7.0330928e-09 7.1583e-11 1.1439665e-07 5.9246325e-08 1.4554995e-08 4.80394e-09 1.04032574e-10 2.6144521e-08
2.4366066e-08 1.6637365e-09 6.126188e-11 1.324078e-07 2.7428584e-08 1.4146585e-08 1.8642605e-07 3.8868742e-10
2.2989326e-08 4.7185217e-10 1.3754843e-09 1.2081339e-08 4.519603e-10 1.4315587e-08 2.0091326e-08 5.1751307e-12
4.4183046e-10 7.7326526e-08 2.0512152e-07 3.368383e-09 2.2682913e-08 3.4342025e-07 2.6231092e-07 3.048248e-07
1.0806893e-07 3.9576324e-09 3.4877097e-08 6.80718e-10 1.3050864e-08 2.603912e-09 1.4067737e-08 1.1278925e-08
2.1370464e-07 2.5753604e-09 3.9135767e-08 1.7577418e-07 1.2417516e-10 3.884322e-08 1.2530703e-09 1.7702922e-07
6.338343e-09 2.9431677e-08 4.168863e-09 1.34941e-07 3.7606743e-08 1.5147434e-08 1.5258705e-08 9.665114e-08
9.601823e-09 3.68035e-08 1.9668288e-07 1.9131439e-09 1.0168787e-08 1.3514149e-07 1.346526e-07 8.950479e-08
8.593825e-08 2.866112e-09 2.6056446e-09 4.9746422e-08 1.8689487e-10 4.1441346e-08 2.5004038e-10 1.0140463e-08
9.062789e-10 1.7142592e-07 2.0522485e-08 1.489742e-07 2.1191431e-07 2.9820995e-08 1.5442501e-11 1.2774856e-09
1.5285669e-09 3.2222903e-08 3.270343e-10 1.3886469e-09 2.9312753e-08 5.5745932e-09 2.758977e-10 1.3108037e-10
1.6042213e-09 1.1698915e-08 2.1517579e-08 2.1965336e-07 8.288511e-10 8.695472e-08 1.8667664e-07 4.3233755e-10
3.883144e-09 2.1765786e-08 1.37934535e-08 5.6904653e-08 3.5525701e-07 4.2502335e-09 5.663807e-09 4.6038494e-08
