results/DroneAgentMGO2/DroneAgent/DroneAgent-4699996.onnx (onnx, 724643 bytes, 10 tensors)

network_body._body_endoder.seq_layers.0.weight f4 [128, 236]
00000000: 9aa7 9c3e 3349 e9bd eb0a ecbd 5112 fdbc
00000010: c7f7 263c dcf5 053f 95e9 35be 6eac 2dbd
00000020: 3c85 713e 0fdb 533d 6617 f73d c5e7 dabd
00000030: 445c 9fbe aa4c 0d3d 293c b7bd 6c3f 203f
00000040: c1ee 6fbd 4267 6fbe 56ee 31bd a653 16bd
00000050: a8a3 9e3e 2c04 14be ba4b 92bd 18e6 dbbd
00000060: 332c 77bb 7e6e d43d aa2a f5be bd2c 0a3a
00000070: 38b1 c33e 50f7 3bbe f065 2cbe 143b debd
00000080: 009c 523c c771 ee3e 7a27 0e3e 5718 eb3d
00000090: e531 ccbe 5cef 04be 9095 db3e 4722 cd3d
000000a0: 2122 b8be 1207 adbe e584 5a3e 6f1c 0e3f
000000b0: 503a fc3d 84b4 883e e0b9 cdbe 89a9 94be
000000c0: a171 353f a7b7 903c a836 823c a9f5 b23d
000000d0: 9563 fcbe f77f c3bc 84e9 93bd 1f53 0d3e
000000e0: 1a54 55bd 0d24 19be 2219 92be 72c7 17be
000000f0: b32b 97be 1e27 e0bd 915b 35be fc91 7e3c
00000100: 1481 05be acb3 9d3e 110d 623d 627c cfbd
00000110: e6fb c0be d065 29be 8ae0 1bbe 28a8 723d
00000120: 0946 8bbc 46c9 9bbe 34a5 38be 01d7 913e
00000130: 194b a63c 5287 2abe 32e0 8cbe 72ae b1be
00000140: 66ef dc3d a0b2 42be 4026 bdbd 870d fabe
00000150: 8b08 b6be 293f 3d3e 0564 8f3c efb9 75bb
00000160: f5ea 28bf e79b c4be 2bf1 5ebd 21ef 313d
00000170: 9ed1 733d 6e38 26bf 9b0e 5ebe aa1b e5bd
00000180: 719c b5be 32c7 7dbc 062b 84be 3c71 21be
00000190: 3cb7 74be 8529 b0bc 3bbe aabd 05ff 423e
000001a0: 3313 a23d 7f45 a3be 400c 713d 6d19 d4bd
000001b0: 4827 7d3e 5538 34bd 5582 0abf 1805 2b3e
000001c0: 5007 c13d fd49 8cbe f336 2a3e e881 f0be
000001d0: f6a0 e8be 8333 6f3e faaf a73d 3239 51be
000001e0: aa96 22bf b5b4 1a3e 9ded 043e 918e 9bbe
000001f0: 8310 3e3e 76da 40be e1eb a83e 85c4 123e
00000200: 4d1a 40bd 4ba9 81be 416c 97be 1646 4e3e
00000210: e10f 0a3e ca4d ccbe 2d76 0b3e 853d 04bf
00000220: f207 58bc 524a 383e eee7 95be b917 89be
00000230: fd77 83be 0120 b2be fccf d93c 494d 963e
00000240: ffd1 e63c 5508 48be fa60 b0be 4ad3 9f3e
00000250: 1b6c 24bf 7602 8bbe eaeb 843d e3c1 1a3d
00000260: cad1 30be 07c1 853c a5d9 5d3c 577a 48bc
00000270: 68ba 93bd 2280 02bd 03b5 0cbb bed4 86be
00000280: 36c4 403e ec92 cebe 5924 18bd 5158 ccbe
00000290: 805b 54be d7f1 883e e771 ec3d 6298 d0bd
000002a0: 3aab a7be 329c 97be fc7f a93e 369a 41bd
000002b0: 67ac 31be f0a5 d5be f836 5ebe 9416 993e
000002c0: d9d2 153d 632c 7cbe 5ac6 07bf 4396 51be
000002d0: 92c3 6ebe 05da 91be 1c0e 943d 5bdc 3abe
000002e0: f688 95be efac 2e3d 145d b73d e0ba eb3c
000002f0: fdc9 253e fff7 0e3d dadb 403d 3b64 c73e
00000300: a8c8 3cbe b998 cd3e 5852 813d a883 663e
00000310: b469 523e e01c a2bd 8b3f 0e3d 7fb6 17be
00000320: a339 d43d eb2b 833e 5048 f5bd c42e a53c
00000330: c654 22bd d632 e2be 9fc5 afbd 7640 fd3d
00000340: 43f6 043d 470c 3fbd e24f fc3d 9aaa cd3d
00000350: ccd7 9fbc 41da cab9 7236 ec3e 52e5 8abd
00000360: 39d4 e03d 42d2 9c3e a084 1d3e 9e70 c1be
00000370: f0a0 34be 9623 67bf 98ee cabe 6fc2 0b3d
00000380: 5b1e 04be 9184 eebd 9f15 8cbe a877 073e
00000390: 8f39 9abe c2e1 84be bbb6 e6be 9ca6 c53e
000003a0: d634 ec3c 1482 e33d 1ee4 283c e761 5d3e
000003b0: 0e21 d03d 0b0f 3e3d 1460 87be 5081 853e
000003c0: c48c 17bd ed98 873c 68ea 57be 80c3 183f
000003d0: 9d9f fb3c f729 c1bd 5452 943e e318 01bf
000003e0: f0e2 753e 9dd8 1c3e 57f2 b8bb 3d50 8b3e
000003f0: 3895 0dbf 06ec b13e 6ef6 b0bc 02f3 b6bd
0.3059662 -0.11390915 -0.1152552 -0.030892523 0.010190911 0.52328277 -0.17764886 -0.04240077
0.23585981 0.051722582 0.1206501 -0.10688738 -0.3112508 0.03449694 -0.089470215 0.62596774
-0.058577303 -0.23379233 -0.043440185 -0.036700867 0.30984235 -0.14454716 -0.0714335 -0.10737246
-0.0037715554 0.10372637 -0.47884113 0.0005270949 0.38221145 -0.18356061 -0.16835761 -0.10851112
0.012854576 0.4657118 0.13882247 0.11479252 -0.39881817 -0.12981933 0.42887545 0.100163035
-0.35963538 -0.33794457 0.21339758 0.55512136 0.1231581 0.26700222 -0.40180874 -0.29035595
0.7087651 0.017665697 0.015895203 0.08738262 -0.49294725 -0.02386473 -0.07222274 0.1380124
-0.05208216 -0.14955159 -0.285348 -0.14822176 -0.29525527 -0.10944961 -0.17710711 0.015537735
-0.1303752 0.3080114 0.055188242 -0.10131146 -0.37692183 -0.16542745 -0.15222374 0.059242398
-0.017001169 -0.30426997 -0.1803177 0.28484347 0.020299481 -0.16653183 -0.27514797 -0.34703404
0.10787849 -0.19013453 -0.09235811 -0.48838446 -0.35553393 0.18481125 0.017503748 -0.0037494858
-0.65983516 -0.38400194 -0.054429214 0.04344094 0.05952608 -0.64929855 -0.21685259 -0.11186917
-0.35470918 -0.015489386 -0.25814074 -0.15765852 -0.23898023 -0.021504173 -0.08337065 0.19042595
0.07913818 -0.3188896 0.058849573 -0.10356412 0.24722016 -0.043999035 -0.5410512 0.16701162
0.09425223 -0.274002 0.16622524 -0.4697411 -0.45435303 0.23359494 0.08187862 -0.20431975
-0.63511145 0.15107997 0.12981267 -0.30382207 0.18560986 -0.18833336 0.3299246 0.14332779
-0.046900082 -0.25324473 -0.2957478 0.20143923 0.1348262 -0.39903098 0.13619299 -0.5165637
-0.013185488 0.17997101 -0.2927851 -0.2677591 -0.2567748 -0.34790042 0.026588432 0.2935584
0.028176306 -0.19534428 -0.34448987 0.31215888 -0.64227456 -0.27150315 0.064903095 0.03778256
-0.17267528 0.016327394 0.01354066 -0.012236199 -0.072132885 -0.03186048 -0.0021470196 -0.26334184
0.18824849 -0.40346467 -0.03714404 -0.3991113 -0.2073803 0.2674701 0.11545163 -0.10185315
-0.32747823 -0.29611355 0.33105457 -0.047266208 -0.17350923 -0.41728163 -0.21700656 0.29900038
0.036578033 -0.24626307 -0.53037035 -0.20467477 -0.23316792 -0.28486648 0.07229254 -0.18248121
-0.29206055 0.04264539 0.089533 0.028775632 0.16190334 0.034904476 0.047084667 0.38943657
-0.1843592 0.4015558 0.06314534 0.2251116 0.20548135 -0.07915664 0.034728568 -0.1481571
0.10362556 0.25619444 -0.11976683 0.020163901 -0.039631628 -0.4417941 -0.08582615 0.123658106
0.032461416 -0.046642568 0.12319924 0.10042305 -0.01951208 -0.00038691054 0.46135288 -0.06782021
0.10977978 0.30629164 0.15382624 -0.37781233 -0.17639518 -0.90288675 -0.39635158 0.034120973
-0.12902205 -0.11646379 -0.27360246 0.13229239 -0.3012204 -0.2595349 -0.45061287 0.38603675
0.028833788 0.11108795 0.010308294 0.21619378 0.10162555 0.046401065 -0.2644049 0.2607522
-0.03699948 0.016552413 -0.21085513 0.5967331 0.030715758 -0.09431832 0.2896906 -0.504286
0.24012351 0.15317006 -0.0056441235 0.27209654 -0.55305815 0.34750384 -0.021601882 -0.08933069

network_body._body_endoder.seq_layers.0.bias f4 [128]
00000000: 54c1 0dbe be51 3bbe 1242 0c3d ebfa 5d3d
00000010: bd11 ca3c 5401 443c 469d 013e 887f 0d3e
00000020: c277 5fbe 5288 4dbe 0b79 c83d 629c c83c
00000030: ca5a 9cbc 32b0 a1bc 9360 bcbc 12e2 a9bc
00000040: 0ddf 29bd 197e 49bd 1a38 acbd a3bf 923d
00000050: 0907 0cbe 14dc 0e3d 41d1 bbbd b7ed 6ebc
00000060: 80ab 60bd d8ac fe3c e7cc 3f3c 080e 08be
00000070: 4ad0 6ebd f891 cf3d e705 46bd 9b5e dabc
00000080: db30 cf3c cc90 bdbb 4909 fc3d 3fa5 babb
00000090: 3c65 e53d 7ad2 87bc 9bc9 433c e968 1f3d
000000a0: 1ffd edba 1971 ba3d e840 153c af41 833d
000000b0: 656e 92ba e8d0 0dbd a310 d6bd b887 23bc
000000c0: 3e88 cebc 764d 803d 95fe 85bd fd2b c0bd
000000d0: 486f 183c 8273 debb 4287 93bd 88de 563d
000000e0: 8c38 cbbd f524 723d b6d5 a53d 5d7a 1dbe
000000f0: a2ed e83c 037d 36bc 647a edbd 658d 023e
00000100: fa20 63bd 755b a33d 795e c6bc 5d30 94bd
00000110: f68e adbd da93 82bd e164 f93b 98e6 39bd
00000120: f1e0 ac3d 30db 3f3c d4a4 49bc 9c0a 173c
00000130: 7254 2dbd e691 483d d5d0 96bb 5442 ffbd
00000140: 4fbc 83bc 8a82 053e 0be8 efbd dca3 d63c
00000150: 7645 dfbd ed4b 0bbc b679 c4bd 7a2a 123c
00000160: c54d 42bd 35f9 d5bd 2b84 fe3d cdea 01bd
00000170: 4b4a 1ebc 1726 01bd 4690 f6bb 21dd cc3b
00000180: e37b cc3c 8b60 57bd 980f 7b3a d78f d0bd
00000190: d502 2e3d 2ced 3e3d 8c09 e9bc ade3 02bd
000001a0: 10fe aebc 32f3 72bd 8010 cbbd 95dd 763d
000001b0: 8476 f7bd 0d60 e8bd aeaa a9bd e0e7 94bc
000001c0: 8bf5 493d 8c73 e1bc 5d45 103d b8f0 913c
000001d0: 640d 91bd 9df9 00bd 091b 8abc 0c1f 693d
000001e0: 3e80 ecbc 032e 1ebd 5066 493c bf12 39be
000001f0: 8750 42bd 3619 c23c 518e 103c bf65 513d
-0.1384328 -0.18292901 0.034242697 0.054194372 0.024666661 0.011963207 0.12657651 0.1381818
-0.21823028 -0.20071533 0.09788712 0.024488632 -0.01908626 -0.019737337 -0.022995269 -0.020737682
-0.041472483 -0.04919252 -0.08409138 0.07165458 -0.13674559 0.03487785 -0.091707714 -0.014583043
-0.054851055 0.031088278 0.011706567 -0.13286602 -0.05830411 0.10135263 -0.048345473 -0.02665644
0.02529185 -0.0057850834 0.123064585 -0.0056959684 0.112009495 -0.016579855 0.011949922 0.03891841
-0.0018157101 0.09103603 0.009109713 0.064090125 -0.0011171816 -0.034623057 -0.10452392 -0.009981088
-0.02521145 0.062647745 -0.06542698 -0.0938339 0.009303875 -0.006788672 -0.07203533 0.052458316
-0.09922895 0.059117276 0.08097403 -0.15378709 0.028433625 -0.011138204 -0.1159561 0.1274925
-0.05545137 0.079764284 -0.02421497 -0.07235787 -0.08474533 -0.06375857 0.0076109027 -0.045385927
0.08441342 0.011709973 -0.0123073645 0.009218838 -0.04231686 0.048967265 -0.0046025314 -0.12463823
-0.016081003 0.13038078 -0.117141806 0.026201181 -0.109019205 -0.008501989 -0.09593527 0.00892126
-0.047437448 -0.10447923 0.12427553 -0.031718064 -0.0096612675 -0.031530466 -0.007524523 0.0062519466
0.024961418 -0.052582305 0.0009577214 -0.10183685 0.04248317 0.046612903 -0.028446935 -0.03195541
-0.02136138 -0.05931396 -0.099152565 0.06026991 -0.12083152 -0.11346445 -0.08284508 -0.018176973
0.049306434 -0.027520917 0.0352224 0.017814979 -0.07082632 -0.03148805 -0.016858594 0.056914374
-0.028869744 -0.0386181 0.01229246 -0.18073557 -0.047440078 0.023693662 0.008822993 0.051122423

network_body._body_endoder.seq_layers.2.weight f4 [128, 128]
00000000: d03b a2bd 0a36 c33e 9edd 393e 1477 833e
00000010: 05ac 083d fa33 85be 365e f93e 2b58 9ebe
00000020: 3d2b d03d e64e cf3e 9105 163e 9fb0 c8bc
00000030: a100 063d 815c 1039 d458 cc3d 8cb0 1c3e
00000040: 1558 74be 1012 0fbe a596 bdbd b411 363e
00000050: c0d1 a0be 913d adbd 6158 2f3f b078 843e
00000060: 9492 38bd 818b 9abe ceba 37be 871e db3c
00000070: b485 b7be d3df 983d f981 b53d 9ee1 8fbd
00000080: 00cf 08be 6df5 90be 2075 4f3e e4c6 2cbf
00000090: e4db dbbc 6ba2 9a3e 1714 6a3c 1e62 9c3e
000000a0: cc7c 1abf 93c8 733d fe66 ee3d 9904 abbd
000000b0: bce4 c5be 4287 c0be 14d7 12be e201 80bd
000000c0: 449e 6abe cd5a df3e 622e 273e 37cb e5be
000000d0: 8628 a3be 4871 30be 14b5 62bc 02de 073d
000000e0: 97a9 f13d 227e 3fbe c005 e7be 04be 013e
000000f0: 9156 8cbd 9d34 0a3e 8269 253e dd2b 2e3e
00000100: 92a1 a13d 62d8 41bd 4c65 243d a42a a53c
00000110: 8a47 ab3e 983e b43c 3dd9 a43d e71f 1bbf
00000120: add2 0dbf bece 13bd 6773 0fbf 7b85 cebd
00000130: 5624 efbc 5657 a63d 9ccd ce3d ec38 273e
00000140: 9253 b03e 2634 65bd 888a 8a3e 7267 6dbc
00000150: 3c4a 84bd 18ca 3dbd de33 813e d1fb d63d
00000160: 61c8 563e 1394 5f3e 8187 853d 8027 15be
00000170: 001f 303e 8457 e1be 09db 36be 7853 16be
00000180: a338 df3c 168f 5cbe 6a48 9f3d 64db 3c3d
00000190: d121 033d 2c59 433c 80ef a4bd 7f5a cd3e
000001a0: bc17 42be 57e4 41be 448c 023e 5e09 413e
000001b0: 9b9a 64bd 7051 413e bc30 f4be 849c c2bd
000001c0: b782 fb3d 1c94 42be bc47 3fbe f906 15bc
000001d0: 3402 693e 55ea 21be 7d11 92be a8d1 8a3d
000001e0: 0cb5 6fbe 36a9 afbc 39a9 773d a658 0a3e
000001f0: 4da8 e5bb c919 d5be 6c29 34be 367c b43d
00000200: 2948 9d3d 6ed7 0fbd 36ec 34be caa0 08bf
00000210: d55f 35be 4372 f83d d936 abbc 9cd0 cbbd
00000220: 5b8f 9b3d fb79 003e 9e42 17bf b112 aebe
00000230: 7d00 b83e 91c2 f63b 6cf8 a3be 2b2f 233e
00000240: 97d7 b53d 9f1e 08be 8297 2fbd 7999 7abe
00000250: 0246 8a3e e990 3bbd 7e07 27be a65e 11bf
00000260: 4628 b73d e2cb 2f3e dd31 f03d ddaf 4abe
00000270: 3414 983d 0dd9 0ebd 0028 363e b612 2abc
00000280: b03a a1be 5bad 3b3d 691b 9bbd 9e72 073e
00000290: 1d14 fc3e 0b65 c0be 4129 87bd 32cd a8be
000002a0: 212a 643e a3a6 24bd 0085 113e 5009 59be
000002b0: f044 31bd 8d71 323e a693 de3d d98b 353e
000002c0: a4a4 4d3e e672 5abd a80a 2fbd 98c7 e83e
000002d0: 6423 ecbc ea77 9abe 32ef 21be 2380 23bf
000002e0: 97ee 313e 4929 443e 86a8 5dbe 9697 863e
000002f0: 9c12 953d 7e77 cfbd 5d81 28be d07e dabe
00000300: 43b4 103e ec0b 8cbe 8255 893d 1902 f03d
00000310: 4692 20bf 5c2a de3c ba89 babe a80b 953e
00000320: 8db2 863e 1ad0 05be dbdf 2bbd e9ff 563d
00000330: a944 193e dc78 42be ee44 b0be eab6 c63c
00000340: 927b 5dbe 895d bf3e f0f6 373e e1a2 553c
00000350: d5df 933e 1b92 80be 4e99 563b 7759 b1bd
00000360: add1 1cbe 884b b43d 1ba9 b6bd 36cb fd3d
00000370: 1807 d1bc f5a3 96be 5ede 45bd a059 cc3e
00000380: 6add acbe 1d22 74be be4b 173e 5a1c e83e
00000390: b798 86bc 114b bbbd f3e7 f6bd 2424 ebbd
000003a0: 03fb cbbe c188 c73d df3c 053d e71a abbd
000003b0: 12bb 1bbe 42ca 3e3d c5bd c13e ecf2 9bbe
000003c0: b407 5a3d 747d 5c3d 5f2c 283d 24d5 60bd
000003d0: 2989 3f3e 92f6 b0bd d091 d83d e2e2 f5bd
000003e0: 98c8 0b3e 684c 65bc f126 4ebd 3feb 843d
000003f0: 9aed a13e f948 a03d 3e73 a9bc a2cb 3cbe
-0.079215646 0.38127166 0.18150946 0.25676787 0.033367176 -0.26016217 0.4870469 -0.30926642
0.10164497 0.40489882 0.14650561 -0.024498282 0.032715444 0.0001376737 0.0997788 0.15301722
-0.23861726 -0.13971734 -0.09257249 0.1778019 -0.31410027 -0.084590085 0.6849423 0.25873327
-0.045061663 -0.30184558 -0.17942354 0.026747955 -0.35844195 0.07464566 0.08862681 -0.07025455
-0.13360214 -0.28312245 0.20259523 -0.67490983 -0.02683825 0.3020204 0.014287016 0.30543607
-0.60346675 0.059517454 0.11640738 -0.08350486 -0.38651073 -0.37603194 -0.14339858 -0.06250359
-0.22911936 0.43623963 0.16326287 -0.44881603 -0.31866854 -0.17230713 -0.013837118 0.033170708
0.11799925 -0.1870046 -0.45121574 0.12670141 -0.06852449 0.13496633 0.1615353 0.1700892
0.07892145 -0.0473255 0.040135667 0.020161934 0.33453017 0.022002503 0.080492474 -0.60595554
-0.5539959 -0.036085837 -0.56035465 -0.10084053 -0.029192131 0.08122127 0.100978106 0.16330308
0.3443876 -0.055957936 0.27058816 -0.014489995 -0.064594716 -0.04633531 0.25234884 0.10497249
0.20974876 0.2183383 0.06519986 -0.1456585 0.17199326 -0.44012082 -0.17856993 -0.14680278
0.027248686 -0.21538958 0.07777484 0.046107665 0.03201467 0.011923116 -0.080534935 0.40108106
-0.18954366 -0.18934761 0.1274882 0.1885123 -0.055811506 0.18878722 -0.4769343 -0.09502509
0.12280791 -0.19001812 -0.18679708 -0.009095901 0.22754747 -0.15812047 -0.28528967 0.0677827
-0.23408908 -0.02144299 0.060464118 0.13510379 -0.0070085884 -0.41621235 -0.17593926 0.08812754
0.07679779 -0.03511756 -0.17668232 -0.53370345 -0.17712338 0.12131169 -0.020900177 -0.099518985
0.07595702 0.12546532 -0.59086025 -0.33998635 0.35937873 0.0075305183 -0.32025468 0.15935962
0.08879011 -0.13292931 -0.0428691 -0.24472608 0.27006537 -0.045792494 -0.16311452 -0.5678505
0.089432284 0.17167619 0.11728261 -0.19793649 0.074257284 -0.034874965 0.17788696 -0.010380438
-0.31490088 0.04581962 -0.075735874 0.13227317 0.49234095 -0.3757709 -0.065996654 -0.32969052
0.22281696 -0.04019798 0.14210892 -0.21194959 -0.043278635 0.17426129 0.108680055 0.17729129
0.20082337 -0.053332232 -0.042734772 0.45464778 -0.02882547 -0.30169612 -0.15813902 -0.63867396
0.17376171 0.19156374 -0.21646318 0.26287526 0.0727894 -0.10130213 -0.16455598 -0.42674875
0.14131264 -0.27352846 0.067057624 0.1171915 -0.62723196 0.027119808 -0.36433202 0.29110456
0.26308098 -0.13067666 -0.041961532 0.05249015 0.14967598 -0.18991417 -0.3442759 0.024257142
-0.2162917 0.3737605 0.17965293 0.013039322 0.28881708 -0.2511147 0.0032745185 -0.08659642
-0.1531436 0.08803469 -0.08918973 0.12392275 -0.025516078 -0.29421964 -0.04830777 0.39912128
-0.33762676 -0.23841138 0.14774987 0.4533413 -0.016430242 -0.09145177 -0.120559596 -0.11481503
-0.39839944 0.097428806 0.032528754 -0.083547406 -0.1520808 0.046579607 0.37840095 -0.30458772
0.053230003 0.05383058 0.04105794 -0.054890767 0.18704666 -0.086407796 0.105746865 -0.12006165
0.13650739 -0.013995267 -0.050330106 0.06490182 0.31626588 0.078264184 -0.020684835 -0.18437055

network_body._body_endoder.seq_layers.2.bias f4 [128]
00000000: 1da8 bbbd 340c 10be 04a1 733d 0268 353e
00000010: c6aa c83d fa94 04be 8f2a 963d 61a8 a33d
00000020: b431 7b3c 41f1 863e f801 473d 1381 d0bd
00000030: 82ac 93bd 7f31 9cbd 82d5 8ebd f32d 373e
00000040: 616d dabd 98e9 5d3e a46c 5ebb 6142 8ebd
00000050: 6ef0 30bc 760a a6bc 574a 05bd cf48 483d
00000060: 3102 8d3c f35e 97bd 07fc 51be f890 29be
00000070: b27d 493e b082 93bd e66e 64bb 8be2 19be
00000080: dc68 653d 0dfb 42be 3618 3a3d a224 aa3c
00000090: 4238 f03d ca14 92bd ef23 45bd 3508 053e
000000a0: 5d9e aa3d 67f2 b63d abf2 cabd 18f7 efbd
000000b0: 35b8 9f3d 24b8 abbd a8e1 ee3d 4ed7 493d
000000c0: d94f b2bd 5983 ec3d 2390 bb3c f23c 35bd
000000d0: 1315 83bd a445 f5bc 2114 3dbe 15a5 c9bb
000000e0: dbf4 9dbd ec1c bd3c 34b0 b33a 9f33 56bc
000000f0: 5c6f f8bd a789 5f3e 4ba2 f13d 056c 34bd
00000100: d7fb 6b3e c8bf 8cbb 4341 d93b 9cbe 343d
00000110: 0eba 1c3e 116c 57bd 8344 08be edd7 ef3b
00000120: 8fc3 be3d 933c e4bd ed74 4d3d 27b5 98bc
00000130: 9682 18bd 475e 203e a1e6 ff3d 5f87 323e
00000140: 3f29 07be 2caa 1bbd af35 90bd 2696 d93d
00000150: 705b cd3c 2dff e4bd 2bf6 233e caf9 d1bd
00000160: a325 87bd f489 7ebd b93e 923c 4197 a63b
00000170: 44dc 7fbd d906 6cbe c079 d3bd 5019 d1bd
00000180: fb83 9cbc 179b 89bc 22a8 583d c936 4c3d
00000190: 53f8 0c3e e8ce 933d 5ff2 94bd 116e efbc
000001a0: 68e1 f53c 864b 32bc e995 b23d 322f 6ebd
000001b0: ff06 793e 222a ce3d 8423 aa3d 1237 073d
000001c0: 5326 353c d667 823d bec6 f6bc ebe9 85be
000001d0: e04f 1c3d 5adc c4bc 76ca d83c 6ff1 073c
000001e0: ea1d ecbb 5300 ac3d 90bd 583d ed4a 603d
000001f0: f38f 56bd f686 52bd ae31 883d da73 36bd
-0.091629244 -0.14067155 0.05947973 0.17715457 0.097981974 -0.12947455 0.07332336 0.079911
0.015331674 0.26355937 0.048585862 -0.10180869 -0.07210638 -0.07626628 -0.06974317 0.17888622
-0.106653936 0.2167114 -0.0033939267 -0.069462545 -0.01079951 -0.02026866 -0.0325416 0.04889756
0.017212959 -0.07391157 -0.20506297 -0.16559207 0.19676855 -0.07202661 -0.003485614 -0.15027826
0.056008205 -0.19041081 0.045433246 0.020769421 0.1172948 -0.071328714 -0.048129972 0.12991412
0.08330987 0.08932953 -0.099095665 -0.11717051 0.077988066 -0.083847314 0.11664134 0.049277596
-0.08706636 0.1154849 0.022895878 -0.044247575 -0.06400504 -0.029940434 -0.1846471 -0.0061537125
-0.07712718 0.02308508 0.0013709129 -0.013073831 -0.12130615 0.21829854 0.11798533 -0.044048328
0.23045288 -0.004295323 0.0066300943 0.04412709 0.15305349 -0.052593295 -0.13307385 0.0073194415
0.093146436 -0.11144366 0.050160337 -0.018641068 -0.03723391 0.15660964 0.12495161 0.17434452
-0.13199328 -0.038004085 -0.07041489 0.10624342 0.025068015 -0.111814834 0.16011874 -0.102527216
-0.065989755 -0.06214328 0.017852174 0.005083949 -0.06246592 -0.23049487 -0.10325956 -0.10209906
-0.019105902 -0.016797585 0.05289472 0.049856935 0.13766603 0.072171986 -0.07272791 -0.029227288
0.030014709 -0.010882264 0.08719999 -0.058150478 0.24319075 0.1006663 0.08307555 0.033011504
0.0110565005 0.063674614 -0.030124065 -0.26155028 0.038162112 -0.024030853 0.026463728 0.008297308
-0.0072057145 0.08398499 0.052915156 0.054758955 -0.052383374 -0.05139824 0.06650101 -0.04454408

action_model._continuous_distribution.log_sigma f4 [1, 4]
00000000: 5b6d 1740 aaf4 3940 3a3c 9440 da38 9440
2.3660495 2.905558 4.632352 4.63194

action_model._continuous_distribution.mu.weight f4 [4, 128]
00000000: 42f9 833f 5d79 053f 8940 47bf 3a89 24bf
00000010: 82b1 8dbf 4b88 4b3d c49d 993e 76a4 5b3f
00000020: 595f dbbe dac0 79bf cf91 98bf 3b29 ae3f
00000030: 4561 ac3f 0cc2 18bf 96ba 2a3f 3858 6d3e
00000040: 1c8e 56bf ad69 70be cbec 6f3f 5c51 ad3e
00000050: a41c b0be 1320 f13e 0ec6 aa3f 3b3a 5a3f
00000060: bd71 833e 343a 03bd 5c2e ae3e c553 05bf
00000070: d96c a5be 6615 85bf f006 9fbf 4391 92bd
00000080: fc56 31bf 1b1e 12bf 71f9 74bf d416 e6bd
00000090: e812 4cbe 6bbd b43e 73b2 4cbf c0c7 20bf
000000a0: 52e2 97bf e6e7 17bf ce30 52be f9c7 923e
000000b0: b177 c6be c9d6 c8bf 8ae7 a9be 4685 80be
000000c0: 645d 6fbd 9a8d a13f 2495 2f3f aa3a 64bf
000000d0: a15d 653f 6a1d 863f 9e39 03bf ead2 c3bc
000000e0: 2cf4 dcbf a7ca 0b3f a65d bf3e bead 21bf
000000f0: d5e2 873e 31d0 1e3f c60a 9fbe 6133 56bf
00000100: 0acf 41bf 1e5b 413f cac7 b7bf c36d cf3e
00000110: 2360 18be 42a1 393f ff5a f1be 6d97 bf3c
00000120: 5afd a13f 2274 cabe 9a18 663e 5fff 8b3e
00000130: 1128 023e 517c ebbe 8ec8 4c3f 2bd5 99bf
00000140: 9266 dc3d 18cf 773f 886c 14bf 0964 3dbf
00000150: 1e2c c33f 60ac 5dbf 9cfa 82bf 202a 173f
00000160: 0874 26bf 5a92 503e 1858 463f bf0f c2be
00000170: ee88 863f 4127 a9bd 20ad 8d3d 7bcc 0c3f
00000180: 038c 5e3f a8f0 853f f46a 86bf 0088 16bf
00000190: 1697 333f ab50 b03f 7a2c 143f 7e4e c4bf
000001a0: 7764 013e a7fb 713f 1291 153f 1c2f c73d
000001b0: a57e 42be 949e bbbd e304 1d3e 230d ec3e
000001c0: 3b0c a7be 4aed 50bf 0286 193f 654b 61bf
000001d0: dd99 7ebf 783f 4b3f 0aee 513f 1510 66bf
000001e0: fb05 0a3f 38fd 06bf cd09 883f d6c9 69bf
000001f0: 8992 ab3f cc36 813f a47b 9a3f 40b2 953e
00000200: 807d 933f d9e5 e6bd 1046 43bf 780c 6cbf
00000210: 8e25 1abe 8504 283e 8e00 94be 8495 7a3f
00000220: c7b5 1a3f b1cb 8abe 61d6 92bf f567 19bf
00000230: 8388 f83e c1d9 e23f 6691 f4be 360c 973f
00000240: 4f79 b0bf fa7a a83c 4ea5 fa3d 7f6e 3b3e
00000250: 554d ddbd 01ee 8cbf d39d 673d 8868 44bf
00000260: 2b58 5fbe 0e23 38be 26cb 263d 0613 343f
00000270: 2e60 6ebf ea1d 953f d2d7 0c3f ebd8 cf3e
00000280: 6843 cd3f e88b 403f 8e05 02bf c464 923f
00000290: 196e 8c3f ce7c 7f3f c55b 87bf 607c cbbe
000002a0: 5017 ba3f 212f 683f 6768 6e3d 5394 6ebe
000002b0: 0b49 dc3e edfa 41bf 6f19 86bd 2734 90bf
000002c0: 45e8 403e 225f 3cbe 670f 7e3f 7850 223e
000002d0: 503f 2d3f 028d 63be c8fb d1be dda1 a13f
000002e0: e76a 28bd 7d18 643f 3cba 13bf 36a2 b63e
000002f0: 966d 083f 7f3a b6bf 8b15 2bbf 833c a0be
00000300: db9c 6abf 83d8 603f ca24 ae3f 3730 bfbf
00000310: 0453 e9be d3e8 d2be 8789 eebc da8c 913f
00000320: a665 3bbf 840c adbd 25a7 2fbf 5e62 0cbf
00000330: 480b 56be 7167 01be 3cf1 a43e 45e2 4f3e
00000340: 215c ab3f c33a 47bf 2599 783f 040c 92bf
00000350: 53f0 333e d5f9 8a3e a47a 1b3f 9108 a8bf
00000360: 4435 b93f e693 783f 3fbf db3e 9ba8 333f
00000370: 3bf3 a3bd 55d6 4fbf cd66 b63e ffb4 95be
00000380: 114a f63d 6b6a 9bbf 8cc8 8a3f b12a 733f
00000390: dc0e 8c3f 5860 6a3f 3a63 b83c 7468 023d
000003a0: c54a 50be a8e4 933e e96e 253f de5a 22bf
000003b0: 958b ba3f 7d2f 52be bbda 883f 2c2d b53e
000003c0: a014 7d3f 4ae8 eebe 3a54 8fbf 7195 083f
000003d0: c71f 5d3f 4bab 83bf 9e3a 97bd d62b e7be
000003e0: 96b1 0240 e3ca dfbe d2d6 ce3d 4ada f13f
000003f0: 6f21 0fbf 88df 923f 7c02 483e b545 ffbf
1.0310442 0.5213831 -0.7783285 -0.6427189 -1.1069796 0.049690526 0.30003178 0.8579782
-0.42846182 -0.97559893 -1.1919497 1.3606333 1.3467184 -0.5967109 0.6669096 0.23178184
-0.8381059 -0.23477812 0.9372069 0.33851135 -0.3439685 0.47094783 1.3341691 0.852451
0.25672713 -0.03203793 0.34019744 -0.5208095 -0.32309607 -1.0397155 -1.2423992 -0.07156613
-0.6927335 -0.5707719 -0.9569312 -0.11234823 -0.19929087 0.35300764 -0.7995979 -0.62804794
-1.1865942 -0.59338224 -0.2052643 0.28668192 -0.38763192 -1.5690547 -0.33184463 -0.2510168
-0.058438674 1.2621338 0.68586946 -0.89152014 0.8959599 1.0477726 -0.5125979 -0.023904283
-1.7262015 0.546061 0.37376136 -0.63155735 0.26540247 0.62036425 -0.31062907 -0.8367215
-0.7570654 0.7552966 -1.4357846 0.4051343 -0.14880423 0.72511685 -0.47139737 0.023387635
1.2655442 -0.39541727 0.22470322 0.2734327 0.12710597 -0.45993283 0.7999352 -1.2018179
0.10761751 0.96800375 -0.57978106 -0.73980767 1.5247838 -0.8659115 -1.023273 0.5904865
-0.650208 0.20368329 0.7747817 -0.37902638 1.0510538 -0.0825944 0.069177866 0.5499951
0.8693239 1.0464067 -1.050139 -0.5880127 0.70152414 1.3774618 0.57880366 -1.5336454
0.1263598 0.94524616 0.58424485 0.09725782 -0.18993624 -0.09161106 0.15333895 0.46103773
-0.3262652 -0.81612074 0.59970105 -0.8800567 -0.99453527 0.7939372 0.82003844 -0.8986829
0.53915375 -0.5273013 1.0627991 -0.913236 1.3404094 1.0094848 1.2068982 0.29237556
1.1522675 -0.11274309 -0.7627878 -0.92206526 -0.15053388 0.16407974 -0.28906673 0.9788439
0.6043362 -0.2710853 -1.1471673 -0.5992425 0.4854165 1.7722703 -0.4776718 1.1800601
-1.378702 0.020566452 0.122385606 0.1830387 -0.108057655 -1.1010133 0.056546997 -0.76722
-0.21810977 -0.17982122 0.04072108 0.7034153 -0.9311551 1.1649754 0.55016816 0.40595183
1.6036196 0.7521348 -0.50789726 1.1437001 1.0971099 0.9979981 -1.0574881 -0.39743328
1.4538364 0.90696913 0.058205035 -0.23298769 0.43024477 -0.7577351 -0.0654782 -1.1265916
0.18838604 -0.18395665 0.9924225 0.15851009 0.6767473 -0.22221759 -0.41012406 1.2627522
-0.041117575 0.89099866 -0.57706046 0.35670632 0.53292215 -1.4236602 -0.66829747 -0.31296167
-0.9164559 0.8783037 1.3604977 -1.4936589 -0.45571148 -0.41193256 -0.029118313 1.137111
-0.7320198 -0.08449653 -0.6861442 -0.54837596 -0.20902741 -0.12637116 0.32215297 0.20301159
1.338749 -0.7782404 0.9710868 -1.1409917 0.17572145 0.27143732 0.6073401 -1.3127614
1.446938 0.97100675 0.42919347 0.70179147 -0.08005377 -0.8118642 0.35625306 -0.29239652
0.12025846 -1.2141851 1.0842452 0.94987017 1.0942035 0.9155326 0.022508252 0.031837896
-0.20341022 0.28885388 0.6462236 -0.634199 1.4573847 -0.20525928 1.0691751 0.35386026
0.98859596 -0.46661597 -1.1197579 0.5335303 0.86376613 -1.028665 -0.07384227 -0.45150632
2.042089 -0.43709478 0.100995675 1.8894742 -0.5591039 1.1474466 0.19532198 -1.9943148

action_model._continuous_distribution.mu.bias f4 [4]
00000000: 12d4 c33e b1ce 68be 6822 a3bd fd94 183f
0.38247734 -0.22735097 -0.07965547 0.5960234

onnx::LSTM_102 f4 [1, 512, 128]
00000000: ef32 a83e 72a1 4ebd 9e80 8e3e fed2 5b3e
00000010: 2bb2 0f3d d9fa bfbe 5d5d e83d 8c89 8e3d
00000020: 28e9 9fbd 46f2 853e 7c7e 85be 9519 47be
00000030: ee21 6a3e 0dfb 64be a110 d03d eaa5 703e
00000040: 476d b5bb d597 343e 37c0 b03d 2745 c1be
00000050: f494 63be 5167 b8bd d9e2 b0be 32e7 943d
00000060: 0d5c 02be 3b73 3cbd 819e b2bd 8ce8 a93e
00000070: bf29 7a3e eb04 123e 89f1 21be e73c 873e
00000080: d556 31be a374 b7be 35f1 39be f65b 98be
00000090: 7785 ad3e eb39 18be c5fd e33e a0d2 aa3d
000000a0: 20e6 63be 51e6 1fbe ac6c fbbc 10cf d63c
000000b0: 105d 603e b711 7bbe 67f8 c5bd a67a c63e
000000c0: 29eb bdbd 90e2 403f 971c 44be 7719 76be
000000d0: d07c f9be eb80 82bd ae24 6abe 7b45 bfbd
000000e0: 151e b5bd 7009 17bf 487e c83e 2526 d83d
000000f0: 0c10 a6bd becb fc3c c08e 02bc 5514 05be
00000100: 5a6e ebbe 8100 9c3e 38d1 f6bd ab50 db3c
00000110: af63 2f3d 3070 10be fc33 923e b572 033e
00000120: 6168 35be e732 d8bc 1cc6 df3e 80f9 babe
00000130: b001 c73e 72a4 373e 2eac 9dbd c503 65bd
00000140: db93 d6be a792 a0bd 521b 73bd a6af a53e
00000150: 1427 9e3e fb42 cb3e 4c10 803e 36a9 183d
00000160: c327 a0be 0ef8 37be f49a 473e 5d79 5d3d
00000170: cdc9 22be a3e4 92be 128a 31be b720 493e
00000180: ce22 0cbe 7074 9e3e 1b32 223d 043e 8c3c
00000190: fc47 0d3d 16c7 043f 956f 103d b31d aa3e
000001a0: df53 8e3d d7eb 683e ccf5 7cbc 3744 3b3e
000001b0: de44 fb3d 44b0 623d 2001 6cbe ff09 c43e
000001c0: 3997 e13d b1b5 babe 2ced a5bc 4bd6 c5be
000001d0: 7397 7dbe 560a 29be 6fc9 0abe 52e0 2a3c
000001e0: 22c7 e33e 4d5d f03b 4ad8 7b3d 7ca5 4fbb
000001f0: 6e0b bc3c 4c2f 853d 71ec 58be bb41 f63c
00000200: 2af4 fcbd b942 3f3d 8439 49bd 1f27 f6be
00000210: a3b8 353e 84c7 8f3e a2e1 353d 4082 11be
00000220: 0fee 9abe d4ec 263e df29 433d aec6 bc3e
00000230: 092b bdbd 4ff7 953b c052 503c fa0f 27be
00000240: eb10 08be 7b30 9d3a b071 bf3d 1892 8bbd
00000250: d182 633d d6eb 06bd 6a93 253e 92a9 e33d
00000260: 0a68 db3d 27cf 81bd 8dee 88bd a61e c3bc
00000270: c8bd d93d e3ee 623e f523 ab3e 7d95 06bd
00000280: 37f4 383e 7f5b fd3d dc85 8bbe 98f8 34bd
00000290: 52ca d03d ed6f 5f3e 5b9d 443d 553e 0a3d
000002a0: 00f7 0f3e c4ab a03e 22cb c2be 0553 d8be
000002b0: bedb 51be a5e3 35be fbf0 0dbe d43c febd
000002c0: 1af9 1f3d e262 72be d5f8 313e 9b68 343c
000002d0: 1065 5cbc 15ee 273c bd56 fd3c ddd0 9f3d
000002e0: bc14 e5bd ebc2 02bd 0e73 00be 9756 523e
000002f0: a16f 9fbd 6076 64be 5c0a 133e 6c11 a4bd
00000300: b629 d3be 0b8e 75be 51c9 593d 8a44 bd3d
00000310: efa7 f73d 11b8 1f3d 33c6 10be 6a21 bd3d
00000320: e776 a3be 3029 593e 448c 4b3e 9745 48be
00000330: 0880 4bbc c592 68bd 5f49 25be c74f 61be
00000340: d414 f93d 65df 8ebe 928c cabd 6b3c b13e
00000350: f4cd 8cbe 54c3 d03e 2585 f0bc bd31 c2be
00000360: d552 18be c092 07be 559e 10ba a1d2 853d
00000370: c401 22bd 96d4 8abe f54c f5bd bafa 6dbd
00000380: 03be 1c3d 871b 653e 052f a0bd 6ff4 94bc
00000390: b29d 93be 7147 db39 c887 b03d 4daf 6a3d
000003a0: ada0 19bd 90b6 93bd 9ca6 083d b813 18be
000003b0: 41e8 fc3c e5c2 833e 3059 503d c805 d83e
000003c0: 426a 813e ad69 2d3e bf0f c9be 3226 15bd
000003d0: cfd5 f93d 7b20 443e ee6d c23e e723 433e
000003e0: 64a1 84be 644c 8ebd 8501 e73d 9388 cb3d
000003f0: 09b6 2ebe b3e2 45bd 78cf dabd 5808 20be
0.3285136 -0.050446935 0.27832502 0.21467206 0.035082024 -0.3749607 0.11345933 0.06959829
-0.07808143 0.26161402 -0.26073062 -0.19443353 0.22864506 -0.22361393 0.10159422 0.23500791
-0.0055367085 0.17636044 0.08630412 -0.37748072 -0.2222479 -0.09004081 -0.3454807 0.072706595
-0.12730427 -0.04600833 -0.087216385 0.33185232 0.24429987 0.14259689 -0.15814795 0.26413652
-0.1731828 -0.35831174 -0.1815842 -0.2975766 0.33890888 -0.14865844 0.44529548 0.08340955
-0.22255754 -0.15615202 -0.030691467 0.026221782 0.219105 -0.24518476 -0.096665196 0.38765448
-0.09273369 0.75345707 -0.19151531 -0.24033152 -0.48728037 -0.063722454 -0.22865555 -0.09339424
-0.08843628 -0.58998775 0.39158845 0.105541505 -0.081085294 0.03085887 -0.007968605 -0.12996037
-0.4598263 0.30469134 -0.12051624 0.026771864 0.042819675 -0.14105296 0.28555286 0.12836726
-0.17715599 -0.02639146 0.43705833 -0.36518478 0.38868475 0.17933825 -0.07698856 -0.055911798
-0.4190968 -0.07840472 -0.059352227 0.32360572 0.3088919 0.3969954 0.25012434 0.037270747
-0.31280336 -0.17965719 0.19492704 0.05407082 -0.15897293 -0.2869006 -0.17337826 0.19641386
-0.13685152 0.3094821 0.039598566 0.017119415 0.034492478 0.5186628 0.035262663 0.33225784
0.06949591 0.22746216 -0.015439462 0.1828774 0.12268995 0.05534388 -0.23047304 0.38288876
0.110151716 -0.36466745 -0.020254694 -0.38640055 -0.24764805 -0.16507849 -0.13553403 0.010429459
0.44487864 0.007335341 0.061485566 -0.003168433 0.022954669 0.06503162 -0.21183945 0.03006064
-0.12351258 0.04669449 -0.049127117 -0.48076722 0.17746215 0.28081906 0.044404633 -0.14209843
-0.3025975 0.1630128 0.047647353 0.3687033 -0.09236724 0.0045766006 0.012715042 -0.16314688
-0.13287704 0.0011992598 0.09347856 -0.068149745 0.055544678 -0.032939754 0.16169515 0.11116327
0.10713203 -0.06338339 -0.06686125 -0.023818325 0.10631901 0.2216144 0.3342587 -0.032857407
0.1806191 0.12370967 -0.27250564 -0.04418239 0.101948395 0.2182004 0.04800163 0.03375085
0.14059067 0.31381047 -0.38045603 -0.4225084 -0.20493981 -0.17762621 -0.13861458 -0.12413946
0.03905592 -0.23670533 0.17380078 0.011011268 -0.01345183 0.010249634 0.03092515 0.078035094
-0.111855954 -0.03192417 -0.1254389 0.20540844 -0.077849634 -0.22310781 0.1435942 -0.080111355
-0.4124276 -0.23979966 0.053170506 0.092415884 0.12092578 0.0389939 -0.14138107 0.09234889
-0.31926653 0.21207118 0.19877726 -0.19557796 -0.012420662 -0.056780595 -0.1614127 -0.22003089
0.12162176 -0.27904812 -0.09890093 0.34616408 -0.2750088 0.40774024 -0.029360363 -0.37928572
-0.14875348 -0.13239574 -0.00055167574 0.06534315 -0.039552465 -0.27115315 -0.11977569 -0.05810044
0.038267147 0.22373782 -0.07821468 -0.018182961 -0.2883125 0.00041824163 0.08619648 0.057296086
-0.037506748 -0.072125554 0.033362016 -0.14851272 0.030872466 0.2573463 0.050866306 0.4219191
0.2527638 0.16934843 -0.39269826 -0.03641338 0.12198984 0.19153015 0.37974495 0.19056664
-0.2590438 -0.06948164 0.11279587 0.09938159 -0.17061628 -0.0483119 -0.10684103 -0.15628183

onnx::LSTM_103 f4 [1, 512, 128]
00000000: f1c4 9cbd f35e 983e 4d6d e4be d644 5fbe
00000010: 41e8 1cbe 4563 2cbe 0602 b3bd fc50 173f
00000020: 016c 25be 3bc0 84be 3576 d93e 8ca1 11bf
00000030: b77d 9dbd 02fe bfbe afa2 a73d 4b08 3cbf
00000040: 75a0 51bd 629b 6ebe e717 993e 39ef da3c
00000050: 23ec 683e 64a3 0b3e 2cc7 bf3c 9498 a03e
00000060: 72b2 c1bd cd6b 9abe 4c69 e7be 735e ba3e
00000070: 2753 a43d 65c0 0dbf 1cd9 d1bd 64fc 233e
00000080: 996c 403f 5a3c 9bbd 4057 1e3d 2e7e 9abd
00000090: 0a05 c9be 57f7 0b3f 3d62 14bc e994 a23e
000000a0: d238 cfbd ae24 d6be 02d8 2ebe 3175 633d
000000b0: 0136 c9be acdd b33d 553f a4be 965a 013f
000000c0: 14ee e73d 007e 29be 05ff 8f3e e234 03be
000000d0: 1441 d43d 5cc8 bc3e c4f8 1e3e 4f2a 78bc
000000e0: 1678 fbbe 100d c7bd 373d 2dbe 138e 62be
000000f0: d47b fc3d 83ba 213f ea6d 513e ca77 db3d
00000100: 9224 0a3e 9d88 9f3c 93d4 723e 6063 3a3f
00000110: 2fa6 633c 08f0 383e ab64 f03e b042 6cbe
00000120: c6ce 99be 7710 a6bd c519 d2be 3650 333e
00000130: e591 b2bd fac4 393e 048b a33d c40f e9be
00000140: 9cde a7bd aecd fb3e 2e3e 68be f3be 24be
00000150: e590 80be c5d7 fb3d 2415 12be c6fe 823d
00000160: 9353 cbbe 5ee6 243e 6928 d2bd ee45 a5bd
00000170: 6538 aebe 7ae2 423e caaf 0d3e c6ba 913e
00000180: 036c 923e 52f1 e0bd bdd6 7ebe d63a 3b3e
00000190: e73a 6dbe 8d42 7cbe 5522 813e e5b1 813e
000001a0: 60ab b23e e630 8a3d ef40 ca3e d870 e73d
000001b0: d54d 983e dbc0 0abf 6dbb 86bd 3f46 993b
000001c0: 5600 cd3e 9baf 29bf bf2c 9fbd e3ad 63bd
000001d0: 5a5e 363e a7f3 a7bd 6d89 983e 1f3d 223e
000001e0: 7342 83be 876d 553e 8b90 75be 6ded 60be
000001f0: b1da 18bd b265 c3be 9975 4dbe b8b3 20bd
00000200: ca83 46be b700 48be def3 cfbd 40d5 0a3e
00000210: 32b0 2fbe f740 4bbc 4e7b 183e 4672 9a3d
00000220: 8fd4 70be 86fe ccbe a868 46bd bccb 1ebf
00000230: d900 ec3d 8d2f 0cbb 1d3e b83d 59e0 1d3e
00000240: 00c5 a8bd f1d0 79bc 4270 253e bc3e 2fbe
00000250: d7ef cb3e 9c97 d43d df8b b1bd 3950 84be
00000260: e70f b43d 219a b33e 501f 46bd aae3 373e
00000270: 3178 3fbe 7dd4 d5bd 596a 8bbe be7f 053d
00000280: b2f1 003c 0485 843d 7c74 b6be bd07 2d3d
00000290: 55ef 023e 960f 7c3e a4de 283e 29a6 b53d
000002a0: 82db 50be 5a83 083e b48c 5fbe e52e 8ebd
000002b0: 3ec0 ad3c aae9 89be b1a5 7dbe df1c c4bc
000002c0: b563 37be f66c 993e 839c 3c3d e11c e53d
000002d0: de89 ed3d 35df 3ebe 5176 58be 7158 4ebc
000002e0: d2f3 5f3e f4fd 9e3d 7ba0 753d 0939 853e
000002f0: 788a adbd 639f 5f3e e253 dd3c 073e ac3d
00000300: 4b1b 31bd 7a40 0b3e 92e7 4bbc 32fe 933d
00000310: e2d0 183e ae38 f53d 700b 8f3d 96e2 babd
00000320: 96e5 ebbc 3b85 29be 71d7 1f3d fc99 9f3c
00000330: 070b 5fbd be20 ecbd 4546 bebd 7310 833e
00000340: 0fe0 9dbd 8098 00bd 4cb9 8cbe c50d 3a3d
00000350: c9ad bbbd f2a0 f0be 2b1f cebe e175 563d
00000360: 9d9a 5a3d 610e 813e f543 b3bc 1caf 84bd
00000370: 35d3 a7be d3e6 cabd bf87 b8bd 790f 0bbc
00000380: 8c57 03bd 9f9d 893d 0c9a 513c 4e75 be3e
00000390: ad81 083e cb68 60bd f264 a73d 0ce6 613d
000003a0: ba2b c83e d7d2 c33c 27b0 e13d 939c bf3d
000003b0: 02b4 28be 94c8 a33e 98fa 643d a47a ecbd
000003c0: 5d3c 8ebe eb55 7c3e 6633 033e dc1c 4dbe
000003d0: 4624 88bd a1c2 4c3e 94ec 0fbe 59aa a03d
000003e0: c34c ad3e b321 073e 4699 e53d 9505 c8bb
000003f0: 70c8 e63c f2e6 34be 62c8 373d bb04 2abe
-0.07654751 0.2975994 -0.4461464 -0.21803603 -0.15322973 -0.16834743 -0.0874062 0.5910795
-0.16154481 -0.2592791 0.42472997 -0.56887126 -0.07689994 -0.3749848 0.08185326 -0.73450154
-0.051178414 -0.23301461 0.2990105 0.026725398 0.22746329 0.13636547 0.023410402 0.31366408
-0.09457864 -0.3016037 -0.45197523 0.36400184 0.080236726 -0.55371696 -0.102464885 0.16014248
0.75165707 -0.075798705 0.038657427 -0.07543598 -0.39261657 0.54674286 -0.009056625 0.31754234
-0.101182595 -0.4182486 -0.17074588 0.055531684 -0.39299014 0.08782515 -0.32079569 0.5052885
0.11324707 -0.16551971 0.28124252 -0.12813142 0.10363975 0.36871612 0.15524584 -0.015146806
-0.49115056 -0.09719288 -0.16917883 -0.2212451 0.12328306 0.6317522 0.20452085 0.10716207
0.13490513 0.019474322 0.23713903 0.72807884 0.013894602 0.18060315 0.46951804 -0.23072314
-0.30040568 -0.08108609 -0.41035286 0.17511067 -0.087192334 0.18141547 0.079854995 -0.4551984
-0.08196756 0.4918036 -0.2267997 -0.16088466 -0.25110546 0.12297014 -0.14265877 0.063962504
-0.397122 0.16103503 -0.10261614 -0.08069979 -0.340274 0.19031706 0.1383659 0.2846281
0.2859803 -0.10983528 -0.24886604 0.18284163 -0.23167 -0.24634762 0.25221506 0.25331035
0.34896374 0.06747608 0.39502665 0.1130082 0.2974688 -0.54200524 -0.065787174 0.0046775634
0.4003932 -0.6628358 -0.077722065 -0.055585753 0.1780943 -0.0820077 0.29792348 0.15843628
-0.25636634 0.20842563 -0.2398092 -0.21965571 -0.037317935 -0.38163525 -0.20064391 -0.039233893
-0.19386211 -0.19531523 -0.10153936 0.13557911 -0.17157057 -0.012405626 0.14890787 0.07541327
-0.23518585 -0.40037936 -0.04843965 -0.62029624 0.11523599 -0.0021390647 0.08996222 0.15417613
-0.082407 -0.015247569 0.16156104 -0.17113775 0.3983142 0.1038048 -0.086692564 -0.25842455
0.08792096 0.3507853 -0.048369706 0.1795794 -0.18698193 -0.104409195 -0.27229574 0.032592528
0.007870125 0.06470683 -0.35635746 0.042243708 0.1278661 0.2461532 0.1649118 0.08869583
-0.20396236 0.13331357 -0.21831018 -0.06942538 0.021209832 -0.26936084 -0.24770238 -0.023939548
-0.17909129 0.29965943 0.0460477 0.11187149 0.11598562 -0.18639834 -0.21138884 -0.012594328
0.21870354 0.077632815 0.0599675 0.26020077 -0.084736764 0.21838145 0.027017538 0.08410268
-0.04323892 0.13598815 -0.012445347 0.07226218 0.14923432 0.119737014 0.069846034 -0.09125249
-0.028795999 -0.1655473 0.03902382 0.019482605 -0.054453876 -0.115296826 -0.092907466 0.25598487
-0.077087514 -0.031395435 -0.2748512 0.045423288 -0.09164006 -0.46997792 -0.40258154 0.05235851
0.053370107 0.25206283 -0.02188299 -0.06478712 -0.32778326 -0.099073075 -0.090102665 -0.008487576
-0.032065913 0.06719517 0.012793075 0.3719887 0.13330717 -0.05478744 0.08173551 0.05515103
0.3909586 0.023904247 0.110199265 0.09356036 -0.16474918 0.31988966 0.055903047 -0.11546829
-0.2778043 0.2464215 0.12812576 -0.2003054 -0.066475436 0.1999612 -0.14055091 0.07844991
0.33847627 0.13196449 0.11210875 -0.006104181 0.028171748 -0.17666224 0.044868834 -0.16603367

onnx::LSTM_104 f4 [1, 1024]
00000000: e475 1c3e d6cf 573d 6f4f 70bc 3a66 99bd
00000010: a067 47bd bc43 6bbd fe25 293d 2d7e 1cbd
00000020: 4a61 eebd c76f 4bbc 3247 a1bd a7ca 25be
00000030: 77a8 51bd 6f6c 99bd ba04 55be 0742 403d
00000040: 18ca 663d 9261 0f3d 802d 193d 37e1 cdbd
00000050: 2962 503d f84c 913e dc27 6abe d949 ea3d
00000060: dc1a 80be 73d8 56bb d1c8 e4bd ee55 22be
00000070: 0fa9 a23d 29d7 fb3d ac29 5e3d 04d9 ddbc
00000080: f840 203e 7d96 543c 6c16 a6bd ef3d c3bd
00000090: 2c7c ab3c a6e6 163e b823 803d 7585 5e3c
000000a0: f4f1 9b3e a89e 7bbc fd9c d0bd 3f3c 44be
000000b0: 7676 033e 4fab 95bd 5ab7 ae3d 7fce df3c
000000c0: 3583 9abd af03 243c a810 28be d2b0 853e
000000d0: 83b5 653c 2b19 e33c dfdb 2d3e 13c2 a43d
000000e0: 3265 373d f7a1 663c 7573 293e c66a 903d
000000f0: 5676 61bd d25c e33d 59cb bb3c cbbb d43d
00000100: 540e cd3d 0521 a13d 5943 173e 9e28 0c3d
00000110: d921 da3d e8bb 393e d4b3 6bbc ea95 25be
00000120: ab9a cc3d eac6 dc3c 7a72 213d 286e 3cbe
00000130: 7f6c 6ebe 4033 5f3d a644 f5bd 7705 43bc
00000140: dd02 14bd 5225 0a3d cc22 ab3d 2ca0 34be
00000150: 0ea0 38bd 705a 6a3c 8e29 83bc c0b7 2d3d
00000160: f626 0a3e a784 6d3c a61e 13be 7172 533e
00000170: 81c6 1fbb 0cd8 273d 097b aabc 862b a93c
00000180: e1b7 3ebd f56f e83d 32fe f23d 79fb df3d
00000190: a764 84bb 0be6 a7bc dcd8 d53d 6f6c 833d
000001a0: f25a 963d 4551 f53d 4176 a5bc d3d7 c5bd
000001b0: 6ed9 43bd bbcb 163d eeb0 5bba 5cee 36be
000001c0: 87cf 92bb 9825 2ebe fca9 063e 7fa9 0ebc
000001d0: 3625 0ebc e510 323e 05dc 9cbc 9f7f ec3d
000001e0: 55a0 1e3d ece2 c33d b177 bc3d e002 3d3d
000001f0: 9c3e 203d 79d8 cfbc ed63 8e3d a8ff 103e
00000200: 2522 be3d 694d bb3c 6533 d5bd f342 ad3b
00000210: 7e36 69bc fd96 483e 897f 9dbd 2791 4abd
00000220: 7abe 3e3d 3581 af3d 55d0 843c 68b5 6dbb
00000230: af17 863d b684 5cbc 2524 37be 78d9 66be
00000240: 58ec 1bbe 52e8 50be 0a4e 3cbc 9803 153e
00000250: 2745 84b9 46c1 f43d 8fe2 f9bd 75db 7f3d
00000260: a81d 1bbd 7503 6b3d a276 f93d e950 40bd
00000270: c2f3 a7bc 7bcd 913d cb9a 3bbe 7127 0dbe
00000280: a66d 823d f638 1bbe 4bfa 8c3e 35dd 43bd
00000290: 5987 2b3e b175 79bd 1fde 4c3e 96ab 2a3e
000002a0: 6b3e a7bd bf90 bcbc 9c67 ee3a 0df5 6f3c
000002b0: 9ebe 88be 99fc f13a c60f ee3c dd83 26bd
000002c0: 713b ca3c 0627 eb3d 6555 2a3e 6132 0dbd
000002d0: e171 20be 0f0a 5abd 7ef3 5b3c 28df 40be
000002e0: 6809 543e c99a 09be 7e66 b83d bbf7 8b3e
000002f0: 85d1 9cbe b253 313e 450a 8ebe f184 fd3c
00000300: fe72 983e d274 473e 44ca cd3d dd30 1bbc
00000310: 73d5 2c3d 9657 04be 9f0b 28bd bbbb e4bc
00000320: 222b 15be 181c fd3d cbdd 9d3d ef4d dc3d
00000330: e32f 1e3e 87d1 2e3e acd5 3cbd 6093 203d
00000340: 48d1 fb3d 93a9 f43d 0b0c 3f3d 2c64 143e
00000350: f61f 31bd 6f09 493e 5f67 aa3d 26db edbc
00000360: 44c4 87bc 3b54 f8bc b11e 913c 9f8d 6ebd
00000370: 09f0 37bd 6e2c e33d 8957 7dbd be44 543e
00000380: 67c1 e53c 3616 d03d b60a 1bbd 740c 28bc
00000390: 38ad 3c3d b719 0abe 14e0 253d ed5d 653d
000003a0: bd29 85bd 1f8a a43c 7303 b03d cc52 5dbd
000003b0: 23bc 8a3d 5c3b 2d3e becf 9c3d a350 af3d
000003c0: 8951 f33d 8fbd 2dbe dc0d 423e 2efb b9bd
000003d0: 1b87 08bd 094e b23d e328 c73b e1d0 ffbd
000003e0: 5d9a 73bd f236 b73d 103b 26bd cf34 50bd
000003f0: 1f82 1ebd 9bbc 9d3d 0a92 c73d 0aa6 5b3e
0.15279347 0.052688442 -0.014667376 -0.07490201 -0.04868281 -0.057437643 0.041295998 -0.038206268
-0.1163965 -0.0124167865 -0.078749076 -0.16190587 -0.05118605 -0.07491385 -0.20802584 0.04693797
0.056345075 0.03500516 0.037396908 -0.10052722 0.050874863 0.28379035 -0.22866768 0.114398666
-0.25020492 -0.0032782822 -0.11171115 -0.15853092 0.079424016 0.12296898 0.05423896 -0.02708102
0.15649784 0.012975332 -0.081097454 -0.09533297 0.020933233 0.14736423 0.06256813 0.013581623
0.30458033 -0.015357651 -0.10186193 -0.19163607 0.12838158 -0.07308065 0.08531065 0.027320145
-0.07544557 0.010010644 -0.16412604 0.26111466 0.014020327 0.027721962 0.16978405 0.08044829
0.04477424 0.014076701 0.1654795 0.070516154 -0.055044495 0.111016884 0.022924112 0.10387381
0.100124985 0.07867626 0.14771785 0.034218423 0.10650987 0.18138087 -0.014386136 -0.16170469
0.09990438 0.026950318 0.039415814 -0.18401396 -0.23283575 0.054492235 -0.11975984 -0.011903158
-0.036135543 0.033726998 0.08356246 -0.17639226 -0.045074515 0.014303789 -0.016011026 0.042411566
0.13491425 0.014496959 -0.1436716 0.20649125 -0.0024379792 0.040977523 -0.02081062 0.020650636
-0.04656208 0.11349479 0.1186489 0.109366365 -0.004040319 -0.020495435 0.10441753 0.064171664
0.07341565 0.119783916 -0.02019799 -0.09660306 -0.04781478 0.036815386 -0.00083805516 -0.17864364
-0.0044803056 -0.17006528 0.13150781 -0.008707403 -0.008675864 0.17389257 -0.019147882 0.11547779
0.038727123 0.09564766 0.09202517 0.04614532 0.03912221 -0.025371777 0.06952653 0.14160025
0.09283856 0.02286406 -0.10410193 0.005287522 -0.014234183 0.19588847 -0.07690341 -0.049454834
0.04656837 0.08569566 0.016212622 -0.0036271457 0.06547486 -0.013459375 -0.17884882 -0.22543895
-0.15226877 -0.20401123 -0.011493215 0.14552152 -0.00025228524 0.119509265 -0.12201416 0.06246515
-0.03787008 0.057376344 0.121808305 -0.046952162 -0.020501975 0.071192704 -0.18320768 -0.13784577
0.0636857 -0.15158448 0.27534708 -0.04781838 0.1675085 -0.060903255 0.20006607 0.16667017
-0.08166202 -0.023018239 0.0018188837 0.014645827 -0.2670793 0.0018462121 0.029060256 -0.0406531
0.024686547 0.114820525 0.16634138 -0.034471873 -0.15668441 -0.05323225 0.013424752 -0.18835127
0.20706713 -0.13437952 0.09003924 0.2733744 -0.306286 0.17317083 -0.2774221 0.03094718
0.29775232 0.19478157 0.10048345 -0.009472099 0.04219575 -0.12924036 -0.041026708 -0.027921548
-0.14567235 0.12358874 0.07708319 0.10757052 0.15447955 0.17072116 -0.04610221 0.039203048
0.122957766 0.11946406 0.046642344 0.14491338 -0.04324337 0.19632505 0.08320498 -0.029035162
-0.016573079 -0.030313602 0.01771483 -0.05824053 -0.04490665 0.11092459 -0.06185106 0.20729348
0.028046323 0.101604864 -0.03785201 -0.010256875 0.04606363 -0.13486372 0.0404969 0.055997778
-0.065021016 0.020085393 0.08594408 -0.05403404 0.067741655 0.16917175 0.07656811 0.08560302
0.11880786 -0.16966842 0.189506 -0.09081112 -0.03333197 0.0870629 0.006077872 -0.12491012
-0.059473384 0.08946027 -0.04058367 -0.050831612 -0.038698312 0.07701989 0.097446516 0.21450058
