results/DroneAgentVer2/DroneAgent/DroneAgent-160429.pt (torch, 863544 bytes, 44 tensors)

network_body._body_endoder.seq_layers.0.weight f4 [128, 101]
0	0x3e07ed06	0.13274011
1	0x3be71c6b	0.007052948
2	0x3d232620	0.03983128
3	0x3d9d84b7	0.07691329
4	0xbc6ffd42	-0.014647784
5	0x3ca05834	0.019573309
6	0x3df8b03d	0.1214299
7	0x3e2471ac	0.16058987
8	0xbe635b75	-0.22202857
9	0xbe52abe8	-0.2057339
10	0x3db46fb9	0.08810372
11	0xbd37d8d5	-0.04488452
12	0x3cdeff21	0.027221264
13	0x3e54bd27	0.20775281
14	0xbd1c16db	-0.038107734
15	0xbd8a17c6	-0.06742816
16	0x3e3e8271	0.18604447
17	0xbdfa34e4	-0.12217119
18	0x3cbe3d46	0.023222577
19	0x3e04de20	0.12975359
20	0x3c6ec92f	0.014574333
21	0x3e137dbc	0.14403433
22	0x3c9991db	0.018746307
23	0x3e1f98ec	0.15585679
24	0x3d038cf5	0.03211685
25	0xbde59a27	-0.11211043
26	0x3e67ed51	0.22649123
27	0x3e04d74b	0.12972753
28	0xbd93fe97	-0.072262935
29	0xbdb1dc53	-0.08684602
30	0xbdd0866e	-0.101818904
31	0x3dcfa7fd	0.10139463
32	0xbca1bb78	-0.019742712
33	0xbdcedec7	-0.10101085
34	0xbd55eb7a	-0.05222652
35	0xbe289ffe	-0.16467282
36	0x3e465694	0.19368964
37	0xbbeb9487	-0.0071893367
38	0x3e6498b3	0.22323875
39	0xbd766fa5	-0.060165066
40	0x3d2cbcfe	0.042172424
41	0x3c24f34a	0.01006777
42	0xbe2d648c	-0.16932887
43	0xbce8c6e5	-0.028415153
44	0xbcdffbbe	-0.02734172
45	0xbe38665a	-0.18007794
46	0x3d8a94ba	0.067666486
47	0xbd02390c	-0.031792685
48	0xbd8e3fcc	-0.06945762
49	0x3cff51f9	0.031167017
50	0xbe2fddfb	-0.17174523
51	0x3e36b1b6	0.17841229
52	0xbd49b94c	-0.04924898
53	0xbc846d1d	-0.01616531
54	0x3c425424	0.011860881
55	0x3e025151	0.12726332
56	0xbd197743	-0.037467252
57	0xbe3e3e08	-0.1857835
58	0xbe4e0363	-0.2011848
59	0x3d380ded	0.044935156
60	0xbd4ac3a0	-0.04950297
61	0x3d945f3f	0.07244729
62	0xbda26ff2	-0.07931508
63	0xbc90b931	-0.017666431
64	0xbe1a1014	-0.15045196
65	0xbd847003	-0.06466677
66	0xbc84be5d	-0.016204054
67	0x3df066b0	0.11738336
68	0xbc8a5efd	-0.016890997
69	0x3d25035c	0.040286407
70	0x3bee699f	0.0072757746
71	0xbe428943	-0.18997674
72	0xbda4de28	-0.080501854
73	0xbd8147bc	-0.0631251
74	0xbd831b5e	-0.06401704
75	0xbdf6ee3a	-0.12057157
76	0x3dd1a29d	0.10236094
77	0xbd8021c9	-0.06256444
78	0xbd7a8020	-0.061157346
79	0x3df19b46	0.11797194
80	0x3d9f68b0	0.077836394
81	0x3dbc4c64	0.09194258
82	0x3df9700b	0.121795736
83	0x3e044329	0.12916245
84	0x3e82da7b	0.25557312
85	0xbe455a04	-0.1927262
86	0x3d4ab651	0.049490277
87	0x3dc3b8bb	0.09556719
88	0xbce60948	-0.028080598
89	0x3de32850	0.110916734
90	0xbe1c6141	-0.15271474
91	0x3dd2e241	0.10297061
92	0x3de18f77	0.11013692
93	0x3d6e0b21	0.058116082
94	0xbda5d709	-0.08097655
95	0xbe73ff74	-0.23827916
96	0x3d9f6bc4	0.077842265
97	0xbdfa9dc7	-0.12237125
98	0x3d47692c	0.048684284
99	0x3db617e8	0.088912785
100	0x3cae3de6	0.02126975
101	0xbeb416cc	-0.35173643
102	0x3d9e5725	0.07731465
103	0xbde012b8	-0.1094107
104	0xbe3f9f51	-0.18713118
105	0x3da0921d	0.07840369
106	0x3e1d929d	0.1538796
107	0xbe070cbb	-0.1318845
108	0x3d03b1fe	0.03215217
109	0xbd6ee8c7	-0.058327463
110	0xbe70bb59	-0.23508967
111	0xbc0ea2e4	-0.008705828
112	0xbde91cf7	-0.11382478
113	0xbdb2a466	-0.08722763
114	0xbde7cb1c	-0.11318037
115	0xbe1dfa79	-0.15427579
116	0x3e3d0f95	0.18462975
117	0xbe469528	-0.19392836
118	0x3c6a820e	0.014313234
119	0xbe495c57	-0.19664131
120	0x3e204e96	0.15654978
121	0xbd4e493a	-0.050362803
122	0x3e55c332	0.20875242
123	0xbc0cd8f4	-0.0085966475
124	0xbd4adb2b	-0.04952542
125	0xbdf3b3ae	-0.118995056
126	0x3d66f7d6	0.0563887
127	0xbe2f3544	-0.17110163
128	0x3c38303e	0.011241971
129	0xbd114777	-0.035468545
130	0xbdc7f54e	-0.09763585
131	0x3d44ed07	0.04807761
132	0x3e1ca4d7	0.15297256
133	0x3d98d6c0	0.07462835
134	0xbe0e1c7c	-0.13878053
135	0x3e0b48b4	0.13601953
136	0x3e2baafb	0.16764443
137	0xbd1510ea	-0.036393084
138	0x3d9577ea	0.072982624
139	0xbdd1adb7	-0.102382116
140	0x3dbd382f	0.09239232
141	0x3e783206	0.24237832
142	0xbdf08dfc	-0.11745831
143	0xbdfc4e41	-0.12319613
144	0x3dd07cf9	0.10180087
145	0xbbfd9173	-0.007738286
146	0xbc8076df	-0.015681682
147	0xbe74835a	-0.23878232
148	0x3e0b04a7	0.13575993
149	0x3de3ef82	0.11129667
150	0x3c2ced37	0.010554603
151	0xbe334c07	-0.17509471
152	0xbcaf668b	-0.021411201
153	0x3e817915	0.2528769
154	0x3d5d0f3f	0.053969618
155	0xbe11fb6b	-0.14256065
156	0xbe399da8	-0.18126547
157	0x3d47b5ee	0.048757486
158	0xbd68e70f	-0.05686098
159	0xbd0acc75	-0.03388639
160	0xbdba497f	-0.090960495
161	0x3def8346	0.1169496
162	0xbd9fb64a	-0.07798441
163	0x3bf2ad85	0.007405939
164	0xbd8cbac3	-0.068715595
165	0x3b911dd8	0.0044286065
166	0x3e8f30f0	0.27967024
167	0xbbacaf26	-0.0052699028
168	0xbdf2b7c4	-0.11851457
169	0xbd33bfd5	-0.043884117
170	0x3e0c70d5	0.13714917
171	0xbcc55687	-0.024089111
172	0x3e0a3c94	0.13499671
173	0x3e7686ac	0.2407481
174	0xbe192728	-0.14956343
175	0x3d5a1329	0.05324093
176	0xbc846328	-0.016160563
177	0xbdebfedc	-0.1152322
178	0xbd74c4b1	-0.059757892
179	0xbcad610e	-0.021164443
180	0x3d033cc3	0.03204037
181	0xbe41aceb	-0.18913619
182	0xbc62646a	-0.013817886
183	0x3d7189db	0.05896936
184	0x3e14ae67	0.14519654
185	0xbd805082	-0.06265356
186	0x3e235295	0.15949471
187	0xbdb2a30d	-0.08722506
188	0xbe05850c	-0.13039035
189	0x3d762bb0	0.060100257
190	0x3d57826d	0.052614618
191	0x3cf8bf3d	0.030364627
192	0x3d524d42	0.05134321
193	0x3d45a433	0.048252296
194	0xbd9fe614	-0.07807556
195	0xb92b90ed	-0.0001636182
196	0x3e1eb57a	0.15498915
197	0xbc179e24	-0.009254012
198	0x3b758ee5	0.0037469205
199	0x3ddb8602	0.10718919
200	0xbe11b821	-0.14230396
201	0x3bf9c467	0.00762229
202	0xbd0b0854	-0.03394349
203	0xbaaee257	-0.0013342601
204	0xbdcfd6ee	-0.101484165
205	0xbcd7097f	-0.026249645
206	0x3e3f938c	0.18708628
207	0xbe6e87c8	-0.23293984
208	0xbe432654	-0.1905759
209	0xbc51ce7a	-0.0128055755
210	0x3e78b418	0.2428745
211	0x3da5a57d	0.08088205
212	0xbd7c9044	-0.06166102
213	0x3dd0e987	0.10200792
214	0xbcb09d82	-0.02155948
215	0x3e0d62b1	0.13807179
216	0xbd22a4ff	-0.039708134
217	0xbd28c543	-0.04120375
218	0x3da423d7	0.080146484
219	0xbc7669f2	-0.015039908
220	0x3cbeab7d	0.023275131
221	0xbdcce5c8	-0.10004765
222	0x3dbb52bd	0.091466404
223	0x3c581a32	0.013189839
224	0xbe104429	-0.14088501
225	0xbdc3e520	-0.095651865
226	0xbe08614b	-0.13318364
227	0x3dc8c142	0.09802486
228	0x3b707ed1	0.0036696682
229	0x3cbb156a	0.02283736
230	0xbea86ef3	-0.32897148
231	0x3e136eb0	0.14397693
232	0xbe42ac11	-0.1901095
233	0xbe20b109	-0.15692534
234	0x3da351af	0.07974564
235	0x3a0ec5ff	0.0005446374
236	0x3e4d5c10	0.2005465
237	0x3df0afc0	0.11752272
238	0x3e04548e	0.1292288
239	0xbcdcea89	-0.026967304
240	0xbd1aefdb	-0.0378264
241	0xbce0a67f	-0.027423142
242	0xbd977502	-0.07395364
243	0xbcaf081d	-0.021366173
244	0xbd7137a7	-0.058890965
245	0xbda0f89a	-0.07859917
246	0x3df6ddf5	0.12054054
247	0x3dae6c2a	0.085167244
248	0x3d612b15	0.054972727
249	0x3c930dd6	0.017950933
250	0xbdd31b02	-0.10307886
251	0x3cef1a20	0.029187262
252	0x3cf7c90d	0.030247236
253	0xbe09e602	-0.13466647
254	0x3e1ad100	0.1511879
255	0x3c98646a	0.018602569

network_body._body_endoder.seq_layers.0.bias f4 [128]
0	0xbcaee78e	-0.021350648
1	0xbbb43741	-0.005499751
2	0x3c4fa9a2	0.012674721
3	0x3bbd3c4f	0.0057750116
4	0xbc406602	-0.011743071
5	0xbbff1748	-0.0077847578
6	0x3bceba10	0.0063088015
7	0xbc678dc1	-0.014132918
8	0xbc9225f6	-0.017840367
9	0xbcb135c0	-0.021632075
10	0x3cd31f03	0.025771623
11	0x3b18f638	0.0023340117
12	0xbbf2335f	-0.007391378
13	0x3c36a130	0.0111468285
14	0xbc91ac78	-0.017782435
15	0x3c4c9695	0.012487073
16	0xbc4eb176	-0.012615552
17	0xbcc084cb	-0.02350082
18	0xbc59c461	-0.013291449
19	0xbbb2e205	-0.0054590725
20	0xb9e8314a	-0.00044287211
21	0xbbfbf26e	-0.007688812
22	0xbbea3dfc	-0.0071485024
23	0xbc287648	-0.010282107
24	0xbb9b15ba	-0.0047328146
25	0xbc576494	-0.013146538
26	0xbb9ab489	-0.0047212285
27	0x3a162507	0.00057275634
28	0xbc70e07c	-0.014701959
29	0xbc3c98f0	-0.0115110725
30	0xbcd7ce50	-0.026343495
31	0x3c3e8bda	0.011630023
32	0x3ba15f54	0.004924694
33	0x3baa0d1c	0.005189551
34	0xbbd506ac	-0.0065010395
35	0x3c0f2668	0.008737184
36	0xbb524322	-0.0032083471
37	0xbc4d63a5	-0.012535964
38	0xbc9cb595	-0.019129554
39	0xbd180a13	-0.037118983
40	0xbc5bee43	-0.013423505
41	0x3c065ab3	0.008200335
42	0xbbdbbe48	-0.006706033
43	0xba88ed3c	-0.0010446678
44	0xbb01a38b	-0.0019781317
45	0x3b207845	0.0024485749
46	0x3cb41f59	0.021987604
47	0xbcb0342f	-0.021509258
48	0xbcac3f75	-0.021026352
49	0x3bd7c38d	0.0065845908
50	0x3b4211be	0.0029612626
51	0xbbfbd609	-0.007685427
52	0x3be04bd5	0.0068449774
53	0xbafd622d	-0.0019331627
54	0xbcd34015	-0.025787393
55	0xbc057471	-0.008145438
56	0x3c304078	0.010757558
57	0xbc34e6e7	-0.0110413795
58	0x3a9646cd	0.0011465192
59	0xbca7a3bf	-0.020463822
60	0x3ca4a1a7	0.020096613
61	0x3c67413e	0.014114676
62	0xbc192d06	-0.009349113
63	0xbb2c1c41	-0.0026261958
64	0xbc7d3167	-0.015453673
65	0xbc625507	-0.013814217
66	0xbd170540	-0.03687024
67	0xbc27fc75	-0.010253062
68	0xbbc53e3d	-0.0060193823
69	0xbae6c366	-0.0017605841
70	0xbb408ba1	-0.00293801
71	0xbb369221	-0.0027858096
72	0xbb79b9d0	-0.0038105138
73	0xbb9d9909	-0.004809503
74	0xbcbabade	-0.022794183
75	0xbbdf280b	-0.0068101934
76	0xbc0e36ed	-0.0086800875
77	0x3c6d9928	0.014501847
78	0xbc693d82	-0.014235856
79	0x3bdbd4ea	0.006708731
80	0xbc3354d2	-0.010945516
81	0x3c306edd	0.010768619
82	0x3b75c0dc	0.0037498986
83	0x3c02c12a	0.007980624
84	0xbad01d3c	-0.0015877853
85	0xbc9850b3	-0.018593168
86	0xbc2cdae4	-0.0105502345
87	0x3c496287	0.012291557
88	0x3c4b3b49	0.012404271
89	0x3be15aca	0.006877278
90	0x3a8acd89	0.0010589819
91	0xbc9c1eb9	-0.019057618
92	0xbc6cfbec	-0.01446436
93	0x3c8e607a	0.017379988
94	0xbcb75032	-0.022377107
95	0x3b12f99e	0.0022426615
96	0xbc000247	-0.007813043
97	0xbc4ce451	-0.012505607
98	0xbce8de4e	-0.028426316
99	0x3b867a37	0.0041039246
100	0xbc6dc634	-0.014512587
101	0xbc649ed2	-0.013953881
102	0xbaa2d15d	-0.0012422014
103	0xbc75bd35	-0.014998724
104	0xbc88a0d4	-0.016678251
105	0x3be37c9f	0.006942346
106	0xbbef1753	-0.0072964816
107	0x3adc9605	0.0016829377
108	0xbcefefed	-0.02928921
109	0xbb982b0c	-0.0046438035
110	0xbba81940	-0.005129963
111	0x3c205aea	0.009787301
112	0xbc79c761	-0.01524529
113	0xb942e1b7	-0.00018585367
114	0x3d0df55b	0.034657817
115	0x3c8da606	0.01729108
116	0x3bd24301	0.006416679
117	0x3c13d4f9	0.009022945
118	0xbc1ae196	-0.009453198
119	0xbcb23935	-0.021755794
120	0xbc363048	-0.01111991
121	0xbc162e72	-0.009166347
122	0xbb434c9e	-0.0029800306
123	0xbc5d4324	-0.013504777
124	0xbb454521	-0.0030101018
125	0xbcb47454	-0.022028126
126	0x3b9e88e5	0.0048380964
127	0xbcbe0864	-0.02319736

network_body._body_endoder.seq_layers.2.weight f4 [128, 128]
0	0x3a1cc02e	0.0005979565
1	0x3d1fff3c	0.03906177
2	0xbe281a5e	-0.16416308
3	0x3cc985e6	0.02459998
4	0x3de349d5	0.11098067
5	0x3a064f92	0.0005123551
6	0xbc60782b	-0.013700525
7	0x3d07a16a	0.03311292
8	0xbc9e921c	-0.01935678
9	0xbdcf651b	-0.10126706
10	0xbced01dc	-0.02893155
11	0x3dedf9ea	0.11619933
12	0x3b29943f	0.0025875715
13	0x3d0142ed	0.031557966
14	0xbd2ea534	-0.04263802
15	0x3d700e77	0.058607545
16	0xbd72e834	-0.059303477
17	0xbd27e42c	-0.040989086
18	0x3ddf42ae	0.1090139
19	0x3d8b491d	0.068010546
20	0x3d36adb2	0.044599243
21	0xbd6842b1	-0.056704227
22	0xbdb91925	-0.09037999
23	0x3ddc0a2d	0.107441284
24	0x3de16019	0.11004657
25	0x3d91bd4d	0.071161844
26	0x3cf2e2c3	0.029649144
27	0xbdcfa9bf	-0.101397984
28	0x3ceed1d3	0.029152786
29	0xbca09b99	-0.019605445
30	0x3d1882be	0.03723406
31	0x3c2eb0de	0.010662286
32	0x3bb202fd	0.005432485
33	0x3d7f07c6	0.062263273
34	0x3cd04166	0.02542181
35	0x3e0d6a46	0.13810071
36	0xbd39d6d8	-0.045370907
37	0xbcfd0a75	-0.030888775
38	0xbda73107	-0.08163648
39	0x3def16d5	0.11674277
40	0x3d04e4d5	0.032444794
41	0xbd23096b	-0.039803904
42	0x3e501f28	0.20324385
43	0xbe9948e4	-0.29938424
44	0xbe0403bc	-0.1289205
45	0xbe04ee9c	-0.12981647
46	0xbe23be25	-0.15990503
47	0xbdf2655d	-0.1183574
48	0x3d881a39	0.066456266
49	0xbd6ef705	-0.058341045
50	0xbd2cd1d5	-0.0421923
51	0x3df8f030	0.12155187
52	0xbd227e95	-0.0396715
53	0xbd6474c1	-0.055775408
54	0x3d6b456c	0.057439253
55	0x3c266e53	0.010158139
56	0x3de473b8	0.11154884
57	0x3c0f4355	0.008744081
58	0x3dcabb69	0.09899027
59	0xbcf17406	-0.02947427
60	0xbcfba653	-0.030718958
61	0x3ca652f8	0.020303234
62	0xbc1bcbf5	-0.009509076
63	0xbe141448	-0.14460862
64	0x3d6fae31	0.05851573
65	0xbd472c0c	-0.04862599
66	0x3de23b91	0.11046518
67	0x3d0c2fc4	0.03422524
68	0xbdc04be9	-0.09389479
69	0xbe12d7a8	-0.14340079
70	0xbcdb720a	-0.026787776
71	0x3e798dd0	0.24370503
72	0x3df2e865	0.11860732
73	0xbe122ce3	-0.14274935
74	0x3c4c9eb6	0.0124890115
75	0xbbec5766	-0.007212567
76	0xbcdbece6	-0.02684636
77	0x3de2eee5	0.11080722
78	0xbda78e90	-0.081814885
79	0xbda9f2d4	-0.08298269
80	0x3cb1f214	0.021721877
81	0x3ccced9c	0.025015645
82	0x3ceafbb5	0.028684476
83	0xbb1ddee4	-0.0024089152
84	0x3d196c28	0.03745666
85	0xbb7906c7	-0.0037998424
86	0xbb5e8809	-0.0033955595
87	0xbe0ca905	-0.13736351
88	0x3ce767a0	0.028247654
89	0xbd3adc15	-0.045620043
90	0xbe451f5b	-0.19250242
91	0x3cc4c89a	0.024021436
92	0x3cf5d0b7	0.03000675
93	0x3c853d9e	0.016264733
94	0xbca75cb9	-0.020429956
95	0x3d41fea9	0.047362003
96	0x3c33db99	0.010977649
97	0x3d034dca	0.032056607
98	0x3de5f106	0.11227612
99	0x3bb1a846	0.005421671
100	0x3d37ba1b	0.04485522
101	0xbe06582e	-0.13119575
102	0xbd3a150e	-0.045430236
103	0xbd023bc1	-0.031795267
104	0x3c8ea57a	0.01741289
105	0x3cf85bd8	0.030317232
106	0x3de7214c	0.11285648
107	0xbd5de287	-0.05417111
108	0x3c32e539	0.010918909
109	0x3cf542eb	0.029939136
110	0xbd5fd3db	-0.0546454
111	0xbe4beca4	-0.1991449
112	0xbd665567	-0.05623379
113	0x3d1615ea	0.036641993
114	0xbd0a43e7	-0.033756163
115	0xbd9a3e02	-0.07531358
116	0xbcd28a43	-0.025700694
117	0xbd1a5e5e	-0.03768765
118	0x3ddeb8e6	0.1087511
119	0x3e014c2f	0.12626718
120	0xbcd89145	-0.026436457
121	0x3d917cc3	0.071038745
122	0x3d8d4051	0.06897033
123	0x3dbaf8e1	0.09129501
124	0x3e2a98bd	0.16659828
125	0xbe17c2e7	-0.14820443
126	0xbd0673b4	-0.032825187
127	0x3cf85bc5	0.030317197
128	0xbc1b892c	-0.009493154
129	0x3d263e59	0.040586803
130	0x3e04902d	0.12945624
131	0x3d6340e5	0.05548181
132	0x3de5a2ed	0.11212716
133	0x3c08ebc9	0.008356997
134	0xbe0ce04a	-0.13757434
135	0x3db54a0c	0.08852014
136	0xbc6d7c5e	-0.0144949835
137	0x3df92ecb	0.12167128
138	0x3de81471	0.11332024
139	0x3c8bc812	0.017063174
140	0xbc819c8d	-0.01582172
141	0xbc9fd838	-0.01951228
142	0xbc4a9bf1	-0.012366281
143	0x3debb190	0.11508477
144	0x3c9bc376	0.019014101
145	0x3e00057b	0.1250209
146	0x3e1daa92	0.15397099
147	0x3b244d59	0.0025070517
148	0xbc3dd0d6	-0.011585435
149	0xbd13fb45	-0.0361283
150	0xbdc03589	-0.09385211
151	0xbb30b545	-0.0026963514
152	0x3e6ded02	0.23234943
153	0xbc3d39e5	-0.011549448
154	0xbc83152e	-0.01600131
155	0x3d14569a	0.036215402
156	0xbbdf58c3	-0.006816001
157	0x3b983667	0.004645157
158	0x3deab52b	0.11460336
159	0x3e3fe8ae	0.18741104
160	0x3c82980a	0.015941638
161	0xbdca0749	-0.09864671
162	0x3e06b299	0.13154067
163	0x3bf62037	0.0075111645
164	0xbe1572d8	-0.1459459
165	0x3d9dd4f4	0.07706633
166	0x3bf9f697	0.0076282728
167	0xbdbd14d6	-0.0923249
168	0xbd385336	-0.04500123
169	0x3db434e4	0.087991506
170	0x3b5b9d12	0.003351037
171	0x3da46c68	0.08028489
172	0xbd7e8ed0	-0.062147915
173	0xbe29b5d0	-0.16573262
174	0x3dc2121f	0.094761126
175	0x3e5d2022	0.21594289
176	0xbe27d4ad	-0.16389723
177	0x3df61027	0.120147996
178	0x3e4b8981	0.19876672
179	0x3ce798c8	0.028271094
180	0x3dbd7666	0.09251098
181	0xbd64f68b	-0.055899184
182	0xbd96d29a	-0.07364388
183	0x3d975509	0.07389266
184	0xba94592a	-0.0011318077
185	0xbde0a313	-0.10968604
186	0xbdbcf328	-0.09226066
187	0xbe23f4aa	-0.160113
188	0xbd01e847	-0.031715658
189	0x3d8b6e0f	0.068081014
190	0xbeafab4a	-0.3431037
191	0xbdf795cb	-0.120891176
192	0x3dbf6e3a	0.09347196
193	0xbd7fcfb8	-0.062453955
194	0xbcff05ca	-0.03113069
195	0xbdc36220	-0.095402
196	0x3b3438b7	0.0027499625
197	0xbd15792f	-0.036492523
198	0x3cf87c89	0.03033282
199	0x3d83bfb3	0.06433048
200	0x3d412cda	0.047161914
201	0xbdf2b1a4	-0.118502885
202	0x3e104b2b	0.14091174
203	0xbd0136ec	-0.03154652
204	0x3c68c163	0.014206263
205	0x3d87f2bf	0.06638097
206	0x3ce48c63	0.027898973
207	0x3c9b653e	0.018969174
208	0x3d2bff0c	0.04199128
209	0xbb87dfda	-0.004146558
210	0xbd6f9fb0	-0.0585019
211	0xbc8671a0	-0.016411602
212	0xbd7aa594	-0.061193064
213	0x3bbb3eb8	0.0057142638
214	0xbd71b9c3	-0.059015047
215	0x3b742225	0.0037251797
216	0x3cad7b26	0.021176886
217	0x3ce3c1a2	0.027802292
218	0x3e1c70da	0.15277424
219	0x3c28d50f	0.010304703
220	0x3ce71a97	0.028210921
221	0x3c601442	0.013676705
222	0xbc80f526	-0.015741896
223	0xbce7c52d	-0.028292263
224	0x3b27ff5b	0.0025634381
225	0x3d9a5391	0.0753547
226	0x3d799e49	0.060941968
227	0x3e03f539	0.12886514
228	0xbdcd0d6a	-0.10012324
229	0x3e2fa75e	0.1715369
230	0x3db9f7d9	0.09080476
231	0x3d67c814	0.056587294
232	0x3cd19236	0.025582414
233	0x3dbb1831	0.091354735
234	0xbd396172	-0.045258947
235	0xbc7d8219	-0.015472912
236	0xbe167204	-0.14691931
237	0xbe7e6cd6	-0.24846205
238	0x3e1d767b	0.15377228
239	0xbd84b204	-0.06479266
240	0x3d8d0d2c	0.06887278
241	0x3e09527b	0.1341037
242	0x3dcc1c6c	0.099663585
243	0xbe0960fa	-0.134159
244	0xbbbcfd92	-0.0057675326
245	0xbe0d7bf6	-0.13816819
246	0xbd1b7cc9	-0.0379608
247	0x3d7c2b65	0.06156482
248	0xbd839bb0	-0.064261794
249	0xbe05042e	-0.12989876
250	0x3cff765f	0.031184373
251	0xbe313fb4	-0.17309457
252	0xbe40aed1	-0.18816687
253	0xbd876d4c	-0.066126436
254	0xbe371401	-0.17878725
255	0x3d91b6d5	0.071149506

network_body._body_endoder.seq_layers.2.bias f4 [128]
0	0xb9da5544	-0.00041643728
1	0x3b7342ba	0.003711863
2	0x3ccc1d7c	0.024916403
3	0x3c298428	0.01034645
4	0xbb8e171d	-0.0043362514
5	0xb83c392e	-4.4875946e-05
6	0x3b09a42a	0.002100239
7	0x3cf231e4	0.029564805
8	0xbc0df828	-0.008665122
9	0xbbd1edff	-0.006406545
10	0xbbce14c0	-0.0062890947
11	0xbb38b091	-0.0028181414
12	0xbc4957d8	-0.01228901
13	0x3b6e7a0e	0.0036388668
14	0xbc257b84	-0.010100249
15	0x3af3a029	0.001858716
16	0xbc905179	-0.017616974
17	0x3c356c28	0.01107315
18	0xbb5e4d61	-0.0033920633
19	0xbc21cf9c	-0.009876158
20	0xbc0e9349	-0.008702108
21	0xbac8ee8f	-0.0015329885
22	0x3bc5ae83	0.0060327663
23	0xbc68d7db	-0.01421162
24	0x3cd14b45	0.025548587
25	0xba2193c8	-0.0006163684
26	0xbb180326	-0.0023195236
27	0x3bbe0d85	0.0057999515
28	0xbbd989fd	-0.006638764
29	0x3ca62d4e	0.020285275
30	0x3c2267e9	0.009912469
31	0x3bfeead6	0.0077794595
32	0x3c051d4d	0.008124662
33	0x3bf5a94f	0.00749699
34	0x3ba41a61	0.0050080274
35	0x3b9f5cfc	0.0048633795
36	0xbc6599df	-0.0140137365
37	0xbabcf960	-0.0014417581
38	0xbbb032c5	-0.005377146
39	0x3c34f5fd	0.011044976
40	0x3b345366	0.002751553
41	0x3c6bf525	0.014401709
42	0xbb3f461d	-0.0029186078
43	0xbc616be5	-0.013758634
44	0x3a4b9ef8	0.00077675236
45	0xbcde24d8	-0.027117178
46	0x3affb222	0.0019508044
47	0x3a6d5449	0.0009053392
48	0xbc5efebf	-0.013610541
49	0xbc15395d	-0.009107915
50	0xbc07d016	-0.008289358
51	0x3cadea29	0.02122982
52	0x3cbcf631	0.023066612
53	0x3d19e3e1	0.037570838
54	0xbc588a84	-0.013216618
55	0x3a6deff4	0.00090765883
56	0xb91442fc	-0.00014139334
57	0xbc7ace09	-0.015307912
58	0x3c11aef1	0.008891807
59	0x3cc45579	0.023966538
60	0x3b4b2e9d	0.0031003125
61	0x3b930d40	0.0044876635
62	0xbc9e795e	-0.019344982
63	0x3b90204f	0.0043983827
64	0x3b958eb1	0.0045641293
65	0xbcc5ada8	-0.024130657
66	0xbc2f2712	-0.010690467
67	0x3c453af6	0.012037983
68	0xbc811229	-0.01575573
69	0xbbef26af	-0.0072983126
70	0xbc26020d	-0.010132325
71	0xbc0a5b1a	-0.008444572
72	0xbbc61838	-0.0060453676
73	0x3b54c24e	0.0032464447
74	0x3c6151fd	0.013752458
75	0x3c1a1104	0.009403471
76	0xbb89de93	-0.004207441
77	0xbc0f99d7	-0.008764706
78	0xbc3f9ffb	-0.011695857
79	0x3b9ef795	0.0048512914
80	0xbc38316f	-0.011242255
81	0x3b849e5c	0.004047198
82	0xba9965c3	-0.0011703301
83	0x37f83f6e	2.959344e-05
84	0x3becb2ce	0.0072234636
85	0xb907dd05	-0.0001295694
86	0x3b0782b9	0.0020677282
87	0xbb9c3427	-0.004766959
88	0x3afdb7da	0.001935716
89	0x3a176ce1	0.0005776417
90	0xbc19ebe1	-0.009394617
91	0x3c202bee	0.009776099
92	0x3bff0c4b	0.007783448
93	0x3c402fc3	0.011730137
94	0x3a3f36af	0.000729422
95	0x3b93760f	0.0045001577
96	0xbba15642	-0.004923613
97	0xbc0791a2	-0.008274468
98	0x3b4f781b	0.0031657282
99	0x3c62dc6b	0.013846497
100	0x3ab74f2c	0.0013985387
101	0xbc5c83ca	-0.013459155
102	0xbbb27936	-0.0054465784
103	0xbc00f603	-0.007871154
104	0xbc0b00d4	-0.008484084
105	0x3c00f689	0.007871279
106	0xbb93b600	-0.00450778
107	0xbc8f00a8	-0.017456368
108	0xbbb430a3	-0.005498962
109	0x3bc9a40b	0.0061535886
110	0xbc2f9fb3	-0.010719228
111	0x3c043419	0.008069062
112	0x3b6d6f9f	0.0036229861
113	0xbc211d56	-0.009833654
114	0xbbc1e4d3	-0.0059171706
115	0x3c76f131	0.015072153
116	0xb9ec599e	-0.00045080198
117	0xbbe9df67	-0.0071372273
118	0x3c87d7b5	0.01658235
119	0xbbd517bf	-0.006503075
120	0x3c831fea	0.016006429
121	0xbba243c1	-0.0049519246
122	0x3cebd088	0.028785959
123	0x3c068f2f	0.008212849
124	0x3cf351d1	0.029702099
125	0xbc3d4c58	-0.011553846
126	0x3ba9567e	0.0051677814
127	0xbb5ff2e6	-0.0034171878

action_model._continuous_distribution.log_sigma f4 [1, 4]
0	0xbf70ef3a	-0.9411503
1	0xbf730151	-0.94923884
2	0xbf7092db	-0.93974084
3	0xbf737318	-0.95097494

action_model._continuous_distribution.mu.weight f4 [4, 128]
0	0xbac1d78c	-0.001478897
1	0x3c9496f5	0.018138388
2	0x3b79879a	0.003807521
3	0xbd17b80d	-0.03704076
4	0x3d079caf	0.03310841
5	0x3c11d963	0.008901927
6	0x3bfcc080	0.0077133775
7	0x3c7bb7ce	0.015363647
8	0xbbeaaadb	-0.007161481
9	0x3c407e0d	0.011748803
10	0xbc324969	-0.01088176
11	0x3d0d95e5	0.03456678
12	0x3be81e4b	0.0070836893
13	0x3c2abae4	0.010420535
14	0x3c31f38d	0.01086129
15	0x3cd05328	0.025430277
16	0x3c8927ab	0.016742548
17	0x3ddceaa5	0.107869424
18	0x3c1c9af2	0.009558426
19	0xbc2c4abf	-0.010515868
20	0x3c0169e9	0.007898786
21	0xbc115703	-0.008870843
22	0x3c8a42f2	0.016877625
23	0xbc2a6d08	-0.010401972
24	0xbbf8e784	-0.007595958
25	0xbd138909	-0.03601936
26	0xbc241634	-0.010015059
27	0x3a18b218	0.0005824878
28	0xbcd2b8d3	-0.025722897
29	0xbb4728d3	-0.0030389323
30	0x3baac171	0.0052110483
31	0x3c0cef99	0.008602046
32	0x3b2c4e5f	0.002629183
33	0xbc3e6630	-0.011621043
34	0xbb9c5a12	-0.0047714794
35	0xbb795e50	-0.00380506
36	0xbcc66cc5	-0.024221787
37	0xbbbab16e	-0.005697421
38	0xbbbaef0b	-0.0057047657
39	0x3c6b0a8e	0.014345778
40	0xbac3932e	-0.0014921182
41	0x3c0e9d7f	0.008704542
42	0x3c728982	0.014803292
43	0xbc81e879	-0.015857922
44	0x3c9fdb53	0.019513762
45	0xbba9e199	-0.005184364
46	0x3c799381	0.015232922
47	0x3c15d7f0	0.009145722
48	0xba9f6356	-0.0012160342
49	0xbd0ec351	-0.034854237
50	0x3a8ddba3	0.0010822903
51	0x3c959d82	0.018263582
52	0x3bd6542f	0.006540797
53	0xbbd2bd31	-0.006431245
54	0xbc11286d	-0.008859736
55	0x3c0674ef	0.00820659
56	0x3c618969	0.013765671
57	0x3c89682b	0.016773304
58	0xbce12cc0	-0.027487159
59	0xbc16c384	-0.009201888
60	0x3c86b519	0.016443776
61	0xbc158d81	-0.009127975
62	0xbbd7807c	-0.006576596
63	0xbc19b97a	-0.0093826
64	0xbbb4516c	-0.0055028703
65	0xbb21cfb9	-0.0024690463
66	0xbc218703	-0.009858849
67	0xbc6522e2	-0.0139853675
68	0x3b747598	0.0037301537
69	0x37ecc8a9	2.8226832e-05
70	0xbbe4f50b	-0.006987219
71	0x3c05b2de	0.008160321
72	0xbcc08df7	-0.023505194
73	0x3b6b3c0b	0.0035893943
74	0x3b903de8	0.004401911
75	0xbcf56209	-0.029953973
76	0xbc99a630	-0.018756002
77	0x3c28e1b8	0.010307722
78	0xbc55c082	-0.013046386
79	0x3bb09052	0.005388298
80	0xbbf1194f	-0.0073577533
81	0x3cebfff6	0.028808575
82	0xbcc6830b	-0.024232408
83	0x3c92f488	0.017938867
84	0xbcbe8a39	-0.02325927
85	0xbbf1b360	-0.0073761195
86	0x3bc521c0	0.006015986
87	0xbcce6b64	-0.025197692
88	0xbc1035a9	-0.008801856
89	0x3c96f117	0.018425507
90	0x3cc69860	0.02424258
91	0x3bbd56a2	0.0057781497
92	0x3b01d42c	0.0019810302
93	0x3cb7339e	0.02236348
94	0x3c726903	0.014795545
95	0xbc708ac6	-0.014681524
96	0xba77a414	-0.0009446752
97	0xbaf34f78	-0.0018563112
98	0xbc455281	-0.012043596
99	0x3beaa199	0.007160377
100	0x3c34768b	0.011014591
101	0xbce581c3	-0.028015977
102	0x3bd191aa	0.0063955383
103	0x3b46fb6b	0.003036226
104	0xbd0f3daa	-0.034970917
105	0xb9d762cc	-0.00041081605
106	0xbc0ace4a	-0.008472035
107	0xbc18b5a4	-0.00932065
108	0x3a813962	0.000985902
109	0x3c141e2b	0.009040396
110	0xbc5dccfb	-0.013537641
111	0x3be43004	0.0069637317
112	0xbc844a14	-0.016148604
113	0xbb1c6c67	-0.0023868324
114	0x3c11dd96	0.008902928
115	0x3abac00a	0.0014247906
116	0x3d059c05	0.032619495
117	0x3baf6441	0.0053525274
118	0xbcb19144	-0.021675713
119	0xbb549b69	-0.0032441264
120	0xbc80e553	-0.01573435
121	0x3a49c160	0.00076963566
122	0x3d6b8967	0.057504084
123	0xbc6853f5	-0.014180173
124	0x3c29ff9d	0.010375884
125	0xbb036411	-0.0020048658
126	0x3c2a8dad	0.010409755
127	0x3ca66048	0.020309582
128	0x3d0a7081	0.0337987
129	0x3b36356d	0.002780284
130	0xbc905f0e	-0.01762345
131	0xbba24b25	-0.0049528056
132	0x3c460351	0.012085752
133	0xbba8a7d0	-0.005146958
134	0xbc1b41a6	-0.009476101
135	0xbad4f239	-0.0016246504
136	0x3c917620	0.017756522
137	0xbca77080	-0.020439386
138	0xbc266234	-0.010155249
139	0xbb48d7eb	-0.0030646275
140	0xbc6efde9	-0.014586904
141	0x3a73677f	0.00092851365
142	0xbc07c830	-0.0082874745
143	0xbbc52707	-0.0060166153
144	0xbc63b32c	-0.013897698
145	0xbc21917d	-0.009861347
146	0x3c5195a4	0.012792025
147	0xbc10a215	-0.008827706
148	0x3b3d8329	0.002891729
149	0xbc5a54f3	-0.013325918
150	0x3aafaea3	0.0013403486
151	0xbbae9fcc	-0.005329108
152	0x3b7e6155	0.0038815339
153	0x3d1c2713	0.0381232
154	0xba79ffcc	-0.0009536713
155	0xbbbc6c80	-0.005750239
156	0xbb5ab503	-0.0033372052
157	0xbb5e17b3	-0.0033888638
158	0x3b53aa4c	0.003229755
159	0xbba27f41	-0.0049590175
160	0xbcd1d5cb	-0.02561464
161	0xbc008955	-0.0078452425
162	0x3c44701e	0.011989621
163	0xbc2f6a9b	-0.010706569
164	0x3c2785ec	0.010224801
165	0x3cbe8cf3	0.02326057
166	0xbb4c4267	-0.0031167509
167	0x3c069f35	0.008216669
168	0xba4a97ce	-0.0007728309
169	0x3c9d0ec5	0.019172082
170	0x3bbc5338	0.005747225
171	0x3c5b3601	0.013379575
172	0x3d1b03a8	0.037845284
173	0xbb485a30	-0.0030571334
174	0x3c64fa1e	0.013975648
175	0x3c1efc6b	0.009703736
176	0x3b649647	0.0034879611
177	0x3ba7a981	0.005116642
178	0x3c435436	0.011921933
179	0xbcc8b17a	-0.02449869
180	0xbc05f3b4	-0.008175779
181	0xbadd86d5	-0.0016901145
182	0xba22960a	-0.0006202167
183	0xbbd6c51c	-0.006554259
184	0x3c0e4851	0.008684234
185	0x3c51b2c4	0.012798969
186	0xbbb6e5a5	-0.005581575
187	0xbc247ac6	-0.010039037
188	0xbc060ddb	-0.008182014
189	0xbbb28938	-0.0054484867
190	0xb9d0125f	-0.0003968654
191	0xbb9f66f5	-0.0048645684
192	0xbc916f88	-0.017753378
193	0x39518b24	0.00019983627
194	0xba3bdb42	-0.0007166156
195	0x3bf611ce	0.0075094467
196	0x39543157	0.00020236276
197	0xbb84d110	-0.0040532425
198	0x3cc5359c	0.024073415
199	0x3bdf5ce0	0.0068164915
200	0x3c13abdf	0.009013145
201	0xbc5ca449	-0.013466903
202	0x3c20f23b	0.009823377
203	0x3b0c1c92	0.0021379334
204	0xbce3d797	-0.027812762
205	0x3a7d6dc7	0.0009667542
206	0xbc3991e0	-0.011326283
207	0xbd03a219	-0.03213701
208	0xbc5263c7	-0.012841172
209	0xbbdb4cc2	-0.0066925
210	0x3a832934	0.0010006786
211	0xbb73daa2	-0.0037209173
212	0x3ce3823e	0.027772065
213	0x3c430168	0.011902191
214	0x3c0f5a05	0.00874949
215	0x3b2c61df	0.0026303453
216	0xbb1e3d24	-0.002414533
217	0xbc199740	-0.00937444
218	0xbce4f79d	-0.027950102
219	0x3c0affc7	0.008483834
220	0xbbe3e4a9	-0.0069547486
221	0xbbddd747	-0.006770048
222	0x3a176a87	0.00057760667
223	0xbcbe52d3	-0.023232853
224	0x389d7dd0	7.509778e-05
225	0x3c52f05c	0.012874689
226	0x3be1bbab	0.006888827
227	0xbcacfa6c	-0.021115504
228	0xbb95f9bf	-0.004576891
229	0xbbc71331	-0.006075286
230	0xbc286b45	-0.010279481
231	0xbc0ce5a6	-0.008599674
232	0x3b86f591	0.0041186293
233	0xbbf82750	-0.007573046
234	0xbbe578ac	-0.0070029106
235	0x3b81f63a	0.00396612
236	0x3c1d1ea2	0.009589823
237	0xbd090dff	-0.033460613
238	0x3be799cc	0.0070678946
239	0x3c353712	0.011060493
240	0xbbc32196	-0.0059549315
241	0xbca2c9bc	-0.019871585
242	0x3be772d0	0.0070632473
243	0x3cabbb5c	0.020963363
244	0x3b68592c	0.0035453541
245	0x3b008db8	0.001961572
246	0x3c3ef4e0	0.011655062
247	0xbb46cbdb	-0.003033391
248	0xba1dbb9f	-0.00060170324
249	0xbbad3fd2	-0.005287149
250	0x3d3c0ca9	0.04591051
251	0x3c785756	0.015157541
252	0xbcb4e093	-0.022079742
253	0x3c6655c1	0.014058531
254	0xbc174ed7	-0.0092351055
255	0xbc8e35b6	-0.017359596

action_model._continuous_distribution.mu.bias f4 [4]
0	0x3b51e3fe	0.0032026763
1	0xbbab3218	-0.0052244775
2	0xbb84b64f	-0.004050053
3	0x3a96229d	0.0011454407

exp_avg f4 [128, 101]
0	0xab88bcc5	-9.715775e-13
1	0xb91cb144	-0.00014943356
2	0x38bc3806	8.974974e-05
3	0xb8e57722	-0.00010941761
4	0xb8bdba1f	-9.04689e-05
5	0x0d2316cc	5.0255694e-31
6	0x00000000	0.0
7	0xb93178fa	-0.00016925103
8	0x3420a438	1.4960904e-07
9	0xb8e66f71	-0.00010988012
10	0xadbaf902	-2.1256333e-11
11	0x336bea42	5.4928257e-08
12	0xb9315f8f	-0.00016915634
13	0x938335a1	-3.312193e-27
14	0xb81e8c5c	-3.7800855e-05
15	0xb139e855	-2.7053109e-09
16	0xb032b471	-6.5012445e-10
17	0xb9314fea	-0.00016909806
18	0x154075db	3.8867063e-26
19	0xb7e2f984	-2.705749e-05
20	0xb211b4f5	-8.481256e-09
21	0x33b57abe	8.450796e-08
22	0xb9316538	-0.00016917742
23	0x13a2fb31	4.1142243e-27
24	0xb8336642	-4.277216e-05
25	0xa3d8fb3c	-2.3525169e-17
26	0x95718ac2	-4.8779023e-26
27	0xb93150d1	-0.00016910142
28	0x13a63054	4.1951946e-27
29	0xb7b4452d	-2.1489885e-05
30	0xb298f460	-1.7806258e-08
31	0x33b43c76	8.392901e-08
32	0xb9316290	-0.00016916753
33	0x14beacf5	1.9253317e-26
34	0xb7bef886	-2.2765493e-05
35	0xb2aa3d36	-1.981844e-08
36	0x95742747	-4.9306392e-26
37	0xb9314b7f	-0.0001690816
38	0x9524c3f9	-3.327413e-26
39	0xb7b8f37d	-2.2047892e-05
40	0x3048a5f7	7.2995426e-10
41	0x9561294d	-4.547097e-26
42	0xb9315104	-0.00016910216
43	0x1494b84e	1.5016876e-26
44	0xb7f1b24d	-2.8812467e-05
45	0x217452b0	8.277985e-19
46	0x956b1adc	-4.747906e-26
47	0xb93150d1	-0.00016910142
48	0x159dceff	6.373838e-26
49	0xb7bfec95	-2.2879141e-05
50	0x217452b0	8.277985e-19
51	0x956b1adc	-4.747906e-26
52	0xb93150d1	-0.00016910142
53	0x159dceff	6.373838e-26
54	0xb7bfec95	-2.2879141e-05
55	0xb81e8c5c	-3.7800855e-05
56	0xb93150d1	-0.00016910142
57	0xb7e2f984	-2.705749e-05
58	0xb93150d1	-0.00016910142
59	0xb8336642	-4.277216e-05
60	0xb93150d1	-0.00016910142
61	0xb7b4452d	-2.1489885e-05
62	0xb93150d1	-0.00016910142
63	0xb7bef886	-2.2765493e-05
64	0xb93150d1	-0.00016910142
65	0xb7b8f37d	-2.2047892e-05
66	0xb93150d1	-0.00016910142
67	0xb7f1b24d	-2.8812467e-05
68	0xb93150d1	-0.00016910142
69	0xb7bfec95	-2.2879141e-05
70	0xb93150d1	-0.00016910142
71	0xb7bfec95	-2.2879141e-05
72	0xb93150d1	-0.00016910142
73	0xb8bdba1f	-9.04689e-05
74	0xb87a5505	-5.9683825e-05
75	0xb8e66f71	-0.00010988012
76	0xb93178fa	-0.00016925103
77	0x3b8e1130	0.004335545
78	0xb9ee68c7	-0.00045472963
79	0xbc058fc9	-0.008151957
80	0x39066220	0.0001281579
81	0x38592bd3	5.1777646e-05
82	0x38f86620	0.00011844584
83	0xb8cba6cc	-9.710863e-05
84	0x398e75b2	0.0002717204
85	0x3d1163cc	0.035495564
86	0x3d101787	0.035178687
87	0x398e321c	0.00027121685
88	0xb99d18c5	-0.00029963828
89	0xb8257aa3	-3.945328e-05
90	0x3815027d	3.5526686e-05
91	0xb5f78337	-1.8441123e-06
92	0x3898b853	7.282258e-05
93	0x381accfc	3.6907368e-05
94	0x3b6843eb	0.0035440873
95	0xba3e77e9	-0.0007265793
96	0xbc1029cc	-0.008799028
97	0x38861ea5	6.395326e-05
98	0xb688fefa	-4.082799e-06
99	0x39675cc6	0.00022064438
100	0xba3e77e9	-0.0007265793
101	0xac009d8f	-1.8277357e-12
102	0xb700adba	-7.669843e-06
103	0x386d2f1c	5.6549077e-05
104	0xb8befda9	-9.107154e-05
105	0xb888b23d	-6.518185e-05
106	0x8e155f0a	-1.8411428e-30
107	0x00000000	0.0
108	0xb830fa02	-4.2194508e-05
109	0x311833ae	2.2148288e-09
110	0xb677e2c9	-3.6937874e-06
111	0x3430d9eb	1.6470555e-07
112	0xb365c83a	-5.3500322e-08
113	0xb8316f0a	-4.23035e-05
114	0x8e21428e	-1.9876827e-30
115	0x36406a00	2.867193e-06
116	0x331a993d	3.599529e-08
117	0xb143bd3d	-2.8483804e-09
118	0xb8311b3a	-4.2225445e-05
119	0x8d6e1bf7	-7.3373074e-31
120	0xb6975912	-4.51052e-06
121	0x312c1833	2.504305e-09
122	0xb2ba5e57	-2.169615e-08
123	0xb830e302	-4.2173087e-05
124	0x8c5b6b4a	-1.6903432e-31
125	0x373c3e91	1.1220241e-05
126	0xa7f2fdb3	-6.7443554e-15
127	0x14afeaa3	1.7763032e-26
128	0xb830f7a2	-4.2192296e-05
129	0x8e8c1404	-3.453194e-30
130	0xb7c233ed	-2.3150782e-05
131	0x3201f1a0	7.563727e-09
132	0xb2e52f69	-2.6680668e-08
133	0xb830e31a	-4.2173175e-05
134	0x0ea32a58	4.0223378e-30
135	0x3718ff82	9.119396e-06
136	0x32cba673	2.3708003e-08
137	0x1058ac3b	4.273117e-29
138	0xb8311112	-4.2215986e-05
139	0x8d57a554	-6.6450997e-31
140	0xb77143f8	-1.4380545e-05
141	0xb165f376	-3.3462277e-09
142	0x137a843a	3.1619629e-27
143	0xb830f402	-4.218892e-05
144	0x0f8f19ec	1.4110873e-29
145	0x36bf7c9d	5.7067505e-06
146	0x290d3386	3.135298e-14
147	0x928db087	-8.941868e-28
148	0xb830f7a2	-4.2192296e-05
149	0x8f448d56	-9.6907664e-30
150	0x35c65016	1.4775458e-06
151	0x290d3386	3.135298e-14
152	0x928db087	-8.941868e-28
153	0xb830f7a2	-4.2192296e-05
154	0x8f448d56	-9.6907664e-30
155	0x35c6501c	1.4775464e-06
156	0x36406a00	2.867193e-06
157	0xb830f7a2	-4.2192296e-05
158	0xb6975912	-4.51052e-06
159	0xb830f7a2	-4.2192296e-05
160	0x373c3e91	1.1220241e-05
161	0xb830f7a2	-4.2192296e-05
162	0xb7c233ed	-2.3150782e-05
163	0xb830f7a2	-4.2192296e-05
164	0x3718ff82	9.119396e-06
165	0xb830f7a2	-4.2192296e-05
166	0xb77143f8	-1.4380545e-05
167	0xb830f7a2	-4.2192296e-05
168	0x36bf7c9d	5.7067505e-06
169	0xb830f7a2	-4.2192296e-05
170	0x35c65016	1.4775458e-06
171	0xb830f7a2	-4.2192296e-05
172	0x35c6501c	1.4775464e-06
173	0xb830f7a2	-4.2192296e-05
174	0xb888b23d	-6.518185e-05
175	0x384d03ac	4.887923e-05
176	0xb677e2c9	-3.6937874e-06
177	0xb830fa02	-4.2194508e-05
178	0x3a182ff5	0.0005805486
179	0xb9beedaa	-0.00036416698
180	0xb658c99d	-3.2303863e-06
181	0xb88c6683	-6.6948145e-05
182	0x37e7f93f	2.765341e-05
183	0xb792696f	-1.7453653e-05
184	0xba1f23e5	-0.00060707174
185	0xb930b6c7	-0.00016852758
186	0x3ae9fe2e	0.0017852241
187	0x3a9e60be	0.0012083275
188	0xb9305c61	-0.00016819082
189	0x380c0512	3.3383323e-05
190	0xb7e6efa7	-2.7529733e-05
191	0x38480d6e	4.7696223e-05
192	0x3789c16e	1.6421745e-05
193	0x373e8d94	1.1357846e-05
194	0xb86d495e	-5.657353e-05
195	0x3a936e67	0.0011248112
196	0xb9dbd5ce	-0.00041930232
197	0x394a0cb3	0.00019268952
198	0x38a5b2cd	7.901117e-05
199	0x36889ba0	4.071233e-06
200	0xb8b6be10	-8.713838e-05
201	0xb9dbd5ce	-0.00041930232
202	0x27e4afbf	6.3473257e-15
203	0x38f224c3	0.000115463066
204	0x356f12d2	8.9061825e-07
205	0x35bb793c	1.396787e-06
206	0x3865156c	5.4617805e-05
207	0x0c17aae8	1.1684047e-31
208	0x00000000	0.0
209	0x38f6f6c3	0.00011776157
210	0xb23e5f1c	-1.1081081e-08
211	0x38921931	6.966515e-05
212	0xb0af7eb4	-1.2768937e-09
213	0xb272f918	-1.4142891e-08
214	0x38f6f917	0.00011776591
215	0x1595bdb6	6.047993e-26
216	0x37d4dffd	2.5376672e-05
217	0xb1ff56d3	-7.4313475e-09
218	0xaef30ab0	-1.1052259e-10
219	0x38f6f4dd	0.000117758034
220	0x93ba4242	-4.7018336e-27
221	0x37a4b1b7	1.9633078e-05
222	0x311ac9e1	2.2524704e-09
223	0xb28e0031	-1.6531063e-08
224	0x38f6f87c	0.00011776478
225	0x1540171f	3.879233e-26
226	0x37e83060	2.7679082e-05
227	0xa31be597	-8.451184e-18
228	0x159eb504	6.4101284e-26
229	0x38f6f0cf	0.00011775048
230	0x15423bc7	3.9225144e-26
231	0x378c7e64	1.6748156e-05
232	0xac060da5	-1.905012e-12
233	0xb28b127d	-1.6190137e-08
234	0x38f6f981	0.00011776668
235	0x9408a57a	-6.89888e-27
236	0x3787b211	1.6176173e-05
237	0x2e1e3675	3.597341e-11
238	0x154b4e83	4.1057458e-26
239	0x38f6f0cc	0.00011775046
240	0x1545a649	3.991501e-26
241	0x3783653d	1.566356e-05
242	0x2f915132	2.643304e-10
243	0x14bfd4d8	1.9370023e-26
244	0x38f6f0ac	0.00011775023
245	0x139a9402	3.9021012e-27
246	0x3793c2b4	1.7614431e-05
247	0x249e195c	6.856454e-17
248	0x1577f4e6	5.0074444e-26
249	0x38f6f0cf	0.00011775048
250	0x15339909	3.6269486e-26
251	0x3761f877	1.3468895e-05
252	0x249e195c	6.856454e-17
253	0x1577f4e6	5.0074444e-26
254	0x38f6f0cf	0.00011775048
255	0x15339909	3.6269486e-26

exp_avg_sq f4 [128, 101]
0	0x32ca7c9c	2.357256e-08
1	0x34858c39	2.4875206e-07
2	0x319f00b0	4.627587e-09
3	0x33a7aa0c	7.807475e-08
4	0x345145ff	1.9490106e-07
5	0x30051fbd	4.843022e-10
6	0x00000000	0.0
7	0x34bef58d	3.556892e-07
8	0x32e2f0a7	2.6419299e-08
9	0x33d14572	9.744953e-08
10	0x30976045	1.1014057e-09
11	0x31c6cab0	5.7856013e-09
12	0x34c4436c	3.65569e-07
13	0x31f20bba	7.04446e-09
14	0x32a0645e	1.8672093e-08
15	0x31f10675	7.014757e-09
16	0x31eace23	6.8337314e-09
17	0x34bf491c	3.5629716e-07
18	0x31c2fcad	5.674869e-09
19	0x32633680	1.3225531e-08
20	0x309bdb52	1.1340069e-09
21	0x31c380c7	5.6898872e-09
22	0x34c56fa9	3.6775353e-07
23	0x31eb50ee	6.848601e-09
24	0x32a84104	1.958734e-08
25	0x310b4606	2.0266966e-09
26	0x3241be70	1.1277379e-08
27	0x34c42fdb	3.6542664e-07
28	0x2f4d1192	1.8650884e-10
29	0x3201ba6d	7.551177e-09
30	0x302f8f54	6.386831e-10
31	0x318c4290	4.0821035e-09
32	0x34c750dc	3.712547e-07
33	0x31ce4058	6.002704e-09
34	0x3296a412	1.7536909e-08
35	0x311e62ec	2.3048257e-09
36	0x3250b53b	1.21484005e-08
37	0x34c3146d	3.6336442e-07
38	0x30380bdd	6.695567e-10
39	0x3227c66e	9.765797e-09
40	0x30d94c6f	1.5810552e-09
41	0x322ae613	9.947615e-09
42	0x34c378f8	3.6409597e-07
43	0x310fb34d	2.091116e-09
44	0x324aef57	1.1812367e-08
45	0x309842ec	1.1078476e-09
46	0x32205226	9.331904e-09
47	0x34c23cb4	3.6179483e-07
48	0x3112dad8	2.1370195e-09
49	0x32570f5e	1.2518141e-08
50	0x309842ec	1.1078476e-09
51	0x32205226	9.331904e-09
52	0x34c23cb4	3.6179483e-07
53	0x3112dad8	2.1370195e-09
54	0x32570f5e	1.2518141e-08
55	0x32a0645e	1.8672093e-08
56	0x34c714e1	3.708183e-07
57	0x32633680	1.3225531e-08
58	0x34c803f2	3.7255774e-07
59	0x32a84104	1.958734e-08
60	0x34c7bf25	3.7205714e-07
61	0x3201ba6d	7.551177e-09
62	0x34cca2f1	3.8116517e-07
63	0x3296a412	1.7536909e-08
64	0x34c8898c	3.7352982e-07
65	0x3227c66e	9.765797e-09
66	0x34cd3d39	3.822877e-07
67	0x324aef57	1.1812367e-08
68	0x34cba9e0	3.7935297e-07
69	0x32570f5e	1.2518141e-08
70	0x34cb5ae7	3.7877837e-07
71	0x32570f5e	1.2518141e-08
72	0x34cb5ae7	3.7877837e-07
73	0x345145ff	1.9490106e-07
74	0x34995341	2.8559046e-07
75	0x33d14572	9.744953e-08
76	0x34bec8b1	3.553628e-07
77	0x3935ea32	0.0001734875
78	0x3624d2c8	2.4560595e-06
79	0x3aed08aa	0.0018084247
80	0x33aae969	7.958699e-08
81	0x34251422	1.5374147e-07
82	0x33ed0505	1.10370856e-07
83	0x3702e1a1	7.801137e-06
84	0x355660d7	7.9862133e-07
85	0x3b802b94	0.003911445
86	0x3b7a04e1	0.003814988
87	0x36fc773d	7.5240664e-06
88	0x35645576	8.506098e-07
89	0x34912dc6	2.704166e-07
90	0x33db7bd5	1.0220507e-07
91	0x32bd349e	2.2026423e-08
92	0x33ca045e	9.4071524e-08
93	0x32dc728c	2.566346e-08
94	0x392a62fa	0.00016249335
95	0x37a913e3	2.015563e-05
96	0x3afa760d	0.0019108668
97	0x33db4cc5	1.02119465e-07
98	0x2f8acdae	2.5248198e-10
99	0x3491720e	2.709134e-07
100	0x37a913e3	2.015563e-05
101	0x32aceb1c	2.013035e-08
102	0x348c3854	2.6118016e-07
103	0x322b6652	9.976775e-09
104	0x34bfc0b7	3.571674e-07
105	0x350ded5c	5.2871997e-07
106	0x2f2b80ae	1.5598076e-10
107	0x00000000	0.0
108	0x353e2ead	7.084844e-07
109	0x30c637bd	1.4422238e-09
110	0x33824ab4	6.067185e-08
111	0x30b779db	1.3349636e-09
112	0x303da965	6.8998524e-10
113	0x353de217	7.073699e-07
114	0x2e21d1b1	3.6793405e-11
115	0x32911034	1.688759e-08
116	0x2faa5f45	3.0990513e-10
117	0x301d2a4a	5.7176364e-10
118	0x353e7fc1	7.096642e-07
119	0x2de6fa74	2.6259196e-11
120	0x328fe807	1.6752905e-08
121	0x3095513b	1.0864264e-09
122	0x2f8b9fbe	2.5397456e-10
123	0x353dd010	7.071076e-07
124	0x2e3f381c	4.3478207e-11
125	0x32875c10	1.5757934e-08
126	0x2f1fc7bb	1.4531924e-10
127	0x3016248e	5.462163e-10
128	0x353e80bc	7.096785e-07
129	0x2be72270	1.6423096e-12
130	0x32a1f6b2	1.885505e-08
131	0x30c4f026	1.4329131e-09
132	0x2f4597eb	1.7971018e-10
133	0x353dacd4	7.0659485e-07
134	0x2e3762ba	4.169707e-11
135	0x328574d3	1.5536363e-08
136	0x300420ff	4.806821e-10
137	0x2fb3647e	3.2631314e-10
138	0x353e8805	7.097845e-07
139	0x2c8f1667	4.0667916e-12
140	0x32aff483	2.0483872e-08
141	0x3087d2ba	9.882435e-10
142	0x2f533f7d	1.9212894e-10
143	0x353e1bb6	7.082084e-07
144	0x2e8264c5	5.929616e-11
145	0x32847ef0	1.5424547e-08
146	0x30f50b88	1.7829374e-09
147	0x2f31e0bb	1.6177897e-10
148	0x353d08b2	7.042064e-07
149	0x2d0e30c1	8.082591e-12
150	0x32a3e341	1.907904e-08
151	0x30f50b88	1.7829374e-09
152	0x2f31e0bb	1.6177897e-10
153	0x353d08b2	7.042064e-07
154	0x2d0e30c1	8.082591e-12
155	0x32a3e343	1.9079044e-08
156	0x32911034	1.688759e-08
157	0x353ebf13	7.1058565e-07
158	0x328fe807	1.6752905e-08
159	0x353eba41	7.105155e-07
160	0x32875c10	1.5757934e-08
161	0x353ec269	7.106342e-07
162	0x32a1f6b2	1.885505e-08
163	0x353ebca9	7.105505e-07
164	0x328574d3	1.5536363e-08
165	0x353ec4be	7.1066813e-07
166	0x32aff483	2.0483872e-08
167	0x353ec437	7.1066046e-07
168	0x32847ef0	1.5424547e-08
169	0x353ecb3b	7.1076255e-07
170	0x32a3e341	1.907904e-08
171	0x353ec05c	7.1060435e-07
172	0x32a3e343	1.9079044e-08
173	0x353ec05c	7.1060435e-07
174	0x350ded5c	5.2871997e-07
175	0x349fd410	2.9770354e-07
176	0x33824ab4	6.067185e-08
177	0x353e4484	7.088022e-07
178	0x39232ea6	0.00015562269
179	0x367ff640	3.8141297e-06
180	0x3b90c791	0.0044183214
181	0x33adde12	8.0963346e-08
182	0x34bc30ca	3.5053228e-07
183	0x341055dd	1.3442282e-07
184	0x37950f3c	1.7769278e-05
185	0x3714f0d0	8.877556e-06
186	0x3db3aebd	0.08773563
187	0x3dad3630	0.08457601
188	0x374d9692	1.225401e-05
189	0x3617105a	2.2510271e-06
190	0x36057424	1.9886147e-06
191	0x35f4f9b8	1.8252094e-06
192	0x336d0920	5.518916e-08
193	0x351dfeaa	5.885764e-07
194	0x33c2f4f7	9.078388e-08
195	0x391a95cb	0.00014742387
196	0x38833eff	6.258301e-05
197	0x3b8ecd4f	0.004357971
198	0x343a6a92	1.736137e-07
199	0x304ada89	7.379773e-10
200	0x348d4ed8	2.6320663e-07
201	0x38833eff	6.258301e-05
202	0x31fae810	7.30234e-09
203	0x33730279	5.6580095e-08
204	0x2e8b11e9	6.32417e-11
205	0x32e22a6f	2.632916e-08
206	0x334306e1	4.5408232e-08
207	0x2c8eb5f9	4.0560858e-12
208	0x00000000	0.0
209	0x33a7ac66	7.8079026e-08
210	0x3282f5ab	1.5245709e-08
211	0x331915b1	3.5642817e-08
212	0x2f894ce5	2.4974792e-10
213	0x31c54e1f	5.742336e-09
214	0x33b23afb	8.2994994e-08
215	0x3127bf7c	2.4410545e-09
216	0x31aa1eb3	4.9511413e-09
217	0x315f4291	3.248861e-09
218	0x31bdb479	5.5211413e-09
219	0x33aeb12c	8.134734e-08
220	0x30b5f28f	1.3238423e-09
221	0x314e35b8	3.000748e-09
222	0x2ead5b4e	7.883348e-11
223	0x31bfcbb6	5.581991e-09
224	0x33b29a2f	8.316817e-08
225	0x31160216	2.1829059e-09
226	0x31b4da2f	5.263494e-09
227	0x311798da	2.2060278e-09
228	0x31a0ec20	4.683457e-09
229	0x33b4a2b4	8.411499e-08
230	0x2f565c0b	1.9495887e-10
231	0x3100e12b	1.8754445e-09
232	0x30d2e871	1.5345575e-09
233	0x315b9d42	3.1958085e-09
234	0x33b58846	8.453257e-08
235	0x30bba5fb	1.3653215e-09
236	0x3190457e	4.198852e-09
237	0x30dc2624	1.6017947e-09
238	0x3197e52d	4.4207327e-09
239	0x33b1767a	8.2637555e-08
240	0x30398e09	6.750445e-10
241	0x313328dc	2.6071154e-09
242	0x3029b78e	6.174269e-10
243	0x318c7c25	4.08865e-09
244	0x33b0d16e	8.233734e-08
245	0x31161e67	2.1845155e-09
246	0x31adefb4	5.0622138e-09
247	0x2fd0581b	3.7897582e-10
248	0x31696d18	3.3967975e-09
249	0x33b56087	8.4460275e-08
250	0x3103bea2	1.9171371e-09
251	0x3197f3aa	4.42238e-09
252	0x2fd0581b	3.7897582e-10
253	0x31696d18	3.3967975e-09
254	0x33b56087	8.4460275e-08
255	0x3103bea2	1.9171371e-09

exp_avg f4 [128]
0	0xb93150d2	-0.00016910143
1	0xb830f7a3	-4.21923e-05
2	0x38f6f0cd	0.00011775047
3	0x38dca9ab	0.000105220206
4	0x3919969c	0.00014647323
5	0x39145ee1	0.00014149725
6	0xb81c0dab	-3.7206028e-05
7	0x384440bc	4.679033e-05
8	0xb929a3b5	-0.00016178082
9	0x38ddc21f	0.00010574259
10	0x397212a5	0.00023085864
11	0x3902f6c8	0.000124897
12	0x37d8c55f	2.5841115e-05
13	0x3976a4c6	0.00023521771
14	0x381a4b98	3.6786863e-05
15	0x38928a94	6.987635e-05
16	0x388837b9	6.4953645e-05
17	0x3968b2d7	0.00022191867
18	0x380739c4	3.2240307e-05
19	0xb88362da	-6.264979e-05
20	0x397b9d0d	0.00023995731
21	0xb803d3be	-3.1430034e-05
22	0x38de0d87	0.000105883046
23	0x3811d732	3.477111e-05
24	0x36b76704	5.4658176e-06
25	0x380bec2a	3.3360127e-05
26	0xb703d4b2	-7.85773e-06
27	0xb7b6fd69	-2.1814094e-05
28	0xb88db91e	-6.757885e-05
29	0x388cdf23	6.717283e-05
30	0x39001cda	0.0001221778
31	0xb93f7033	-0.00018256977
32	0xb9820c29	-0.00024804592
33	0x39ac1137	0.00032819223
34	0xb722d4c2	-9.705489e-06
35	0xb94e2493	-0.00019659316
36	0xb9cd9f29	-0.0003921923
37	0xb94b3c10	-0.00019381964
38	0xb86e8320	-5.686574e-05
39	0x39588b98	0.00020651368
40	0x39654595	0.00021865063
41	0xb8013754	-3.0807525e-05
42	0x34019533	1.206834e-07
43	0x39177a5e	0.00014446068
44	0xb7b0b7e3	-2.1066464e-05
45	0x38e2486c	0.000107900094
46	0x37ca22a7	2.4096413e-05
47	0x38e49546	0.000108996916
48	0xb87cdb01	-6.0285445e-05
49	0xb8b98488	-8.846173e-05
50	0xb7efb589	-2.8575554e-05
51	0x36295084	2.5229829e-06
52	0xb8c24ac9	-9.264571e-05
53	0xb965ae1d	-0.00021904004
54	0x39520f56	0.00020032874
55	0x38afe4bc	8.3872554e-05
56	0xb954a54f	-0.00020279478
57	0x38c547d0	9.407068e-05
58	0x38cc31c8	9.7367505e-05
59	0x38e56f49	0.000109402994
60	0xb7d13597	-2.4939696e-05
61	0xb91c9011	-0.00014930988
62	0xb9c31b64	-0.00037213706
63	0xb8867e8e	-6.4131906e-05
64	0x38facb32	0.00011958777
65	0xb8990f02	-7.298404e-05
66	0x37725171	1.4443286e-05
67	0xb890d351	-6.905816e-05
68	0x39076488	0.00012912054
69	0xb88feec4	-6.863245e-05
70	0x389f0fc4	7.5846474e-05
71	0x3885921f	6.3691514e-05
72	0x2cda641c	6.207047e-12
73	0xb833b559	-4.284582e-05
74	0xb84c7924	-4.875021e-05
75	0xb818cbbe	-3.6429374e-05
76	0x38c39dc2	9.327709e-05
77	0xb90f2a3a	-0.00013653273
78	0xb842536a	-4.633089e-05
79	0xb8b402a0	-8.583558e-05
80	0xb281ab8e	-1.509559e-08
81	0x38939cb7	7.038697e-05
82	0xb78fab83	-1.7126795e-05
83	0xb87f2d8f	-6.0839167e-05
84	0xb86cdabe	-5.6470504e-05
85	0xb8de5955	-0.00010602424
86	0xb86a5a5e	-5.587411e-05
87	0x39415d1b	0.00018440599
88	0xb87d75f6	-6.042976e-05
89	0xb8a431b5	-7.829388e-05
90	0xb71946e9	-9.136021e-06
91	0xb8b010dc	-8.395474e-05
92	0x388fde85	6.860219e-05
93	0xba0ad6ab	-0.000529627
94	0x37fd1510	3.0169758e-05
95	0xb814f027	-3.550961e-05
96	0x38aef894	8.343268e-05
97	0x379b988f	1.854848e-05
98	0x390c109f	0.00013357632
99	0xb8489910	-4.7826266e-05
100	0x386af06e	5.6013865e-05
101	0x387b0f6a	5.985742e-05
102	0x379f2bf1	1.8974739e-05
103	0x383bda53	4.4787605e-05
104	0x39aac129	0.00032568842
105	0xb9228b07	-0.00015501316
106	0xb9516502	-0.00019969422
107	0xb9724b66	-0.00023107007
108	0x38cfb4b1	9.9041856e-05
109	0xb82c71ae	-4.1113868e-05
110	0x38e5f79c	0.00010965692
111	0xb82addcd	-4.0737727e-05
112	0x39b151ac	0.0003382092
113	0x38c4d5fe	9.3858675e-05
114	0x35422f34	7.233932e-07
115	0xb8781fc8	-5.9157406e-05
116	0xb939fe68	-0.00017737749
117	0xb8a51a74	-7.8727404e-05
118	0xb7868192	-1.603438e-05
119	0x3915aa61	0.00014273218
120	0x39229343	0.00015504383
121	0xb9603ad1	-0.00021384216
122	0x365c9a23	3.2872274e-06
123	0xb79a1d45	-1.837186e-05
124	0xb966a3bb	-0.00021995504
125	0x394a0a77	0.0001926812
126	0xb91e0e17	-0.00015073303
127	0x39849c76	0.00025293574

exp_avg_sq f4 [128]
0	0x34cd26c4	3.821243e-07
1	0x353ebd98	7.105641e-07
2	0x33c8a399	9.342984e-08
3	0x34d1b993	3.9064307e-07
4	0x35939a9a	1.0997348e-06
5	0x34efe7e9	4.4685956e-07
6	0x3301798d	3.0145703e-08
7	0x34980096	2.8312633e-07
8	0x34a2a046	3.0291466e-07
9	0x34db5e15	4.0860382e-07
10	0x356895a6	8.66445e-07
11	0x35355919	6.755741e-07
12	0x3506718c	5.008412e-07
13	0x352b6d94	6.386192e-07
14	0x352eb0a9	6.5077126e-07
15	0x345d03e7	2.0583649e-07
16	0x3688622a	4.0645436e-06
17	0x35a25378	1.2094233e-06
18	0x323234da	1.0372981e-08
19	0x331c787b	3.6431157e-08
20	0x360a9b06	2.0653838e-06
21	0x34d04bb0	3.879809e-07
22	0x345796cc	2.0078295e-07
23	0x343bd597	1.7493436e-07
24	0x33bfd17b	8.932235e-08
25	0x35d0b636	1.5550238e-06
26	0x339c8b55	7.2896604e-08
27	0x34bde556	3.5370857e-07
28	0x32e2a1e9	2.6383491e-08
29	0x349dbe3e	2.9381948e-07
30	0x3540e94e	7.1865077e-07
31	0x35686182	8.656863e-07
32	0x3531a1e2	6.617321e-07
33	0x354e7918	7.6917195e-07
34	0x33aa7d73	7.939061e-08
35	0x35a2ff49	1.2144238e-06
36	0x34d412e0	3.950181e-07
37	0x35c6dd30	1.4816524e-06
38	0x32425a1b	1.1312774e-08
39	0x34c67b54	3.6970107e-07
40	0x3584b77e	9.88817e-07
41	0x35a23192	1.2084367e-06
42	0x2f4f08d7	1.8829681e-10
43	0x34e6c757	4.2985877e-07
44	0x34044437	1.2318274e-07
45	0x34927475	2.7279353e-07
46	0x354285d3	7.246537e-07
47	0x34aee2e5	3.2575113e-07
48	0x32b20bf2	2.072736e-08
49	0x344125a9	1.7988226e-07
50	0x34b289da	3.3255384e-07
51	0x34c236cd	3.617519e-07
52	0x35917f8e	1.0840465e-06
53	0x342eb934	1.627239e-07
54	0x35cae231	1.5116003e-06
55	0x344049cd	1.7908242e-07
56	0x34d11bf7	3.894963e-07
57	0x352793ec	6.24276e-07
58	0x336b0683	5.4721124e-08
59	0x348ff9f1	2.6817682e-07
60	0x340e07c3	1.3227604e-07
61	0x34d8990e	4.0344497e-07
62	0x362576c7	2.4656053e-06
63	0x352082ba	5.9794877e-07
64	0x333edc38	4.443811e-08
65	0x34bb1072	3.484343e-07
66	0x349b63fa	2.8943742e-07
67	0x342b4097	1.5949114e-07
68	0x35abc113	1.2796685e-06
69	0x35370d89	6.819251e-07
70	0x3396c0fd	7.020024e-08
71	0x332cc0db	4.022227e-08
72	0x1e8fcb0d	1.5224694e-20
73	0x32a1d18a	1.8838154e-08
74	0x357c38ce	9.395998e-07
75	0x35a44e2b	1.2241702e-06
76	0x349c26b6	2.908543e-07
77	0x3527eaac	6.255384e-07
78	0x356f81c0	8.922325e-07
79	0x352220b7	6.039731e-07
80	0x2dece360	2.6931068e-11
81	0x34af4304	3.264505e-07
82	0x33b7aec1	8.553389e-08
83	0x35aed631	1.3026348e-06
84	0x34eaa9a0	4.3709315e-07
85	0x350d2b77	5.2589843e-07
86	0x326b2ec8	1.3689437e-08
87	0x34959c5e	2.7867185e-07
88	0x33cdf336	9.590296e-08
89	0x34ccba2c	3.813342e-07
90	0x3578c231	9.2669785e-07
91	0x34737a35	2.2675597e-07
92	0x3511c1ad	5.4298545e-07
93	0x35f2dd49	1.8094808e-06
94	0x33eaef0d	1.0939957e-07
95	0x355578ee	7.952466e-07
96	0x350a4e83	5.1523256e-07
97	0x34f849a6	4.6247186e-07
98	0x33ad5a18	8.072328e-08
99	0x33bd950b	8.828109e-08
100	0x3315c488	3.487051e-08
101	0x348732d9	2.5182706e-07
102	0x35251846	6.150261e-07
103	0x358b4ce4	1.0378685e-06
104	0x36100da5	2.1465614e-06
105	0x33a188d3	7.522035e-08
106	0x35fdc733	1.8907944e-06
107	0x36212d75	2.401733e-06
108	0x3412fb83	1.3688809e-07
109	0x350b49d9	5.1889e-07
110	0x351928b2	5.705616e-07
111	0x3558bd3a	8.074163e-07
112	0x3541b3fb	7.216001e-07
113	0x35029388	4.864346e-07
114	0x35d45fce	1.5823114e-06
115	0x337f2ebf	5.941433e-08
116	0x3631d696	2.649996e-06
117	0x34bab915	3.4779865e-07
118	0x34dac4da	4.0748893e-07
119	0x345a0c99	2.0307415e-07
120	0x3535dd74	6.775001e-07
121	0x35744c26	9.1007894e-07
122	0x318f3979	4.1683816e-09
123	0x333fc6a6	4.4651323e-08
124	0x357996bd	9.297908e-07
125	0x3572d4e2	9.046181e-07
126	0x35898fec	1.0249182e-06
127	0x35c991f8	1.501815e-06
