results/DroneAgentBigTrack7/DroneAgent/DroneAgent-4499945.onnx (onnx, 755437 bytes, 10 tensors)

network_body._body_endoder.seq_layers.0.weight f4 [128, 296]
0.08968154 0.041458715 -0.1028123 0.070983015 0.00918624 -0.101193264 0.008015755 0.057855815
0.104700126 0.0790307 0.07986046 0.040852603 0.05843925 0.09652041 0.004232969 0.04565299
-0.16055791 0.10241265 0.019077532 -0.05861551 0.0049564503 0.047781352 -0.103170805 -0.08294574
0.088813566 -0.06664641 -0.07254493 -0.037958972 0.03766771 0.034685776 0.005867763 0.047417812
0.020931076 -0.029222047 0.029821422 -0.010815406 0.018869728 0.072797626 0.030703302 0.03981109
-0.07084377 0.02217458 0.13184458 -0.06438103 -0.0013525612 -0.030588962 -0.038787883 -0.016732285
-0.028682671 -0.01858268 0.04167384 -0.014807947 0.0072445874 -0.02677939 0.11300884 -0.0056441217
0.039739 -0.060884025 0.05272173 -0.0027260198 -0.094367094 0.07572552 0.029692952 -0.015682599
-0.03262835 0.028883971 0.06834013 -0.03275865 -0.056348972 0.06429987 -0.0035991422 0.037010904
-0.013802597 -0.029244194 0.0178135 -0.037967585 0.07827415 0.038956016 0.037646063 -0.01030606
-0.074085906 -0.0079559395 0.010824197 -0.026009675 -0.0123151345 0.025602596 0.033380494 -0.13324825
-0.013945018 -0.09712965 -0.04961768 0.02128866 0.01389585 -0.009960702 -0.06314617 0.04642052
0.033636216 0.13422272 -0.009243315 0.03441247 -0.011420931 -0.11096528 -0.103891715 0.06271707
-0.07260302 0.06622166 0.0022600242 -0.011017672 -0.03203515 0.011602985 0.043589983 0.036770787
-0.012228569 -0.10630445 0.013442309 -0.06713439 0.0010077609 -0.010936566 -0.028711809 -0.028838256
-0.081129596 0.007379386 0.054094944 -0.06306821 0.01754726 0.011268374 -0.03343092 0.0016947462
0.028905416 0.019387348 0.11528823 -0.027828826 0.11589641 0.0660141 -0.0800742 -0.07825567
-0.012721558 -0.053643446 -0.017878518 0.13221683 -0.0025786723 -0.07352486 0.018040424 -0.041381564
0.026427208 0.07372617 -0.010130444 0.006126009 -0.042414676 -0.09020296 -0.07877825 0.0061749243
-0.0006929938 -0.021943323 -0.016742144 0.06329283 -0.050948143 0.104439005 0.029623134 0.05791047
-0.065732494 -0.05774305 0.014583574 0.039873824 -0.024095211 -0.076528415 0.009682206 -0.040071003
0.0691099 -0.03217048 0.05091646 0.08521061 0.06317141 -0.07633077 0.021128962 0.10781845
-0.0611078 0.06800699 0.005122792 0.124228075 0.06463433 0.124601744 0.06511965 -0.018442875
-0.14883892 -0.057864115 0.062466945 -0.06813805 0.012875504 0.02226905 0.10292182 -0.05810067
0.08655997 -0.0015502928 0.04593052 0.1004265 0.03917378 -0.00042953738 -0.015076375 -0.016116789
0.040880512 0.042012855 -0.058033537 -0.100945756 -0.11790913 -0.009633655 -0.03789357 0.0021384177
-0.07415988 -0.04322762 -0.07348933 -0.052660357 -0.06746545 -0.051154856 0.109585255 0.04892567
-0.041994445 -0.04428506 0.024394454 -0.045454673 -0.09078295 0.07493836 0.013795316 -0.015583775
0.06604918 0.020428924 -0.02433369 0.014545107 -0.06490947 0.055849154 -0.049723465 0.0488207
0.00040288357 -0.04169424 -0.030323677 -0.049064472 0.030161077 0.021415085 0.023280468 -0.0285997
0.080103606 -0.019573716 -0.08180291 -0.047887467 -0.004951468 0.061914332 -0.016853148 0.009360585
-0.01580469 0.040812783 -0.018164221 -0.012013741 0.06808926 0.012975475 0.06313674 -0.060341403
00000000: f5aa b73d 9dd0 293d 418f d2bd 8b5f 913d
00000010: e281 163c 6a3e cfbd 8354 033c 38fa 6c3d
00000020: 056d d63d d9da a13d e18d a33d 0f55 273d
00000030: ff5d 6f3d 7eac c53d b8b4 8a3b a1fe 3a3d
00000040: 4b69 24be b9bd d13d 7c48 9c3c d116 70bd
00000050: b869 a23b 61b6 433d 374b d3bd 75df a9bd
00000060: e3e3 b53d ea7d 88bd 7092 94bd de7a 1bbd
00000070: 7549 1a3d ac12 0e3d 5d46 c03b 2e39 423d
00000080: a677 ab3c 1363 efbc 0e4c f43c 1a33 31bc
00000090: b094 9a3c ec16 953d 7e85 fb3c f410 233d
000000a0: 8a16 91bd 77a7 b53c 4402 073e 34da 83bd
000000b0: 6c48 b1ba b495 fabc 0be0 1ebd 2512 89bc
000000c0: ecf7 eabc b43a 98bc 30b2 2a3d 089d 72bc
000000d0: 0164 ed3b 7460 dbbc 2e71 e73d 53f2 b8bb
000000e0: 5dc5 223d 8761 79bd bef2 573d 06a7 32bb
000000f0: 8943 c1bd fb15 9b3d a23e f33c cb78 80bc
00000100: 4ea5 05bd 149e ec3c e9f5 8b3d ef2d 06bd
00000110: 2ece 66bd a6af 833d 96df 6bbb bf98 173d
00000120: 4a24 62bc 8591 efbc 9eed 913c e683 1bbd
00000130: 334e a03d 5890 1f3d c232 1a3d c0da 28bc
00000140: 5aba 97bd a159 02bc f957 313c 3e12 d5bc
00000150: 6bc5 49bc 89bc d13c fcb9 083d 3b72 08be
00000160: a579 64bc e9eb c6bd e93b 4bbd 8e65 ae3c
00000170: 6bab 633c 3632 23bc c752 81bd 7123 3e3d
00000180: 21c6 093d ae71 093e 4671 17bc 17f4 0c3d
00000190: db1e 3bbc c441 e3bd 2ec5 d4bd cf71 803d
000001a0: e4b0 94bd 399f 873d ea1c 143b 7783 34bc
000001b0: 4a37 03bd 721a 3e3c 698b 323d f79c 163d
000001c0: 565a 48bc 26b6 d9bd 213d 5c3c c17d 89bd
000001d0: d816 843a 482f 33bc 0735 ebbc 353e ecbc
000001e0: 4627 a6bd c7ce f13b a992 5d3d e829 81bd
000001f0: 45bf 8f3c fc9e 383c dcee 08bd 3f22 de3a
00000200: 0dcb ec3c 37d2 9e3c 3c1c ec3d 47f9 e3bc
00000210: 195b ed3d 6732 873d f1fd a3bd 8244 a0bd
00000220: 156e 50bc 3bb9 5bbd f875 92bc d963 073e
00000230: f1fe 28bb 3494 96bd 83c9 933c b77f 29bd
00000240: df7d d83c bffd 963d 29fa 25bc b0bc c83b
00000250: 03bb 2dbd 54bc b8bd 7e56 a1bd 0557 ca3b
00000260: 07aa 35ba 7cc2 b3bc d226 89bc ac9f 813d
00000270: 00af 50bd 1ee4 d53d 37ac f23c 8733 6d3d
00000280: c29e 86bd fa83 6cbd f1ef 6e3c bc52 233d
00000290: 5263 c5bc eeba 9cbd 1ea2 1e3c 7e21 24bd
000002a0: 7e89 8d3d 31c5 03bd c78d 503d e682 ae3d
000002b0: 0360 813d 4f53 9cbd a516 ad3c ebcf dc3d
000002c0: 2c4c 7abd 4047 8b3d 18dd a73b 4a6b fe3d
000002d0: 015f 843d 332f ff3d 735d 853d 8315 97bc
000002e0: 3b69 18be ec02 6dbd 57dd 7f3d f68b 8bbd
000002f0: c7f3 523c 956d b63c adc8 d23d f8fa 6dbd
00000300: 5b46 b13d 3233 cbba a421 3c3d 69ac cd3d
00000310: af74 203d 8833 e1b9 e602 77bc 5b07 84bc
00000320: 5372 273d ac15 2c3d 93b4 6dbd a6bc cebd
00000330: 587a f1bd 7ad6 1dbc 4a36 1bbd b224 0c3b
00000340: 23e1 97bd 720f 31bd 9381 96bd 63b2 57bd
00000350: 532b 8abd c187 51bd 3c6e e03d 4966 483d
00000360: 5e02 2cbd 4064 35bd e1d6 c73c ae2e 3abd
00000370: 69ec b9bd 4879 993d c005 623c 1753 7fbc
00000380: cb44 873d 8f5a a73c 7257 c7bc 9a4e 6e3c
00000390: 42ef 84bd 15c2 643d d5aa 4bbd 37f8 473d
000003a0: 1e3a d339 94c7 2abd 5c69 f8bc d4f7 48bd
000003b0: 5d14 f73c b06e af3c aeb6 be3c eb49 eabc
000003c0: 5c0d a43d 0f59 a0bc 4988 a7bd a625 44bd
000003d0: ed3f a2bb e299 7d3d 9d0f 8abc 245d 193c
000003e0: d678 81bc 4e2b 273d 22cd 94bc 48d5 44bc
000003f0: 6272 8b3d 1697 543c d64d 813d 8c28 77bd

network_body._body_endoder.seq_layers.0.bias f4 [128]
0.004890154 0.0074620564 0.0094530005 -0.00021013997 0.0043477695 0.008000948 0.008847874 0.0036265953
-0.005330527 -0.005690091 0.0014343223 -0.009357376 -0.0026391165 -0.0033121128 -0.0002883725 0.0016910305
0.010283413 0.0031421562 0.006815671 -0.0015443261 0.0045766113 -0.0011335356 0.0013196071 -0.001278302
-0.000119641394 -0.0046823253 0.0015122383 -0.0017350662 -0.0026958375 -0.0038146875 0.00092789496 -0.0009522694
0.0024355443 0.0072012967 0.0010862473 0.0037644042 0.0033775675 0.002907672 0.0010329233 0.00266474
0.009470207 -0.0015765253 -0.0026382464 0.004526949 0.0028293687 0.00014536678 -0.0011298029 -0.0019606454
0.002159025 0.005692988 -0.008561176 -0.002805617 0.009904905 -0.00029419092 0.005704654 -0.0037439342
-0.0031567686 -0.0014850401 -0.004566606 -0.0030965602 0.00043664672 0.010785825 0.0017302237 0.001129827
0.0020424505 -0.006069745 -0.008606221 0.0021671897 0.0010795805 0.004595613 0.00032355078 0.00070454925
-0.00062018004 0.0076389154 0.00023311186 -0.010284191 0.004928068 0.0010878087 0.0007722509 0.0008186487
0.001276475 0.003370701 -0.0038327626 0.010149504 -0.0016291756 -0.0028508164 0.002533331 0.0031722307
0.0026815208 -0.0058114794 0.005441956 0.008639755 0.0033531564 0.001148701 -0.009570959 0.00029426877
0.0015082211 0.001458099 0.0057726996 -0.0014091029 0.005020163 -0.0028444296 -0.008606458 -0.002803684
0.004796858 0.004876517 0.00529487 0.0019471133 0.009266041 0.013266245 0.0015620838 -0.002034031
-0.0010295563 -0.0035903447 0.0042753816 0.0045535886 0.01255051 -0.0051420587 -0.0006305269 0.0077825724
0.0019057934 -0.0005569491 0.001238035 -0.0042866264 0.0022105086 -0.002667875 0.012216518 0.005671847
00000000: 963d a03b 4484 f43b c2e0 1a3c 0559 5cb9
00000010: bc77 8e3b 6816 033c acf6 103c 2cac 6d3b
00000020: b4ab aebb f173 babb dfff bb3a ae4f 19bc
00000030: 07f5 2cbb 0810 59bb b430 97b9 91a5 dd3a
00000040: c37b 283c a2ec 4d3b fe55 df3b fc6a caba
00000050: 66f7 953b 2593 94ba abf6 ac3a b38c a7ba
00000060: fce7 fab8 316e 99bb 4c36 c63a 296b e3ba
00000070: a6ac 30bb d6ff 79bb fa3d 733a b8a1 79ba
00000080: a79d 1f3b dbf8 eb3b 6960 8e3a 39b4 763b
00000090: 2e5a 5d3b a48e 3e3b 2863 873a eba2 2e3b
000000a0: ed28 1b3c 69a3 ceba 6ee6 2cbb cd56 943b
000000b0: ee6c 393b 996d 1839 e515 94ba 2c7e 00bb
000000c0: 6e7e 0d3b 3f8c ba3b 2d44 0cbc 71de 37bb
000000d0: 2f48 223c a33d 9ab9 1bee ba3b cb5c 75bb
000000e0: cae1 4ebb ada5 c2ba 78a3 95bb a9ef 4abb
000000f0: bbed e439 07b7 303c acc8 e23a b416 943a
00000100: a2da 053b b6e4 c6bb 1b01 0dbc 6907 0e3b
00000110: b680 8d3a cc96 963b 40a2 a939 80b1 383a
00000120: 9493 22ba de4f fa3b 7d6f 7439 067f 28bc
00000130: a17b a13b ce94 8e3a e170 4a3a 969a 563a
00000140: 654f a73a fbe6 5c3b 162f 7bbb 1b4a 263c
00000150: 108a d5ba c3d4 3abb 3e06 263b 33e5 4f3b
00000160: 74bc 2f3b 396e bebb 7052 b23b c28d 0d3c
00000170: a1c0 5b3b 0290 963a 83cf 1cbc 1648 9a39
00000180: 81af c53a af1d bf3a ea28 bd3b a6b1 b8ba
00000190: 2e80 a43b 9c69 3abb 1a02 0dbc 03be 37bb
000001a0: f62e 9d3b 31cb 9f3b 9780 ad3b 4836 ff3a
000001b0: 98d0 173c aa5a 593c d6be cc3a 614d 05bb
000001c0: 2df2 86ba fd4b 6bbb 8018 8c3b 4536 953b
000001d0: a7a0 4d3c b77e a8bb f249 25ba f304 ff3b
000001e0: d1cb f93a 3900 12ba 9045 a23a d476 8cbb
000001f0: 2ede 103b 84d7 2ebb ca27 483c e7da b93b

network_body._body_endoder.seq_layers.2.weight f4 [128, 128]
-0.08530473 -0.11015071 -0.0016158365 -0.010828237 -0.107278615 0.29414067 -0.0663404 -0.026063576
0.1349589 -0.013341018 -0.12609212 -0.17551444 0.057885632 -0.04811079 -0.006638117 0.077772714
0.115614094 -0.013164711 -0.05751953 0.09196568 -0.082691915 0.07987817 0.07778701 0.028874937
-0.12986664 -0.019261181 -0.055946123 -0.112417795 -0.08426575 0.22402464 0.02363318 -0.079890974
-0.08141817 0.05160422 0.084227115 -0.104294 -0.010460424 -0.17914173 -0.03428784 -0.10990799
-0.100604504 0.04599916 -0.027350303 0.20765908 0.007919764 -0.008529115 0.040928565 -0.0014465483
-0.015330417 0.02623909 -0.0057824203 -0.117453225 0.015114772 0.06173146 0.08078247 0.009669481
0.23088197 -0.0015485667 0.03964 -0.12881793 -0.07599665 -0.0315926 0.005104673 0.034820214
-0.06287329 0.05951119 0.13409203 -0.0374045 -0.10208507 0.014242882 -0.030396255 -0.017787907
0.08860508 -0.071728036 -0.11386816 0.08194835 -0.11535077 -0.0015202904 -0.046429705 -0.009114378
0.16916713 0.016980784 -0.14050402 -0.03396894 -0.04284456 -0.15123497 0.07165063 0.116572596
-0.031392798 -0.13518025 -0.039024778 -0.0057027442 -0.10930891 0.04043121 -0.042367533 -0.15099327
-0.083662115 0.031582102 0.028605442 0.20538299 0.09399975 0.14455494 -0.13660662 0.114341885
-0.08388228 0.03524054 0.025137287 -0.09435216 -0.16252966 0.13229927 0.12490431 0.065550044
0.057767782 -0.031019108 -0.032436613 -0.067949615 0.05895072 0.062597595 -0.0015113488 -0.029919175
-0.10140786 0.06658993 0.039485183 -0.09877527 -0.056554295 -0.005839238 0.083298735 -0.001248535
0.011122958 -0.15077363 0.0048030238 0.07244749 -0.0710395 -0.09562505 0.013634542 0.18777099
-0.14851423 0.07773519 -0.03814309 -0.062645055 0.19279593 -0.030785209 0.019932808 0.12691659
-0.023826985 0.01127352 0.07371629 -0.009803628 -0.027437868 0.052784394 0.12758699 0.05862281
0.12792921 -0.019737046 -0.028620064 0.12099314 0.01361065 0.055435613 -0.06734596 0.07312537
-0.071096264 0.14202833 0.059248153 -0.039903678 0.089369565 -0.0040042684 -0.01514485 -0.04876556
-0.064954646 0.0024481448 0.11770777 -0.09177145 -0.047888447 -0.097541295 0.102530785 0.22280593
-0.16962954 -0.047389638 0.00091019593 -0.029155377 -0.030429503 0.010188892 0.10629024 -0.036011316
-0.16765027 0.18559366 0.09848994 -0.13613561 -0.14380355 -0.032633036 -0.07017934 -0.1038896
0.10025592 -0.015467812 0.04072081 0.13498667 0.08028074 0.11037342 0.07455052 -0.05391601
-0.022700988 0.0575887 0.058739625 -0.08509022 0.103364505 -0.042946514 0.12576254 -0.03630618
-0.05168476 -0.13254793 0.028707704 -0.08896956 -0.03140918 0.035144597 -0.079890974 -0.12305044
0.17064695 0.02858603 0.08167283 0.07529093 0.013811278 -0.03546883 -0.057639305 -0.055387855
0.0460838 -0.033964813 0.06347873 0.05641792 0.010809828 0.066349246 -0.0113937175 0.06238964
-0.117820516 0.06366492 0.0142512685 0.04617353 0.05331935 0.051756687 -0.14542839 -0.022113467
-0.022769742 0.08067488 -0.048099972 -0.02980166 -0.0041420157 -0.0715649 0.008872913 -0.029394254
0.12723318 -0.06878852 0.16726443 -0.038811494 0.024167502 0.17516279 0.008687343 -0.2300831
00000000: 3fb4 aebd b296 e1bd 7aca d3ba eb68 31bc
00000010: e4b4 dbbd 9b99 963e 7add 87bd 4883 d5bc
00000020: aa32 0a3e 4994 5abc 4b1e 01be 0fba 33be
00000030: 7c19 6d3d d20f 45bd 9084 d9bb 4d47 9f3d
00000040: 15c7 ec3d cdb0 57bc 9999 6bbd 8158 bc3d
00000050: 615a a9bd 2a97 a33d cc4e 9f3d 228b ec3c
00000060: c3fb 04be a0c9 9dbc c327 65bd 4d3b e6bd
00000070: 8693 acbd b766 653e 5f9a c13c e19d a3bd
00000080: 92be a6bd f25e 533d 447f ac3d 1898 d5bd
00000090: 3362 2bbc ee70 37be 6871 0cbd 7117 e1bd
000000a0: bc09 cebd 9d69 3c3d be0d e0bc 95a4 543e
000000b0: e6c1 013c b3bd 0bbc b6a4 273d 1b9a bdba
000000c0: 6e2c 7bbc 5cf3 d63c 757a bdbb 518b f0bd
000000d0: f3a3 773c 21da 7c3d 4871 a53d be6c 1e3c
000000e0: 536c 6c3e 47f9 caba 8d5d 223d d9e8 03be
000000f0: 22a4 9bbd 3e67 01bd 1a45 a73b a49f 0e3d
00000100: b6c3 80bd 01c2 733d 6c4f 093e 7635 19bd
00000110: fa11 d1bd fa5a 693c 9101 f9bc f2b7 91bc
00000120: 9576 b53d 26e6 92bd b633 e9bd 89d4 a73d
00000130: 063d ecbd 7b44 c7ba 132d 3ebd 7954 15bc
00000140: 263a 2d3e 491b 8b3c 49e0 0fbe 0423 0bbd
00000150: c77d 2fbd 57dd 1abe 91bd 923d 9dbd ee3d
00000160: bc95 00bd b16c 0abe 72d8 1fbd 16de babb
00000170: 5add dfbd 329b 253d 9489 2dbd fb9d 1abe
00000180: 0b57 abbd 3c5c 013d f655 ea3c eb4f 523e
00000190: f182 c03d 3606 143e 9be2 0bbe 142c ea3d
000001a0: 79ca abbd 6258 103d b6ec cd3c b53b c1bd
000001b0: 2d6e 26be 7679 073e d5cd ff3d 1a3f 863d
000001c0: e99d 6c3d c91b febc 41dc 04bd 2b29 8bbd
000001d0: 4f76 713d 2b33 803d 7318 c6ba 0f19 f5bc
000001e0: edae cfbd 4d60 883d 37bb 213d b04a cabd
000001f0: 7aa5 67bd 1457 bfbb 8798 aa3d e2a5 a3ba
00000200: 113d 363c 6764 1abe af62 9d3b 5a5f 943d
00000210: 287d 91bd 11d7 c3bd 6a63 5f3c 0a47 403e
00000220: 1d14 18be a133 9f3d ee3b 1cbd 0d4c 80bd
00000230: 4c6c 453e 4331 fcbc 214a a33c 6cf6 013e
00000240: cf30 c3bc 92b4 383c 91f8 963d 659f 20bc
00000250: 61c5 e0bc 7334 583d 2aa6 023e 791e 703d
00000260: e0ff 023e 96af a1bc a074 eabc 40cb f73d
00000270: 34ff 5e3c 7410 633d aeec 89bd c1c2 953d
00000280: eb9a 91bd e06f 113e 31ae 723d 0a72 23bd
00000290: 6407 b73d 3d36 83bb 1b22 78bc 65be 47bd
000002a0: f106 85bd 0e71 203b c510 f13d acf2 bbbd
000002b0: ad26 44bd bbc3 c7bd a9fb d13d 3d27 643e
000002c0: 5eb3 2dbe a31b 42bd 379a 6e3a 42d7 eebc
000002d0: 4b47 f9bc 4fef 263c b3ae d93d 9a80 13bd
000002e0: 83ac 2bbe 440c 3e3e 18b5 c93d 2267 0bbe
000002f0: 3d41 13be 38aa 05bd 30ba 8fbd 12c4 d4bd
00000300: fa52 cd3d b56c 7dbc ddca 263d f239 0a3e
00000310: 3b6a a43d 760b e23d f1ad 983d 09d7 5cbd
00000320: 6cf7 b9bc 21e2 6b3d f698 703d c843 aebd
00000330: c5b0 d33d afe8 2fbd e5c7 003e cab5 14bd
00000340: 66b3 53bd a5ba 07be 6b2c eb3c ac35 b6bd
00000350: eaa6 00bd c8f3 0f3d e19d a3bd de01 fcbd
00000360: 13be 2e3e 402d ea3c 1644 a73d 2232 9a3d
00000370: b348 623c c447 11bd 3117 6cbd 60de 62bd
00000380: 5ec2 3c3d b01e 0bbd 2301 823d 7a16 673d
00000390: b41b 313c 1de2 873d b7ac 3abc 478c 7f3d
000003a0: e24b f1bd c162 823d 277e 693c 7520 3d3d
000003b0: 6465 5a3d d2fe 533d 2eeb 14be 4d27 b5bc
000003c0: 9c87 babc df38 a53d 7a04 45bd 9c22 f4bc
000003d0: bfb9 87bb 9e90 92bd b25f 113c 38cc f0bc
000003e0: 6a49 023e ffe0 8cbd 5e47 2b3e cdf8 1ebd
000003f0: edfa c53c e05d 333e 5c55 0e3c e79a 6bbe

network_body._body_endoder.seq_layers.2.bias f4 [128]
0.0011193838 -0.0035787106 0.009216025 -0.0005548549 0.00020625771 -0.005872775 0.0068102246 0.00291131
0.0029567364 -0.0011764226 -0.00640299 -0.0013871847 0.0017075985 0.0013745376 0.003979294 0.0006283086
-0.0065497365 0.009089211 0.009764382 -0.0057421634 0.00023494824 -0.0019880128 0.0068140626 0.0012437624
0.0059204875 -0.0070325322 0.0012882524 -0.004764459 0.0029898265 0.0023310333 -0.0036376866 0.0018424543
0.0046495087 -0.0008201832 0.0044646347 0.0067977183 0.0057954993 0.013212973 0.0061621577 0.008176346
-0.006578632 0.0011398882 0.0026099656 0.0074127153 0.00014443434 -0.0030153831 0.0038045668 0.0037008245
0.0047025066 0.008124135 -0.00079373206 0.0014409057 0.0053254794 0.006318916 0.0022428508 -0.006655351
0.0009430433 0.0031568569 0.003273073 0.0062315385 0.0017307668 0.01220597 -0.0025011722 0.00033500599
0.0032871137 0.0060701375 0.012542141 -0.0005720894 0.0029006072 -0.0007073447 0.006040019 0.0030446546
0.0055471035 0.0027198568 0.0033207764 -0.0002035591 0.0012088057 0.008801829 -0.012082493 0.005826043
0.002755434 -0.0031963387 0.0043863887 -0.0020772766 -0.0027618625 0.0028913557 -0.008268779 -0.011739868
0.0026476819 -0.0021681606 -0.005799127 0.009099242 0.005536764 0.0009993103 -0.0009463067 0.002632837
0.0014898318 -0.005535906 0.0034285185 -0.0046460484 0.004764911 0.0016083523 0.0008189321 0.014059347
0.009859132 0.007402403 0.00136842 0.0058636284 -0.00984377 0.006058513 0.012280153 0.0030519837
0.0028056498 -0.0033731093 -0.0007909054 0.0033605362 0.0053215167 -0.00054216915 -0.00014846232 -0.00083986786
0.00061495503 -0.0037262898 -0.008008778 0.0012896787 0.011875146 -0.00058343465 -0.00652673 0.008206171
00000000: 4ab8 923a cd88 6abb cffe 163c af73 11ba
00000010: e246 5839 6870 c0bb 4e28 df3b adcb 3e3b
00000020: cec5 413b 3132 9aba 2cd0 d1bb 32d2 b5ba
00000030: 7fd1 df3a d429 b43a bd64 823b 14b5 243a
00000040: 2c9f d6bb eaea 143c c9fa 1f3c c228 bcbb
00000050: 705c 7639 5249 02bb 8048 df3b be05 a33a
00000060: a600 c23b 2871 e6bb 94da a83a 2e1f 9cbb
00000070: f7f0 433b 40c4 183b 4166 6ebb 827e f13a
00000080: e85a 983b 9001 57ba 124c 923b 65bf de3b
00000090: 2ce8 bd3b 3a7b 583c edeb c93b 15f6 053c
000000a0: 9191 d7bb 4d68 953a f50b 2b3b 5de6 f23b
000000b0: 4c73 1739 bc9d 45bb 0a56 793b 8889 723b
000000c0: 7c17 9a3b 181b 053c 7512 50ba c6dc bc3a
000000d0: 5c81 ae3b e90e cf3b cbfc 123b 2115 dabb
000000e0: 9136 773a 45e3 4e3b 0d81 563b ef31 cc3b
000000f0: e6da e23a 8cfb 473c b5ea 23bb bea3 af39
00000100: 9e6c 573b 01e8 c63b 8d7d 4d3c 45f8 15ba
00000110: 1d18 3e3b 196d 39ba 5aeb c53b d488 473b
00000120: 7ac4 b53b a03f 323b 62a1 593b 7b72 55b9
00000130: ca70 9e3a 8c35 103c a6f5 45bc 64e8 be3b
00000140: 8394 343b aa79 51bb b2bb 8f3b eb22 08bb
00000150: 5d00 35bb e67c 3d3b c679 07bc 9358 40bc
00000160: bb84 2d3b b317 0ebb 9a06 bebb fd14 153c
00000170: be6d b53b 4afb 823a 9111 78ba ad8b 2c3b
00000180: 7646 c33a 8c66 b5bb ffb0 603b e13d 98bb
00000190: f822 9c3b 59cf d23a 9aad 563a 2d59 663c
000001a0: 3288 213c db8f f23b 8e5c b33a ae23 c03b
000001b0: c447 21bc 7e86 c63b b232 493c ca03 483b
000001c0: fede 373b 620f 5dbb c354 4fba 713c 5c3b
000001d0: 1e60 ae3b 5b20 0eba 8dac 1bb9 942a 5cba
000001e0: ef34 213a c534 74bb 4037 03bc 700a a93a
000001f0: f98f 423c a3f1 18ba 2ede d5bb 2d73 063c

action_model._continuous_distribution.log_sigma f4 [1, 4]
0.031903345 0.09135762 0.08024082 0.097751364
00000000: 15ad 023d b419 bb3d 4d55 a43d de31 c83d

action_model._continuous_distribution.mu.weight f4 [4, 128]
0.002969658 0.069195256 0.066612594 0.08222498 0.019553874 -0.13091569 0.07815475 -0.0410386
-0.06791123 0.072375916 -0.080558516 -0.051106103 0.07425494 0.048881657 0.045206826 -0.058287226
-0.071680196 0.07736063 0.031738162 0.066546544 -0.020968948 -0.07917595 0.031373374 -0.10807328
0.09518202 -0.08778201 -0.065979205 -0.071419515 -0.113875225 0.06103066 0.08950653 0.13616781
-0.07709776 0.036265828 0.050807443 -0.10907157 -0.03644775 0.05581139 -0.005974359 -0.0027757464
-0.05133115 0.023180926 -0.07410625 -0.06731423 0.04321356 -0.058315687 -0.045326807 0.06824042
0.08016064 0.006447154 0.07800546 0.06013167 0.08026072 0.10263045 0.018653492 -0.087871455
-0.008921219 0.11309029 -0.036376894 0.086817496 -0.08354101 0.051014446 -0.11415389 -0.06383862
-0.040498644 0.067369565 -0.04940995 0.064794205 -0.075980805 0.075090654 0.064867474 0.07588327
-0.11932729 -0.031403042 0.08347303 0.09991276 -0.078533046 -0.12853768 0.0021828415 -0.09156662
0.09703229 0.086042024 -0.09917356 -0.018262083 -0.064164944 0.095933385 -0.08749071 -0.014131616
0.06606636 -0.025636967 -0.07371644 0.10404747 -0.060713526 0.11393261 -0.043222062 0.02380038
-0.01822606 0.089236125 -0.10436936 -0.05626923 0.06429225 -0.049847383 0.058229458 -0.05690139
0.009081053 -0.08461469 0.050722644 -0.088816136 -0.063917376 0.038961366 -0.07833549 0.0038859048
0.076789476 -0.074634686 -0.08002451 0.09248008 0.07481052 0.020990012 0.035702467 0.085190766
0.06459296 -0.08227668 0.0011606733 0.0945651 0.02254684 0.0652086 0.029283393 0.10054286
0.006817017 0.019664658 0.03003588 -0.0018269189 0.0018898625 -0.0013710703 0.016334739 -0.005399584
-0.011031641 -0.012942054 -0.021141652 0.012107653 0.013695879 -0.0046660057 -0.0076804995 0.0054707555
-0.023770707 -0.034850072 0.006995101 0.005446312 0.021467276 0.0024736384 -0.0053647654 0.01021907
0.0026041854 -0.003395068 0.0023153685 0.011078111 -0.00062479026 0.027916804 -0.032288503 -0.065190464
-0.015435748 -0.004861722 -0.008118711 -0.03138332 -0.03642566 0.021798853 -0.022040248 -0.017867954
-0.013333246 -0.0038499227 0.062308818 -0.009289059 0.014313381 -0.021602605 -0.01161682 -0.0300135
0.0023922776 -0.010415009 -0.023482328 -0.010188468 0.0025239487 0.031560384 0.0062847277 0.013954837
-0.052281275 0.004882115 -0.02609867 -0.0060915523 -0.013738145 0.018982818 -0.0100977365 0.029966328
-0.037368435 -0.01483874 0.011935983 -0.018457288 -0.006817932 0.007218455 -0.012970705 0.019323137
0.0071250233 -0.014998301 -0.021158803 -0.022401331 0.0009402283 -0.013670315 0.026658641 -0.03126548
-0.01045101 0.0005371926 0.013075236 -0.002762104 0.0065388763 0.00971548 0.0010543587 -0.011267495
0.012486308 0.0033417256 0.02781578 0.0073124133 -0.006301769 0.0036709916 -0.019942254 -0.013957415
0.0005804853 0.005028332 -0.0069989823 0.036339328 0.004812473 -0.025146356 0.032252148 0.0010185698
-0.0035035198 0.0030211073 0.019728562 -0.00016091118 0.000836676 -0.016190032 -0.030260224 0.02682235
-0.0017132636 -0.02553221 0.060157217 -0.0072349543 -0.014097083 0.047411673 0.03729955 0.018327564
-0.03632294 0.005133335 0.023026887 0.013675242 0.011157895 0.028145265 -0.026892353 -0.0010517942
00000000: 989e 423b 3eb6 8d3d 2f6c 883d 9265 a83d
00000010: 722f a03c c30e 06be 990f a03d 1718 28bd
00000020: 0b15 8bbd d339 943d ddfb a4bd a254 51bd
00000030: f912 983d 2238 483d cb2a 393d 96be 6ebd
00000040: 11cd 92bd 406f 9e3d e0ff 013d 8e49 883d
00000050: 12c7 abbc 0027 a2bd 5e81 003d 8655 ddbd
00000060: caee c23d 0ec7 b3bd 1b20 87bd 6544 92bd
00000070: 6a37 e9bd 49fb 793d 334f b73d 936f 0b3e
00000080: 6ee5 9dbd 7a8b 143d 771b 503d ea60 dfbd
00000090: 3c4a 15bd 7c9a 643d 8ec4 c3bb 4ce9 35bb
000000a0: 9d40 52bd ede5 bd3c 05c5 97bd 0bdc 89bd
000000b0: b400 313d 6edc 6ebd 9aa8 39bd a2c1 8b3d
000000c0: 432b a43d a642 d33b 54c1 9f3d a04c 763d
000000d0: bb5f a43d ea2f d23d 35cf 983c f3f5 b3bd
000000e0: 4e2a 12bc e29b e73d f0ff 14bd 5fcd b13d
000000f0: 8d17 abbd 86f4 503d 84c9 e9bd d3bd 82bd
00000100: e8e1 25bd 0ef9 893d 1662 4abd d3b2 843d
00000110: d39b 9bbd 21c9 993d 3dd9 843d b068 9b3d
00000120: de61 f4bd 7aa0 00bd e8f3 aa3d 109f cc3d
00000130: efd5 a0bd 629f 03be 010e 0f3b 4887 bbbd
00000140: deb8 c63d cd36 b03d 821b cbbd 5d9a 95bc
00000150: e968 83bd b978 c43d 542e b3bd 4b88 67bc
00000160: cd4d 873d 9e04 d2bc a5f8 96bd d716 d53d
00000170: bfae 78bd 8055 e93d 9e09 31bd 04f9 c23c
00000180: d14e 95bc 6ec1 b63d 9abf d5bd 907a 66bd
00000190: a8ab 833d c52c 4cbd 0382 6e3d 6f11 69bd
000001a0: b2c8 143c 774a adbd 8cc2 4f3d 3ce5 b5bd
000001b0: 1de7 82bd f495 1f3d 5b6e a0bd aaaa 7e3b
000001c0: cd43 9d3d 12da 98bd e4e3 a3bd 3266 bd3d
000001d0: 4236 993d 3ff3 ab3c c03c 123d 7f78 ae3d
000001e0: 5049 843d ad80 a8bd bc21 983a 59ab c13d
000001f0: 27b4 b83c 168c 853d bae3 ef3c 6ae9 cd3d
00000200: 4961 df3b c717 a13c ce0d f63c 3a75 efba
00000210: 43b5 f73a 7cb5 b3ba 6ed0 853c feee b0bb
00000220: 0ebe 34bc e90a 54bc 4231 adbc 2d5f 463c
00000230: ae64 603c 4be5 98bb b3ac fbbb 0644 b33b
00000240: c9ba c2bc f3be 0ebd 2937 e53b fa76 b23b
00000250: 24dc af3c c41c 223b eaca afbb e36d 273c
00000260: fbaa 2a3b ca7f 5ebb 70bd 173b f780 353c
00000270: f7c8 23ba c8b1 e43c f340 04bd 9482 85bd
00000280: 38e6 7cbc 144f 9fbb 5804 05bc cc8b 00bd
00000290: 1333 15bd 8293 b23c c08d b4bc d15f 92bc
000002a0: b073 5abc fc4e 7cbb 8837 7f3d 2331 18bc
000002b0: ac82 6a3c f2f7 b0bc 7954 3ebc dfde f5bc
000002c0: c2c7 1c3b b7a3 2abc 035e c0bc 88ed 26bc
000002d0: d568 253b 7645 013d 1ef0 cd3b d4a2 643c
000002e0: e424 56bd 26fa 9f3b e1cc d5bc a59b c7bb
000002f0: f515 61bc db81 9b3c fa70 25bc f27b f53c
00000300: a50f 19bd 301e 73bc 248f 433c bd33 97bc
00000310: f568 dfbb ca88 ec3b 1483 54bc 8e4b 9e3c
00000320: 0779 e93b 6fbb 75bc 3a55 adbc ff82 b7bc
00000330: a779 763a 75f9 5fbc 3963 da3c 3b10 00bd
00000340: b73a 2bbc 63d2 0c3a 8439 563c 6a04 35bb
00000350: 1244 d63b ad2d 1f3c 6832 8a3a 4d9b 38bc
00000360: 5f93 4c3c da00 5b3b ebdd e33c f89c ef3b
00000370: 127f cebb 0595 703b f05d a3bc a4ad 64bc
00000380: b62b 183a b5c4 a43b b857 e5bb 8cd8 143d
00000390: f3b1 9d3b bbff cdbc d41a 043d 8881 853a
000003a0: 4f9b 65bb c5fd 453b cb9d a13c 44ba 28b9
000003b0: 6054 5b3a f5a0 84bc 4ae4 f7bc 8cba db3c
000003c0: 968f e0ba ed28 d1bc 6a67 763d 3213 edbb
000003d0: 74f7 66bc be32 423d 6ac7 183d b023 963c
000003e0: 5dc7 14bd 8935 a83b e2a2 bc3c 1f0e 603c
000003f0: 9bcf 363c e690 e63c 5a4d dcbc 5bdc 89ba

action_model._continuous_distribution.mu.bias f4 [4]
0.055879053 0.0029941255 0.0039890492 0.011785967
00000000: 6fe1 643d 1739 443b 92b6 823b ee19 413c

onnx::LSTM_104 f4 [1, 512, 128]
-0.12924755 0.15614188 -0.09885185 -0.042837035 -0.007876317 0.118988074 -0.1193356 0.12620342
-0.11059156 -0.07637681 -0.09448019 -0.043393306 0.005787062 0.062272936 -0.107033245 0.04213143
0.055730805 -0.008581375 -0.11521222 -0.13803628 0.04854585 0.03481978 -0.13340905 0.11964075
-0.003232259 -0.12293877 0.020687763 0.11901117 0.095785685 0.1250904 0.09009397 -0.10868731
0.09244639 0.14630672 0.10412052 0.009420659 0.0755155 0.0990762 -0.049562927 0.018636204
0.11747427 0.13432772 0.0974674 -0.098797224 0.0062261852 0.10594548 -0.096855275 -0.15530904
0.07312212 0.01101492 -0.14048421 -0.016038027 -0.13527685 0.082320936 0.054374952 0.0277023
-0.088916995 0.047607657 0.014123675 0.06718668 0.11785257 0.047664788 -0.0017537348 -0.11371453
0.056225512 0.11030526 -0.09756343 0.11903107 0.052692093 0.02094773 0.062230114 0.04832752
-0.039559316 -0.137543 0.051301043 -0.13497293 0.046450432 0.11784247 -0.081969365 -0.044362027
-0.09684715 0.11130615 0.11888398 -0.09826587 -0.15545154 -0.13614151 -0.0067271227 -0.14614478
0.15333924 0.07943819 -0.15314883 0.11453421 -0.01061994 -0.053763375 0.0032813272 0.08035276
-0.06738883 0.027236013 0.04703301 -0.101677224 0.0015184925 -0.12930602 0.09454074 -0.009146019
-0.06275381 -0.0013402972 0.08822338 -0.10331647 -0.12510972 -0.13616006 -0.05160188 -0.049053796
0.14838886 -0.009665114 0.103127226 -0.14167821 0.02940171 -0.022483585 0.05205186 -0.0844103
-0.107822604 0.13029496 0.12518124 -0.056723855 0.010062039 -0.14895298 -0.044485748 0.037138216
0.027700093 0.13762249 0.034423675 -0.12342123 0.16181688 0.018611984 0.08316664 -0.06781789
-0.09398276 -0.121012375 0.020473735 0.054292735 -0.05776938 0.1598129 0.026159288 -0.1278917
0.0035837472 -0.109649904 -0.14304504 -0.16187361 -0.12726736 0.010359072 -0.16277249 0.048152756
-0.028874973 0.16002351 -0.041279048 -0.16912724 -0.06864837 -0.0021486923 0.0005126205 0.04520083
-0.031994525 -0.0627126 0.10174041 -0.08521852 0.1015979 -0.105894454 -0.013453787 0.07880718
0.079601236 0.06712422 0.119094536 -0.11635468 -0.02379645 -0.020001581 0.09755906 0.07051162
-0.12276036 -0.075971924 0.06340723 -0.0996425 -0.09370975 -0.012990266 0.084635116 -0.14530988
0.12721089 0.13929069 -0.13174033 0.019610662 -0.06441149 0.053127035 0.09760333 0.10060252
-0.07394055 0.11693712 -0.07599399 0.1357492 0.10158698 0.12983643 0.09568001 0.11499121
0.029429859 0.0008134282 0.046784572 -0.09810896 0.111852825 0.07843196 0.06081743 0.092519425
-0.042008467 -0.03652443 -0.0065260623 0.026860476 0.14417022 0.08310494 0.013608446 -0.15201621
0.035409357 -0.1305969 0.1531462 -0.09271167 -0.12966672 0.029207382 -0.15460938 0.123954155
0.045070652 0.026227286 -0.11525221 0.01352771 0.06344339 0.12947203 -0.15766536 0.12523992
0.03518893 0.020612346 0.023466304 0.0635052 -0.07605092 0.001015835 -0.08100408 -0.065896966
-0.027568797 0.096933976 -0.07380882 0.12665264 0.094506726 -0.032004334 -0.059693903 -0.13673058
0.124999836 -0.13933808 0.13654295 -0.037720334 -0.058512818 -0.1287564 0.13401388 0.056355957
00000000: 7859 04be a8e3 1f3e d772 cabd e375 2fbd
00000010: ab0b 01bc 05b0 f33d 3966 f4bd 783b 013e
00000020: d47d e2bd 726b 9cbd d47e c1bd 2ebd 31bd
00000030: 65a1 bd3b e811 7f3d 3f34 dbbd 0292 2c3d
00000040: fc45 643d e598 0cbc 62f4 ebbd 6259 0dbe
00000050: 03d8 463d 309f 0e3d 629c 08be 3606 f53d
00000060: 4fd4 53bb 52c7 fbbd 6279 a93c 21bc f33d
00000070: 492b c43d b317 003e 3083 b83d 7497 debd
00000080: 8854 bd3d 6ed1 153e 243d d53d 1c59 1a3c
00000090: dfa7 9a3d 76e8 ca3d 7f02 4bbd f4aa 983c
000000a0: 5a96 f03d 358d 093e fd9c c73d 3356 cabd
000000b0: 0705 cc3b f2f9 d83d 0f5c c6bd 5509 1fbe
000000c0: 0dc1 953d ec77 343c 18db 0fbe 2e62 83bc
000000d0: 0486 0abe e197 a83d 45b8 5e3d efef e23c
000000e0: 1d1a b6bd 3f00 433d fd66 673c 2c99 893d
000000f0: b05c f13d 273c 433d 93dd e5ba 2ae3 e8bd
00000100: b94c 663d b9e7 e13d 56cf c7bd 90c6 f33d
00000110: aad3 573d 939a ab3c 01e5 7e3d 14f3 453d
00000120: f308 22bd 12d8 0cbe 0b21 523d 5836 0abe
00000130: cf42 3e3d 6557 f13d 8edf a7bd f5b4 35bd
00000140: cc57 c6bd 7bf4 e33d 7279 f33d 9e3f c9bd
00000150: b02e 1fbe ae68 0bbe 326f dcbb faa6 15be
00000160: f604 1d3e 7db0 a23d 0cd3 1cbe e990 ea3d
00000170: 42ff 2dbc fc36 5cbd 890b 573b fd8f a43d
00000180: 2803 8abd 0f1e df3c afa5 403d 263c d0bd
00000190: 2708 c73a cc68 04be 939e c13d 2fd9 15bc
000001a0: 1285 80bd e9ac afba 76ae b43d 9697 d3bd
000001b0: c31c 00be 8b6d 0bbe 7e5c 53bd a2ec 48bd
000001c0: 40f3 173e 6d5a 1ebc 5e34 d33d 1814 11be
000001d0: dbdb f03c 7f2f b8bc 5534 553d 4fdf acbd
000001e0: 19d2 dcbd 0b6c 053e 832f 003e 4657 68bd
000001f0: 40db 243c 2187 18be b036 36bd 3e1e 183d
00000200: 4eeb e23c e9ec 0c3e d7ff 0c3d 45c4 fcbd
00000210: 53b3 253e 2978 983c 4553 aa3d 1be4 8abd
00000220: 097a c0bd 56d5 f7bd 89b8 a73c 0f62 5e3d
00000230: 969f 6cbd fea5 233e 014c d63c 0bf6 02be
00000240: 4ddd 6a3b 2190 e0bd 667a 12be 32c2 25be
00000250: 6052 02be 19b9 293c d5ad 26be d33b 453d
00000260: 358b ecbc 34dd 233e 3814 29bd b12f 2dbe
00000270: 8497 8cbd 13d1 0cbb 6161 063a 8124 393d
00000280: b10c 03bd 776f 80bd 475d d03d 0c87 aebd
00000290: 8f12 d03d 31df d8bd 466d 5cbc a965 a13d
000002a0: f905 a33d 6c78 893d d6e7 f33d 5d4b eebd
000002b0: c6f0 c2bc 5bda a3bc 0bcd c73d 6568 903d
000002c0: c969 fbbd 2b97 9bbd a6db 813d 5e11 ccbd
000002d0: e6ea bfbd 20d5 54bc 2d55 ad3d 1dcc 14be
000002e0: 9243 023e 38a2 0e3e f0e6 06be 8aa6 a03c
000002f0: 2cea 83bd bc9b 593d 41e4 c73d b208 ce3d
00000300: 256e 97bd bb7c ef3d bda2 9bbd d701 0b3e
00000310: d60c d03d d7f3 043e e2f3 c33d 8380 eb3d
00000320: e316 f13c 3e3c 553a 2ea1 3f3d 5aed c8bd
00000330: 1813 e53d efa0 a03d b31b 793d d37a bd3d
00000340: 1211 2cbd a49a 15bd 94d8 d5bb 800a dc3c
00000350: 5ca1 133e ec32 aa3d f6f5 5e3c 23aa 1bbe
00000360: 6709 113d 32bb 05be 5cd2 1c3e 9edf bdbd
00000370: 5ac7 04be 5244 ef3c ec51 1ebe addb fd3d
00000380: 019c 383d 9bda d63c 5a09 ecbd 54a3 5d3c
00000390: 9cee 813d 5194 043e 0773 21be e53e 003e
000003a0: 4422 103d 39db a83c 683c c03c 040f 823d
000003b0: 96c0 9bbd c425 853a 78e5 a5bd fdf4 86bd
000003c0: f5d7 e1bc 5285 c63d 1429 97bd 3bb1 013e
000003d0: be8c c13d fa16 03bd 9881 74bd 1a03 0cbe
000003e0: eaff ff3d a4ae 0ebe ead1 0b3e a380 1abd
000003f0: 23ab 6fbd b8d8 03be ef3a 093e 81d5 663d

onnx::LSTM_105 f4 [1, 512, 128]
-0.010165009 -0.06997129 0.011683176 0.14976567 0.13220863 -0.03488533 -0.09218201 -0.13084587
-0.11134611 0.05329213 -0.055691835 -0.059038322 -0.12064776 -0.08311681 0.05982284 0.13028921
0.09921683 0.14807186 0.082514726 0.03488222 0.09736619 -0.10342435 -0.006271401 0.14794646
0.012324854 -0.14055394 0.020894248 -0.041661445 0.04214671 -0.030069385 -0.15181279 0.1441547
-0.11574249 0.009242463 0.13013469 -0.058759958 0.09766302 -0.040459886 -0.06744935 0.11057155
0.051060334 -0.12933913 0.07234197 0.0622525 0.059463844 -0.059058916 -0.12245946 -0.026660554
0.037759915 -0.117714524 0.0015724344 -0.06373725 -0.030153403 -0.15262854 -0.102028385 0.04046303
-0.023450654 0.0014843981 0.04400761 -0.14556247 -0.040293638 -0.060364183 0.019126182 0.13010406
0.02552839 -0.14982498 -0.07758198 -0.0578238 -0.019749617 -0.012660795 0.10325642 -0.05028068
0.13240604 -0.04220968 -0.08784579 0.014014115 -0.06500456 0.007579157 0.06443937 0.07510663
-0.0036256537 0.11885008 -0.061756387 -0.12209119 0.15398823 -0.10920184 -0.09041708 0.14238952
0.08352219 0.060278863 0.04110233 0.018986383 0.07092599 0.13448223 0.11762637 -0.027334388
-0.039437104 -0.018979875 0.030947432 0.13340083 0.09076445 0.074278764 -0.103790514 -0.107407086
-0.04809216 0.033474408 0.05886038 0.05531705 -0.08845527 -0.055353582 0.010884482 0.06584748
0.13416167 0.091011696 -0.05223815 0.02467991 0.036036238 -0.0060479394 0.13516869 0.096372746
0.08810778 -0.023209078 -0.083253995 -0.093717024 -0.12183528 -0.04694195 -0.049113106 0.056475557
0.05231267 -0.05476531 -0.1493223 -0.04692263 0.112207085 -0.084436595 -0.0568238 0.01613903
0.062025808 -0.027366305 0.11199898 0.044854123 -0.007808142 0.09333075 -0.036104992 -0.032821245
-0.0907107 -0.10276618 -0.04583388 -0.047934394 -0.12737608 -0.015961463 -0.034139287 -0.011444348
0.0021065152 -0.1199171 -0.0051056384 -0.106868416 -0.040664364 0.00402865 0.04305731 0.0379156
0.010417481 -0.013167216 -0.054263767 0.0031670607 -0.091714606 -0.13155821 0.059889514 0.14697249
0.02808813 -0.094718456 -0.03891571 -0.09058589 -0.14381383 -0.11432417 -0.013708382 0.08918749
-0.009471354 -0.01631895 -0.004438513 0.06399453 -0.07583887 -0.12960173 -0.14362507 -0.036862455
-0.004358217 -0.03915813 -0.006741538 -0.0155949695 -0.087594375 -0.06723231 0.10064208 0.14748172
0.05797774 0.092882484 0.11528911 -0.0010063794 0.021215646 -0.059689753 -0.03983595 -0.06573977
-0.081683874 -0.10831119 0.0968181 -0.12906368 0.08523553 0.053741094 0.028382516 -0.029073726
-0.056156028 0.033456616 0.026983706 0.075357094 -0.034970764 0.0098543735 -0.025736783 0.049554434
0.14867815 0.048261568 0.05517371 -0.034837313 -0.11427329 -0.03633453 0.07932958 0.06879147
0.10304091 -0.03471493 -0.11591492 0.0828342 0.091648854 0.08906326 -0.043533992 -0.046474714
0.0708078 0.016857611 0.15248843 -0.018115288 0.01685944 0.06375733 -0.096863575 -0.11448784
0.13428622 0.045738358 0.071133226 0.052653562 0.1627004 -0.11749188 0.11786075 -0.13419504
0.14573167 -0.10768412 0.1114014 -0.08433801 -0.08109468 -0.011951271 0.045925062 0.10070568
00000000: 238b 26bc 1c4d 8fbd cb6a 3f3c 2c5c 193e
00000010: b361 073e ebe3 0ebd ecc9 bcbd 76fc 05be
00000020: 6e09 e4bd d948 5a3d 1f1d 64bd 2bd2 71bd
00000030: 2c16 f7bd 2539 aabd cb08 753d 896a 053e
00000040: 3232 cb3d 26a0 173e 7bfd a83d a9e0 0e3d
00000050: ed67 c73d 25d0 d3bd 5380 cdbb 477f 173e
00000060: 2fee 493c 5fed 0fbe 6a2a ab3c 31a5 2abd
00000070: 07a2 2c3d 1254 f6bc d074 1bbe 4a9d 133e
00000080: 660a edbd b36d 173c 0742 053e 48ae 70bd
00000090: 8d03 c83d 44b9 25bd e322 8abd 5673 e23d
000000a0: a424 513d 7a71 04be 0728 943d 7afc 7e3d
000000b0: 5c90 733d c3e7 71bd 06cc fabd 3c67 dabc
000000c0: 24aa 1a3d 5014 f1bd 251a ce3a ad88 82bd
000000d0: 4504 f7bc a84a 1cbe 42f4 d0bd 90bc 253d
000000e0: 961b c0bc 2390 c23a 5341 343d 540e 15be
000000f0: f10a 25bd 6f40 77bd 83ae 9c3c 003a 053e
00000100: ea20 d13c b86b 19be 4de3 9ebd a6d8 6cbd
00000110: f3c9 a1bc 396f 4fbc 1a78 d33d 1df3 4dbd
00000120: 7395 073e 0fe4 2cbd 7ee8 b3bd 759b 653c
00000130: 1c21 85bd 945a f83b caf8 833d 81d1 993d
00000140: 609c 6dbb ac67 f33d 44f4 7cbd f20a fabd
00000150: 17af 1d3e 37a5 dfbd 972c b9bd 8fce 113e
00000160: af0d ab3d f8e6 763d eb5a 283d 5589 9b3c
00000170: a541 913d b6b5 093e 18e6 f03d 5eec dfbc
00000180: cd88 21bd af7b 9bbc 7885 fd3c 3a9a 083e
00000190: b6e2 b93d 771f 983d 1f90 d4bd 3ff8 dbbd
000001a0: 49fc 44bd 761c 093d 9517 713d 2294 623d
000001b0: 0928 b5bd 70ba 62bd d454 323c 0bdb 863d
000001c0: ad61 093e 5764 ba3d acf7 55bd 862d ca3c
000001d0: bc9a 133d cb2d c6bb a969 0a3e 135f c53d
000001e0: da71 b43d f720 bebc 1281 aabd b6ee bfbd
000001f0: c684 f9bd 3446 40bd d32a 49bd ea52 673d
00000200: cf45 563d 9751 60bd f2e7 18be f231 40bd
00000210: d4cc e53d 18ed acbd 13c0 68bd 0036 843c
00000220: c60e 7e3d 4d2f e0bc b95f e53d f5b8 373d
00000230: 71db ffbb 3124 bf3d d4e2 13bd 926f 06bd
00000240: 88c6 b9bd 1377 d2bd 4ebc 3bbd db56 44bd
00000250: e06e 02be 9dc1 82bc a3d5 0bbd 1381 3bbc
00000260: 760d 0a3b 1997 f5bd 334d a7bb d4dd dabd
00000270: ad8f 26bd c402 843b dd5c 303d 634d 1b3d
00000280: 15ae 2a3c 4fbb 57bc af43 5ebd 768e 4f3b
00000290: ded4 bbbd 32b7 06be b54e 753d f57f 163e
000002a0: 1419 e63c c0fb c1bd 1466 1fbd 1885 b9bd
000002b0: ef43 13be ca22 eabd 1f99 60bc eea7 b63d
000002c0: bd2d 1bbc 52af 85bc f270 91bb 900f 833d
000002d0: 6951 9bbd 51b6 04be 7312 13be 16fd 16bd
000002e0: 60cf 8ebb 4664 20bd 1fe8 dcbb 0b82 7fbc
000002f0: ae64 b3bd 18b1 89bd 6f1d ce3d 7305 173e
00000300: 117a 6d3d 2c39 be3d b21c ec3d 7de8 83ba
00000310: 6fcc ad3c 3e7d 74bd 052b 23bd 93a2 86bd
00000320: e049 a7bd 42d2 ddbd 9148 c63d 4529 04be
00000330: f78f ae3d 9f1f 5c3d 7382 e83c 062c eebc
00000340: dd03 66bd ce09 093d ef0c dd3c d254 9a3d
00000350: 813d 0fbd 3d74 213c f2d5 d2bc 97f9 4a3d
00000360: 163f 183e ecad 453d d4fd 613d 92b1 0ebd
00000370: 1d08 eabd 84d3 14bd 8c77 a23d 8be2 8c3d
00000380: 1d07 d33d 3e31 0ebd cd64 edbd faa4 a93d
00000390: 65b2 bb3d cc66 b63d b350 32bd 455c 3ebd
000003a0: ae03 913d f918 8a3c ed25 1c3e 8366 94bc
000003b0: cf1c 8a3c 3493 823d 6960 c6bd 9a78 eabd
000003c0: 5482 093e 2558 3b3d 4cae 913d 43ab 573d
000003d0: ef9a 263e 959f f0bd fa60 f13d 6d6a 09be
000003e0: af3a 153e 7e89 dcbd 6b26 e43d 68b9 acbd
000003f0: f814 a6bd 44cf 43bc eb1b 3c3d c83e ce3d

onnx::LSTM_106 f4 [1, 1024]
0.007872032 -0.007464649 0.01489239 -0.004377714 0.015920796 0.01835828 -0.007875929 0.012657902
0.009530862 -0.0057214503 -0.0024212233 0.013396464 -0.012057246 0.008398933 0.0008812726 -0.00020082925
0.0033534206 -0.0067020715 -0.0044749836 -0.008713419 0.017076636 0.007778501 0.0142925 0.0057652015
0.008838618 0.007637111 -0.0013467098 0.011774086 0.030242788 0.0056536687 -0.0024333436 0.006583244
-0.0041401717 0.016716983 0.016241513 0.0056583877 0.0005315206 0.015323921 0.008577403 0.0018613321
0.0148833515 0.00084190065 0.005703029 0.008551215 0.00480224 0.0016928586 -0.0008298609 0.004491011
-0.004843075 0.0056900093 0.011490478 -0.006047846 0.006342976 0.0071161324 -0.007221964 0.0013492552
0.011741596 0.00056923897 0.0002477473 0.009157105 -0.010366448 -0.008258747 0.00031611737 0.011628648
0.011750231 0.0031770729 0.026130814 0.018460495 -0.0039714333 0.005352426 0.010144181 0.012983467
0.0063728346 0.002060663 0.0015496854 0.009439609 0.002423932 0.005183888 0.0072309244 -0.006812629
0.013107245 0.012036022 0.01762585 -0.001652865 0.013019314 0.0062818085 0.012174831 -0.0037862759
0.0048630727 0.002123635 0.0042759017 -0.0065101273 0.0051955967 -0.0006010487 -0.0056222733 -0.0031075857
0.0074224775 -0.012868346 0.0010046669 -0.0038991661 0.01659301 0.00711156 -0.001940854 -0.0010418219
0.0056987447 0.0019925246 -0.0020322101 -0.0026533531 -0.009060583 -0.0021251915 -0.006537252 0.0074855904
-0.0060653696 0.0040832222 0.020775294 -0.009484909 0.015671365 -0.0050644698 0.01760079 -0.005623259
0.0045250016 0.006252838 0.004950814 -0.005241204 0.015079076 0.011590458 0.0034713442 -0.009961347
0.0022348051 0.015350789 0.024006676 0.004888013 0.010215334 0.030542316 0.019872801 0.018497711
0.023628637 0.02061893 0.02197037 0.025539387 0.025189212 0.018463295 -0.0032721385 0.014185176
0.0055909255 0.02627131 0.0070454082 0.028625043 0.013263348 0.01788894 0.01700962 0.020939795
0.020884518 0.027342211 0.020602303 0.028284006 0.03284236 0.012576722 0.021117194 0.02355338
0.020508826 0.010793562 0.034854975 0.017313657 0.015858755 0.025170606 -0.016557096 0.0106705455
0.015189489 0.010873381 0.011306526 0.0038105063 0.008717825 0.011562737 0.0075000394 0.027632222
-0.0063667805 0.00027615143 0.012677039 0.0036141367 0.018572014 0.02434796 0.0066466653 0.034233693
0.009303078 0.03393145 0.026714435 0.0136077935 0.0153756775 0.010037215 0.0071481057 0.00052909326
0.021183012 0.00057234627 0.021411538 0.029073704 0.0139755495 0.014448514 0.0229248 0.016790906
0.02801693 0.00224876 0.0112014 0.021570029 0.021371702 0.028524887 -0.0022835515 0.019123985
0.027913557 0.018380752 0.034922007 -0.0039122216 0.012545535 0.012564572 0.03996275 0.011358912
0.01369704 0.004371027 0.01644232 0.006420934 0.016689874 0.02534443 0.0094819 -0.0029264055
0.010777303 0.012288772 0.017979039 0.0064460174 0.013100825 0.008044143 0.019740323 -0.0029707088
0.0027006278 0.009081707 0.013037779 0.025227468 0.0039856755 0.008669893 0.009659796 -0.005099477
0.0039374484 0.014199313 0.025535256 0.021011584 0.029194528 0.00959142 0.007214025 0.02396729
0.00091456715 0.019294858 0.011686603 0.018592263 0.0017106261 0.011397984 0.016483324 0.010079945
00000000: b2f9 003c 049a f4bb 36ff 733c ed72 8fbb
00000010: 546c 823c 1b64 963c 0a0a 01bc 1763 4f3c
00000020: 5527 1c3c 017b bbbb 63ad 1ebb d87c 5b3c
00000030: c18b 45bc ae9b 093c 3405 673a b195 52b9
00000040: 10c5 5b3b 0d9d dbbb e2a2 92bb bac2 0ebc
00000050: 4de4 8b3c cce2 fe3b 172b 6a3c 04ea bc3b
00000060: dacf 103c bb40 fa3b 1584 b0ba 19e8 403c
00000070: b9bf f73c 6942 b93b bb78 1fbb 41b8 d73b
00000080: 47aa 87bb 0ef2 883c ec0c 853c ff69 b93b
00000090: be55 0b3a 2f11 7b3c 3c88 0c3c f1f7 f33a
000000a0: 4dd9 733c ffb2 5c3a 7ae0 ba3b 651a 0c3c
000000b0: 1c5c 9d3b e9e2 dd3a 068b 59ba 5529 933b
000000c0: a8b2 9ebb 4273 ba3b 8f42 3c3c 022d c6bb
000000d0: bdd8 cf3b 722e e93b 3aa6 ecbb 7ed9 b03a
000000e0: d35f 403c fb38 153a 14e4 8139 af07 163c
000000f0: 09d8 29bc b24f 07bc 8ebc a539 1686 3e3c
00000100: 0a84 403c 7036 503b 4a10 d63c 773a 973c
00000110: cc22 82bb 6763 af3b c733 263c 9cb8 543c
00000120: 36d3 d03b 300c 073b d01e cb3a 97a8 1a3c
00000130: d5da 1e3b 9bdd a93b 64f1 ec3b 793c dfbb
00000140: c5bf 563c bc32 453c 1664 903c f2a4 d8ba
00000150: f64e 553c a1d7 cd3b f178 473c 2b23 78bb
00000160: 695a 9f3b af2c 0b3b dd1c 8c3b e852 d5bb
00000170: d33f aa3b b28f 1dba 0c3b b8bb a3a8 4bbb
00000180: 4138 f33b c1d5 52bc 07af 833a 2789 7fbb
00000190: 10ee 873c 1708 e93b 4164 feba be8d 88ba
000001a0: 89bc ba3b 0495 023b d42e 05bb e1e3 2dbb
000001b0: d772 14bc cc46 0bbb 7236 d6bb af49 f53b
000001c0: 02c0 c6bb 8dcc 853b f330 aa3c 9766 1bbc
000001d0: 3c61 803c daf3 a5bb 882f 903c 5143 b8bb
000001e0: 7746 943b 9be4 cc3b 703a a23b 68be abbb
000001f0: 3b0e 773c e8e5 3d3c 7e7f 633b eb34 23bc
00000200: cf75 123b e081 7b3c a6a9 c43c a02b a03b
00000210: 375e 273c e133 fa3c 49cc a23c 8388 973c
00000220: d890 c13c 08e9 a83c 35fb b33c fa37 d13c
00000230: 9b59 ce3c 5640 973c 6071 56bb f168 683c
00000240: 1534 b73b ee36 d73c 2bdd e63b 117f ea3c
00000250: 834e 593c d48b 923c c257 8b3c ef89 ab3c
00000260: 0216 ab3c c6fc df3c 29c6 a83c dcb3 e73c
00000270: b685 063d 980e 4e3c f7fd ac3c 05f3 c03c
00000280: 2002 a83c 7bd7 303c 17c4 0e3d 5fd5 8d3c
00000290: 38ea 813c 9632 ce3c bfa2 87bc 83d3 2e3c
000002a0: 56dd 783c 4426 323c 023f 393c b0b9 793b
000002b0: 35d5 0e3c a271 3d3c e4c2 f53b f85c e23c
000002c0: 6da0 d0bb 6bc8 9039 5bb3 4f3c 27db 6c3b
000002d0: 5624 983c 5f75 c73c 45cc d93b a138 0c3d
000002e0: f06b 183c b4fb 0a3d 3bd8 da3c 39f3 5e3c
000002f0: 44ea 7b3c 2273 243c a83a ea3b d9b2 0a3a
00000300: ff87 ad3c 8209 163a 4067 af3c fa2b ee3c
00000310: b4f9 643c 76b9 6c3c cacc bb3c 158d 893c
00000320: c383 e53c ef5f 133b 1486 373c a1b3 b03c
00000330: b513 af3c 06ad e93c a3a7 15bb e7a9 9c3c
00000340: f9aa e43c 3b93 963c 610a 0f3d 1832 80bb
00000350: ca8b 4d3c a2db 4d3c fbaf 233d bb1a 3a3c
00000360: 8d69 603c d53a 8f3b 0bb2 863c b366 d23b
00000370: 34b9 883c 1f9f cf3c f959 1b3c f0c8 3fbb
00000380: 4993 303c d856 493c c748 933c 1d39 d33b
00000390: d8a4 563c 95cb 033c 75b6 a13c 39b0 42bb
000003a0: 04fd 303b 71cb 143c 699c 553c d6a9 ce3c
000003b0: 459a 823b 2b0c 0e3c 1f44 1e3c 8319 a7bb
000003c0: b605 813b 3ca4 683c 502f d13c 7c20 ac3c
000003d0: 5d29 ef3c 5525 1d3c a163 ec3b 0d57 c43c
000003e0: 90bf 6f3a 4010 9e3c 2a79 3f3c cd4e 983c
000003f0: 1637 e03a 9cbe 3a3c 0908 873c 5b26 253c
