results/DroneAgentBigTrack7/DroneAgent/DroneAgent-4399982.onnx (onnx, 755437 bytes, 10 tensors)

network_body._body_endoder.seq_layers.0.weight f4 [128, 296]
0	0x3db79ae4	0.0896509
1	0x3d2a0c01	0.041515354
2	0xbdd29861	-0.1028297
3	0x3d914448	0.07093102
4	0x3c1740cb	0.009231756
5	0xbdcf44f5	-0.101205744
6	0x3c043da3	0.008071336
7	0x3d6ce5f0	0.057836473
8	0x3dd65efb	0.10467335
9	0x3da1f249	0.0790754
10	0x3da37811	0.07981885
11	0x3d278d85	0.040906448
12	0x3d6f7523	0.05846132
13	0x3dc5a261	0.09650112
14	0x3b8c352e	0.0042788005
15	0x3d3b21f7	0.04568669
16	0xbe2459df	-0.16049908
17	0x3dd1b87d	0.102402665
18	0x3c9be084	0.019027956
19	0xbd6fe43f	-0.05856728
20	0x3ba37b8a	0.0049890922
21	0x3d43e600	0.047826767
22	0xbdd33e0b	-0.10314568
23	0xbda9ef18	-0.08297557
24	0x3db5f6bc	0.088849515
25	0xbd887b22	-0.06664111
26	0xbd947387	-0.072485976
27	0xbd1b5ae2	-0.03792847
28	0x3d1a73c8	0.037708074
29	0x3d0e54fb	0.034749012
30	0x3bc10adf	0.0058911885
31	0x3d425172	0.047440954
32	0x3cabd58f	0.020975856
33	0xbcef4b04	-0.029210575
34	0x3cf49835	0.029857734
35	0xbc30b47c	-0.010785218
36	0x3c9a6fb9	0.018852102
37	0x3d952b11	0.07283605
38	0x3cfc26f3	0.030780291
39	0x3d23527f	0.039873596
40	0xbd911fcc	-0.07086143
41	0x3cb55d8d	0.022139335
42	0x3e0712ac	0.13190717
43	0xbd83fbec	-0.06444535
44	0xbaac092d	-0.0013125293
45	0xbcfa5823	-0.030559605
46	0xbd1eaa20	-0.038736463
47	0xbc892910	-0.016743213
48	0xbceb2551	-0.028704317
49	0xbc98031b	-0.018556168
50	0x3d2a980f	0.04164892
51	0xbc718d11	-0.0147431055
52	0x3bec8bb4	0.0072188023
53	0xbcdb893d	-0.026798839
54	0x3de78716	0.113050625
55	0xbbb872a7	-0.005628902
56	0x3d22ff67	0.039794352
57	0xbd796ed9	-0.06089673
58	0x3d580c9d	0.052746404
59	0xbb30c617	-0.002697354
60	0xbdc13fd9	-0.09436006
61	0x3d9b3caa	0.0757993
62	0x3cf2d5f7	0.029643042
63	0xbc80d0a4	-0.015724488
64	0xbd0575ae	-0.03258293
65	0x3cec981a	0.028881121
66	0x3d8c1226	0.06839399
67	0xbd06196b	-0.032739084
68	0xbd66d75e	-0.056357734
69	0x3d83c264	0.064335614
70	0xbb6b227a	-0.0035878704
71	0x3d17e084	0.03707935
72	0xbc621fe3	-0.013801548
73	0xbcef5639	-0.029215919
74	0x3c926d5b	0.01787441
75	0xbd1b7652	-0.037954636
76	0x3da0659f	0.07831883
77	0x3d1fb7af	0.038993534
78	0x3d1a048f	0.037602004
79	0xbc283332	-0.010266112
80	0xbd97afce	-0.07406579
81	0xbc01e1bf	-0.007927357
82	0x3c31f000	0.010860443
83	0xbcd44b29	-0.025914745
84	0xbc48aca4	-0.012248192
85	0x3cd1bc9d	0.025602633
86	0x3d08c512	0.033391066
87	0xbe0863ee	-0.1331937
88	0xbc654feb	-0.013996105
89	0xbdc6d6d3	-0.09708943
90	0xbd4b2162	-0.049592383
91	0x3cae239a	0.02125721
92	0x3c644fa6	0.013935005
93	0xbc21c341	-0.009873212
94	0xbd8131d7	-0.06308334
95	0x3d3e21dd	0.046419013
96	0x3d09a875	0.03360792
97	0x3e09812c	0.13428181
98	0xbc187d6a	-0.009307245
99	0x3d0d1b74	0.03445001
100	0xbc3aa82e	-0.011392636
101	0xbde32388	-0.110907614
102	0xbdd4d503	-0.10392191
103	0x3d806e44	0.062710315
104	0xbd949855	-0.072556175
105	0x3d87af09	0.06625182
106	0x3b17c4b2	0.002315801
107	0xbc34cbee	-0.011034949
108	0xbd0323b9	-0.03201649
109	0x3c3edf2f	0.011649891
110	0x3d32a372	0.043612905
111	0x3d16d67c	0.036825642
112	0xbc485a5a	-0.012228573
113	0xbdd9c481	-0.10633183
114	0x3c5cf016	0.013484975
115	0xbd897667	-0.067120366
116	0x3a86ab4c	0.0010274439
117	0xbc326cbd	-0.010890183
118	0xbceabd7f	-0.028654812
119	0xbcebb50b	-0.028772851
120	0xbda6222e	-0.08111988
121	0x3bf39770	0.0074338242
122	0x3d5daf8e	0.0541225
123	0xbd812dcc	-0.06307563
124	0x3c902404	0.017595299
125	0x3c397e14	0.011321563
126	0xbd08f116	-0.033433042
127	0x3ae26d64	0.0017275033
128	0x3ced7dff	0.028990744
129	0x3c9f5787	0.019450916
130	0x3dec28ec	0.11531243
131	0xbce3b070	-0.027794093
132	0x3ded700a	0.115936354
133	0x3d873675	0.06602184
134	0xbda3e42f	-0.08002507
135	0xbda037b6	-0.07823126
136	0xbc50f83e	-0.012754498
137	0xbd5b8e35	-0.053602416
138	0xbc91f164	-0.0178153
139	0x3e077391	0.13227679
140	0xbb28ef97	-0.0025777572
141	0xbd968c99	-0.073510356
142	0x3c943e90	0.018096238
143	0xbd29be26	-0.041441105
144	0x3cd8d5c6	0.026469123
145	0x3d9713f9	0.07376856
146	0xbc25dd8a	-0.01012362
147	0x3bca0bf9	0.006165978
148	0xbd2d902f	-0.042373832
149	0xbdb8a1fe	-0.090152726
150	0xbda158ef	-0.07878291
151	0x3bc7dc34	0.0060992483
152	0xba25bda7	-0.0006322511
153	0xbcb4382e	-0.021999445
154	0xbc88d526	-0.0167032
155	0x3d81b6f1	0.063337214
156	0xbd5088ec	-0.05091183
157	0x3dd5e2c6	0.10443644
158	0x3cf2c169	0.02963324
159	0x3d6d551f	0.057942506
160	0xbd868208	-0.0656777
161	0xbd6c6f88	-0.057723552
162	0x3c6ef2c5	0.014584248
163	0x3d236cf9	0.039898846
164	0xbcc51e13	-0.024062192
165	0xbd9ca171	-0.0764798
166	0x3c1efc39	0.009703689
167	0xbd2407f9	-0.040046666
168	0x3d8d82d5	0.0690972
169	0xbd03a52d	-0.032139946
170	0x3d50d5a4	0.050984994
171	0x3dae7170	0.0851773
172	0x3d8171c8	0.0632053
173	0xbd9c3ee6	-0.076291844
174	0x3cad5b53	0.02116171
175	0x3ddcdf11	0.10784734
176	0xbd7a10eb	-0.06105129
177	0x3d8b547a	0.06803222
178	0x3ba88b36	0.0051435484
179	0x3dfe83ec	0.12427506
180	0x3d847dcd	0.06469307
181	0x3dff0bd9	0.12453432
182	0x3d85743f	0.06516313
183	0xbc96cbc4	-0.01840771
184	0xbe185c3c	-0.14878935
185	0xbd6cd902	-0.057824142
186	0x3d7fe492	0.06247384
187	0xbd8b7747	-0.0680986
188	0x3c53279c	0.012887862
189	0x3cb6cfd4	0.022315897
190	0x3dd2dce8	0.10296041
191	0xbd6e5684	-0.058187976
192	0x3db15b0f	0.08659946
193	0xbabda0cd	-0.0014467478
194	0x3d3c5c7e	0.045986645
195	0x3dcdbf25	0.100462236
196	0x3d205a61	0.039148692
197	0xb9c73360	-0.00037994515
198	0xbc782dc6	-0.015147632
199	0xbc83abbf	-0.016073106
200	0x3d278923	0.04090227
201	0x3d2bfd31	0.04198951
202	0xbd6d8aad	-0.05799358
203	0xbdce9703	-0.10087397
204	0xbdf159d4	-0.117847115
205	0xbc1dfbe7	-0.009642578
206	0xbd1b9413	-0.03798301
207	0x3b105acb	0.0022026773
208	0xbd980a3f	-0.07423829
209	0xbd30e5c1	-0.04318786
210	0xbd965e03	-0.0734215
211	0xbd5810bb	-0.05275033
212	0xbd8a2691	-0.06745637
213	0xbd519d26	-0.05117526
214	0x3de06d4c	0.10958347
215	0x3d48b1b7	0.048997607
216	0xbd2c4b4e	-0.042064004
217	0xbd35581a	-0.044273473
218	0x3cc7a0a4	0.024368592
219	0xbd3a28bb	-0.045449
220	0xbdb9c0e5	-0.09069995
221	0x3d994bbd	0.07485149
222	0x3c61cfe8	0.013782479
223	0xbc7efc7a	-0.015563125
224	0x3d87444c	0.066048235
225	0x3ca7c163	0.020477956
226	0xbcc7d7f1	-0.024394961
227	0x3c6ebd0d	0.01457144
228	0xbd84d6cb	-0.06486281
229	0x3d64e954	0.05588658
230	0xbd4b66a7	-0.049658444
231	0x3d47a8a7	0.048744824
232	0x39dcd918	0.00042123417
233	0xbd2ab2c9	-0.04167441
234	0xbcf82bc3	-0.030294305
235	0xbd48db6d	-0.049037386
236	0x3cf6a3bb	0.03010737
237	0x3cafbada	0.021451402
238	0x3cbf71e5	0.023369739
239	0xbce9cbd5	-0.028539577
240	0x3da42c27	0.08016234
241	0xbca11546	-0.019663464
242	0xbda7735f	-0.08176302
243	0xbd44677e	-0.04795026
244	0xbba135fb	-0.004919765
245	0x3d7d9e2b	0.06191842
246	0xbc8a29e7	-0.016865684
247	0x3c19fcb4	0.009398628
248	0xbc80750e	-0.015680816
249	0x3d27724a	0.04088048
250	0xbc94c1c5	-0.018158803
251	0xbc4663d0	-0.012108758
252	0x3d8b9262	0.0681503
253	0x3c53097f	0.012880682
254	0x3d8160b0	0.0631727
255	0xbd77464f	-0.060369786

network_body._body_endoder.seq_layers.0.bias f4 [128]
0	0x3ba1e2db	0.0049403734
1	0x3bf4106c	0.0074482467
2	0x3c1bab34	0.009501267
3	0xb96ec710	-0.00022771605
4	0x3b8e06f1	0.0043343236
5	0x3c02faf1	0.007994399
6	0x3c10a861	0.008829207
7	0x3b6a1771	0.0035719539
8	0xbbac6b68	-0.0052618273
9	0xbbbb53cd	-0.005716777
10	0x3abcf5c1	0.0014416502
11	0xbc196220	-0.009361774
12	0xbb2d2fa9	-0.0026426113
13	0xbb5938da	-0.0033145458
14	0xb9b01787	-0.00033586865
15	0x3ad79a56	0.0016449194
16	0x3c28eddb	0.010310615
17	0x3b50c79d	0.003185726
18	0x3be0439d	0.0068439976
19	0xbac5285e	-0.0015041938
20	0x3b969b63	0.0045961603
21	0xba913c20	-0.0011080541
22	0x3aa7b85e	0.0012796035
23	0xbaa6f981	-0.0012739153
24	0xb93aa727	-0.00017800611
25	0xbb9bc9d6	-0.0047542853
26	0x3abf63b5	0.0014601859
27	0xbae928cc	-0.0017788648
28	0xbb31c6ef	-0.002712663
29	0xbb787859	-0.003791353
30	0x3a6c30e9	0.0009009974
31	0xba8401a1	-0.0010071286
32	0x3b20ef07	0.0024556534
33	0x3bebe693	0.0071991174
34	0x3a94270a	0.0011303138
35	0x3b75be24	0.0037497366
36	0x3b5b3b59	0.0033452122
37	0x3b415efc	0.0029506078
38	0x3a8620a6	0.0010233119
39	0x3b28b234	0.0025740983
40	0x3c1a9661	0.009435267
41	0xbacc1987	-0.0015571573
42	0xbb2c1acd	-0.0026261092
43	0x3b93a2c6	0.004505488
44	0x3b38d494	0.0028202878
45	0x391ab4d1	0.00014753944
46	0xba9346e0	-0.0011236332
47	0xbb0420f2	-0.0020161238
48	0x3b0faa29	0.0021921492
49	0x3bbb8f51	0.0057238718
50	0xbc0cfbf8	-0.008604996
51	0xbb3e0b8c	-0.0028998582
52	0x3c228afc	0.009920832
53	0xb9a81fbc	-0.000320671
54	0x3bba9201	0.0056936746
55	0xbb760dbf	-0.0037544814
56	0xbb4adb66	-0.0030953526
57	0xbabcfb1f	-0.0014418102
58	0xbb9676b1	-0.004591786
59	0xbb4b9432	-0.0031063673
60	0x39ab9c2e	0.00032732025
61	0x3c317b16	0.010832569
62	0x3ae44bb0	0.0017417576
63	0x3a90496b	0.0011008208
64	0x3b0666fa	0.0020508156
65	0xbbc5b839	-0.006033924
66	0xbc0d7974	-0.008634914
67	0x3b0ebbed	0.0021779493
68	0x3a94d173	0.0011353925
69	0x3b9730c3	0.004613967
70	0x39ab6e8b	0.00032698023
71	0x3a4268ca	0.00074161275
72	0xba2b7887	-0.00065410923
73	0x3bfa1fb8	0.0076331757
74	0x3916c4f3	0.00014378484
75	0xbc28fede	-0.010314671
76	0x3ba1def9	0.0049399105
77	0x3a8d9207	0.0010800966
78	0x3a38d159	0.0007050238
79	0x3a599e9f	0.00083015295
80	0x3aabd5f7	0.0013110031
81	0x3b5aa57d	0.00333628
82	0xbb781e53	-0.0037859872
83	0x3c26a82b	0.01017193
84	0xbad09fd1	-0.001591677
85	0xbb3c0595	-0.002868985
86	0x3b25a3f6	0.002527473
87	0x3b531c0e	0.0032212767
88	0x3b2e8b1a	0.0026633204
89	0xbbbecc65	-0.0058227056
90	0x3bb235e3	0.0054385527
91	0x3c0d2d2d	0.008616728
92	0x3b5cf03a	0.0033712522
93	0x3a972c19	0.0011533528
94	0xbc1d7944	-0.0096114315
95	0x39bb29f1	0.00035698668
96	0x3ac37ca1	0.0014914462
97	0x3ac079a9	0.0014684695
98	0x3bbbf14d	0.0057355524
99	0xbab5efc8	-0.0013880664
100	0x3ba4a4d8	0.0050245337
101	0xbb3b7bc7	-0.0028607713
102	0xbc0ded48	-0.008662529
103	0xbb3999f1	-0.0028320516
104	0x3b9bdf58	0.0047568493
105	0x3ba1bd5f	0.004935905
106	0x3bad2d1f	0.00528492
107	0x3b028b7e	0.001991957
108	0x3c17a1ce	0.009254886
109	0x3c58c576	0.013230672
110	0x3acdbdb3	0.0015696794
111	0xbb05a238	-0.002039088
112	0xba7d956a	-0.00096734485
113	0xbb6c21e3	-0.003603094
114	0x3b8d87dd	0.0043191747
115	0x3b94595c	0.004527254
116	0x3c4db004	0.012554172
117	0xbba6f979	-0.0050956574
118	0xba1627aa	-0.00057279563
119	0x3bfe8b2d	0.007768056
120	0x3afa5cb2	0.0019101112
121	0xba10d35b	-0.00055246585
122	0x3a9fb23c	0.0012183855
123	0xbb8f1539	-0.0043665436
124	0x3b0d7e46	0.0021590157
125	0xbb2b9c34	-0.0026185634
126	0x3c482f59	0.01221832
127	0x3bb86933	0.005627775

network_body._body_endoder.seq_layers.2.weight f4 [128, 128]
0	0xbdaeb0db	-0.08529826
1	0xbde1a196	-0.11017148
2	0xbac89281	-0.0015302451
3	0xbc312123	-0.010811123
4	0xbddbaf0a	-0.107267454
5	0x3e969bf3	0.29415855
6	0xbd87c80d	-0.066299535
7	0xbcd52e2e	-0.026022997
8	0x3e0a3ef3	0.13500576
9	0xbc59eaad	-0.01330058
10	0xbe011a53	-0.12607698
11	0xbe33b93c	-0.1755113
12	0x3d6d2e9a	0.05790577
13	0xbd44f010	-0.048080504
14	0xbbd7de38	-0.00658777
15	0x3d9f516d	0.077792026
16	0x3decd37f	0.11563777
17	0xbc570ce1	-0.013125629
18	0xbd6bb26a	-0.057543196
19	0x3dbc4c45	0.09194235
20	0xbda94820	-0.0826571
21	0x3da39f35	0.07989351
22	0x3d9f487f	0.077774994
23	0x3cec7a04	0.028866775
24	0xbe050707	-0.12990962
25	0xbc9d7b31	-0.019223781
26	0xbd6514c8	-0.05592802
27	0xbde62d2a	-0.11239083
28	0xbdac8b28	-0.084249794
29	0x3e656965	0.22403486
30	0x3cc16152	0.023605976
31	0xbda397ca	-0.07987936
32	0xbda6c074	-0.08142176
33	0x3d5347ae	0.05158203
34	0x3dac84db	0.08423778
35	0xbdd5986a	-0.10429461
36	0xbc2a8a2e	-0.010408921
37	0xbe376daa	-0.17912927
38	0xbd0c898c	-0.034310862
39	0xbde0efb3	-0.10983219
40	0xbdcdea71	-0.10054482
41	0x3d3ca80d	0.046058703
42	0xbce00dfa	-0.027350415
43	0x3e54a423	0.20765738
44	0x3c021549	0.007939645
45	0xbc0beb84	-0.008540038
46	0x3d27b01b	0.04093943
47	0xbabcfc33	-0.0014418423
48	0xbc7b71e3	-0.015346977
49	0x3cd7025b	0.02624624
50	0xbbbe08a1	-0.0057993685
51	0xbdf05f6e	-0.11736952
52	0x3c77e1d1	0.015129522
53	0x3d7ccc7e	0.061718456
54	0x3da56de2	0.08077599
55	0x3c1e3d8b	0.009658228
56	0x3e6c7b65	0.23093946
57	0xbac54a22	-0.0015052
58	0x3d22530b	0.039629977
59	0xbe03de8d	-0.12877865
60	0xbd9b9859	-0.075974174
61	0xbd017fc7	-0.031616
62	0x3ba7631b	0.00510825
63	0x3d0e7a1d	0.034784425
64	0xbd80d522	-0.06290652
65	0x3d73d57f	0.059529778
66	0x3e0956a4	0.13411957
67	0xbd190468	-0.037357718
68	0xbdd0f4a6	-0.10202913
69	0x3c6946ad	0.014238042
70	0xbcf8f530	-0.030390352
71	0xbc91e8bc	-0.017811172
72	0x3db57c10	0.08861554
73	0xbd92f2a0	-0.07175183
74	0xbde918e6	-0.11381702
75	0x3da7cfa6	0.08193903
76	0xbdec2dfd	-0.11532209
77	0xbac12033	-0.0014734328
78	0xbd3e41a5	-0.046449322
79	0xbc147a14	-0.009062309
80	0x3e2d4b3a	0.16923228
81	0x3c8afc64	0.016966052
82	0xbe0fe4cf	-0.14052127
83	0xbd0b1498	-0.033955187
84	0xbd2f94b7	-0.042866435
85	0xbe1add56	-0.15123495
86	0x3d92bca7	0.07164889
87	0x3deec6b1	0.11658991
88	0xbd00a782	-0.031409748
89	0xbe0a6500	-0.13515091
90	0xbd1fe249	-0.03903416
91	0xbbb96d3e	-0.0056587746
92	0xbddfdccd	-0.10930786
93	0x3d25b664	0.040457144
94	0xbd2d77ee	-0.042350702
95	0xbe1a97cf	-0.15096973
96	0xbdab5110	-0.08365071
97	0x3d014f8e	0.03157001
98	0x3cea9e0b	0.028639814
99	0x3e524fc7	0.20538245
100	0x3dc07bbe	0.09398602
101	0x3e1407c1	0.14456083
102	0xbe0be3a3	-0.13661055
103	0x3dea211f	0.114320986
104	0xbdabd3e6	-0.08390026
105	0x3d10536f	0.03523582
106	0x3cce831a	0.025208998
107	0xbdc1595f	-0.09440874
108	0xbe2664f5	-0.1624945
109	0x3e078200	0.13233185
110	0x3dffdb14	0.12492958
111	0x3d864c3b	0.065575086
112	0x3d6c9e0f	0.057767924
113	0xbcfe15ec	-0.031016313
114	0xbd04e02b	-0.032440346
115	0xbd8b2a47	-0.06795173
116	0x3d716118	0.058930486
117	0x3d804af2	0.06264295
118	0xbac10428	-0.001472597
119	0xbcf52927	-0.02992685
120	0xbdcf8a8e	-0.10133849
121	0x3d886ac4	0.06660989
122	0x3d21c3b3	0.039493274
123	0xbdca4f4f	-0.09878408
124	0xbd67b977	-0.056573357
125	0xbbbe5afc	-0.005809186
126	0x3daababd	0.08336399
127	0xba9a2a06	-0.0011761792
128	0x3c354c37	0.011065534
129	0xbe1a53b4	-0.15070993
130	0x3b9d7c93	0.00480611
131	0x3d9481aa	0.07251294
132	0xbd918c81	-0.07106877
133	0xbdc3e6f2	-0.09565534
134	0x3c5f7886	0.013639575
135	0x3e40506e	0.18780681
136	0xbe17f975	-0.14841254
137	0x3d9f3e78	0.07775587
138	0xbd1c150b	-0.038106006
139	0xbd801afb	-0.06255146
140	0x3e456be4	0.19279438
141	0xbcfc373f	-0.030788062
142	0x3ca36301	0.01994467
143	0x3e01ef99	0.12689056
144	0xbcc39b96	-0.0238779
145	0x3c385f79	0.011253231
146	0x3d96c3bf	0.07361554
147	0xbc21d3ae	-0.0098771285
148	0xbce0cc32	-0.027441118
149	0x3d582245	0.052767057
150	0x3e0290bc	0.12750524
151	0x3d6fe1f6	0.058565103
152	0x3e02fe71	0.12792374
153	0xbca194e0	-0.01972431
154	0xbcea03d6	-0.028566282
155	0x3df7c669	0.120983906
156	0x3c5ec595	0.013596912
157	0x3d6302df	0.05542266
158	0xbd8a2216	-0.067447826
159	0x3d95bd24	0.07311466
160	0xbd917f8b	-0.07104405
161	0x3e115cec	0.14195603
162	0x3d727d47	0.059201505
163	0xbd239825	-0.03994002
164	0x3db72a28	0.089435875
165	0xbb847e1c	-0.0040433537
166	0xbc796c5a	-0.015223587
167	0xbd47b6ea	-0.048758425
168	0xbd84f480	-0.06491947
169	0x3b1dc173	0.0024071604
170	0x3df0f433	0.11765327
171	0xbdbc1721	-0.09184099
172	0xbd442e65	-0.047895808
173	0xbdc7d989	-0.097582884
174	0x3dd1e636	0.102489874
175	0x3e641a0e	0.22275564
176	0xbe2dcc89	-0.16972555
177	0xbd425334	-0.04744263
178	0x3a55cf72	0.0008156217
179	0xbcede02c	-0.029037558
180	0xbcf98827	-0.03046043
181	0x3c264925	0.010149275
182	0x3dd98a1c	0.106220454
183	0xbd13cce3	-0.036084067
184	0xbe2badd3	-0.16765527
185	0x3e3e15dc	0.18563026
186	0x3dc9aa12	0.098468915
187	0xbe0b63ff	-0.13612364
188	0xbe132094	-0.14367896
189	0xbd05ff37	-0.032714095
190	0xbd8fd851	-0.07023681
191	0xbdd4b95a	-0.103869155
192	0x3dcd3066	0.10018997
193	0xbc7d6590	-0.015466109
194	0x3d26c8a6	0.040718697
195	0x3e0a3e12	0.1350024
196	0x3da4794d	0.08030949
197	0x3de1ecd5	0.110315
198	0x3d98b86c	0.07457051
199	0xbd5d29eb	-0.053995054
200	0xbcb9ef4e	-0.022697117
201	0x3d6b9c6b	0.05752222
202	0x3d70b261	0.058763865
203	0xbdae1143	-0.08499386
204	0x3dd3af0f	0.10336124
205	0xbd2fc8e1	-0.042916182
206	0x3e00b86f	0.12570356
207	0xbd148613	-0.036260676
208	0xbd53a30b	-0.05166916
209	0xbe07cdb7	-0.13262068
210	0x3cea7533	0.028620338
211	0xbdb602f9	-0.08887286
212	0xbd00e56c	-0.031468794
213	0x3d0fb150	0.035081208
214	0xbda3bbcf	-0.07994806
215	0xbdfc1289	-0.12308223
216	0x3e2eafd4	0.1705926
217	0x3cea47fc	0.028598778
218	0x3da72701	0.08161736
219	0x3d9a2541	0.07526637
220	0x3c636caf	0.013880893
221	0xbd11548c	-0.03548102
222	0xbd6c1669	-0.05763856
223	0xbd630140	-0.055421114
224	0x3d3cabed	0.0460624
225	0xbd0b6ef3	-0.034041356
226	0x3d820f8c	0.063506216
227	0x3d67278f	0.05643421
228	0x3c2fe04b	0.010734628
229	0x3d88104d	0.06643734
230	0xbc3927d2	-0.011300998
231	0x3d7f3839	0.062309477
232	0xbdf15da6	-0.1178544
233	0x3d827ef0	0.06371868
234	0x3c6994f6	0.014256706
235	0x3d3dbba4	0.046321526
236	0x3d5a7198	0.053330988
237	0x3d53e80a	0.05173496
238	0xbe14e6e0	-0.14541197
239	0xbcb48a1a	-0.022038508
240	0xbcbaf3a9	-0.022821264
241	0x3da51cbf	0.080621235
242	0xbd453420	-0.048145413
243	0xbcf4a3d2	-0.029863272
244	0xbb8a6252	-0.0042231465
245	0xbd929401	-0.07157136
246	0x3c116c77	0.008875958
247	0xbcf117cf	-0.029430298
248	0x3e0244e4	0.12721592
249	0xbd8ce01c	-0.06878683
250	0x3e2b3e73	0.16723041
251	0xbd1eb2fd	-0.038744915
252	0x3cc55d03	0.024092203
253	0x3e3360b1	0.17517354
254	0x3c0e686a	0.008691886
255	0xbe6b98c9	-0.23007502

network_body._body_endoder.seq_layers.2.bias f4 [128]
0	0x3a934746	0.0011236451
1	0xbb6f6df5	-0.0036534045
2	0x3c169ee1	0.009193153
3	0xba0d856b	-0.0005398604
4	0x3934a7e5	0.00017228683
5	0xbbc11ec0	-0.0058935583
6	0x3bded050	0.006799735
7	0x3b3f26b1	0.002916735
8	0x3b43cffd	0.002987861
9	0xba9bb8cc	-0.0011880635
10	0xbbd1f9e3	-0.0064079626
11	0xbab8d47f	-0.0014101415
12	0x3ae08408	0.0017129192
13	0x3abd5a25	0.0014446421
14	0x3b80d6bb	0.003931848
15	0x3a2d1e19	0.0006603911
16	0xbbd7394d	-0.00656811
17	0x3c143b29	0.009047308
18	0x3c1f8fa2	0.009738835
19	0xbbbc28dd	-0.005742176
20	0x397b1de6	0.00023948363
21	0xbb0324bc	-0.002001091
22	0x3bdf75e9	0.006819476
23	0x3aa22015	0.001236918
24	0x3bc281c0	0.0059358776
25	0xbbe6269f	-0.007023647
26	0x3aa118e1	0.001229074
27	0xbb9b8085	-0.0047455453
28	0x3b453fed	0.0030097917
29	0x3b199565	0.0023434993
30	0xbb72fd36	-0.0037077195
31	0x3af0e1f4	0.0018377886
32	0x3b9961c9	0.0046808464
33	0xba5b4bd0	-0.0008365484
34	0x3b9344f6	0.004494305
35	0x3bdeb8f2	0.0067969495
36	0x3bbf33bf	0.005835026
37	0x3c58dcf9	0.013236278
38	0x3bca28f0	0.006169431
39	0x3c06b3f1	0.008221612
40	0xbbd86127	-0.0066033783
41	0x3a95d820	0.0011432208
42	0x3b29f650	0.0025934167
43	0x3bf2a945	0.0074054324
44	0x3941138b	0.00018413195
45	0xbb43d9a1	-0.0029884356
46	0x3b790244	0.0037995735
47	0x3b6fabbb	0.0036570865
48	0x3b9926f7	0.0046738344
49	0x3c042cee	0.008067353
50	0xba50482c	-0.0007945325
51	0x3ab62df8	0.0013899198
52	0x3baea55a	0.00532977
53	0x3bcd9af2	0.0062745744
54	0x3b0c1389	0.0021373949
55	0xbbd8a4bf	-0.006611436
56	0x3a68d86e	0.0008882348
57	0x3b4feda9	0.003172735
58	0x3b5043e7	0.0031778754
59	0x3bcb626e	0.006206802
60	0x3ade6d3a	0.0016969808
61	0x3c482ea4	0.012218151
62	0xbb276a2b	-0.0025545459
63	0x39a68efa	0.00031768513
64	0x3b586367	0.0033018233
65	0x3bc70b47	0.0060743424
66	0x3c4d2f64	0.012523506
67	0xba250a3d	-0.0006295776
68	0x3b3d1f98	0.0028857943
69	0xba3cab55	-0.00071971613
70	0x3bc46104	0.0059930105
71	0x3b42f4b4	0.0029747905
72	0x3bb35a6f	0.005473427
73	0x3b317376	0.0027076877
74	0x3b587159	0.0033026545
75	0xb9345411	-0.00017197455
76	0x3a9dacbe	0.0012029631
77	0x3c101c81	0.008795858
78	0xbc45b7cc	-0.012067746
79	0x3bbe815a	0.0058137598
80	0x3b342efa	0.002749382
81	0xbb564d72	-0.003269997
82	0x3b911eb4	0.004428709
83	0xbb07a64d	-0.0020698488
84	0xbb36bf8c	-0.0027885167
85	0x3b3e870f	0.00290722
86	0xbc0794db	-0.008275236
87	0xbc417832	-0.011808442
88	0x3b2e05ad	0.0026553676
89	0xbb0b4328	-0.0021249745
90	0xbbbded17	-0.0057960856
91	0x3c15b180	0.009136558
92	0x3bb52b74	0.0055288617
93	0x3a8535f5	0.0010163175
94	0xba71c454	-0.00092226756
95	0x3b2d0566	0.0026400923
96	0x3abee5db	0.0014564352
97	0xbbb59470	-0.005541377
98	0x3b60017b	0.003418057
99	0xbb9735f0	-0.004614584
100	0x3b9b1efa	0.0047339173
101	0x3ad1a828	0.0015995549
102	0x3a5c4d05	0.0008403811
103	0x3c66026a	0.0140386615
104	0x3c225a6b	0.009909253
105	0x3bf3ccd4	0.007440189
106	0x3ab56405	0.0013839012
107	0x3bc25576	0.005930598
108	0xbc20ef15	-0.009822627
109	0x3bc5f8a7	0.0060416046
110	0x3c490b1d	0.012270716
111	0x3b499adf	0.0030762476
112	0x3b3a4e5a	0.0028428049
113	0xbb592b48	-0.003313737
114	0xba4bf9b3	-0.00077810435
115	0x3b5eb5f9	0.0033982976
116	0x3bae79cb	0.0053245774
117	0xba021e6a	-0.00049636385
118	0xb916682a	-0.00014343919
119	0xba55c9ce	-0.00081553764
120	0x3a281388	0.0006411602
121	0xbb72ef31	-0.0037068839
122	0xbc0349e2	-0.0080132205
123	0x3aaacbad	0.0013030671
124	0x3c42a2c5	0.011879628
125	0xba1418b5	-0.00056494336
126	0xbbd58b26	-0.006516832
127	0x3c070da1	0.0082429955

action_model._continuous_distribution.log_sigma f4 [1, 4]
0	0x3d02a277	0.03189322
1	0x3dbaf232	0.09128226
2	0x3da43344	0.08017591
3	0x3dc824ef	0.097726695

action_model._continuous_distribution.mu.weight f4 [4, 128]
0	0x3b44a13d	0.0030003332
1	0x3d8da005	0.06915287
2	0x3d88686f	0.06660544
3	0x3da85e76	0.08221142
4	0x3c9faff5	0.019493083
5	0xbe060217	-0.13086735
6	0x3d9ff624	0.078106195
7	0xbd28321f	-0.041063424
8	0xbd8af787	-0.06785493
9	0x3d9421d9	0.072330184
10	0xbda4d5cd	-0.08048592
11	0xbd516b3b	-0.051127654
12	0x3d97ecc6	0.07418208
13	0x3d480d56	0.048840843
14	0x3d38e743	0.045142423
15	0xbd6e9ca1	-0.05825484
16	0xbd92b6f9	-0.071638055
17	0x3d9e5182	0.0773039
18	0x3d0211f9	0.03175542
19	0x3d882f82	0.066496864
20	0xbcabf182	-0.020989183
21	0xbda2128e	-0.07913695
22	0x3d00d818	0.031456083
23	0xbddd364f	-0.10801374
24	0x3dc2ccf4	0.09511748
25	0xbdb3a1a3	-0.08771064
26	0xbd8709bf	-0.06593656
27	0xbd9244fe	-0.071420655
28	0xbde91813	-0.11381545
29	0x3d79bae7	0.06096926
30	0x3db72f45	0.08944563
31	0x3e0b619d	0.13611455
32	0xbd9ddd37	-0.07708209
33	0x3d148bb9	0.036266062
34	0x3d504074	0.050842717
35	0xbddf5bd7	-0.10906189
36	0xbd154dd3	-0.036451172
37	0x3d6488f2	0.055794664
38	0xbbc47433	-0.0059952973
39	0xbb367af0	-0.0027844273
40	0xbd522002	-0.051300056
41	0x3cbe3c45	0.023222098
42	0xbd97b03e	-0.074066624
43	0xbd89c897	-0.067277126
44	0x3d3117c5	0.04323556
45	0xbd6ea153	-0.05825932
46	0xbd39cf14	-0.0453635
47	0x3d8bdfc3	0.068297885
48	0x3da41864	0.08012465
49	0x3bd246c6	0.0064171283
50	0x3d9fb039	0.07797284
51	0x3d764c10	0.060131133
52	0x3da44e6a	0.08022769
53	0x3dd23223	0.10263469
54	0x3c98ecd3	0.018667614
55	0xbdb3ddc8	-0.08782536
56	0xbc11f15c	-0.008907642
57	0x3de786c0	0.113049984
58	0xbd14ef19	-0.036360834
59	0x3db1b24b	0.08676585
60	0xbdab016e	-0.08349882
61	0x3d50cb50	0.050975144
62	0xbde9ac52	-0.114098206
63	0xbd82af04	-0.06381038
64	0xbd25afa7	-0.04045072
65	0x3d89fb83	0.06737425
66	0xbd4a753b	-0.049428206
67	0x3d84c008	0.064819396
68	0xbd9b8536	-0.07593767
69	0x3d99b893	0.07505908
70	0x3d84de0d	0.06487665
71	0x3d9b4b5a	0.075827315
72	0xbdf437eb	-0.11924728
73	0xbd0087c8	-0.03137949
74	0x3daaef04	0.0834637
75	0x3dcc7cb1	0.099847205
76	0xbda0b717	-0.078474216
77	0xbe039654	-0.12850314
78	0x3b10c76e	0.0022091526
79	0xbdbb8405	-0.0915604
80	0x3dc69fb1	0.096984275
81	0x3db01e75	0.08599559
82	0xbdcb044b	-0.09912928
83	0xbc95c186	-0.018280756
84	0xbd835e98	-0.06414527
85	0x3dc4540a	0.09586342
86	0xbdb336a5	-0.08750657
87	0xbc6752bb	-0.014118846
88	0x3d874f36	0.06606905
89	0xbcd1c0ff	-0.025604723
90	0xbd96f115	-0.073702015
91	0x3dd50104	0.10400584
92	0xbd787fb4	-0.060668662
93	0x3de93b94	0.11388317
94	0xbd30e362	-0.0431856
95	0x3cc35759	0.023845362
96	0xbc9553e8	-0.018228486
97	0x3db6be20	0.08922982
98	0xbdd59fc4	-0.104308635
99	0xbd665617	-0.056234445
100	0x3d83a2aa	0.0642751
101	0xbd4c243b	-0.04983924
102	0x3d6e4d65	0.058179278
103	0xbd68c870	-0.056831777
104	0x3c154fa1	0.009113223
105	0xbdad387d	-0.0845804
106	0x3d4f93a6	0.050677918
107	0xbdb5d6ac	-0.08878836
108	0xbd82e2b2	-0.06390895
109	0x3d1f86e8	0.038947016
110	0xbda05176	-0.078280374
111	0x3b803cb4	0.0039134864
112	0x3d9d4e4e	0.07680951
113	0xbd98d03e	-0.07461594
114	0xbda3d45b	-0.07999488
115	0x3dbd5537	0.09244769
116	0x3d9922c5	0.07477335
117	0x3cabcd02	0.020971779
118	0x3d1220b9	0.035675738
119	0x3dae6bc9	0.08516652
120	0x3d844c6d	0.064598896
121	0xbda867ae	-0.082229
122	0x3a94c23f	0.0011349394
123	0x3dc19182	0.094515815
124	0x3cb8d15f	0.022560773
125	0x3d856aef	0.065145366
126	0x3cf01861	0.0293085
127	0x3dcdd3c4	0.10050157
128	0x3bdd2bd0	0.0067496076
129	0x3ca1d968	0.019756988
130	0x3cf5a0b4	0.029983856
131	0xbaea8a7e	-0.0017894057
132	0x3afaef96	0.0019144889
133	0xbabb1dc4	-0.0014275839
134	0x3c865909	0.016399877
135	0xbbb04a54	-0.0053799544
136	0xbc35b7e2	-0.011091204
137	0xbc53002e	-0.012878461
138	0xbcad87f7	-0.021182997
139	0x3c475014	0.012165088
140	0x3c61cd19	0.013781809
141	0xbb9657da	-0.0045881094
142	0xbbfa18b4	-0.0076323394
143	0x3bb11af5	0.005404825
144	0xbcc2d156	-0.02378146
145	0xbd0e6989	-0.034768615
146	0x3be3218c	0.0069314893
147	0x3bb2e905	0.005459907
148	0x3cafb847	0.021450175
149	0x3b1cea37	0.0023943314
150	0xbbafa524	-0.0053602625
151	0x3c260e61	0.010135264
152	0x3b2f72e7	0.0026771368
153	0xbb60dc15	-0.0034310867
154	0x3b154c25	0.0022780981
155	0x3c34f0a5	0.011043702
156	0xba36cb60	-0.0006973054
157	0x3ce52c34	0.02797518
158	0xbd03f5df	-0.032216903
159	0xbd8563c5	-0.0651317
160	0xbc7d23c3	-0.015450421
161	0xbb9e2fc2	-0.0048274705
162	0xbc046d64	-0.008082721
163	0xbd00ac27	-0.031414177
164	0xbd1505ed	-0.036382604
165	0x3cb33cd5	0.021879593
166	0xbcb4d30c	-0.022073291
167	0xbc91fee7	-0.017821742
168	0xbc5abc86	-0.013350612
169	0xbb803e47	-0.003913674
170	0x3d7edc4c	0.06222181
171	0xbc195e3a	-0.009360844
172	0x3c694e6f	0.014239891
173	0xbcb1aee5	-0.021689842
174	0xbc3d6768	-0.0115602985
175	0xbcf63a7c	-0.030057184
176	0x3b21570e	0.002461854
177	0xbc2a5ee3	-0.010398599
178	0xbcbfb917	-0.023403687
179	0xbc278c95	-0.010226388
180	0x3b28bf71	0.0025748874
181	0x3d016d43	0.03159834
182	0x3bceec65	0.0063148015
183	0x3c63cc45	0.013903682
184	0xbd5678ec	-0.052361414
185	0x3ba1ce1d	0.0049379007
186	0xbcd64db8	-0.026160106
187	0xbbc6944a	-0.006060158
188	0xbc62659c	-0.013818171
189	0x3c9c0127	0.019043518
190	0xbc272708	-0.010202177
191	0x3cf4a3aa	0.029863197
192	0xbd1928de	-0.03739249
193	0xbc7414db	-0.01489755
194	0x3c441235	0.0119672315
195	0xbc97072a	-0.018436033
196	0xbbe1a296	-0.006885837
197	0x3bebad7d	0.0071923123
198	0xbc53a815	-0.012918492
199	0x3c9e50ef	0.019325702
200	0x3be7a54c	0.0070692655
201	0xbc76ad6c	-0.015055995
202	0xbcadce9c	-0.021216683
203	0xbcb6be97	-0.022307677
204	0x3a580d4b	0.0008241727
205	0xbc60eddc	-0.013728585
206	0x3cd99e2f	0.026564686
207	0xbd003102	-0.031296737
208	0xbc29bbd1	-0.01035972
209	0x3a187837	0.0005816253
210	0x3c558642	0.013032498
211	0xbb329cfb	-0.0027254212
212	0x3bd3fda9	0.0064694476
213	0x3c1fd4f8	0.009755366
214	0x3a8e79bb	0.0010870019
215	0xbc39ddf8	-0.011344425
216	0x3c4d9e75	0.012549986
217	0x3b5da912	0.0033822698
218	0x3ce3427a	0.02774166
219	0x3bf2278f	0.0073899697
220	0xbbd116f5	-0.0063809105
221	0x3b741652	0.003724475
222	0xbca37ca4	-0.019956894
223	0xbc6374d5	-0.013882835
224	0x3a24c2ce	0.00062851317
225	0x3ba6fe75	0.0050962516
226	0xbbe71eae	-0.007053218
227	0x3d148e1a	0.03626833
228	0x3b9b5301	0.0047401194
229	0xbcce3ed2	-0.02517644
230	0x3d0464a6	0.03232255
231	0x3a8a02a9	0.0010529357
232	0xbb64a5ec	-0.0034888936
233	0x3b42f928	0.002975056
234	0x3ca1d81d	0.019756371
235	0xb97ef53d	-0.00024314686
236	0x3a43ded5	0.0007471864
237	0xbc842d19	-0.016134785
238	0xbcf8610e	-0.030319717
239	0x3cdb99d7	0.026806755
240	0xbae212c1	-0.0017248021
241	0xbcd167dd	-0.025562221
242	0x3d762365	0.06009235
243	0xbbead29d	-0.0071662203
244	0xbc65e5a1	-0.014031799
245	0x3d425982	0.047448643
246	0x3d18f270	0.03734058
247	0x3c96696e	0.01836082
248	0xbd1488d4	-0.036263302
249	0x3ba5902c	0.005052587
250	0x3cbce907	0.023060335
251	0x3c61110c	0.013736974
252	0x3c366ef6	0.011134854
253	0x3ce6cea9	0.028174715
254	0xbcdc2992	-0.026875291
255	0xba808158	-0.0009804172

action_model._continuous_distribution.mu.bias f4 [4]
0	0x3d64b9f7	0.055841412
1	0x3b48499f	0.003056146
2	0x3b829137	0.003984596
3	0x3c404927	0.011736191

onnx::LSTM_104 f4 [1, 512, 128]
0	0xbe0453fd	-0.12922664
1	0x3e1fe99e	0.15616462
2	0xbdca6af3	-0.0988368
3	0xbd2f6449	-0.04282025
4	0xbc015f2d	-0.007896227
5	0x3df3a388	0.118964255
6	0xbdf45cd2	-0.119317666
7	0x3e013f88	0.12621891
8	0xbde274e8	-0.11057454
9	0xbd9c6313	-0.076360844
10	0xbdc1761d	-0.094463564
11	0xbd31a76e	-0.043372564
12	0x3bbe24bc	0.005802719
13	0x3d7f0151	0.062257115
14	0xbddb2ada	-0.10701533
15	0x3d2ca0d3	0.04214556
16	0x3d64356b	0.055715006
17	0xbc0c32a5	-0.0085569965
18	0xbdebe919	-0.11519069
19	0xbe0d575f	-0.1380286
20	0x3d46c2f4	0.048525766
21	0x3d0eaf53	0.03483517
22	0xbe0898d1	-0.13339545
23	0x3df50a6c	0.119648784
24	0xbb54f257	-0.0032493079
25	0xbdfbd03a	-0.122955754
26	0x3ca96070	0.020675868
27	0x3df3c1fb	0.11902233
28	0x3dc42310	0.09577
29	0x3e001dcc	0.12511367
30	0x3db87a4b	0.090077005
31	0xbdde8df2	-0.10866918
32	0x3dbd5e9d	0.09246562
33	0x3e15d4e9	0.14632
34	0x3dd53342	0.10410167
35	0x3c1a7fe6	0.009429907
36	0x3d9aafb7	0.07553046
37	0x3dcae96a	0.099078014
38	0xbd4b1604	-0.049581543
39	0x3c98d213	0.018654859
40	0x3df0a028	0.117492974
41	0x3e099186	0.13434419
42	0x3dc7a27c	0.09747788
43	0xbdca4e7e	-0.098782524
44	0x3bcc97bb	0.0062436736
45	0x3dd8f1ca	0.105929926
46	0xbdc64c6d	-0.09682546
47	0xbe1f0dcf	-0.15532611
48	0x3d95c586	0.07313065
49	0x3c34c3ed	0.0110330405
50	0xbe0fd688	-0.14046681
51	0xbc838069	-0.016052442
52	0xbe0a8a76	-0.13529381
53	0x3da89fed	0.082336284
54	0x3d5ea4f5	0.054356534
55	0x3ce31ca9	0.027723627
56	0xbdb60b05	-0.088888206
57	0x3d430d5a	0.047620155
58	0x3c671e3f	0.014106332
59	0x3d89a58a	0.06721027
60	0x3df15082	0.11782934
61	0x3d434fcf	0.047683533
62	0xbae7f686	-0.0017697371
63	0xbde8da46	-0.11369757
64	0x3d663c1f	0.05620968
65	0x3de1f119	0.11032314
66	0xbdc7c52e	-0.09754406
67	0x3df3d80d	0.11906443
68	0x3d57c220	0.052675366
69	0x3cabbec3	0.020964986
70	0x3d7ef5b0	0.062246025
71	0x3d45e5a1	0.048314694
72	0xbd221d54	-0.03957875
73	0xbe0cdd12	-0.13756207
74	0x3d5236f6	0.051321946
75	0xbe0a30e4	-0.13495213
76	0x3d3e2d33	0.046429824
77	0x3df14f40	0.11782694
78	0xbda7e7a6	-0.0819848
79	0xbd359776	-0.044333898
80	0xbdc65ecb	-0.09686049
81	0x3de3eb4c	0.11128864
82	0x3df37042	0.11886646
83	0xbdc9344e	-0.098244295
84	0xbe1f3309	-0.15546812
85	0xbe0b6456	-0.13612494
86	0xbbdc9ca7	-0.0067325416
87	0xbe15aa9c	-0.14615864
88	0x3e1d09ef	0.1533582
89	0x3da2a586	0.07941727
90	0xbe1cd756	-0.15316519
91	0x3dea7898	0.11448783
92	0xbc2db6d3	-0.010602671
93	0xbd5c28e6	-0.05374994
94	0x3b57e963	0.0032945506
95	0x3da485fe	0.080333695
96	0xbd89f689	-0.06736476
97	0x3cdef749	0.027217524
98	0x3d40bafd	0.047053326
99	0xbdd0310f	-0.10165607
100	0x3ac92a28	0.0015347647
101	0xbe046441	-0.12928869
102	0x3dc1a671	0.09455574
103	0xbc15abe2	-0.009135218
104	0xbd8092dc	-0.06278011
105	0xbab24a9c	-0.0013602558
106	0x3db4b9a4	0.08824471
107	0xbdd37dc1	-0.1032672
108	0xbe002123	-0.1251264
109	0xbe0b68c9	-0.13614191
110	0xbd537463	-0.051624667
111	0xbd490dd6	-0.04908546
112	0x3e17f7fb	0.14840691
113	0xbc1e391e	-0.0096571725
114	0x3dd33c3b	0.103142224
115	0xbe110f81	-0.1416607
116	0x3cf0b04d	0.029380942
117	0xbcb84efd	-0.022498602
118	0x3d5546c8	0.052069455
119	0xbdacd80f	-0.084396474
120	0xbddcd680	-0.107831
121	0x3e05687c	0.13028139
122	0x3e002a36	0.12516102
123	0xbd6844a2	-0.05670608
124	0x3c253a79	0.010084742
125	0xbe1885ca	-0.14894786
126	0xbd3644b5	-0.044499118
127	0x3d183402	0.037158974
128	0x3ce2e253	0.02769581
129	0x3e0cedf4	0.13762647
130	0x3d0cf9df	0.034417983
131	0xbdfcc2fe	-0.12341879
132	0x3e25b2f5	0.16181548
133	0x3c987b0a	0.018613357
134	0x3daa54a4	0.08316925
135	0xbd8ae50b	-0.06781968
136	0xbdc07a83	-0.09398367
137	0xbdf7d6b1	-0.12101496
138	0x3ca7bf9f	0.020477114
139	0x3d5e6337	0.054293837
140	0xbd6c9e5e	-0.05776822
141	0x3e23afd1	0.15985037
142	0x3cd6482c	0.026157461
143	0xbe02f67c	-0.12789339
144	0x3b6b43de	0.0035898606
145	0xbde08ee6	-0.10964756
146	0xbe127b84	-0.1430493
147	0xbe25cbd5	-0.16191037
148	0xbe025113	-0.1272624
149	0x3c29b4bb	0.010358031
150	0xbe26b070	-0.16278243
151	0x3d4538da	0.04814992
152	0xbcec790c	-0.028866313
153	0x3e23df2f	0.16003107
154	0xbd28e3a1	-0.04123271
155	0xbe2d2e4e	-0.16912195
156	0xbd8c9831	-0.06864966
157	0xbb0d52cf	-0.002156425
158	0x3a05b93c	0.00051011494
159	0x3d392452	0.045200653
160	0xbd02f8fc	-0.03197573
161	0xbd807443	-0.06272175
162	0x3dd05f60	0.10174441
163	0xbdae7b31	-0.08519591
164	0x3dd004d0	0.10157168
165	0xbdd8e1dc	-0.10589954
166	0xbc5c1b22	-0.013434203
167	0x3da16211	0.07880033
168	0x3da307fc	0.07960507
169	0x3d8976a9	0.06712086
170	0x3df3eef2	0.119108096
171	0xbdee39e3	-0.11632135
172	0xbcc2f8ff	-0.023800371
173	0xbca3d000	-0.019996643
174	0x3dc7cc24	0.097557336
175	0x3d906bc4	0.07051805
176	0xbdfb66b3	-0.12275448
177	0xbd9b8270	-0.07593238
178	0x3d81d475	0.06339351
179	0xbdcc1365	-0.09964637
180	0xbdbfe940	-0.09370661
181	0xbc54de38	-0.012992434
182	0x3dad5037	0.084625654
183	0xbe14cbfa	-0.14530936
184	0x3e024468	0.12721407
185	0x3e0ea4ab	0.13930003
186	0xbe06e5ac	-0.1317355
187	0x3ca0a31f	0.019609032
188	0xbd83d2bb	-0.06436678
189	0x3d599592	0.053121157
190	0x3dc7e3ce	0.09760247
191	0x3dce0a5e	0.10060571
192	0xbd975da4	-0.073909074
193	0x3def77dd	0.11692784
194	0xbd9b95d6	-0.07596938
195	0x3e0b03cc	0.13575667
196	0x3dd00c27	0.10158568
197	0x3e04f314	0.12983352
198	0x3dc3f9b0	0.095691085
199	0x3deb875d	0.11500428
200	0x3cf11dde	0.029433187
201	0x3a5ac041	0.0008344688
202	0x3d3f9a62	0.04677809
203	0xbdc8eb62	-0.09810521
204	0x3de51350	0.11185324
205	0x3da0a635	0.078442015
206	0x3d79098f	0.06080013
207	0x3dbd75bf	0.09250974
208	0xbd2c0b8e	-0.042003207
209	0xbd15976a	-0.036521353
210	0xbbd5cb9f	-0.0065245177
211	0x3cdc1e5b	0.026869943
212	0x3e13a267	0.1441742
213	0x3daa3455	0.08310763
214	0x3c5f1576	0.0136159565
215	0xbe1baaa5	-0.15201814
216	0x3d1104e1	0.035405044
217	0xbe05b9a3	-0.13059096
218	0x3e1cd372	0.15315035
219	0xbdbdd8ae	-0.09269844
220	0xbe04c7b4	-0.12966806
221	0x3cef3b9b	0.029203227
222	0xbe1e5172	-0.15460756
223	0x3dfdddcb	0.12395819
224	0x3d389538	0.04506418
225	0x3cd6d0cd	0.02622261
226	0xbdec0aaa	-0.115254715
227	0x3c5d815c	0.013519611
228	0x3d81ea60	0.063435316
229	0x3e0493f1	0.1294706
230	0xbe21758f	-0.15767501
231	0x3e003df9	0.1252364
232	0x3d101f42	0.03518606
233	0x3ca8d939	0.020611392
234	0x3cc05286	0.02347685
235	0x3d820765	0.06349067
236	0xbd9bc1d2	-0.07605328
237	0x3a8509e0	0.0010150038
238	0xbda5daec	-0.08098397
239	0xbd86f21f	-0.0658915
240	0xbce1d72f	-0.027568428
241	0x3dc68b9b	0.096945964
242	0xbd9722cc	-0.07379684
243	0x3e01b080	0.12664986
244	0x3dc19192	0.094515935
245	0xbd031a94	-0.03200777
246	0xbd747949	-0.05968598
247	0xbe0c028d	-0.13672848
248	0x3dfff378	0.1249761
249	0xbe0eaf09	-0.13933958
250	0x3e0bd2d7	0.13654648
251	0xbd1a8329	-0.03772274
252	0xbd6f9211	-0.05848891
253	0xbe03da98	-0.12876356
254	0x3e093b58	0.13401544
255	0x3d66daf5	0.056361157

onnx::LSTM_105 f4 [1, 512, 128]
0	0xbc26de1d	-0.010184792
1	0xbd8f4307	-0.06995206
2	0x3c3fbd7b	0.0117028905
3	0x3e19615b	0.14978544
4	0x3e0765fe	0.132225
5	0xbd0ed1c3	-0.034868013
6	0xbdbcc3e2	-0.09217049
7	0xbe05f798	-0.13082731
8	0xbde413b2	-0.11136569
9	0x3d5a5ac4	0.053309217
10	0xbd6433e4	-0.05571355
11	0xbd71bdf7	-0.059019055
12	0xbdf70ee0	-0.12063384
13	0xbdaa41fe	-0.08313368
14	0x3d751dcb	0.059842866
15	0x3e05652d	0.13026877
16	0x3dcb2525	0.09919194
17	0x3e17a41b	0.14808695
18	0x3da8fe6f	0.08251654
19	0x3d0edb03	0.034876835
20	0x3dc7772f	0.09739529
21	0xbdd3c59d	-0.10340426
22	0xbbce96af	-0.006304584
23	0x3e177b9b	0.14793245
24	0x3c492b96	0.012278458
25	0xbe0ff29b	-0.1405739
26	0x3cab01d7	0.0208749
27	0xbd2a90b9	-0.041641925
28	0x3d2cae3a	0.042158343
29	0xbcf639a3	-0.03005678
30	0xbe1b7684	-0.15181929
31	0x3e13a264	0.14417416
32	0xbded1270	-0.11575782
33	0x3c171876	0.009222141
34	0x3e05470e	0.13015386
35	0xbd7098d9	-0.058739517
36	0x3dc7fa40	0.09764528
37	0xbd25ad10	-0.04044825
38	0xbd8a1e2b	-0.06744035
39	0x3de2672f	0.11054837
40	0x3d513619	0.051076982
41	0xbe0476c6	-0.12935933
42	0x3d9417a6	0.07231073
43	0x3d7ee796	0.062232576
44	0x3d738e10	0.059461653
45	0xbd71e4a6	-0.059055947
46	0xbdfacb6c	-0.12245831
47	0xbcda6867	-0.026661111
48	0x3d1ab7d9	0.037772987
49	0xbdf11120	-0.117708445
50	0x3ad0bee0	0.0015926026
51	0xbd82915b	-0.063753806
52	0xbcf70485	-0.030153522
53	0xbe1c485a	-0.15261975
54	0xbdd0e94c	-0.10200748
55	0x3d2596ea	0.040427126
56	0xbcc01d01	-0.02345133
57	0x3ac54dc6	0.0015053086
58	0x3d345c99	0.04403362
59	0xbe151500	-0.14558792
60	0xbd251d5d	-0.040311206
61	0xbd774eca	-0.060377873
62	0x3c9ca78d	0.019122863
63	0x3e05336a	0.13007894
64	0x3cd0f743	0.025508529
65	0xbe196879	-0.1498126
66	0xbd9ed8e7	-0.077562146
67	0xbd6cc473	-0.057804536
68	0xbca1f42c	-0.01976975
69	0xbc4f20e8	-0.012642123
70	0x3dd36e2a	0.103237465
71	0xbd4e099c	-0.050302133
72	0x3e078dff	0.13237761
73	0xbd2cf354	-0.042224243
74	0xbdb3de08	-0.087825835
75	0x3c65f614	0.01403572
76	0xbd85294d	-0.06502018
77	0x3bf80e18	0.0075700395
78	0x3d8405b0	0.06446397
79	0x3d99c812	0.075088635
80	0xbb6f0518	-0.0036471542
81	0x3df37a53	0.11888566
82	0xbd7cd531	-0.061726753
83	0xbdfa0665	-0.12208251
84	0x3e1db42f	0.15400766
85	0xbddf9d0b	-0.109186254
86	0xbdb92342	-0.09039928
87	0x3e11c99b	0.14237063
88	0x3daafaf9	0.083486505
89	0x3d76efda	0.060287334
90	0x3d2843bd	0.041080225
91	0x3c9baf64	0.019004531
92	0x3d9133af	0.07089936
93	0x3e09bae9	0.13450207
94	0x3df0ec60	0.11763835
95	0xbce01e03	-0.02735806
96	0xbd219d63	-0.039456736
97	0xbc9b83ac	-0.018983684
98	0x3cfd69d7	0.030934257
99	0x3e089717	0.13338886
100	0x3db9d76d	0.09074292
101	0x3d980f46	0.07424788
102	0xbdd4852a	-0.103769615
103	0xbddbf909	-0.10740859
104	0xbd44e389	-0.048068557
105	0x3d09098b	0.033456367
106	0x3d71299e	0.05887758
107	0x3d627fbf	0.05529761
108	0xbdb531cc	-0.088473886
109	0xbd62af4b	-0.055342954
110	0x3c31fcfa	0.010863537
111	0x3d86d39f	0.06583332
112	0x3e096469	0.1341721
113	0x3dba7b89	0.09105594
114	0xbd55fa8c	-0.052240893
115	0x3cca2050	0.02467361
116	0x3d138995	0.03601988
117	0xbbc5c150	-0.0060350075
118	0x3e0a6967	0.1351677
119	0x3dc569a5	0.09639291
120	0x3db47419	0.08811206
121	0xbcbe0971	-0.023197861
122	0xbdaa882b	-0.08326753
123	0xbdbfef3a	-0.09371801
124	0xbdf98f01	-0.12185479
125	0xbd405af3	-0.046961736
126	0xbd4915d6	-0.04909309
127	0x3d676878	0.056496114
128	0x3d563164	0.052293196
129	0xbd603e5a	-0.054746963
130	0xbe18e933	-0.14932708
131	0xbd403f09	-0.046935115
132	0x3de5cb7a	0.11220451
133	0xbdacf130	-0.0844444
134	0xbd68b467	-0.05681267
135	0x3c843d02	0.016142372
136	0x3d7e29c2	0.062051542
137	0xbce027e4	-0.027362771
138	0x3de561bf	0.11200284
139	0x3d37ba97	0.04485568
140	0xbbffd03e	-0.007806807
141	0x3dbf289d	0.09333918
142	0xbd13f97b	-0.036126595
143	0xbd0672be	-0.03282427
144	0xbdb9c422	-0.090706125
145	0xbdd2855c	-0.102793425
146	0xbd3bbe99	-0.045836065
147	0xbd44550d	-0.047932673
148	0xbe027452	-0.12739685
149	0xbc82d857	-0.0159723
150	0xbd0bd9f5	-0.034143407
151	0xbc3b8391	-0.011444942
152	0x3b052907	0.0020318644
153	0xbdf58fbb	-0.11990305
154	0xbba6f361	-0.005094931
155	0xbddad8c2	-0.106858745
156	0xbd269d02	-0.040677078
157	0x3b84bc63	0.0040507778
158	0x3d305ea9	0.043059025
159	0x3d1b5068	0.03791848
160	0x3c2ada9f	0.0104281
161	0xbc579d70	-0.013160095
162	0xbd5e3691	-0.054251257
163	0x3b4f7ce7	0.003166014
164	0xbdbbd9b5	-0.09172384
165	0xbe06b44a	-0.13154712
166	0x3d754bda	0.05988679
167	0x3e168982	0.14700893
168	0x3ce61c92	0.028089795
169	0xbdc201ed	-0.094730236
170	0xbd1f61c0	-0.03891158
171	0xbdb9832c	-0.09058222
172	0xbe134b68	-0.14384234
173	0xbdea1b4f	-0.1143099
174	0xbc60a41e	-0.013711004
175	0x3db6a1e9	0.08917601
176	0xbc1b1d90	-0.0094674975
177	0xbc85c495	-0.01632909
178	0xbb914be9	-0.004434098
179	0x3d830eb3	0.06399288
180	0xbd9b4c61	-0.075829275
181	0xbe04c208	-0.12964642
182	0xbe130dd9	-0.14360751
183	0xbd171085	-0.03688099
184	0xbb8d4fef	-0.0043125073
185	0xbd205db0	-0.039151847
186	0xbbdbe526	-0.006710666
187	0xbc7f7740	-0.015592396
188	0xbdb35e54	-0.08758226
189	0xbd89b0b4	-0.067231566
190	0x3dce361e	0.10068916
191	0x3e170b31	0.14750363
192	0x3d6d75b9	0.057973597
193	0x3dbe36c4	0.092877895
194	0x3dec21dc	0.11529896
195	0xba84212e	-0.0010080689
196	0x3cadcaad	0.021214807
197	0xbd7486d6	-0.059698902
198	0xbd2324a2	-0.039829858
199	0xbd869b8a	-0.065726355
200	0xbda73f61	-0.081663854
201	0xbdddc55e	-0.108286604
202	0x3dc63e1c	0.09679815
203	0xbe042981	-0.12906457
204	0x3dae9b49	0.08525712
205	0x3d5c1e39	0.05373976
206	0x3ce873c9	0.028375523
207	0xbcee247a	-0.029070128
208	0xbd661dcc	-0.05618076
209	0x3d08f5a6	0.033437394
210	0x3cdd12f9	0.026986586
211	0x3d9a56d6	0.07536094
212	0xbd0f3aed	-0.034968305
213	0x3c218ad2	0.0098597575
214	0xbcd2e2bf	-0.025742887
215	0x3d4af3d8	0.049548954
216	0x3e1833c1	0.14863493
217	0x3d45b82b	0.04827134
218	0x3d620d3e	0.05518841
219	0xbd0eba43	-0.0348456
220	0xbdea0a31	-0.11427725
221	0xbd14e20d	-0.03634839
222	0x3da27b32	0.07933654
223	0x3d8cebca	0.06880911
224	0x3dd30fec	0.10305771
225	0xbd0e2a06	-0.034708045
226	0xbded538c	-0.11588201
227	0x3da9a0fd	0.08282659
228	0x3dbbb43e	0.09165238
229	0x3db65b0c	0.089040846
230	0xbd325ac1	-0.04354358
231	0xbd3e5461	-0.04646719
232	0x3d9112bc	0.070836514
233	0x3c8a117c	0.01685404
234	0x3e1c2520	0.15248537
235	0xbc9465fa	-0.018115032
236	0x3c8a4752	0.016879711
237	0x3d8294fb	0.06376072
238	0xbdc66244	-0.096867114
239	0xbdea75f0	-0.11448276
240	0x3e098453	0.13429384
241	0x3d3b573d	0.045737494
242	0x3d91994d	0.07109318
243	0x3d57b1ae	0.052659683
244	0x3e269415	0.16267426
245	0xbdf09e61	-0.117489584
246	0x3df1653b	0.11786886
247	0xbe096959	-0.13419093
248	0x3e15359e	0.14571235
249	0xbddc6c94	-0.10762897
250	0x3de42de1	0.11141563
251	0xbdacb41b	-0.0843279
252	0xbda61300	-0.08109093
253	0xbc43ca4b	-0.011950086
254	0x3d3be45a	0.04587207
255	0x3dce414f	0.100710504

onnx::LSTM_106 f4 [1, 1024]
0	0x3c014095	0.007888933
1	0xbbf4966c	-0.0074642207
2	0x3c748e2b	0.014926474
3	0xbb8f7800	-0.004378319
4	0x3c8244c8	0.015901938
5	0x3c9649b7	0.018345697
6	0xbc017082	-0.007900359
7	0x3c4f69e7	0.012659526
8	0x3c1c2b9a	0.00953188
9	0xbbbbb74e	-0.0057286387
10	0xbb1eac11	-0.0024211446
11	0x3c5b1e9b	0.013373996
12	0xbc45beba	-0.012069399
13	0x3c09f6d3	0.008420664
14	0x3a5d489c	0.00084413006
15	0xb984ad10	-0.00025305944
16	0x3b5e189f	0.0033889187
17	0xbbdad0ee	-0.0066777384
18	0xbb9619e0	-0.0045807213
19	0xbc0f7dd7	-0.00875803
20	0x3c8b9329	0.017037945
21	0x3bfe26a7	0.0077560726
22	0x3c6a991f	0.0143187335
23	0x3bbcb28e	0.00575859
24	0x3c11789f	0.008878856
25	0x3bf8e416	0.0075955493
26	0xbaaa87a4	-0.0013010395
27	0x3c40ee42	0.011775555
28	0x3cf78d7c	0.030218832
29	0x3bb81bba	0.0056185396
30	0xbb1eba1e	-0.0024219821
31	0x3bd5320a	0.0065062093
32	0xbb89f949	-0.0042106253
33	0x3c8981b7	0.016785486
34	0x3c85b624	0.016322203
35	0x3bb9ce36	0.005670334
36	0x3a09bf80	0.0005254671
37	0x3c7a523f	0.015278398
38	0x3c0d5e05	0.008628373
39	0x3af57301	0.001872629
40	0x3c74147f	0.014897465
41	0x3a5c2ed7	0.00083993137
42	0x3bb9253f	0.005650192
43	0x3c0c4126	0.0085604545
44	0x3b9deadf	0.0048192586
45	0x3ad7bced	0.0016459503
46	0xba6bd364	-0.0008996038
47	0x3b95c40a	0.004570489
48	0xbb9ea5fc	-0.004841564
49	0x3bbb7366	0.0057205437
50	0x3c3c3246	0.0114865955
51	0xbbc6a0ee	-0.006061665
52	0x3bcf48c4	0.006325813
53	0x3beb35f5	0.007178063
54	0xbbecd891	-0.007227965
55	0x3aac27a9	0.0013134378
56	0x3c4099bf	0.011755406
57	0x3a0c613c	0.0005355065
58	0x39825cfa	0.00024864805
59	0x3c1477e4	0.009061787
60	0xbc28c0c8	-0.010299869
61	0xbc07b7f2	-0.008283602
62	0x399d8b23	0.00030049038
63	0x3c3e5fcd	0.01161952
64	0x3c40ee35	0.011775543
65	0x3b4f8978	0.003166763
66	0x3cd6376f	0.02614948
67	0x3c96be6d	0.018401349
68	0xbb81c209	-0.0039598984
69	0x3baf45a4	0.005348878
70	0x3c262f3e	0.010143099
71	0x3c54efc6	0.01299662
72	0x3bcf4cb9	0.0063262847
73	0x3b05764c	0.00203647
74	0x3ad154f7	0.0015970756
75	0x3c1ae179	0.009453171
76	0x3b1ffbfe	0.0024411674
77	0x3bab142b	0.00522091
78	0x3becc9bc	0.007226197
79	0xbbde66e9	-0.00678717
80	0x3c562a91	0.013071672
81	0x3c456240	0.01204735
82	0x3c90569b	0.017619422
83	0xbadd989e	-0.0016906445
84	0x3c54bdc4	0.012984697
85	0x3bcd0672	0.006256872
86	0x3c47745c	0.012173738
87	0xbb7ccca1	-0.0038574117
88	0x3b9fd8f0	0.004878156
89	0x3b0a4939	0.0021100773
90	0x3b8ba03b	0.0042610443
91	0xbbd5abf4	-0.0065207426
92	0x3baade32	0.005214476
93	0xba1cb921	-0.0005978514
94	0xbbb7caae	-0.005608878
95	0xbb4a3d42	-0.0030859266
96	0x3bf3b926	0.007437843
97	0xbc52bca0	-0.0128623545
98	0x3a850c56	0.0010150771
99	0xbb7ec86f	-0.0038876792
100	0x3c880c42	0.016607407
101	0x3be7f3ef	0.0070786397
102	0xbafeeaf9	-0.0019448689
103	0xba835bc3	-0.0010021854
104	0x3bbab7b7	0.00569817
105	0x3b03bd89	0.0020101985
106	0xbb061e4e	-0.002046484
107	0xbb2ab756	-0.0026049218
108	0xbc14f6a9	-0.0090920115
109	0xbb0c5dba	-0.002141817
110	0xbbd42867	-0.006474543
111	0x3bf4a14e	0.007465518
112	0xbbc67867	-0.0060568335
113	0x3b867a85	0.004103961
114	0x3caa92a2	0.020821873
115	0xbc1bb072	-0.009502517
116	0x3c80aa94	0.015706338
117	0xbba52cea	-0.0050407546
118	0x3c909893	0.017650878
119	0xbbb9c65f	-0.0056693996
120	0x3b92b623	0.004477279
121	0x3bcbca70	0.006219201
122	0x3ba1bbac	0.0049357023
123	0xbbab1031	-0.005220436
124	0x3c77a9d1	0.015116171
125	0x3c3ddd33	0.011588383
126	0x3b6617ee	0.0035109478
127	0xbc236474	-0.00997268
128	0x3b133383	0.0022461123
129	0x3c7b35b3	0.015332627
130	0x3cc43bf5	0.023954371
131	0x3ba1b0f4	0.0049344245
132	0x3c27af1a	0.010234619
133	0x3cfa7a13	0.030575788
134	0x3ca29282	0.019845251
135	0x3c978b6f	0.018499104
136	0x3cc1113d	0.02356779
137	0x3ca8931f	0.020577965
138	0x3cb35862	0.02189273
139	0x3cd1bf6c	0.025603972
140	0x3cce185d	0.025158102
141	0x3c9760aa	0.01847871
142	0xbb57170e	-0.0032820138
143	0x3c68efaf	0.014217301
144	0x3bb99aee	0.005664221
145	0x3cd6e03b	0.026229968
146	0x3be81dfd	0.007083653
147	0x3cea4dfc	0.028601639
148	0x3c582805	0.013193135
149	0x3c92f88c	0.017940782
150	0x3c8b95b6	0.017039161
151	0x3cabaefb	0.02095746
152	0x3caac437	0.020845516
153	0x3cdf9dfb	0.02729701
154	0x3ca9566a	0.020671088
155	0x3ce7e643	0.02830804
156	0x3d0668e6	0.032814883
157	0x3c4dfc76	0.012572398
158	0x3cad7156	0.021172207
159	0x3cc0dbf6	0.023542386
160	0x3ca73c3a	0.02041446
161	0x3c3011bc	0.010746416
162	0x3d0ec989	0.034860168
163	0x3c8eb85d	0.017421896
164	0x3c820738	0.015872583
165	0x3ccdf5e2	0.02514166
166	0xbc878886	-0.016544592
167	0x3c2e0943	0.010622325
168	0x3c7885b3	0.015168595
169	0x3c329b71	0.010901318
170	0x3c37eafb	0.011225457
171	0x3b798aaf	0.0038077047
172	0x3c0f24ed	0.008736831
173	0x3c3cfa5b	0.011534299
174	0x3bf522a0	0.0074809343
175	0x3ce27cd6	0.027647417
176	0xbbd19e1f	-0.0063970233
177	0x3986d385	0.00025716066
178	0x3c5017b2	0.012700962
179	0x3b6e9aa2	0.0036408086
180	0x3c985ba8	0.018598393
181	0x3cc7fb63	0.024411863
182	0x3bd8f02f	0.006620429
183	0x3d0c9edc	0.034331188
184	0x3c18d7f9	0.009328836
185	0x3d0b07fa	0.033943154
186	0x3cdb3727	0.026759697
187	0x3c5eb9ce	0.013594104
188	0x3c7b70ce	0.015346719
189	0x3c246646	0.0100341495
190	0x3bec3857	0.0072088647
191	0x3a0ca8f9	0.0005365755
192	0x3cadfbd0	0.021238238
193	0x3a0e8910	0.0005437294
194	0x3cafbd5f	0.021452604
195	0x3cee4128	0.029083803
196	0x3c650fdd	0.013980833
197	0x3c6c50c2	0.014423551
198	0x3cbbe789	0.022937553
199	0x3c895ea4	0.016768761
200	0x3ce547c7	0.027988328
201	0x3b1276ed	0.0022348717
202	0x3c38c2c4	0.0112769045
203	0x3cb03031	0.021507354
204	0x3caf43a1	0.021394553
205	0x3cea3a9c	0.0285924
206	0xbb15c211	-0.0022851268
207	0x3c9c705b	0.019096544
208	0x3ce46e24	0.02788455
209	0x3c966418	0.018358275
210	0x3d0eb49a	0.034840204
211	0xbb80c8a4	-0.003930168
212	0x3c4c87b3	0.012483525
213	0x3c4d2831	0.012521789
214	0x3d23bf8e	0.039977603
215	0x3c3a4c41	0.011370719
216	0x3c607d4f	0.013701751
217	0x3b8d6415	0.004314909
218	0x3c86ca2f	0.01645383
219	0x3bd1d09c	0.006403042
220	0x3c8899f3	0.016674971
221	0x3ccfa925	0.02534921
222	0x3c1b6010	0.009483352
223	0xbb403a39	-0.0029331578
224	0x3c2ff2f1	0.010739074
225	0x3c4a376d	0.012342316
226	0x3c92f997	0.01794128
227	0x3bd19c45	0.0063968026
228	0x3c57124a	0.013126919
229	0x3c020f7d	0.007938263
230	0x3ca201b7	0.019776208
231	0xbb3cc39a	-0.002880311
232	0x3b326529	0.002722094
233	0x3c144b52	0.009051161
234	0x3c563529	0.013074198
235	0x3cceb31b	0.025231889
236	0x3b81f1c3	0.003965588
237	0x3c0cce02	0.008594038
238	0x3c1f3e7d	0.009719488
239	0xbba621b7	-0.005069937
240	0x3b813db6	0.003944124
241	0x3c695f9c	0.014243986
242	0x3cd10a78	0.025517687
243	0x3cac4853	0.02103058
244	0x3cef28b7	0.029194219
245	0x3c1e1728	0.009649076
246	0x3bed3a35	0.007239605
247	0x3cc3fd7d	0.023924584
248	0x3a6d74f9	0.0009058263
249	0x3c9dde5c	0.019271068
250	0x3c4076de	0.01174709
251	0x3c97aec8	0.01851596
252	0x3ae5520c	0.0017495765
253	0x3c3a60b9	0.0113756
254	0x3c870bb8	0.01648508
255	0x3c24cfcd	0.010059309
