results/DroneAgentStraightAhead2/DroneAgent/checkpoint.pt (torch, 863019 bytes, 44 tensors)

network_body._body_endoder.seq_layers.0.weight f4 [128, 101]
000000 39 4f 4b be 4b e4 9c 3d 07 3f 83 be dd 9e ca 3d
       -0.1985444 0.07660731 -0.25634024 0.09893582
000010 80 4f a5 be 86 47 59 be 8f 1f 24 3e a9 00 9f be
       -0.32287216 -0.2121869 0.16027664 -0.3105519
000020 1a 7f c7 3c 33 32 76 3d a4 4c cb 3d ba b0 64 3c
       0.024352599 0.060106467 0.099267274 0.0139581505
000030 00 6c d9 be 75 a5 bf bd 90 15 14 be df 8d 37 bd
       -0.4246521 -0.0935773 -0.1446135 -0.044813033
000040 af 16 c5 3d c7 0e d8 bd 04 ab 3f 3d f6 8e 41 3d
       0.09623467 -0.105496936 0.046793953 0.04725548
000050 2a 65 65 3c 4c 31 28 be 87 7b dd be 31 6b 92 3d
       0.01400117 -0.16425055 -0.43258306 0.071493514
000060 4c 91 e4 3d 57 7f 06 3d 28 f7 1e be ca ee 1b 3d
       0.11160526 0.032836284 -0.1552397 0.038069524
000070 b0 50 f0 3d b1 d7 06 bd 60 85 7f be fa 2c 16 3d
       0.1173414 -0.032920543 -0.24953222 0.036663987
000080 cc 2c 5e bd dc e7 72 3d 2c 3f a6 3d 53 56 24 be
       -0.05424194 0.05930315 0.08117518 -0.16048555
000090 bf c8 d3 3c 9d 63 d0 3b 85 1e 16 be f7 3e 30 be
       0.02585256 0.006359531 -0.1466008 -0.17211519
0000a0 68 f2 19 be be 74 9b bd 96 c8 a9 3c 2c a4 19 3d
       -0.15033877 -0.07590626 0.02072553 0.037510082
0000b0 ac b9 85 be 6a 17 fc bc 25 2d cd bd 42 ac 21 bd
       -0.2611822 -0.030772883 -0.10018376 -0.03947092
0000c0 8a 1f 72 3d 6c 62 ab be fe c1 c8 bc 14 b9 bb 3d
       0.05911211 -0.33473527 -0.024506565 0.0916616
0000d0 03 83 f9 bd be cd e4 3d 24 8d a0 be 3a 2e 24 bc
       -0.121831916 0.11172055 -0.31357682 -0.010020787
0000e0 99 2b 5f 3d 7d b4 30 3d 10 e7 5d be 48 19 d2 3c
       0.054484937 0.043140877 -0.21670175 0.02564682
0000f0 d2 06 0d 3d 82 af cc 3d 24 07 1e 3e 74 48 75 3d
       0.034430332 0.09994413 0.15432411 0.05988355
000100 f2 6f e4 bc c2 8c 94 be cf 7d a0 3d 48 36 9f be
       -0.027885411 -0.2901364 0.07836496 -0.310961
000110 00 bc 41 bd ad d3 0e bf 8e 38 2b be 1b 79 78 be
       -0.04729843 -0.5579174 -0.16720793 -0.24264948
000120 44 89 89 bd 5d 03 17 bd e9 1a 89 3d ac b8 7d 3e
       -0.067156345 -0.03686844 0.06694586 0.24777478
000130 2c 06 97 bd 2e ff a4 3d 6f d8 20 3e b6 37 b8 bd
       -0.07374224 0.08056484 0.15707563 -0.08995001
000140 40 5b 01 be aa 2f 7a 3e bb f0 87 3b 3a 0d b5 bc
       -0.12632465 0.24432245 0.0041485704 -0.022101033
000150 cc ab 20 3e 96 55 b6 bd c6 99 33 3d 63 e6 a5 bd
       0.15690535 -0.08903043 0.04384782 -0.081005834
000160 3a 78 03 3d 8b 0b 86 be 2c 84 fb bc 78 cd e4 3d
       0.03209708 -0.26180682 -0.030702673 0.111720026
000170 68 7f e6 bd 8b af ae be 7e 74 6e 3e a3 6b 19 3c
       -0.112547696 -0.34118304 0.23286626 0.0093640415
000180 19 5b 39 3e b6 95 1d 3e 21 6f cf bd 7b 7f 82 3a
       0.18101157 0.15389141 -0.10128618 0.0009956205
000190 34 51 a7 bd 65 9f d1 bd 9b 12 4f 3d 89 d8 82 bd
       -0.08169785 -0.1023548 0.050554853 -0.06388957
0001a0 57 34 f5 3d e0 2d 41 bd 27 78 ea bd 96 22 15 3d
       0.11972874 -0.04716289 -0.114486985 0.036409937
0001b0 b6 3f c2 bc b1 af e5 bd d8 2a 28 be f5 3e d5 bb
       -0.02371202 -0.11215151 -0.16422594 -0.006507749
0001c0 bd 0f 87 bd d8 a7 2a 3d 20 64 2a 3d c9 fd 54 3d
       -0.06594799 0.041663975 0.041599393 0.05199984
0001d0 cd 5d 2a 3b 56 c5 41 3d a6 0d 28 3c 85 d4 06 3c
       0.002599585 0.047307335 0.01025716 0.00822938
0001e0 81 02 1d 3d 1e ee ba bd df c6 da bd 56 a5 fe 3c
       0.038332466 -0.091274485 -0.10682463 0.031084698
0001f0 1c 63 4c bc dc 16 21 3d 04 c2 bd bd 6c 68 d1 bd
       -0.012474801 0.03932844 -0.09265521 -0.10224995
000200 47 38 9e bd 03 0a c3 3c ee 22 db 3a ec 8d 95 3d
       -0.07725578 0.023808485 0.0016718784 0.0730246
000210 af 3e 87 be 21 2a 0a 3d ed 15 9d bc ad 12 40 3e
       -0.2641501 0.033731584 -0.019175494 0.18757124
000220 92 e5 93 3d 3e 2b 1a bd 7b 5a 15 3d 76 59 83 be
       0.072215214 -0.037638895 0.036463242 -0.2565419
000230 63 86 11 3d b9 d7 26 be 1d 33 48 be c1 ce 56 bc
       0.03552855 -0.16293229 -0.19550748 -0.013110817
000240 ab 67 91 3d d5 b2 0b 3e e8 2b 73 3e 8d 7e 3d 3e
       0.07099851 0.13642438 0.23747218 0.18505307
000250 3e 74 e0 bd 34 3c d4 3b e7 80 b8 3e 60 08 7b 3e
       -0.109596714 0.0064769033 0.36035845 0.24514914
000260 fa 47 90 3e c0 f4 4d 3e 3e a9 06 be af ce b7 3d
       0.28179914 0.20112896 -0.13150498 0.08974969
000270 1d 08 7c 3c b3 dc 28 bd 0d 48 89 bd a2 8b 1b 3b
       0.015382794 -0.0412261 -0.06703196 0.002373435
000280 a5 61 04 bd 88 eb d9 3d 34 0a 67 3c fa c3 cc 3b
       -0.032319684 0.10640627 0.014101554 0.006248948
000290 50 24 78 3d ea 5a f0 bd 75 3c ae 3d 8d 4b 70 3c
       0.060581505 -0.117360905 0.08507625 0.01466645
0002a0 65 bd 1f 3e 44 4e cc 3d 97 01 97 bd 38 1c 44 3d
       0.15599592 0.099758655 -0.0737335 0.047878474
0002b0 84 46 1c 3e 32 d5 bb 3d 16 fc 20 be d8 eb f0 3c
       0.15261275 0.09171523 -0.15721163 0.029409334
0002c0 9f 33 f8 3d c3 1f 68 bd a1 0c 16 3e ca 69 22 3d
       0.12119221 -0.056670915 0.14653255 0.03965167
0002d0 89 01 3c 3d 86 71 e2 3e 4a 47 cc 3d a3 22 00 3e
       0.0458999 0.44227237 0.09974535 0.12513213
0002e0 c0 88 78 3d 52 32 2d 3e 30 21 a2 bd 2e a2 ee bc
       0.06067729 0.16913727 -0.07916486 -0.029130068
0002f0 14 f6 06 3d 18 13 50 be 19 f5 44 3d 9f 19 08 be
       0.032949522 -0.20319784 0.048085306 -0.13291024
000300 18 48 b0 3d 84 7c 08 3e ed 39 20 3d 4e b8 e2 bd
       0.08607501 0.13328749 0.039117742 -0.110703096
000310 75 12 76 3c 1d 2d 36 3d 32 45 58 3e 84 0b 53 bd
       0.015019049 0.044476617 0.21120146 -0.051524654
000320 28 3a 5f 3e 57 9d 54 3d 74 d4 39 be 46 6a 10 be
       0.21799529 0.051907863 -0.1814745 -0.1410304
000330 77 26 06 bd 04 9a 3e be 79 a4 9b bd df ac 43 bd
       -0.032751527 -0.1861344 -0.0759973 -0.047772285
000340 6d 91 fe 3b c5 b9 e9 bd 82 22 54 bb 29 e2 58 be
       0.007768801 -0.11412386 -0.00323692 -0.21180023
000350 8e b1 90 bd e6 7e 2f be 40 c5 8a be 93 52 84 bd
       -0.07065116 -0.17138252 -0.27103615 -0.06461062
000360 ae f1 9e bd 2c 91 05 be 85 0f 41 bd 68 94 c8 bd
       -0.077609405 -0.1304366 -0.04713394 -0.09793931
000370 36 1d 86 3b e0 60 60 3c 14 88 c5 3c cd e1 aa bd
       0.0040928377 0.013694972 0.024112739 -0.08343849
000380 e2 75 f3 bd 6a ab ee bd dd 99 a2 bd 2b 0b d6 3c
       -0.11887719 -0.116537884 -0.07939503 0.026128372
000390 89 18 7a 3d 45 06 4f be 21 07 83 bd 59 66 21 be
       0.061058555 -0.20217235 -0.06397844 -0.15761699
0003a0 40 64 97 3c 74 4b be 3d d2 75 04 be fc ac 2f 3d
       0.01848042 0.09291735 -0.1293557 0.04288958
0003b0 70 5e 2a be 04 84 0c 3e 92 30 0d 3e 78 62 1f be
       -0.16637588 0.13722235 0.1378806 -0.15564907
0003c0 46 b1 10 be 47 29 2d 3d a7 20 28 3d d2 5e e6 3c
       -0.14130124 0.042275693 0.041046765 0.028121386
0003d0 ce eb fd 3c 86 0f 2e bc d4 d0 4c be 33 8f 45 bd
       0.03099623 -0.010623818 -0.20001537 -0.04823227
0003e0 bf fe 65 bd d7 5a c5 bd 97 33 07 3e 0d 8d c5 bd
       -0.056151148 -0.09636467 0.13203274 -0.09646044
0003f0 b3 4e 04 be 9b 44 c2 bd 86 ac 41 be 1f c2 d8 3d
       -0.12920646 -0.09485742 -0.18913469 0.10583901

network_body._body_endoder.seq_layers.0.bias f4 [128]
000000 71 91 88 bc 40 dc 01 bc 8e e0 93 bd 62 60 cc bc
       -0.016670914 -0.007926047 -0.07220565 -0.024948303
000010 e8 39 02 be 1a 0d 65 3b d1 58 ab bc f3 ec 0d bd
       -0.12717402 0.0034950436 -0.020916374 -0.0346498
000020 4a 6c 36 3c 23 55 e4 bc 66 00 14 3d 6f db 1b bd
       0.011134217 -0.027872628 0.036133192 -0.038051065
000030 f1 90 af bc f9 af 81 3c 03 8e 98 3c 3d 9c b7 3b
       -0.021431418 0.01583098 0.018622404 0.005603342
000040 d3 92 4a bd ee 57 3f bd 65 09 b9 bd 43 db 21 3c
       -0.04945643 -0.046714716 -0.09034995 0.009878936
000050 0e 4c 5a bc ca 68 e7 3c f5 de f6 bd f8 8c e1 3c
       -0.013323797 0.02824821 -0.120542444 0.02753304
000060 9b 23 e1 3b 69 db e2 bc 73 e6 4e bc 32 fc 81 bd
       0.0068706996 -0.027692514 -0.012628186 -0.063469306
000070 56 ba 95 bc 91 8e 99 bc ac 71 5d bd b5 1a 5f bd
       -0.018277328 -0.018744739 -0.054063484 -0.05446883
000080 d0 32 a7 bd be 51 82 3c ce ec c7 bc 81 70 6a bd
       -0.081639886 0.015908118 -0.02440491 -0.0572362
000090 90 8e c6 3c 1f fb 22 bd 27 fb d4 bd 86 24 0a 3c
       0.024237901 -0.03979027 -0.10399466 0.008431559
0000a0 9e 05 4b 3b dd 7b cd bc b8 74 d9 3b be 34 71 bd
       0.003097869 -0.025083477 0.0066362284 -0.05888819
0000b0 4a 2f 31 bb e1 cb 7b bb 77 6d 1a 3b 0f 18 b6 bc
       -0.0027036243 -0.0038421082 0.0023563781 -0.022228269
0000c0 3d 6c 2f bc 7e 17 1e 3d 56 99 95 bd 82 17 d9 3c
       -0.010706958 0.038596623 -0.07304637 0.026500467
0000d0 5d 62 2c 3b 0a 2d ce 3c 72 4f bc bb cd ae 17 bd
       0.0026303746 0.02516796 -0.0057467753 -0.037031937
0000e0 c8 d0 e5 bb 9f 3e 91 bd 8d 01 07 bd 48 cd 28 3d
       -0.007013414 -0.07092022 -0.032960463 0.041211396
0000f0 dc 37 2d bd 1e 19 1a bd 0c 7f 34 bd fe 4e dd bb
       -0.0422896 -0.03762161 -0.044066474 -0.0067538014
000100 46 34 ec 3c 63 e4 2c bd de 0e ea 3c e7 41 9c bd
       0.02883352 -0.042209994 0.028571542 -0.076297574
000110 30 8d 87 bd 4a fa 61 3c 02 6a 00 be c1 ba 8a bb
       -0.06618726 0.013792584 -0.12540439 -0.0042336886
000120 23 f4 9f 3a 04 a0 cb bb 46 20 1d bd 1e 38 c7 3a
       0.0012203496 -0.0062141437 -0.038360856 0.0015199219
000130 a3 36 87 b8 97 84 1f bd a1 78 b1 ba 07 9b ac 3b
       -6.4474785e-05 -0.038944807 -0.0013539979 0.005267504
000140 99 d5 04 3c ef 2d 72 bd 2e 15 6a bd 9e 05 c4 bd
       0.008107566 -0.059125837 -0.057149105 -0.09571384
000150 7b ff 0c bd ce 18 09 bd 89 92 81 bc 44 87 d0 bb
       -0.034423333 -0.03347092 -0.015816944 -0.006363781
000160 02 65 4d 3d 58 5a 97 bd 16 24 65 bd be 1a 9f 3c
       0.050145157 -0.073902786 -0.055942617 0.019421931
000170 54 eb eb bc 9b 9b 25 bd 44 55 70 bc 0d 34 2b bd
       -0.028798737 -0.0404316 -0.014668766 -0.041797686
000180 f4 f8 45 3d c4 9e 23 bd b2 c5 c3 bb 4a 7a ca bc
       0.048333123 -0.039946333 -0.005974495 -0.024716515
000190 5b 25 26 bd 02 b7 4a bc 25 8d d9 bc 5a 42 32 bd
       -0.04056297 -0.012372734 -0.02655656 -0.04352031
0001a0 e5 f3 4c bd 49 e4 bb 3c 7f d2 cd 3c c4 0d 52 3b
       -0.050037283 0.022936003 0.025124786 0.0032051662
0001b0 1c 76 13 3c db 4d fa bc 30 59 35 3c 2d 8b b0 bc
       0.009000327 -0.030554703 0.011068627 -0.02155074
0001c0 9b 1a 13 bb ff b3 49 3c 8a bb 16 3c af ea d0 3c
       -0.0022446278 0.012310981 0.009199986 0.02550253
0001d0 82 7e 61 3c f5 35 d0 bd 50 82 9c bd ea b7 dc bc
       0.013763072 -0.101665415 -0.07642043 -0.026943166
0001e0 11 4e 53 bc f5 ec 2d 3a 43 bf 7f 3b 36 e2 1f bd
       -0.01289703 0.00066347356 0.0039023913 -0.03903409
0001f0 34 4c cd 3c 4e e3 0f 3d 0c 0d b2 bd c9 1e 40 bd
       0.02506075 0.035128884 -0.08693895 -0.04690436

network_body._body_endoder.seq_layers.2.weight f4 [128, 128]
000000 48 24 e5 3c f8 50 13 bd b5 73 a1 bc 06 8e b3 3d
       0.027971402 -0.03596589 -0.019708494 0.08767323
000010 a1 ad 7e bd d0 98 00 bd 05 98 65 bd 54 58 68 be
       -0.062177304 -0.031395733 -0.05605318 -0.22689945
000020 77 52 9d bd d8 40 3d 3d 3f b1 4e be 4b 94 90 3d
       -0.076817445 0.046204418 -0.20184802 0.07059535
000030 7e 14 f8 3b d8 1d 9c bd 5a 12 8d bd be 0e 9e 3a
       0.0075708022 -0.0762288 -0.06888266 0.0012058837
000040 d9 64 f4 bd 85 41 9f 3d 84 0f 2e be 98 c8 61 bd
       -0.11933298 0.07776169 -0.16998106 -0.05512294
000050 ce 99 88 3c ae b9 b0 bd 9f fd f7 bc 55 01 19 bd
       0.016674902 -0.086291656 -0.030272303 -0.037354786
000060 b6 c7 99 bd d1 cd 8a bd d6 6e 3e bd 91 c2 c4 bd
       -0.07508795 -0.067775376 -0.04649242 -0.09607423
000070 6a 93 d8 bd 10 c5 e4 bd 74 cc da 3d 7e 69 ed 3d
       -0.10574992 -0.11170399 0.106835276 0.11592387
000080 f3 45 24 3e 88 b6 c1 bd 77 e7 95 3d bc c7 98 bc
       0.16042309 -0.09458643 0.07319539 -0.018649928
000090 e6 33 11 be 37 b5 e9 3d 20 7c 83 3d de 92 e9 bb
       -0.14179954 0.11411517 0.06420159 -0.0071281036
0000a0 57 2a 61 3e 80 57 36 3d ea 7c eb 3d 32 84 03 bd
       0.21988808 0.04451704 0.11498435 -0.032108493
0000b0 a8 25 5b bb f8 de 98 bd e2 96 1d bc 16 8b 76 bd
       -0.0033439193 -0.07464403 -0.009618493 -0.060191236
0000c0 85 11 c2 3c 83 98 8e 3c ec 25 4b 3e fd 89 ac bd
       0.023689995 0.017406708 0.19838685 -0.08424757
0000d0 2f ab 05 3d 8e 94 91 3c 8a 8f c5 3c a1 45 3e 3d
       0.032633957 0.017771032 0.024116296 0.046453122
0000e0 6a 69 75 3d ab d9 bc 3d 3e 06 90 bd 04 4b 50 3d
       0.059914984 0.09221204 -0.070324406 0.05085279
0000f0 af a4 9d bd 13 28 77 3d ec ba 18 3e 1b 2c 3b 3d
       -0.076974265 0.060340952 0.14915055 0.04569636
000100 b8 d6 dc bc e2 d0 48 3c 08 d5 ff bc 74 7b 76 bd
       -0.026957855 0.012256833 -0.03122951 -0.060176328
000110 cc d5 fe 3b 82 c5 41 3e a3 35 d9 bd 44 6b 9d 3d
       0.0077769514 0.18923 -0.106059335 0.07686475
000120 7e a1 73 bd 3e ea 45 be 6f 64 a5 bd ee ae 4e bc
       -0.059480183 -0.19327638 -0.08075797 -0.012614949
000130 d3 5a 0b bd a9 e1 85 bd b2 df 5e be 9a c1 e4 bc
       -0.034022164 -0.06537182 -0.2176502 -0.027924348
000140 c9 30 6c bd dd 63 e4 3d 40 d9 c0 3d ef 12 9b 3b
       -0.057663713 0.1115186 0.09416437 0.0047324817
000150 57 40 22 3e 27 67 0d be 6f bd 15 3d 9b 6f 0f 39
       0.15844856 -0.13808881 0.03655761 0.00013679119
000160 c9 c1 dc bd 74 bd 0f be 26 2d ff bd 76 69 c9 3d
       -0.10779149 -0.14037114 -0.12459783 0.09834568
000170 da 20 13 3e 3e e1 a1 bc 95 a9 b3 bd 1c 98 56 3d
       0.14368 -0.019760724 -0.087725796 0.052391157
000180 4c ae ab 3d 71 51 40 be 1c 54 22 3e aa d2 96 bd
       0.08382854 -0.18781067 0.15852398 -0.073644
000190 57 7a ae bd 6f 89 d0 3c ca 1e df bd 3f ee 4e 3c
       -0.08519428 0.025456158 -0.108945444 0.0126300445
0001a0 a5 d7 44 bd b1 00 8d 3d c2 f5 f3 3d 64 30 a1 3d
       -0.048057217 0.068848975 0.11912109 0.07870558
0001b0 f6 3e bd bd 0e 2e 24 3b ec 01 a5 3d 3a a3 24 bd
       -0.092405245 0.0025051865 0.08057007 -0.040194727
0001c0 1e 98 74 bd 83 3b 37 3e 20 b3 2b bd 67 da d5 bd
       -0.059715383 0.17893796 -0.041918874 -0.104420476
0001d0 87 02 47 bd 2b 96 7a 3c 01 1e 49 be 64 58 82 3b
       -0.048586395 0.015294592 -0.19640352 0.003977822
0001e0 5a f7 b1 bb ed 89 b2 3d 49 70 9b 3d fb a7 83 bb
       -0.005431098 0.087177135 0.07589776 -0.0040178276
0001f0 99 13 be bc 30 2d 54 3d e2 52 ac bd 8e e0 6c 3d
       -0.023202704 0.051800907 -0.08414246 0.05783134
000200 1c 6f 16 3d 70 c2 07 3d ba c6 ba bc 75 a7 a9 3b
       0.036727056 0.033144414 -0.022799838 0.005177433
000210 53 3d 5b bd 8c 84 aa 3d b9 97 5f 3d 78 36 99 3c
       -0.05352528 0.083260626 0.054588053 0.01870273
000220 a8 07 21 be 93 4e f1 3d c5 1d 12 bd 2a 1f 66 3d
       -0.15725577 0.11782565 -0.03567292 0.056182064
000230 da b4 2a 3d 45 ba 45 3d 91 ae 62 bd 56 b4 44 be
       0.04167638 0.048273344 -0.05534226 -0.19209418
000240 45 ef 98 3d e4 77 43 3d 62 a0 d9 bd 5b 95 07 bd
       0.07467512 0.04772176 -0.10626294 -0.03310142
000250 a3 ca 37 be df 5f c1 3c 09 a5 0c 3c da 54 8d bd
       -0.17948394 0.023605285 0.008584269 -0.0690095
000260 7e 61 09 bd 98 3d a9 3e 8a 8f 74 bd e1 bc f3 3d
       -0.03354024 0.33054805 -0.059707202 0.1190126
000270 cf 1e bc 3d 36 9e 91 bc e5 ff 17 be 7b 37 39 3e
       0.09185564 -0.017775636 -0.1484371 0.1808757
000280 da 43 27 3d 94 16 99 bd c9 44 9d 3d 3e d2 1b 3e
       0.040836193 -0.074750096 0.07679135 0.1521692
000290 9d 2c 51 be 10 38 34 3e 58 31 73 bd c9 2c f0 bd
       -0.20427175 0.17599511 -0.05937323 -0.11727292
0002a0 6c 29 be bd 11 61 57 3e e7 bc 2c 3d f7 19 1c be
       -0.09285244 0.21033122 0.04217234 -0.1524428
0002b0 f9 09 a2 3d b8 eb 6a 3d ce 4a 93 be e9 c3 04 bd
       0.079120584 0.057353705 -0.2876801 -0.032413397
0002c0 4b 6a 8b 3e e0 31 40 3e e4 c3 ca bb 93 2e 8f bb
       0.27229533 0.18769026 -0.0061879028 -0.0043695658
0002d0 c3 0f 8a 3d b8 8d cd bd c1 c5 5a 3d cd f4 8b bc
       0.067412876 -0.10036796 0.05341125 -0.017084504
0002e0 d3 18 25 3e 9b 23 d6 3d 5f f7 24 3d 89 22 74 3e
       0.16122751 0.1045601 0.040274974 0.23841299
0002f0 2d 96 8b 3d 0e 2b 7a bd c0 e6 0c bd 7f 9e 6c 3a
       0.06815753 -0.061076216 -0.034399748 0.00090263033
000300 7c 3d 49 3e 5e 1e a2 bb e3 a9 29 bc 17 da 08 be
       0.1965236 -0.0049474677 -0.010355446 -0.13364445
000310 b5 5b b9 bd 05 59 45 3e df 4a 67 3d cc bd e3 bd
       -0.09050695 0.1927224 0.056467887 -0.11120185
000320 7d f7 1c 3c ef a3 d3 bd 4f 59 3b be a8 19 1b be
       0.00958049 -0.10334002 -0.18295787 -0.15146506
000330 4e 7c 09 be 64 af 1a 3e 18 f6 3d be d0 60 f8 bd
       -0.13426325 0.15105969 -0.18550909 -0.121278405
000340 d7 da ca bd 0e f0 a2 3d 4c ec 33 bc 1c 6e 8d 3c
       -0.09905022 0.07955943 -0.0109816305 0.017264418
000350 0f 5a 01 3d 7b fc ee bc df 3b 95 3e 20 52 5c bd
       0.031580027 -0.029173126 0.2914724 -0.053789258
000360 c9 c5 ac be 4a d1 05 be 9d 9d 20 bd e5 a4 7d 3c
       -0.33744648 -0.13068119 -0.03921281 0.015481208
000370 3f c3 40 3e 1a c1 4c 3e 83 8e 32 be c6 0e 89 bc
       0.1882448 0.19995537 -0.17437176 -0.016730677
000380 7e 8f ae 3d fd 43 58 be 81 70 06 3e 02 c9 26 bc
       0.08523463 -0.21119685 0.13128854 -0.01017976
000390 1a 54 05 3e d0 2c 07 3d b6 8f bd 3b b6 9f 02 3d
       0.13020363 0.03300172 0.005784954 0.031890593
0003a0 38 61 41 3b ff 47 18 3c 83 f8 bb bb ba 45 2b 3e
       0.002950741 0.009294509 -0.005736412 0.16725817
0003b0 a5 c3 23 be 38 a2 ef 3c 11 41 f1 bd 47 a8 b4 3d
       -0.15992601 0.029252157 -0.117799886 0.08821159
0003c0 dd 37 97 bd 53 a1 9c 3d 2b 3c b6 3d a0 2a 97 3d
       -0.07383702 0.07647958 0.08898195 0.07381177
0003d0 81 15 af 3d ae 6d 21 3e ac eb 23 bc 6b f5 dd bb
       0.085490234 0.15764496 -0.010004919 -0.006773641
0003e0 09 99 a6 bb 78 e1 59 3d 1d 0a 7b bd e6 75 2a bd
       -0.005084161 0.05319354 -0.06128894 -0.041616343
0003f0 30 c6 19 be e7 28 3d be 52 ea ac 3b 99 d5 9f 3d
       -0.15017009 -0.18472634 0.0052769566 0.078044124

network_body._body_endoder.seq_layers.2.bias f4 [128]
000000 7a 70 06 bd 75 4c ac bc 70 02 8d bd 83 a0 cb bb
       -0.03282211 -0.021032551 -0.068852305 -0.006214203
000010 e3 07 15 bd d6 8b 6b bd 2c 9c 09 bd da 9c 0f bd
       -0.036384474 -0.057506405 -0.033596203 -0.035061695
000020 51 14 b8 bd 30 76 83 bc ef e8 09 bd e4 62 81 bc
       -0.0898825 -0.016047567 -0.03366941 -0.015794225
000030 4b 82 0f bd ce 3e ee 3b af 33 52 bd 9f df 89 bc
       -0.035036366 0.0072706705 -0.05131882 -0.016830264
000040 b4 3e 68 3c a0 2d 3e bd 69 44 81 bd 17 e5 aa bc
       0.014175106 -0.04643023 -0.06311876 -0.020861192
000050 f9 e5 80 bd 99 ab f9 3b 66 e5 ba bd c1 85 0c 3c
       -0.06293864 0.007619333 -0.091257855 0.008576811
000060 f9 e1 92 bd 0d 5e 3a bb de 33 94 bb 42 75 2b bd
       -0.07172007 -0.0028437406 -0.0045227846 -0.041859873
000070 2c 8e 18 bd 5c 55 2b bc 37 86 83 bd 0c 67 04 be
       -0.03724496 -0.010457363 -0.06422084 -0.12929934
000080 18 24 66 bd 70 f3 29 bd 48 22 02 bd 8d 6a 57 bc
       -0.056186765 -0.041491926 -0.031770974 -0.013147962
000090 c5 96 96 bd 56 06 76 bd b9 d6 0f bd 11 e0 0b bd
       -0.07352976 -0.060064636 -0.035116885 -0.034149233
0000a0 ea ce 79 bd fc 9b 23 bd be 68 8d bd 52 8e cf 3a
       -0.060988344 -0.03994368 -0.069047436 0.0015835261
0000b0 b4 2a b5 bc f3 7b 9f bd e1 2f f3 3c 5e e5 f8 bb
       -0.022115089 -0.07787313 0.029685916 -0.007595702
0000c0 3b f1 bd bc 9b 6f 62 bd 30 ae 04 bd 42 b2 a2 bd
       -0.023186317 -0.055282217 -0.03239268 -0.07944156
0000d0 46 bb 31 bd 0d cc b4 3b 72 b6 82 bc 68 c7 1a bd
       -0.04339149 0.005517489 -0.015956137 -0.037787825
0000e0 f5 d6 1d bd 71 d1 1e bd 6d 48 b3 3c 2d 27 1e bd
       -0.038535077 -0.038773958 0.021885121 -0.03861158
0000f0 d1 f7 8b bd 8b d3 27 bd 57 41 85 bd 00 b3 a2 bc
       -0.068343766 -0.040973227 -0.06506603 -0.019860744
000100 7b 7d 62 bd c3 43 18 bc d3 92 c8 3a ba 70 8d bd
       -0.05529545 -0.009293499 0.0015302546 -0.069062665
000110 db 50 e8 3b b9 45 d3 bd e3 73 dd bd 9d ac 37 bd
       0.007089717 -0.10316033 -0.10813119 -0.04484235
000120 14 47 7a bc 78 7d c3 bd 0d f3 3b bd 0c df 9a bd
       -0.015275735 -0.09545416 -0.04588609 -0.07562074
000130 a1 26 43 bd 16 bb a5 bd 30 19 03 bd ac a5 09 bd
       -0.04764426 -0.080923244 -0.032006443 -0.033605263
000140 f0 bb ac bc 7e 56 4f bd c6 3e b1 bd f2 17 84 bd
       -0.02108571 -0.050619595 -0.08654551 -0.0644988
000150 81 63 72 bc a4 59 ae bd a2 ea ab bd 41 89 1d bd
       -0.014794231 -0.08513191 -0.08394362 -0.038460974
000160 c2 48 6a bc 5b d7 01 bd b1 0e a4 bd 6a 80 5d bd
       -0.014299573 -0.03169952 -0.08010615 -0.054077543
000170 f7 b5 51 bd 96 f5 28 bd a5 4b 9b bd 99 d0 25 bc
       -0.051198926 -0.041249834 -0.075827874 -0.010120534
000180 f6 d9 b0 bd a3 0d 81 bd 03 fd 18 bd e8 c7 97 bd
       -0.08635323 -0.06301429 -0.037350666 -0.07411176
000190 18 ee 07 bd 53 04 57 bd 9b e5 8e bd 66 af 95 bc
       -0.03318605 -0.05249436 -0.069773875 -0.018272113
0001a0 e9 ab fe bc 8a 6c 25 bd 9d 20 91 bd 2c 20 9f bd
       -0.031087833 -0.040386714 -0.070862986 -0.07769808
0001b0 c6 ee 49 bd 34 17 a1 bd 4a 75 06 bd c8 bb 8e bd
       -0.049299978 -0.07865754 -0.0328267 -0.0696941
0001c0 d6 67 86 bd 06 91 73 bd aa 34 92 bc 0f c5 c4 bd
       -0.06562774 -0.059464477 -0.017847378 -0.096078984
0001d0 0a c5 7c bd 23 6a b3 bd 60 e1 1b bd d7 c0 50 bd
       -0.06171135 -0.08760478 -0.03805673 -0.050965156
0001e0 9e 90 8e bd dd 6f 68 bd 06 00 43 bd a3 a0 5d bd
       -0.06961177 -0.056747306 -0.047607444 -0.054108273
0001f0 33 91 93 bd 93 45 e9 bc c8 bd 72 bd fb 0c 79 bd
       -0.07205429 -0.028475558 -0.05926302 -0.060803395

action_model._continuous_distribution.log_sigma f4 [1, 4]
000000 5a b4 19 c1 61 c2 21 c1 22 35 21 c1 ac f4 1a c1
       -9.606531 -10.109956 -10.075472 -9.684734

action_model._continuous_distribution.mu.weight f4 [4, 128]
000000 74 20 07 bd db 92 0f bd 5e f6 cc bc b2 db 29 bd
       -0.032989934 -0.03505216 -0.02501982 -0.041469283
000010 d6 6e e6 bd fa 45 fc bd 1b ab 8b bc 55 bf 24 bd
       -0.11251609 -0.123180345 -0.017049363 -0.04022153
000020 54 11 b4 bc 6b 4b e4 bd 0b 06 d6 bc 6f b0 e1 bc
       -0.021980919 -0.11147197 -0.026125928 -0.02754995
000030 27 1d 3d bd 7c 4c 54 39 03 e4 83 bc c5 3d 2c bc
       -0.04617038 0.00020246388 -0.016099935 -0.010512774
000040 2a 0f 3b 3c bb 5f dc 3c 25 ee 06 bc 9a 82 bb bd
       0.01141719 0.026901117 -0.008235489 -0.0915577
000050 c0 0b 0a bd 8c 9f 0f 3d a4 eb 99 bd bc c0 8d bd
       -0.033702612 0.035064265 -0.07515648 -0.06921527
000060 13 58 b8 bd 0b 56 17 bd 36 09 e3 bd e9 c7 85 bd
       -0.09001174 -0.03694729 -0.11085741 -0.065322705
000070 b8 fd 7e bd 20 13 19 3d 46 ec 4f bd e3 3f b7 bc
       -0.062253684 0.037371755 -0.050762437 -0.02236933
000080 df ac 8a bc 81 b6 28 bd ac 1a 60 3c 4a 94 89 bd
       -0.016928134 -0.041189674 0.013678234 -0.06717737
000090 09 5a 2e bd 88 29 dc bc 5e b3 58 bd 7b 58 aa bd
       -0.042566333 -0.026875272 -0.052905433 -0.083176576
0000a0 8f da b6 bd 8f ca dd bc 7a 1c 81 bd a7 fd 33 bd
       -0.089284055 -0.027074127 -0.063042596 -0.043943074
0000b0 da 77 17 3c 05 b3 73 bc 55 1c a1 39 75 94 92 bd
       0.009244883 -0.014874225 0.00030729422 -0.07157222
0000c0 65 10 10 3c 09 34 c1 3d 89 87 18 be 35 8d 60 bd
       0.008792971 0.09433753 -0.14895453 -0.054822166
0000d0 b0 1e 65 bd 27 8a 82 bd b0 d7 32 be b5 8c 44 bc
       -0.05593747 -0.06374007 -0.17465091 -0.011996438
0000e0 95 e0 73 bc ff ce cf bd 8e 8d a2 bc fc a5 c3 bb
       -0.0148850875 -0.10146903 -0.01984289 -0.0059707146
0000f0 8a 8c 8f bc bc 0a 7d 3d 79 f5 76 bd 05 19 e9 bd
       -0.017523069 0.061777815 -0.060292695 -0.11381725
000100 97 41 c7 3c 1a 06 44 bc 3d 4b 8f bc 5f 3a 3d bd
       0.024323268 -0.011964345 -0.017491931 -0.046198245
000110 06 be c3 bd d5 90 31 3c e8 e2 20 bd fd 10 b4 bc
       -0.095577285 0.010837753 -0.039278895 -0.021980757
000120 e0 87 32 3c 6f 4f 63 bd d6 65 07 bd 8e 95 05 3c
       0.010896653 -0.055495676 -0.033056103 0.008153332
000130 08 6a f7 bd e1 77 a1 bd d8 c6 9a bd 88 da 71 bb
       -0.12080771 -0.07884193 -0.07557458 -0.0036903936
000140 dc 33 3e bd 3f 2b 78 bd 88 08 60 bd f2 e3 cb bc
       -0.046436176 -0.060588118 -0.054695636 -0.024888966
000150 1d 2a 87 bc 5d 9e 25 bc 15 1d 9d bd 55 c5 ed ba
       -0.016499573 -0.0101085575 -0.076715626 -0.0018140475
000160 ce d1 de bd 2d 87 25 bc 14 9d 9b bc 32 1d 43 bd
       -0.10879861 -0.010103029 -0.0189958 -0.047635265
000170 29 4b db bc 8c a2 4b bd e2 e3 1a bc c7 7f 4c bd
       -0.026769238 -0.049715564 -0.009453746 -0.049926545
000180 ae ba 86 bb b1 1c 99 bc af 41 80 bd 85 43 4f bd
       -0.0041116094 -0.018690439 -0.06262528 -0.0506015
000190 0f 24 89 bd d4 28 f8 bc 99 26 4d 3d 06 ef 2f bd
       -0.06696331 -0.030292906 0.050085638 -0.04295256
0001a0 5d bb 5b bd fc 9f 83 ba 25 6e 5e 3d 57 db 3e bd
       -0.05364548 -0.0010042186 0.05430426 -0.046595898
0001b0 78 25 50 bb b2 f0 ce bc cc 12 d1 bc 52 f6 c0 bc
       -0.0031760614 -0.025261257 -0.025521658 -0.023554955
0001c0 cc 03 37 bc 18 8f d6 bb 19 fd 82 bd ec 03 3d bc
       -0.011170339 -0.00654782 -0.06395931 -0.01153658
0001d0 3d 57 8a bd 90 07 f9 bd 81 24 4a bd 3e 42 3f bd
       -0.06754921 -0.121596456 -0.04935122 -0.046694033
0001e0 ba df f0 bd 6d b5 9f bb ba cf 14 bd 13 95 0a bc
       -0.117614225 -0.0048739226 -0.036330916 -0.008458394
0001f0 f8 26 24 bc 16 06 5a ba 61 89 d5 bc 8a a9 f4 bc
       -0.0100190565 -0.0008316947 -0.026066484 -0.029865999
000200 63 25 b4 3b ce 03 2a 3c ac e0 da bb 59 83 08 bb
       0.005497621 0.010376884 -0.006679615 -0.0020830242
000210 03 ab 03 3a b3 c8 17 3b 84 71 88 3c c6 1a 79 3c
       0.0005022736 0.0023160398 0.016655691 0.015204137
000220 49 cb d1 3c b0 4e 72 3a 69 93 11 3d 88 d4 96 3b
       0.02560963 0.0009243293 0.035540972 0.0046029724
000230 cb c0 94 3c 67 c3 8c b9 e5 2d 9d 3c 17 8f 72 39
       0.018158337 -0.00026848467 0.019186923 0.00023132224
000240 5c a5 9a 3c fd ec fa 3b e8 16 6b 3b 18 b4 5e 3c
       0.018877678 0.0076576457 0.0035871807 0.013592742
000250 a1 62 1f 3b e2 05 6c 3b 73 8e c1 3c da a7 88 3c
       0.0024320262 0.0036014249 0.023627495 0.0166816
000260 01 e5 9b 3a 15 f2 8c 3c 15 9a 3d 3b 35 c9 83 3c
       0.001189381 0.017205277 0.0028930951 0.016087154
000270 af b1 03 3b 37 01 2d b7 87 9f c5 bc 8d 34 15 bc
       0.0020094921 -1.0311886e-05 -0.02412392 -0.009106767
000280 b8 9e c7 3b 66 8c d0 3c 7e bc d3 3b 4f b8 2a 3c
       0.006091919 0.025457572 0.006461679 0.010419919
000290 0a d5 44 3c 97 65 94 3c 24 95 c4 bc b2 ab e8 3b
       0.012013683 0.018114848 -0.023996897 0.007100546
0002a0 25 98 e8 3b bd a2 a8 3b 32 75 6b 3a 33 a9 20 3a
       0.007098215 0.005146353 0.0008982002 0.0006128728
0002b0 ef 1f 48 3a 26 44 bd 3a 8c b8 87 3b 6b 8a 9a 3b
       0.0007634153 0.0014439865 0.0041418727 0.0047162077
0002c0 37 48 e6 ba 82 47 b2 bb eb d4 67 3c d5 7b f8 ba
       -0.0017569129 -0.0054406533 0.014149885 -0.0018957803
0002d0 0b f9 75 3b a7 0f 33 bc 57 8f 11 3a 09 13 9e ba
       0.0037532474 -0.010929025 0.00055526703 -0.0012060116
0002e0 90 f2 fb 3b fc 81 97 3b fb d4 a8 b7 0c 12 18 3c
       0.007688828 0.0046236496 -2.0126337e-05 0.009281646
0002f0 b9 0c 48 3c 0e a3 ac bb f9 a3 cc bb b1 43 7d 3c
       0.012210065 -0.005268461 -0.006245133 0.015458033
000300 5e 23 03 bc 64 d7 8e ba ac 4b cb b9 b3 53 15 bc
       -0.008004038 -0.0010897932 -0.00038775557 -0.009114194
000310 67 49 b3 3c aa 1f 62 3c c2 1a 91 bb 5a 6f cb 3b
       0.021885587 0.013801495 -0.0044282386 0.0062083425
000320 da c1 c6 b9 71 7f 6f bc 01 4f 05 3c b7 4d 54 bb
       -0.00037909934 -0.014617787 0.008136512 -0.0032394954
000330 45 82 a6 3c 3f 26 d1 3b 75 91 08 3c 2b 30 b7 ba
       0.02032579 0.006382733 0.008335461 -0.0013976147
000340 29 ef d7 3b 41 5d 41 3c 95 cc 00 ba 75 26 8c 3b
       0.0065897894 0.011802019 -0.00049132976 0.0042770454
000350 68 94 92 bb 85 4f d5 ba 99 0d 09 3d 00 29 27 3c
       -0.004473258 -0.0016274309 0.033460233 0.010202646
000360 9f 15 d9 3b 61 2a e6 3c e6 03 57 bc 9d fa 81 3c
       0.006624892 0.02809638 -0.013123488 0.015866572
000370 96 33 3d bb 48 c8 6a bb 6b c1 bf 3b 98 3e ae 3b
       -0.002886986 -0.0035824943 0.0058519146 0.0053175204
000380 63 b7 30 bb 92 8b c8 3b 22 72 93 3b 0a 73 74 bc
       -0.0026964776 0.0061201537 0.0044996897 -0.014920006
000390 df 5a e1 3c 58 8c e4 ba db e4 8c ba ef e7 22 bc
       0.027509151 -0.0017436845 -0.0010749357 -0.009942993
0003a0 61 1e b5 3b db c7 53 3b 12 d5 0b 3b 49 92 0f 3b
       0.005527303 0.0032315168 0.0021336717 0.002190726
0003b0 6b a3 29 3a d2 75 97 bb 7e c2 81 3a a2 a3 ba 3c
       0.00064711896 -0.0046221996 0.0009899882 0.022783104
0003c0 c8 20 eb bb ce a2 78 bb eb 29 d8 3b 66 04 41 3c
       -0.0071755387 -0.0037938836 0.006596794 0.011780834
0003d0 3c a5 07 bc 89 c8 03 3c c1 33 d7 3b eb 24 74 3c
       -0.008279141 0.008043417 0.006567449 0.01490138
0003e0 bc f4 7b bc 75 68 9c 3c 07 d8 20 bc 38 0b 60 3a
       -0.015378173 0.019092778 -0.00981713 0.00085465936
0003f0 49 59 64 3c d7 00 1c bc 95 77 b0 ba 5e 6d 22 3c
       0.013937303 -0.009521685 -0.0013463373 0.0099137705

action_model._continuous_distribution.mu.bias f4 [4]
000000 0c e9 08 3e aa b9 4b bb cb 0d 32 bc f4 0c ea 3b
       0.1337015 -0.0031086006 -0.010867546 0.0071426574

exp_avg f4 [128, 101]
000000 04 00 00 00 08 24 69 3c 04 00 00 80 04 00 00 00
       6e-45 0.014229782 -6e-45 6e-45
000010 5c 3d 2e 3a 04 00 00 00 00 00 00 00 d7 37 aa 3c
       0.00066467165 6e-45 0.0 0.02077858
000020 a3 5e 0b 39 44 7c b1 3b d4 16 8f 3b 1e e1 3e 37
       0.00013291328 0.005416425 0.004366735 1.1377297e-05
000030 d8 70 87 3c 00 00 00 00 c3 eb f6 3b 04 00 00 80
       0.0165333 0.0 0.007535429 -6e-45
000040 a5 e2 61 b2 9a 4e ab 3c 00 00 00 00 60 1d 28 3b
       -1.3148257e-08 0.020911504 0.0 0.0025652274
000050 04 00 00 80 e5 ed 57 37 94 33 ab 3c 00 00 00 00
       -6e-45 1.2870388e-05 0.020898618 0.0
000060 e1 43 a6 3b 04 00 00 80 bf 4e 01 3c 69 4e 55 3c
       0.0050740098 -6e-45 0.00789231 0.013019183
000070 00 00 00 00 4b cf 91 3a 04 00 00 80 06 bc 6b 39
       0.0 0.00111244 -6e-45 0.0002248139
000080 1c 77 a9 3c 00 00 00 00 81 da 71 3a 04 00 00 80
       0.020686679 0.0 0.000922598 -6e-45
000090 90 38 58 3c 2e c9 fc 3b 00 00 00 00 1c 03 ef 38
       0.013197079 0.007714412 0.0 0.00011396987
0000a0 04 00 00 80 f2 6b 43 3c 34 31 13 3c 00 00 00 00
       -6e-45 0.011927592 0.008983899 0.0
0000b0 4a 06 dd 38 04 00 00 00 9b 6f 84 3c dc 7b 9b 3b
       0.000105392726 6e-45 0.016166499 0.00474499
0000c0 00 00 00 00 07 b9 83 38 04 00 00 00 9b 6f 84 3c
       0.0 6.281031e-05 6e-45 0.016166499
0000d0 dc 7b 9b 3b 00 00 00 00 07 b9 83 38 c3 eb f6 3b
       0.00474499 0.0 6.281031e-05 0.007535429
0000e0 93 4e ab 3c 60 1d 28 3b 93 4e ab 3c e1 43 a6 3b
       0.02091149 0.0025652274 0.02091149 0.0050740098
0000f0 93 4e ab 3c 4b cf 91 3a 93 4e ab 3c 81 da 71 3a
       0.02091149 0.00111244 0.02091149 0.000922598
000100 93 4e ab 3c 1c 03 ef 38 93 4e ab 3c 4a 06 dd 38
       0.02091149 0.00011396987 0.02091149 0.000105392726
000110 93 4e ab 3c 07 b9 83 38 93 4e ab 3c 07 b9 83 38
       0.02091149 6.281031e-05 0.02091149 6.281031e-05
000120 93 4e ab 3c 5c 3d 2e 3a 93 4e ab 3c 44 7c b1 3b
       0.02091149 0.00066467165 0.02091149 0.005416425
000130 d7 37 aa 3c 52 49 b2 3e 93 4e ab 3c 5f 1a b9 3f
       0.02077858 0.34821564 0.02091149 1.4461173
000140 a1 69 8e bb 7b d9 35 3a 7b f7 a5 3c 8d 2f 07 bf
       -0.004346088 0.0006937009 0.02025961 -0.5280693
000150 c8 ed 06 bf be b4 0a bf 14 93 f5 be c7 93 66 bd
       -0.52706575 -0.5418204 -0.47963774 -0.056293275
000160 49 90 31 bd a3 90 67 b7 f2 d7 86 bb 1a 2f 0c 3d
       -0.04335049 -1.3802349e-05 -0.004115098 0.034224607
000170 95 a5 56 bc 12 da 47 bb 4f 24 dd 3e 75 31 eb 3b
       -0.013101001 -0.003049497 0.43191764 0.0071775266
000180 45 ea 87 3f 6f 27 9d bb de fa ff 3b 33 b2 93 3c
       1.0618368 -0.0047959606 0.007811888 0.018029308
000190 75 31 eb 3b 04 00 00 00 b7 4f 06 bb 04 00 00 00
       0.0071775266 6e-45 -0.002049429 6e-45
0001a0 04 00 00 80 d3 75 0d 3a 04 00 00 00 00 00 00 00
       -6e-45 0.00053962803 6e-45 0.0
0001b0 4c 2a b8 bb 29 5f 85 3a be 1a 48 3b 22 32 8a bb
       -0.0056202766 0.0010175455 0.0030533518 -0.004217402
0001c0 22 a6 39 b8 cb 77 b9 b8 00 00 00 00 73 14 fd ba
       -4.426216e-05 -8.8438006e-05 0.0 -0.0019308463
0001d0 04 00 00 80 31 01 46 b9 7a a2 90 bb 00 00 00 00
       -6e-45 -0.00018883195 -0.0044139 0.0
0001e0 e4 d2 51 b9 04 00 00 80 f0 31 2b b9 ac 3c 91 bb
       -0.00020010356 -6e-45 -0.00016326434 -0.0044322815
0001f0 00 00 00 00 99 ec b4 ba 04 00 00 80 38 0a 3c bb
       0.0 -0.0013803422 -6e-45 -0.0028692614
000200 a1 35 e3 ba 00 00 00 00 bc bf ed 38 04 00 00 80
       -0.0017334708 0.0 0.00011336754 -6e-45
000210 a1 21 13 38 c7 f8 97 bb 00 00 00 00 68 e6 84 39
       3.507885e-05 -0.004637811 0.0 0.00025348668
000220 04 00 00 00 e0 4a c6 bb 6f e1 bd 3a 00 00 00 00
       6e-45 -0.0060514063 0.001448674 0.0
000230 32 45 95 38 04 00 00 00 de d1 c1 bb 65 fd ab 3a
       7.117762e-05 6e-45 -0.0059149107 0.0013121782
000240 00 00 00 00 d0 ca 9e 38 04 00 00 80 c1 7e 0a bc
       0.0 7.571804e-05 -6e-45 -0.008453072
000250 fa 55 7c 3b 00 00 00 00 e1 30 81 38 04 00 00 80
       0.0038503394 0.0 6.160304e-05 -6e-45
000260 c1 7e 0a bc fa 55 7c 3b 00 00 00 00 e1 30 81 38
       -0.008453072 0.0038503394 0.0 6.160304e-05
000270 73 14 fd ba 85 d2 96 bb e4 d2 51 b9 85 d2 96 bb
       -0.0019308463 -0.0046027326 -0.00020010356 -0.0046027326
000280 99 ec b4 ba 85 d2 96 bb bc bf ed 38 85 d2 96 bb
       -0.0013803422 -0.0046027326 0.00011336754 -0.0046027326
000290 68 e6 84 39 85 d2 96 bb 32 45 95 38 85 d2 96 bb
       0.00025348668 -0.0046027326 7.117762e-05 -0.0046027326
0002a0 d0 ca 9e 38 85 d2 96 bb e1 30 81 38 85 d2 96 bb
       7.571804e-05 -0.0046027326 6.160304e-05 -0.0046027326
0002b0 e1 30 81 38 85 d2 96 bb d3 75 0d 3a 85 d2 96 bb
       6.160304e-05 -0.0046027326 0.00053962803 -0.0046027326
0002c0 be 1a 48 3b 4c 2a b8 bb 9c a7 fa be 85 d2 96 bb
       0.0030533518 -0.0056202766 -0.48956 -0.0046027326
0002d0 1c f4 8b be da a2 06 3b 8f 4d 13 ba a3 47 8d bb
       -0.27334678 0.0020543844 -0.0005619162 -0.0043115183
0002e0 22 12 91 3e a9 19 91 3e 05 ce 83 3e 03 e4 67 3e
       0.28334147 0.2833989 0.25743118 0.22645573
0002f0 56 d8 d4 3c 69 c7 a0 3c fa 2b 88 3a b9 0e 41 3b
       0.025982063 0.019626336 0.0010389083 0.0029458238
000300 22 41 86 bc c1 2d bb 3b e5 32 18 3b 7a 64 07 bf
       -0.01638848 0.0057122414 0.0023223695 -0.5288769
000310 64 97 db 3b 78 af 3d be 3c 02 11 3b 54 4b 86 bb
       0.006701397 -0.18523967 0.0022126576 -0.0040983353
000320 6f 14 51 bb 64 97 db 3b 04 00 00 80 d7 16 43 b8
       -0.0031903049 0.006701397 -6e-45 -4.6512894e-05
000330 04 00 00 80 04 00 00 80 23 46 89 b6 04 00 00 00
       -6e-45 -6e-45 -4.091083e-06 6e-45
000340 00 00 00 00 b9 10 35 b8 65 48 a1 b5 11 9b 1b b8
       0.0 -4.3169337e-05 -1.2016504e-06 -3.7099297e-05
000350 e2 df dd b7 b3 6c 8c b5 28 37 9b b7 00 00 00 00
       -2.6449507e-05 -1.0462448e-06 -1.8503124e-05 0.0
000360 65 76 60 b7 04 00 00 00 25 aa 0d b4 56 8d 39 b8
       -1.3379006e-05 6e-45 -1.3193547e-07 -4.4239066e-05
000370 00 00 00 00 80 f9 02 b7 04 00 00 00 df 54 0b b4
       0.0 -7.806695e-06 6e-45 -1.297626e-07
000380 8b 15 39 b8 00 00 00 00 ae 08 14 b7 04 00 00 80
       -4.41275e-05 0.0 -8.823508e-06 -6e-45
000390 01 f1 f4 35 87 c2 41 b8 00 00 00 00 6d 09 ab b6
       1.8249558e-06 -4.6195953e-05 0.0 -5.0972944e-06
0003a0 04 00 00 80 22 d3 b9 b5 63 4c 34 b8 00 00 00 00
       -6e-45 -1.3845022e-06 -4.2986485e-05 0.0
0003b0 05 de ac b6 04 00 00 00 d0 e2 4f b6 d1 1c 2d b8
       -5.151846e-06 6e-45 -3.0977426e-06 -4.127325e-05
0003c0 00 00 00 00 20 59 c0 b4 04 00 00 80 ae 1b 44 b7
       0.0 -3.5827634e-07 -6e-45 -1.1688955e-05
0003d0 12 14 09 b8 00 00 00 00 3a 11 b0 b4 04 00 00 80
       -3.2682037e-05 0.0 -3.279509e-07 -6e-45
0003e0 80 fd 10 b7 9e db 15 b8 00 00 00 00 e7 b0 72 b4
       -8.642091e-06 -3.5728903e-05 0.0 -2.2602363e-07
0003f0 04 00 00 80 80 fd 10 b7 9e db 15 b8 00 00 00 00
       -6e-45 -8.642091e-06 -3.5728903e-05 0.0

exp_avg_sq f4 [128, 101]
000000 b6 7e 30 1d 25 b6 2b 3c 02 b2 fd 35 e6 72 91 37
       2.3358914e-21 0.010480438 1.8901776e-06 1.733885e-05
000010 c9 17 cb 38 c3 34 f3 1b 00 00 00 00 50 83 03 3c
       9.684225e-05 4.0235074e-22 0.0 0.008026913
000020 35 5e b4 3b 40 a3 f1 3b 68 38 9d 3b 51 7c 92 3a
       0.0055043944 0.0073741972 0.004797984 0.0011175965
000030 c4 5d f6 3b 00 00 00 00 bf 85 b5 3a 71 af 75 2b
       0.007518502 0.0 0.0013849064 8.728496e-13
000040 3e 14 2b 3a 75 65 63 3c 00 00 00 00 c7 2d fd 39
       0.00065261486 0.01387917 0.0 0.00048290027
000050 8b 89 c8 2d d6 50 19 3a 35 69 65 3c 00 00 00 00
       2.2798449e-11 0.00058485323 0.014002134 0.0
000060 ae 94 0e 3a 8d f2 8b 24 f8 04 68 3a 2a aa 53 3c
       0.0005439025 6.069254e-17 0.0008850838 0.012918988
000070 00 00 00 00 07 56 6c 39 e8 7e 6e 25 28 ac bf 39
       0.0 0.00022538762 2.0686207e-16 0.00036558625
000080 bf dd 63 3c 00 00 00 00 b3 03 62 39 b9 11 3e 25
       0.013907849 0.0 0.00021554418 1.6485878e-16
000090 9b c6 0e 3a f2 02 5e 3c 00 00 00 00 5b 80 a6 35
       0.00054464646 0.013550507 0.0 1.240532e-06
0000a0 f7 d2 38 2b 8f 3a fc 39 08 21 5e 3c 00 00 00 00
       6.5662704e-13 0.00048108815 0.01355768 0.0
0000b0 a4 9f 9e 35 5f e9 89 25 dd 71 22 3a ce 84 5e 3c
       1.1818379e-06 2.392385e-16 0.00061967765 0.013581468
0000c0 00 00 00 00 1e 45 23 35 5f e9 89 25 dd 71 22 3a
       0.0 6.082281e-07 2.392385e-16 0.00061967765
0000d0 ce 84 5e 3c 00 00 00 00 1e 45 23 35 bf 85 b5 3a
       0.013581468 0.0 6.082281e-07 0.0013849064
0000e0 88 a4 6b 3c c7 2d fd 39 88 a4 6b 3c ae 94 0e 3a
       0.014382489 0.00048290027 0.014382489 0.0005439025
0000f0 88 a4 6b 3c 07 56 6c 39 88 a4 6b 3c b3 03 62 39
       0.014382489 0.00022538762 0.014382489 0.00021554418
000100 88 a4 6b 3c 5b 80 a6 35 88 a4 6b 3c a4 9f 9e 35
       0.014382489 1.240532e-06 0.014382489 1.1818379e-06
000110 88 a4 6b 3c 1e 45 23 35 88 a4 6b 3c 1e 45 23 35
       0.014382489 6.082281e-07 0.014382489 6.082281e-07
000120 88 a4 6b 3c c9 17 cb 38 14 64 6b 3c 40 a3 f1 3b
       0.014382489 9.684225e-05 0.014367122 0.0073741972
000130 50 83 03 3c 9a c6 e4 3f 88 a4 6b 3c de 70 18 43
       0.008026913 1.7873108 0.014382489 152.44089
000140 9f 43 10 38 ed 12 c3 37 53 a8 6a 3c 27 9f 8c 40
       3.4395252e-05 2.3254624e-05 0.014322358 4.394428
000150 5a bb 87 40 cd a7 ac 3f 2e 6d 56 3f 83 41 8c 3c
       4.24162 1.3488709 0.83760345 0.017121082
000160 40 cf 5f 3c ad 05 6a 3d 59 14 66 3d ee ca 7a 3b
       0.013660252 0.05713432 0.05617175 0.0038267928
000170 ef 2c f3 3c 40 bf c6 3a 5c bd f8 3f 19 d7 3f 3c
       0.029684512 0.0015163198 1.9432788 0.011708998
000180 ba 1e d1 42 db 5e 5c 38 8b fa 17 3a 87 65 60 3c
       104.56001 5.254043e-05 0.00057975267 0.013696081
000190 19 d7 3f 3c d3 7c dc 1f da fd 95 3b 36 43 fc 34
       0.011708998 9.338013e-20 0.0045773806 4.698756e-07
0001a0 0f 08 19 37 4c 4a 9f 38 ab d3 56 21 00 00 00 00
       9.121387e-06 7.59555e-05 7.278616e-19 0.0
0001b0 13 86 75 3b 63 46 ed 3a b1 34 86 3b dd f0 16 3b
       0.0037463948 0.0018102642 0.004095637 0.002303175
0001c0 12 75 03 3a b4 15 22 3b 00 00 00 00 db 7a 04 3a
       0.0005014698 0.0024732174 0.0 0.0005053707
0001d0 70 90 c6 34 4b cd ab 39 68 1c b5 3b 00 00 00 00
       3.6985466e-07 0.00032768617 0.005527068 0.0
0001e0 57 55 54 39 ff 39 65 2b bb 25 a7 39 eb fb b4 3b
       0.00020249687 8.143763e-13 0.00031880834 0.005523195
0001f0 00 00 00 00 b6 c4 57 39 37 41 55 24 d8 19 34 39
       0.0 0.00020577278 4.6242252e-17 0.00017175765
000200 6f 31 b3 3b 00 00 00 00 52 f4 c6 38 7f b5 28 24
       0.0054685394 0.0 9.486884e-05 3.6582926e-17
000210 a3 af c8 38 5e c7 b6 3b 00 00 00 00 89 40 ca 38
       9.569458e-05 0.0055779656 0.0 9.644131e-05
000220 97 8a c5 23 d4 b2 e8 38 bc ad b9 3b 00 00 00 00
       2.1417478e-17 0.000110959314 0.0056664627 0.0
000230 33 39 b5 36 ff ab c2 2c c7 5b e1 38 d3 40 ba 3b
       5.400879e-06 5.532907e-12 0.00010745931 0.005683997
000240 00 00 00 00 14 b1 8b 36 a4 b4 d5 29 3c 04 17 39
       0.0 4.1631374e-06 9.490436e-14 0.0001440206
000250 a8 a2 bb 3b 00 00 00 00 d7 0a 20 36 a4 b4 d5 29
       0.0057261772 0.0 2.3848168e-06 9.490436e-14
000260 3c 04 17 39 a8 a2 bb 3b 00 00 00 00 d7 0a 20 36
       0.0001440206 0.0057261772 0.0 2.3848168e-06
000270 db 7a 04 3a a5 34 bb 3b 57 55 54 39 a5 34 bb 3b
       0.0005053707 0.005713063 0.00020249687 0.005713063
000280 b6 c4 57 39 a5 34 bb 3b 52 f4 c6 38 a5 34 bb 3b
       0.00020577278 0.005713063 9.486884e-05 0.005713063
000290 89 40 ca 38 a5 34 bb 3b 33 39 b5 36 a5 34 bb 3b
       9.644131e-05 0.005713063 5.400879e-06 0.005713063
0002a0 14 b1 8b 36 a5 34 bb 3b d7 0a 20 36 a5 34 bb 3b
       4.1631374e-06 0.005713063 2.3848168e-06 0.005713063
0002b0 d7 0a 20 36 a5 34 bb 3b 4c 4a 9f 38 90 f3 ba 3b
       2.3848168e-06 0.005713063 7.59555e-05 0.0057053044
0002c0 b1 34 86 3b 13 86 75 3b 36 01 d7 40 a5 34 bb 3b
       0.004095637 0.0037463948 6.718898 0.005713063
0002d0 f2 ac 4b 42 21 e3 f4 36 5c 75 52 37 1e be ba 3b
       50.91889 7.298208e-06 1.25443e-05 0.0056989333
0002e0 c9 8c 71 3f 60 51 66 3f 8f 60 a8 3e c6 40 51 3e
       0.94355446 0.8996792 0.32886168 0.20434865
0002f0 0d 99 9f 3b 5c 71 91 3b ad 4f 4a 3c 18 b6 47 3c
       0.00487054 0.0044385623 0.012348098 0.012189411
000300 bb e6 3a 3a b3 70 c5 3b 5c 06 ec 39 46 54 d9 40
       0.00071297184 0.0060253977 0.00045018166 6.7915373
000310 7f e3 1a 3c c4 ed 07 42 7e b2 9b 37 8b 39 03 39
       0.009453653 33.982193 1.8560557e-05 0.0001251457
000320 1c d2 b6 3b 7f e3 1a 3c 40 7a 29 20 ac b3 63 35
       0.005579246 0.009453653 1.4355306e-19 8.4825547e-07
000330 2a 6e 3e 34 d5 c7 44 2d 07 16 82 32 0e f9 f0 22
       1.7735206e-07 1.1185682e-11 1.5144009e-08 6.5315827e-18
000340 00 00 00 00 22 de 66 35 e1 57 88 34 38 31 85 35
       0.0 8.600492e-07 2.5395914e-07 9.923597e-07
000350 0f 56 3a 35 1f 74 0d 33 d7 8d f0 34 00 00 00 00
       6.941563e-07 3.2934732e-08 4.4806686e-07 0.0
000360 f7 7a 9e 33 6f b0 3d 30 9a a1 98 32 02 c4 99 35
       7.3798155e-08 6.9008527e-10 1.7768617e-08 1.1456434e-06
000370 00 00 00 00 60 a1 06 33 df 28 48 2b 8b cf 7f 33
       0.0 3.1346076e-08 7.1110994e-13 5.9560573e-08
000380 2f 38 86 35 00 00 00 00 dc 36 10 33 c0 33 a2 23
       1.000013e-06 0.0 3.3577507e-08 1.7585992e-17
000390 13 b6 f3 32 49 82 97 35 00 00 00 00 0b dc 96 32
       2.8371721e-08 1.1288295e-06 0.0 1.7562362e-08
0003a0 9b 33 30 23 b2 0f a1 33 15 1a 85 35 00 00 00 00
       9.551907e-18 7.500002e-08 9.916863e-07 0.0
0003b0 44 95 85 32 bf e8 f2 23 2d 50 e1 32 15 23 97 35
       1.5551116e-08 2.6336264e-17 2.6229907e-08 1.1260587e-06
0003c0 00 00 00 00 18 ea fa 31 ce 8a e6 23 88 c4 66 34
       0.0 7.302571e-09 2.4995436e-17 2.1491917e-07
0003d0 98 46 70 35 00 00 00 00 bd 35 eb 30 80 b4 44 23
       8.9509695e-07 0.0 1.7113774e-09 1.0663404e-17
0003e0 46 69 8f 34 f7 04 67 35 00 00 00 00 31 1c 30 31
       2.6712422e-07 8.606143e-07 0.0 2.5627396e-09
0003f0 80 b4 44 23 46 69 8f 34 f7 04 67 35 00 00 00 00
       1.0663404e-17 2.6712422e-07 8.606143e-07 0.0

exp_avg f4 [128]
000000 93 4e ab 3c 85 d2 96 bb fe 1a 3a b8 69 f6 85 39
       0.02091149 -0.0046027326 -4.4370994e-05 0.00025551327
000010 5a 08 b4 3a 81 a9 a2 36 fc fd 51 bc f9 76 ca 3b
       0.0013735399 4.847709e-06 -0.012816902 0.0061787334
000020 97 69 1a b9 4c fc cd ba 31 2f fc bc d6 37 18 3c
       -0.0001472592 -0.0015715449 -0.030784221 0.009290656
000030 a3 52 34 3c 7f 22 0c bc c7 7c c6 3a 01 9d 87 ba
       0.01100603 -0.008553146 0.0015143388 -0.0010346473
000040 b8 aa 7c 3c bc 5c 99 38 36 19 36 37 02 29 06 b8
       0.015421562 7.312882e-05 1.0853915e-05 -3.198628e-05
000050 41 ef 6e 3b 0c b2 83 3b e5 f9 25 bc d9 6f c4 3a
       0.0036458524 0.0040190276 -0.01013038 0.0014986946
000060 74 13 9a 3a 7f 1c eb 37 07 70 c4 3a 46 b2 74 3b
       0.0011755065 2.8027453e-05 0.0014987 0.0037337705
000070 e3 46 92 bb ca cc 68 3b 0d cd e2 b6 0f 0b 05 b7
       -0.0044640168 0.0035522454 -6.759196e-06 -7.9299925e-06
000080 d6 84 28 b9 06 61 02 3b b0 92 08 3b cd 2a 7c 38
       -0.00016071214 0.0019894256 0.0020839386 6.0121343e-05
000090 39 3c 26 bb 7d 3a 36 b7 2c c9 f7 3b 5e bc 91 3c
       -0.0025365485 -1.0861663e-05 0.0075618234 0.017790016
0000a0 fe 15 99 3c f7 9f 0c 3a ce 66 2f 3b d1 4f 2a 33
       0.018687245 0.0005364413 0.0026764157 3.9653802e-08
0000b0 89 9a 73 bb bf d4 94 39 e9 5b 2f 3c c1 91 2d b6
       -0.0037170968 0.00028387268 0.010703065 -2.5863849e-06
0000c0 f6 97 a3 39 8d a2 d4 ba 0a d1 78 bc bb fc 71 bc
       0.00031203002 -0.001622276 -0.015186558 -0.014769728
0000d0 86 9c df 35 f1 08 1c 3b 04 e2 e4 ba d3 ac 17 bb
       1.6660349e-06 0.002380904 -0.0017462377 -0.0023143783
0000e0 93 46 94 33 7f f2 0d ba 6e 30 4a bc 45 74 6d 39
       6.9046244e-08 -0.0005414858 -0.012340648 0.00022645395
0000f0 a9 9f b2 30 70 ed 6e 3b fd 10 90 b5 94 3c bf 3b
       1.2996583e-09 0.0036457442 -1.073378e-06 0.005836079
000100 5e 86 1b b9 46 c0 ce bc 2d 5f 40 3b 23 5d 18 3b
       -0.00014832008 -0.025238167 0.0029353604 0.0023248873
000110 87 41 57 ba e0 12 a3 3c 25 bc 99 bb b8 35 87 3c
       -0.00082113635 0.019906461 -0.004691618 0.016505107
000120 82 ac f7 3c c6 b4 9b 3c 1c cc 7c bc ca 3d 34 b9
       0.030233625 0.019007098 -0.015429523 -0.00017189156
000130 75 b9 09 3d 12 30 20 b7 c9 fa 0d 39 5b 78 ce 3b
       0.03362413 -9.547935e-06 0.00013540233 0.0063009686
000140 1d 1b 7a bc e8 28 e3 31 6e 80 29 35 20 86 ed 3b
       -0.015265253 6.61122e-09 6.3144296e-07 0.007248655
000150 da 46 62 ba b9 78 87 bc 83 70 52 3c 65 1f 14 b5
       -0.00086317735 -0.016537057 0.012844208 -5.517998e-07
000160 75 31 12 3d 5b 9c 72 3c d8 49 79 ba c1 1d f8 bb
       0.035691697 0.014807786 -0.00095096 -0.0075719063
000170 d8 67 a2 36 7f f7 5a bb 3e bd 15 bb 3d bb 9b b7
       4.8400652e-06 -0.003341168 -0.0022848393 -1.856463e-05
000180 03 f3 ed b9 a8 79 40 3c ca d4 68 3b 8e 2e ac b9
       -0.0004538522 0.011747755 0.0035527223 -0.00032841082
000190 20 c8 94 3b df 99 23 34 7d 9b c6 b0 d2 ad 94 39
       0.0045404583 1.5236536e-07 -1.4450589e-09 0.00028358266
0001a0 48 0d 4f b6 77 68 85 3c 77 fd cf bc b5 ff 87 3c
       -3.0853134e-06 0.016285164 -0.025389416 0.016601423
0001b0 a8 d1 2d bb a0 7c 2a 33 7b b3 2f 3b cc 4d 12 b8
       -0.002652267 3.9694555e-08 0.002680986 -3.4881567e-05
0001c0 b0 26 9e 3b cb 8a 5f 3b 2f fa 57 3d 46 7f d4 39
       0.0048263893 0.0034109827 0.052728828 0.00040530617
0001d0 19 2e 9b 3a 8e 14 36 3c de 51 fb 3c 4d 0d d1 b9
       0.00118393 0.011113299 0.030678686 -0.00039873496
0001e0 8b 31 4d 3b a0 0b ef b5 6f a7 3a ae 60 ef c0 32
       0.0031310047 -1.7810271e-06 -4.2440215e-11 2.2460597e-08
0001f0 cd 16 53 ba 61 9f df b9 ab d3 00 3c 9d b9 d2 ba
       -0.0008052409 -0.0004265262 0.007862966 -0.0016077046

exp_avg_sq f4 [128]
000000 8a a4 6b 3c a6 34 bb 3b 01 2a 9d 35 e1 46 16 3b
       0.014382491 0.0057130633 1.1709636e-06 0.002293043
000010 f6 9e 25 3b cb 54 f8 35 8f 39 ef 3a ad 85 35 39
       0.002527175 1.8502118e-06 0.0018251407 0.00017311303
000020 59 d5 02 34 f9 d7 61 3b 12 aa c9 3c f3 da 3d 3c
       1.2184809e-07 0.0034461005 0.024617229 0.011587846
000030 f5 7a 84 39 58 2a eb 3b b8 25 09 3c 01 6f 9b 37
       0.00025268612 0.0071766786 0.008370809 1.852913e-05
000040 5b 0e 6e 3b 7d 4d c4 38 a8 94 1d 33 e5 c8 32 36
       0.0036324474 9.3604416e-05 3.6689613e-08 2.6641003e-06
000050 0c 0b 6c 3b 27 9d 28 3b ab 9b 13 3c 59 38 85 3b
       0.0036017327 0.0025728436 0.009009282 0.004065555
000060 11 b6 83 3b 2d c8 ce 35 17 1e ac 3a d5 12 6b 3c
       0.0040195067 1.5406455e-06 0.0013131526 0.014347752
000070 5c 12 41 3a d9 fc 9a 3c f6 8b 83 36 ee c6 4f 33
       0.00073651015 0.018919395 3.920398e-06 4.837687e-08
000080 25 0e 4c 37 69 97 3e 3a f9 e0 7e 37 c4 83 27 32
       1.2162641e-05 0.00072704867 1.519196e-05 9.750639e-09
000090 e4 14 ea 3a b3 80 c4 34 f8 71 59 3b 00 88 86 3c
       0.0017859009 3.6601486e-07 0.0033179503 0.016422272
0000a0 21 d6 f4 3b 40 48 62 3a f5 fe 21 3b 60 75 97 2b
       0.007471815 0.0008631982 0.0024718617 1.0761773e-12
0000b0 63 23 0d 3a d6 7d d7 37 fd 5c 24 3c cf d9 4f 31
       0.0005383996 2.5688594e-05 0.010031936 3.0246274e-09
0000c0 dc e2 aa 38 3d 0c 2a 38 f4 60 33 3c f5 c5 89 3b
       8.1484875e-05 4.0542556e-05 0.010948408 0.0042045065
0000d0 97 5d ad 38 fa 76 10 38 33 b1 8a 3a 23 b9 65 3a
       8.266715e-05 3.444308e-05 0.0010581374 0.0008763244
0000e0 d4 31 ce 37 eb f0 26 3b 3d 5b 34 3c ca d1 1f 3b
       2.4580317e-05 0.0025473188 0.011008081 0.0024386519
0000f0 ce 05 0b 2f f7 6a cd 3b 6b 08 8a 32 b6 93 2c 3a
       1.2644039e-10 0.0062688547 1.6069142e-08 0.000658329
000100 8d 4f 5b 3a 34 a4 19 3c 35 4a da 3a 9f 01 00 3b
       0.0008366041 0.009377528 0.0016654195 0.0019532216
000110 1f 4a 43 3a f7 ba 06 3a 0c 6a 9a 3b 8e 30 39 3b
       0.00074497046 0.0005139554 0.004712349 0.00282577
000120 2f c4 71 3b cb 98 0d 3d e5 e4 8b 3c c3 0c 20 36
       0.0036890616 0.034569543 0.017076919 2.3849286e-06
000130 64 a3 bc 3c 98 3b 9d 32 6e 9b 52 39 12 d1 98 3b
       0.02302713 1.8304306e-08 0.00020085063 0.004663595
000140 81 59 e7 3b 3a b4 fd 36 4b bf 9c 35 a9 9f 5b 3b
       0.0070602302 7.5609687e-06 1.1678579e-06 0.0033511913
000150 05 c5 8c 3a 56 11 6d 3b 5c 02 6e 39 1e 75 57 37
       0.0010739869 0.0036173663 0.00022698328 1.2842267e-05
000160 ed db b9 3c 85 71 8c 3b fe 84 25 3b 0b 2a a4 3b
       0.022687877 0.0042859935 0.0025256271 0.0050098947
000170 0b 10 91 35 ce d5 33 3c 05 33 1e 3c 2e a3 18 34
       1.0808011e-06 0.010976268 0.009655719 1.4215468e-07
000180 71 df 68 37 8b 06 0e 3c bc d8 3e 3b 06 23 2a 3a
       1.3880302e-05 0.008668552 0.0029120883 0.0006490204
000190 49 b4 91 3a 91 02 01 2d bd db da 30 3b 8d d2 36
       0.0011116351 7.333371e-12 1.5924041e-09 6.274929e-06
0001a0 47 81 df 39 f9 97 19 3b c7 3b ae 3c 5c fc 0f 3c
       0.00042630194 0.002343653 0.021268738 0.0087881945
0001b0 d5 ee ab 3b 32 e0 84 34 59 05 38 3b 95 57 d1 38
       0.005246977 2.475004e-07 0.002807936 9.98221e-05
0001c0 06 97 c1 3b 1a de 6f 3b 41 f8 90 3d 22 40 14 3b
       0.005907896 0.0036600889 0.07078601 0.0022621234
0001d0 ab e6 32 3b ee bb 23 3a 9b 2d 1e 3c 8d c4 62 37
       0.0027298133 0.000624596 0.009654428 1.3516413e-05
0001e0 45 2e 38 3b 07 b9 ba 35 6c f5 a2 36 46 4e f8 29
       0.002810375 1.391193e-06 4.856547e-06 1.1026991e-13
0001f0 63 57 00 3b 5a 8e c3 38 9e 22 06 3c 7b 8c 6f 3b
       0.0019583337 9.3248396e-05 0.008186964 0.0036552239
