results/DroneAgentMG17/DroneAgent/DroneAgent-4799959.onnx (onnx, 724643 bytes, 10 tensors)

network_body._body_endoder.seq_layers.0.weight f4 [128, 236]
0	0xbe9de27d	-0.3083686
1	0xbe18a1d1	-0.14905478
2	0xbda13e42	-0.07873203
3	0x3e5150cf	0.20440982
4	0x3e6d9f59	0.23205318
5	0x3f0fcd19	0.5617233
6	0xba60b708	-0.00085721957
7	0xbe6ba926	-0.23013744
8	0x3e96b155	0.2943217
9	0x3e886eb3	0.26646957
10	0xbe339a02	-0.17539218
11	0xbe4f7fb6	-0.20263562
12	0x3ea69016	0.32531804
13	0x3e5ad520	0.21370363
14	0x3dd2bffe	0.10290526
15	0x3f3cd6b9	0.7376514
16	0x3d61a026	0.05508437
17	0x3e03e4f4	0.12880307
18	0x3c57d966	0.01317439
19	0x3e120a64	0.14261776
20	0x3e4819ff	0.19541167
21	0x3cb34106	0.021881592
22	0x3ed8fd16	0.4238059
23	0xbd85c2c3	-0.065312885
24	0x3e2a2ced	0.166187
25	0x3e98bd17	0.29831764
26	0xbf10761d	-0.56430227
27	0xbecc6590	-0.39921236
28	0x3f86b7d1	1.0524846
29	0xbd8c20c3	-0.06842186
30	0xbe9994b5	-0.29996267
31	0xbdd74c2b	-0.10512575
32	0xbe9e2a64	-0.30891716
33	0x3f4e0316	0.8047346
34	0x3eadb862	0.33929735
35	0x3efd58a9	0.49481705
36	0xbee60eea	-0.44933254
37	0xbe42556c	-0.18977898
38	0x3f0676e9	0.5252519
39	0x3e519f4f	0.20470928
40	0x3d5f3354	0.05449231
41	0xbe347f75	-0.17626746
42	0xbf2a7f4b	-0.66600484
43	0x3f095a07	0.53652996
44	0x3e8b9d26	0.27268332
45	0x3f0e3adb	0.55558556
46	0xbeec15a2	-0.46110255
47	0xbe6761d2	-0.22595909
48	0x3f73c40b	0.9522101
49	0x3e129484	0.14314467
50	0x3f2a7c6d	0.6659611
51	0x3db2f5a9	0.08738262
52	0x3d99fdc8	0.07519108
53	0xbf2bb771	-0.67076784
54	0xbe96c263	-0.2944518
55	0x3f05b643	0.52231234
56	0xbd55541a	-0.05208216
57	0x3e2ba2b6	0.16761288
58	0xbf030905	-0.5118564
59	0xbe2a8602	-0.16652682
60	0x3f33df3a	0.7026249
61	0xbde0271e	-0.10944961
62	0x3ea2d50f	0.31803176
63	0xbf5cf39c	-0.8630922
64	0xbf03b7fc	-0.5145261
65	0x3ed0048e	0.40628475
66	0x3d620d11	0.055188242
67	0x3da73dfe	0.08166121
68	0xbeb1e4f4	-0.3474499
69	0xbcdaab5e	-0.026693042
70	0x3d1be06b	0.03805582
71	0x3d72a828	0.059242398
72	0x3e2401c1	0.16016294
73	0xbea2d677	-0.3180425
74	0xbde7b26a	-0.11313327
75	0x3f128231	0.57229906
76	0xbee0e983	-0.43928155
77	0xbf1e99cd	-0.6195343
78	0xbe952a51	-0.29133847
79	0xbea31417	-0.31851265
80	0x3eb131fe	0.34608454
81	0xbea00e17	-0.3126075
82	0xbf24d43a	-0.6438633
83	0xbe6f3b75	-0.23362525
84	0xbecf5931	-0.40497735
85	0x3f120134	0.57033086
86	0x3cb5af19	0.02217822
87	0xbe60e299	-0.2196144
88	0xbf459b40	-0.7719002
89	0xbebe3c3b	-0.37155327
90	0x3e63bf5d	0.22240968
91	0x3d41fdc1	0.04736114
92	0xbf008ae2	-0.5021192
93	0xbecbed3c	-0.39829433
94	0xbeacd661	-0.33757308
95	0x3ea82050	0.32837152
96	0xbd6db59d	-0.058034528
97	0xbdbe729b	-0.09299203
98	0xbef96db4	-0.4871651
99	0xbe780aea	-0.24222913
100	0x3e9bd380	0.304348
101	0xbdce95db	-0.100871764
102	0xbf24f83d	-0.6444128
103	0x3eaaea85	0.3338205
104	0x3dc338aa	0.09532292
105	0x3ed478e0	0.4149847
106	0xbea1bd43	-0.31589708
107	0xbeba5cd8	-0.3639896
108	0x3f132d41	0.57490927
109	0xbe7f98d3	-0.24960642
110	0x3cf7712c	0.030205332
111	0x3e6072b1	0.21918751
112	0xbe991142	-0.2989598
113	0xbce99516	-0.028513473
114	0x3e980091	0.29687932
115	0x3efc5c90	0.4928937
116	0xbf4eab85	-0.8073047
117	0xbe82579e	-0.25457472
118	0x3e5a71e2	0.21332505
119	0xbed8484b	-0.42242655
120	0x3e82a5ef	0.25517222
121	0x3e4555f5	0.19271071
122	0xbec6dfa8	-0.3884251
123	0x3e25610c	0.16150302
124	0x3e222892	0.15835789
125	0x3f3df2eb	0.7419879
126	0x3ee64f7a	0.4498251
127	0xbe8dd652	-0.27702576
128	0x3dd9d41f	0.10636162
129	0xbea2727e	-0.31727976
130	0x3eb96cb8	0.36215758
131	0x3e98cf4a	0.2984565
132	0xbd99a98d	-0.07503042
133	0xbebacdca	-0.3648513
134	0xbdad06b2	-0.08448543
135	0x3ecbd53c	0.39811122
136	0x3d5d6d75	0.054059464
137	0x3ccdafd5	0.025108257
138	0xbe216440	-0.15760899
139	0xbedd7f62	-0.43261248
140	0x3e5247a5	0.20535143
141	0xbe81bcbd	-0.25339308
142	0x3ca2377e	0.019801851
143	0x3f5376d6	0.82603204
144	0x3d635256	0.055498444
145	0x3f56a3b4	0.8384354
146	0xbeaf572f	-0.34246203
147	0x3e831537	0.25602123
148	0xbf6e2038	-0.9301791
149	0xbf027322	-0.5095693
150	0x3e8bde1e	0.273179
151	0xbe4a9247	-0.19782363
152	0xbc429120	-0.011875421
153	0x3d95aad6	0.07307975
154	0x3db7b392	0.08969797
155	0x3ed3539c	0.41274726
156	0xbddddb20	-0.108328104
157	0xbd016682	-0.0315919
158	0x3eb1ad7e	0.34702677
159	0xbe87305d	-0.26404086
160	0x3e13310a	0.14374176
161	0xbf470a3b	-0.77749985
162	0x3e4624b6	0.19349942
163	0xbf20e873	-0.6285469
164	0xbe13fdf8	-0.1445235
165	0xbeb6222d	-0.3557295
166	0x3eadab22	0.33919626
167	0x3dfb45b3	0.122691534
168	0x3dcdd417	0.100502186
169	0xbdf6b210	-0.120456815
170	0x3d9f74e5	0.07785968
171	0x3d04caae	0.032419853
172	0x3d591025	0.052993912
173	0xbf0c1c02	-0.54730237
174	0xbdd1a3f4	-0.1023635
175	0xbe8ded43	-0.2772008
176	0x3f02f065	0.5114806
177	0x3c22d6de	0.009938924
178	0xbed3e2ea	-0.4138406
179	0xbdf020c9	-0.11725003
180	0xbc940c48	-0.018072262
181	0xbe4dcee5	-0.20098455
182	0x3dcea5b5	0.100902
183	0xbd77e33d	-0.060519446
184	0xbce06abd	-0.027394647
185	0x3ebd169b	0.3693131
186	0x3c77d6ff	0.015126943
187	0x3e42f0d9	0.19037189
188	0xbe5549bf	-0.20828913
189	0xbc22e346	-0.0099418815
190	0x3d4dfaa8	0.050287873
191	0x3e84992b	0.25898108
192	0xbd161bbf	-0.036647554
193	0x3f441bf7	0.7660517
194	0x3ea0623a	0.3132494
195	0x3f000c7d	0.50019056
196	0x3ec63a32	0.38716274
197	0x3dfe9031	0.12429846
198	0x3e8d4346	0.27590388
199	0xbdf43d6b	-0.11925777
200	0x3ec21550	0.37906885
201	0x3ee03161	0.43787673
202	0x3dab2900	0.083574295
203	0x3e85cdff	0.26133725
204	0xbc2f7b09	-0.010710486
205	0xbf2375cc	-0.6385162
206	0x3c77e1b5	0.015129496
207	0xbd7c5906	-0.061608337
208	0x3eda588b	0.42645678
209	0x3e42c238	0.19019401
210	0x3c2d4230	0.010574862
211	0xbd81e573	-0.06342592
212	0x3da6c623	0.0814326
213	0x3df1e7ec	0.11811814
214	0x3f6507d2	0.8946506
215	0xbe3c4c76	-0.18388543
216	0x3dfccf8e	0.123442754
217	0x3efd3b68	0.49459386
218	0x3efd7a9c	0.49507606
219	0xbdebd542	-0.11515285
220	0x3cce868e	0.025210645
221	0xbf9ee172	-1.241255
222	0x3cbdf473	0.023187852
223	0xbe301a61	-0.17197563
224	0x3d845349	0.06461198
225	0xbdffd9ee	-0.12492739
226	0xbe6849cc	-0.22684401
227	0x3edd6256	0.43239087
228	0x3db5fc06	0.0888596
229	0xbdae09a5	-0.08497933
230	0xbeba4507	-0.3638079
231	0x3f57bcd7	0.8427252
232	0x3e8ee92f	0.2791228
233	0x3f25ba67	0.6473755
234	0xba984e46	-0.0011620007
235	0xbd2e6d3c	-0.042584643
236	0x3e2424ad	0.16029616
237	0x3ef9ae5d	0.4876584
238	0xbed5fd52	-0.4179483
239	0xbe451a32	-0.19248274
240	0xbe81c536	-0.25345773
241	0x3db2530b	0.087072454
242	0x3e2e348e	0.17012236
243	0x3f159856	0.5843557
244	0xbeca0c90	-0.3946271
245	0xbe90e712	-0.28301293
246	0x3e206f19	0.1566738
247	0x3cef40f1	0.029205771
248	0xbdf98a90	-0.12184632
249	0xbe4b906b	-0.1987931
250	0xbe4e6b3e	-0.20158097
251	0xbcffd61d	-0.031230027
252	0xbef6bca7	-0.48190805
253	0x3edd5bea	0.43234187
254	0xbe2a7bdd	-0.16648813
255	0xbe8afa9c	-0.27144325

network_body._body_endoder.seq_layers.0.bias f4 [128]
0	0x3da22549	0.07917268
1	0xbe859518	-0.26090312
2	0xb7d9fa01	-2.5984833e-05
3	0x3dc740e3	0.09729173
4	0x3d01883d	0.031624068
5	0xbe4cd8b1	-0.20004536
6	0x3c64e778	0.013971202
7	0x3ddaad3a	0.106775716
8	0xbdfc6981	-0.12324811
9	0xbeb089d1	-0.34480146
10	0x3e249c49	0.16075243
11	0xbe33dea3	-0.17565398
12	0x3daca9f8	0.084308565
13	0x3e2ab1cf	0.16669391
14	0xbd19ad33	-0.03751869
15	0xbc548126	-0.0129702445
16	0xbc8b77f5	-0.017024973
17	0xbdf235ab	-0.118266426
18	0xbe1a7977	-0.15085398
19	0x3d25ff54	0.040526703
20	0xbdfef834	-0.12449685
21	0x3d61dd76	0.055142842
22	0x3e205622	0.15657857
23	0xbca01a35	-0.019543746
24	0xbd9c7239	-0.07638974
25	0x3dc33935	0.09532396
26	0xbbae2464	-0.0053143967
27	0xbcf39f94	-0.029739179
28	0xbd991bdf	-0.07476019
29	0xbca20c56	-0.019781273
30	0x3cb74935	0.022373775
31	0xbc861f80	-0.016372442
32	0x3d9c81d2	0.07641949
33	0x3d1ac0a6	0.03778138
34	0xbd842b26	-0.064535424
35	0xbe2d86dc	-0.16945976
36	0x3d8aa1f0	0.067691684
37	0xb98a46d1	-0.00026374173
38	0xbd4b2a0b	-0.049600642
39	0xbbea1e4b	-0.0071447245
40	0x3d3ccb15	0.04609211
41	0x3d8a9c66	0.06768112
42	0xbdaa4e8b	-0.08315762
43	0xbe0f0b36	-0.1396912
44	0xbde7cd53	-0.11318459
45	0xbe25e232	-0.16199568
46	0x3c21a659	0.0098663205
47	0xbdbc7e79	-0.0920381
48	0x3d215061	0.039383296
49	0x3db7d80e	0.08976756
50	0xbe8cd7c8	-0.27508378
51	0xbde18251	-0.11011184
52	0xbe28148e	-0.16414091
53	0x3d073c57	0.03301653
54	0xbd860687	-0.06544214
55	0xbd24cd40	-0.040234804
56	0x3d8faa5c	0.07014915
57	0x3d1a9a21	0.037744645
58	0x3d4dfede	0.05029189
59	0xbe9362da	-0.28786355
60	0xbcac659f	-0.02104455
61	0x3ce8e857	0.0284311
62	0xbd8fec7d	-0.070275284
63	0x3e0b2e3f	0.1359186
64	0xbe0fd557	-0.14046226
65	0x3e154c3d	0.14579864
66	0x3da5dfb7	0.08099311
67	0xbdb1ca83	-0.08681204
68	0xbe59e448	-0.21278489
69	0xbcce4949	-0.02518143
70	0xbc9e9328	-0.019357279
71	0xbe4d1805	-0.20028694
72	0xbde19124	-0.110140115
73	0xbb6d7386	-0.0036232187
74	0xbd7d997e	-0.06191396
75	0x3d970479	0.073739
76	0xbe03ebcc	-0.12882918
77	0x3da8b8c2	0.08238365
78	0x3cce6220	0.025193274
79	0xbe572b24	-0.2101255
80	0x3aa36565	0.0012466131
81	0x3e329ea7	0.17443334
82	0xbdb54e00	-0.08852768
83	0xbdb31db4	-0.087459
84	0xbe36af92	-0.17840412
85	0x3d8d4278	0.068974435
86	0xbe0d984e	-0.13827631
87	0xbd7b539e	-0.06135904
88	0xbe47f16b	-0.19525687
89	0xbe289a3c	-0.16465086
90	0x3c7c03ff	0.015381812
91	0xbdcdf0da	-0.100557044
92	0xbdfe228e	-0.124089345
93	0xbd62f157	-0.05540594
94	0xbd5898c0	-0.05288005
95	0x3e6e1877	0.2325152
96	0x3e0d61af	0.13806795
97	0xbd7e9829	-0.06215683
98	0xbe3d73ba	-0.18501177
99	0xbd8dc813	-0.06922927
100	0x3d835886	0.06413369
101	0x3d5d64bc	0.054051146
102	0xbe32bfbc	-0.17455953
103	0xbdf18748	-0.11793381
104	0xbd02a6a9	-0.03189722
105	0xbdfe362e	-0.12412678
106	0xbe5c776b	-0.2152993
107	0xbd05efc0	-0.032699347
108	0xbe9b0686	-0.30278414
109	0xbcaa6521	-0.020800175
110	0xbd923160	-0.07138324
111	0xbccd0939	-0.025028812
112	0x3d238a92	0.039927073
113	0x3e176193	0.14783315
114	0x3e2c39b6	0.1681889
115	0xbe00b0bb	-0.12567417
116	0xbdf7e286	-0.12103753
117	0x3d138847	0.036018636
118	0xbc8ed01b	-0.017433217
119	0x3e5be2db	0.21473257
120	0x3dce79b8	0.1008181
121	0xbe151b5b	-0.14561217
122	0xbdaeda86	-0.08537774
123	0xbe96b5c8	-0.29435563
124	0x3d1e1c5c	0.038601264
125	0x3dc48374	0.09595385
126	0x3cf02e46	0.02931894
127	0x3d9c940d	0.07645426

network_body._body_endoder.seq_layers.2.weight f4 [128, 128]
0	0xbef32029	-0.47485474
1	0x3e177be5	0.14793356
2	0x3e8fddfe	0.28099054
3	0x3ef56df7	0.4793546
4	0xbf36a4cc	-0.7134521
5	0x3bc7b6ac	0.006094774
6	0xbea46b1d	-0.3211297
7	0xbeff03a7	-0.49807474
8	0x3e24224f	0.16028713
9	0x3df143ba	0.11780496
10	0xbe87bbdd	-0.26510516
11	0xbf1e73b9	-0.6189533
12	0xbe7f95ca	-0.24959484
13	0xbecbd086	-0.39807528
14	0x3e99af1a	0.30016404
15	0x3edca337	0.43093273
16	0xbed34b75	-0.41268507
17	0x3e84ab68	0.25912023
18	0xbe4d843b	-0.20069973
19	0xbc03afc0	-0.0080375075
20	0xbd9cbf45	-0.07653669
21	0xbcee2fe5	-0.029075572
22	0x3eeb97b8	0.4601419
23	0x3f4847d2	0.7823459
24	0xbdcf49d1	-0.10121501
25	0xbeb07516	-0.3446433
26	0xbf33c35b	-0.70219964
27	0x3ebcf230	0.36903524
28	0xbf035869	-0.5130678
29	0x3ec3b66f	0.38225123
30	0x3e8c0566	0.2734787
31	0x3d3b62e8	0.04574862
32	0xbf02817b	-0.5097882
33	0xbbea0f9e	-0.007142975
34	0x3ef0476c	0.4692949
35	0xbe216743	-0.15762047
36	0xbeb5b8e2	-0.35492617
37	0x3e41c624	0.18923241
38	0x3ee20bf6	0.4414975
39	0x3f122e00	0.5710144
40	0xbf17c1a3	-0.5927984
41	0xbecc5084	-0.3990518
42	0xbd84e19f	-0.06488346
43	0x3d423036	0.04740926
44	0xbe11929a	-0.1421608
45	0xbea2e055	-0.31811777
46	0xbdf0186d	-0.11723409
47	0xbe3eee38	-0.1864556
48	0xbe64b78d	-0.22335644
49	0xbe14b180	-0.14520836
50	0x3f1238a8	0.571177
51	0xbf57e8a6	-0.8433937
52	0xbf2887c7	-0.6583218
53	0xbe2b52a9	-0.16730751
54	0x3d531833	0.05153675
55	0x3e6034d5	0.21895154
56	0x3e6cb21a	0.23114815
57	0xbe826148	-0.25464845
58	0xbf5900a6	-0.84766614
59	0x3eb2ae60	0.34898663
60	0x3c79b907	0.015241868
61	0xbe8eb300	-0.2787094
62	0x3f03c535	0.5147279
63	0x3e811b91	0.25216344
64	0x3ee88136	0.4541108
65	0xbe0522ae	-0.1300151
66	0x3e9f73dc	0.3114308
67	0x3e28a35a	0.16468564
68	0x3e3a162a	0.18172517
69	0x3eee74b1	0.46573403
70	0xbd6393d1	-0.05556089
71	0xbf5f46be	-0.8721732
72	0xbed7c4af	-0.42142245
73	0xbe3b8b38	-0.18314826
74	0xbee8c7f3	-0.4546505
75	0x3dda6b4e	0.10664998
76	0xbd9b44d9	-0.07581491
77	0x3eae6ac4	0.3406583
78	0x3ee335b3	0.44376907
79	0xbef7438f	-0.4829373
80	0xbee12220	-0.43971348
81	0x3d7c72aa	0.06163279
82	0x3e90aab0	0.28255224
83	0x3decd23a	0.11563535
84	0x3d3e0df5	0.04640003
85	0xbe433384	-0.1906262
86	0x3ebfb3b8	0.37441802
87	0xbddd233d	-0.10797737
88	0x3ea9d694	0.33171523
89	0x3f1939ac	0.59853625
90	0xbf4392f7	-0.76396126
91	0x3e24bca2	0.16087583
92	0x3e272612	0.16323116
93	0xbe9a30dd	-0.30115405
94	0xbe81cdb9	-0.25352266
95	0x3cb28716	0.02179293
96	0xbf21902d	-0.6311062
97	0x3e2cde7e	0.16881749
98	0xbd8cf4ec	-0.06882653
99	0x3eb42db2	0.35191113
100	0x3e5723e6	0.21009788
101	0x3d1623d0	0.036655247
102	0x3dc5afb2	0.09652652
103	0x3f0d991c	0.5531175
104	0x3d48e327	0.049044754
105	0xbd32c7eb	-0.043647688
106	0x3eba4112	0.3637777
107	0x3f002d23	0.50068873
108	0x3e771a8c	0.2413122
109	0x3f059918	0.5218673
110	0xbf5f638a	-0.8726126
111	0xbeec9fa2	-0.4621554
112	0x3db5b014	0.08871475
113	0xbf0a7dcd	-0.54098207
114	0xbe823f86	-0.2543909
115	0xbf457ad9	-0.77140576
116	0xbebdd3b6	-0.37075585
117	0xbee5fbbc	-0.4491862
118	0xbeda61b9	-0.4265268
119	0x3e337a34	0.17527086
120	0xbea3720c	-0.31922948
121	0x3d8fdfb1	0.070250876
122	0x3ecf5571	0.40494874
123	0x3ea2cbb5	0.3179604
124	0xbe7ef091	-0.24896456
125	0xbea2297d	-0.31672278
126	0xbd882430	-0.06647527
127	0xbe1afbbb	-0.1513509
128	0xbd7a6f67	-0.061141398
129	0xbe73fba3	-0.2382646
130	0xbebfcc9e	-0.37460798
131	0xbf435f3f	-0.7631721
132	0xbdd7af6b	-0.10531505
133	0xbeb97bd4	-0.36227286
134	0x3f501692	0.8128444
135	0xbf5eb794	-0.8699887
136	0xbeb5c1aa	-0.35499316
137	0x3eea998f	0.4582028
138	0xbf060706	-0.52354467
139	0x3e8b3855	0.27191415
140	0x3e2ee9d6	0.17081389
141	0xbf14e4c3	-0.5816156
142	0xbf8706d2	-1.0548956
143	0xbdddbc1b	-0.10826894
144	0xbea3ac5b	-0.31967434
145	0xbd07629a	-0.03305302
146	0x3f0e42c9	0.55570656
147	0xbeb342e8	-0.35011983
148	0x3e2c7d02	0.16844562
149	0xbec31838	-0.38104415
150	0xbce825d4	-0.02833835
151	0xbf2ad2dc	-0.66727996
152	0x3ea75305	0.32680526
153	0x3f1e23a7	0.6177315
154	0x3e91057a	0.2832449
155	0xbf086dbf	-0.5329246
156	0x3dce78f8	0.10081667
157	0x3e7c130a	0.24616638
158	0x3f050488	0.5196004
159	0xbf2d8244	-0.67776895
160	0xbec21499	-0.3790634
161	0xbe995c79	-0.29953364
162	0x3ef98cae	0.48740143
163	0xbe4a5fa5	-0.19763048
164	0x3e89d31c	0.26918876
165	0xbf0695cc	-0.5257232
166	0x3d4d0824	0.05005659
167	0xbd258208	-0.04040721
168	0x3ec33d2d	0.3813261
169	0x3e19d683	0.15023236
170	0xbe31da88	-0.1736852
171	0xbf029553	-0.510091
172	0xbf196abc	-0.5992849
173	0x3eb11a6b	0.34590468
174	0xbd869b16	-0.06572549
175	0xbc6ca92e	-0.014444632
176	0x3e113e99	0.14184035
177	0x3ea5eec9	0.3240874
178	0xbe88ed1f	-0.2674341
179	0x3e2e8bdc	0.1704554
180	0x3e84fc24	0.25973618
181	0xbe47d055	-0.19513066
182	0x3e3dc438	0.18531883
183	0xbea983f9	-0.331085
184	0x3f1bcdba	0.6086079
185	0x3ef3499c	0.47517097
186	0xbf252313	-0.64506644
187	0x3f271691	0.6526881
188	0x3e7ff8c5	0.24997242
189	0xbe87f221	-0.26551917
190	0xbf14b1cf	-0.58083814
191	0xbe03a86d	-0.12857218
192	0xbe411d98	-0.18858945
193	0x3e9cd383	0.3063012
194	0xbd663178	-0.05619952
195	0x3eac2c19	0.33627394
196	0xbb1f8658	-0.002434155
197	0x3e574dd8	0.21025789
198	0x3d9a4771	0.075331576
199	0x3ee8fd4f	0.4550576
200	0x3f1fc286	0.62406194
201	0x3dbfb7b2	0.09361209
202	0x3d4d1070	0.050064504
203	0x3dc2db01	0.09514428
204	0x3f52b62d	0.8230923
205	0xbe9b4f6e	-0.30334038
206	0xbf042a1e	-0.51626766
207	0x3df238e2	0.11827256
208	0xbdd9b6a3	-0.10630538
209	0x3f096764	0.53673387
210	0x3ddbe663	0.10737302
211	0x3eb57a89	0.3544505
212	0x3eba104e	0.36340564
213	0xbe41144a	-0.18855396
214	0x3c7b9254	0.015354712
215	0xbf1cba46	-0.6122173
216	0x3b521921	0.0032058435
217	0x3ea3ba11	0.31977895
218	0x3db57fce	0.088622674
219	0x3e4e4014	0.20141631
220	0x3e0d8734	0.13821107
221	0x3e3561ef	0.1771314
222	0xbf113790	-0.56725407
223	0xbddde724	-0.10835102
224	0xbf2b9671	-0.6702643
225	0xbc12a762	-0.00895104
226	0x3ee9f23d	0.45692626
227	0x3ee29c52	0.44259888
228	0xbef57610	-0.47941637
229	0xbe6f9b94	-0.23399192
230	0xbe53b0ec	-0.20672959
231	0xbe1b8692	-0.15188053
232	0xbdcebf7c	-0.100951165
233	0x3e56defb	0.20983498
234	0xbdf1e96e	-0.11812101
235	0xbcd36781	-0.02580619
236	0x3e0d4c79	0.13798703
237	0xbe21eb7a	-0.15812483
238	0x3e3446a6	0.17605075
239	0xbe89ca02	-0.26911932
240	0x3e32c305	0.17457207
241	0x3d5d0e1e	0.05396854
242	0xbde2b5d1	-0.11069835
243	0xbdb3b803	-0.08775332
244	0x3eb9fc77	0.36325428
245	0xbc5166e4	-0.012780879
246	0xbda7f06f	-0.08200156
247	0xbf5a4b8a	-0.85271513
248	0x3d5d0f02	0.05396939
249	0x3eb9d434	0.3629471
250	0xbef0f271	-0.47059968
251	0x3eb18155	0.34668985
252	0x3ea94329	0.33059052
253	0xbc422c30	-0.011851355
254	0x3db86d70	0.090052485
255	0xbeda024b	-0.42579874

network_body._body_endoder.seq_layers.2.bias f4 [128]
0	0xbd01c739	-0.031684134
1	0xbd26fa66	-0.040766142
2	0x3e58e22a	0.21180025
3	0x3da7f2e5	0.08200625
4	0x3e529bf3	0.20567302
5	0xbdcb8438	-0.09937328
6	0xbe6329ce	-0.22183916
7	0xbd7cb76e	-0.06169837
8	0x3c9970f6	0.018730622
9	0x3e7a64d2	0.24452522
10	0x3dd900bd	0.10595844
11	0xbbbba14f	-0.0057260166
12	0x3d911f31	0.070860274
13	0xbd23eee9	-0.040022764
14	0x3b0af1db	0.0021201286
15	0x3b8e54f8	0.004343625
16	0xbecc36fb	-0.39885697
17	0x3dd49b6f	0.10381209
18	0x3e13af5e	0.14422366
19	0xbe18906b	-0.14898841
20	0xbe06925b	-0.13141768
21	0xbc074763	-0.008256766
22	0xbd59c37e	-0.05316495
23	0x3d3c00e1	0.045899276
24	0x3dab188c	0.08354291
25	0xbd53e98b	-0.051736396
26	0xbe851c1e	-0.25998014
27	0xbe973690	-0.29533815
28	0x3dcdb1bd	0.100436665
29	0xbd99e8ef	-0.07515132
30	0x3db408a3	0.0879071
31	0xbec41b1d	-0.38301936
32	0xbe8f62b3	-0.2800499
33	0xbe09cdec	-0.13457459
34	0x3e18a6dd	0.14907403
35	0xbdc83e08	-0.097774565
36	0x3b8263fb	0.0039792038
37	0x3df0ce96	0.11758153
38	0xbdb1c1e2	-0.08679558
39	0x3e722908	0.23648465
40	0xbba8860b	-0.0051429323
41	0x3df0cd8a	0.117579535
42	0xbeb5a0d0	-0.35474253
43	0xbe781382	-0.24226192
44	0x3e00a403	0.12562566
45	0xbe9922cc	-0.2990936
46	0x3e5b91e6	0.21442375
47	0xbc9bb0a7	-0.019005133
48	0x3cbb062d	0.022830093
49	0x3d130215	0.035890657
50	0x3c310985	0.010805492
51	0xbe5400ef	-0.20703481
52	0xbea8d6f7	-0.32976505
53	0x3de8b301	0.11362267
54	0x3a61c79a	0.0008612812
55	0xbe215270	-0.15754104
56	0xbe05e3c1	-0.13075162
57	0x3dbcea66	0.092243955
58	0xbcabf0ff	-0.02098894
59	0xbe21f0c6	-0.15814504
60	0x3cac3f18	0.02102618
61	0x3e49f8b9	0.19723786
62	0x3cd147c4	0.025546916
63	0xbe293f8e	-0.1652815
64	0x3dd7b7b8	0.105330884
65	0x3c1a3575	0.009412159
66	0xbde9d673	-0.11417856
67	0x3dbed564	0.09318045
68	0x3e03bfd8	0.12866151
69	0xbddce5dc	-0.1078603
70	0xbe2c5f53	-0.16833238
71	0x3d5ff66b	0.054678362
72	0xbd89b575	-0.06724063
73	0xbdad68b6	-0.08467238
74	0x3e4e8edf	0.20171688
75	0xbda19e89	-0.07891566
76	0xbc7c6f44	-0.015407387
77	0x3e62a99f	0.22135018
78	0x3dc9a607	0.0984612
79	0xbd29acaa	-0.04142443
80	0xbe90fe3e	-0.2831897
81	0xbe552791	-0.20815875
82	0xbd0075e8	-0.031362444
83	0xbd090ec0	-0.033461332
84	0xbde588e3	-0.1120775
85	0x3d666b02	0.056254394
86	0x3dcadf52	0.09905876
87	0xbd3212b1	-0.043474857
88	0xbe4a1d6f	-0.1973779
89	0xbd846d43	-0.064661525
90	0xbe0f0f4e	-0.13970682
91	0x3c95dfa1	0.018295111
92	0xbe75b847	-0.23996077
93	0xbeb96cf5	-0.3621594
94	0xbe2611de	-0.16217753
95	0xbe21c55a	-0.1579794
96	0x3b78d7a7	0.0037970336
97	0x3d33ee97	0.04392871
98	0xbe0b595e	-0.1360831
99	0x3cae2922	0.021259848
100	0x3dc4b454	0.09604707
101	0xbd099647	-0.03359058
102	0xbea47d0e	-0.3212666
103	0xbdc0f02d	-0.0942081
104	0xbd2efbbe	-0.04272055
105	0x3d2ace72	0.041700788
106	0x3e03393b	0.128148
107	0xbe0e9f1f	-0.13927887
108	0x3d957cb1	0.072991736
109	0xbd377562	-0.04478968
110	0x3e9691c7	0.29408094
111	0x3d89104f	0.06692564
112	0xbdd134c5	-0.10215143
113	0xbe8495f4	-0.25895655
114	0xbd88ee76	-0.06686108
115	0xbeac1d33	-0.33616027
116	0xbe0b303f	-0.13592623
117	0xbe2f4914	-0.17117721
118	0x3dd7e422	0.1054156
119	0xbe85ccf0	-0.26132917
120	0x3daf5e2e	0.08562885
121	0x3d55c355	0.052188236
122	0x3e0be642	0.13662055
123	0xbd933f28	-0.071897805
124	0xbe6afc2b	-0.22947757
125	0x3d49f1bf	0.049302813
126	0x3dfd7e44	0.12377599
127	0xbe926767	-0.28594515

action_model._continuous_distribution.log_sigma f4 [1, 4]
0	0x408832a9	4.256184
1	0x40f81545	7.7525964
2	0x40a91f38	5.285061
3	0x40a5c6d5	5.1805215

action_model._continuous_distribution.mu.weight f4 [4, 128]
0	0x40918f2e	4.548728
1	0x40947619	4.639416
2	0xc0a06390	-5.0121536
3	0xc088a505	-4.270144
4	0xc0954706	-4.66492
5	0xbf22ecb4	-0.6364243
6	0x40405841	3.0053866
7	0x40a62ea1	5.193192
8	0xc037b451	-2.8703806
9	0xc0346433	-2.8186157
10	0xc09190dc	-4.548933
11	0x4071feea	3.7811837
12	0x4023406f	2.5508077
13	0xc0307848	-2.7573414
14	0xbf76cf84	-0.96410394
15	0x40213dd4	2.5193987
16	0xc00eb69b	-2.2298954
17	0xbffe1e84	-1.9853063
18	0x4069a88b	3.650912
19	0x409f1010	4.9707108
20	0xc0678afa	-3.6178575
21	0x3f9b657b	1.2140344
22	0x403dc97b	2.9654224
23	0x40547ac9	3.3199942
24	0x403c3798	2.9408932
25	0xbe86657f	-0.2624931
26	0x3d87bd28	0.066278756
27	0xc063c7db	-3.5590732
28	0xbfb141ac	-1.3848166
29	0xc0305b2c	-2.7555647
30	0xbff3cc93	-1.9046806
31	0xbeef02a5	-0.46681705
32	0xc05d4bae	-3.4577441
33	0xc02dc5e5	-2.7152035
34	0xc0a66602	-5.199952
35	0x3f34bb19	0.7059799
36	0x3eab66aa	0.33476764
37	0x40352ccc	2.8308592
38	0xbf859e17	-1.043887
39	0xc081e0c6	-4.058688
40	0xc0a29041	-5.080109
41	0xc028afa0	-2.6357193
42	0xc0483c45	-3.1286786
43	0x402604c6	2.5940413
44	0xbf96fae6	-1.1795318
45	0xc023ff37	-2.562452
46	0xc0883abf	-4.257171
47	0xbfec5937	-1.8464726
48	0xbeb2fba0	-0.349576
49	0x409baeb6	4.865077
50	0x4082dc4d	4.089392
51	0xbe6e5b47	-0.23277007
52	0x408e72e9	4.451527
53	0x40819edd	4.0506425
54	0xc040eda8	-3.0145054
55	0x4013f1ae	2.311626
56	0xc0a62386	-5.1918364
57	0x40537dc4	3.3045511
58	0x3f8bcbd3	1.0921577
59	0xc087c6b5	-4.243006
60	0x3f9671fc	1.1753535
61	0x3fd04a54	1.6272683
62	0xbfc75c93	-1.5575126
63	0xc04151f0	-3.020626
64	0xc05dfd05	-3.468568
65	0x404e205c	3.220725
66	0xc00c32b7	-2.1905954
67	0x3f13f6b0	0.5779829
68	0xbf8f7c6a	-1.1209843
69	0x40618662	3.523827
70	0xbf81b26f	-1.0132579
71	0x3fe1ce4c	1.7641082
72	0x401dc8cc	2.4653807
73	0xbf799d4b	-0.97505635
74	0x40533669	3.300196
75	0x404d78dc	3.2105017
76	0x3ff53c1a	1.9158967
77	0xc0364c76	-2.8484168
78	0x403b1bc6	2.9235702
79	0xc0a517fc	-5.159178
80	0x3fe10bf7	1.7581776
81	0x408b759b	4.358106
82	0xbf59b75d	-0.85045415
83	0xc0bd4365	-5.914477
84	0x40b00d1b	5.5016
85	0x3e6deed2	0.23235634
86	0xc0a84a4d	-5.25907
87	0xbf1f5a26	-0.6224693
88	0xbf1f6133	-0.6225769
89	0x3e50cc35	0.20390399
90	0x408f3958	4.47575
91	0xbff8f6db	-1.9450334
92	0x4083e73d	4.1219773
93	0xbea2deb2	-0.31810528
94	0x4084a604	4.1452656
95	0x3fc49bad	1.5360008
96	0x4034af6e	2.8232074
97	0x402860e4	2.6309137
98	0xc048e012	-3.1386762
99	0xc0101bbe	-2.2516932
100	0xbf69e984	-0.9137194
101	0x408ae067	4.339893
102	0x4029327d	2.6437066
103	0xc0b8aaf4	-5.7708683
104	0xbea72cba	-0.3265131
105	0x40a70b2a	5.220113
106	0x3fc688bb	1.5510477
107	0xbf9ec8af	-1.2404994
108	0x3ec5cc9b	0.38632664
109	0x3eff03dc	0.49807632
110	0x400d64c2	2.2092748
111	0xbfd2b192	-1.646044
112	0x3ea66373	0.3249775
113	0xbeb8100e	-0.3594975
114	0x40107976	2.2574134
115	0x3f2a908b	0.66626805
116	0xbfedf58b	-1.8590559
117	0x40844c87	4.1343417
118	0x409c3093	4.8809295
119	0xbf920951	-1.1409093
120	0x404bb503	3.182923
121	0xbfa738f4	-1.3064256
122	0x40a55e58	5.1677666
123	0xc045da59	-3.091452
124	0x403e32a8	2.9718418
125	0x408cc765	4.39934
126	0x4090df15	4.5272317
127	0x402c1acf	2.6891363
128	0x409a1bed	4.815909
129	0xc0218d67	-2.5242555
130	0xc0936fb7	-4.607387
131	0xc0e1f5fe	-7.0612783
132	0x406d3ea3	3.706948
133	0x410530dc	8.324429
134	0x3ed168b7	0.40900204
135	0x3f50e036	0.8159212
136	0x40713d75	3.769376
137	0xc10fb5e4	-8.981907
138	0xc06fa549	-3.7444632
139	0xc08b2225	-4.347918
140	0x40b6a1ae	5.7072363
141	0x40a3e9b5	5.1222787
142	0xc048edca	-3.1395135
143	0x3fcbc563	1.5919613
144	0xc0c0a17e	-6.0197134
145	0x3f90a2d2	1.1299689
146	0x4081cae4	4.056017
147	0xc09e3dad	-4.945029
148	0x402e087b	2.7192676
149	0xc0bd7c77	-5.9214435
150	0xc081f47f	-4.0610957
151	0xc0a71c31	-5.2221913
152	0xbf31c0a4	-0.6943457
153	0x3f5eb762	0.8699857
154	0x40cc0e2b	6.3767295
155	0x4040bb8b	3.0114467
156	0xc01e37a1	-2.4721453
157	0x40bf2162	5.972825
158	0x410af4a8	8.684731
159	0x410b0677	8.689078
160	0x411409e2	9.252413
161	0x40c7a386	6.2387114
162	0xbcf665df	-0.030077873
163	0x410d365f	8.825774
164	0x40638c03	3.5554206
165	0x407308cb	3.7974117
166	0xc10540f6	-8.32836
167	0xbf910a3c	-1.1331248
168	0x40713e40	3.7694244
169	0x3f021e5a	0.5082756
170	0x3fb02dba	1.3763955
171	0xc01286ff	-2.2894895
172	0x40e46ea5	7.1385064
173	0xc10d4646	-8.829657
174	0x3f25bdd6	0.6474279
175	0xc0ef566f	-7.479301
176	0x40bfda5d	5.9954057
177	0x40118252	2.2735791
178	0x40a907bc	5.282194
179	0x3f60d186	0.8781971
180	0x40b255c3	5.572969
181	0xc022f64b	-2.5462825
182	0xc0901914	-4.5030613
183	0x40251d25	2.5799038
184	0xbfd53d62	-1.6659358
185	0x40c5f99c	6.18672
186	0xbdd1d56b	-0.10245784
187	0x409ef25b	4.9670844
188	0x4108524f	8.520095
189	0xc0c3247a	-6.0982027
190	0xc0002bcf	-2.0026739
191	0xc1356f37	-11.339652
192	0xc019c3c6	-2.402574
193	0x40e0a933	7.020654
194	0x40d8527f	6.7600703
195	0xc133f536	-11.247366
196	0xc08277ec	-4.077139
197	0xc04d4389	-3.207247
198	0x40aaa12f	5.3321757
199	0x4014696f	2.3189352
200	0xc0c23c1c	-6.0698376
201	0x3f12f818	0.5740981
202	0xc0cbd8f4	-6.3702335
203	0xc0177751	-2.3666575
204	0xc0af77ff	-5.483398
205	0xbfb2c006	-1.3964851
206	0x3fa349f2	1.2756941
207	0x3f209ffd	0.6274412
208	0x40befeed	5.968619
209	0xc0f525f4	-7.660883
210	0x40ba6d82	5.8258677
211	0xc01f621a	-2.4903626
212	0x3f5ce626	0.8628868
213	0xbf617659	-0.8807121
214	0x40ceecb6	6.4663954
215	0xc0f214a8	-7.5650215
216	0x4116d663	9.4273405
217	0x40b06ebf	5.513519
218	0x3f265473	0.6497261
219	0x3da0ba52	0.07848038
220	0x404cd9e9	3.2008002
221	0xc01b264a	-2.424212
222	0x410af381	8.684449
223	0xc0874e93	-4.2283416
224	0xbf80eb08	-1.0071726
225	0xc0dee223	-6.9651046
226	0x4092067e	4.5632925
227	0x412462cd	10.274121
228	0x40a07ee8	5.0154915
229	0x411a19f6	9.631338
230	0xc0533d77	-3.3006265
231	0x3e606001	0.21911623
232	0xbe69db21	-0.22837497
233	0x41035769	8.20884
234	0x41079a96	8.475241
235	0xc114bf95	-9.296773
236	0x4136232c	11.383587
237	0xbfaaf26a	-1.3355229
238	0x40c08933	6.016748
239	0x408a16ea	4.315297
240	0x410a0494	8.626118
241	0x3eb942b7	0.36183712
242	0xc09a6cd8	-4.8257866
243	0x40feae9c	7.9588146
244	0x3e98f39c	0.2987336
245	0xc0becf20	-5.962784
246	0x3ff6fed1	1.9296514
247	0xc0913b6f	-4.538505
248	0x4109899d	8.596097
249	0xc0363aa1	-2.8473284
250	0xc015f78c	-2.343234
251	0x4106ec7c	8.432735
252	0xbf866550	-1.0499668
253	0x41098ca4	8.596836
254	0x4111f474	9.122181
255	0xc140ee68	-12.058205

action_model._continuous_distribution.mu.bias f4 [4]
0	0x4000d73d	2.013137
1	0xbdede859	-0.116165824
2	0x3f030406	0.51178014
3	0x3f0f4d4a	0.5597731

onnx::LSTM_102 f4 [1, 512, 128]
0	0x3b86d54f	0.004114784
1	0xbcb0a03c	-0.02156078
2	0x3efda050	0.4953637
3	0x3ecf2642	0.40458876
4	0x3e439141	0.19098379
5	0x3d71086e	0.05884593
6	0x3e57f106	0.21088037
7	0x3d9d8184	0.07690719
8	0xbef0d0c5	-0.4703428
9	0x3f342db6	0.7038225
10	0xbeff0790	-0.49810457
11	0xbe37840d	-0.17921467
12	0x3db42f0e	0.087980375
13	0xbe9e8174	-0.3095814
14	0x3e955e06	0.29173297
15	0x3d9e2e61	0.0772369
16	0xbd005c11	-0.0313378
17	0x3e37ddd6	0.17955717
18	0xbe14214c	-0.14465827
19	0xbdfee4e5	-0.12446002
20	0xbec7cbfd	-0.39022818
21	0xbf806c42	-1.0033038
22	0xbe5f1383	-0.21784787
23	0x3e3ba5ae	0.1832492
24	0xbea8187f	-0.3283119
25	0xbdd0b1b1	-0.10190142
26	0x3e1f1130	0.155339
27	0x3f02cf9a	0.51098025
28	0x3e349cb6	0.17637905
29	0x3f0aeedc	0.5427072
30	0xbe812ba1	-0.252286
31	0xbe9aa0c4	-0.3020078
32	0xbd335c95	-0.043789465
33	0xbedb0596	-0.427777
34	0xbd0025af	-0.031285938
35	0xbea4e406	-0.32205218
36	0x3eaa474f	0.3325753
37	0x3e7d8aa4	0.24759918
38	0x3e13646a	0.14393774
39	0x3da13ddc	0.07873127
40	0xbd7659aa	-0.060144104
41	0xbdc0d56a	-0.094157055
42	0xbf217574	-0.63069844
43	0x3d481daf	0.048856433
44	0x3eca961b	0.39567646
45	0xbf170890	-0.5899744
46	0x3ecb5bdb	0.39718518
47	0x3e9c3a20	0.30513096
48	0xbee89f43	-0.45434007
49	0x3f0275ca	0.5096098
50	0xbeb7a9a1	-0.35871604
51	0xbed77b6b	-0.42086348
52	0xbf616fc0	-0.8806114
53	0x3e0352de	0.1282458
54	0x3ed1d8e2	0.4098578
55	0xbd654841	-0.05597711
56	0xbea119d1	-0.3146501
57	0xbf3c5eac	-0.7358196
58	0x3ed41b97	0.414273
59	0x3edaabe8	0.4270928
60	0xbe47e12c	-0.1951949
61	0xbec84984	-0.39118588
62	0x3e44d9f7	0.19223772
63	0x3e311a96	0.17295298
64	0xbd2bf713	-0.041983675
65	0x3f2b6965	0.66957694
66	0xbe243a03	-0.16037755
67	0x3e05711c	0.13031429
68	0x3e986b12	0.29769188
69	0xbe991080	-0.298954
70	0xbe9c54e6	-0.30533522
71	0x3d8d243b	0.06891676
72	0xbe6999cb	-0.22812574
73	0x3e0651f2	0.13117197
74	0x3f0751fb	0.5285947
75	0xbdaf7a64	-0.08568266
76	0x3f2e71b4	0.6814225
77	0x3f21c1cc	0.63186336
78	0xbe874629	-0.26420715
79	0xbdc89c1c	-0.097954005
80	0x3e94663a	0.28984243
81	0xbe50355d	-0.20332856
82	0x3d435ce9	0.047696028
83	0x3e7f11a0	0.24909067
84	0x3ef60578	0.48051047
85	0x3f18a3ae	0.59624755
86	0x3e03f5b7	0.12886702
87	0x3ead7358	0.33877063
88	0xbd27330e	-0.040820174
89	0x3de53a91	0.11192811
90	0x3e4c009f	0.19922112
91	0xbed573ee	-0.4169001
92	0x3d16d816	0.03682717
93	0xbea26c12	-0.31723076
94	0x3f16013f	0.5859565
95	0x3f20779c	0.6268251
96	0xbe7638bc	-0.2404508
97	0x3f6428a8	0.89124537
98	0x3e067fde	0.13134715
99	0x3d6238d6	0.055229984
100	0x3dc75841	0.0973363
101	0x3ed6cbc4	0.41952336
102	0x3a50233d	0.0007939821
103	0x3ecdf1b5	0.4022347
104	0x3e1a979c	0.15096897
105	0x3f2ad083	0.66724414
106	0x3d87aa9c	0.06624338
107	0x3d82b124	0.06381443
108	0xbe0e2c4b	-0.13884084
109	0x3c759985	0.014990215
110	0xbe8cb975	-0.27485242
111	0x3e9c8e6a	0.30577403
112	0x3e7cba18	0.24680364
113	0xbeec3535	-0.46134344
114	0xbd21c733	-0.03949661
115	0xbe5cbf73	-0.21557407
116	0xbeda6731	-0.42656854
117	0xbcd4596c	-0.025921546
118	0x3e8c7415	0.27432314
119	0x3e76614d	0.24060555
120	0x3e9b5b06	0.30342883
121	0xbea3fd06	-0.3202898
122	0x3e05e4d4	0.13075572
123	0xbd76db30	-0.060267627
124	0xbf00e0fe	-0.5034331
125	0xbee55986	-0.44794863
126	0xbe3f0689	-0.18654837
127	0xbe9b6b02	-0.30355078
128	0xbf086ffd	-0.5329588
129	0x3e7d9989	0.247656
130	0x3f0804b9	0.53132206
131	0xbee07ca7	-0.43845102
132	0x3dd497f0	0.10380542
133	0x3d87348e	0.06601821
134	0xbe3ab590	-0.18233323
135	0xbddfb6af	-0.10923516
136	0x3e98e0dc	0.29859054
137	0x3ebb001c	0.3652352
138	0xbd9d9c6f	-0.07695853
139	0xbe86d287	-0.26332495
140	0xbea50db6	-0.32237023
141	0x3d47b4df	0.048756476
142	0x3e05f13f	0.1308031
143	0xbe1d8cd2	-0.1538575
144	0xbe96d145	-0.29456535
145	0xbd95aae6	-0.07307987
146	0x3cf02704	0.02931548
147	0xbeb6b0d9	-0.356818
148	0xbedc6adc	-0.43050277
149	0x3e6d8597	0.23195492
150	0xbd57e6a9	-0.05271021
151	0xbe238ac5	-0.15970905
152	0x3e7962cb	0.24354093
153	0xbd87a09e	-0.06622432
154	0x3ebf04d2	0.37308365
155	0xbd236a39	-0.039896224
156	0x3e754b2c	0.23954457
157	0x3e173e5b	0.1476988
158	0x3e094529	0.13405289
159	0xbe249eb3	-0.16076164
160	0x3f343436	0.7039217
161	0x3eec0cd7	0.46103546
162	0xbe980ae4	-0.2969581
163	0xbe346e8e	-0.17620298
164	0x3dec9f81	0.115538605
165	0x3eaaeaf5	0.33382383
166	0x3e8ec4fa	0.27884656
167	0x3e81acc2	0.25327116
168	0xbdcfe567	-0.10151177
169	0x3d8aca5d	0.06776879
170	0xbf0dad19	-0.5534225
171	0xbe1fb990	-0.1559813
172	0x3cfd68b6	0.03093372
173	0xbd76bc5c	-0.060238227
174	0xbe598210	-0.21241021
175	0xbed21ed4	-0.41039145
176	0xbeffd025	-0.4996349
177	0xbea375bd	-0.31925765
178	0x3e116e3a	0.14202204
179	0x3d9e5437	0.077309065
180	0x3e00c619	0.12575568
181	0x3e951a87	0.291218
182	0x3e89b89c	0.26898658
183	0xbe4fdff3	-0.20300274
184	0x3e724d10	0.2366221
185	0xbf27a584	-0.6548693
186	0xbd111432	-0.03541965
187	0x3eae6dfd	0.3406829
188	0xbe555144	-0.20831782
189	0xbe83ed31	-0.257669
190	0x3e88b87a	0.26703244
191	0xbe641029	-0.2227179
192	0xbf4d7ecd	-0.8027161
193	0x3f057478	0.5213084
194	0xbec65eb1	-0.3874412
195	0x3e33e3b8	0.17567337
196	0x3d17f372	0.037097402
197	0xbe7ba3f0	-0.24574256
198	0xbeea76bf	-0.4579372
199	0xbe116e81	-0.1420231
200	0xbea25dda	-0.31712228
201	0x3d8631c5	0.065524615
202	0x3dcd9529	0.10038216
203	0xbea3d00f	-0.31994674
204	0x3d36674c	0.044532105
205	0xbea5f007	-0.3240969
206	0xbe9351d3	-0.28773364
207	0xbed2e173	-0.4118763
208	0x3ee78a02	0.4522248
209	0xbedff9f4	-0.43745387
210	0xbee04a92	-0.43806893
211	0x3f0130fa	0.5046536
212	0xbeeb7c26	-0.45993155
213	0x3ea2caed	0.31795445
214	0x3e8c6b14	0.27425444
215	0xbf3b2aa1	-0.7311192
216	0x3e23838f	0.15968154
217	0xbe24cf7c	-0.16094774
218	0xbeb2dd62	-0.34934527
219	0xbc990d13	-0.018682992
220	0x3e13e207	0.14441691
221	0xbf12cbf2	-0.57342446
222	0xbdc111f4	-0.094272524
223	0x3dc65be0	0.096854925
224	0xbe5b7adf	-0.2143359
225	0x3e53d808	0.20687878
226	0xbe2efe9c	-0.17089313
227	0xbd7be7e1	-0.061500434
228	0xbdbd8bd2	-0.09255184
229	0xbd57e526	-0.052708767
230	0xb99d4c15	-0.0003000206
231	0x3e549c1c	0.20762676
232	0xbf059b1a	-0.5218979
233	0xbe1ce4d2	-0.15321663
234	0xbe1131f2	-0.14179209
235	0xbec0232b	-0.3752683
236	0xbe508112	-0.20361736
237	0xbdf84daf	-0.12124192
238	0x3c5761fc	0.01314592
239	0x3e98f460	0.29873943
240	0x3e47fdf2	0.19530466
241	0xbdb3367d	-0.08750627
242	0xbe966289	-0.2937205
243	0x3e861e40	0.26194954
244	0x3dd37170	0.10324371
245	0x3e019645	0.1265498
246	0x3e28b452	0.16475037
247	0x3d4c7383	0.049914848
248	0xbefe7d10	-0.4970479
249	0xbdef625c	-0.116886824
250	0x3bd9ad2a	0.006642957
251	0x3e35ffbc	0.17773336
252	0xbe825c24	-0.25460923
253	0x3d6bcaea	0.05756656
254	0x3de9a2ad	0.11407981
255	0xbe9bef69	-0.30456093

onnx::LSTM_103 f4 [1, 512, 128]
0	0x3dc06978	0.093951166
1	0x3e01235a	0.12611142
2	0xbe837782	-0.25677115
3	0xbf5e2fc9	-0.86791664
4	0xbf556d88	-0.83370256
5	0xbdbf42d4	-0.09338918
6	0x3eb61305	0.35561386
7	0x3ec89bca	0.39181358
8	0x3e03e360	0.12879705
9	0xbe9d70ce	-0.30750126
10	0x3f0ca01c	0.5493181
11	0xbeb4dd56	-0.35325116
12	0xbeeaaeea	-0.45836574
13	0xbec93b70	-0.3930316
14	0xbe845cde	-0.25852102
15	0xbec6f033	-0.38855132
16	0x3e4380c5	0.1909209
17	0xbeeb27a7	-0.4592869
18	0x3f32cce6	0.698439
19	0x3bd3bfb4	0.006462062
20	0x3f2bde75	0.6713632
21	0x3e796277	0.24353968
22	0xbe0150c5	-0.12628467
23	0x3f044579	0.51668507
24	0xbeb54f63	-0.3541213
25	0xbf27bcf1	-0.65522677
26	0xbf88e554	-1.0694985
27	0x3d5f8a63	0.054575335
28	0xbdd48b3d	-0.1037812
29	0xbf71898f	-0.9435052
30	0xbf024d2c	-0.50899005
31	0x3cd7493a	0.026280034
32	0x3ebc4de4	0.36778176
33	0xbdf5f787	-0.12010103
34	0xbe422a28	-0.18961394
35	0x3e8b8344	0.27248585
36	0x3ce86053	0.028366243
37	0x3f704045	0.9384807
38	0xbe18ab85	-0.1490918
39	0x3ed3cd50	0.41367579
40	0xbebd82d5	-0.3701388
41	0xbecc6bc0	-0.39925957
42	0xbe0ffe98	-0.14061964
43	0x3c7e8216	0.015533945
44	0xbf6147a7	-0.8799996
45	0x3ee0dd0e	0.4391865
46	0xbed9486d	-0.4243807
47	0x3f6591fb	0.89675874
48	0xbe06e59d	-0.13173528
49	0xbddb27be	-0.107009396
50	0x3ee4a57a	0.446575
51	0xbd01bb82	-0.031672962
52	0x3e8c2dae	0.273786
53	0x3e86adde	0.26304525
54	0x3e7bb8bf	0.24582194
55	0xbc72d757	-0.014821849
56	0xbeab1ea8	-0.33421826
57	0x3e61aba9	0.2203814
58	0xbeef012b	-0.4668058
59	0xbdc2fe46	-0.09521155
60	0x3f3d0697	0.7383818
61	0x3f8611b5	1.0474154
62	0x3ee4f214	0.4471594
63	0x3c6bbb54	0.014387924
64	0xbe8182da	-0.25295144
65	0x3e8b67bf	0.2722759
66	0x3f166d33	0.58760375
67	0x3f48678f	0.7828302
68	0x3f00fca3	0.50385493
69	0x3f0ca4e8	0.54939127
70	0x3f1751be	0.59109104
71	0xbea99d5a	-0.33127862
72	0xbe4308ee	-0.19046375
73	0xbec5949c	-0.38589942
74	0xbe8ee7a9	-0.27911118
75	0x3e258d36	0.16167149
76	0x3dd8f8f2	0.105943576
77	0xbf1e1012	-0.6174327
78	0xbeea238d	-0.45730248
79	0xbedaaa19	-0.427079
80	0x3c55b020	0.01304248
81	0x3ea557f5	0.32293668
82	0xbebffa9f	-0.37495896
83	0xbedf94b7	-0.43668148
84	0x3e8050a8	0.25061536
85	0x3cefc2c7	0.029267682
86	0xbeb03dd6	-0.34422177
87	0x3eed7312	0.46376854
88	0x3750be03	1.2442007e-05
89	0x3f04bf6f	0.51854604
90	0x3de61280	0.11233997
91	0xbf04ed27	-0.51924366
92	0xbeb46b07	-0.35237905
93	0xbdfd99a6	-0.12382822
94	0x3ef4be3f	0.47801396
95	0xbe813be3	-0.25241002
96	0x3ef25e76	0.47337693
97	0x3ed5ab66	0.4173233
98	0xbf1159ff	-0.5677795
99	0xbce149a8	-0.027500942
100	0xbe6c107a	-0.2305316
101	0xbea6eb9a	-0.32601625
102	0x3e8a6a5e	0.27034277
103	0x3e40a63e	0.18813416
104	0xbdd55795	-0.104170956
105	0x3eb17836	0.34662026
106	0x3ee46884	0.4461099
107	0x3dc613ec	0.096717685
108	0x3eef02c3	0.46681795
109	0xbf6ec6aa	-0.9327189
110	0x3e4f0cfa	0.20219794
111	0xbe4e6eb2	-0.20159414
112	0x3f4445c4	0.76668954
113	0xbeecc74a	-0.46245795
114	0x3e9797ee	0.296081
115	0xbb68c1e9	-0.003551597
116	0x3f30acd4	0.69013715
117	0x3f47c24c	0.7803085
118	0x3ea79426	0.32730216
119	0x3e7822ac	0.24231976
120	0x3ece73e2	0.40322787
121	0xbdbff588	-0.09373003
122	0xbd4c7b0c	-0.049922034
123	0xbf11f87a	-0.5701977
124	0xbf0151a0	-0.50515175
125	0x3eaed6dc	0.341483
126	0xbe601b07	-0.2188531
127	0xbe60cee1	-0.21953918
128	0xbe6fe6b8	-0.23427856
129	0x3dcb4f41	0.09927226
130	0xbe659ebf	-0.22423838
131	0xbd852474	-0.065010935
132	0x3e727562	0.2367759
133	0x3eb076a0	0.34465504
134	0x3e25de59	0.161981
135	0xbca83106	-0.020531189
136	0xbdf92c85	-0.121666946
137	0xbef3fee0	-0.47655392
138	0xbda00fd9	-0.07815523
139	0xbe2dbb07	-0.16965877
140	0x3c96a898	0.018390939
141	0x3dd5fbb4	0.10448399
142	0x3dd77196	0.10519712
143	0xbdb490af	-0.08816659
144	0xbdd434d1	-0.103616364
145	0x3c4943c9	0.012284228
146	0x3de28f0c	0.1106244
147	0xbef1e262	-0.4724303
148	0x3e818034	0.25293124
149	0x3ea5a071	0.3234897
150	0xbe5e0dd6	-0.21684965
151	0xbebf8a00	-0.37409973
152	0xbe28676a	-0.164457
153	0x3edd5070	0.4322543
154	0x3eda8c3a	0.4268511
155	0x3e7ecc96	0.24882731
156	0xbe27653a	-0.16347209
157	0x3e37e35e	0.17957827
158	0xbd048f27	-0.032363083
159	0xbe0d7da8	-0.13817465
160	0xbe920cbc	-0.2852534
161	0x3ecadbce	0.39620823
162	0xbe41b233	-0.18915634
163	0xbeb8e64d	-0.36113206
164	0x3f1ea7ba	0.6197468
165	0x3d9b6d4b	0.07589205
166	0xbf0989c5	-0.53725845
167	0x3eccb08f	0.39978454
168	0x3df84157	0.121218376
169	0xbee1203e	-0.4396991
170	0xbf058d14	-0.52168393
171	0x3a6dfcb8	0.00090784905
172	0x3d04d65f	0.032431003
173	0xbec95867	-0.39325258
174	0xbe437227	-0.19086514
175	0xbe4dcf67	-0.20098649
176	0xbe69d13e	-0.22833726
177	0x3e849059	0.2589138
178	0x3ec4c3a2	0.38430506
179	0x3d41c1b1	0.04730386
180	0x3ee66287	0.44997045
181	0xbf277170	-0.65407467
182	0xbef5b6bc	-0.47990978
183	0x3e49c8c9	0.197055
184	0xbe7180af	-0.23584245
185	0x3ee62c66	0.44955748
186	0x3d77625d	0.06039654
187	0x3e0c884d	0.1372387
188	0xbd492feb	-0.049117964
189	0x3e125e13	0.14293699
190	0xbe826f2f	-0.2547545
191	0xbc967db1	-0.018370481
192	0xbdf9e173	-0.12201204
193	0x3ea70a74	0.32625163
194	0x3d06b73d	0.032889593
195	0xbd8a5daf	-0.0675615
196	0xbe43746b	-0.19087379
197	0x3e19e995	0.1503051
198	0xbc3b6f85	-0.011440163
199	0xbd99a4a7	-0.07502108
200	0xbe0a6110	-0.13513589
201	0xbe8c8aad	-0.2744955
202	0x3dec08f9	0.11525149
203	0xbdc7ec92	-0.09761919
204	0xbe5a5dd4	-0.21324855
205	0xbb0263f2	-0.0019895998
206	0x3e5aaccf	0.21354984
207	0x3edeaa63	0.4348937
208	0x3dbfcefa	0.093656495
209	0xbe11ea54	-0.14249545
210	0xbe8503c4	-0.25979435
211	0x3e041c47	0.12901412
212	0x3e2b8055	0.16748174
213	0xbf71b558	-0.94417334
214	0xbf1010d3	-0.5627567
215	0x3e60945f	0.21931599
216	0x3c668bb5	0.014071395
217	0xbcc9b1a3	-0.024620837
218	0xbe5f85be	-0.21828362
219	0x3e971af6	0.29512757
220	0xbe384bd3	-0.17997675
221	0xbd69e557	-0.05710348
222	0x3db1e722	0.08686663
223	0x3ece5e1c	0.40306175
224	0x3f19cf85	0.60082275
225	0x3e43d447	0.19123946
226	0x3e41575e	0.18880984
227	0x3f00e509	0.5034948
228	0x3ea627a8	0.3245213
229	0x3d588b67	0.05286732
230	0xbd12d4f3	-0.035847615
231	0xbd690ea0	-0.056898713
232	0x3ec87df3	0.39158592
233	0x3e99d300	0.30043793
234	0x3e8d00e8	0.27539754
235	0x3cd16bbc	0.025564067
236	0xbe39169d	-0.18075033
237	0x3e2b08c4	0.16702563
238	0x3e888818	0.2666633
239	0xbeae3b02	-0.34029394
240	0xbe5f1da7	-0.21788655
241	0x3e973aab	0.29536948
242	0x3de5fec3	0.112302326
243	0xbe7c8dd7	-0.24663483
244	0xbe8e5b5a	-0.2780407
245	0x3e9c6d51	0.30552152
246	0xbdb429ec	-0.087970585
247	0x3ead1b6e	0.3380999
248	0x3eb4b6d1	0.35295728
249	0x3e0ebe12	0.13939694
250	0x3ea51fb5	0.32250753
251	0xbdc54472	-0.096321955
252	0xbd71084f	-0.058845814
253	0xbe8d71b3	-0.27625808
254	0x3e7508c2	0.23929122
255	0xbe1589c9	-0.14603342

onnx::LSTM_104 f4 [1, 1024]
0	0x3edf48c7	0.43610212
1	0xbdd729e7	-0.10506039
2	0x3d57582a	0.052574314
3	0x3cdeea16	0.02721123
4	0x3e1de7cd	0.15420456
5	0xbe2aed26	-0.16692027
6	0x3e0d7bbd	0.13816734
7	0xbcd1dd36	-0.025618177
8	0xbe11e6e1	-0.1424823
9	0x3e481a5a	0.19541302
10	0x3dd1ca90	0.10243714
11	0x3db5d1d7	0.088779144
12	0x3d5d9198	0.054093927
13	0x3c8fc844	0.017551549
14	0xbe4b6041	-0.19860937
15	0x3dbcd270	0.09219825
16	0x3d9aeda3	0.07564857
17	0x3d8fc824	0.07020596
18	0xbe5b7cec	-0.21434373
19	0x3d28a050	0.04116851
20	0x3dd1bff9	0.10241694
21	0x3e8d6ec4	0.2762357
22	0xbde6ad37	-0.11263507
23	0xbcedae93	-0.029013908
24	0x3cdca031	0.026931854
25	0x3e1cc072	0.15307787
26	0xbd05d465	-0.03267326
27	0xbe6fcbf4	-0.23417646
28	0xbc73bff6	-0.01487731
29	0x3e965056	0.29358166
30	0x3cd12f51	0.025535258
31	0x3ce6a802	0.028156284
32	0xbcbeb7fa	-0.023281086
33	0x3dabbbff	0.08385467
34	0xbecc30bb	-0.39880928
35	0x3d624673	0.055242967
36	0xbdbb2e85	-0.09139732
37	0x3ca02e1f	0.019553242
38	0x3dd134e3	0.102151655
39	0x3e36afe3	0.17840533
40	0x3eab02b8	0.33400512
41	0x3d58dd18	0.052945226
42	0xbe675d04	-0.22594076
43	0xbd5a1e58	-0.053251594
44	0x3dc0f9ad	0.09422622
45	0xbe1f5611	-0.15560175
46	0x3de292b8	0.11063141
47	0xbdaa4338	-0.08313602
48	0x3e18c2b9	0.14918031
49	0x3e63d8a0	0.22250605
50	0xbd57dc7e	-0.052700512
51	0x3e4a28c2	0.1974211
52	0x3ec0a593	0.37626323
53	0xbda82592	-0.08210291
54	0xbd333eea	-0.04376117
55	0xbe0a7363	-0.13520579
56	0x3e3c8b48	0.18412507
57	0xbe34fc1c	-0.17674297
58	0x3cf2a707	0.02962066
59	0x3e040a9f	0.12894677
60	0x3dbe1e56	0.0928313
61	0x3e2838b6	0.16427884
62	0x3c0b90b7	0.008518389
63	0x3e25643e	0.1615152
64	0x3e8bdf3d	0.27318755
65	0x3e2cbe52	0.16869476
66	0x3e5e3793	0.21700887
67	0x3e0c58fd	0.13705821
68	0x3dd7791b	0.10521146
69	0xbc9245fb	-0.017855635
70	0x3dba7a0b	0.09105309
71	0x3d2a0086	0.041504405
72	0x3e02457d	0.1272182
73	0x3d5384cb	0.051640313
74	0x3e8ee4d3	0.27908954
75	0xbdd7a4a5	-0.1052945
76	0x3e54c807	0.2077943
77	0x3e0847db	0.1330866
78	0xbd5bcac5	-0.053660173
79	0xbe277a9f	-0.1635537
80	0xbeca9405	-0.39566055
81	0xbc8a90e8	-0.0169148
82	0x3d62d46d	0.055378366
83	0xbe2c7ca0	-0.16844416
84	0xbc4c562b	-0.012471716
85	0xbe04bbf4	-0.12962323
86	0xbd911a3a	-0.070850804
87	0xbd4339cd	-0.047662545
88	0x3e2992ee	0.16559955
89	0xbca06d53	-0.01958338
90	0xbdbfafd2	-0.09359707
91	0x3d9ef7b0	0.077620864
92	0xbadc0dfd	-0.0016788837
93	0x3e618f83	0.22027402
94	0x3e2721c6	0.16321477
95	0x3e33db64	0.1756416
96	0xbe4e9cf8	-0.20177066
97	0x3e2e6ee6	0.17034492
98	0x3e0935e1	0.1339946
99	0x3dc33d80	0.095332146
100	0x3d0a1fd7	0.03372177
101	0x3bc6cd35	0.006066943
102	0x3e88c7f3	0.2671505
103	0xbdd89b27	-0.10576468
104	0x3e3e0433	0.1855629
105	0x3e40ff22	0.18847325
106	0x3ccca26d	0.024979794
107	0xbe11fa00	-0.14255524
108	0xbcdf21f9	-0.02723788
109	0x3e4f56a7	0.20247899
110	0x3dbb904a	0.0915838
111	0xbe3efb55	-0.18650563
112	0x3e4b4023	0.19848685
113	0xbe3d2c3f	-0.1847391
114	0x3d996e45	0.07491735
115	0x3e1792d7	0.14802109
116	0x3e1edd26	0.15514049
117	0x3e9335af	0.28751895
118	0x3de181d1	0.11011089
119	0x3e184fbe	0.14874169
120	0x3d4dbd13	0.050229143
121	0x3e488dc9	0.19585337
122	0x3db011fa	0.08597179
123	0x3db4f6b3	0.08836117
124	0x3e22ef3d	0.15911575
125	0x3e8a576c	0.27019823
126	0x3d614b04	0.05500318
127	0xbd9244ae	-0.07142006
128	0x3e9332b3	0.28749618
129	0xbc9adb8d	-0.018903518
130	0xbe352c91	-0.17692782
131	0xbdb38d73	-0.08767214
132	0x3d470def	0.048597272
133	0x3d176d1c	0.03696929
134	0xbd47dba6	-0.048793457
135	0x3cf39be9	0.02973743
136	0xbe034375	-0.12818702
137	0x3e2ee6a5	0.17080171
138	0x3e472096	0.19446024
139	0xbe4d8050	-0.20068479
140	0x3d8f914d	0.07010136
141	0xbdb2bd6e	-0.08727537
142	0xbd201165	-0.03907909
143	0x3e281ecb	0.16417997
144	0x3d8558ee	0.065111026
145	0x3e162786	0.14663514
146	0xbceb06ed	-0.028689826
147	0x3ddc567f	0.10758685
148	0xbdbfb464	-0.09360579
149	0x3da8a7ee	0.08235155
150	0x3d0b068a	0.033941783
151	0xbcc53172	-0.024071429
152	0x3d34cbd5	0.044139702
153	0x3dbdad79	0.09261603
154	0xbe2b8bf8	-0.16752613
155	0xbdaf43a6	-0.08557825
156	0x3d79b1c5	0.06096055
157	0x3e083ab3	0.13303642
158	0xbde1f94c	-0.11033878
159	0x3e65268c	0.22377986
160	0x3d08309c	0.033249483
161	0xbe580473	-0.21095447
162	0x3dc2ec90	0.09517777
163	0x3c907d60	0.017637908
164	0x3e6c9622	0.23104146
165	0x3e27a9db	0.16373388
166	0x3ec86f1f	0.3914728
167	0x3e85e60a	0.26152068
168	0x3c49f4aa	0.012326399
169	0xbdc440db	-0.09582683
170	0xbded2e4b	-0.11581095
171	0x3ec39230	0.3819747
172	0x3e762050	0.24035764
173	0x3e735de2	0.23766282
174	0xbd6f5d9e	-0.05843889
175	0xbd7e3cde	-0.062069766
176	0xbdb93156	-0.09042613
177	0x3e4bb35c	0.19892639
178	0x3c340ac9	0.0109888995
179	0x3e230176	0.15918526
180	0xbdbaec23	-0.09127071
181	0x3dcc3a91	0.09972108
182	0x3ca76fcb	0.02043905
183	0x3ca3fa09	0.020016687
184	0x3e0706a9	0.13186134
185	0xbe2aebab	-0.16691463
186	0xbd7d9c5b	-0.06191669
187	0x3ea008ab	0.31256613
188	0xbdee9293	-0.116490506
189	0x3d5f6711	0.05454165
190	0x3e042343	0.12904076
191	0x3d70ad99	0.058759306
192	0x3e82963b	0.25505242
193	0x3e25f94f	0.16208385
194	0xbe0c8b7c	-0.13725084
195	0xbd799ec0	-0.06094241
196	0x3dddaf5f	0.10824465
197	0xbe4e2026	-0.20129451
198	0xbccee5a5	-0.025255987
199	0x3d6bc195	0.05755766
200	0xbcea7259	-0.028618978
201	0x3bdd569b	0.006754709
202	0x3e884cc9	0.26621082
203	0x3e90768a	0.28215438
204	0x3df995ad	0.121867515
205	0x3e0898eb	0.13339584
206	0x3e01ffc8	0.12695229
207	0x3e155103	0.14581685
208	0x3e3ab836	0.18234333
209	0x3dfa58d6	0.12223975
210	0x3d2581ba	0.04040692
211	0x3dce947e	0.100869164
212	0xbdf47be3	-0.11937692
213	0x3e9c7ec2	0.3056546
214	0x3e244a95	0.16044076
215	0x3d8776ee	0.06614481
216	0x3d226218	0.03964433
217	0xbd57c68b	-0.05267958
218	0xbe453a69	-0.19260563
219	0xbd5390b1	-0.05165166
220	0xbda6a137	-0.08136218
221	0x3d8450b5	0.06460706
222	0x3d73c4af	0.059513744
223	0x3c3bec28	0.011469878
224	0xbd24ed8d	-0.04026561
225	0xbdf631c2	-0.12021209
226	0xbd0fca2a	-0.035104908
227	0x3df4a9ff	0.11946487
228	0xbd92cbef	-0.071678035
229	0xbe1b3e2f	-0.1516044
230	0x3d40e080	0.0470891
231	0x3e8a07ef	0.26959178
232	0xbd325504	-0.04353811
233	0x3e00251c	0.12514156
234	0x3e613e5b	0.21996443
235	0xbc8e5ff1	-0.017379733
236	0x3e745ab7	0.2386273
237	0x3ed57338	0.41689467
238	0x3e7406d3	0.23830728
239	0x3e21f62f	0.15816568
240	0x3e629955	0.22128804
241	0xbe5ff1fe	-0.21869656
242	0x3e02c2a5	0.12769563
243	0x3d084385	0.033267517
244	0x3bd86a21	0.0066044484
245	0x3e85a3f9	0.26101664
246	0xbe0f0974	-0.1396845
247	0x3e028c09	0.12748732
248	0x3e9a7a29	0.30171326
249	0x3e3b9a2c	0.1832053
250	0xbb3c0646	-0.0028690263
251	0xbd93844e	-0.072029695
252	0xbdc00ebe	-0.09377812
253	0x3e98109e	0.29700178
254	0xbc84b02d	-0.016197288
255	0xbcac17e4	-0.021007486
