results/DroneAgent_New4/DroneAgent/DroneAgent-4799975.onnx (onnx, 640971 bytes, 10 tensors)

100 f4 [1, 512, 128]
0.07559753 0.01546472 -0.014622654 -0.044078276 0.20172048 -0.029320473 0.051295463 -0.11474591
-0.1407791 0.042097975 0.19281925 -0.03509015 0.04631103 0.21677239 -0.18588966 0.30031392
0.08765152 -0.2748678 -0.12495491 -0.09233837 -0.25230023 0.07374544 0.086143225 -0.26357913
-0.16485608 0.114512816 0.017507749 0.020210614 0.15856707 0.13964127 0.28040895 -0.1213789
-0.047146246 0.057794258 -0.12016099 0.060064513 0.03362863 0.14565523 -0.26938248 -0.2078166
-0.11840881 0.12409371 0.017311506 -0.01786419 -0.23418185 -0.035818085 0.097965665 0.06730133
-0.06847915 0.053414684 0.0832569 0.19502161 -0.067769445 0.12335454 -0.005052213 -0.10432915
-0.08161374 0.17966667 -0.014672127 -0.033260044 -0.060015313 -0.10417546 0.12800926 -0.060637306
-0.13484861 -0.05502866 -0.35999757 -0.09645231 0.1234942 -0.06581846 -0.02414452 -0.07405589
-0.08613368 0.09854338 0.11485014 -0.07373558 -0.13302372 -0.18363819 -0.09439776 0.079549894
-0.08210297 -0.1557117 -0.12865904 -0.099981114 0.14145051 0.07698477 0.043009788 0.05830087
0.06474159 -0.020512305 -0.18933791 -0.16307272 -0.07649675 0.043970376 0.07262256 -0.10404231
-0.0757457 0.106929764 -0.18195389 -0.1134234 -0.028786518 -0.049378157 0.375094 -0.06748873
0.08116645 -0.038661536 -0.085171044 0.1547218 0.010743309 -0.0024175073 -0.0013037131 0.11030221
-0.0605888 0.060659993 -0.050124086 -0.15315945 0.110039145 -0.035876106 0.07465137 0.075795606
0.13339064 0.055887543 -0.069794185 0.10849734 0.08050283 -0.14133468 -0.04237324 -0.07489055
0.017805276 0.021366343 0.19675912 0.117379434 -0.20183471 0.09303625 -0.088648036 0.004789791
-0.06731602 0.03440803 0.14731705 -0.014340065 -0.11106901 -0.08073599 -0.06886348 -0.12738422
0.020996476 0.13344614 0.11003547 -0.0869501 -0.031381376 0.115444295 -0.20946059 -0.09377255
0.1792503 -0.048325323 -0.09763485 0.13958995 0.21012603 -0.10072769 -0.0077980338 -0.102522716
0.1802871 -0.033148535 0.012864931 0.1184822 -0.031717308 -0.006192985 0.055106364 0.07581211
-0.09467722 -0.023796491 -0.2008087 0.08416902 0.12214571 0.064580984 0.0072177155 0.15027905
0.03826111 0.086428195 0.07938838 -0.10501825 -0.06317059 -0.0051072645 -0.117126204 -0.07314342
-0.09713473 -0.14755699 -0.10917598 0.010408475 0.08504571 -0.020655097 0.062400226 0.08708242
-0.0076531367 0.09303357 -0.19081342 -0.05490876 0.050692726 0.0066657825 -0.015867738 0.1262687
0.008826654 0.1238885 0.095421486 -0.14947076 0.016517464 -0.06347232 0.15760276 0.0456177
-0.0901462 -0.029310942 0.15233779 0.020967476 0.094029225 0.17381854 0.19356227 -0.044693884
-0.037402388 -0.027942998 -0.0044460963 -0.11563769 0.11726073 -0.19994158 0.15122397 0.20313314
0.12083643 -0.1625608 0.07152372 -0.10367928 -0.11228517 -0.07161852 -0.13733108 0.14887089
-0.12623836 0.16811433 -0.018181022 0.054943796 -0.15751575 -0.04682016 0.06738674 -0.19841425
-0.024234494 0.019792974 -0.014374657 0.020035272 -0.03822048 -0.0044246074 -0.055245545 0.06653543
0.12709315 0.12160707 -0.09466353 0.013510835 -0.17523117 0.115542985 -0.11845261 0.20167384
00000000: e1d2 9a3d bd5f 7d3c db93 6fbc 6c8b 34bd
00000010: d08f 4e3e 7d31 f0bc 311b 523d e7ff eabd
00000020: 6528 10be ed6e 2c3d 6972 453e b0ba 0fbd
00000030: a2b0 3d3d 95f9 5d3e dc59 3ebe bfc2 993e
00000040: a482 b33d 79bb 8cbe 5ce8 ffbd e61b bdbd
00000050: 7f2d 81be d907 973d dc6b b03d d8f3 86be
00000060: 08d0 28be b285 ea3d 696c 8f3c bb90 a53c
00000070: 685f 223e 1ffe 0e3e c391 8f3e 8095 f8bd
00000080: 6c1c 41bd acb9 6c3d f716 f6bd 3506 763d
00000090: 2dbe 093d a526 153e 80ec 89be e0cd 54be
000000a0: 5180 f2bd d824 fe3d dcd0 8d3c ec57 92bc
000000b0: 5ecd 6fbe fcb5 12bd 39a2 c83d 48d5 893d
000000c0: cc3e 8cbd 5bc9 5a3d 9882 aa3d bfb3 473e
000000d0: b5ca 8abd 4ea1 fc3d 098d a5bb 85aa d5bd
000000e0: 1b25 a7bd 8afa 373e 5c63 70bc af3b 08bd
000000f0: 9ed2 75bd f259 d5bd dc14 033e d35e 78bd
00000100: c115 0abe bb65 61bd 9a51 b8be ca88 c5bd
00000110: 87ea fc3d d4cb 86bd baca c5bc 9daa 97bd
00000120: db66 b0bd 1dd1 c93d 8d36 eb3d ae02 97bd
00000130: 5f37 08be a60b 3cbe 9d53 c1bd 0eeb a23d
00000140: 9a25 a8bd e372 1fbe 32bf 03be e6c2 ccbd
00000150: 67d8 103e 31aa 9d3d 082b 303d e5cc 6e3d
00000160: 3d97 843d 6c09 a8bc cce1 41be 89fc 26be
00000170: 54aa 9cbd 481a 343d 23bb 943d 2214 d5bd
00000180: 9020 9bbd fefd da3d 1f52 3abe 874a e8bd
00000190: b4d1 ebbc c040 4abd 520c c03e 8837 8abd
000001a0: 993a a63d 8f5b 1ebd 286e aebd 646f 1e3e
000001b0: b404 303c 0b6f 1ebb 5ae1 aaba 20e6 e13d
000001c0: f62b 78bd 9d76 783d ea4e 4dbd d5d5 1cbe
000001d0: 345c e13d d3f2 12bd d1e2 983d ba3a 9b3d
000001e0: 8e97 083e 56ea 643d 41f0 8ebd da33 de3d
000001f0: abde a43d 0aba 10be 908f 2dbd 3760 99bd
00000200: 5fdc 913c 7808 af3c 397b 493e a164 f03d
00000210: c2ad 4ebe ca89 be3d 1a8d b5bd aef3 9c3b
00000220: fbdc 89bd 6fef 0c3d 48da 163e 98f2 6abc
00000230: 2678 e3bd e958 a5bd 4c08 8dbd 0271 02be
00000240: cd00 ac3c 1ba6 083e 475a e13d e512 b2bd
00000250: c289 00bd 0f6e ec3d d67c 56be d30b c0bd
00000260: 648d 373e c6f0 45bd c8f4 c7bd abf0 0e3e
00000270: 472b 573e 524a cebd a686 ffbb 6ef7 d1bd
00000280: 2e9d 383e c2c6 07bd 6ec7 523c cca6 f23d
00000290: 02ea 01bd 86ee cabb 36b7 613d 6143 9b3d
000002a0: 21e6 c1bd dcf0 c2bc cca0 4dbe cf60 ac3d
000002b0: 8827 fa3d 0943 843d 9682 ec3b c0e2 193e
000002c0: afb7 1c3d 4401 b13d 6096 a23d cf13 d7bd
000002d0: 955f 81bd d75a a7bb dddf efbd 38cc 95bd
000002e0: 93ee c6bd 2e19 17be a897 dfbd 4f88 2a3c
000002f0: 722c ae3d e134 a9bc 6197 7f3d 4558 b23d
00000300: 2ac7 fabb 6288 be3d 9864 43be 02e8 60bd
00000310: 2da3 4f3d a36c da3b 0ffd 81bc 954c 013e
00000320: ac9d 103c 41b9 fd3d 576c c33d dd0e 19be
00000330: a24f 873c c7fd 81bd 9e62 213e a0d9 3a3d
00000340: 929e b8bd 801d f0bc 70fe 1b3e fcc3 ab3c
00000350: 6592 c03d 7dfd 313e 3035 463e ef10 37bd
00000360: 3f33 19bd b7e8 e4bc 8fb0 91bb 74d3 ecbd
00000370: 6526 f03d 7cbd 4cbe 75da 1a3e 2202 503e
00000380: 1779 f73d 5776 26be 077b 923d cd55 d4bd
00000390: c4f5 e5bd bbac 92bd 85a0 0cbe 9c71 183e
000003a0: a144 01be 2a26 2c3e 5ef0 94bc bf0c 613d
000003b0: cf4b 21be 7fc6 3fbd 0f02 8a3d 1b2d 4bbe
000003c0: 6b87 c6bc e024 a23c ae83 6bbc 0321 a43c
000003d0: 148d 1cbd 4cfc 90bb 2749 62bd ba43 883d
000003e0: b524 023e 210d f93d f4de c1bd 8d5c 5d3c
000003f0: cd6f 33be cda1 ec3d 4897 f2bd 9683 4e3e

101 f4 [1, 1024]
-0.0565781 0.09378849 0.015814686 0.11892665 0.047990184 -0.07117016 0.0035956448 -0.038102258
-0.14980233 -0.045803674 0.014248006 -0.015450191 -0.06719038 -0.014804612 -0.09010049 -0.018309258
0.059772685 -0.08809582 -0.056448326 -0.02164639 -0.03357566 -0.05657898 -0.08696789 0.039158117
-0.039954543 -0.04018791 0.12808105 0.08168524 0.09876281 -0.035475284 -0.02627379 0.003033717
-0.11901598 -0.011242495 0.010037505 -0.08070516 -0.069089025 -0.063122325 -0.084924 -0.10903914
-0.030536273 0.085997604 -0.05169723 -0.13631445 0.07348299 -0.03179501 0.037630226 0.050975498
-0.098383434 -0.016940556 -0.030710414 -0.051217154 0.07220156 -0.014735541 0.10455629 0.034382228
0.0030326087 -0.09658835 -0.057861727 -0.059636198 0.06475614 -0.092563406 -0.046718266 0.17372008
0.023261478 0.009521597 0.04204748 -0.037937097 -0.04712388 -0.0036281543 0.00867376 -0.12848304
0.030160654 -0.021424592 -0.058066875 -0.10509952 -0.08146821 -0.0400662 0.021226315 0.00966304
-0.061964083 -0.040432375 -0.06150762 0.016927252 0.04473537 -0.012105234 0.04357315 -0.014915607
0.05385701 0.0108455075 -0.014826114 0.020729374 -0.0037935725 0.061491504 -0.1183071 -0.098483294
-0.14926139 0.016346686 0.048296113 0.10000212 -0.14682955 -0.0031902993 -0.06541667 0.017346801
-0.07767439 0.02757791 -0.020992862 0.115212604 -0.0075484705 -0.07442582 -0.031237701 -0.105346955
-0.018723575 -0.0069489856 -0.030771434 -0.06436684 0.015442239 0.013520925 0.007374297 -0.09399264
0.012830255 -0.035181805 0.026186494 0.0061060064 -0.02533707 0.014316233 0.06480688 0.05150034
0.05617889 -0.0035516776 -0.0046507763 0.0025696796 0.024968704 0.0001345715 -0.005410478 -0.033394497
-0.053393174 0.045427743 0.04268098 0.09820413 0.03969453 -0.045818925 -0.03767376 0.04647734
0.010623637 0.060354415 0.0012312757 0.04328445 -0.055077665 -0.057921946 0.020921659 0.02589293
-0.005819242 -0.07780506 0.025569279 -0.024654767 0.041483637 -0.052189957 -0.00764226 0.01872128
-0.044525247 -0.016764881 0.008185732 0.033305984 -0.009139698 0.01815602 -0.042049967 -0.038795143
-0.028269602 -0.07555936 0.004113362 -0.026012307 0.15373355 0.048522733 0.047740865 -0.013479207
-0.0032198974 0.040425517 -0.056521103 0.029750695 -0.111900926 -0.13126075 -0.033858456 -0.06545979
0.04278044 -0.008972144 -0.020737734 0.0032241452 0.07786452 0.042386454 0.05035083 -0.07906692
-0.0076193837 0.04556457 -0.0094637135 0.059331115 -0.10363269 -0.053132515 0.08369449 -0.06356201
-0.082404286 0.008814248 0.025609937 -0.032334764 -0.013508124 -0.04793871 0.030292396 -0.02268926
0.043017793 0.100446016 0.021908952 -0.02493806 -0.072428465 -0.06292848 0.020344343 0.022829516
0.074702136 -0.023150329 0.03036955 -0.09132594 -0.059299182 0.031022184 -0.053454462 -0.027806882
0.034804054 -0.06601785 -0.022035025 0.0752711 -0.031120542 -0.017354405 0.03655522 0.0013795197
-0.067648105 -0.045221224 -0.030182093 -0.08513208 0.011912707 0.029523466 0.006269262 -0.006583739
-0.0134903975 -0.13492048 -0.0005117179 -0.061885376 -0.001358102 -0.02564891 0.11705633 -0.041007336
-0.034261227 -0.0098808855 0.035684224 -0.07355872 0.049803946 -0.019658074 -0.013623933 -0.027318442
00000000: 70be 67bd 2e14 c03d cd8d 813c d18f f33d
00000010: 5b91 443d a9c1 91bd e9a4 6b3b 1d11 1cbd
00000020: c865 19be a29c 3bbd 7870 693c cc22 7dbc
00000030: 1c9b 89bd 0b8f 72bc 9b86 b8bd 4cfd 95bc
00000040: 34d4 743d 956b b4bd 5c36 67bd c553 b1bc
00000050: a286 09bd 5cbf 67bd 391c b2bd 4364 203d
00000060: 60a7 23bd 149c 24bd ae27 033e 974a a73d
00000070: 2844 ca3d 884e 11bd 223c d7bc 53d1 463b
00000080: a6be f3bd 7132 38bc 5974 243c bf48 a5bd
00000090: 8c7e 8dbd 4746 81bd a2ec adbd ea4f dfbd
000000a0: 3527 fabc 831f b03d 7ac0 53bd 0496 0bbe
000000b0: 407e 963d 7c3b 02bd 2722 1a3d afcb 503d
000000c0: 417d c9bd ecc6 8abc 6894 fbbc 14c9 51bd
000000d0: 69de 933d 576d 71bc 9c21 d63d 61d4 0c3d
000000e0: bbbe 463b 1dd0 c5bd 6b00 6dbd 1645 74bd
000000f0: de9e 843d e291 bdbd a75b 3fbd ade3 313e
00000100: db8e be3c 7900 1c3c fa39 2c3d ee63 1bbd
00000110: f804 41bd 54c6 6dbb 631c 0e3c 0f91 03be
00000120: 7a13 f73c a082 afbc 88d7 6dbd 6b3e d7bd
00000130: ced8 a6bd 751c 24bd cfe2 ad3c ba51 1e3c
00000140: 0dce 7dbd 6b9c 25bd 6aef 7bbd 05ab 8a3c
00000150: 6f3c 373d 0855 46bc c279 323d 9760 74bc
00000160: 2b99 5c3d 5bb1 313c 3be9 72bc a6d0 a93c
00000170: 969d 78bb 84de 7b3d fe4a f2bd 9cb1 c9bd
00000180: fad7 18be 7ce9 853c 25d2 453d e9cd cc3d
00000190: 7c5a 16be 5714 51bb 2df9 85bd e11a 8e3c
000001a0: c013 9fbd 12eb e13c 39f9 abbc 96f4 eb3d
000001b0: 2959 f7bb 906c 98bd 35e6 ffbc 25c0 d7bd
000001c0: 2f62 99bc 51b4 e3bb 6014 fcbc c3d2 83bd
000001d0: 7201 7d3c df86 5d3c 16a4 f13b 377f c0bd
000001e0: fd35 523c cc1a 10bd 0f85 d63c e514 c83b
000001f0: b08f cfbc a28e 6a3c 78b9 843d 05f2 523d
00000200: d61b 663d 43c3 68bb 8a65 98bb 1268 283b
00000210: 2b8b cc3c c31b 0d39 614a b1bb abc8 08bd
00000220: cdb2 5abd 7112 3a3d 40d2 2e3d 3f1f c93d
00000230: bb96 223d a0ac 3bbd cd4f 1abd 065f 3e3d
00000240: c30e 2e3c 3136 773d c262 a13a 094b 313d
00000250: 1e99 61bd 903f 6dbd e663 ab3c 691d d43c
00000260: 57af bebb 4258 9fbd aa76 d13c cbf8 c9bc
00000270: bfea 293d 23c5 55bd ec6b fabb 5f5d 993c
00000280: 1b60 36bd 8156 89bc 731d 063c db6b 083d
00000290: acbe 15bc efbb 943c 963c 2cbd a8e7 1ebd
000002a0: a795 e7bc debe 9abd 62c9 863b c317 d5bc
000002b0: 546c 1d3e c6bf 463d ed8b 433d e4d7 5cbc
000002c0: ea04 53bb 3a95 253d ac82 67bd bbb7 f33c
000002d0: 502c e5bd 3869 06be 2aaf 0abd c80f 86bd
000002e0: 8b3a 2f3d e6ff 12bc 2ee2 a9bc 2e4c 533b
000002f0: 6f77 9f3d 6b9d 2d3d ac3c 4e3d d6ed a1bd
00000300: 06ac f9bb eaa1 3a3d b10d 1bbc 2f05 733d
00000310: 603d d4bd 7ba1 59bd 0468 ab3d cd2c 82bd
00000320: 94c3 a8bd a369 103c eecb d13c 7571 04bd
00000330: 2e51 5dbc 615b 44bd c227 f83c d4de b9bc
00000340: 6d33 303d a4b6 cd3d 677a b33c e74a ccbc
00000350: 6055 94bd a6e0 80bd 2ea9 a63c f704 bb3c
00000360: 6ffd 983d c2a5 bdbc 90c9 f83c 1809 bbbd
00000370: b3e3 72bd 3c22 fe3c 11f3 5abd 42cb e3bc
00000380: b28e 0e3d 5e34 87bd cc82 b4bc bc27 9a3d
00000390: 82f0 febc d32a 8ebc edba 153d 00d1 b43a
000003a0: 178b 8abd e439 39bd 7040 f7bc ba59 aebd
000003b0: 842d 433c 32db f13c 626e cd3b 68bc d7bb
000003c0: d406 5dbc 9828 0abe cf24 06ba 857b 7dbd
000003d0: 5702 b2ba aa1d d2bc 3bbb ef3d 4ff7 27bd
000003e0: 8055 0cbd 70e3 21bc 9f29 123d f4a5 96bd
000003f0: 39ff 4b3d f809 a1bc eb36 5fbc edca dfbc

99 f4 [1, 512, 128]
0.023983799 -0.035065923 -0.13226946 -0.034762383 0.24642769 -0.10620266 0.03362176 0.19656287
-0.22297922 -0.25701907 0.09023008 -0.093250126 0.07780045 0.04943306 0.12281914 -0.019474955
0.0370275 -0.06812776 0.025988068 -0.0073735286 0.05812659 -0.08410004 0.02469252 -0.1494909
-0.19484974 0.013264069 -0.13880433 0.039517973 0.033615395 -0.026056254 -0.23080322 0.0072684875
0.090772785 0.07860692 0.11802343 -0.014011821 0.11274194 0.0018354871 0.09491632 0.08905318
0.07444443 0.14523178 -0.09811758 0.12873878 0.19651388 -0.08042596 -0.16336103 0.0060884003
-0.033607643 -0.08006403 0.15129468 -0.080372036 -0.00037423626 0.032539148 -0.15972413 0.026811851
-0.15030041 0.194792 -0.007863495 0.0041263974 0.27654734 0.11163643 0.17685592 -0.22748612
0.09535941 -0.115020834 -0.107864626 -0.1330261 -0.24593656 -0.1758866 0.042960003 0.1947197
0.051365294 -0.22062604 -0.00032751897 -0.14201333 -0.26324815 -0.16271022 -0.059514176 0.13019365
0.0833652 0.09564882 0.063625045 0.049586922 0.064771764 0.0640514 0.24211632 -0.21431601
0.13612282 0.06511589 0.0080766035 0.088010855 0.118071266 0.20126504 0.052880004 0.0362334
0.18011233 0.06013191 0.0064874254 -0.16577534 0.15177214 -0.18857802 -0.21157107 0.06046086
-0.031210238 -0.021562966 -0.19363308 0.04218238 -0.20064671 0.08718972 -0.10191812 0.1995753
0.08619194 0.06536313 -0.097069845 -0.21896026 0.17150837 -0.08044081 -0.055080876 0.11137238
-0.13893013 -0.050708935 -0.122790575 -0.011217416 -0.12959337 -0.25737688 -0.061340027 -0.14879306
-0.086392105 0.21417743 0.14710754 0.10923243 -0.23749481 0.114261605 0.021259842 -0.14039797
-0.054171834 0.02667626 -0.107730456 -0.009452703 -0.14558716 -0.10614536 -0.005178832 0.031137304
0.23449667 -0.040525183 0.025276579 0.034370877 0.015941445 -0.11002214 0.07751743 0.032621823
0.28537765 0.11450498 0.104328245 -0.17234296 0.12391344 -0.0064997766 0.065783076 -0.13787153
-0.0664806 0.09419424 -0.0018099495 -0.0044847582 0.16982731 -0.07829254 0.010926984 -0.1183817
-0.003258766 0.05978607 -0.13703834 0.0025253205 -0.093924716 -0.028451372 0.02718838 0.11453437
-0.15939535 0.15316017 -0.17894846 0.12743543 0.21074766 -0.11320033 0.0007194706 -0.101666875
0.015239866 -0.07298384 -0.07077551 0.11618604 0.04527499 0.17230485 0.109133326 0.12011864
0.15674491 -0.14808778 0.119896285 0.06996288 0.1517573 0.12834081 -0.036591712 0.044544913
-0.014579985 0.108357504 0.12713979 0.0031361645 0.14548998 -0.13091786 -0.043925263 0.070495225
0.09575277 -0.025633737 0.03862552 0.021453505 -0.13385122 0.11610969 -0.0085205585 -0.0033077125
0.13419707 0.19753434 -0.040334396 -0.0859979 -0.11372545 -0.096388675 -0.1537084 -0.0872855
0.0025157258 0.083535545 -0.08317856 -0.20110673 -0.16317219 0.009294137 0.21678637 -0.037105117
0.0440552 -0.075239755 0.00973159 -0.2509279 0.11246205 -0.09703111 0.17861407 0.18787427
0.051237717 -0.085693635 0.16071597 0.16365437 -0.09196316 -0.08163802 0.042861037 0.06256959
0.07368351 -0.045526937 0.082921095 0.015211489 0.19420981 0.115576714 0.018639272 0.10485968
00000000: ac79 c43c 49a1 0fbd a571 07be 0063 0ebd
00000010: 8a57 7c3e c880 d9bd f8b6 093d c747 493e
00000020: aa54 64be 0198 83be 8cca b83d ecf9 bebd
00000030: d855 9f3d 527a 4a3d 9a88 fb3d f189 9fbc
00000040: 26aa 173d 9186 8bbd eee4 d43c a49d f1bb
00000050: 2616 6e3d a43c acbd f847 ca3c 2414 19be
00000060: b186 47be 8a51 593c b922 0ebe 99dd 213d
00000070: 4cb0 093d ed73 d5bc ae57 6cbe 7e2c ee3b
00000080: 15e7 b93d aafc a03d 45b6 f13d d691 65bc
00000090: 3fe5 e63d ba94 f03a 7d63 c23d 8361 b63d
000000a0: 5276 983d a4b7 143e dff1 c8bd 19d4 033e
000000b0: ef3a 493e 5eb6 a4bd 1d48 27be 3481 c73b
000000c0: 2ba8 09bd 9cf8 a3bd feec 1a3e 189a a4bd
000000d0: 2435 c4b9 c547 053d b98e 23be 87a4 db3c
000000e0: 5ae8 19be 8e77 473e e3d5 00bc bb36 873b
000000f0: 9d97 8d3e a4a1 e43d b819 353e 1ff2 68be
00000100: cb4b c33d 0b90 ebbd 21e8 dcbd fe37 08be
00000110: cbd6 7bbe 9e1b 34be d4f6 2f3d 9a64 473e
00000120: 6a64 523d cbeb 61be dab6 abb9 f16b 11be
00000130: 76c8 86be 829d 26be 23c5 73bd 7c51 053e
00000140: 60bb aa3d 87e3 c33d d94d 823d a81b 4b3d
00000150: 0fa7 843d 612d 833d 57ed 773e a875 5bbe
00000160: c863 0b3e 7b5b 853d bb53 043c 093f b43d
00000170: 59cf f13d 6c18 4e3e b498 583d 7969 143d
00000180: 5e6f 383e e14c 763d 7894 d43b 03c1 29be
00000190: 286a 1b3e 991a 41be 16a6 58be cfa5 773d
000001a0: 9dac ffbc d1a4 b0bc c047 46be 6ec7 2c3d
000001b0: 5576 4dbe 8690 b23d 73ba d0bd 785d 4c3e
000001c0: 6685 b03d 1bdd 853d 8ecc c6bd 1e37 60be
000001d0: e49f 2f3e 27be a4bd 7c9c 61bd 3417 e43d
000001e0: b343 0ebe 2cb4 4fbd a079 fbbd 41c9 37bc
000001f0: 20b4 04be e7c6 83be ae3f 7bbd 355d 18be
00000200: 58ee b0bd 5451 5b3e 5ca3 163e 41b5 df3d
00000210: d731 73be fd01 ea3d 1f29 ae3c 7cc4 0fbe
00000220: 49e3 5dbd 2c88 da3c c9a1 dcbd 83df 1abc
00000230: cd14 15be bd62 d9bd 31b3 a9bb a913 ff3c
00000240: e51f 703e bcfd 25bd d410 cf3c 7ac8 0c3d
00000250: a297 823c 4a53 e1bd 75c1 9e3d 769e 053d
00000260: 051d 923e 9681 ea3d 0caa d53d ac7a 30be
00000270: 54c6 fd3d 14fc d4bb 47b9 863d 322e 0dbe
00000280: fb26 88bd e9e8 c03d d43b edba e1f4 92bb
00000290: 36e7 2d3e d757 a0bd 1807 333c 1b72 f2bd
000002a0: 0591 55bb 3de2 743d c753 0cbe d97f 253b
000002b0: 9a5b c0bd da12 e9bc 2aba de3c ff90 ea3d
000002c0: 8938 23be 05d6 1c3e 443e 37be 6f7e 023e
000002d0: 3cce 573e 93d5 e7bd db9a 3c3a b936 d0bd
000002e0: a2b0 793c 8d78 95bd c0f2 90bd f2f2 ed3d
000002f0: 4572 393d af70 303e 4b81 df3d c300 f63d
00000300: bd81 203e 53a4 17be 2f8c f53d b348 8f3d
00000310: 4466 1b3e c66b 033e 31e1 15bd ba74 363d
00000320: e4e0 6ebc 8aea dd3d ef30 023e 1c88 4d3b
00000330: 53fb 143e 550f 06be faea 33bd cd5f 903d
00000340: 071a c43d d8fd d1bc cb35 1e3d 43bf af3c
00000350: 4b10 09be ebca ed3d d099 0bbc 35c6 58bb
00000360: f56a 093e 7146 4a3e ae35 25bd ab1f b0bd
00000370: e4e8 e8bd 6d67 c5bd bc65 1dbe bdc2 b2bd
00000380: e0de 243b af14 ab3d 8559 aabd ecee 4dbe
00000390: 9c16 27be 7046 183c 3ffd 5d3e 89fb 17bd
000003a0: 3a73 343d 4d17 9abd 3f71 1f3c 9f79 80be
000003b0: 8152 e63d 3fb8 c6bd 9be6 363e 1d62 403e
000003c0: a4de 513d 2580 afbd ba92 243e 0395 273e
000003d0: 2e57 bcbd d631 a7bd 0e8f 2f3d 7c24 803d
000003e0: 61e7 963d 747a 3abd 89d2 a93d 9c39 793c
000003f0: f0de 463e 7cb3 ec3d 63b1 983c acc0 d63d

action_model._continuous_distribution.log_sigma f4 [1, 4]
0.27574033 -2.6923106 0.07088479 0.09832794
00000000: d62d 8d3e d14e 2cc0 0b2c 913d 2960 c93d

action_model._continuous_distribution.mu.bias f4 [4]
0.20556661 -0.004306522 0.05703111 0.054394618
00000000: 0e80 523e ba1d 8dbb 7499 693d e4cc 5e3d

action_model._continuous_distribution.mu.weight f4 [4, 128]
0.100627065 0.108847775 0.33259258 0.15125027 0.17240733 -0.24243732 0.23868322 -0.048202064
0.06958626 0.20589986 0.14585239 0.2694868 -0.12570596 0.028425446 -0.080549076 0.013052466
-0.15969038 0.020291803 0.13651209 0.24020682 0.00560127 0.08388561 -0.12971583 -0.08906045
0.33108044 0.12453413 0.27935335 -0.115727454 -0.24257182 0.1595813 -0.19712587 -0.2577439
-0.13719475 0.025604622 0.12607159 0.16347475 0.11209364 0.31698415 -0.047766317 0.26389596
0.04425038 0.008283211 -0.17612381 -0.0024159884 0.22055282 0.085799165 0.20446968 0.1729724
0.031549707 0.26759487 -0.17071429 -0.18735185 0.015968867 -0.059386622 -0.15780422 -0.1589652
-0.06973438 -0.18712573 -0.22700545 -0.047695156 -0.36038947 0.17753597 0.036905337 -0.07865468
-0.20449796 -0.31824252 -0.2027331 0.2217891 0.030122379 -0.023680469 0.22604854 -0.16619627
-0.09182476 0.013482484 0.31410098 0.1965445 0.0009281759 -0.20175794 -0.096619874 -0.16062078
-0.09262514 -0.08281916 0.32597393 0.14623567 -0.1029517 -0.03646197 -0.047064107 0.02850659
0.2254305 0.22101013 0.27760637 -0.17851014 -0.016423887 0.11205546 -0.07501037 0.22055234
0.11567309 0.04307536 0.069620654 -0.35819343 0.13928528 0.26332974 -0.15898581 0.20144702
0.09647264 -0.04920344 -0.2759658 0.059483286 0.1743805 0.23076187 -0.11621511 -0.29862377
-0.27736846 -0.035211172 -0.034850504 -0.020007381 0.13948704 -0.29810753 -0.20076784 -0.015412075
0.09898294 -0.09088063 -0.16074958 0.25501713 -0.27366793 -0.020455629 0.017701024 -0.011474613
-0.00045809147 -0.0012101573 0.024072455 0.0028920341 -0.0069073252 0.00822845 -0.005774874 -0.022512093
0.013856445 -0.0074237376 0.0143226 -0.0072345743 -0.0064114244 0.007887569 -0.023719199 -0.0056356946
0.006428843 -0.009465773 0.008937214 0.0031824817 0.01211609 0.007483972 -0.012140623 0.0085179815
0.012307712 0.008064268 0.0070816693 -0.017793916 0.019161478 0.009825284 -0.007210618 0.009725729
-0.021072907 -0.008849225 -0.011877754 0.010432659 0.009228104 -0.021041395 0.0073744915 0.0093721375
0.0010626557 0.023597237 -0.013122959 -0.007870193 0.015325455 -0.0021743993 -0.010459174 -0.0042964043
-0.030908365 -0.0065539726 0.0054960204 -0.0013345778 -0.0028793951 -0.020937504 -0.003710018 -0.0028794662
-0.003970746 -0.0061423797 -0.013529288 -0.00822782 -0.0008550577 -0.014550569 0.0039475183 0.019910822
-0.0011351503 0.007236442 -0.022874959 -0.0061270418 0.003723045 -0.020405509 -0.010513685 -0.015784215
-0.025458865 0.0037737768 -0.028626442 -0.0059335213 0.006376639 0.019067764 -0.0045654154 -0.018820433
0.01301497 -0.0021797915 -0.017507456 -0.00854626 0.021150263 -0.0010759331 -0.0054124934 -0.0045213834
-0.008317029 -0.009567186 -0.021653634 -0.002842432 0.010298716 -0.0018438653 -0.01118521 -0.0065203044
-0.01611664 0.0034748006 0.00899976 -0.013279006 -0.01411382 -0.0023483436 -0.011886237 0.002755174
0.013420593 0.0046519917 0.00635529 0.016284667 0.00043295222 0.015310514 -0.009822441 -0.007261128
0.025645513 -0.012722179 -0.00022774182 -0.015615287 -0.011351293 -0.009941046 0.0056873723 -0.011053152
-0.0017964133 -0.0049520484 0.0016878841 -0.0035470345 -0.0011334231 0.01342879 -0.000918212 0.0029189023
00000000: 9015 ce3d 95eb de3d 9349 aa3e 5ae1 1a3e
00000010: 8c8b 303e 7d41 78be 6069 743e 876f 45bd
00000020: 3e83 8e3d 6ad7 523e 545a 153e 2dfa 893e
00000030: 10b9 00be 7bdc e83c eaf6 a4bd 03da 553c
00000040: e085 23be ff3a a63c d3c9 0b3e c7f8 753e
00000050: dc8a b73b 38cc ab3d 3ad4 04be 5365 b6bd
00000060: 6083 a93e c00b ff3d 6707 8f3e 8402 edbd
00000070: bf64 78be 4869 233e 5ddb 49be 02f7 83be
00000080: c87c 0cbe c9c0 d13c e918 013e ed65 273e
00000090: 5a91 e53d bf4b a23e 9da6 43bd 5f1d 873e
000000a0: e33f 353d 4eb6 073c cd59 34be 8f55 1ebb
000000b0: 99d8 613e 79b7 af3d 8060 513e ad1f 313e
000000c0: 443a 013d 3202 893e bacf 2ebe 2ad9 3fbe
000000d0: 24d1 823c 633f 73bd 6e97 21be c6c7 22be
000000e0: e6d0 8ebd e39d 3fbe 1e74 68be ff5b 43bd
000000f0: f884 b8be fdcb 353e 0d2a 173d b415 a1bd
00000100: ea67 51be aff0 a2be 4499 4fbe af1c 633e
00000110: 35c3 f63c 8bfd c1bc 4579 673e 5b2f 2abe
00000120: 9f0e bcbd a3e5 5c3c d8d1 a03e f642 493e
00000130: d550 733a a299 4ebe a4e0 c5bd c679 24be
00000140: 40b2 bdbd 179d a9bd 0ee6 a63e cebe 153e
00000150: 57d8 d2bd 2659 15bd 4bc6 40bd a786 e93c
00000160: 41d7 663e 7b50 623e 6c22 8e3e 5dcb 36be
00000170: 638b 86bc 557d e53d 099f 99bd 79d8 613e
00000180: 03e6 ec3d ca6f 303d 4695 8e3d 2165 b7be
00000190: cda0 0e3e 28d3 863e 2dcd 22be 2148 4e3e
000001a0: 7393 c53d 8c89 49bd 644b 8dbe bfa4 733d
000001b0: cd90 323e d74c 6c3e 3002 eebd 37e5 98be
000001c0: 3d03 8ebe 9739 10bd 67bf 0ebd 85e6 a3bc
000001d0: b1d5 0e3e 8da1 98be 1696 4dbe ee82 7cbc
000001e0: 91b7 ca3d a01f babd 8a9b 24be 9b91 823e
000001f0: 341e 8cbe 9092 a7bc bd01 913c 0400 3cbc
00000200: ff2b f0b9 249e 9eba 9933 c53c 4888 3d3b
00000210: d856 e2bb 9fd0 063c 273b bdbb 486b b8bc
00000220: 2506 633c d342 f3bb 57a9 6a3c 0210 edbb
00000230: ed16 d2bb dd3a 013c c44e c2bc a2ab b8bb
00000240: 0ba9 d23b 5416 1bbc 646d 123c 2f91 503b
00000250: 9182 463c 1b3c f53b 77e9 46bc 018f 0b3c
00000260: 49a6 493c fe1f 043c 590d e83b 8cc4 91bc
00000270: 88f8 9c3c 3afa 203c 0c47 ecbb aa58 1f3c
00000280: 17a1 acbc 57fc 10bc e99a 42bc beed 2a3c
00000290: 7931 173c 015f acbc b8a5 f13b 988d 193c
000002a0: cf48 8b3a fe4e c13c ae01 57bc fbf1 00bc
000002b0: 9e17 7b3c 5e80 0ebb f55c 2bbc dac8 8cbb
000002c0: 8a33 fdbc b5c2 d6bb f617 b43b 00ed aeba
000002d0: 3cb4 3cbb 2185 abbc c623 73bb 6db5 3cbb
000002e0: 081d 82bb 0446 c9bb f2a9 5dbc facd 06bc
000002f0: f325 60ba 8265 6ebc 2f5a 813b 051c a33c
00000300: 53c9 94ba ad1f ed3b 4464 bbbc 5ac5 c8bb
00000310: 55fe 733b 7429 a7bc 9741 2cbc e64d 81bc
00000320: 1c8f d0bc 7851 773b 0082 eabc fc6d c2bb
00000330: 20f3 d03b 0034 9c3c 7b99 95bb 4f2d 9abc
00000340: be3c 553c d5da 0ebb cc6b 8fbc 9d05 0cbc
00000350: 5143 ad3c 5306 8dba 495b b1bb 1d28 94bb
00000360: 2644 08bc b0bf 1cbc f662 b1bc 1848 3abb
00000370: f2bb 283c daad f1ba 2c42 37bc 47a8 d5bb
00000380: 0b07 84bc 7bb9 633b bb73 133c 3090 59bc
00000390: a73d 67bc abe6 19bb 7ebe 42bc 2690 343b
000003a0: 0ce2 5b3c bc6f 983b 0940 d03b 6c67 853c
000003b0: ddfd e239 f3d8 7a3c 4eee 20bc c2ee edbb
000003c0: 8a16 d23c b070 50bc fbcd 6eb9 43d7 7fbc
000003d0: c6fa 39bc c5df 22bc 235d ba3b 4818 35bc
000003e0: a175 ebba cb44 a2bb fe3b dd3a 5d75 68bb
000003f0: 5e8f 94ba 6d04 5c3c 2ab4 70ba 0e4b 3f3b

network_body._body_endoder.seq_layers.0.bias f4 [128]
0.06242599 0.025701908 -0.036116347 0.05978143 -0.039297942 0.030309312 -0.062784426 -0.025385028
-0.010824555 -0.017426886 0.025303066 0.054881424 -0.044389978 0.02949141 -0.018231826 -0.04540774
0.03411493 0.034776326 -0.014481629 0.0803974 0.029812174 -0.010312016 -0.087174535 0.043419804
0.0027563309 -0.1030803 0.013611482 0.031104509 -0.061171744 0.004584522 -0.08716594 -0.032657336
0.06624414 -0.0070154695 0.04122753 -0.04428848 0.054805785 0.02745189 -0.00355861 0.07013951
0.052285817 -0.1328688 0.048936643 -0.09047652 0.0353078 0.043532275 -0.026077818 -0.07850246
0.012159499 0.013956896 -0.011259928 -0.07683821 -0.005915179 0.04410213 -0.08640659 0.02892149
-0.023517383 0.040833995 -0.04839977 -0.008518098 -0.098545 0.011877214 0.079238854 -0.008464283
-0.007964506 -0.09501517 -0.048627034 -0.04879013 0.007553369 0.045351796 0.044699155 -0.012984908
-0.08365021 -0.080687635 -0.0029443295 -0.0035643945 0.017886594 -0.026331065 0.052267242 0.018894482
-0.013928795 -0.034297977 -0.0953658 -0.009109639 0.02302771 -0.07665715 0.042106763 -0.06750023
0.013281957 0.04400535 -0.04477244 0.010495187 -0.0580897 -0.0070807072 0.013735133 0.014796488
0.050632723 0.04280817 -0.05667038 -0.0229679 0.0017551733 0.039542917 0.018816233 -0.01608499
0.0014810221 -0.033124205 -0.092712365 0.0069168154 -0.00448887 -0.026949324 -0.13780046 0.05863014
0.019355735 0.023041053 -0.011422693 -0.008285688 -0.070647016 -0.0104951905 -0.032240573 0.036981057
-0.04877507 0.06840421 -0.08051129 0.0426819 0.048065946 -0.0034516405 0.02194361 0.03055235
00000000: 65b2 7f3d cf8c d23c bcee 13bd 5fdd 743d
00000010: e1f6 20bd 3c4b f83c 1f95 80bd 43f4 cfbc
00000020: 7959 31bc d4c2 8ebc 6048 cf3c 58cb 603d
00000030: 44d2 35bd f897 f13c e95a 95bc 77fd 39bd
00000040: 19bc 0b3d 9f71 0e3d 5b44 6dbc 64a7 a43d
00000050: a938 f43c bbf3 28bc 9088 b2bd f7d8 313d
00000060: 8fa3 343b c41b d3bd b202 5f3c e2ce fe3c
00000070: 398f 7abd c239 963b 0e84 b2bd b3c3 05bd
00000080: 02ab 873d 06e2 e5bb 33de 283d d667 35bd
00000090: 087c 603d c9e2 e03c 9237 69bb 4ea5 8f3d
000000a0: a729 563d c20e 08be ca71 483d c14b b9bd
000000b0: e99e 103d e64e 323d 26a1 d5bc e6c5 a0bd
000000c0: a338 473c 77ab 643c 907b 38bc 5a5d 9dbd
000000d0: 1ed4 c1bb 6fa4 343d f0f5 b0bd c3ec ec3c
000000e0: 87a7 c0bc 8c41 273d d63e 46bd 7e8f 0bbc
000000f0: f6d1 c9bd a598 423c fb47 a23d c7ad 0abc
00000100: 8f7d 02bc 5097 c2bd 242d 47bd 29d8 47bd
00000110: 4082 f73b cec2 393d 7616 373d a7be 54bc
00000120: cd50 abbd 8f3f a5bd a7f5 40bb 9e98 69bb
00000130: e886 923c 3fb4 d7bc 2d16 563d 9ac8 9a3c
00000140: 9a35 64bc 097c 0cbd 254f c3bd 9840 15bc
00000150: 9ca4 bc3c 6dfe 9cbd 2478 2c3d 903d 8abd
00000160: 919c 593c f43e 343d 4e63 37bd 01f4 2b3c
00000170: 77ef 6dbd 4705 e8bb 5309 613c f86c 723c
00000180: 4264 4f3d 9f57 2f3d 331f 68bd 2d27 bcbc
00000190: d80d e63a c1f7 213d 8024 9a3c abc4 83bc
000001a0: db1e c23a 3fad 07bd fbdf bdbd 74a6 e23b
000001b0: 5f17 93bb d4c4 dcbc 901b 0dbe 2826 703d
000001c0: eb8f 9e3c 97c0 bc3c 3f26 3bbc b2c0 07bc
000001d0: 62af 90bd 05f4 2bbc b10e 04bd 7379 173d
000001e0: 5ec8 47bd 8217 8c3d 1ae3 a4bd 37d3 2e3d
000001f0: cce0 443d eb34 62bb 16c3 b33c ec48 fa3c

network_body._body_endoder.seq_layers.0.weight f4 [128, 80]
0.13153243 0.06531655 -0.2445113 -0.0041903392 0.21046743 0.21432622 0.167419 0.06402397
-0.22486301 0.15601029 0.027644575 -0.15723217 0.37297645 -0.40453035 -0.12107055 -0.14053164
-0.16321921 0.16195537 0.09057204 0.21390142 0.06422514 0.1753044 -0.03561779 -0.17331852
-0.062429927 -0.19401711 0.22662313 -0.09067755 0.009519295 -0.06589409 0.3035044 -0.16976725
-0.21385707 0.06095654 0.15298472 -0.15091726 0.09390041 0.07006836 -0.065243475 -0.03849198
-0.055004723 -0.044448134 -0.25635788 0.27720937 0.24063109 -0.18298192 -0.08205824 0.10853755
0.030430825 0.22839755 0.09648634 0.17046557 0.1368196 -0.24309261 0.21851714 -0.25046018
-0.15572144 -0.039964024 -0.07893912 0.119096324 -0.1660311 -0.0043036705 -0.05241842 0.08010261
-0.16993171 -0.094516836 0.078348726 0.04091177 -0.06585062 0.12884152 0.19846644 0.0364891
-0.12919675 0.04348748 -0.14802673 0.0753067 0.04716554 -0.16054818 -0.1367284 0.049702942
-0.23061152 -0.09283029 -0.07512031 -0.17829087 -0.064484686 0.1336865 0.04338521 -0.10706095
0.0631995 0.14997993 0.33733118 -0.113538966 -0.035237633 -0.15572771 0.06840549 0.19250251
-0.14370869 0.06484093 0.16159007 -0.18302111 -0.12683561 -0.060718425 0.01352783 0.26413745
0.014550395 0.23546243 0.29059058 -0.29869714 -0.029344436 -0.07606417 0.118873276 0.011036411
-0.018759714 -0.13686909 0.033213474 0.17022127 -0.022786897 0.0062258383 0.050977185 -0.06980774
0.118965596 0.072826535 -0.14290471 -0.27311945 0.05529583 0.0150077185 0.26863596 0.15157455
0.05291268 -0.18196268 0.02216851 0.37319574 -0.042703573 0.11657095 -0.015811611 0.07311336
0.25982532 0.24472538 -0.0439169 -0.005790176 0.32715842 0.0081375735 0.037493885 -0.0635044
-0.021080008 -0.19173439 -0.08255432 -0.2600071 -0.18348528 -0.12534565 0.06725619 -0.058938585
0.16285515 -0.19888952 -0.23455772 -0.18560915 -0.13954821 0.08196239 0.06505208 -0.055813383
0.24061786 -0.031437755 0.0769177 0.11701005 0.044757273 -0.0056134993 0.15185826 0.112947896
0.03434107 -0.09513988 0.008278482 -0.013787969 0.045946863 -0.15873879 -0.25082955 0.3064407
-0.20800176 -0.07692751 -0.35482985 -0.17059997 -0.09002961 0.1879551 -0.25882345 0.26219687
-0.017862413 0.35532412 0.1052467 -0.09891158 0.12693347 0.089050435 -0.0938882 -0.07866168
0.02193051 -0.10299927 0.03914306 0.16823284 -0.09842592 -0.037700657 -0.24396002 -0.24056488
0.07969481 -0.08999581 0.008134631 -0.07477454 0.0401435 0.23073706 -0.08587235 0.12372469
-0.0027186659 -0.10523342 -0.046432704 0.19470614 -0.12545131 0.040344924 -0.08350204 0.17047474
-0.33626434 -0.3601513 -0.13316965 0.29378337 0.22146784 -0.099652514 -0.7127539 -0.040758416
-0.016941752 0.1197708 -0.4474261 -0.19529854 0.16350444 0.11753433 0.029374417 0.08493327
-0.19117814 -0.09645317 0.15794899 0.46570265 -0.08659432 0.33229056 -0.39637068 0.042021364
-0.052509926 -0.008962352 0.12836368 0.16997916 -0.028676549 -0.07320732 0.02545005 0.2948196
0.04936716 -0.08064699 0.04081305 -0.20777701 0.14368558 0.19116731 0.048627086 -0.09085425
00000000: 70b0 063e afc4 853d 2c61 7abe 1d4f 89bb
00000010: c684 573e 5578 5b3e e36f 2b3e 001f 833d
00000020: 7d42 66be 29c1 1f3e e076 e23c 7801 21be
00000030: c5f6 be3e 9a1e cfbe d6f3 f7bd 87e7 0fbe
00000040: f022 27be a1d7 253e d57d b93d f908 5b3e
00000050: 7888 833d ff82 333e f6e3 11bd 697a 31be
00000060: 86b6 7fbd 6cac 46be e50f 683e 27b5 b9bd
00000070: d1f6 1b3c 7bf3 86bd ee64 9b3e 77d7 2dbe
00000080: 59fd 5abe 91ad 793d 07a8 1c3e 0e8a 1abe
00000090: dc4e c03d 0080 8f3d 5f9e 85bd c4a9 1dbd
000000a0: a24c 61bd 3f0f 36bd 5741 83be 63ee 8d3e
000000b0: ff67 763e 9d5f 3bbe 270e a8bd ef48 de3d
000000c0: 114a f93c 0ce1 693e a19a c53d 878e 2e3e
000000d0: 701a 0c3e 45ed 78be f5c2 5f3e 513c 80be
000000e0: 7175 1fbe 51b1 23bd d5aa a1bd c6e8 f33d
000000f0: 0f04 2abe ce05 8dbb b2b4 56bd d60c a43d
00000100: 9402 2ebe 0b92 c1bd 4c75 a03d 1a93 273d
00000110: b1dc 86bd 08ef 033e c93a 4b3e 9875 153d
00000120: 274c 04be ee1f 323d 5294 17be 663a 9a3d
00000130: a730 413d be66 24be 8802 0cbe 5095 4b3d
00000140: 6d25 6cbe cf1d bebd add8 99bd e291 36be
00000150: 8c10 84bd 1de5 083e b1b4 313d c542 dbbd
00000160: bd6e 813d 5794 193e acb6 ac3e 1e87 e8bd
00000170: 5655 10bd 1677 1fbe 2d18 8c3d 611f 453e
00000180: 5f28 13be 52cb 843d de77 253e e369 3bbe
00000190: 32e1 01be e2b3 78bd d5a3 5d3c 063d 873e
000001a0: c864 6e3c 101d 713e 4ac8 943e d5ee 98be
000001b0: be63 f0bc 88c7 9bbd d573 f33d 10d2 343c
000001c0: f9ad 99bc 6927 0cbe da0a 083d 7c4e 2e3e
000001d0: 96ab babc 1e02 cc3b 74cd 503d 5cf7 8ebd
000001e0: 3ca4 f33d 1426 953d 9d55 12be 50d6 8bbe
000001f0: e17d 623d efe2 753c a78a 893e 5c36 1b3e
00000200: f7ba 583d 6d54 3abe bc9a b53c 8313 bf3e
00000210: f1e9 2ebd c0bc ee3d 5a87 81bc 75bc 953d
00000220: d307 853e 4a99 7a3e 35e2 33bd 84bb bdbb
00000230: 4f81 a73e 7553 053c 3093 193d 980e 82bd
00000240: fbaf acbc 0556 44be 3d12 a9bd a71f 85be
00000250: 91e3 3bbe 9c5a 00be 9dbd 893d 9669 71bd
00000260: 80c3 263e b2a9 4bbe e62f 70be 5310 3ebe
00000270: bae5 0ebe e6db a73d 063a 853d 939c 64bd
00000280: 8764 763e e0c4 00bd 0787 9d3d f7a2 ef3d
00000290: 6753 373d 72f1 b7bb bb80 1b3e 3a51 e73d
000002a0: 39a9 0c3d b3d8 c2bd 78a2 073c efe6 61bc
000002b0: c732 3c3d 6c8c 22be bb6c 80be cce5 9c3e
000002c0: 6afe 54be 2c8c 9dbd 42ac b5be c2b1 2ebe
000002d0: 7261 b8bd 4d77 403e 8284 84be ab3e 863e
000002e0: 3254 92bc 0bed b53e 958b d73d 2892 cabd
000002f0: d9fa 013e 1360 b63d 7548 c0bd 6019 a1bd
00000300: 9da7 b33c 48f1 d2bd 7954 203d 3b45 2c3e
00000310: 8793 c9bd 016c 1abd a8d0 79be a456 76be
00000320: 0837 a33d b94f b8bd 1e47 053c 6523 99bd
00000330: 836d 243d 5646 6c3e d8dd afbd 5f63 fd3d
00000340: a52b 32bb 9f84 d7bd 3830 3ebd 0c61 473e
00000350: 4f76 00be b840 253d 1e03 abbd ee90 2e3e
00000360: d72a acbe c065 b8be a05d 08be c66a 963e
00000370: 77c8 623e 9e16 ccbd 0a77 36bf 4cf2 26bd
00000380: 6ec9 8abc 654a f53d 0915 e5be 57fc 47be
00000390: b56d 273e d7b5 f03d 9ea2 f03c 7ff1 ad3d
000003a0: 34c4 43be 3d89 c5bd 61bd 213e 9470 ee3e
000003b0: 5d58 b1bd fd21 aa3e 19f1 cabe 981e 2c3d
000003c0: a614 57bd d4d6 12bc c571 033e 040f 2e3e
000003d0: 15eb eabc b8ed 95bd a07c d03c 98f2 963e
000003e0: 3835 4a3d 402a a5bd 962b 273d 7fc3 54be
000003f0: 5022 133e 5dc1 433e 322d 473d cb11 babd

network_body._body_endoder.seq_layers.2.bias f4 [128]
-0.0059362776 -0.016388258 -0.008219726 0.05655198 -0.005859563 0.036456898 0.002697227 0.031416286
-0.03762211 0.018971283 -0.0150196515 0.018094512 0.016146824 -0.02862251 -0.04392572 -0.00299176
0.017577719 0.0051413104 -0.010998605 0.04229789 0.02947634 -0.02055421 0.050577175 -0.014614767
0.02882326 0.011553365 -0.014001011 -0.040852193 0.023571277 -0.040220782 0.024507621 -0.02785764
-0.018279735 -0.020004412 0.05595111 0.017765138 0.010818066 0.020532934 0.04015799 0.012864809
-0.016649514 0.016885666 0.01837651 0.0360722 0.012266216 0.013868924 -0.017006941 0.023408685
0.043716636 0.054317404 0.009171349 -0.027517904 0.026891857 0.01553866 0.026228702 0.017304791
0.012121179 0.0069749667 -0.0029842805 -0.006598564 0.03458437 0.026273899 -0.013017933 -0.03081325
-0.003313633 0.044531237 0.01607787 0.0019600464 -0.007036556 -0.0034829385 -0.072387725 0.03679568
-0.013798025 0.027819125 -0.003120992 0.032210775 -0.03250406 -0.01655616 0.007881024 0.004027479
0.06015586 -0.0108337635 0.0017577007 0.023723062 0.0046279877 -0.0091238525 -0.0012517582 -0.025121367
-0.016433714 0.004165741 0.06409582 0.0064997547 0.014856563 0.018674495 0.016365875 0.023643946
-0.0835938 0.03158273 -0.018285824 0.04460367 -0.013913511 0.018630188 0.046481676 0.024719577
0.009597004 -0.0066053076 0.06609232 -0.06476989 -0.008087382 0.010628478 0.014044646 -0.036745448
-0.022689464 -0.035283864 0.010872536 0.050761532 0.0698787 0.011573138 0.014525411 0.042941347
0.044855036 -0.0024312215 -0.036461048 -0.01382237 0.025493886 0.024692252 0.021951616 0.067318015
00000000: 1b85 c2bb ab40 86bc 08ac 06bc 0da3 673d
00000010: 9401 c0bb d453 153d f6c3 303b 5dae 003d
00000020: a419 1abd aa69 9b3c fc14 76bc f13a 943c
00000030: 5846 843c c179 eabc 75eb 33bd 6711 44bb
00000040: 26ff 8f3c 7078 a83b 7e33 34bc 8d40 2d3d
00000050: 5e78 f13c 4d61 a8bc 032a 4f3d c772 6fbc
00000060: c21e ec3c 534a 3d3c 7f64 65bc a154 27bd
00000070: 8d18 c13c 8cbe 24bd 35c4 c83c b535 e4bc
00000080: 62bf 95bc 4be0 a3bc fe2c 653d 3288 913c
00000090: 423e 313c af34 a83c b47c 243d ebc6 523c
000000a0: 9064 88bc cf53 8a3c 568a 963c 71c0 133d
000000b0: 3df8 483c 7c3a 633c 2452 8bbc 92c3 bf3c
000000c0: 3710 333d ed7b 5e3d 6d43 163c 3a6d e1bc
000000d0: 504c dc3c dd95 7e3c 93dd d63c c7c2 8d3c
000000e0: e997 463c 438e e43b eb93 43bb c438 d8bb
000000f0: 57a8 0d3d 5c3c d73c 2b49 55bc 126c fcbc
00000100: 8929 59bb 6366 363d bdb5 833c 1f74 003b
00000110: e992 e6bb 0342 64bb 0440 94bd 11b7 163d
00000120: 1d11 62bc efe4 e33c 8f89 4cbb 72ef 033d
00000130: fa22 05bd c9a0 87bc 691f 013c f1f8 833b
00000140: fe65 763d 1980 31bc a662 e63a de56 c23c
00000150: 60a6 973b 367c 15bc 0912 a4ba 53cb cdbc
00000160: ff9f 86bc c580 883b ab44 833d e5fb d43b
00000170: f168 733c 41fb 983c ba11 863c f3b0 c13c
00000180: 3a33 abbd e55c 013d 27cc 95bc 56b2 363d
00000190: 7ff5 63bc 569e 983c 9263 3e3d b680 ca3c
000001a0: c13c 1d3c 5671 d8bb 695b 873d 13a6 84bd
000001b0: f080 04bc 1123 2e3c 841b 663c 6582 16bd
000001c0: 41df b9bc d085 10bd b922 323c 53eb 4f3d
000001d0: 901c 8f3d 429d 3d3c fdfb 6d3c 44e3 2f3d
000001e0: eab9 373d 2155 1fbb 2e58 15bd 3977 62bc
000001f0: 8ed8 d03c 6847 ca3c e0d3 b33c 07de 893d

network_body._body_endoder.seq_layers.2.weight f4 [128, 128]
0.08291107 0.009822555 -0.07703095 0.10795879 6.6670815e-05 0.0071586543 0.028295038 -0.24008495
0.20920077 0.13069108 -0.28581375 -0.015496441 0.21257865 0.021406237 0.027536014 -0.0841199
0.02508828 -0.01929962 0.099478625 0.12472267 0.00910397 -0.09969789 0.05055537 -0.21751758
0.004768791 -0.19355975 0.09446526 0.17653978 -0.14593849 -0.0027892813 -0.070872575 -0.14141715
0.10793365 0.14187324 -0.14389244 -0.024754928 -0.03753088 -0.019716712 0.104353085 0.097738706
-0.05162562 0.04145058 -0.13457772 -0.109001555 0.07079663 0.29296008 -0.29429704 -0.03093751
0.009864034 -0.22527704 0.009649431 -0.10268905 0.07316692 -0.10303489 0.038169213 0.24553026
-0.22676696 0.09873199 0.07733051 0.05297499 -0.20881811 -0.24321228 0.14408533 -0.056585588
0.15799049 0.070822075 0.2790594 -0.16200046 -0.13158599 0.00065170496 0.0847314 -0.15542237
0.0034809827 0.1801249 -0.07988487 0.2523831 -0.029708376 0.17526498 -0.08554606 -0.095585264
0.17147988 0.0316762 -0.06931275 0.019072028 0.12003569 -0.16840096 0.284381 -0.14712061
-0.026041389 -0.034044024 0.021256153 0.07336847 0.04041023 -0.37087986 -0.07913594 -0.055265494
-0.19944565 -0.11442729 -0.004107168 -0.1150395 0.028509531 0.013382767 -0.013329755 -0.16807885
-0.06476711 -0.120810755 -0.12890531 0.05387252 -0.11989383 -0.119566135 -0.06713725 0.28265512
-0.25935444 0.06172141 0.2515966 -0.023741998 -0.116755866 -0.16982907 -0.0009988995 0.024185192
0.036299337 0.124161325 -0.08842384 0.15246423 0.20699824 -0.13886732 -0.0053347796 -0.18816735
-0.06852227 -0.07868674 0.0932721 0.07977238 -0.1255825 0.2292634 -0.05408934 -0.105232604
-0.023801038 -0.098630555 -0.2680872 0.09115381 0.02618706 0.06123789 0.20299505 -0.011393456
0.17743921 -0.060490914 -0.009077184 0.09156707 0.07309341 0.063059606 0.07894112 0.065234564
0.03250138 0.09975019 -0.05194482 0.21294276 0.001424727 -0.1506243 0.013473149 -0.025686018
0.046941068 0.27727127 -0.081101656 0.19041644 0.17365997 0.10977982 0.05129195 0.0911853
0.1665692 -0.09931604 -0.035075795 -0.02130278 -0.028428372 0.12438513 -0.18700866 -0.17943893
-0.14548066 -0.084151834 0.3184632 -0.08335815 -0.120140836 -0.27461034 -0.011364785 0.18051344
-0.000905616 -0.18497284 0.12655695 0.114212714 0.020406097 -0.096607625 0.0076805362 0.043981962
-0.090536445 -0.16290855 -0.08453724 -0.13739762 -0.043572113 -0.22912318 0.0165502 -0.067154534
-0.042119678 -0.19123511 -0.20547362 0.19309786 -0.3360923 0.110706575 -0.17748089 0.017083164
0.09048661 -0.052953925 0.06433985 0.07249172 0.013832696 -0.1286732 -0.00749159 0.12173329
-0.08415216 0.19123296 0.06664081 -0.05955916 -0.10756354 -0.13628285 -0.17495699 0.11320352
0.3189311 0.009502833 0.022772472 -0.26167917 -0.038974177 -0.018088363 0.23598804 -0.12377545
0.092165075 0.077754974 0.032297127 -0.07467964 -0.051774114 -0.0023226023 -0.12919186 0.02461062
0.0375557 0.038156062 0.12390022 -0.20910983 0.05039023 -0.15640728 0.14494056 -0.07127792
0.10199502 -0.021203842 -0.03861975 0.23266171 0.02031054 0.056770112 0.119456954 -0.013434183
00000000: 47cd a93d c8ee 203c 67c2 9dbd 8019 dd3d
00000010: 9fd1 8b38 2593 ea3b ffca e73c d4d8 75be
00000020: ba38 563e e2d3 053e 2e56 92be c9e4 7dbc
00000030: 38ae 593e 225c af3c 3593 e13c 0e47 acbd
00000040: f085 cd3c 3d1a 9ebc 73bb cb3d 996e ff3d
00000050: d128 153c 682e ccbd 2613 4f3d eebc 5ebe
00000060: 8543 9c3b 8734 46be 0177 c13d d8c6 343e
00000070: e670 15be 60cc 36bb a425 91bd a8cf 10be
00000080: 510c dd3d 3847 113e 8a58 13be d9ca cabc
00000090: fbb9 19bd f184 a1bc 12b7 d53d 3b2b c83d
000000a0: 6375 53bd 15c8 293d bece 09be 353c dfbd
000000b0: d3fd 903d ddfe 953e 1aae 96be a970 fdbc
000000c0: c29c 213c 06af 66be a618 1e3c a34e d2bd
000000d0: 8ad8 953d f503 d3bd 5257 1c3d 496c 7b3e
000000e0: 9935 68be ff33 ca3d 755f 9e3d 4efc 583d
000000f0: 6ad4 55be a40c 79be 1b8b 133e 4ac6 67bd
00000100: 42c8 213e 2a0b 913d e0e0 8e3e 73e3 25be
00000110: 7abe 06be 2ed7 2a3a a887 ad3d 0b27 1fbe
00000120: 3321 643b a972 383e ae9a a3bd 5c38 813e
00000130: fb5e f3bc aa78 333e c632 afbd 35c2 c3bd
00000140: 6c98 2f3e e7be 013d d8f3 8dbd f13c 9c3c
00000150: 46d5 f53d 4d71 2cbe 639a 913e c9a6 16be
00000160: c054 d5bc bf71 0bbd 6221 ae3c 3542 963d
00000170: 3385 253d f7e3 bdbe 0612 a2bd 125e 62bd
00000180: 7b3b 4cbe db58 eabd 6c95 86bb d499 ebbd
00000190: d28c e93c 6543 5b3c 0b65 5abc dd1c 2cbe
000001a0: 9ea4 84bd a16b f7bd c1ff 03be 6ea9 5c3d
000001b0: e58a f5bd 17df f4bd 417f 89bd 2cb8 903e
000001c0: 1bca 84be 97cf 7c3d 45d1 803e 947e c2bc
000001d0: b31d efbd ace7 2dbe 81ed 82ba 0620 c63c
000001e0: 9dae 143d 4b48 fe3d 8f17 b5bd 951f 1c3e
000001f0: 59f7 533e 3c33 0ebe 60cf aebb f1ae 40be
00000200: 6755 8cbd 8326 a1bd 7105 bf3d b45f a33d
00000210: b398 00be 06c4 6a3e c98c 5dbd 3184 d7bd
00000220: 65fa c2bc d1fe c9bd ba42 89be d9ae ba3d
00000230: 3f86 d63c 95d4 7a3d efdd 4f3e 9eab 3abc
00000240: a0b2 353e 52c5 77bd 78b8 14bc 8487 bb3d
00000250: ffb1 953d 6525 813d e2ab a13d b399 853d
00000260: 2b20 053d d449 cc3d 17c4 54bd ab0d 5a3e
00000270: e8bd ba3a 423d 1abe 7cbe 5c3c 7c6b d2bc
00000280: 4745 403d 80f6 8d3e a018 a6bd 87fc 423e
00000290: ebd3 313e 3ed4 e03d 8217 523d 5cbf ba3d
000002a0: 1e91 2a3e 3566 cbbd a3ab 0fbd 2b83 aebc
000002b0: 9ee2 e8bc a2bd fe3d 337f 3fbe d7be 37be
000002c0: e2f8 14be cc57 acbd 9c0d a33e aeb7 aabd
000002d0: 660c f6bd ba99 8cbe 5d33 3abc 84d8 383e
000002e0: dc66 6dba 8569 3dbe 2598 013e 5be8 e93d
000002f0: b02a a73c 38da c5bd 02ad fb3b 6e26 343d
00000300: 2c6b b9bd 80d1 26be dc21 adbd f6b1 0cbe
00000310: ac78 32bd 449f 6abe 4994 873c 5188 89bd
00000320: af85 2cbd 23d3 43be ad67 52be 72bb 453e
00000330: 4a14 acbe 21ba e23d 8dbd 35be fef1 8b3c
00000340: 0b51 b93d 37e6 58bd 9cc4 833d 8a76 943d
00000350: 88a2 623c e8c2 03be 037c f5bb 4e4f f93d
00000360: f857 acbd 93d2 433e fa7a 883d 4ef4 73bd
00000370: 464a dcbd bb8d 0bbe ed27 33be 3fd7 e73d
00000380: f04a a33e c5b1 1b3c 568d ba3c d0fa 85be
00000390: 63a3 1fbd 0c2e 94bc d9a6 713e fc7d fdbd
000003a0: 0bc1 bc3d 003e 9f3d fe49 043d a4f1 98bd
000003b0: 1811 54bd cd36 18bb df4a 04be 369c c93c
000003c0: 01d4 193d 8849 1c3d 66bf fd3d e320 56be
000003d0: fc65 4e3d 3b29 20be 4c6b 143e 28fa 91bd
000003e0: c4e2 d03d aeb3 adbc be2f 1ebd df3e 6e3e
000003f0: 4a62 a63c c787 683d d9a5 f43d 0c1b 5cbc
