results/DroneAgent_New4/DroneAgent/DroneAgent-4899985.onnx (onnx, 640971 bytes, 10 tensors)

100 f4 [1, 512, 128]
0.07529432 0.014707066 -0.01524305 -0.0453785 0.20108908 -0.02851017 0.050688844 -0.1147034
-0.1400221 0.041034766 0.1920414 -0.036410443 0.04675186 0.21752563 -0.18727534 0.30082917
0.08706939 -0.27374792 -0.12474821 -0.092837065 -0.25205308 0.074062854 0.08701175 -0.26419798
-0.16565825 0.11360604 0.017142586 0.02061131 0.15752465 0.14080535 0.2796954 -0.12055511
-0.04754443 0.05697028 -0.120673515 0.059143916 0.033814263 0.14518364 -0.2689049 -0.20844102
-0.118656136 0.12420728 0.018092524 -0.0171544 -0.23520628 -0.03602489 0.097567365 0.06651606
-0.06776554 0.053102773 0.08367626 0.19566515 -0.06713456 0.1223373 -0.0041437442 -0.1032229
-0.08088935 0.17999199 -0.015448535 -0.032358278 -0.05969384 -0.1051337 0.12764867 -0.061393477
-0.13541445 -0.05471826 -0.35988444 -0.09594269 0.1233727 -0.067308225 -0.024578316 -0.07280718
-0.08628011 0.09872494 0.114797026 -0.07479174 -0.13321345 -0.18489863 -0.093656994 0.07973832
-0.08237717 -0.1549739 -0.12931842 -0.100361004 0.14107123 0.077740416 0.042516857 0.057832025
0.06421781 -0.020551093 -0.19009061 -0.16287364 -0.077147424 0.045282733 0.07296494 -0.10357727
-0.076226175 0.107331574 -0.18177356 -0.1126077 -0.028642217 -0.049650647 0.3748968 -0.068094544
0.08054033 -0.03944233 -0.084579095 0.1558841 0.010129164 -0.003078615 -0.0005046584 0.11158078
-0.06002628 0.060872912 -0.048617326 -0.15403992 0.10941231 -0.03659609 0.07427717 0.074582085
0.1331495 0.05539819 -0.07061017 0.108707674 0.08129709 -0.14045554 -0.040794823 -0.07558559
0.01783176 0.021407014 0.1973965 0.11777737 -0.20151931 0.092643216 -0.088160254 0.0046080374
-0.06701008 0.034696434 0.14796312 -0.014348105 -0.11218057 -0.08065094 -0.06842971 -0.12753357
0.02091007 0.13344808 0.11030084 -0.08714398 -0.031684488 0.11516187 -0.21005686 -0.093577236
0.1798231 -0.04806768 -0.09675564 0.13992341 0.20998165 -0.100989275 -0.009553265 -0.10257959
0.1798651 -0.033386398 0.013124485 0.11912179 -0.031909533 -0.0061092465 0.055286344 0.07646708
-0.094689205 -0.022203304 -0.20125003 0.084079914 0.12233784 0.06453728 0.007234897 0.15116908
0.038287006 0.08660161 0.07888645 -0.10478759 -0.063164495 -0.004848914 -0.11897419 -0.07320964
-0.09755366 -0.14748475 -0.10851275 0.010586175 0.08468465 -0.019917555 0.062163353 0.0869677
-0.007489106 0.092154555 -0.19113481 -0.054732192 0.05139474 0.006675313 -0.01584657 0.12545563
0.008913816 0.12379536 0.095649466 -0.14907089 0.018170917 -0.06366857 0.1574593 0.045353178
-0.09052411 -0.030316195 0.1532932 0.020925187 0.0936979 0.17379634 0.19423795 -0.044827957
-0.037210286 -0.026875325 -0.004200369 -0.115884036 0.11738574 -0.2001425 0.15098915 0.20301196
0.12070371 -0.16255444 0.0713012 -0.1041808 -0.111838005 -0.07152034 -0.13765934 0.14987445
-0.12598273 0.16825368 -0.018877167 0.05501024 -0.15759148 -0.046867628 0.06626527 -0.19942285
-0.025218632 0.019793127 -0.01492872 0.02018996 -0.037685484 -0.005484838 -0.055325225 0.066599965
0.12712622 0.1221767 -0.0947759 0.015114807 -0.17603414 0.11556417 -0.118320145 0.20231982
00000000: e933 9a3d e8f5 703c fcbd 79bc cede 39bd
00000010: 4cea 4d3e 298e e9bc 1b9f 4f3d 9ee9 eabd
00000020: f461 0fbe 1214 283d 80a6 443e 1e23 15bd
00000030: e17e 3f3d 0abf 5e3e 1bc5 3fbe 4806 9a3e
00000040: 7051 b23d b028 8cbe fd7b ffbd 5c21 bebd
00000050: 1a0d 81be 44ae 973d 3733 b23d f544 87be
00000060: 51a2 29be 49aa e83d 9c6e 8c3c 0dd9 a83c
00000070: 244e 213e 472f 103e 3c34 8f3e 99e5 f6bd
00000080: f3bd 42bd ab59 693d ad23 f7bd e440 723d
00000090: d380 0a3d 05ab 143e e7ad 89be 9071 55be
000000a0: fd01 f3bd 6360 fe3d c636 943c 6287 8cbc
000000b0: ead9 70be d68e 13bd 66d1 c73d 9239 883d
000000c0: a9c8 8abd 4b82 593d 765e ab3d 725c 483e
000000d0: d87d 89bd fa8b fa3d 3fc8 87bb 8766 d3bd
000000e0: 51a9 a5bd d24f 383e da1b 7dbc 1d8a 04bd
000000f0: 8781 74bd 5650 d7bd 55b6 023e ba77 7bbd
00000100: 16aa 0abe 4120 60bd c642 b8be 9a7d c4bd
00000110: d3aa fc3d e5d8 89bd 7758 c9bc ee1b 95bd
00000120: a0b3 b0bd 4d30 ca3d b41a eb3d 692c 99bd
00000130: 1b69 08be 1156 3dbe 3dcf bfbd d84d a33d
00000140: 5db5 a8bd 7ab1 1ebe 0c6c 04be 128a cdbd
00000150: fa74 103e 5e36 9f3d 2826 2e3d 46e1 6c3d
00000160: a184 833d c45a a8bc 1da7 42be 59c8 26be
00000170: 78ff 9dbd 637a 393d a46e 953d 5220 d4bd
00000180: 781c 9cbd a8d0 db3d d922 3abe de9e e6bd
00000190: 15a3 eabc 7a5e 4bbd 79f2 bf3e 2775 8bbd
000001a0: 54f2 a43d 488e 21bd ce37 adbd 15a0 1f3e
000001b0: cbf4 253c 97c2 49bb 0d4b 04ba 7784 e43d
000001c0: 1ede 75bd e055 793d f622 47bd a4bc 1dbe
000001d0: 9013 e03d c8e5 15bd a11e 983d 7ebe 983d
000001e0: 5858 083e 36e9 623d 119c 90bd 21a2 de3d
000001f0: 177f a63d 94d3 0fbe 7918 27bd 9ecc 9abd
00000200: e913 923c c35d af3c 4f22 4a3e 4335 f13d
00000210: 145b 4ebe babb bd3d 5d8d b4bd 05ff 963b
00000220: 953c 89bd d91d 0e3d a583 173e 5014 6bbc
00000230: edbe e5bd 522c a5bd e024 8cbd 2998 02be
00000240: 984b ab3c 9da6 083e 68e5 e13d 8b78 b2bd
00000250: 98c7 01bd fdd9 eb3d 2519 57be 6ca5 bfbd
00000260: 8c23 383e 9ee2 44bd d227 c6bd 1548 0f3e
00000270: 6e05 573e 77d3 cebd 4c85 1cbc 4015 d2bd
00000280: 8f2e 383e 2dc0 08bd 1408 573c 20f6 f33d
00000290: 92b3 02bd 1330 c8bb ef73 623d c69a 9c3d
000002a0: 6aec c1bd b4e3 b5bc 7d14 4ebe 1732 ac3d
000002b0: 438c fa3d 1f2c 843d b712 ed3b 11cc 1a3e
000002c0: d6d2 1c3d 2f5c b13d 388f a13d e09a d6bd
000002d0: 635c 81bd a4e3 9ebb bda8 f3bd f0ee 95bd
000002e0: 37ca c7bd 3e06 17be ef3b debd a371 2d3c
000002f0: 256f ad3d 242a a3bc 009f 7e3d 1f1c b23d
00000300: 2d67 f5bb 87bb bc3d d8b8 43be dd2e 60bd
00000310: 4a83 523d 96bc da3b aad0 81bc 7177 003e
00000320: 410b 123c 6c88 fd3d dee3 c33d 0aa6 18be
00000330: 2ddb 943c ab64 82bd 033d 213e 41c4 393d
00000340: b464 b9bd ab59 f8bc e5f8 1c3e 4c6b ab3c
00000350: afe4 bf3d abf7 313e 50e6 463e 859d 37bd
00000360: d069 18bd a429 dcbc 40a3 89bb 9c54 edbd
00000370: ef67 f03d 28f2 4cbe e69c 1a3e 5ee2 4f3e
00000380: 8233 f73d ac74 26be 5d06 923d be5c d5bd
00000390: 530b e5bd 4279 92bd 92f6 0cbe b078 193e
000003a0: 9e01 01be b14a 2c3e 4aa4 9abc 6b52 613d
000003b0: a95f 21be 45f8 3fbd 16b6 873d 8135 4cbe
000003c0: 4e97 cebc 3225 a23c 9797 74bc 6a65 a53c
000003d0: 185c 1abd 28ba b3bb b49c 62bd 9065 883d
000003e0: 602d 023e c737 fa3d de19 c2bd 18a4 773c
000003f0: 4b42 34be e8ac ec3d d551 f2bd ed2c 4f3e

101 f4 [1, 1024]
-0.057862233 0.09399847 0.01649084 0.11951231 0.04803105 -0.07097303 0.002929961 -0.038250796
-0.15051164 -0.0457247 0.014699577 -0.016242625 -0.066580266 -0.013664987 -0.0913478 -0.016388863
0.059038017 -0.08793915 -0.055538967 -0.022128455 -0.031405564 -0.05641529 -0.08588513 0.038949862
-0.039719496 -0.038819756 0.12900963 0.08231518 0.09979629 -0.035259314 -0.025202937 0.0026010617
-0.118888274 -0.012016735 0.010313945 -0.080632135 -0.0705802 -0.062102 -0.0838745 -0.10873562
-0.030456427 0.086126596 -0.052167296 -0.13575563 0.07399265 -0.031584084 0.037110556 0.05186234
-0.09989228 -0.01717315 -0.029596768 -0.05160967 0.072225034 -0.015032687 0.105799094 0.034028724
0.0017478025 -0.09629915 -0.058806535 -0.061105307 0.06508026 -0.09228133 -0.04690407 0.17353258
0.023218809 0.009729213 0.041478507 -0.038762253 -0.045255043 -0.0040841233 0.009273182 -0.12872575
0.029746015 -0.022485638 -0.05727801 -0.10573405 -0.08076259 -0.039428875 0.020967063 0.010376629
-0.06207551 -0.040615626 -0.060952418 0.016515402 0.043428253 -0.011874286 0.04422187 -0.01455237
0.05431782 0.0110192085 -0.015596865 0.020165881 -0.003279054 0.062207203 -0.118418895 -0.097621135
-0.14845766 0.017014492 0.047838334 0.09939728 -0.1472343 -0.0033120231 -0.06468737 0.018761344
-0.07784411 0.027459107 -0.020482277 0.11496299 -0.007657805 -0.07424272 -0.031213906 -0.10365815
-0.018998148 -0.006074454 -0.02981966 -0.06412254 0.015197272 0.014303798 0.00810419 -0.09343228
0.014054386 -0.032857377 0.0265157 0.0073534218 -0.025505299 0.013765425 0.06669131 0.051738158
0.05498529 -0.0027572114 -0.005098746 0.002445774 0.024739208 0.0006101346 -0.006882623 -0.03305812
-0.053622633 0.045280416 0.04385343 0.09848556 0.038856264 -0.045238435 -0.03694892 0.04702427
0.010901862 0.059632756 0.0016933788 0.043314427 -0.055642616 -0.056484897 0.021594288 0.025804866
-0.0047128466 -0.077947415 0.026655603 -0.023420049 0.041610453 -0.052380405 -0.008467437 0.018941864
-0.044596933 -0.017077757 0.009221604 0.03281493 -0.008256974 0.01856607 -0.04106279 -0.03952938
-0.028422324 -0.07544185 0.004388993 -0.02478233 0.15503018 0.049811453 0.048163276 -0.01227675
-0.002473179 0.039767757 -0.055411253 0.029347787 -0.11226872 -0.13194859 -0.03402961 -0.06679282
0.042086788 -0.009645374 -0.021566367 0.0025225612 0.07847341 0.042214055 0.05089476 -0.078862496
-0.0077698943 0.046593957 -0.007382664 0.05900439 -0.10362327 -0.053186912 0.08396111 -0.06438133
-0.08214237 0.008189046 0.025422538 -0.03264287 -0.014247901 -0.04914474 0.030702587 -0.023017433
0.04161698 0.10021889 0.02174827 -0.024648262 -0.07278581 -0.061780218 0.020565884 0.021314008
0.07505646 -0.023947656 0.030531958 -0.089809045 -0.059917856 0.032096375 -0.051990617 -0.028044973
0.03496074 -0.06588684 -0.02141837 0.07540793 -0.031913616 -0.0169273 0.036542423 0.002095599
-0.06723685 -0.044127073 -0.030776849 -0.08501672 0.01038163 0.029580086 0.005980388 -0.0065211696
-0.012436457 -0.13409102 -0.00087096094 -0.062614754 -0.001082069 -0.026024688 0.118100606 -0.04007603
-0.033994734 -0.008610875 0.035965014 -0.07194635 0.049470957 -0.018971711 -0.012503024 -0.026206065
00000000: f300 6dbd 4582 c03d cc17 873c dfc2 f43d
00000010: 35bc 443d 4f5a 91bd 9704 403b deac 1cbd
00000020: b91f 1abe d349 3bbd 7fd6 703c 410f 85bc
00000030: 3c5b 88bd 1ce3 5fbc 8e14 bbbd f041 86bc
00000040: d9d1 713d 7119 b4bd d47c 63bd bc46 b5bc
00000050: 1fa3 00bd b813 67bd 8be4 afbd e489 1f3d
00000060: e9b0 22bd 7701 1fbd 1a1b 043e dc94 a83d
00000070: ff61 cc3d 126c 10bd 6476 cebc 9376 2a3b
00000080: b27b f3bd d7e1 44bc d2fb 283c 7622 a5bd
00000090: 5a8c 90bd ab5e 7ebd 65c6 abbd c8b0 debd
000000a0: c27f f9bc 2463 b03d 60ad 55bd 8603 0bbe
000000b0: 7589 973d 505e 01bd 3d01 183d 9b6d 543d
000000c0: 5394 ccbd b5ae 8cbc ec74 f2bc a964 53bd
000000d0: b8ea 933d a94b 76bc 32ad d83d b461 0b3d
000000e0: 8516 e53a 7d38 c5bd 1fdf 70bd 8f49 7abd
000000f0: cd48 853d fefd bcbd 7b1e 40bd 86b2 313e
00000100: 5f35 be3c 4767 1f3c 5ee5 293d 2bc5 1ebd
00000110: 5a5d 39bd 1cd4 85bb 8bee 173c afd0 03be
00000120: eaad f33c cd33 b8bc 599c 6abd 188b d8bd
00000130: db66 a5bd 2c80 21bd 1ec3 ab3c bd02 2a3c
00000140: e442 7ebd 925c 26bd 3ea9 79bd 4f4b 873c
00000150: d3e1 313d 5e8c 42bc fe21 353d 106d 6ebc
00000160: 5d7c 5e3d e989 343c fe89 7fbc eb32 a53c
00000170: 66e5 56bb fbcc 7e3d 9b85 f2bd 97ed c7bd
00000180: 4905 18be fa61 8b3c 21f2 433d cd90 cb3d
00000190: 97c4 16be 870e 59bb d07a 84bd 64b1 993c
000001a0: bc6c 9fbd ecf1 e03c 73ca a7bc b771 eb3d
000001b0: 53ee fabb 910c 98bd 4eb4 ffbc b94a d4bd
000001c0: 01a2 9bbc 370c c7bb 5c48 f4bc ae52 83bd
000001d0: fbfd 783c 7a5a 6a3c 70c7 043c 6c59 bfbd
000001e0: 5e44 663c 7595 06bd 7437 d93c f9f4 f03b
000001f0: 7df0 d0bc 6188 613c 7495 883d 64eb 533d
00000200: 4138 613d 55b2 34bb 6213 a7bb 4749 203b
00000210: e1a9 ca3c 71f1 1f3a a087 e1bb f467 07bd
00000220: 68a3 5bbd f577 393d a79f 333d ccb2 c93d
00000230: bf27 1f3d f04b 39bd c057 17bd 859c 403d
00000240: b99d 323c 7a41 743d 5df4 dd3a 786a 313d
00000250: 83e9 63bd b55c 67bd 81e6 b03c ba64 d33c
00000260: 396e 9abb e5a2 9fbd da5c da3c 67db bfbc
00000270: b96f 2a3d d68c 56bd 01bb 0abc f82b 9b3c
00000280: 46ab 36bd a7e6 8bbc 3616 173c f368 063d
00000290: 4248 07bc df17 983c 7531 28bd 8fe9 21bd
000002a0: efd5 e8bc 4281 9abd 8bd1 8f3b 5004 cbbc
000002b0: 3bc0 1e3e 1807 4c3d db46 453d 6c24 49bc
000002c0: 0f15 22bb 84e3 223d e9f6 62bd c56a f03c
000002d0: 25ed e5bd 881d 07be a262 0bbd adca 88bd
000002e0: 3263 2c3d a107 1ebc f3ab b0bc 8e51 253b
000002f0: abb6 a03d a5e8 2c3d 0677 503d a982 a1bd
00000300: 999a febb 4ed9 3e3d 46ea f1bb 96ae 713d
00000310: 7038 d4bd 85da 59bd cdf3 ab3d 5cda 83bd
00000320: 423a a8bd 592b 063c ed42 d03c 88b4 05bd
00000330: 0770 69bc ff4b 49bd fe83 fb3c 0e8f bcbc
00000340: 9176 2a3d 903f cd3d 6e29 b23c 27eb c9bc
00000350: ba10 95bd 410d 7dbd c979 a83c b79a ae3c
00000360: 34b7 993d e02d c4bc 281e fa3c ceed b7bd
00000370: 6d6c 75bd 7d77 033d 1df4 54bd 92be e5bc
00000380: fe32 0f3d aeef 86bd 9475 afbc 796f 9a3d
00000390: dab7 02bd 1fab 8abc 82ad 153d 5156 093b
000003a0: 79b3 89bd 97be 34bd bb1f fcbc 3f1d aebd
000003b0: b617 2a3c f051 f23c 21f7 c33b 89af d5bb
000003c0: 48c2 4bbc 284f 09be 3351 64ba 2a3c 80bd
000003d0: 36d4 8dba ba31 d5bc bbde f13d c326 24bd
000003e0: 103e 0bbd a114 0dbc 0d50 133d 9c58 93bd
000003f0: 0fa2 4a3d 906a 9bbc 7cd9 4cbc 1aae d6bc

99 f4 [1, 512, 128]
0.024083272 -0.035247933 -0.13281414 -0.03535257 0.24608147 -0.10734911 0.033567853 0.19534001
-0.22253713 -0.25728032 0.08991124 -0.09392563 0.07773242 0.0486752 0.12402787 -0.019642064
0.0364227 -0.06913051 0.026600715 -0.0076065566 0.057536345 -0.08410904 0.023891626 -0.15035267
-0.19577922 0.013313023 -0.13927765 0.040416364 0.033122562 -0.026076755 -0.23165256 0.0075908275
0.09044499 0.077798076 0.117412195 -0.014666758 0.11159132 0.0012957972 0.09433105 0.08865312
0.074247755 0.14482953 -0.09817665 0.12866357 0.19562908 -0.080890365 -0.16398884 0.005520178
-0.033853743 -0.08094932 0.15046966 -0.080254465 -0.0014817142 0.03138821 -0.16015553 0.0265776
-0.15025622 0.1946794 -0.007952898 0.0041324557 0.2761364 0.111024976 0.1766261 -0.22818601
0.09456906 -0.1152726 -0.108031675 -0.13358893 -0.24615476 -0.1754337 0.04429475 0.19412918
0.050812684 -0.22133426 -0.00083477516 -0.14277397 -0.26302135 -0.16188844 -0.060213055 0.129588
0.082960606 0.09636128 0.0628375 0.04924529 0.063804045 0.0638358 0.24218705 -0.21425274
0.13579938 0.06430918 0.0075214934 0.08802309 0.11744943 0.20113638 0.051974393 0.035672896
0.18144093 0.059778813 0.005808422 -0.16638158 0.15221602 -0.18911946 -0.21267225 0.059641987
-0.031660445 -0.02197799 -0.19429195 0.042890254 -0.20129131 0.0866655 -0.1025305 0.19923429
0.085647106 0.06553763 -0.09802406 -0.21965793 0.17084564 -0.080752686 -0.055467192 0.11095634
-0.13945334 -0.05162978 -0.12340527 -0.011939072 -0.12983245 -0.2574792 -0.0613923 -0.14947775
-0.086854875 0.21392325 0.14730832 0.10954878 -0.23740408 0.1151326 0.021294767 -0.14035146
-0.054177914 0.027037308 -0.10782432 -0.009339231 -0.14589147 -0.105754204 -0.0052042794 0.03122385
0.23471358 -0.040496483 0.025125183 0.03471707 0.016154332 -0.11000283 0.07797809 0.03341521
0.28529087 0.114514306 0.104194224 -0.17247674 0.12408586 -0.0065834727 0.0658959 -0.13791755
-0.06630981 0.09404454 -0.0018640546 -0.0045163115 0.17009656 -0.078179464 0.011044104 -0.11817637
-0.0033381002 0.059608992 -0.13752826 0.0023648366 -0.09394052 -0.029114116 0.027498342 0.11436946
-0.15940408 0.15396495 -0.17891747 0.12676744 0.21142663 -0.113150604 9.105755e-05 -0.10179994
0.015288036 -0.073010534 -0.0708328 0.1161047 0.0445192 0.17211157 0.10929668 0.120834425
0.157108 -0.14787498 0.11960916 0.070371315 0.15193951 0.12855203 -0.036889058 0.04444448
-0.014430581 0.10878428 0.1270858 0.003674068 0.14506164 -0.13096817 -0.043639924 0.07076923
0.09563432 -0.025784152 0.03932874 0.02119744 -0.1323462 0.116063185 -0.008588041 -0.003165796
0.13416459 0.19793586 -0.040575437 -0.08593012 -0.11378727 -0.09647335 -0.15239127 -0.0867195
0.002483491 0.083599456 -0.08257576 -0.20128247 -0.16339767 0.009648162 0.21680492 -0.037080377
0.04389586 -0.07532357 0.009475379 -0.25105184 0.1127098 -0.096668415 0.17850935 0.18783958
0.05192722 -0.08506379 0.16134568 0.1639741 -0.09215217 -0.08169099 0.042748358 0.06274658
0.073813125 -0.045076884 0.08338393 0.015180773 0.19444771 0.115869865 0.017947057 0.10568185
00000000: 484a c53c 2360 10bd 6e00 08be dbcd 10bd
00000010: c8fc 7b3e dad9 dbbd 727e 093d 3607 483e
00000020: c6e0 63be 3fba 83be 6223 b83d 155c c0bd
00000030: 2d32 9f3d a65f 473d 5302 fe3d 65e8 a0bc
00000040: f82f 153d 4c94 8dbd bee9 d93c 6c40 f9bb
00000050: 3bab 6b3d 5c41 acbd 5fb8 c33c 0df6 19be
00000060: 597a 48be de1e 5a3c cd9e 0ebe a18b 253d
00000070: 86ab 073d eb9e d5bc 5436 6dbe 7abc f83b
00000080: 393b b93d 9954 9f3d ce75 f03d d74c 70bc
00000090: fd89 e43d bdd7 a93a a330 c13d c48f b53d
000000a0: 350f 983d 314e 143e d710 c9bd 62c0 033e
000000b0: fd52 483e d9a9 a5bd b1ec 27be 9ce2 b43b
000000c0: 39aa 0abd c2c8 a5bd b814 1a3e 745c a4bd
000000d0: 1436 c2ba ec90 003d d0ff 23be 44b9 d93c
000000e0: c4dc 19be 095a 473e df4c 02bc 8d69 873b
000000f0: c061 8d3e 1061 e33d 79dd 343e 98a9 69be
00000100: 6cad c13d 0a14 ecbd b63f ddbd 89cb 08be
00000110: fe0f 7cbe e4a4 33be 696e 353d cdc9 463e
00000120: f620 503d 73a5 62be d0d4 5aba 5733 12be
00000130: bcaa 86be 15c6 25be f7a1 76bd b7b2 043e
00000140: 40e7 a93d 1059 c53d f2b0 803d 6eb5 493d
00000150: b2ab 823d 58bc 823d e2ff 773e 1265 5bbe
00000160: fe0e 0b3e 88b4 833d dc76 f63b 7345 b43d
00000170: 5489 f03d b2f6 4d3e 1ae3 543d be1d 123d
00000180: a7cb 393e a1da 743d 9354 be3b ef5f 2abe
00000190: 84de 1b3e 88a8 41be c1c6 59be 284b 743d
000001a0: 62ae 01bd 300b b4bc 78f4 46be b1ad 2f3d
000001b0: 4f1f 4ebe af7d b13d 83fb d1bd 1304 4c3e
000001c0: c067 af3d 9838 863d d7c0 c8bd 02ee 60be
000001d0: 29f2 2e3e aa61 a5bd 9131 63bd 143d e33d
000001e0: dbcc 0ebe c079 53bd e7bb fcbd 199c 43bc
000001f0: ccf2 04be 50d4 83be 7e76 7bbd b210 19be
00000200: f8e0 b1bd b20e 5b3e fed7 163e 1c5b e03d
00000210: 0e1a 73be a4ca eb3d 5d72 ae3c 4bb8 0fbe
00000220: a9e9 5dbd 587d dd3c ffd2 dcbd 9303 19bc
00000230: 9364 15be a995 d8bd a988 aabb 29c9 ff3c
00000240: c258 703e a4df 25bd 54d3 cd3c 7d33 0e3d
00000250: 1756 843c 2a49 e1bd fab2 9f3d 63de 083d
00000260: a511 923e 7a86 ea3d c863 d53d be9d 30be
00000270: ba20 fe3d 2cba d7bb 6ef4 863d 423a 0dbe
00000280: 70cd 87bd 6c9a c03d 4b53 f4ba 91fd 93bb
00000290: cb2d 2e3e 8e1c a0bd 54f2 343c 7406 f2bd
000002a0: 07c4 5abb 8f28 743d 35d4 0cbe 60fb 1a3b
000002b0: e363 c0bd ba80 eebc 3444 e13c 893a ea3d
000002c0: d33a 23be fda8 1d3e 2436 37be 53cf 013e
000002d0: 3980 583e 81bb e7bd 26f6 be38 7d7c d0bd
000002e0: ac7a 7a3c 8c86 95bd c910 91bd 4dc8 ed3d
000002f0: c459 363d 043e 303e f0d6 df3d 0a78 f73d
00000300: ebe0 203e 8a6c 17be a6f5 f43d d61e 903d
00000310: 0896 1b3e 25a3 033e fb18 17bd 6a0b 363d
00000320: 3e6e 6cbc 4bca de3d c822 023e a2c8 703b
00000330: 0a8b 143e 851c 06be c7bf 32bd 75ef 903d
00000340: eddb c33d 4939 d3bc 2c17 213d 41a6 ad3c
00000350: c385 07be 89b2 ed3d dbb4 0cbc 3e79 4fbb
00000360: 7162 093e b3af 4a3e 6e32 26bd 21fc afbd
00000370: 4d09 e9bd d293 c5bd 750c 1cbe fe99 b1bd
00000380: 11c2 223b 3136 ab3d 7b1d a9bd fe1c 4ebe
00000390: b851 27be 5313 1e3c 1c02 5e3e 98e1 17bd
000003a0: 25cc 333d 3e43 9abd 9f3e 1b3c de89 80be
000003b0: 65d4 e63d 17fa c5bd 28cb 363e 0559 403e
000003c0: a3b1 543d ed35 aebd cd37 253e d4e8 273e
000003d0: 47ba bcbd 9b4d a7bd e718 2f3d 4781 803d
000003e0: 562b 973d 8aa2 38bd 32c5 aa3d c7b8 783c
000003f0: 4d1d 473e 2e4d ed3d b505 933c ba6f d83d

action_model._continuous_distribution.log_sigma f4 [1, 4]
0.27513263 -2.6958117 0.07167391 0.095895074
00000000: 2fde 8c3e 2e88 2cc0 c5c9 923d a364 c43d

action_model._continuous_distribution.mu.bias f4 [4]
0.20567036 -0.0040168827 0.056452587 0.05463378
00000000: 409b 523e 0ea0 83bb d43a 673d acc7 5f3d

action_model._continuous_distribution.mu.weight f4 [4, 128]
0.10080872 0.10960522 0.3332025 0.15073194 0.17193379 -0.24289437 0.2377114 -0.048829783
0.069762774 0.20435275 0.1467719 0.26944375 -0.12579086 0.028595919 -0.08102349 0.012677598
-0.16127706 0.020237237 0.13553384 0.24076526 0.0047596963 0.08645537 -0.1291044 -0.089174084
0.33168042 0.12467828 0.27981678 -0.11666234 -0.24262808 0.15956143 -0.19663465 -0.25706112
-0.13713229 0.025453266 0.12613484 0.16224119 0.1122863 0.31724793 -0.048137456 0.26316634
0.044359557 0.0083027445 -0.17689718 -0.002175313 0.22075039 0.085680105 0.2042711 0.1741711
0.031973604 0.26656866 -0.17122963 -0.18676281 0.015666895 -0.060108893 -0.15812112 -0.1580142
-0.0692595 -0.18700114 -0.22643526 -0.047591925 -0.361742 0.17783651 0.035864223 -0.078207836
-0.20405473 -0.3188588 -0.2036575 0.22136533 0.030258143 -0.023962984 0.2264128 -0.16564834
-0.09317701 0.013337048 0.31550157 0.1965049 0.00087756786 -0.2013102 -0.09713873 -0.16054885
-0.093164906 -0.08355477 0.32644457 0.1463737 -0.10323191 -0.036850672 -0.048538115 0.027924253
0.22510098 0.22165358 0.27784425 -0.17961136 -0.016179115 0.11213038 -0.075303406 0.22012012
0.11744331 0.04273205 0.07057598 -0.35868466 0.13892254 0.26274627 -0.15882671 0.2024867
0.096229434 -0.049668714 -0.27542046 0.059513588 0.17311133 0.23086311 -0.11593206 -0.29796186
-0.27784345 -0.035544716 -0.035076607 -0.021146024 0.13885416 -0.29751554 -0.20105197 -0.015265247
0.09854019 -0.09145987 -0.16156143 0.25537345 -0.27312425 -0.020607011 0.01853785 -0.011371133
-0.0013280038 -0.0013889502 0.024246687 0.0023202668 -0.007589372 0.008056161 -0.0050708964 -0.023738928
0.013302416 -0.008241944 0.014423545 -0.006796598 -0.0068455585 0.0076317266 -0.022993553 -0.005656629
0.007229305 -0.009498868 0.009373314 0.0031809984 0.012803792 0.008755215 -0.012333662 0.0091041075
0.012287913 0.00794848 0.007352746 -0.017981261 0.019060764 0.009722977 -0.0066565815 0.010100871
-0.021444574 -0.0089144185 -0.011604409 0.010636279 0.008510744 -0.021324195 0.007690802 0.008963863
0.0009731973 0.023274232 -0.013154497 -0.008951439 0.01444566 -0.0022619474 -0.009531225 -0.00416263
-0.03065484 -0.0068221414 0.0056204265 -0.0016570846 -0.0030007216 -0.02022597 -0.0036592123 -0.0017985213
-0.0040554777 -0.0055671316 -0.013008847 -0.007395524 -0.0011673605 -0.014565383 0.003384908 0.020134639
-0.0016881792 0.0073931483 -0.024062004 -0.004810025 0.0036811058 -0.020215295 -0.010518883 -0.014734288
-0.02590089 0.0031065657 -0.027426852 -0.005668595 0.006389737 0.019672725 -0.0045336178 -0.019123733
0.0123140225 -0.0023513976 -0.01710083 -0.00870345 0.021066692 -0.0014638325 -0.0049368185 -0.004037347
-0.00780879 -0.009319809 -0.021626998 -0.0020006928 0.01008776 -0.0022398054 -0.0107940445 -0.0064272485
-0.015448659 0.0040061246 0.008787888 -0.013281543 -0.014491223 -0.0014821716 -0.012702128 0.002312906
0.013954329 0.0034849034 0.0060783066 0.016189052 0.00015836582 0.01523075 -0.010112343 -0.0070561543
0.02549794 -0.01398637 0.0006287541 -0.015096457 -0.010601155 -0.009131568 0.005238133 -0.011767206
-0.001381731 -0.004900874 0.0021814469 -0.0036944319 -0.0012081484 0.012841739 -0.00079461554 0.002684394
00000000: cd74 ce3d b478 e03d 8599 aa3e 7959 1a3e
00000010: 690f 303e 4db9 78be 9e6a 733e bd01 48bd
00000020: c9df 8e3d d941 513e 5f4b 163e 88f4 893e
00000030: 52cf 00be fd41 ea3c a5ef a5bd b3b5 4f3c
00000040: d025 25be 90c8 a53c 62c9 0a3e 2b8b 763e
00000050: 3af7 9b3b 830f b13d f233 04be e7a0 b6bd
00000060: 04d2 a93e 5357 ff3d 2544 8f3e aaec eebd
00000070: 7f73 78be 1264 233e 985a 49be 849d 83be
00000080: 686c 0cbe 5e83 d03c 7e29 013e 8e22 263e
00000090: 5cf6 e53d 526e a23e c82b 45bd bdbd 863e
000000a0: 5eb2 353d 3c08 083c 8924 35be b28f 0ebb
000000b0: 640c 623e 0d79 af3d 712c 513e e959 323e
000000c0: c1f6 023d b07b 883e d256 2fbe c03e 3fbe
000000d0: dc57 803c be34 76bd 81ea 21be 79ce 21be
000000e0: edd7 8dbd 3a7d 3fbe a5de 67be c0ef 42bd
000000f0: 3f36 b9be c61a 363e 5de6 123d 6e2b a0bd
00000100: b9f3 50be 7641 a3be 978b 50be 98ad 623e
00000110: eddf f73c 054e c4bc c2d8 673e b89f 29be
00000120: 97d3 bebd a283 5a3c 6c89 a13e 9538 493e
00000130: 950c 663a 4324 4ebe acf0 c6bd eb66 24be
00000140: 3ecd bebd c31e abbd be23 a73e fde2 153e
00000150: 406b d3bd bbf0 16bd e7cf 46bd 67c1 e43c
00000160: df80 663e 28f9 623e 9a41 8e3e 0aec 37be
00000170: 108a 84bc 9da4 e53d ac38 9abd 2b67 613e
00000180: 1e86 f03d cd07 2f3d 248a 903d 84a5 b7be
00000190: b641 0e3e ae86 863e 78a3 22be ac58 4f3e
000001a0: f013 c53d 6c71 4bbd e903 8dbe 85c4 733d
000001b0: 1944 313e 6167 6c3e ca6d edbd 758e 98be
000001c0: 7f41 8ebe 5697 11bd 7dac 0fbd 6d3a adbc
000001d0: c92f 0e3e f553 98be 91e0 4dbe 161b 7abc
000001e0: 70cf c93d 504f bbbd 5c70 25be 4fc0 823e
000001f0: f1d6 8bbe 09d0 a8bc b0dc 973c fd4d 3abc
00000200: 6a10 aeba 6f0d b6ba fda0 c63c 9e0f 183b
00000210: 44b0 f8bb fdfd 033c c329 a6bb 2478 c2bc
00000220: 60f2 593c 3809 07bc bc50 6c3c ffb5 debb
00000230: b550 e0bb 9013 fa3b fa5c bcbc 3e5b b9bb
00000240: cee3 ec3b 24a1 1bbc 8792 193c 4c78 503b
00000250: ffc6 513c 0972 0f3c 2113 4abc 6529 153c
00000260: 3e53 493c 573a 023c 4eef f03b 704d 93bc
00000270: 5225 9c3c 1f4d 1f3c 741f dabb 207e 253c
00000280: 88ac afbc c80d 12bc 6b20 3ebc ca43 2e3c
00000290: a670 0b3c 14b0 aebc 2003 fc3b 2bdd 123c
000002a0: 2a1e 7f3a 9aa9 be3c f685 57bc 0ea9 12bc
000002b0: 7dad 6c3c 2e3d 14bb db28 1cbc ac66 88bb
000002c0: dc1f fbbc 458c dfbb 8e2b b83b 8832 d9ba
000002d0: c1a7 44bb efb0 a5bc 65cf 6fbb 5cbc ebba
000002e0: d0e3 84bb 7c6c b6bb 0f23 55bc 2756 f2bb
000002f0: 1e02 99ba a5a3 6ebc 55d5 5d3b 66f1 a43c
00000300: e545 ddba 3942 f23b ae1d c5bc 6a9d 9dbb
00000310: b53e 713b 8c9a a5bc 6557 2cbc 1568 71bc
00000320: 1a2e d4bc 8697 4b3b 47ae e0bc 9fbf b9bb
00000330: 0061 d13b b228 a13c be8e 94bb 60a9 9cbc
00000340: c1c0 493c e819 1abb 0a17 8cbc ea98 0ebc
00000350: 0e94 ac3c 11de bfba 09c5 a1bb b94b 84bb
00000360: e1e0 ffbb 1db2 18bc 1a2b b1bc 0e1e 03bb
00000370: 2247 253c b3c9 12bb 81d9 30bc ab9b d2bb
00000380: 5f1c 7dbc cf45 833b 13fb 0f3c d49a 59bc
00000390: 986c 6dbc 6d45 c2ba 961c 50bc 2094 173b
000003a0: b3a0 643c fa62 643b 882c c73b e79e 843c
000003b0: 000f 2639 658a 793c 3eae 25bc 5037 e7bb
000003c0: 0ee1 d03c 1627 65bc f9d2 243a 2157 77bc
000003d0: 78b0 2dbc 929c 15bc a5a4 ab3b 3dcb 40bc
000003e0: 331b b5ba 8397 a0bb 9bf6 0e3b 481e 72bb
000003f0: bc5a 9eba 2866 523c bf4d 50ba a8ec 2f3b

network_body._body_endoder.seq_layers.0.bias f4 [128]
0.062343247 0.025313122 -0.036053456 0.059440814 -0.039859794 0.031238198 -0.06306325 -0.024811188
-0.010963047 -0.017270837 0.025375819 0.05523183 -0.044608455 0.029704476 -0.01829486 -0.045391493
0.033848334 0.03459476 -0.014339719 0.08043027 0.03008988 -0.010448342 -0.08666879 0.0432396
0.0031686404 -0.103162415 0.013806828 0.031312544 -0.061269633 0.004658275 -0.08794544 -0.03290844
0.06643776 -0.007165946 0.040884662 -0.044085916 0.05474561 0.027642084 -0.0039223894 0.07037452
0.052077655 -0.13297203 0.048697304 -0.090746 0.03549306 0.043597437 -0.02554897 -0.07932878
0.01248239 0.013339595 -0.011282774 -0.07689687 -0.0057774754 0.044189308 -0.086996354 0.029000407
-0.023420429 0.040570803 -0.048427302 -0.008615844 -0.099076584 0.011931346 0.07925347 -0.008000499
-0.008209774 -0.09504571 -0.048755467 -0.0485327 0.008298028 0.045645736 0.045308195 -0.013173367
-0.08407431 -0.08058939 -0.0028250252 -0.0038048588 0.017829083 -0.027396666 0.052062538 0.018603604
-0.014753077 -0.03480378 -0.09630039 -0.00891281 0.023051832 -0.07635409 0.04213096 -0.06772837
0.013280331 0.043769225 -0.043790616 0.009383247 -0.0580472 -0.0070968755 0.013498453 0.0144771915
0.050415445 0.042877752 -0.056368593 -0.023022318 0.001449913 0.039703235 0.019199245 -0.015993476
0.0013365919 -0.033543725 -0.09287113 0.0070685525 -0.004584563 -0.026244774 -0.13824 0.058918558
0.019331975 0.023019852 -0.011150256 -0.0080828965 -0.07116056 -0.010545656 -0.03182309 0.036775533
-0.048775483 0.06845695 -0.080300346 0.04290635 0.048532087 -0.0032564432 0.022712842 0.03076365
00000000: a25b 7f3d 775d cf3c caac 13bd 3678 733d
00000010: 0644 23bd 40e7 ff3c 4e27 81bd d540 cbbc
00000020: 5a9e 33bc 927b 8dbc f3e0 cf3c c53a 623d
00000030: 5bb7 36bd cd56 f33c 1adf 95bc 6eec 39bd
00000040: 8da4 0a3d 3cb3 0d3d 24f1 6abc a0b8 a43d
00000050: 0d7f f63c 862f 2bbc 687f b1bd 021c 313d
00000060: f7a8 4f3b d146 d3bd 0936 623c 9541 003d
00000070: def5 7abd 71a4 983b bd1c b4bd 00cb 06bd
00000080: 8510 883d 50d0 eabb ad76 273d 6f93 34bd
00000090: ef3c 603d a771 e23c 6387 80bb 8420 903d
000000a0: 614f 553d d229 08be d376 473d 0ad9 b9bd
000000b0: 2c61 113d 3a93 323d 134c d1bc 2177 a2bd
000000c0: f082 4c3c 518e 5a3c 62db 38bc 1b7c 9dbd
000000d0: fa50 bdbb d9ff 343d 252b b2bd 4392 ed3c
000000e0: 33dc bfbc 922d 263d b55b 46bd 7829 0dbc
000000f0: aae8 cabd b17b 433c a54f a23d 8614 03bc
00000100: 4a82 06bc 53a7 c2bd d0b3 47bd 39ca 46bd
00000110: 74f4 073c 06f7 3a3d 1695 393d 1bd5 57bc
00000120: 272f acbd 0d0c a5bd 0f24 39bb f05a 79bb
00000130: 4c0e 923c f96e e0bc 873f 553d 9666 983c
00000140: e4b6 71bc 698e 0ebd 2439 c5bd 0907 12bc
00000150: 32d7 bc3c 885f 9cbd 8391 2c3d 2cb5 8abd
00000160: bf95 593c 5c47 333d ca5d 33bd 31bc 193c
00000170: e7c2 6dbd e88c e8bb 9e28 5d3c be31 6d3c
00000180: 6d80 4e3d 95a0 2f3d c1e2 66bd 4d99 bcbc
00000190: 020b be3a dc9f 223d bc47 9d3c c004 83bc
000001a0: 9530 af3a 2565 09bd 3833 bebd 519f e73b
000001b0: 1a3a 96bb 48ff d6bc c98e 0dbe 9654 713d
000001c0: 175e 9e3c 2194 bc3c 90af 36bc 206e 04bc
000001d0: a1bc 91bd b0c7 2cbc ee58 02bd f1a1 163d
000001e0: cdc8 47bd 2833 8c3d 8274 a4bd 92be 2f3d
000001f0: 95c9 463d 0d6a 55bb 4810 ba3c 0d04 fc3c

network_body._body_endoder.seq_layers.0.weight f4 [128, 80]
0.13164757 0.065243505 -0.24488147 -0.0041903392 0.21029238 0.21491486 0.167419 0.063826546
-0.22486301 0.15591863 0.028517092 -0.15751684 0.372349 -0.4047108 -0.12163103 -0.14048962
-0.16305134 0.16178699 0.09016906 0.2135931 0.06473595 0.1756299 -0.03604452 -0.17358531
-0.06259647 -0.1943053 0.22662313 -0.0906576 0.009025398 -0.0660493 0.30312747 -0.16976725
-0.21380791 0.060749043 0.1530239 -0.15056574 0.09390138 0.07031038 -0.06656786 -0.038579833
-0.054927025 -0.04441495 -0.2569578 0.27779093 0.240723 -0.18298192 -0.08212343 0.10827594
0.031446893 0.22862282 0.09648634 0.1704003 0.13655792 -0.24207643 0.21874242 -0.25070265
-0.1556824 -0.03963727 -0.078810975 0.11900961 -0.16653985 -0.0037423568 -0.050781693 0.079945594
-0.17037909 -0.09448314 0.077971675 0.041252114 -0.065969475 0.12899444 0.19836114 0.036716
-0.12970193 0.04342602 -0.14706749 0.07444215 0.04704072 -0.16038042 -0.13661174 0.049708042
-0.22947988 -0.09321169 -0.07529962 -0.17829087 -0.06488975 0.13437507 0.04338521 -0.107502684
0.0631995 0.14961314 0.33787647 -0.11349198 -0.035376348 -0.15657195 0.06777029 0.19249438
-0.14294845 0.06438978 0.16126095 -0.18330847 -0.1261717 -0.06039507 0.0133252395 0.26306978
0.0140156355 0.23570357 0.29059058 -0.29920554 -0.029199556 -0.07643617 0.119096115 0.011036411
-0.019153964 -0.1369858 0.032790735 0.17026074 -0.022790652 0.005789323 0.05106239 -0.07020646
0.118990526 0.07289008 -0.14330934 -0.27297473 0.054872155 0.0150077185 0.26872382 0.15114187
0.05317077 -0.1824364 0.02216851 0.3732836 -0.043136217 0.11682901 -0.016285226 0.072686486
0.26001072 0.24468328 -0.04446611 -0.005796795 0.32640967 0.009136594 0.03741585 -0.06355101
-0.021599393 -0.19078772 -0.08268634 -0.25973833 -0.1840219 -0.124745235 0.06724904 -0.05883603
0.16267738 -0.19933888 -0.23393461 -0.1859965 -0.13962638 0.08190875 0.06499443 -0.05639257
0.2398198 -0.031353317 0.07682059 0.11701005 0.04477351 -0.005837868 0.15185826 0.113023266
0.03434107 -0.095083125 0.008324811 -0.014049184 0.04505289 -0.15786147 -0.25059238 0.30522653
-0.20780312 -0.07682723 -0.35463566 -0.17030995 -0.090827875 0.18800518 -0.25856674 0.26179513
-0.01777896 0.3550975 0.1052467 -0.09879399 0.12662242 0.08922633 -0.094092935 -0.07866168
0.021991728 -0.10276766 0.03909487 0.1676193 -0.098423816 -0.03768102 -0.24352284 -0.24078657
0.07969879 -0.089947194 0.008223556 -0.0750331 0.039556786 0.23073706 -0.08581569 0.12377485
-0.002557635 -0.10571088 -0.046432704 0.19476292 -0.12540124 0.040505953 -0.083979495 0.17063922
-0.33726168 -0.36000276 -0.13306168 0.29379886 0.22118159 -0.09991313 -0.71299344 -0.040979847
-0.017294502 0.11940454 -0.44751012 -0.19598615 0.16333422 0.117307276 0.029083245 0.084839135
-0.19118637 -0.09639216 0.15739837 0.46622866 -0.0871106 0.3320332 -0.39612785 0.042122077
-0.051021166 -0.009342735 0.12816866 0.16997916 -0.02911966 -0.07177668 0.02545005 0.29439297
0.04936716 -0.08104529 0.04081661 -0.20796537 0.14363252 0.19074073 0.048355684 -0.090641655
00000000: 9fce 063e 639e 853d 35c2 7abe 1d4f 89bb
00000010: e356 573e a412 5c3e e36f 2b3e 7eb7 823d
00000020: 7d42 66be 22a9 1f3e ad9c e93c 184c 21be
00000030: 87a4 be3e 4136 cfbe b119 f9bd 83dc 0fbe
00000040: eef6 26be 7dab 253e 8eaa b83d 26b8 5a3e
00000050: 4894 843d 53d8 333e 6ba3 13bd 59c0 31be
00000060: 9432 80bd f8f7 46be e50f 683e b1aa b9bd
00000070: 43df 133c db44 87bd 8633 9b3e 77d7 2dbe
00000080: 76f0 5abe fdd3 783d 4cb2 1c3e e82d 1abe
00000090: 5e4f c03d e3fe 8f3d bb54 88bd e305 1ebd
000000a0: 29fb 60bd 73ec 35bd f98f 83be 9d3a 8e3e
000000b0: 1780 763e 9d5f 3bbe 5430 a8bd c7bf dd3d
000000c0: 75ce 003d 1a1c 6a3e a19a c53d 6b7d 2e3e
000000d0: d7d5 0b3e e2e2 77be 03fe 5f3e 195c 80be
000000e0: 356b 1fbe b15a 22bd a667 a1bd 4fbb f33d
000000f0: 6c89 2abe 5442 75bb 7700 50bd 84ba a33d
00000100: db77 2ebe 6080 c1bd 9daf 9f3d faf7 283d
00000110: 011b 87bd 1e17 043e 2f1f 4b3e 8463 163d
00000120: 95d0 04be 7bdf 313d dc98 16be 2075 983d
00000130: c5ad 403d c43a 24be f3e3 0bbe a99a 4b3d
00000140: c6fc 6abe c5e5 bebd b036 9abd e291 36be
00000150: ebe4 84bd 9e99 093e b1b4 313d 5e2a dcbd
00000160: bd6e 813d 3034 193e 25fe ac3e 7c6e e8bd
00000170: cae6 10bd 6654 20be 26cb 8a3d 3f1d 453e
00000180: 1461 12be cade 833d 9721 253e 37b5 3bbe
00000190: 2733 01be d260 77bd 1b52 5a3c 15b1 863e
000001a0: d6a1 653c 475c 713e 4ac8 943e 7831 99be
000001b0: e833 efbc 918a 9cbd aae8 f33d 10d2 343c
000001c0: c6e8 9cbc 0146 0cbe 944f 063d d558 2e3e
000001d0: 76b3 babc 5cb4 bd3b cc26 513d 68c8 8fbd
000001e0: 4eb1 f33d 6547 953d afbf 12be 58c3 8bbe
000001f0: a0c1 603d efe2 753c 2b96 893e efc4 1a3e
00000200: 98c9 593d 9cd0 3abe bc9a b53c 071f bf3e
00000210: 9aaf 30bd 0c44 ef3d 9868 85bc a7dc 943d
00000220: 2020 853e 418e 7a3e 1922 36bd 0af3 bdbb
00000230: 2b1f a73e a7b1 153c 5d41 193d 0827 82bd
00000240: 36f1 b0bc db5d 43be 7557 a9bd 6cfc 84be
00000250: 3d70 3cbe 6e7a ffbd ddb9 893d 0dfe 70bd
00000260: e694 263e 7e1f 4cbe 8e8c 6fbe de75 3ebe
00000270: 38fa 0ebe c6bf a73d cd1b 853d e5fb 66bd
00000280: 5293 753e 566c 00bd 1d54 9d3d f7a2 ef3d
00000290: 6e64 373d 964b bfbb bb80 1b3e be78 e73d
000002a0: 39a9 0c3d f1ba c2bd ca64 083c 8c2e 66bc
000002b0: 6189 383d 70a6 21be a54d 80be a746 9c3e
000002c0: 57ca 54be 9857 9dbd ce92 b5be bb65 2ebe
000002d0: f703 babd 6e84 403e dc62 84be 030a 863e
000002e0: 2ea5 91bc 57cf b53e 958b d73d 8154 cabd
000002f0: 4fa9 013e 4bbc b63d ccb3 c0bd 6019 a1bd
00000300: ff27 b43c da77 d2bd f121 203d 65a4 2b3e
00000310: 6d92 c9bd 6a57 1abd 0d5e 79be c190 76be
00000320: 1f39 a33d 3c36 b8bd 18bc 063c f4aa 99bd
00000330: 4c06 223d 5646 6c3e 23c0 afbd ab7d fd3d
00000340: ff9d 27bb f27e d8bd 3830 3ebd ee6f 473e
00000350: 2f69 00be 92e9 253d 71fd abbd 0cbc 2e3e
00000360: 90ad acbe 4852 b8be 5241 08be ce6c 963e
00000370: 6d7d 623e 419f ccbd bd86 36bf 7cda 27bd
00000380: 33ad 8dbc 5e8a f43d 0c20 e5be 98b0 48be
00000390: 1641 273e cc3e f03d fc3f ee3c 24c0 ad3d
000003a0: 5cc6 43be 4169 c5bd 0a2d 213e 86b5 ee3e
000003b0: 0b67 b2bd 4100 aa3e 45d1 cabe 3388 2c3d
000003c0: 92fb 50bd 4512 19bc a53e 033e 040f 2e3e
000003d0: 5a8c eebc a7ff 92bd a07c d03c adba 963e
000003e0: 3835 4a3d 13fb a5bd 512f 273d e0f4 54be
000003f0: 6714 133e 8a51 433e 9c10 463d 55a2 b9bd

network_body._body_endoder.seq_layers.2.bias f4 [128]
-0.0065964153 -0.016523987 -0.009040111 0.05626425 -0.004749157 0.036098935 0.0029473132 0.030675158
-0.037908252 0.019359807 -0.0150404675 0.01808364 0.015939737 -0.028360436 -0.04311324 -0.0036888614
0.017679509 0.005303786 -0.011153024 0.041842192 0.029324953 -0.019723432 0.05043084 -0.01521111
0.028830426 0.0099489 -0.012794153 -0.040320292 0.02426928 -0.039560903 0.023895832 -0.02768223
-0.017599314 -0.020385427 0.05496437 0.01809519 0.010827285 0.020600833 0.039813247 0.012798845
-0.016400542 0.016627189 0.018894324 0.035378177 0.012462752 0.014482031 -0.017141288 0.024112934
0.04365219 0.054379083 0.009514927 -0.028635627 0.027085902 0.0153272785 0.026209755 0.01707162
0.012371962 0.006119312 -0.003728659 -0.00684045 0.03474937 0.026116073 -0.013196599 -0.030529724
-0.0030148912 0.044818006 0.015808975 0.0023289023 -0.0076566413 -0.002657675 -0.07212645 0.03669931
-0.013498559 0.028214296 -0.0029179337 0.033101056 -0.032014433 -0.017201934 0.007598445 0.0035221071
0.059496496 -0.011334647 0.0019271735 0.023632172 0.0048233457 -0.009023802 -0.0016196994 -0.025590219
-0.01572862 0.004768946 0.06350784 0.006688527 0.014472755 0.018204367 0.016127095 0.023870168
-0.08301335 0.03222415 -0.018168813 0.04516362 -0.01463966 0.01832519 0.04647825 0.024736641
0.009589502 -0.0069116564 0.06517057 -0.06512794 -0.008980467 0.011237261 0.014008073 -0.036482487
-0.022798972 -0.034728497 0.010935152 0.0502485 0.07004537 0.011918895 0.01427522 0.042744078
0.04455204 -0.0016953605 -0.036731567 -0.013397415 0.025595274 0.025177484 0.022726411 0.06666655
00000000: be26 d8bb 505d 87bc f91c 14bc 5875 663d
00000010: d19e 9bbb 7adc 133d b627 413b 784a fb3c
00000020: af45 1bbd 7598 9e3c 4b6c 76bc 2424 943c
00000030: 0d94 823c 2554 e8bc 8297 30bd d3c0 71bb
00000040: 9ed4 903c 62cb ad3b 2cbb 36bc b862 2b3d
00000050: e23a f03c 0993 a1bc 9290 4e3d 0538 79bc
00000060: c92d ec3c b600 233c 919e 51bc e426 25bd
00000070: 5ed0 c63c 9d0a 22bd 31c1 c33c d8c5 e2bc
00000080: 702c 90bc 57ff a6bc 5222 613d 5d3c 943c
00000090: ed64 313c 14c3 a83c 3713 233d 3fb2 513c
000000a0: 6e5a 86bc be35 883c 45c8 9a3c b5e8 103d
000000b0: 9230 4c3c 0a46 6d3c e36b 8cbc 7d88 c53c
000000c0: a4cc 323d 9abc 5e3d 7fe4 1b3c 4395 eabc
000000d0: 41e3 dd3c 441f 7b3c d7b5 d63c c8d9 8b3c
000000e0: c5b3 4a3c 8284 c83b 845c 74bb db25 e0bb
000000f0: 5b55 0e3d 60f1 d53c 8c36 58bc 7919 fabc
00000100: 7b95 45bb 1693 373d d381 813c 7fa0 183b
00000110: 90e4 fabb 632c 2ebb 08b7 93bd 0452 163d
00000120: 0f29 5dbc ab21 e73c ce3a 3fbb f994 073d
00000130: 9121 03bd 12eb 8cbc 60fc f83b 27d3 663b
00000140: 99b2 733d f5b4 39bc 3699 fc3a 4298 c13c
00000150: 280d 9e3b 92d8 13bc 184c d4ba 94a2 d1bc
00000160: 4fd9 80bc d244 9c3b 6610 823d 6e2b db3b
00000170: 221f 6d3c 5321 953c f81c 843c 5f8b c33c
00000180: e702 aabd 78fd 033d c3d6 94bc 7dfd 383d
00000190: 2fdb 6fbc b51e 963c fa5f 3e3d 7fa4 ca3c
000001a0: 491d 1d3c 2d7b e2bb 2678 853d cc61 85bd
000001b0: cf22 13bc 7d1c 383c 1e82 653c a96e 15bd
000001c0: e9c4 babc 783f 0ebd 5a29 333c 5fd1 4d3d
000001d0: f273 8f3d 7847 433c 9de2 693c 6a14 2f3d
000001e0: 337c 363d dc36 deba d773 16bd d580 5bbc
000001f0: 2ead d13c 0341 ce3c bd2c ba3c 7988 883d

network_body._body_endoder.seq_layers.2.weight f4 [128, 128]
0.08265381 0.010426409 -0.077596195 0.10726292 -0.00015861678 0.0060318178 0.02747302 -0.24035542
0.20831534 0.13020465 -0.28690764 -0.015210918 0.21230997 0.020919276 0.02732365 -0.08496112
0.024701655 -0.019450895 0.098780856 0.124125466 0.008714364 -0.09984567 0.049749378 -0.21811897
0.004317131 -0.193156 0.09347526 0.17621568 -0.1466721 -0.0029211268 -0.07008729 -0.14151077
0.107828654 0.14129329 -0.14392267 -0.02482426 -0.037499372 -0.019835263 0.103483625 0.09749835
-0.051464625 0.042024035 -0.13470004 -0.10997618 0.0702619 0.29160035 -0.2949467 -0.030220255
0.0098438095 -0.22545265 0.0099602165 -0.10313622 0.07305915 -0.10348677 0.038734574 0.24524452
-0.22718595 0.09923277 0.07685385 0.052410625 -0.20835456 -0.24412112 0.14404048 -0.05694851
0.15724762 0.07137002 0.27957413 -0.1621653 -0.13164863 -0.00023601235 0.08326178 -0.15575173
0.0027800964 0.1806372 -0.08030766 0.25114694 -0.029505609 0.1755919 -0.085886754 -0.09615119
0.17196603 0.031280484 -0.068601765 0.01869278 0.119258255 -0.16925396 0.28425065 -0.14781882
-0.026622796 -0.034225572 0.021367747 0.072568566 0.039260834 -0.3709683 -0.07875347 -0.055740334
-0.19983764 -0.113383934 -0.003757237 -0.11609771 0.027912084 0.013031624 -0.013652898 -0.16870242
-0.065585785 -0.12159425 -0.12808207 0.053231556 -0.11995881 -0.1191307 -0.066595145 0.2822775
-0.2601457 0.061097547 0.25118953 -0.023408124 -0.11619153 -0.17042619 -0.0012986088 0.023726422
0.035425246 0.12353199 -0.08902616 0.1522953 0.20639822 -0.13860247 -0.0051518464 -0.18843548
-0.068205446 -0.078913614 0.09257188 0.079481065 -0.12636892 0.22886129 -0.054946624 -0.10630109
-0.024000015 -0.09935813 -0.26910114 0.09153377 0.026028434 0.060939237 0.20299591 -0.01208367
0.17781429 -0.061165825 -0.009453325 0.09199721 0.07318631 0.062486127 0.07813684 0.06534718
0.031471774 0.09970092 -0.05176282 0.21309967 0.0010901364 -0.15034868 0.013705755 -0.026271224
0.04756274 0.2769534 -0.08176858 0.19058254 0.17402193 0.110319845 0.05074168 0.091873854
0.16592862 -0.09905115 -0.034835696 -0.021891594 -0.027851922 0.12331799 -0.18747748 -0.17927118
-0.14618011 -0.08506168 0.31824613 -0.08354585 -0.11978107 -0.2753464 -0.011635185 0.18101224
-0.00066706416 -0.18494794 0.1263214 0.11380233 0.020509649 -0.097439475 0.008211533 0.04439095
-0.0908377 -0.16315606 -0.08359286 -0.13793798 -0.0434045 -0.22903267 0.016053513 -0.06688781
-0.04317543 -0.19117855 -0.20546682 0.19242257 -0.33623132 0.11113372 -0.17783208 0.017030628
0.09051855 -0.05260277 0.06455392 0.07167156 0.013696635 -0.12917645 -0.0076210448 0.12090654
-0.084726155 0.1911833 0.066186644 -0.06070784 -0.10848299 -0.13636672 -0.17572896 0.113073364
0.31859994 0.009535862 0.022672331 -0.2620159 -0.03935683 -0.017523203 0.23568429 -0.12473559
0.09140894 0.07729868 0.032371387 -0.0745687 -0.05200158 -0.0022644764 -0.12918386 0.024532352
0.036986176 0.03807337 0.12433348 -0.20971641 0.050327457 -0.15701638 0.14504747 -0.070959814
0.101197705 -0.020646803 -0.03901369 0.2335281 0.020916851 0.05630223 0.1198174 -0.0129556805
00000000: 6746 a93d 87d3 2a3c c1ea 9ebd a9ac db3d
00000010: 5e52 26b9 8ea6 c53b 190f e13c bb1f 76be
00000020: 9e50 553e 5e54 053e 8fe5 92be 3737 79bc
00000030: c967 593e e75e ab3c d9d5 df3c 1800 aebd
00000040: 205b ca3c 7c57 9fbc 9e4d ca3d 7e35 fe3d
00000050: b1c6 0e3c e37b ccbd 01c6 4b3d 945a 5fbe
00000060: b876 8d3b b0ca 45be f56f bf3d e271 343e
00000070: 3631 16be 6070 3fbb ed89 8fbd 33e8 10be
00000080: 45d5 dc3d 30af 103e 7760 13be 3f5c cbbc
00000090: f198 19bd 907d a2bc 39ef d33d 37ad c73d
000000a0: 92cc 52bd 6521 2c3d cfee 09be 313b e1bd
000000b0: 79e5 8f3d a44c 953e 4103 97be 7890 f7bc
000000c0: ee47 213c 0fdd 66be 2d30 233c 1539 d3bd
000000d0: 09a0 953d dff0 d3bd 25a8 1e3d 6121 7b3e
000000e0: 6fa3 68be 8d3a cb3d 8d65 9d3d 86ac 563d
000000f0: e65a 55be e3fa 79be 597f 133e d742 69bd
00000100: 8505 213e 722a 923d 5724 8f3e a90e 26be
00000110: e6ce 06be 157a 77b9 2785 aa3d 627d 1fbe
00000120: 4732 363b f5f8 383e 5878 a4bd 5596 803e
00000130: bfb5 f1bc 5dce 333e 65e5 afbd eaea c4bd
00000140: dd17 303e f71f 003d 157f 8cbd 9a21 993c
00000150: ac3d f43d e950 2dbe 4d89 913e d15d 17be
00000160: 0d18 dabc 1d30 0cbd 6a0b af3c d49e 943d
00000170: f8cf 203d 8fef bdbe 8049 a1bd fa4f 64bd
00000180: 3da2 4cbe d635 e8bd fa3b 76bb a3c4 edbd
00000190: e2a7 e43c 9882 553c 68b0 5fbc 54c0 2cbe
000001a0: d751 86bd 6806 f9bd f227 03be 5509 5a3d
000001b0: f7ac f5bd ccfa f3bd 0963 88bd ad86 903e
000001c0: d131 85be 6c41 7a3d ea9b 803e 65c2 bfbc
000001d0: d3f5 edbd 3484 2ebe 1536 aaba ea5d c23c
000001e0: 101a 113d 57fe fc3d 5953 b6bd 4df3 1b3e
000001f0: 0e5a 533e ceed 0dbe d2d0 a8bb 3bf5 40be
00000200: 4caf 8bbd 769d a1bd 5396 bd3d f8c6 a23d
00000210: db66 01be 9d5a 6a3e b60f 61bd 63b4 d9bd
00000220: ae9b c4bc 467c cbbd a0c7 89be 0f76 bb3d
00000230: 9539 d53c 6c9b 793d 29de 4f3e 96fa 45bc
00000240: f314 363e 0489 7abd 1ee2 1abc 0969 bc3d
00000250: b4e2 953d 74f1 7f3d 3506 a03d bed4 853d
00000260: 8ce8 003d ff2f cc3d 4005 54bd cd36 5a3e
00000270: e8e2 8e3a 01f5 19be 1a8e 603c c036 d7bc
00000280: 26d1 423d d6cc 8d3e 4976 a7bd 1228 433e
00000290: ce32 323e 5fef e13d 82d6 4f3d 5c28 bc3d
000002a0: 31e9 293e 54db cabd e0af 0ebd 0056 b3bc
000002b0: b729 e4bc 248e fc3d 19fa 3fbe dd92 37be
000002c0: 3db0 15be d134 aebd 28f1 a23e 161a abbd
000002d0: c74f f5bd 34fa 8cbe 81a1 3ebc 465b 393e
000002e0: ebdd 2eba fe62 3dbe 665a 013e 3211 e93d
000002f0: da03 a83c 598e c7bd aa89 063c 49d3 353d
00000300: 1e09 babd 6212 27be bc32 abbd 9d3f 0dbe
00000310: ebc8 31bd 8a87 6abe a882 833c 7afc 88bd
00000320: b8d8 30bd 4fc4 43be e565 52be 6c0a 453e
00000330: 8326 acbe 139a e33d 9d19 36be d183 8b3c
00000340: ca61 b93d 0176 57bd d834 843d 8ac8 923d
00000350: da67 603c d546 04be f5b9 f9bb d99d f73d
00000360: e884 adbd 8ec5 433e dd8c 873d c9a8 78bd
00000370: 542c debd b8a3 0bbe 4bf2 33be 0293 e73d
00000380: 881f a33e 4e3c 1c3c 53bb b93c f326 86be
00000390: a134 21bd d28c 8fbc 3957 713e 5f75 ffbd
000003a0: 9c34 bb3d c54e 9e3d dc97 043d 79b7 98bd
000003b0: 9cff 54bd 9c67 14bb c648 04be 12f8 c83c
000003c0: d17e 173d d2f2 1b3d 8da2 fe3d e6bf 56be
000003d0: 2a24 4e3d e7c8 20be 5387 143e 6153 91bd
000003e0: be40 cf3d 7c23 a9bc d2cc 1fbd fe21 6f3e
000003f0: d159 ab3c 2b9d 663d d362 f53d 1044 54bc
