results/DroneAgentLETSGO/DroneAgent/DroneAgent-899992.onnx (onnx, 640971 bytes, 10 tensors)

100 f4 [1, 512, 128]
0	0x3d91e7e1	0.071243055
1	0xbd1cdf3e	-0.038298838
2	0xbc2356ec	-0.009969454
3	0x3ce9710a	0.028496284
4	0x3dcfe69d	0.10151408
5	0x3e45af94	0.19305259
6	0xbc582354	-0.013192017
7	0x3e18fd23	0.14940314
8	0x3e02df0c	0.12780398
9	0xbd82a8c6	-0.06379847
10	0xbd8abc4a	-0.067741945
11	0x3d0841a9	0.033265743
12	0x3dafe92a	0.085893944
13	0x3c1a388d	0.009412897
14	0xbddcfa44	-0.10789922
15	0x3dd9f8c1	0.10643149
16	0x3dc7a7dc	0.097488135
17	0xbd4e7742	-0.050406702
18	0xbe0de074	-0.13855153
19	0xbda8fc53	-0.08251252
20	0xbda749be	-0.08168362
21	0xbd86704c	-0.06564388
22	0x3da9cf86	0.08291535
23	0x3dda5696	0.10661046
24	0x3df64f43	0.12026837
25	0x3e1f114c	0.15533942
26	0xbdd0309f	-0.10165524
27	0x3d456559	0.048192356
28	0xbe2113d5	-0.15730222
29	0x3e0e4405	0.13893135
30	0x3e06e2a2	0.13172391
31	0xbe03972d	-0.12850638
32	0xbdbaf3e5	-0.091285504
33	0xbda2b413	-0.07944503
34	0xbda8b7e4	-0.08238199
35	0xbd176d13	-0.036969256
36	0x3c8b095d	0.016972238
37	0xbe26fcec	-0.1630742
38	0x3dd89301	0.10574914
39	0x3d40f50b	0.04710869
40	0xbe002b4e	-0.1251652
41	0xbd156eb7	-0.03648254
42	0xbdead325	-0.11466054
43	0xbe1dc254	-0.15406162
44	0x3daafcae	0.08348976
45	0xbe09a058	-0.13440073
46	0xbc88516c	-0.016640387
47	0xbd9e5224	-0.07730511
48	0x3d3f34a6	0.04668107
49	0xbdd82a9b	-0.10555001
50	0x3ddede4a	0.10882242
51	0xbdad8741	-0.08473063
52	0xbdba82b7	-0.09106963
53	0x3dd33dbe	0.10314511
54	0x3d07e242	0.03317476
55	0xbde42a7e	-0.11140917
56	0x3d133c8e	0.03594642
57	0x3db99911	0.09062398
58	0xbd760565	-0.06006374
59	0xbda037b2	-0.07823123
60	0x3da87977	0.082262926
61	0xbdc92237	-0.09820979
62	0xbce2073e	-0.027591344
63	0x3d96e05e	0.073670134
64	0x3e087296	0.13324961
65	0xbe0878c3	-0.13327317
66	0x3d7f49f6	0.062326394
67	0xbd08ee31	-0.033430282
68	0xbd9d380f	-0.07676708
69	0x3c9f2adc	0.019429617
70	0x3e09a453	0.13441591
71	0xbc8178e7	-0.015804721
72	0x3ab6a49c	0.0013934555
73	0x3e1d67ad	0.1537158
74	0x3d29ee40	0.04148698
75	0xbd0e8432	-0.03479404
76	0x3de053cd	0.10953484
77	0xbc44ba9c	-0.012007382
78	0xbd446b23	-0.047953736
79	0xbc2c2abf	-0.010508238
80	0xbb8ed88d	-0.004359311
81	0x3e2bb798	0.16769254
82	0x3b17946e	0.0023129242
83	0xbd131f0b	-0.035918277
84	0x3ddb1734	0.10697785
85	0xbe139e36	-0.14415821
86	0x3c579e4a	0.013160298
87	0x3d30b17e	0.04313802
88	0xbdd6eeee	-0.10494791
89	0x3dc16861	0.09443737
90	0xbde0ae1c	-0.10970709
91	0xbd95f351	-0.073217995
92	0xbcd62b5a	-0.026143719
93	0x3cfbea5a	0.030751396
94	0x3de8190c	0.11332902
95	0xbd96ae29	-0.07357437
96	0xbcd3fb68	-0.025876716
97	0xbd075570	-0.033040464
98	0x3d81a84c	0.06330928
99	0xbdecf0c7	-0.11569362
100	0x3d43617d	0.047700394
101	0xbd98cc36	-0.07460825
102	0xbde35cac	-0.1110166
103	0x3da87d06	0.08226971
104	0xbd947b34	-0.07250062
105	0x3b9abdfd	0.0047223554
106	0xbc3165c7	-0.010827488
107	0x3df630fa	0.1202106
108	0x3d351d72	0.044217534
109	0xbdb7dfec	-0.089782566
110	0xbd7f7d01	-0.062375072
111	0xbd2e21b6	-0.042512618
112	0x3deaf619	0.11472721
113	0xbc60f030	-0.01372914
114	0xbd9c8b6a	-0.076437786
115	0xbbfc1e97	-0.0076940763
116	0x3caa3491	0.020777019
117	0x3dc8519f	0.09781193
118	0xbd5029b2	-0.050821014
119	0x3c6cc6e9	0.014451721
120	0x3d2e6239	0.04257414
121	0xbdcbf1b4	-0.099582106
122	0xbd81598f	-0.0631591
123	0xbd96e90a	-0.073686674
124	0x3d5c6bfb	0.053813916
125	0xbd3662b6	-0.04452773
126	0xbd860fae	-0.065459594
127	0x3e058b2a	0.13041368
128	0x3e26ad5f	0.16277073
129	0x3e0c3e48	0.13695633
130	0x3e0dea78	0.13858974
131	0x3dfba0d3	0.12286534
132	0x3c86c510	0.016451389
133	0x3dd1701b	0.102264605
134	0x3d4eaa1d	0.0504552
135	0xbd3f6389	-0.046725783
136	0x3d414435	0.047184188
137	0xbd1f553c	-0.038899645
138	0x3cccfa08	0.025021568
139	0x3d5e73df	0.054309722
140	0x3cf14c83	0.029455429
141	0x3e1206b5	0.14260371
142	0x3c50acca	0.012736509
143	0xbd8004f2	-0.06250943
144	0x3e17fffd	0.14843746
145	0xbdf4ddaf	-0.11956345
146	0x3dd176c1	0.10227729
147	0x3cf01875	0.029308537
148	0xbd006865	-0.03134956
149	0xbddaa868	-0.10676652
150	0xbc000ead	-0.007815999
151	0x3c8fc58c	0.017550252
152	0xbd157b20	-0.036494374
153	0x3e132dec	0.14372987
154	0x3dc7ad73	0.0974988
155	0x3cac7700	0.021052837
156	0xbdc43dc0	-0.095820904
157	0x3e00b865	0.12570341
158	0x3db10f71	0.08645523
159	0xbd2d4def	-0.04231065
160	0xbdc4e027	-0.09613066
161	0x3d5daf09	0.054122005
162	0x3e05dfca	0.1307365
163	0x3dbeb1ba	0.093112424
164	0x3bad2412	0.005283841
165	0xbe01c09d	-0.12671132
166	0x3da03449	0.078224726
167	0xbcb94365	-0.022615144
168	0xbc4cb4ad	-0.012494248
169	0x3df6d099	0.120515056
170	0xbc959196	-0.018257897
171	0x3d506f04	0.050887123
172	0x3e17fba7	0.14842092
173	0xbdbc39df	-0.091907255
174	0x3d6c6a55	0.057718594
175	0x3e2111e2	0.15729478
176	0x3e03fb20	0.12888765
177	0xbd99f6a1	-0.07517744
178	0x3da489ff	0.08034133
179	0x3c4efbd0	0.012633279
180	0x3c0d6f69	0.008632519
181	0xbe0082f2	-0.12549952
182	0x3dad4af6	0.08461563
183	0xbe0201df	-0.12696026
184	0x3dac6247	0.084171824
185	0x3d31f03d	0.043442
186	0xbdd1038a	-0.10205753
187	0x3d0883f4	0.033328965
188	0xbcf09d36	-0.029371839
189	0xbd694a5f	-0.05695569
190	0xbcab75f8	-0.020930275
191	0x3ddda52a	0.10822518
192	0x3c1d38b0	0.009596035
193	0xbdeae109	-0.11468703
194	0xbd56e581	-0.052464966
195	0x3c4929e3	0.012278053
196	0xbd9005df	-0.0703237
197	0xbe02c40a	-0.12770095
198	0xbd5bbbda	-0.053645946
199	0x3b5e110f	0.003388468
200	0xbd957936	-0.0729851
201	0x3dd2e5ea	0.10297759
202	0xbda4d018	-0.08047503
203	0xbd4d9541	-0.050191168
204	0xbd81dbcd	-0.06340752
205	0x3d815fe2	0.06317116
206	0x3dedd839	0.11613507
207	0xbc7ecdbb	-0.01555198
208	0xbdaaaabe	-0.08333348
209	0xbe11a2ec	-0.14222306
210	0x3d66c874	0.05634351
211	0xbd27b9ff	-0.040948864
212	0x3c97392b	0.018459877
213	0x3d8f234c	0.06989154
214	0xbd1598c9	-0.03652266
215	0x3de55ad9	0.111989684
216	0xbe1461eb	-0.14490478
217	0x3e035f89	0.12829413
218	0x3d33735c	0.043811187
219	0x3d89c6ba	0.06727357
220	0xbda8c8e6	-0.08241443
221	0xbdc67943	-0.096910976
222	0x3b28c454	0.0025751786
223	0x3e053b2c	0.13010854
224	0x3d01fa87	0.031733062
225	0xbda556c9	-0.080731936
226	0xbbd347ec	-0.0064477827
227	0x3e255c6a	0.16148534
228	0x3e122ee1	0.14275695
229	0x3d7833eb	0.060596388
230	0xbddac5de	-0.106822714
231	0x3e09b510	0.13447976
232	0x3df5c07a	0.119996026
233	0x3cbf63ed	0.023363078
234	0xbe136f23	-0.14397864
235	0x3e18a100	0.14905167
236	0x3c5f2ce0	0.013621539
237	0xbdb1e1f3	-0.086856745
238	0x3e00a962	0.12564614
239	0x3d982d4b	0.07430514
240	0xbdd24223	-0.10266521
241	0xbde261d6	-0.11053817
242	0x3da19157	0.078890495
243	0xbe040aa0	-0.12894678
244	0xbe0bf888	-0.13669026
245	0x3d05fe58	0.032713264
246	0x3dc8c829	0.098038025
247	0xbd04e5dc	-0.032445773
248	0x3d55e360	0.052218795
249	0xbdd7f942	-0.10545589
250	0x3e28c085	0.1647969
251	0x3df620d6	0.12017982
252	0xbd2dfe78	-0.04247901
253	0xbd8c33d5	-0.06845824
254	0xbc995d22	-0.018721167
255	0xbdd8b0b6	-0.1058058

101 f4 [1, 1024]
0	0x3a27de71	0.0006403691
1	0x3ba2fc29	0.0049739075
2	0x399506b6	0.00028424495
3	0x3c231adc	0.009955134
4	0x3d0f0f33	0.034926604
5	0x3cee97fd	0.029125208
6	0x3d16d3c4	0.03682305
7	0x3d18f4c3	0.037342798
8	0x3b5d9e06	0.0033816113
9	0x3d2360ad	0.03988712
10	0x3b88e7e5	0.0041780346
11	0xbccdbf8e	-0.025115754
12	0x3b88eab4	0.0041783694
13	0xba79518d	-0.0009510748
14	0x3d323c52	0.043514557
15	0x3d108546	0.03528335
16	0xb91cd178	-0.00014955353
17	0xbb82bdc5	-0.0039899074
18	0x3c30d9e8	0.01079414
19	0xbc17c08f	-0.009262218
20	0x3d2934b8	0.041310042
21	0x3c3c4474	0.01149093
22	0x3cdaff62	0.026733104
23	0x3c7e970a	0.01553894
24	0xbc17f89c	-0.009275582
25	0xbbf2e702	-0.007412792
26	0xbc52d4c7	-0.012868113
27	0x3c37684f	0.011194303
28	0xbcd5b1bb	-0.026085725
29	0x3b79ba50	0.0038105436
30	0xbbc09ae3	-0.005877839
31	0x3bc9d906	0.0061599044
32	0xbc6a41d1	-0.014297918
33	0x3b1093e5	0.0022060808
34	0xbce6ac0c	-0.02815821
35	0xbc0ef4f8	-0.008725397
36	0x3c3fd5c0	0.011708677
37	0x3c980c18	0.018560454
38	0x3b4e4109	0.003147187
39	0x3cf51b03	0.029920107
40	0xbc10dd2e	-0.008841796
41	0xbbf7face	-0.00756774
42	0x3cab8204	0.02093602
43	0xbbed31d6	-0.007238607
44	0x3cb08b39	0.021550762
45	0x3cd09aae	0.025464382
46	0xbba65b5e	-0.00507681
47	0x3c54cd0b	0.012988339
48	0xbade7ff8	-0.0016975394
49	0x3c895d76	0.016768198
50	0xbd1d3805	-0.038383503
51	0xbbe87b3b	-0.0070947683
52	0x3b87d198	0.0041448586
53	0x3b1bb306	0.002375783
54	0x3cebe6c0	0.028796554
55	0x3c860cb8	0.016363487
56	0x3c9edd47	0.019392623
57	0xbc41b077	-0.011821858
58	0xbc4c8882	-0.012483718
59	0xbc26cbaa	-0.010180393
60	0xbc430a65	-0.011904334
61	0xbba1654b	-0.004925405
62	0x3bc9ce31	0.006158613
63	0x3c02a84d	0.007974696
64	0x3c275d31	0.01021509
65	0x3c7840e9	0.015152195
66	0x3b1169c8	0.0022188295
67	0xbbe8334c	-0.007086193
68	0x3add051b	0.0016862483
69	0xbc1b6664	-0.009484861
70	0xbb26e43e	-0.0025465633
71	0xbcabecef	-0.020987002
72	0x3bde2232	0.0067789787
73	0x3bb36663	0.005474852
74	0xbb627aeb	-0.0034558128
75	0x3c622559	0.01380285
76	0x3b2570cf	0.002524424
77	0xbc950fb0	-0.018195957
78	0xbb7add77	-0.0038278976
79	0x3c4c1faa	0.012458721
80	0x3ca3db80	0.020002127
81	0xbb53a4d3	-0.0032294288
82	0x3bd19135	0.006395484
83	0x3b8a277c	0.0042161327
84	0x3b506273	0.0031796962
85	0x3baa3a02	0.0051949034
86	0x3b2f7f69	0.0026778823
87	0x3c08a8b0	0.0083409995
88	0xbb9fba82	-0.0048745284
89	0x3c892f25	0.016746113
90	0xbc0ac715	-0.008470316
91	0xbbb38078	-0.005477961
92	0x3cdebbed	0.02718922
93	0x3b1b8622	0.0023731072
94	0x3c9c8a4d	0.019108916
95	0x3c2fb902	0.010725262
96	0x3cd87791	0.026424201
97	0xbc17cac1	-0.009264649
98	0xbc6d63c1	-0.014489115
99	0x3c186607	0.009301669
100	0xbacf6491	-0.0015822818
101	0x3b0471eb	0.0020209502
102	0xbd271979	-0.040795777
103	0xbb9856bd	-0.004649012
104	0xbc1f2f81	-0.009715916
105	0xbc4f46d1	-0.012651161
106	0x3b96a03a	0.004596737
107	0x3cc5106b	0.02405568
108	0x3c312acd	0.010813427
109	0x3cc6c1e4	0.024262376
110	0xbc306ca0	-0.010768086
111	0x3cbc65bf	0.022997735
112	0x3ceeef3b	0.029166808
113	0x3c4a1483	0.012333992
114	0x3c1dccb7	0.009631327
115	0x3b4e90ff	0.003151953
116	0x3c06804d	0.0082093
117	0xbb94809c	-0.004531933
118	0xbae99b9d	-0.0017822866
119	0xba3aaaaf	-0.0007120771
120	0xbd34c953	-0.04413731
121	0xbb13dd51	-0.0022562335
122	0x3bd3d098	0.0064640753
123	0x3ce3be56	0.02780072
124	0xbc2222a2	-0.009895952
125	0x3cbec313	0.023286378
126	0x3c02b167	0.007976866
127	0xbc80c5c0	-0.015719295
128	0x3c938eb1	0.018012377
129	0x3b547677	0.0032419243
130	0x3be4d781	0.006983698
131	0x3cf77560	0.030207336
132	0x3c93a8d5	0.018024841
133	0x3cb43681	0.021998646
134	0x3d114e0f	0.035474833
135	0x3c8f6cc4	0.017507918
136	0xbb9d35d9	-0.004797679
137	0x3d03bf5d	0.03216492
138	0x3caa8b2f	0.020818321
139	0x3ccee70f	0.025256662
140	0x3ca1d1b8	0.019753322
141	0xbb9a5108	-0.0047093667
142	0x3d0dc29f	0.034609433
143	0x3c9ae6ce	0.018908884
144	0xb9cf3166	-0.0003951892
145	0x3c3ae8cc	0.011408042
146	0x3c7441e4	0.014908288
147	0x3c59019a	0.013245011
148	0x3ccb3c94	0.02480916
149	0xba58d31c	-0.0008271204
150	0x3ca65b11	0.020307096
151	0xba939d03	-0.0011262003
152	0x3c8dcecc	0.017310522
153	0x3cbc6ede	0.023002084
154	0x3d04b2ca	0.03239707
155	0xbb3802b8	-0.0028077792
156	0x3cebaddd	0.028769428
157	0x3b80a4ba	0.003925887
158	0x39cc89a5	0.00039012465
159	0x396a5362	0.00022347042
160	0x3c8cc277	0.017182572
161	0x3a916e19	0.0011095434
162	0xbbe3b576	-0.006949122
163	0x39feb67e	0.00048582623
164	0x3a96e78c	0.0011513098
165	0x3c67c7eb	0.014146785
166	0x3be975ea	0.007124652
167	0x3cc6e330	0.024278253
168	0x3bafa06e	0.005359701
169	0x3bfee668	0.0077789314
170	0x3cbdaaaa	0.023152668
171	0x3cc0b5c2	0.023524169
172	0x3cca03b5	0.02465997
173	0x3b96df45	0.0046042525
174	0xbb48ec24	-0.003065833
175	0x3c145e99	0.009055757
176	0x3c633405	0.013867383
177	0x3cba4fa7	0.02274306
178	0x3cf0fdef	0.02941796
179	0x3ba90237	0.0051577347
180	0x3b530e00	0.003220439
181	0x3ccc5ee2	0.024947587
182	0x3ca00b5e	0.01953667
183	0x3c94171e	0.01807743
184	0xbb7b50d1	-0.003834773
185	0x3ca81aa6	0.02052052
186	0x3cc99702	0.024608139
187	0x3b7881ff	0.003791928
188	0xbb44c363	-0.0030023686
189	0xba0f1c9d	-0.0005459281
190	0x3d1deb87	0.038554695
191	0x3c18dddd	0.00933024
192	0x3d001cd9	0.03127751
193	0x3cf52277	0.02992366
194	0x3c99954a	0.018747944
195	0xbbf96cca	-0.0076118456
196	0x3c8f39d8	0.017483637
197	0xbc34c813	-0.01103403
198	0x3c9857cc	0.018596552
199	0x3cf01b06	0.02930976
200	0x3c8d7e76	0.017272215
201	0xbb8eb3fd	-0.0043549524
202	0xbb8506fe	-0.0040596714
203	0x3c4ab032	0.01237111
204	0x3c304b5a	0.010760153
205	0x3c894efb	0.016761294
206	0x3cda1145	0.026619563
207	0x3c8a4b6c	0.016881667
208	0x3cc9bbbe	0.024625655
209	0x3cda338d	0.02663591
210	0x3c988571	0.018618317
211	0x3ccae053	0.02476517
212	0x3c766f71	0.015041218
213	0x3c803f7b	0.01565527
214	0x3c67f4c6	0.01415748
215	0x3b96990c	0.0045958813
216	0x3c577e8a	0.013152728
217	0x3cdcda23	0.026959484
218	0x3bacd0f3	0.005273932
219	0x3c0dd541	0.008656801
220	0x3c8eb794	0.017421521
221	0xba15b1f9	-0.0005710419
222	0xbb9acb75	-0.004723961
223	0x3c970f3c	0.018439882
224	0x3cd85ee8	0.026412442
225	0x3ad9c859	0.0016615494
226	0x3cbf3211	0.023339303
227	0x3c050fa5	0.008121406
228	0x3c4516ff	0.0120294085
229	0x3b4c6b5c	0.003119192
230	0x3cd2bb4b	0.025724074
231	0x3c2663cd	0.01015563
232	0x3c49d3d0	0.012318566
233	0xbc81e2db	-0.015855243
234	0x3c260e24	0.010135207
235	0x3ca8dd61	0.020613374
236	0x3cd005fa	0.025393475
237	0x3cae79cb	0.02129831
238	0x3c997e7c	0.01873707
239	0xbc66b34a	-0.014080832
240	0x3ca32b3d	0.019918079
241	0x3ba3d0a8	0.004999239
242	0x3c9e155e	0.019297298
243	0x3b82ff70	0.0039977357
244	0x3cc1a652	0.023638878
245	0x3ca863fa	0.020555485
246	0x3c9f2917	0.019428773
247	0x3cc6e5b2	0.02427945
248	0x3bbcb4c4	0.0057588536
249	0x3bd66fa3	0.00654407
250	0x3bf8a6db	0.00758825
251	0x3cfc51ab	0.030800661
252	0x3d15df48	0.03658989
253	0x3cc824a7	0.02443154
254	0xbc5afa98	-0.01336541
255	0xbbb4297a	-0.0054981085

99 f4 [1, 512, 128]
0	0xbe09573a	-0.1341218
1	0xbe2f3dd2	-0.17113426
2	0xbce48f99	-0.027900504
3	0x3e00c161	0.12573768
4	0x3bb4cee3	0.005517827
5	0x3ca3f5b2	0.020014618
6	0xbd5f0ff6	-0.05445858
7	0xbd9aaba1	-0.07552267
8	0xbc873855	-0.016506353
9	0x3dcd9037	0.100372724
10	0xbe14bde1	-0.14525558
11	0x3c7f6302	0.01558757
12	0xbe08b8ba	-0.13351718
13	0x3d3ee630	0.046606243
14	0xbdc375da	-0.09543963
15	0xbdd8248e	-0.10553847
16	0x3d597023	0.053085458
17	0xbce005d6	-0.027346533
18	0xbd326e1d	-0.043562043
19	0x3da1bbeb	0.07897171
20	0xbe03ccd4	-0.12871104
21	0xbe289f6e	-0.16467068
22	0xbd941d99	-0.07232208
23	0xbe0d247d	-0.1378345
24	0xbd56995c	-0.05239235
25	0x3dc69bcb	0.09697684
26	0xbd573ed6	-0.05255016
27	0xbe367abe	-0.1782026
28	0xba83fab1	-0.0010069219
29	0xbe12d0de	-0.14337489
30	0xbd1b1882	-0.03786517
31	0x3b2cda5b	0.0026375267
32	0xbda5507d	-0.080719925
33	0xbe01d55e	-0.1267905
34	0xbe1e0911	-0.15433146
35	0x3d0c4250	0.034242928
36	0xbdfaf047	-0.122528605
37	0xbe230d86	-0.15923128
38	0x3c154c17	0.0091123795
39	0xbce529b5	-0.027973989
40	0x3d6efd31	0.05834693
41	0x3dd5c290	0.104375005
42	0x3dd02e72	0.10165109
43	0x3c6b0794	0.0143450685
44	0x3de99056	0.11404483
45	0x3cff1a1d	0.031140381
46	0x3db979c4	0.09056428
47	0x3ddc186b	0.10746845
48	0xbdd17272	-0.10226907
49	0x3d6b4617	0.05743989
50	0xbcdf7a57	-0.027280016
51	0xbe199522	-0.14998296
52	0xbe08ab36	-0.13346562
53	0xbe1c8f4c	-0.15289038
54	0xbdad34c7	-0.08457332
55	0x3de86e26	0.11349134
56	0xbdb4a476	-0.08820431
57	0x3cd9476a	0.02652331
58	0x3de2a64f	0.11066877
59	0x3dc9efb8	0.09860176
60	0xbdf88e74	-0.12136546
61	0xbce429ed	-0.027852023
62	0x3ddc59e6	0.10759334
63	0xbe079f67	-0.13244401
64	0xbdb89e3f	-0.09014558
65	0x3c4b31f9	0.012402051
66	0xbdd31179	-0.10306067
67	0xbd94dcf7	-0.07268708
68	0x3d6986c0	0.057013273
69	0xbc83e383	-0.016099697
70	0x3de450a7	0.11148196
71	0xbc9703ec	-0.018434487
72	0x3e049b57	0.12949882
73	0xbd95dfe0	-0.073180914
74	0x3dc701c8	0.097171366
75	0xbe1109de	-0.1416392
76	0xbdfc2840	-0.123123646
77	0xbe0745fe	-0.13210294
78	0x3c827ab1	0.015927644
79	0xbd765d8a	-0.0601478
80	0xbd93eda0	-0.07223058
81	0x3d7d19c9	0.06179217
82	0xbe2d216f	-0.16907285
83	0xbd93c46c	-0.07215199
84	0xbe17956b	-0.14803092
85	0xbda49a6b	-0.080372654
86	0x3d836b5c	0.064169616
87	0x3d006591	0.03134686
88	0x3db51e0a	0.0884362
89	0x3cb4d7b1	0.022075506
90	0x3dcb3ea3	0.099240564
91	0x3d5d3e3b	0.054014426
92	0x3dbbe714	0.09174934
93	0x3e11bf6b	0.14233176
94	0x3db4b24f	0.08823072
95	0xbe2fdcaa	-0.1717402
96	0xb95de819	-0.00021162666
97	0x3c93c497	0.018038077
98	0x3dd721c5	0.10504488
99	0xbd9a6ed3	-0.07540669
100	0xbda59e35	-0.08086816
101	0xbe298499	-0.16554488
102	0xbda23679	-0.07920546
103	0x3d1fe18b	0.039033454
104	0xbada0f69	-0.0016636673
105	0xbdc35b4a	-0.095388964
106	0xbd597799	-0.053092573
107	0xbe323d72	-0.17406252
108	0x3d6ff6f5	0.058585126
109	0x3e0d3767	0.13790666
110	0xbd6b2652	-0.057409592
111	0x3d8688aa	0.06569035
112	0xbc7d1a5d	-0.01544818
113	0xbe0b21ba	-0.13587084
114	0x3dcc860b	0.09986504
115	0x3de05ec8	0.10955578
116	0xbddec4f5	-0.1087741
117	0xbc27fc55	-0.010253032
118	0xbd479540	-0.04872632
119	0xbdbe0150	-0.09277594
120	0xbdcc7648	-0.09983498
121	0x3dcf1fb8	0.10113472
122	0xbe293947	-0.16525756
123	0xbdc40506	-0.09571271
124	0xbddcc893	-0.10780444
125	0xbe14ba79	-0.14524259
126	0x3bd5bb52	0.0065225745
127	0x3d803ea3	0.06261947
128	0xbe09a866	-0.13443145
129	0xbcda67ce	-0.026660826
130	0xbda5cc61	-0.08095623
131	0x3e0593fc	0.13044733
132	0xbd886fcc	-0.066619486
133	0xbdd67f40	-0.1047349
134	0xbda6769c	-0.08128092
135	0x3db5b307	0.088720374
136	0x3e0a17bd	0.13485618
137	0xbddd0d8d	-0.107936
138	0xbc247cdb	-0.0100395335
139	0xbd428d87	-0.047498252
140	0x3d9ce707	0.076612525
141	0x3dd8bdb3	0.10583057
142	0x3d5cb229	0.053880844
143	0xbdbca156	-0.0921046
144	0x3de7f1d5	0.11325423
145	0xbe05daeb	-0.13071792
146	0xbddee180	-0.108828545
147	0x3d7a6f32	0.0611412
148	0x3c03d485	0.008046274
149	0xbc5033da	-0.012707675
150	0xbbc5e31f	-0.006039038
151	0xbd255114	-0.040360525
152	0x3d234aa9	0.039866123
153	0xbdbc15bd	-0.09183834
154	0x3d6f57b5	0.058433253
155	0x3db64dab	0.08901533
156	0x3d597230	0.053087413
157	0x3e006f01	0.12542345
158	0xbd761d56	-0.06008657
159	0x3db97182	0.09054853
160	0x3cb1a1c7	0.021683587
161	0x3ddfd41c	0.109291285
162	0xbdd08b73	-0.10182848
163	0xbd9e49cd	-0.0772892
164	0xbd468e99	-0.048475835
165	0x3dd5a732	0.104322806
166	0xbd766861	-0.060158137
167	0x3dcff18b	0.101534925
168	0xbde37a17	-0.11107271
169	0xbbefcc1a	-0.007318032
170	0x3e18b7b6	0.1491383
171	0xbd9a88b1	-0.07545603
172	0x3d5c117f	0.053727623
173	0x3ddadb17	0.10686319
174	0xbde9fb96	-0.11424939
175	0xbdce4d02	-0.10073282
176	0x3db0a564	0.08625296
177	0x3dd638f2	0.1046008
178	0x3e17e67f	0.14834021
179	0x3df85df5	0.12127296
180	0xbc0953c9	-0.008381792
181	0x3da1f25e	0.07907556
182	0xbdb3cfaf	-0.08779847
183	0x3e1a3956	0.15060934
184	0xbda626ea	-0.08112891
185	0x3dbc6a70	0.09199989
186	0x3e1cdb87	0.15318118
187	0x3d7f1795	0.06227835
188	0x3dbdf888	0.09275919
189	0x3dc4375b	0.09580871
190	0x3d184fca	0.037185468
191	0xbd25a032	-0.040435977
192	0x3d1e85d6	0.038701855
193	0xbd99b818	-0.07505816
194	0x3d0d1b57	0.0344499
195	0x3dc6800d	0.096923925
196	0x3dbc36a4	0.09190109
197	0xbd22d47b	-0.03975342
198	0x3d49d1a9	0.049272213
199	0x3e017b86	0.12644777
200	0x3dd6ccb6	0.10488264
201	0x3d26fbb8	0.0407674
202	0x3dfdeee2	0.12399079
203	0x3e0a5a17	0.13510929
204	0x3de48109	0.11157424
205	0x3d98b368	0.07456094
206	0x3c1883f5	0.009308805
207	0xbd46d7c9	-0.048545633
208	0x3d9bbf52	0.07604851
209	0xbd7f465e	-0.062322967
210	0x3e0bca00	0.13651276
211	0x3c218bd4	0.009859998
212	0x3b7feee8	0.0039052311
213	0x3d8c5da2	0.068537965
214	0xbdd64a9c	-0.10463449
215	0x3cf3081e	0.029666957
216	0xbd21ed30	-0.03953284
217	0xbc891b2a	-0.016736586
218	0xbdfd15eb	-0.12357696
219	0x3df8bf86	0.12145905
220	0x3d8fc872	0.07020654
221	0xbe226b24	-0.15861183
222	0xbd1b1652	-0.037863083
223	0x3def811c	0.116945475
224	0xbdfa4ed7	-0.12222069
225	0x3cee0948	0.02905716
226	0x3d846836	0.06465189
227	0xbcea6703	-0.028613573
228	0xbe06912d	-0.13141318
229	0xbe1b1819	-0.15145911
230	0xbd50f4f7	-0.051014867
231	0xbd8e9efe	-0.06963919
232	0xbb905f82	-0.0044059167
233	0x3e236dd6	0.15959868
234	0xbc56149d	-0.013066438
235	0x3cc439e2	0.023953382
236	0xbe1e15b4	-0.15437967
237	0xbded9139	-0.11599965
238	0x3ce2a87b	0.027668228
239	0x3d4234de	0.0474137
240	0x3cbfd875	0.023418644
241	0xbb6d5b39	-0.0036217703
242	0xbe23ed01	-0.16008379
243	0xbc856806	-0.016284954
244	0xbe03f9b7	-0.12888227
245	0xbb973372	-0.004614287
246	0x3d1b88b3	0.037972163
247	0x3e093894	0.13400489
248	0x3d7dbc2e	0.06194704
249	0xbe07f2b0	-0.13276172
250	0x3decc67d	0.11561296
251	0xbddb9212	-0.1072122
252	0x3d032008	0.03201297
253	0x3d4c85eb	0.0499324
254	0xbd262f70	-0.040572584
255	0x3d0320b9	0.03201363

action_model._continuous_distribution.log_sigma f4 [1, 4]
0	0xbe2187e1	-0.1577449
1	0xbd55a6dc	-0.052161083
2	0xbd21fd1b	-0.03954802
3	0x3c232e04	0.009959701

action_model._continuous_distribution.mu.bias f4 [4]
0	0x3d32bc5a	0.043636657
1	0xbae7deb9	-0.0017690278
2	0x3c42b79e	0.011884598
3	0x3c1c7595	0.009549518

action_model._continuous_distribution.mu.weight f4 [4, 128]
0	0xbcfaf55a	-0.03063457
1	0xbc9346d5	-0.017978111
2	0x3d811985	0.063036956
3	0xbcf08398	-0.029359624
4	0x3d266a70	0.04062885
5	0xbd51ccb5	-0.051220614
6	0xbcd39338	-0.025827035
7	0xbd53536a	-0.05159322
8	0x3d81f0b1	0.06344736
9	0x3d6e0abf	0.058115717
10	0xbd42c4bd	-0.047550905
11	0xbcd643e1	-0.026155414
12	0xbd73ee95	-0.0595537
13	0x3c23bd01	0.0099937925
14	0xbd4e629d	-0.050387014
15	0xbd646ba0	-0.0557667
16	0xbc463ecf	-0.012099936
17	0x3d1ab754	0.03777249
18	0x3d675c21	0.056484345
19	0x3c03e91b	0.008051182
20	0xbd7e101a	-0.062027074
21	0xbd296714	-0.04135807
22	0xbd4c2597	-0.049840536
23	0xbd1a2766	-0.03763523
24	0x3d88e2ab	0.066838585
25	0xbd9541bc	-0.072879285
26	0x3d4d1346	0.05006721
27	0x3ced80bd	0.028992051
28	0x3d80d637	0.06290858
29	0xbd2b8097	-0.04187068
30	0xbc4738b5	-0.012159516
31	0xbcc97be6	-0.024595212
32	0x3d48a00d	0.04898076
33	0xbbb9a3a3	-0.005665259
34	0x3ce20ce8	0.027594045
35	0xbd19f04f	-0.03758269
36	0xbd2f4c69	-0.04279748
37	0x3c4cfc63	0.012511346
38	0xbd90b7f5	-0.07066337
39	0xbd93a276	-0.07208721
40	0xbd14c580	-0.036321163
41	0x3ca2017c	0.019776098
42	0x3dd682f9	0.104742
43	0x3db2216a	0.086977795
44	0x3bbf2202	0.0058329115
45	0xbc85886f	-0.016300408
46	0xbb75fc75	-0.003753451
47	0x3d4a7136	0.049424373
48	0x3c8428f4	0.01613281
49	0xbd2bfc0c	-0.041988418
50	0xbd85128e	-0.0649768
51	0xbc889a86	-0.016675245
52	0x3d6e9af7	0.058253255
53	0xbb8cf5ee	-0.004301778
54	0xbdbcb705	-0.09214596
55	0xbd0ee9f8	-0.0348911
56	0xbcf52d9a	-0.029928971
57	0xbc1f2a5f	-0.009714692
58	0xbd315470	-0.043293417
59	0x3d2eb6fa	0.04265497
60	0x3cb7f67e	0.022456404
61	0x3d67b8b4	0.05657263
62	0x3d9f8fc5	0.07791094
63	0xbbf247f7	-0.007393833
64	0xbc265b20	-0.010153562
65	0x3d6b4422	0.057438023
66	0xbd249654	-0.040182427
67	0x3c81df56	0.015853565
68	0xbd3caa5c	-0.046060905
69	0xbc717721	-0.014737875
70	0xbd3e11eb	-0.046403807
71	0xbd63094e	-0.055428796
72	0x3cba3c8f	0.022733955
73	0x3d6abf63	0.057311427
74	0xbd1f44df	-0.03888404
75	0xbd4a67aa	-0.049415268
76	0x3d7b21c6	0.061311506
77	0xbd1020a2	-0.03518737
78	0x3d55c99c	0.052194223
79	0x3d126dff	0.03574943
80	0x3d8ababb	0.06773897
81	0xbdbe3125	-0.09286717
82	0x3ca5a582	0.020220522
83	0xbd800326	-0.062506005
84	0xbd8b6713	-0.06806769
85	0x3d0ec3ac	0.034854576
86	0x3d432ed9	0.0476521
87	0x3cb4c8f1	0.022068473
88	0x3c825551	0.015909823
89	0x3d990ba0	0.074729204
90	0xbd83a9de	-0.06428884
91	0x3c1192e5	0.00888512
92	0xbd7588d2	-0.059944935
93	0x3d02a3dd	0.031894553
94	0xbbc92804	-0.0061388034
95	0x3d65feac	0.056151077
96	0x3d6386aa	0.055548348
97	0x3d27995a	0.04091773
98	0xbd86e73a	-0.06587072
99	0x3d802016	0.0625612
100	0x3cd09fd0	0.02546683
101	0x3ce19b7e	0.027539965
102	0xbd35989a	-0.044334985
103	0x3d8279fb	0.06370922
104	0x3d2e76e5	0.042593855
105	0x3c534972	0.012895929
106	0x3d2754d7	0.040852394
107	0xbd439ab5	-0.047754962
108	0x3d32843a	0.043583132
109	0x3d4b216b	0.049592417
110	0xbd14f9b4	-0.036370948
111	0x3cb36615	0.021899262
112	0x3d336bdd	0.04380404
113	0x3d2cfb4d	0.042231847
114	0xbc2524f7	-0.010079614
115	0x3c46ad75	0.012126316
116	0x3d817db3	0.06322803
117	0x3d80b240	0.062839985
118	0x3c384e5f	0.011249154
119	0x3d0ab9ac	0.033868477
120	0x3c5bd269	0.013416865
121	0x3c9d04b8	0.01916729
122	0xbd65aadb	-0.056071144
123	0x3b5eddff	0.0034006832
124	0x3d619267	0.05507126
125	0x3d0109bf	0.031503435
126	0x3c672fef	0.014110549
127	0xbd02f35d	-0.03197037
128	0x3d4f4dc3	0.05061127
129	0xbcf9494a	-0.030430455
130	0x3bb10a93	0.005402872
131	0xbc93070a	-0.017947692
132	0xbc806d4e	-0.01567712
133	0xbcab6e70	-0.020926684
134	0xbd20aa6f	-0.03922504
135	0xbc574462	-0.013138862
136	0x3d29df1e	0.041472547
137	0xbd580170	-0.052735746
138	0xbcbaa132	-0.022781942
139	0x3d555483	0.05208255
140	0xbc080b9f	-0.008303552
141	0x3b265691	0.0025381187
142	0xbc4124ab	-0.0117885275
143	0xbc2a2268	-0.01038418
144	0x3d5bd105	0.053666133
145	0xbd0750df	-0.03303611
146	0x3ba17b12	0.004928001
147	0xbd2f8166	-0.042848013
148	0x3cbffe23	0.023436612
149	0x3c5655c6	0.013081973
150	0xbbca7029	-0.0061779213
151	0x3c105578	0.00880944
152	0xbc81b21b	-0.015831998
153	0xbb4a2f06	-0.0030850782
154	0xbc89dbbf	-0.016828416
155	0xbd826e31	-0.063686736
156	0xbd0bee97	-0.034163084
157	0x3cf6974d	0.030101443
158	0xbcb7b5ca	-0.022425551
159	0x3c93dd93	0.01804999
160	0xbc8ad6d6	-0.016948145
161	0x3b30fb43	0.0027005232
162	0x3c7252ca	0.014790246
163	0x3cabf7ee	0.020992246
164	0xbcd7dc7d	-0.026350254
165	0x3c9b9004	0.01898957
166	0xbcda3527	-0.026636673
167	0xbbc05cc3	-0.005870433
168	0xbc821c8b	-0.015882751
169	0x3c0bfe4a	0.008544514
170	0xbcf3f290	-0.029778749
171	0x3bf4e5d9	0.007473689
172	0xbc9c1f4b	-0.01905789
173	0xbcf52fbb	-0.029929986
174	0xbc8f8643	-0.017520076
175	0x3b2a0fbe	0.0025949324
176	0xbd1dd992	-0.03853757
177	0xbca207bf	-0.019779084
178	0x3bbab8cf	0.0056983004
179	0xbbb86e05	-0.0056283497
180	0x3d00f1dc	0.031480655
181	0x3d326359	0.043551777
182	0x3cae00a4	0.02124054
183	0x3cc0808d	0.023498798
184	0x3cae600b	0.021286031
185	0xbd533866	-0.051567458
186	0x3c5ffbb1	0.013670848
187	0x3ccc6108	0.024948612
188	0xbc5be8a3	-0.013422164
189	0x3c321861	0.01087007
190	0x39e76a5a	0.00044138992
191	0x3d4e7d85	0.050412674
192	0x3d4d89e9	0.05018035
193	0x3d1fa3d0	0.038974583
194	0xbc135795	-0.008993049
195	0x3cdb4a31	0.026768776
196	0xbc38a8f4	-0.01127075
197	0x3d08a524	0.033360615
198	0xbcb0f046	-0.021598946
199	0xbcb96293	-0.022630012
200	0xbc7aa23a	-0.015297467
201	0x3bf1e4b9	0.007382002
202	0xbcd2a518	-0.025713488
203	0xbcf99dae	-0.030470695
204	0x3d059f99	0.032622907
205	0xbc3d0065	-0.011535739
206	0x3c3c9520	0.011510164
207	0xbce23373	-0.027612424
208	0xbbfb0c0f	-0.0076613496
209	0xbceeaf9a	-0.029136468
210	0xbd483984	-0.048882976
211	0xbc8f2779	-0.017474877
212	0xbc3a6d2f	-0.01137857
213	0xbc9c4149	-0.0190741
214	0xbc491c5e	-0.01227483
215	0xbd4024c1	-0.04691005
216	0xbd2e28ac	-0.042519256
217	0x3c278b79	0.010226124
218	0xbbe283fc	-0.0069127064
219	0xbb815a35	-0.003947521
220	0xbcfa3a12	-0.030545268
221	0xbc45dc3e	-0.012076436
222	0x3c892ae8	0.016744092
223	0x3c530f5c	0.01288208
224	0xbc88cd9b	-0.016699603
225	0xbb9637b1	-0.0045842757
226	0x3b700d6a	0.003662909
227	0xbac0bb37	-0.0014704232
228	0x3d193746	0.03740623
229	0x3a854838	0.0010168618
230	0x3ca5a55b	0.02022045
231	0x3bfe7752	0.007765689
232	0xbce757ca	-0.028240103
233	0x3bc57135	0.006025458
234	0x3cb62e0a	0.02223875
235	0x3d2a4c08	0.041576415
236	0x3cd5a646	0.026080262
237	0x3ce7dd78	0.028303847
238	0x3ca9721f	0.0206843
239	0x3d1e94f9	0.03871629
240	0x3cf25e81	0.029586079
241	0x39d4ff4e	0.00040626008
242	0x3c2a0b93	0.010378736
243	0xbbd9dc6c	-0.006648591
244	0x3b5d5cf3	0.0033777326
245	0x3b5cfc07	0.0033719556
246	0xbd27ae9f	-0.040938016
247	0xbc9615c2	-0.018320922
248	0x3c5f94a1	0.013646276
249	0x3d13c600	0.0360775
250	0xbd0c55ac	-0.03426139
251	0xbcb60851	-0.022220762
252	0xbd4431ed	-0.047899175
253	0xbd4aa982	-0.04947806
254	0x3ccb8f21	0.024848523
255	0xbb2b85b6	-0.0026172227

network_body._body_endoder.seq_layers.0.bias f4 [128]
0	0x3b590807	0.0033116357
1	0xba030856	-0.00049984956
2	0x3c916d7c	0.017752402
3	0xb9b390ab	-0.00034249327
4	0xbc9883e9	-0.018617587
5	0x3b560fad	0.0032663152
6	0x3d22bb94	0.03972967
7	0x3c10e424	0.008843455
8	0x3c19ac20	0.009379417
9	0x3c8a1efb	0.016860476
10	0x3c0d7264	0.00863323
11	0xbb7aa498	-0.0038245078
12	0xbc91a950	-0.01778093
13	0x3c94da38	0.018170461
14	0x3ca66158	0.020310089
15	0xbc3d2390	-0.011544123
16	0x3c0fb53e	0.008771239
17	0xbb54d37d	-0.003247469
18	0x3b8ebb36	0.0043558134
19	0xbbafe33f	-0.005367666
20	0xbc1136ff	-0.00886321
21	0x3bc05766	0.0058697937
22	0x3b16b374	0.0022995146
23	0xbb705a97	-0.003667509
24	0x3b7fbfaa	0.0039024153
25	0x3c070265	0.008240317
26	0xbba8d132	-0.005151891
27	0xb9c39457	-0.0003730382
28	0x3c817948	0.015804902
29	0x3c1b1441	0.009465278
30	0xbc59e856	-0.013300022
31	0x3b940a0a	0.0045177983
32	0xbbb2e2ce	-0.005459166
33	0x3c9c146b	0.019052705
34	0xbaba8246	-0.0014229498
35	0x3c937355	0.01799933
36	0xbbdf2aa4	-0.006810503
37	0x3c4375f1	0.011929975
38	0x3c35af1e	0.0110891145
39	0x3ccce1d9	0.025010036
40	0x3c6886b7	0.014192275
41	0x3b19162d	0.0023359165
42	0x3c3123ac	0.0108117275
43	0x3c520d43	0.012820545
44	0x3c5f3c12	0.013625162
45	0x3cbf2abd	0.023335809
46	0xbccef4fe	-0.025263306
47	0x3b3b451e	0.0028575133
48	0x3cadf16e	0.021233287
49	0x3be785de	0.0070655188
50	0xbc3240db	-0.010879721
51	0xbc24a061	-0.010048003
52	0xbb6f0db2	-0.003647667
53	0x3bcbf7f2	0.0062246257
54	0x3d1372d0	0.035998166
55	0x3b8a6a68	0.0042241104
56	0x3d00d093	0.031448912
57	0x3a5cb819	0.00084197667
58	0x3c8518bc	0.016247146
59	0x3cabfac0	0.02099359
60	0x3ca4c507	0.020113481
61	0x3c979e32	0.01850805
62	0x3b8e4071	0.004341178
63	0xbc1434c5	-0.009045784
64	0x3bb6a210	0.0055735186
65	0x3ca6f2b7	0.020379407
66	0x3c859b00	0.016309261
67	0x3bf41407	0.0074486765
68	0xbb78e95d	-0.0037980892
69	0x3c2ab698	0.01041951
70	0x3ac394f0	0.0014921706
71	0x3bb4f535	0.005522395
72	0x3b9f86a3	0.004868345
73	0x3c7689aa	0.01504747
74	0x3c42381c	0.011854198
75	0x3d03f773	0.032218408
76	0xbc103768	-0.008802272
77	0x3c290a4e	0.010317398
78	0x3cf0c9cf	0.029393105
79	0x3c3e7b20	0.011626035
80	0x3c085e6c	0.008323293
81	0x3c245f75	0.010032524
82	0xbbf7a7b4	-0.0075578336
83	0xbc242dc2	-0.010020675
84	0x3ba032e4	0.004888879
85	0x3abb3301	0.0014282168
86	0x392cf654	0.00016494963
87	0x3d411215	0.047136385
88	0x3cbcdd3d	0.023054713
89	0x3c9c74aa	0.019098599
90	0x3d08e331	0.03341979
91	0xbbe6bd49	-0.0070416075
92	0xb774689a	-1.4567888e-05
93	0xbb27d76a	-0.0025610575
94	0x3b2bf04d	0.002623576
95	0x3c36cf30	0.011157796
96	0xba24eaab	-0.0006291072
97	0xb88e874e	-6.79629e-05
98	0x3ca4a3a7	0.020097567
99	0xbbf340c6	-0.007423493
100	0x3b92442b	0.0044636927
101	0xbbd7f6cb	-0.0065906993
102	0x3c238d89	0.009982475
103	0x3ca290bb	0.019844403
104	0xbb0297e7	-0.0019926967
105	0xbc15f4aa	-0.009152571
106	0xbc647317	-0.013943455
107	0xbac0ba22	-0.0014703909
108	0x3cb5b8ce	0.022182848
109	0xbc2b7a3a	-0.010466153
110	0x3c8087ed	0.015689814
111	0x3d39b2c2	0.045336492
112	0x3c86c7b6	0.016452651
113	0xbc90be28	-0.017668799
114	0x3ca37eb6	0.019957881
115	0x3aad6031	0.001322752
116	0x3d2aeb19	0.041728113
117	0x3bd8498d	0.006600565
118	0xbc3c920b	-0.011509429
119	0xbc3275a0	-0.010892302
120	0x3d8225f5	0.06354896
121	0x3cabfa8b	0.020993492
122	0x3c34c368	0.011032917
123	0x3c61863c	0.013764914
124	0x3d14aae2	0.03629578
125	0xbb160552	-0.0022891355
126	0x3cb78f7b	0.022407284
127	0xbb268ff3	-0.002541539

network_body._body_endoder.seq_layers.0.weight f4 [128, 80]
0	0x3db417cb	0.08793601
1	0xbdddd683	-0.108319305
2	0xbc7120fe	-0.014717339
3	0x3d398a2c	0.045297787
4	0x3ded094a	0.115740374
5	0xbdda6072	-0.10662927
6	0xbd94a524	-0.072580606
7	0x3c0753c7	0.00825972
8	0xbdaddd95	-0.08489529
9	0xbc8bcf08	-0.017066494
10	0xbd4bf05b	-0.049789768
11	0x3d4c6473	0.049900483
12	0x3d99c1a7	0.075076394
13	0xbdc68e14	-0.09695068
14	0x3d97f7c7	0.07420307
15	0xbda6833c	-0.081305
16	0x3a5ed7f4	0.00085008075
17	0xbe001079	-0.12506284
18	0x3d05c975	0.032662828
19	0xbd38e362	-0.045138724
20	0xbd135de0	-0.035978198
21	0x3bf126f3	0.0073593794
22	0x3e1516e3	0.14559512
23	0xbe31e995	-0.1737426
24	0xbe435f88	-0.19079411
25	0x3d2663f4	0.040622666
26	0x3ce2cd5a	0.02768581
27	0x3dec4084	0.11535743
28	0xbd9d3e37	-0.07677882
29	0xbdda3238	-0.1065411
30	0x3da64c03	0.08119967
31	0xbe51b2e8	-0.20478404
32	0x3e6c4345	0.23072536
33	0xbcfbfe48	-0.0307609
34	0xbb9f2d64	-0.004857706
35	0x3d709f3f	0.05874562
36	0x3c3c0395	0.011475463
37	0x3d18125c	0.037126884
38	0x3cbffcee	0.023436036
39	0xbdda417d	-0.10657022
40	0x3dabd2d1	0.083898194
41	0xbdd0da71	-0.101979144
42	0x3ce1fbf8	0.027585968
43	0xbd39e131	-0.045380775
44	0x3ea38fc2	0.31945616
45	0x3dfcd0b1	0.12344492
46	0x3e519712	0.20467785
47	0xbe7317bb	-0.23739521
48	0x3b92c3ee	0.004478923
49	0x3e147a5b	0.144998
50	0xbc798188	-0.015228637
51	0xbd082d25	-0.03324618
52	0xbdea3c4a	-0.114372805
53	0xbe37455b	-0.17897551
54	0xbe447919	-0.1918682
55	0x3e08ec1f	0.13371323
56	0xbe3562fd	-0.17713542
57	0xbd745d99	-0.059659574
58	0xbc32f568	-0.010922767
59	0x3db100cb	0.08642729
60	0x3ba44907	0.0050135884
61	0xbe792010	-0.24328637
62	0x3cd43129	0.025902348
63	0xbc50ff8d	-0.012756241
64	0xbcf8f127	-0.030388428
65	0x3df4a612	0.11945738
66	0xbdb60ed2	-0.088895455
67	0xbdd70c9a	-0.105004504
68	0xbd0270d4	-0.031845883
69	0x3d175d2c	0.03695409
70	0xbcb13dc2	-0.021635894
71	0x3e386785	0.1800824
72	0x3ca4f77d	0.020137543
73	0x3ba8bb22	0.005149261
74	0xbe25000d	-0.161133
75	0xbdaf3505	-0.085550345
76	0xbdeee731	-0.1166519
77	0xbe6e477a	-0.23269454
78	0x3ccbf8fe	0.024899002
79	0x3d497cf8	0.049191445
80	0x3c25fe2a	0.010131398
81	0xbe9500b6	-0.29102105
82	0xbe2d360c	-0.16915148
83	0xbd82dd88	-0.0638991
84	0x3d552f98	0.052047342
85	0x3e05e5d0	0.13075948
86	0xbc8fb6a8	-0.017543152
87	0x3dc65740	0.0968461
88	0xbd3036ed	-0.04302113
89	0xbc9f1bf2	-0.019422505
90	0xbd7e9bb0	-0.062160194
91	0x3c80058c	0.015627645
92	0xbe0db2df	-0.13837765
93	0xbde577b6	-0.11204474
94	0xbe4811af	-0.19537996
95	0x3d32c9a3	0.043649327
96	0xbe0dae6c	-0.13836068
97	0xbc01ae31	-0.007915066
98	0xbce149fa	-0.027501095
99	0x3ea59d65	0.32346645
100	0xbce6cc70	-0.028173655
101	0xbda0a28e	-0.07843505
102	0xbe878fd4	-0.2647692
103	0x3e340435	0.1757973
104	0xbe04cda3	-0.12969069
105	0x3bdd039b	0.0067448146
106	0xbe2b03c7	-0.1670066
107	0x3ddfd598	0.10929412
108	0xbe62a42d	-0.2213294
109	0x3dba3332	0.09091796
110	0x3e11e302	0.14246753
111	0xbe839213	-0.25697383
112	0x3e4bb376	0.19892678
113	0x3dcba840	0.099442005
114	0x3de3c533	0.11121597
115	0xbe1dc83d	-0.15408416
116	0xbcf6a9d5	-0.03011028
117	0x3d8fed20	0.0702765
118	0xbe127fda	-0.14306584
119	0xbe597f5d	-0.21239991
120	0x3c2e1ff9	0.01062774
121	0x3e47271b	0.19448511
122	0x3d0ed7b0	0.034873664
123	0xbd99adaa	-0.07503827
124	0x3e68120b	0.22663133
125	0xbc1a763e	-0.009427605
126	0x3d3f5d10	0.04671961
127	0xbbfd525b	-0.007730765
128	0xbe7cc4d5	-0.2468446
129	0xbc4892b8	-0.012242012
130	0xbe2a4faf	-0.1663196
131	0x3cbe93e5	0.023263881
132	0x3e252181	0.16126062
133	0xbdbbed30	-0.09176099
134	0x3e0a7147	0.13519774
135	0x3e031065	0.12799223
136	0xbd0c31c1	-0.034227137
137	0x3e0eba16	0.13938174
138	0xbde4642e	-0.1115192
139	0x3e0f1744	0.13973719
140	0xbe543792	-0.20724323
141	0xbb817b4b	-0.0039514652
142	0x3d985170	0.07437408
143	0x3d0872bf	0.033312555
144	0xbdbac703	-0.0911999
145	0x3c8feed7	0.017569942
146	0x3d556ac5	0.052103776
147	0x3deabeae	0.114621505
148	0xbd25ae94	-0.040449694
149	0x3c1e2a67	0.009653664
150	0x3d61942b	0.055072945
151	0xba868994	-0.001026439
152	0x3bdfef61	0.006833956
153	0x3d1e308d	0.03862052
154	0x3e05b518	0.13057363
155	0xbd3f3df6	-0.04668995
156	0x3e1c9ed1	0.15294959
157	0x3cd2d6db	0.025737217
158	0x3de58f98	0.11209029
159	0xbdba1fd5	-0.09088103
160	0xbdaa50a1	-0.0831616
161	0x3d30797b	0.043084603
162	0xbe47fee6	-0.1953083
163	0xbd207939	-0.039178107
164	0x3e4e9e1b	0.201775
165	0x3db311bd	0.08743618
166	0x3d2b2cd7	0.04179081
167	0x3cdfe008	0.027328506
168	0x3d33e7d1	0.04392225
169	0x3d1ce252	0.038301773
170	0x3e0db50f	0.138386
171	0x3cb48183	0.022034412
172	0x3df08ac1	0.11745215
173	0xbdda2700	-0.1065197
174	0xbe19e2a3	-0.15027861
175	0x3e108cce	0.14116213
176	0xbdce0806	-0.10060124
177	0xbdcb8928	-0.0993827
178	0x3d46e3af	0.04855698
179	0xbdb328a2	-0.087479845
180	0x3e948ef7	0.29015324
181	0x3db53b76	0.08849232
182	0x3e7a2ab2	0.2443035
183	0x3d814fc6	0.06314044
184	0x3d5d1b46	0.053981088
185	0xbe3a3a1a	-0.18186226
186	0xbe62b177	-0.2213801
187	0xbde01d56	-0.109430954
188	0xbd8c1227	-0.068394
189	0x3dc7713d	0.09738395
190	0xbd11f4d6	-0.035633884
191	0x3e1f72a0	0.1557107
192	0x3e475a20	0.19467974
193	0x3ae0ab03	0.0017140809
194	0xbd99eb0d	-0.075155355
195	0xbe631858	-0.22177255
196	0xbe8af683	-0.271412
197	0x3de3182c	0.11088595
198	0x3c12ea0e	0.008966936
199	0x3cdb32ed	0.026757682
200	0x3df1b4cf	0.118020646
201	0x3d23a120	0.039948583
202	0xbdab42e0	-0.08362365
203	0x3d12bd6d	0.03582518
204	0x3dc2d430	0.09513128
205	0x3c1bf151	0.0095179835
206	0xbdbc2ece	-0.09188615
207	0xbd9e3018	-0.07724017
208	0xbd412be2	-0.04716099
209	0x3ddae764	0.106886655
210	0xbdbefeb6	-0.09325926
211	0xbc84a88c	-0.01619365
212	0xbe55fc60	-0.20897055
213	0xbe779a1d	-0.24179883
214	0x3decae1d	0.11556647
215	0xbe544114	-0.2072795
216	0x3daa324a	0.08310373
217	0x3dc0e7f9	0.09419245
218	0x3cfaf4df	0.030634342
219	0x3e11ddd4	0.14244777
220	0x3d244298	0.04010257
221	0xbd42d00a	-0.047561683
222	0xbe1d8dc4	-0.1538611
223	0x3d964f0d	0.073392965
224	0xbbba1d6a	-0.005679776
225	0x3da61ccf	0.081109636
226	0x3d1c70b3	0.038193416
227	0xbb925934	-0.0044662002
228	0x3d79ccd6	0.060986362
229	0xbd7bd856	-0.06148561
230	0x3e12b562	0.14327005
231	0xbdfdf0cc	-0.12399444
232	0x3d3e5398	0.04646644
233	0xbd14c8c0	-0.036324263
234	0xbd0d0832	-0.034431644
235	0x3e28f93f	0.1650133
236	0x3e0980c1	0.13428022
237	0x3cfec47c	0.03109955
238	0xbda21e51	-0.07915939
239	0xbd9982ed	-0.07495675
240	0x3e0a5b29	0.13511337
241	0x3deed064	0.11660841
242	0x3e21df4f	0.15807842
243	0xbe2cd023	-0.16876273
244	0x3d2e6183	0.042573463
245	0x3dc16fe6	0.09445171
246	0xbd6a13a5	-0.05714764
247	0x3dd08c70	0.10183036
248	0xbcf0af8e	-0.029380586
249	0xbc576f89	-0.013149151
250	0xbdfaeaae	-0.12251793
251	0xbd4b80ff	-0.049683567
252	0xbba91b66	-0.005160737
253	0xbdad2d12	-0.08455862
254	0xbe0255d4	-0.12728053
255	0x3e3b8ccc	0.18315428

network_body._body_endoder.seq_layers.2.bias f4 [128]
0	0xbb65a029	-0.003503809
1	0x3c92f8b8	0.017940864
2	0xbc61768c	-0.013761174
3	0x3c886207	0.016648306
4	0xbc791ada	-0.015204156
5	0xbc877d49	-0.016539233
6	0x3c6ccb4a	0.014452765
7	0xbb27143d	-0.002549424
8	0xbc0ff3a5	-0.008786117
9	0x3bc5d3c7	0.0060372087
10	0x3c51c9be	0.012804447
11	0x3c2007cf	0.009767487
12	0x3bab661d	0.0052306787
13	0x3c64c2c6	0.013962453
14	0x3ade15b2	0.0016943722
15	0xbb4607ef	-0.003021713
16	0x3c3edd37	0.011649421
17	0xbcc2fc47	-0.023801936
18	0x3c434484	0.011918191
19	0xbb15edb3	-0.0022877275
20	0xbb338613	-0.0027393147
21	0xbae09935	-0.0017135503
22	0x3c198cf9	0.009371989
23	0x3ca14526	0.019686293
24	0x3c464681	0.01210177
25	0xbcc37632	-0.02386007
26	0xbc93fd51	-0.018065127
27	0x3d021959	0.031762455
28	0xbc11c588	-0.008897193
29	0x3caf2c3b	0.021383395
30	0xba82a41b	-0.000996712
31	0xbae05deb	-0.0017117833
32	0xba5393ab	-0.00080710155
33	0x3b5035f5	0.0031770442
34	0x3c568727	0.013093746
35	0x3979e2bf	0.0002383096
36	0x3bfe1a21	0.0077545797
37	0x3cf49caf	0.029859869
38	0x3c3466ae	0.011010809
39	0xbc7b0adb	-0.015322412
40	0x3c9ae619	0.018908547
41	0x3cc66f1b	0.024222901
42	0xbbd0591e	-0.00635828
43	0x3c41ca8b	0.011828075
44	0x3b5d8d12	0.0033806008
45	0x3a857c80	0.0010184199
46	0x3b68354a	0.0035432153
47	0xbb2bb7c1	-0.0026202055
48	0xbcae07b8	-0.021243915
49	0x3ad3c7a3	0.0016157519
50	0x3c9e599e	0.019329842
51	0x3bc43279	0.005987462
52	0x3c898e2f	0.016791431
53	0x39bae599	0.00035647748
54	0x3bda87f4	0.006669039
55	0x3ae683e9	0.001758692
56	0x3c639d87	0.013892538
57	0x3c0498c9	0.008093067
58	0xbc1ab5e1	-0.009442777
59	0xbc5948fd	-0.013262031
60	0xbc15b0c9	-0.009136387
61	0x3c4079bd	0.011747775
62	0xbae53303	-0.0017486516
63	0x3c26e053	0.010185319
64	0x3c227a16	0.009916803
65	0xbab4a854	-0.0013783076
66	0x3c7087b3	0.014680791
67	0x3b7fc1e8	0.003902549
68	0x3c0d0891	0.008607999
69	0xbbbdc001	-0.005790711
70	0x3c33a4df	0.010964601
71	0x3ae90726	0.001777862
72	0xbab82a95	-0.0014050776
73	0x3cfd1077	0.03089164
74	0x3baec79e	0.005333855
75	0x3a0ab6b9	0.000529151
76	0xb80baffc	-3.330408e-05
77	0xba82f975	-0.0009992557
78	0x3c2c28a2	0.0105077345
79	0xbcafe1b2	-0.021469925
80	0xbb0ab8da	-0.002116731
81	0xbc096cd4	-0.008387763
82	0xbb9e7308	-0.00483549
83	0x3be2a012	0.0069160545
84	0x3c965456	0.018350761
85	0xbc36728f	-0.011135711
86	0x3cba8f8f	0.022773532
87	0x3c441740	0.011968434
88	0xbcdb77c6	-0.02679051
89	0x3c11c457	0.008896909
90	0x3bbbe29b	0.0057338006
91	0x3b284d87	0.0025680976
92	0xbc0c8191	-0.008575813
93	0x3c88a5b3	0.016680574
94	0x3caa7acf	0.020810513
95	0xbb752877	-0.0037408152
96	0x3c6ae430	0.014336631
97	0x3c28c81b	0.010301615
98	0x3ae2cd8c	0.0017303689
99	0x3bc6c9f9	0.0060665575
100	0x3baa9aae	0.0052064275
101	0xbc080fa9	-0.008304515
102	0x3c4e7475	0.012601008
103	0x3c1f05a2	0.009705933
104	0x3bd7dfc1	0.006587953
105	0x3b5e9062	0.003396057
106	0x3afe51b6	0.0019403014
107	0x39370ae7	0.00017456301
108	0x3c30997b	0.01077878
109	0xba9acdce	-0.0011810602
110	0xbb37c6c3	-0.0028042055
111	0x3b0fb3fa	0.0021927343
112	0x3b4d0577	0.0031283775
113	0xbc9a8c05	-0.018865595
114	0x3a19aef4	0.0005862557
115	0x3c0fae44	0.0087695755
116	0x3c1b74bc	0.009488281
117	0xbb80d6c3	-0.0039318516
118	0xbb778f23	-0.0037774525
119	0x3b340e23	0.0027474246
120	0x3bc05232	0.0058691734
121	0x3bb10706	0.0054024486
122	0x3ae71349	0.0017629649
123	0x3ccb3839	0.024807082
124	0x3c09b7d1	0.008405642
125	0x3bc71914	0.0060759876
126	0x3baa21a9	0.005192001
127	0x3c3dec4c	0.011591982

network_body._body_endoder.seq_layers.2.weight f4 [128, 128]
0	0xbdd50ebc	-0.10403201
1	0xbccb0dd3	-0.024786865
2	0x3d31f45f	0.04344594
3	0x3d915d9c	0.07097933
4	0xbd95ce91	-0.0731479
5	0x3bff2fda	0.007787687
6	0x3d41b554	0.04729207
7	0x3c8426e2	0.016131822
8	0xbcb6e810	-0.022327453
9	0xbc8fac2e	-0.017538156
10	0x3d988fd3	0.07449307
11	0xbd88b6c3	-0.06675484
12	0xbdfc79ef	-0.123279445
13	0xbe18e109	-0.14929594
14	0x3dac6e61	0.084194906
15	0x3defaea3	0.11703231
16	0xbddf3c90	-0.10900223
17	0x3d10ab7a	0.035319783
18	0xbc9aa130	-0.018875688
19	0x3d2f7cf6	0.04284378
20	0xbe1094dc	-0.14119285
21	0xbda071fa	-0.07834239
22	0x3dbc1387	0.09183412
23	0xbddc76ad	-0.10764823
24	0x3dd67a36	0.10472529
25	0xbde805e5	-0.11329249
26	0xbd9bddfe	-0.07610701
27	0xbd0202ab	-0.031740826
28	0xbd2a4cf6	-0.041577302
29	0x3dfbb570	0.12290466
30	0xbd1f935c	-0.038958892
31	0xbc8da2eb	-0.0172896
32	0xbd2b3c1a	-0.041805364
33	0x3d3a771b	0.045523744
34	0xbda31040	-0.07962084
35	0x3da4f51c	0.080545634
36	0x3d78ec4d	0.06077223
37	0x3e24e69e	0.16103598
38	0x3da3777b	0.079817735
39	0xbde56b7f	-0.11202144
40	0x3cc72991	0.024311813
41	0xbca61ee1	-0.020278396
42	0xbda905c1	-0.082530506
43	0x3e2dbdf8	0.16966999
44	0x3e4a3f91	0.19750811
45	0xbd83eacb	-0.064412676
46	0x3ca41462	0.02002925
47	0xbdbac274	-0.0911912
48	0x3d034aed	0.032053877
49	0xbd6de477	-0.05807921
50	0x3dbf8e5c	0.09353325
51	0xbe04129e	-0.12897727
52	0xbcacccda	-0.021093775
53	0x3d77fe3b	0.060545187
54	0x3b9a41ad	0.004707536
55	0x3d2fd710	0.04292971
56	0xbc36178b	-0.0111140115
57	0xbda8def2	-0.082456484
58	0x3e615714	0.22005874
59	0x3c5a820d	0.013336671
60	0x3d1e6281	0.03866816
61	0x3d138d27	0.036023285
62	0xbe262e1d	-0.16228528
63	0x3bbe35ba	0.0058047445
64	0xbdff725c	-0.12472984
65	0x3e34f8c4	0.17673022
66	0x3bea1234	0.0071432833
67	0xbe443845	-0.1916209
68	0xbd26bca3	-0.04070724
69	0x3ce4e4e3	0.027941173
70	0xbded7808	-0.1159516
71	0x3cbdc0e9	0.023163276
72	0xbcf0fbec	-0.029417
73	0xbd6772e9	-0.05650607
74	0xbc56c9fb	-0.013109679
75	0xbdeb3c29	-0.11486084
76	0xbde3e0b9	-0.11126847
77	0xbbfc9e95	-0.007709334
78	0x3de47def	0.111568324
79	0x3cbc95de	0.023020681
80	0xbb2abe30	-0.0026053302
81	0x3cc8a9c2	0.02449501
82	0xbe25666e	-0.16152355
83	0xbe0a86de	-0.1352801
84	0x3d862339	0.06549687
85	0x3d443bb2	0.047908492
86	0xbd8268d3	-0.0636765
87	0xbe5d7ad2	-0.21628883
88	0x3d56bb1c	0.052424535
89	0xbd70c219	-0.058778856
90	0xbe07ddb8	-0.13268173
91	0xbe4e83bb	-0.20167439
92	0x3c4616b2	0.012090372
93	0x3cbf83b3	0.023378229
94	0xbd7ac1d0	-0.06121999
95	0x3dd23a6b	0.102650486
96	0x3dc99295	0.098424114
97	0xbd83c5e7	-0.06434231
98	0xbd5aa36f	-0.05337852
99	0x3e0514c7	0.12996207
100	0x3e01b2c2	0.12665847
101	0x3e33610a	0.17517486
102	0xbca78f0e	-0.020453956
103	0xbd984c2d	-0.074364044
104	0xbdf8c218	-0.121463954
105	0xbe083a17	-0.1330341
106	0x3c63a473	0.013894188
107	0xbdcfeb15	-0.1015226
108	0xbcacb38e	-0.021081712
109	0xbdde3020	-0.10849023
110	0x3d36e0e7	0.044648077
111	0x3db58eda	0.088651374
112	0x3da8987c	0.08232209
113	0x3c81f08e	0.015861776
114	0x3d936462	0.07196881
115	0xbde6d389	-0.11270816
116	0x3de96756	0.11396663
117	0x3ce704a1	0.02820045
118	0xbd8119b8	-0.063037336
119	0xbd2968b3	-0.041359615
120	0x3e38c4f3	0.1804388
121	0x3e396bbd	0.18107505
122	0x3d224ca9	0.03962389
123	0xbd8c79b6	-0.06859152
124	0x3d50c3f8	0.05096814
125	0x3dd8cd95	0.10586087
126	0x39826287	0.0002486894
127	0x3e0c9bba	0.1373128
128	0xbe29319e	-0.16522834
129	0x3d1b6375	0.037936646
130	0x3b76db42	0.003766731
131	0x3de20592	0.11036219
132	0x3c575a07	0.013144023
133	0x3dbbabd3	0.09163632
134	0x3ac21557	0.0014807385
135	0x3d974ca7	0.07387667
136	0xbb9b0532	-0.004730844
137	0x3decea0c	0.115680784
138	0x3d4da1f1	0.050203267
139	0x3d3a883c	0.04554008
140	0xbdf5960f	-0.11991512
141	0xbdb1123f	-0.08646058
142	0xbd277540	-0.040883303
143	0x3d152198	0.03640899
144	0xbcf8f75e	-0.030391391
145	0x3dffd922	0.12492587
146	0x3d76b5c2	0.06023193
147	0x3dc425d2	0.09577526
148	0xbe565e5c	-0.20934433
149	0xbe02758e	-0.12740156
150	0x3e9bcffa	0.3043211
151	0xbc8a507a	-0.016884077
152	0xbd1d164d	-0.038351346
153	0x3dd00b18	0.10158366
154	0xbe1f6157	-0.15564476
155	0x3b82dc03	0.0039935126
156	0xbd5a9bcd	-0.05337124
157	0x3d108f7b	0.035293084
158	0x3dbd8a15	0.09254853
159	0xbd3b6896	-0.045754038
160	0xbd6ae371	-0.05734581
161	0x3e272849	0.16323961
162	0x3dd2356b	0.10264095
163	0xbce24698	-0.027621552
164	0xbdcbc486	-0.09949593
165	0xbde20b5f	-0.11037325
166	0xbd9da153	-0.07696786
167	0x3dfec027	0.12438994
168	0x3cdf6c85	0.027273426
169	0xbd30e6d0	-0.04318887
170	0x3ca1da9b	0.01975756
171	0xbe2ef7a7	-0.1708666
172	0x3d250022	0.04028333
173	0x3e170a45	0.14750011
174	0xbd0edf00	-0.034880638
175	0x3d78747e	0.06065797
176	0x3ce92cef	0.028463809
177	0x3ccdbee8	0.025115445
178	0xbcd6b9f1	-0.02621171
179	0x3d281661	0.041036967
180	0x3cbd7b50	0.023130089
181	0xbdfdae5f	-0.12386774
182	0x3d4c0fb5	0.049819667
183	0xbcd13163	-0.025536245
184	0x3d81ff43	0.063475154
185	0x3e101f85	0.14074524
186	0xbe3421f8	-0.17591083
187	0xbc215fc9	-0.009849497
188	0x3d2c4c70	0.042065084
189	0xbd9ae96e	-0.075640544
190	0xbd825ab5	-0.06364957
191	0x3dea5f7f	0.11443996
192	0x3d77e0f6	0.060517274
193	0xbd99577f	-0.07487392
194	0xbd84ad11	-0.06478322
195	0xbc9ff570	-0.019526213
196	0x3d8a43c8	0.067512095
197	0xbd0028e0	-0.03128898
198	0x3ddee47b	0.10883423
199	0xbcdf9dfc	-0.027297013
200	0x3d8a37e3	0.06748941
201	0x3d80ef6d	0.06295667
202	0xbd987a56	-0.07445209
203	0xbdbed4b0	-0.09317911
204	0x3da12b76	0.07869618
205	0xbd95f44b	-0.07321986
206	0x3da5091a	0.080583766
207	0x3cfcbd19	0.030851888
208	0x3cfb10e4	0.030647703
209	0x3d8721ba	0.0659823
210	0x3e0291c6	0.1275092
211	0x3d80cf99	0.06289596
212	0x3e8c0f07	0.27355215
213	0xbd8eca35	-0.06972162
214	0xbca53ff3	-0.020172095
215	0xbdf2aeb8	-0.11849731
216	0x3d2ca81a	0.0421525
217	0x3e072470	0.13197494
218	0xbd044eaf	-0.0323016
219	0x3e271c97	0.163195
220	0x3e089a19	0.13340034
221	0xbd848565	-0.064707555
222	0x3dec95c0	0.11552
223	0x3e0926fc	0.13393778
224	0x3d8a861a	0.06763859
225	0x3cb24e90	0.021765977
226	0xbe32ca8e	-0.17460081
227	0x3d481ee7	0.048857596
228	0x3df911c6	0.12161593
229	0x3c2a58f1	0.010397182
230	0xbd7e9755	-0.06215604
231	0xbdd044a1	-0.1016934
232	0xbcff5e6b	-0.031172952
233	0xbda20b6c	-0.07912335
234	0xbddbddd6	-0.10735671
235	0x3d2c5271	0.04207081
236	0xbe66a991	-0.22525622
237	0x3de0444e	0.10950528
238	0xbe09627e	-0.13416478
239	0x3b554371	0.003254142
240	0xbc3adbea	-0.011404971
241	0x3cf69c11	0.030103715
242	0xbe141a04	-0.14463049
243	0xbcc58341	-0.024110438
244	0xbcc7f020	-0.024406493
245	0x3d09bd4a	0.033627786
246	0xbdb59212	-0.08865751
247	0x3bb47fb1	0.005508386
248	0x3e1a712c	0.15082234
249	0xbd7c211c	-0.061555013
250	0xbdc0822d	-0.09399829
251	0x3e19ebfe	0.1503143
252	0x3e03be04	0.12865454
253	0xbd419ac4	-0.047266737
254	0xbbde655a	-0.0067869844
255	0xbe2b5742	-0.16732505
