results/DroneAgent_Local_Kill/DroneAgent/DroneAgent-33362.onnx (onnx, 658520 bytes, 10 tensors)

network_body._body_endoder.seq_layers.0.weight f4 [128, 107]
000000 c7 ce 81 3e 39 3c 1b 3d 8a 25 2f 3e 20 10 44 3d
       0.2535307 0.03789923 0.17104164 0.04786694
000010 1f b5 1c be 71 be 96 bd 39 d9 bd 3d 92 e7 bf bd
       -0.15303467 -0.073605426 0.092699476 -0.093703404
000020 33 22 f1 3d 11 7c c1 3d e3 7e cb bd 82 13 25 3e
       0.11774101 0.09447492 -0.09936311 0.16120723
000030 7c 08 70 3d 81 6d 4c be cc c9 3a 3d f0 13 f8 3c
       0.05860184 -0.19963647 0.045602605 0.030282944
000040 88 47 11 3e 1b 11 88 bc 1f 55 4d bd 48 b5 95 3d
       0.14187443 -0.016609719 -0.050130006 0.07309967
000050 11 f6 f8 3d d4 94 06 3e a0 4f e1 bc 18 32 f4 bd
       0.121563084 0.13142711 -0.027503788 -0.11923617
000060 a5 eb ed 3d 4f 56 b2 bd d0 b8 b7 bd f9 f6 02 3e
       0.11617211 -0.08707868 -0.08970797 0.12789525
000070 94 f4 01 3c aa e1 52 bd f3 4f 84 bd 75 9a a3 3d
       0.007931847 -0.05148474 -0.064605616 0.07988445
000080 1c 73 0d 3c 99 f2 56 be 1f ad 07 be e9 23 62 3d
       0.008633401 -0.20990981 -0.13249634 0.055210028
000090 3d a9 1b 3e 09 31 af bd 86 ad d6 bd 13 b6 11 be
       0.15201278 -0.085542746 -0.10482316 -0.14229612
0000a0 99 a2 c5 bc 1e 4a 00 be 16 f0 15 bd 96 d3 65 bc
       -0.024125384 -0.12528273 -0.036605917 -0.014027497
0000b0 e4 12 70 3d a6 90 a8 bd b6 96 27 3d 57 74 11 3d
       0.058611766 -0.082307145 0.040915214 0.03551134
0000c0 65 87 cd bd f2 de d4 bd 3b e0 0e bc 5c c8 da bc
       -0.1003559 -0.10394086 -0.008720453 -0.026706867
0000d0 4a cc b4 3d 6b 8c 0a be 70 e4 50 3d 30 f0 75 bd
       0.088280275 -0.13530128 0.050999105 -0.060043514
0000e0 19 1a e7 bd ea ef 06 3d fd 31 a0 bd b0 6d 63 be
       -0.112842746 0.032943644 -0.078220345 -0.22209811
0000f0 51 2f 60 3c fa 5b bd 3b b7 7d ad bd fc b6 68 bd
       0.013683156 0.0057787867 -0.08471244 -0.056815132
000100 87 5c 37 3e 43 fa 69 3e d0 26 5a bc 05 b7 a6 bd
       0.1790639 0.22849374 -0.013314918 -0.08140377
000110 4c 80 32 bd f0 ea 10 bd f3 00 5b bd 89 ff e2 3d
       -0.043579385 -0.035380304 -0.053467702 0.11083896
000120 c0 bd 92 3d 73 38 bf 3c 1a 05 2f bc fc 26 05 3e
       0.07165098 0.023342347 -0.010682369 0.13003153
000130 0e 7f fa 3d eb 3d 32 3e 3d a3 b7 3d 5a 50 9e 3b
       0.12231265 0.17406432 0.08966682 0.004831356
000140 7c 92 11 be 66 56 87 3e 73 fb 41 bc 8c 1f 82 bc
       -0.14216036 0.26433104 -0.011839735 -0.015884183
000150 b8 de d4 3c d6 31 91 bd 4f 79 5a 3c 49 7b 43 3d
       0.025985107 -0.070895836 0.013334586 0.047724996
000160 2d e3 d4 bc 4f 74 4b be 2e 9c 3d 3e 3f c2 46 bd
       -0.025987232 -0.19868587 0.18516609 -0.04852509
000170 17 8f 99 bc aa 42 22 bb 95 e0 39 bd c0 f7 82 3d
       -0.018744988 -0.0024758973 -0.045380194 0.06394911
000180 44 1c 5a bb 6e 05 2f 3d 22 6a 86 bd 76 7d d7 bc
       -0.0033281008 0.042729788 -0.06563212 -0.026304942
000190 f4 22 90 bd 15 83 a5 3d 69 26 7d 3c 6f 78 e7 bd
       -0.07037917 0.080816425 0.015451052 -0.11302268
0001a0 90 dd 62 bc 8f 02 ae bd f5 43 dc bc 9b 3a 90 bd
       -0.01384677 -0.08496582 -0.026887873 -0.07042428
0001b0 80 0d c7 bb 5c 9e 8f bc 2b c9 84 3d e3 e3 98 3e
       -0.0060746074 -0.017531566 0.06483682 0.29861364
0001c0 db ca b3 3c e5 5d 9f 3d 8a c0 d6 bd 4a 17 23 bd
       0.021947315 0.07781581 -0.10485943 -0.039817132
0001d0 8b 9e 9b 3b ac 56 11 3e 58 a5 28 3e 2e 17 b1 3d
       0.0047491244 0.14193219 0.16469324 0.08646999
0001e0 79 25 b9 3d ac f9 8c bd 9b c2 0b 3e a2 9e 18 be
       0.090403505 -0.06883559 0.13648455 -0.14904264
0001f0 51 32 49 3d fc a2 05 be 56 0e 57 3e b6 f2 d4 3d
       0.04912025 -0.13050455 0.21001562 0.10397856
000200 ac 2c 75 39 c7 c3 4a bd 9e a5 ae 3d b2 85 3f bd
       0.00023381662 -0.049503114 0.08527683 -0.04675836
000210 f4 e6 f3 bc 7d ca 50 3d c7 da 90 bd 6c a9 c8 3d
       -0.029773213 0.050974358 -0.070729785 0.0979794
000220 a5 42 b7 bc 3d e5 05 3e 20 07 a1 bc 9c fa 60 bd
       -0.022370646 0.13075729 -0.019656718 -0.0549265
000230 06 8d f4 3d 44 ea 28 bd 82 3c 9f 3c a6 80 ce bc
       0.119409606 -0.041239038 0.019438032 -0.025207829
000240 fd c2 84 bd 29 e2 73 3c 58 cc f9 3c 68 aa a4 bd
       -0.064825036 0.014885464 0.030492947 -0.08040315
000250 95 7c 52 bb e7 c5 d3 3c f2 33 43 3d 06 f4 13 3d
       -0.0032117714 0.025851203 0.04765696 0.03612139
000260 c3 24 1a 3c fe b3 45 3d 3d 5d 12 3d 08 41 e3 3d
       0.009408179 0.048267357 0.03573345 0.11096388
000270 e3 2b 18 3b 9e 20 16 bd 44 10 75 bd 9c e1 83 3d
       0.0023219518 -0.0366522 -0.059829965 0.06439516
000280 cf 5e 03 be 24 e3 8c 3d fb 72 ed bd ef 7e e0 3d
       -0.12829135 0.06879261 -0.115941964 0.10961711
000290 72 26 0b 3d 75 32 32 bd d5 1f 3a bc f2 6d 22 bd
       0.03397221 -0.04350515 -0.011360128 -0.039655633
0002a0 c0 e5 ac bd 17 33 43 3d 64 ef 60 be b2 91 9d 3d
       -0.08442259 0.047656145 -0.2196632 0.07693805
0002b0 32 18 bf bd 24 42 7e 3d 51 9a 39 bd 32 05 3b bd
       -0.09330787 0.062074795 -0.045313183 -0.04565925
0002c0 77 09 1b be 32 f4 e5 bd 41 7b 65 3d eb b2 83 bc
       -0.1514033 -0.11228217 0.056025747 -0.016076526
0002d0 f5 b4 cd bd 6e 1a c0 3d 9c 28 1a 3e 65 81 32 3c
       -0.100442804 0.09380041 0.15054554 0.010895108
0002e0 3b 50 23 bd fa ff a8 bc 00 23 d8 3c e5 f1 aa 3a
       -0.039871436 -0.020629872 0.026383877 0.0013042061
0002f0 d2 42 09 3c 2c 62 5b bd f4 ec 71 3b 71 e0 a2 bd
       0.008377748 -0.05356042 0.0036914917 -0.07952965
000300 fe 2c 33 bd 96 22 c4 bc d4 49 28 3e 93 e7 1d bd
       -0.04374408 -0.023942273 0.16434413 -0.038550925
000310 5f 4f 2e be a3 e2 32 bd 9c a6 26 3e 51 bc 1e 3d
       -0.17022465 -0.04367317 0.16274494 0.03875381
000320 7d 2f 9f bc 64 f8 a5 3d fb 34 ca 3d 89 6a 08 3e
       -0.019431824 0.081040174 0.098733865 0.1332189
000330 7a cf d1 3d e6 f5 46 3d b2 7e 56 3d e0 a7 bf 3d
       0.10244651 0.04857435 0.05236692 0.093581915
000340 f0 bc 86 bc ef 4e 89 3b 58 b2 ff 3c 7e 91 51 bb
       -0.016447514 0.004190318 0.03121297 -0.003197759
000350 b8 0f 1b 3a 4c 0f c1 3d 25 39 16 bc 23 30 64 bc
       0.0005915123 0.09426746 -0.009168898 -0.013927492
000360 a1 b3 73 bd 96 ea 4b 3c 46 a6 83 bd b0 b1 bd 3d
       -0.05949748 0.012446066 -0.064281985 0.09262407
000370 36 6c 42 bd 3c 11 69 bd 10 ac 22 3d a9 fe 21 bd
       -0.04746648 -0.0569012 0.039714873 -0.039549503
000380 8e 3e 0e 3d f2 54 f5 3d 3d 7f 0e bc cf b2 72 be
       0.034727626 0.11979093 -0.008697328 -0.23701023
000390 05 32 e3 bc d6 55 29 be cc ba 29 bb 48 f9 6f bd
       -0.027733812 -0.1653665 -0.0025898693 -0.058587343
0003a0 62 a5 29 be 09 7a 33 be b3 93 08 3e f1 06 41 be
       -0.16566995 -0.17527021 0.13337593 -0.18850304
0003b0 ea 25 90 3d 87 8a 0a 3a 89 09 88 bd 33 07 df 3d
       0.070384815 0.00052849244 -0.06642444 0.10890045
0003c0 a6 c6 63 3b a5 89 d4 3d 8f 33 b3 bd 2f 3b d0 bd
       0.0034755855 0.10377816 -0.087500684 -0.101675384
0003d0 60 35 9e bc 1a d7 07 3e ed b7 fe bd 8c 2e 9a ba
       -0.01931256 0.13265648 -0.12437425 -0.001176314
0003e0 94 4d d6 3d f7 2b c2 bc f4 57 67 be 7a c3 0d 3e
       0.104640156 -0.023702605 -0.22592145 0.138441
0003f0 32 05 c5 3d 8c 69 82 bd 93 bf b4 bd 1a ee 56 3c
       0.096201316 -0.06367788 -0.088256024 0.013118291

network_body._body_endoder.seq_layers.0.bias f4 [128]
000000 65 d4 e9 3c e7 08 98 bb 65 48 94 bb 9b c5 20 3c
       0.02854366 -0.004639733 -0.0045252317 0.009812738
000010 a3 21 c7 3b 11 b4 62 ba 9c e2 ef bc dd dc 21 bd
       0.006077008 -0.0008648048 -0.02928286 -0.039517272
000020 69 bd 9f bc f0 f7 b5 3b 36 fd 4f bd d6 3c 5e 3d
       -0.019499497 0.005553238 -0.05077859 0.054257236
000030 0d af d5 3b f4 70 95 3b f3 f4 ae bc 48 a7 a3 bc
       0.006521112 0.004560584 -0.021357035 -0.019977227
000040 de ce 0f bc ad 52 d2 3c bc 82 c0 bc c1 b7 7d bc
       -0.008777348 0.025674189 -0.023499839 -0.015485705
000050 4a 91 d6 3c 53 6b 80 bb 65 cb 06 3d 0b b6 16 bd
       0.026192326 -0.003919044 0.032908816 -0.036794703
000060 17 eb 68 3c 4a 0d ad 3c a8 18 97 bc e3 f5 60 3d
       0.014216206 0.0211245 -0.018444374 0.054921996
000070 c2 df db 3a 4a dd ec 3c 3f 0e 14 3c 4b 44 8e 3c
       0.0016775059 0.028914113 0.0090366 0.017366549
000080 64 46 91 bc a9 a8 b6 3c 8c 78 83 3c 54 2f 06 bc
       -0.01773376 0.02229722 0.016048692 -0.008189995
000090 d4 97 94 3c 33 b9 29 bc e9 a7 44 3d d9 76 2b 3d
       0.018138804 -0.010359096 0.048011694 0.04186139
0000a0 8b 4d f6 bc ec 18 6a 3b 18 ee 46 bb 1c 38 0d 3c
       -0.030066272 0.003572042 -0.0030354317 0.008619335
0000b0 51 09 0f 3d ff 92 04 3c dc 21 30 3c 96 08 4a 3c
       0.034920994 0.008091687 0.01075026 0.012331149
0000c0 df a1 3a bc d8 57 06 bd f4 4e 09 3c 04 79 3a bb
       -0.011391132 -0.032798618 0.00838064 -0.0028453479
0000d0 60 41 de bb 59 31 b3 bc 89 6a 97 3c 8e 94 77 bc
       -0.0067826957 -0.021874117 0.018483417 -0.015111102
0000e0 a6 c6 92 bb 3b a2 86 ba 6f e1 ac 3c 82 8d b9 3c
       -0.004479247 -0.0010271737 0.021103589 0.022650484
0000f0 22 82 94 bc 7e b0 a1 bc df a2 27 3c a5 db a3 3b
       -0.018128458 -0.019737478 0.010231703 0.005000549
000100 50 86 bb 3c 65 e8 b4 3b 35 e7 95 bc 7e 08 e4 bc
       0.022891194 0.0055208676 -0.018298725 -0.02783608
000110 9e 37 8f 3c cf 6d 01 bd 27 5e cc 3c 44 69 87 bc
       0.017482575 -0.031598862 0.02494724 -0.016529687
000120 25 a3 84 39 59 90 33 bb c5 30 12 3b e1 b5 f2 bc
       0.00025298554 -0.002739927 0.00223069 -0.029627742
000130 ee 98 12 bc 1d ba bc ba 42 80 eb 3b 6d 24 85 bc
       -0.008947594 -0.0014398728 0.0071869204 -0.01625272
000140 3a 4e 75 bc 8d 48 65 bc b4 9d 65 3b 15 c6 03 3d
       -0.014972264 -0.013994348 0.0035036625 0.032171328
000150 79 09 5b bb 7b 80 c8 3b 3e 02 8c bc d1 73 43 ba
       -0.0033422394 0.0061188317 -0.017090913 -0.00074559177
000160 a5 63 e7 3a 9a 20 8a bc 5d 95 f1 3b 3a 52 aa 37
       0.0017653598 -0.016861249 0.007372542 2.0303869e-05
000170 08 63 88 bc ba 3b 00 bd 4a 0c 0e 3d dc d5 90 3c
       -0.016648784 -0.03130696 0.03467969 0.017680101
000180 3c c2 4f 3b aa f7 09 3b 0f 75 93 3c aa 21 d0 3c
       0.0031701466 0.002105216 0.018000154 0.025406677
000190 e5 61 97 ba 94 c7 33 bc 0f 1a e2 3b cb ed 60 3c
       -0.0011549561 -0.010972876 0.006900079 0.013728569
0001a0 ee 39 b3 bc cc 24 44 3c ed 7d 81 3c d0 09 fa 3c
       -0.021878209 0.011971664 0.015807116 0.030522257
0001b0 30 be 05 3c 87 e4 05 3d 33 ff 85 3c 77 df 66 bc
       0.00816302 0.032688644 0.01635704 -0.014091364
0001c0 03 76 a7 bc 07 7a 43 bc 7e 2d fa 3c 4b 6c a6 bc
       -0.020442015 -0.011930949 0.03053927 -0.02031531
0001d0 78 4e 2a 3d 55 7a b6 3b f6 bc 96 3c e1 4d 74 bc
       0.04157874 0.0055687823 0.01840065 -0.014911146
0001e0 39 f6 02 bd a3 b1 ea 39 4f a6 b8 3c 1d 61 81 bd
       -0.031973097 0.00044764308 0.02254024 -0.06317351
0001f0 fe a1 26 3a a1 58 4e 3c 79 60 72 bb e6 e6 3e bd
       0.0006356536 0.012594373 -0.0036983772 -0.04660692

network_body._body_endoder.seq_layers.2.weight f4 [128, 128]
000000 ec 48 03 be f1 04 43 bd 52 7d 64 3c 34 43 ca bd
       -0.12820786 -0.047612134 0.013945894 -0.09876099
000010 b8 c7 96 3d 08 17 16 3d 87 a2 ff bc 6e e2 98 bc
       0.07362312 0.036643058 -0.031205429 -0.018662658
000020 5f 0e f3 3c d6 57 b5 3d 7b 09 01 bd b0 b8 d8 3c
       0.029669939 0.08854644 -0.031503182 0.026455253
000030 7d 69 78 bd 0e e3 ae bd 38 e9 8a 3d 66 d5 13 be
       -0.060647476 -0.08539401 0.06782764 -0.14436874
000040 64 0a 01 bb 66 4d c1 3d 6c dd 9a 3d fa 8b ec bd
       -0.0019690031 0.09438591 0.07561764 -0.11550136
000050 26 8c aa 3d 24 2e d6 3c 52 39 00 be 3d e2 0c 3d
       0.083275124 0.026145048 -0.12521866 0.034395445
000060 36 2c 01 bd 80 3f 4f 3d ef 9a bc bd 0f 3b fb 3d
       -0.031536303 0.050597668 -0.09209239 0.12267124
000070 f8 ca 6f 3c 18 dc ed 3d 79 f1 54 3b 4b 44 07 bd
       0.014635794 0.11614245 0.0032492562 -0.033024114
000080 1b ee ea bd e9 2d 4c bd 12 bc 8b 3c ff db 0b bc
       -0.11471196 -0.04984847 0.017057452 -0.008536338
000090 cf 8a 38 be 8b aa 1c be 1c 67 04 3d 9e 55 ca bc
       -0.18021701 -0.15299432 0.032324895 -0.024699029
0000a0 e2 64 a2 bc 34 2f d2 3d 26 36 34 3d 36 a6 2c 3c
       -0.019823495 0.102629095 0.043996952 0.010537675
0000b0 b7 f8 2b bc 6d f5 92 bd 7e 97 5b 3d e9 3a 18 be
       -0.01049631 -0.071757175 0.05361127 -0.14866222
0000c0 79 90 72 3c 6a 4d 27 3d 30 7c 44 bd 09 9f a1 bd
       0.014804953 0.040845312 -0.047969997 -0.07891662
0000d0 cd 9d a4 bc d2 5e 4e be 66 16 a2 3d c4 d2 0e be
       -0.020094777 -0.20153359 0.079144284 -0.13947588
0000e0 b9 3f 3c bd 8e 9d 0e 3c b1 0d f2 bc 4c a4 10 be
       -0.04595921 0.008704556 -0.029547544 -0.14125174
0000f0 7a 2b 01 3e c3 f0 56 3e a1 4f d4 3c 84 8c 25 3d
       0.12614241 0.20990281 0.025916876 0.04041721
000100 2b cc 0f be 11 7b 01 3e a5 6d 26 3e 99 0a 38 3d
       -0.14042728 0.12644602 0.16252764 0.04493198
000110 04 ec 0c 3d df 67 53 3d e5 1a b9 bb ef fc b1 3a
       0.03440477 0.05161273 -0.005648958 0.0013579408
000120 ad 3c 00 ba 24 5e 7d bd 17 8d 7d 3d 63 cf 50 3d
       -0.0004891854 -0.061857358 0.061902132 0.05097903
000130 03 1f 76 3d 04 51 82 3d 96 43 b4 3d 94 58 13 bd
       0.06008817 0.06363109 0.088019535 -0.035973147
000140 fe 6d ff bd 8f f9 d8 3d 00 ad 50 3d be 5f 69 3d
       -0.12472151 0.105944745 0.050946236 0.056976072
000150 a3 7a 27 bc ce 9f 9f 3b 90 0b 39 3d 07 ac 36 bd
       -0.01022211 0.004871345 0.045177042 -0.04459765
000160 ce 08 10 be 13 2d 41 bd 3f 90 5d 3d 1d d9 8f 3d
       -0.14065859 -0.047162127 0.054092642 0.07023833
000170 be 1a 3b bd 8b a6 38 bd 32 7c 07 3e f6 ce bc 3d
       -0.0456798 -0.045080703 0.1323097 0.09219162
000180 27 c0 85 3d d6 f1 bc 3d 7a 8f f5 3d 8d a0 2f bc
       0.06530791 0.09225814 0.119902566 -0.010719431
000190 be e2 02 3e b1 33 de bd 37 5a c3 bd 4e 16 8f bd
       0.12781808 -0.10849703 -0.095386915 -0.06986676
0001a0 37 59 60 3d c8 02 a2 3d 9a ad c8 bc 79 d3 60 bd
       0.054772582 0.07910687 -0.024496842 -0.054889176
0001b0 79 0a 73 3d 0c a9 e3 bd 7a 7c 89 bc 4d 0d 18 bb
       0.05933616 -0.111162275 -0.016782988 -0.0023201287
0001c0 92 83 de bc 8d ba e4 3d 35 43 fc bc 09 f5 9b 3b
       -0.027162347 0.11168394 -0.030793766 0.004759435
0001d0 a2 da a9 3d f6 67 cd bd 67 8d 0f bb 40 b3 8b 3d
       0.08293654 -0.100295946 -0.002190435 0.068212986
0001e0 0e db 53 bd 37 d6 af bc db 39 5b bd fd 1a 0f 3e
       -0.05172258 -0.02146445 -0.053521972 0.13975139
0001f0 ad 0e 91 bd f5 38 3d be db 3c bd 3d 55 1a ff bd
       -0.07082877 -0.18478759 0.09240123 -0.12456194
000200 73 a5 36 bd 28 79 05 be 34 97 60 bb 55 f7 92 bd
       -0.04459138 -0.13034499 -0.0034269812 -0.07176081
000210 dd f1 ee bc 72 f9 1d 3e fb db 60 3d af d3 3b 3d
       -0.029168064 0.15427187 0.05489729 0.045856174
000220 ca 75 6c bd d1 32 d2 bc 8c 95 d3 bd 96 04 03 be
       -0.05772952 -0.025658997 -0.10331258 -0.12794718
000230 02 72 2c be dc d7 9a 3d 1d a4 5b bd 34 f3 cb bd
       -0.16840366 0.07560703 -0.053623307 -0.09958497
000240 28 ee 6c bd 9f c2 11 3d c9 43 83 3d 57 73 34 3e
       -0.05784431 0.035585996 0.06409413 0.17622124
000250 c4 30 62 bd f6 a3 15 be 66 07 c4 3b f4 85 62 bc
       -0.055222288 -0.14613327 0.0059823273 -0.013825882
000260 f8 27 ff 3c 70 6b 5a bd e5 da 7f bd 60 a7 33 3d
       0.031146988 -0.053325117 -0.062464613 0.043860793
000270 07 52 66 bd c8 1e 06 3e 10 8b 70 3b 35 b8 72 bd
       -0.05623057 0.1309768 0.0036703981 -0.059257705
000280 57 a5 97 bd 03 46 9e bd 79 0a 02 be 7c e9 67 be
       -0.07404583 -0.077281974 -0.12699308 -0.22647661
000290 8e 20 bb bc 29 bc ff bc d1 78 9a bd f1 a3 82 3c
       -0.022842672 -0.031217651 -0.07542575 0.015947314
0002a0 2c 75 dd bc 3e 76 86 bd fc 72 aa bd f4 84 68 be
       -0.027033411 -0.06565522 -0.08322713 -0.22706968
0002b0 75 47 72 3d 25 5f e2 3d 13 46 40 3d 18 c3 01 3e
       0.059150178 0.11053304 0.046941828 0.12672079
0002c0 6b 85 1c be f3 d8 8c 3d f4 8c f2 3b 22 d8 a6 bc
       -0.1528527 0.06877317 0.007402057 -0.020366732
0002d0 df d5 9a 3d 9f 8d 27 3c 3c 98 1d bd dc 5c 80 bd
       0.07560324 0.010226636 -0.03847526 -0.062677115
0002e0 91 69 a6 bc 44 c7 07 bd 51 e8 41 3b 04 09 87 3d
       -0.02031401 -0.03314902 0.0029587934 0.065935165
0002f0 55 de 96 3d 7a c7 2a 3d 10 bf 2c 3d d8 3c 3f bd
       0.07366625 0.041694142 0.0421744 -0.046688884
000300 a0 d3 12 3e 8e 05 ec ba 6a f7 d1 3d 03 1f 3d be
       0.14338541 -0.0018007027 0.102522686 -0.18468861
000310 a3 60 d1 bd a5 e1 ab 3b f3 26 ad bd a9 2b 2e bd
       -0.1022351 0.005245405 -0.084546946 -0.042522106
000320 ad 18 bb 3d 27 a2 92 bc a9 27 07 3e fa 3b 16 bd
       0.09135566 -0.017899586 0.13198723 -0.03667829
000330 a5 42 9f 3c e4 d0 7b 3d f9 b2 ec bd 92 87 d8 3d
       0.019440958 0.06147851 -0.11557574 0.10572733
000340 70 f5 5c bd 0a aa bc bd b1 7c f9 bd 5f 0a a6 3c
       -0.053945005 -0.0921212 -0.12181986 0.020268617
000350 6f ed 4a 3a 36 0d 17 3d 50 7b 3e 3d 6b 9d 92 bd
       0.0007741069 0.036877833 0.04650432 -0.07158931
000360 36 ef 42 3c f5 12 92 3d 93 b2 a3 bd f1 ac bc bd
       0.011897853 0.07132522 -0.07993045 -0.092126735
000370 7a ba d7 3d 9c 54 a0 bd 72 5d 68 bd ab e5 f4 bd
       0.105336145 -0.07828638 -0.05672974 -0.11957868
000380 23 3e aa 3d 86 87 ce bc 73 ac 0c 3e 1e 1e bb bd
       0.08312633 -0.025211107 0.13737659 -0.09136604
000390 3b f4 cf bc f1 7f d6 bd 29 dc d3 bd 9d bc b8 bc
       -0.025385013 -0.10473622 -0.103447266 -0.022550875
0003a0 9c 78 fa bd 70 bf a4 bd 53 59 10 be 77 79 fc ba
       -0.12230036 -0.08044326 -0.14096574 -0.0019262274
0003b0 b8 e9 c6 3d 71 32 c5 bc 05 99 ce 3d 25 0b be bc
       0.09712547 -0.024071904 0.1008778 -0.023198674
0003c0 4c fd 89 3c 93 da 8d 3c 5c ef 42 3b d4 d4 78 bd
       0.016844414 0.017316138 0.002974472 -0.060749844
0003d0 a8 32 b6 bd 82 c7 3d 3d 22 76 cb 3c 3b 3a 5d bd
       -0.08896381 0.046332844 0.024836604 -0.05401061
0003e0 d6 63 03 be 4d cd 0e be c9 64 49 be 9f 95 50 bd
       -0.12831053 -0.13945504 -0.19667353 -0.05092394
0003f0 e3 e7 e4 3d 64 97 1c be 41 c8 fc bd 05 c7 a4 3c
       0.111770414 -0.15292126 -0.12342883 0.020114431

network_body._body_endoder.seq_layers.2.bias f4 [128]
000000 1c 19 a0 3c 84 2e bc bb 84 63 59 bc dc 61 92 bb
       0.019543223 -0.00574285 -0.013268355 -0.004467232
000010 35 05 fc 3c 2c e0 17 bc 82 43 18 3c 3f 7a b2 3b
       0.030764202 -0.009269755 0.009293439 0.005446702
000020 89 48 97 bc c8 5a 14 bc 79 2c 01 3d dc aa 35 3c
       -0.018467205 -0.009054847 0.031536553 0.011088099
000030 10 d3 cb bb 43 3d 9f bc 6b 03 43 bb 2d ec ae bc
       -0.006220229 -0.019438392 -0.0029756676 -0.021352852
000040 8e 52 7a 3c 3c 28 99 3c 1b 12 26 3d 62 3c 1f 3c
       0.015278472 0.018695943 0.04054461 0.009718986
000050 74 2f a1 bb 42 8c fd bc 97 9a c2 bc 86 9c c1 3c
       -0.004918987 -0.03095067 -0.023755355 0.023634207
000060 6a 8a 92 bc da 59 cc bc 78 05 22 bd 64 35 85 3b
       -0.017888267 -0.024945188 -0.039555997 0.0040652025
000070 76 44 2b 3d e5 ca 87 bb c1 9f b3 bc 46 95 9e bb
       0.041813336 -0.00414406 -0.021926763 -0.004839572
000080 02 c4 3c 3c d7 01 29 bd 83 4e 40 bc 05 3e 2a bd
       0.011521341 -0.04126152 -0.011737469 -0.041563053
000090 94 40 78 bc 40 2b 12 3b ce 6d 08 bc d8 e5 bc bb
       -0.015152115 0.002230361 -0.008326961 -0.005764704
0000a0 7f 8a 3f 3a b3 b1 e9 bc e1 07 1f bc b7 7c 02 3d
       0.00073067093 -0.028527116 -0.009706468 0.03185722
0000b0 90 28 85 bc 27 07 e7 bc 03 06 d2 3c 1c 6f 5a bc
       -0.016254693 -0.028201653 0.025637632 -0.013332155
0000c0 62 6a 13 3b 65 12 a1 bc 54 a4 17 3c 07 a8 3f bc
       0.002249383 -0.019662092 0.0092554875 -0.011697776
0000d0 98 a5 cc 3b 86 14 04 3c ac bb 79 3b f6 bd 84 bc
       0.0062453263 0.008061534 0.0038106246 -0.016203862
0000e0 ae 03 d8 b9 4f e2 ba 3c cf 14 87 bc 8e 6e e4 3c
       -0.00041201472 0.02281299 -0.016489414 0.027884748
0000f0 4d e8 fc b6 40 24 bb bc f5 63 8d 3c 04 af bd 3c
       -7.5372286e-06 -0.022844434 0.017259577 0.023154743
000100 0f 95 df bc 68 a8 01 bc 7b 1a a1 3c 4f ac 92 3c
       -0.027292756 -0.007913686 0.019665947 0.017904429
000110 98 11 e2 3c 2b 50 4d 3c 9f c7 cd bb 0e 61 c5 bb
       0.02759628 0.012531321 -0.0062799 -0.0060235327
000120 a9 c3 05 bb 4a 98 75 bc a2 96 66 bc ad 5e d7 bc
       -0.0020410812 -0.014989922 -0.014074 -0.026290262
000130 e5 05 95 3c 39 bd 69 bc c2 4c 1b bd 91 aa a2 bc
       0.018191287 -0.014266306 -0.037915 -0.019856723
000140 83 0f 07 3d 0f cb be 3b 68 d8 47 3c fa b1 f5 bb
       0.032973778 0.0058225463 0.012197591 -0.007498023
000150 74 66 95 bb b7 60 08 38 e8 f5 c6 3a f6 b4 18 3c
       -0.0045593325 3.2515e-05 0.0015179487 0.009320488
000160 8f 6b 18 bd dc 7e 04 3d ea e6 e1 3b 9b b0 98 bc
       -0.03721195 0.032347545 0.006893982 -0.0186389
000170 9e fe 7a bc 70 76 87 bc 08 75 1f bc 44 fd e7 3b
       -0.0153194945 -0.016535968 -0.009732492 0.007079752
000180 6b 89 bd ba 6c 43 04 bd ac 2f 31 bc 82 90 83 bc
       -0.0014460509 -0.03229086 -0.0108145885 -0.016060118
000190 30 04 76 3c ad 9b 97 bc 91 4d 39 bc 15 df 16 bc
       0.015015647 -0.01850685 -0.011309997 -0.00920846
0001a0 42 11 82 bb 2c 0c 9e bb 64 dd 96 bc 58 1f 01 3c
       -0.0039693424 -0.0048232283 -0.018416114 0.007881008
0001b0 96 23 f7 3c 44 c6 ba 3b f3 3d 89 bc 11 7f a9 3b
       0.030168336 0.0056999046 -0.016753173 0.005172618
0001c0 05 18 95 3b 15 34 10 bc 2a ae bc 3c af 5b 66 3c
       0.0045499825 -0.00880148 0.023032267 0.014059945
0001d0 f8 42 29 ba cd 87 d1 bc b8 7e fd bb 6d db 07 3c
       -0.00064568175 -0.02557745 -0.0077360533 0.008292061
0001e0 c8 0d b6 ba aa 90 96 bc b1 a3 15 bd c3 80 53 bc
       -0.0013889605 -0.018379528 -0.03653306 -0.012909117
0001f0 39 57 39 3c 3c 21 5d 3c 50 da 40 bc b7 88 32 bc
       0.011312299 0.013496693 -0.0117708 -0.010896853

action_model._continuous_distribution.log_sigma f4 [1, 4]
000000 93 de 94 be 66 eb 76 bf 01 45 25 be eb 15 d8 bd
       -0.2907606 -0.9645294 -0.16139604 -0.105510555

action_model._continuous_distribution.mu.weight f4 [4, 128]
000000 be 3f a1 3d a1 94 98 3d 5e 5a d4 bc 8f 99 b5 3c
       0.07873486 0.07450224 -0.025921997 0.022167949
000010 d5 9c 92 bc 45 38 eb bc 69 58 b4 3c 79 ad a1 bd
       -0.017897049 -0.028713355 0.022014813 -0.078944154
000020 94 9e 18 3d 9f a9 5b bd 31 a0 e2 3d 76 b6 26 3d
       0.037260607 -0.05362856 0.1106571 0.040701352
000030 80 07 44 3d f8 1a 0b 3e 0a f2 83 bd c2 58 09 3d
       0.047858715 0.13584507 -0.0644265 0.03353191
000040 5a fe bc 3d d2 31 b0 3d 80 3e 52 3c 07 d0 80 bc
       0.09228201 0.086032525 0.012832284 -0.015724195
000050 16 91 bd bd 53 03 d3 3c e5 dd 93 3d bc cf df bd
       -0.092561886 0.025758421 0.072200574 -0.10928294
000060 4a eb 34 3d ce 83 de bb 27 67 7f bd 0f 08 05 3c
       0.0441697 -0.0067906147 -0.062354233 0.008119597
000070 21 65 c7 3c ba 0e b7 3d 31 46 57 3c b2 dc 19 3d
       0.024340214 0.08938356 0.0131392935 0.037563987
000080 f8 c0 f6 bc c4 ff f3 bd 41 ff 0e 3e 2a e8 78 bc
       -0.030121312 -0.11914018 0.13964559 -0.015192071
000090 e2 62 82 bc 04 a7 8b bd 44 55 77 3d ce 10 a1 bd
       -0.015916292 -0.06818965 0.06038405 -0.07864533
0000a0 17 3d 24 bc 81 02 61 bd 61 46 46 bd f2 3c 6f bc
       -0.010024331 -0.05493403 -0.048406962 -0.014601933
0000b0 2a f5 a1 3d 49 d8 02 be 8c 17 75 bd 74 43 6f bb
       0.079080895 -0.12777819 -0.05983691 -0.003650871
0000c0 c1 2f a4 bb 43 44 5d bd 7d e8 cc 3d 1b b7 ca bb
       -0.0050105755 -0.054020178 0.10005281 -0.0061863787
0000d0 4d e1 f1 3c 77 78 c1 bd 6c c9 c6 bd 0a aa f7 bd
       0.029526377 -0.09446805 -0.09706387 -0.12092979
0000e0 61 f2 5a bd 70 d1 40 3d bf 71 b3 bc fd 45 a5 bc
       -0.053453807 0.047074735 -0.021904824 -0.020174975
0000f0 1c b0 d9 3c c8 06 60 bd 30 44 be bd a8 3a 79 bd
       0.026573233 -0.054693967 -0.092903495 -0.060846955
000100 fa 54 4b 3d 5d 55 2b be 24 aa 2c 3d a4 3f 71 3d
       0.049641587 -0.16731782 0.042154446 0.058898583
000110 ea 80 b0 bd 37 2d 9b bd fe c7 97 3d 54 eb d9 bd
       -0.086183384 -0.075769834 0.07411192 -0.106405884
000120 56 24 e0 bd 5d 4c 80 bd 4c 97 c8 bd 91 1b d3 3d
       -0.109444305 -0.06264565 -0.097944826 0.10307992
000130 16 90 04 bd 1c c8 db bd 07 cf 8d 3d fc 64 38 3d
       -0.032363974 -0.10731527 0.06924253 0.04501818
000140 ce 2f 36 3d 4a 12 cd bb 7a 81 d7 3c d5 ae a9 3d
       0.044479184 -0.0062582837 0.026306856 0.082853
000150 2a 0f 99 3d 1d 13 ed 3d c7 ba 97 3d 68 7b cb 3d
       0.074735954 0.11575911 0.07408672 0.09935647
000160 35 65 d3 3c f1 9c e3 bc 15 94 16 bd 25 44 8d 3d
       0.025805095 -0.027784796 -0.036762316 0.06897763
000170 40 d4 85 3d e0 c5 72 3d 3d 09 f5 bb 8e cf d4 3d
       0.06534624 0.05927074 -0.007477908 0.103911504
000180 a4 a8 c3 bb a1 23 ea bd fc da d3 3d a2 c6 05 be
       -0.0059710313 -0.11432577 0.10344502 -0.13064054
000190 22 a2 b9 bb 44 ff 9c 3a a5 a3 b4 3d 09 15 ba 3c
       -0.0056650797 0.001197793 0.08820275 0.022715108
0001a0 90 7c 3c 3d 86 23 ec bd 2f 8f ac bd ac 1a ec bc
       0.04601723 -0.11530213 -0.084257476 -0.028821312
0001b0 08 d3 e0 bd b7 b0 96 3a 80 36 f9 bb cc 3c ee bc
       -0.10977751 0.0011496757 -0.007605374 -0.029081725
0001c0 10 ff f5 3d f4 1b 96 3d d6 68 3d 3d 59 84 ab bd
       0.1201154 0.073295504 0.046242557 -0.08374853
0001d0 5e 7f 97 3d 4b 03 20 3e 12 13 08 bd 1d 6a 8f 3d
       0.0739734 0.15626256 -0.033221312 0.070026614
0001e0 cc b7 41 bd 91 9d e7 bc 99 4f f5 3d f0 50 0e 3d
       -0.047294423 -0.028273376 0.11978073 0.034745157
0001f0 4c 3c 9d bd 4d 24 1d 3d e3 b7 97 3d 35 f4 db bd
       -0.07677516 0.038364697 0.074081205 -0.10739938
000200 07 3f 76 bc 37 b6 91 3c 0e d8 2e 3d c7 0d ad bc
       -0.015029675 0.017787082 0.042686515 -0.021124734
000210 03 85 95 3c e9 50 e4 3c 63 6e 5d 3d 9b b8 a2 3b
       0.018251901 0.027870612 0.05406035 0.0049658543
000220 d0 cc 46 3d 1c 49 c0 3c e6 3d ee bc c9 3b c5 3d
       0.04853517 0.023472361 -0.02908225 0.09630544
000230 b9 b2 04 3d 9c dc e7 bc a5 87 57 3d 66 8d 95 bc
       0.032397006 -0.028303437 0.052619595 -0.0182559
000240 2b 58 02 3d cf 44 fc 3b 2d 4d 06 3d 24 2f 36 bc
       0.031822365 0.0076986323 0.032788444 -0.011119638
000250 ab f0 0b 3d 8d ee e9 ba 3b dd f7 3c 0e c1 2c 3d
       0.034165066 -0.0017847583 0.030256858 0.0421763
000260 f7 d0 85 bc c1 9a 0d bd 68 af 33 bd f3 7f 8b 3c
       -0.016334994 -0.034571413 -0.043868452 0.017028784
000270 c9 e5 e4 3c 4a 7c 8d 3c 70 9e bc bc 16 8d 96 3c
       0.027941601 0.01727118 -0.023024768 0.018377822
000280 07 6e 49 3d 21 74 08 bd ec e8 97 bc d2 72 29 bd
       0.049177196 -0.033313874 -0.018543683 -0.041369267
000290 25 cd a7 bc 09 63 75 3b a1 aa cc 3a 71 39 0b bc
       -0.020483563 0.0037443063 0.0015614816 -0.008497582
0002a0 14 29 30 3d c0 18 16 3c 6f c6 37 bd f5 26 54 3d
       0.043007925 0.009161174 -0.044866975 0.051794965
0002b0 34 19 f1 3c 6d df 9e 3c 4c ab 9d 3b 75 2e 82 3d
       0.029430963 0.019393647 0.00481168 0.06356517
0002c0 4b 7c 2e bd 0a 7a 32 3d 67 92 e8 3a 07 f4 29 3d
       -0.042599004 0.043573417 0.0017743827 0.04149249
0002d0 25 62 81 bd 05 af 4f 3c d1 e1 09 3c 35 f2 be bc
       -0.06317548 0.012676005 0.008415655 -0.023308853
0002e0 b1 c8 e0 bb df 1f 5d bc 22 fb 06 3c 08 bb c7 3b
       -0.006859862 -0.013496368 0.008238586 0.006095294
0002f0 7c 33 eb bc 0b 80 05 3c af c2 06 3d 53 d0 f3 3c
       -0.028711073 0.008148204 0.03290051 0.029762423
000300 ea 00 a4 3c b8 1c 16 3b 06 40 ad bc db 0a b8 3c
       0.020019967 0.0022905301 -0.021148693 0.022466114
000310 c2 01 9a 3b 5d e1 9b bc ac 4d 90 ba 69 f9 bd ba
       0.0046999166 -0.01902836 -0.0011009476 -0.0014493886
000320 ab 13 03 bc f1 26 3f bb 9c 3f a8 bc e3 67 ec bb
       -0.008000295 -0.0029167498 -0.020538144 -0.0072145327
000330 fa 5f 40 3c 2d 0e 53 3c 74 41 1d 3d dc 94 ea 3c
       0.011741633 0.012881798 0.0383925 0.028635435
000340 8d 21 97 3c 4d 22 6a bc 65 7d 06 bd bf 12 e8 bb
       0.018448615 -0.0142904045 -0.03283443 -0.007082313
000350 ff 28 83 3b f4 c9 1e bd 24 b4 da bb 78 0c a0 3c
       0.00400269 -0.038766816 -0.0066743065 0.019537196
000360 f7 c1 8f 3c 13 e0 29 bd e4 05 9a 3b f2 c1 e2 bb
       0.017548544 -0.04147346 0.0047004092 -0.0069200927
000370 f9 89 00 3d 1c 22 23 3d 2f 46 fe 3b 4a 6e 73 bc
       0.03138158 0.03982745 0.0077598314 -0.014857838
000380 a9 f4 0e bd a3 00 50 bc e3 48 22 3c f7 fe 64 bc
       -0.034901295 -0.012695464 0.009905073 -0.013976804
000390 25 5e 72 3c 12 5e 6e bd b0 e6 76 3c 23 89 0d bb
       0.014792954 -0.05819518 0.015069649 -0.0021596632
0003a0 aa 77 93 3c 1a d5 12 bc f4 05 30 3b 68 b7 3e 3d
       0.018001396 -0.00896194 0.0026859017 0.04656163
0003b0 a5 3e 2e 3c 68 86 99 bd 44 9b 50 3c d3 8c 33 bc
       0.010635053 -0.07496339 0.012732331 -0.010958868
0003c0 cc a3 20 3b 27 0c c4 bc ab af 81 bc d2 60 73 3a
       0.0024511693 -0.023931576 -0.015830835 0.00092841417
0003d0 34 e3 4c bd 3b 24 f2 3b 22 09 87 bc 4e 02 b7 3c
       -0.050021365 0.007389573 -0.016483847 0.022339966
0003e0 7c 19 d8 bc f2 67 38 bc 0f 39 0e 3b 7f 0f dd 3c
       -0.02637934 -0.011255251 0.002170149 0.026984928
0003f0 e3 66 44 3d eb 22 2c 3d 34 d1 95 bc ea f1 dc 3b
       0.047949683 0.042025488 -0.018288232 0.0067427056

action_model._continuous_distribution.mu.bias f4 [4]
000000 cd 8f 88 3d 20 e0 a6 bb 6b df 34 bc 14 7f d1 3c
       0.06668053 -0.0050926358 -0.011039595 0.02557329

onnx::LSTM_100 f4 [1, 512, 128]
000000 ae a2 b7 bd 16 81 69 bd 93 89 d0 bd 65 e3 e7 3d
       -0.089665756 -0.05700787 -0.1018249 0.11322669
000010 cf d1 03 3d 3a b8 79 bc db 8a c4 bd db b2 22 bd
       0.03218251 -0.015241677 -0.09596797 -0.03972135
000020 29 18 bd bd dd 0a 15 3e a0 98 c7 3c 7e bb 08 3e
       -0.09233124 0.14554925 0.02436477 0.13352773
000030 60 dd b6 3c 41 3f 76 3c f3 0a 05 be bf 68 48 bd
       0.022322357 0.015029729 -0.12992458 -0.04892802
000040 b4 5f d9 3d 72 30 94 3c 3c 11 9b bd 6a d0 4e 3d
       0.10613957 0.018089507 -0.075716466 0.050491728
000050 7f 38 23 3e 9c 86 ae bd a5 7f 1e bd a0 e6 40 3d
       0.1593952 -0.085217685 -0.03869595 0.04709494
000060 e9 5f 60 3c 75 eb eb 3c c3 8e 3c 3e c1 9b ee bd
       0.013694742 0.028798798 0.18413834 -0.116508015
000070 41 ed 07 be f5 47 c7 3c 84 d5 75 3d f5 e5 db 3d
       -0.13274099 0.024326304 0.060018077 0.1073722
000080 00 bc dd bc c5 c2 bf 3c af fc 6d bd 37 13 45 bd
       -0.027067184 0.023408303 -0.058102306 -0.048114028
000090 5f 35 3e 3c 65 9e 28 3c aa 2b 49 bd 07 ba 09 3e
       0.011609404 0.01029167 -0.049113907 0.1344987
0000a0 e2 e4 00 3d dc 3c 22 3e c2 6e 26 3e 1f 6c 23 3e
       0.03146828 0.15843529 0.16253188 0.15959214
0000b0 48 68 0b 3e 86 03 a4 3d 1a a0 d8 bb 45 60 ad bd
       0.13613999 0.080084845 -0.0066108825 -0.084656276
0000c0 a0 86 13 3d a9 b7 20 3e 10 ce 19 3e dc 3d d0 bd
       0.03601706 0.15695061 0.15020013 -0.10168049
0000d0 c3 dd 1f 3d 78 3c 20 be 0c b8 4a 3e 48 5d 08 3e
       0.039029848 -0.15648067 0.19796771 0.13316834
0000e0 a1 eb b2 3d 3b e9 d7 3c 7b 58 aa bd 46 53 0b be
       0.08736349 0.02635633 -0.083176576 -0.13605985
0000f0 a2 8f 30 3e e4 70 09 3e d6 71 17 be eb 0a d4 bd
       0.17242292 0.1342197 -0.14789519 -0.10353645
000100 ee cc 09 be 98 2f 7a bc 99 98 23 3e e5 7a 9b 3d
       -0.1345708 -0.015270136 0.1597618 0.075918
000110 9c 99 83 3d 73 b0 43 3d e1 ab 4c 3e 42 72 92 bd
       0.06425783 0.047775697 0.19987442 -0.07150699
000120 ea 9a 2e bd 2a cd 5b bd ba 78 7c bd fe d1 85 3d
       -0.042628206 -0.053662457 -0.06163857 0.065341935
000130 11 ad 31 3e e9 ed c9 bd db cf e0 3d ed 2c a3 3d
       0.17351176 -0.09859831 0.10977145 0.07967553
000140 82 5f 0a 3e 27 2b df bd 70 0e 4d 3e 49 06 8b 3d
       0.13512996 -0.108969025 0.20025039 0.06788308
000150 1d 6d e6 bd 7b a4 88 3c 69 7c 2a 3d f5 b9 a2 3b
       -0.112512805 0.016679993 0.041622553 0.0049660155
000160 10 3d 02 3e 85 b2 22 3d d3 99 0c 3d 49 10 d7 bd
       0.12718606 0.03972103 0.034326386 -0.10501153
000170 a7 35 8f 3d ef 48 0c 3e 30 7e 81 3d 39 a6 07 be
       0.06992655 0.13699697 0.063228965 -0.13247003
000180 5b 05 2c 3d b7 f4 55 bd c0 8c 07 be 8b 0f a3 3d
       0.041997295 -0.05223533 -0.13237286 0.07961949
000190 5a 54 8a 3d 6a 88 82 bd 1a c3 0a 3e c0 f2 7a 3d
       0.0675437 -0.06373675 0.13550988 0.06126666
0001a0 7b ab 61 3d 65 97 38 3e 2d df e6 bd 1e 5e b8 3d
       0.055095177 0.18026502 -0.11273036 0.090023264
0001b0 0e c9 e4 bc 7e d5 cb bd d1 18 b2 bd c5 b9 56 bc
       -0.027927902 -0.0995283 -0.086961396 -0.013105814
0001c0 7f 94 98 bc b3 b5 f2 3d d3 00 87 3d ec bb 05 3e
       -0.018625496 0.118510626 0.06591954 0.13059968
0001d0 61 7f ad 3b e6 30 0c 3e 0d ff 05 bd 5e 94 f7 3d
       0.0052947258 0.13690528 -0.03271394 0.12088846
0001e0 83 8b e0 3a f6 d3 a0 bd 81 c5 f2 bd 80 ab fa bd
       0.0017131421 -0.07852928 -0.11854077 -0.12239742
0001f0 f6 18 17 bd 0c 9d b8 3d ba b8 22 bd f5 fd 1a 3d
       -0.03688904 0.09014329 -0.03972695 0.03783985
000200 73 be d2 bd bc 33 8e bd 45 bb 0a be af da a2 3d
       -0.102902316 -0.06943461 -0.13548 0.07951867
000210 34 7e ea 3c 11 02 fd bd bf f1 73 3c 38 86 10 3e
       0.028624631 -0.1235391 0.01488918 0.141137
000220 00 ed a3 3d b4 ce d5 3d f9 9e 01 3e bd 5f 27 3c
       0.080041885 0.10439816 0.126583 0.010215697
000230 b8 e0 10 be 4e 1b 31 3d 12 b6 16 3e 53 20 8d 3d
       -0.14148223 0.04323893 0.14717892 0.06890931
000240 f3 e3 d9 3d ce 88 37 bd 4a 3d ca 3c 72 03 72 bd
       0.10639181 -0.0448082 0.024687428 -0.059085317
000250 5a 9d e1 bc 71 75 cd bd 36 73 59 3d 56 32 13 be
       -0.027540851 -0.10032166 0.05308839 -0.1437467
000260 ea be df 3d ac 46 16 3e 32 ef 10 bb 65 63 22 bd
       0.10925086 0.14675397 -0.0022115228 -0.03964557
000270 94 3f e3 bb e4 92 c8 bc ed 9a ff bd 6d fd b8 bd
       -0.0069350693 -0.024484105 -0.124807216 -0.09032712
000280 32 50 a0 3c b5 b0 62 bd ec cf c1 3d be 43 4d 3d
       0.01956949 -0.055344302 0.09463486 0.050113432
000290 87 24 62 3c 3c a6 34 3e 0d bd 0a 3c 60 be 80 3c
       0.013802654 0.17641538 0.008467925 0.015715778
0002a0 ff 37 9d bc e1 56 16 bd cd 02 a3 3d ea a5 bf bc
       -0.01919174 -0.036703948 0.079595186 -0.023394544
0002b0 f3 78 c5 bd f1 f3 19 be ae e5 1c be c3 3d ae bd
       -0.0964221 -0.15034463 -0.15321991 -0.08507874
0002c0 eb fc a3 3b 3f 10 06 bc 6e 12 7c bd 58 30 d2 3b
       0.0050045154 -0.008182584 -0.061541013 0.0064144544
0002d0 ac 3a 13 bd af e7 86 3d d2 1d d5 bd 91 03 cd 3c
       -0.035944626 0.06587159 -0.104060784 0.025026115
0002e0 4e 10 9c 3c 29 58 1b be 46 d8 a3 3d 34 08 5c bd
       0.019050743 -0.15170349 0.08000235 -0.05371876
0002f0 d2 7f 8f bd 9b 77 7b 3d 7a c9 db 3d 73 2d da 3d
       -0.07006802 0.06139336 0.10731788 0.106532
000300 e7 ea fc bd c1 b0 82 bd ee d5 52 3d 02 df 31 3c
       -0.123494916 -0.063813694 0.05147355 0.010856392
000310 7f 30 24 3e c8 8f 5c 3e 11 b8 32 3e b6 d4 ef bc
       0.16034125 0.21539223 0.17453028 -0.029276233
000320 2b aa 22 3d 6b 13 0b 3e cd 51 72 3a 26 0a b4 3d
       0.039713066 0.13581626 0.00092437566 0.08790998
000330 c4 1c 02 be 2f d5 17 3e 88 2f 9d bd fb c3 d6 bd
       -0.12706286 0.14827417 -0.076750815 -0.10486599
000340 25 a9 27 3e 74 76 d0 3d 31 a9 99 bd 07 0a 03 be
       0.16373117 0.10178843 -0.07502974 -0.12796794
000350 a0 39 4d bd 61 ea 08 be 72 30 93 bd 51 d0 21 3e
       -0.050103784 -0.13370658 -0.071869746 0.15802123
000360 7f dc 18 be da e2 19 be 53 a5 73 3d f1 22 89 bb
       -0.14927863 -0.15027943 0.059483837 -0.0041850735
000370 df a0 c7 bd 3a 7a cc 3d ec 4e 16 3d 4c 3c 35 3e
       -0.097474806 0.0998425 0.03669636 0.17698783
000380 b1 2c 80 3c 40 37 c8 3c be 59 bc bd 03 1c ad 3d
       0.01564631 0.024440408 -0.091968045 0.084526084
000390 c0 6b 93 bd 6c 1d 89 bd c0 07 fb 3c 23 e3 47 3d
       -0.07198286 -0.06695065 0.030643344 0.0488006
0003a0 8a 71 1a 3e d3 db 7a bd bc 45 e1 bd 9e d3 c5 3d
       0.15082374 -0.061244797 -0.10999629 0.096595034
0003b0 64 a8 17 3e c8 51 7c bd 25 f5 03 3e 87 d7 ed 3d
       0.1481033 -0.06160143 0.12886484 0.11613374
0003c0 d4 d5 31 3d 4f b3 f7 bd a1 63 c3 3c 0f dc 65 bc
       0.043416813 -0.12094747 0.023851218 -0.014029517
0003d0 99 73 22 bd e6 96 53 bd a0 0e 82 3d 7f 7d 31 be
       -0.039661024 -0.05165758 0.06350446 -0.17333029
0003e0 5f 00 91 3d 0b 50 e1 bd b3 ec 7e bd 53 e9 0b 3e
       0.07080149 -0.11001595 -0.062237453 0.13663225
0003f0 9c 1e cc 3c 83 d5 e7 bb de e9 0f be 2c 50 b8 3d
       0.02491694 -0.007075013 -0.14054057 0.089996666

onnx::LSTM_101 f4 [1, 512, 128]
000000 ec 6e 0c be 7e af b1 3d 04 bd b8 bd 68 e0 f6 bd
       -0.13714188 0.086760506 -0.09020427 -0.12054521
000010 b8 69 5f 3d b4 f5 fe 3d 4d 85 34 bd e2 b1 16 bd
       0.05454418 0.12449208 -0.044072438 -0.036790736
000020 1e 13 28 3d 2a 42 fe 3d c0 b6 66 3c 86 90 d5 3c
       0.041033857 0.124149635 0.014081657 0.02606989
000030 da 03 1a bd b2 0b 3e 3e 49 fe e6 bc 7d 4c 4a bd
       -0.03760133 0.18559149 -0.028197424 -0.04938935
000040 5d 94 9c bd b1 7c dd bd 97 9a 24 bd 72 00 3b 3d
       -0.076454856 -0.108147986 -0.04018649 0.04565472
000050 d2 85 cd bd 2f cf 31 3e cb 3b 2a bd 3f 9d 5b bd
       -0.1003529 0.1736419 -0.04156093 -0.05361676
000060 e3 0d 98 bc 91 87 b2 bd 18 57 b4 3d 60 61 89 bb
       -0.01856131 -0.087172635 0.08805674 -0.004192516
000070 2b b9 16 be 35 50 06 be ce a8 b7 3d 92 b4 ba bd
       -0.14719073 -0.13116534 0.08967744 -0.09116472
000080 67 0d c3 3d 40 23 0b 3d bc f9 fd 3d 55 6b ea 3b
       0.09524041 0.033969164 0.12401149 0.0071539083
000090 c0 fc f0 bc 00 02 8f bd f9 8a ad bd 00 18 ae bd
       -0.029417396 -0.06982803 -0.084737726 -0.085006714
0000a0 ef ec 13 bd 79 fe 75 3d 5a 6e 0e 3e f7 35 08 3e
       -0.03611463 0.060057137 0.13909283 0.13301836
0000b0 87 45 0a be 7a 63 06 3e a0 76 bf 3d b5 d3 a2 bc
       -0.13503085 0.13123885 0.09348798 -0.01987634
0000c0 3e df 9a bd bc 61 31 3d ed df 20 3e 6e 91 40 be
       -0.07562111 0.043306097 0.15710421 -0.18805477
0000d0 ba 2c 7e bd 40 9a e9 3a 33 b6 3a 3b 5e b2 d1 bd
       -0.062054373 0.0017822459 0.0028489947 -0.10239099
0000e0 39 b2 83 3c 86 02 c4 bd 6f e5 0c be c4 c1 9c 3c
       0.016076194 -0.09570794 -0.13759397 0.019135363
0000f0 6d b0 dd bd 51 1b f7 3d bb 74 cb 3d d2 8c 1a be
       -0.10824666 0.12065757 0.09934374 -0.15092781
000100 f8 d6 50 3e 54 4c 85 3a 75 a4 b3 bd a4 ab 4e 3d
       0.20394504 0.0010169842 -0.08771602 0.050456658
000110 59 22 9f 3d 8a f8 ea bc e2 4d 02 3e 8e 8b 02 be
       0.07770223 -0.028682966 0.12725022 -0.12748548
000120 85 d1 7e 3d 09 c4 e8 3d c6 e3 17 3d fa e5 9e bc
       0.062211532 0.11365516 0.037082456 -0.01939677
000130 de 77 d4 bd 86 14 66 3d 8f 6d 76 3b 23 91 00 be
       -0.10374425 0.056171916 0.0037601923 -0.12555365
000140 cf fa 74 3c 13 0d 1a 3d 45 bb 75 bd e8 ce 1a 3e
       0.014952376 0.037610125 -0.059993047 0.15117991
000150 ab dd 0f 3e 93 77 c0 bd 30 8f 00 bd 7f 73 00 3d
       0.14049403 -0.09397807 -0.031386554 0.031360146
000160 71 3e c3 bd b0 5f cb bc 27 bc b5 ba 61 da 69 3a
       -0.09533394 -0.0248259 -0.0013865278 0.00089207856
000170 0b 2a c0 3d 63 9c 80 3c 59 2d ff bd 8e 55 67 bd
       0.09383019 0.015699571 -0.12459821 -0.056478076
000180 08 88 2c be 75 99 3b 3d 08 8e 9b bc 4d ee 85 3d
       -0.16848767 0.045800645 -0.018988624 0.06539593
000190 77 3f 07 bd 70 21 24 3e de c3 74 bd a8 bc 38 3d
       -0.03301951 0.1602838 -0.059757106 0.04510179
0001a0 fa 10 04 3d ea 80 a7 bd e7 ca eb 3d 6e aa 36 3e
       0.032242753 -0.08178885 0.1151331 0.17838451
0001b0 4a c2 8b 3d 6f 63 fc 3d dc 86 13 3e a0 aa 04 be
       0.06824167 0.12323653 0.14406914 -0.12955713
0001c0 43 f3 f4 3d 93 34 6a bb 17 0f 0a 3e 20 87 c6 3d
       0.11960461 -0.0035736903 0.13482319 0.09693742
0001d0 68 a2 c4 3d e6 34 53 bc 53 c4 82 bd fb 21 84 3d
       0.09601289 -0.01289103 -0.06385102 0.06451794
0001e0 86 2c 07 be e7 4e d8 3d 03 6e 8e bc 8b 25 6a 3d
       -0.13200578 0.105619244 -0.017386442 0.05716471
0001f0 aa 86 c6 bc aa 9b 0a be 87 b9 08 3c f3 c7 75 bd
       -0.024234135 -0.13535944 0.008345014 -0.06000514
000200 23 e9 8e 3d 8b 69 6f 3d 09 67 af bc b7 28 48 bc
       0.06978061 0.058450263 -0.021411436 -0.012216738
000210 c6 cb 27 bd 54 c1 28 3e 30 cb a0 bd 1e 63 c9 bd
       -0.040965818 0.16479999 -0.07851255 -0.09833358
000220 86 63 90 bd 5a 61 0f be c9 47 37 3e a2 6c 8a 3d
       -0.070502326 -0.1400198 0.17898478 0.06759001
000230 00 cd 90 3b 8a 77 fe 3c 65 68 94 3d 18 30 05 bd
       0.004418969 0.03106286 0.07246474 -0.03251657
000240 f5 e3 19 bd d2 b6 cc bc c9 a0 05 bd 58 15 89 bd
       -0.037570912 -0.02498952 -0.03262404 -0.06693524
000250 82 12 e1 bd aa 06 dc 3d f2 7c c6 bd cc 17 4b 3e
       -0.10989858 0.107434586 -0.096918 0.19833297
000260 90 3e df 3d 59 cb 0c 39 c9 a0 6e 3d d4 64 02 3d
       0.10900605 0.00013427193 0.058258805 0.03183444
000270 81 e3 32 bc cd c1 37 be 99 16 67 3c 15 24 31 3d
       -0.010918499 -0.17945023 0.014104509 0.0432473
000280 88 f7 8b bb 0b 87 31 3d 85 d0 1e be f4 7b 64 3d
       -0.0042714514 0.043341678 -0.15509231 0.055782273
000290 5a ea d1 bd 03 27 c6 bd 41 7d 25 3e c5 6b 69 bd
       -0.10249777 -0.0967541 0.16161062 -0.056987543
0002a0 04 43 10 3d 67 3e 2a 3d 78 c9 b3 3a 41 fb e0 bd
       0.03522016 0.041563418 0.0013716659 -0.10985423
0002b0 ba 6d 4f 3d d8 32 20 3d 98 94 d3 3d 38 39 5a 3e
       0.050641753 0.03911099 0.103310764 0.2131089
0002c0 11 2c b3 bc a4 8e 41 3d 24 d8 ca bd 58 37 b7 3b
       -0.021871598 0.047255173 -0.09904507 0.0055913143
0002d0 35 24 18 3d 93 a4 df 3c 33 9f ad bd 73 31 5c bd
       0.037143905 0.027300155 -0.084776305 -0.053758096
0002e0 1f 1d 13 be 54 31 d7 3d 68 79 c7 bd f2 9c 20 3e
       -0.14366578 0.105074555 -0.09739953 0.1568487
0002f0 f6 af 40 bd 99 b7 75 3d cb 28 09 3e 68 d7 55 bd
       -0.04704281 0.059989545 0.13394468 -0.05220738
000300 34 eb 88 bd dc b8 be 3c 7d 28 e9 bd c7 e2 49 bb
       -0.066854864 0.023281507 -0.11384676 -0.0030805336
000310 a7 35 ed bd 19 0d 00 be 0e 77 47 3c 5b a7 f2 3c
       -0.11582499 -0.12504996 0.012174381 0.029620817
000320 60 2e 2c 3c ab 23 d4 bb 49 25 47 3d 19 33 f3 bc
       0.010509104 -0.0064739785 0.048619542 -0.029687451
000330 95 2b c6 3c 22 07 32 3e bf d5 4e bc 3b ee 52 3d
       0.024190703 0.17385533 -0.012624203 0.051496726
000340 26 a8 b7 3d 0e 1d e8 3c e0 c5 2d 3e 4b 2d 10 3e
       0.08967619 0.028334167 0.16970015 0.14079778
000350 1b 8b 9a bd 2c 76 9f bd 24 4a 9a 3d 26 3c c3 3d
       -0.075460635 -0.07786211 0.075336725 0.09532957
000360 55 12 43 be 0a f9 d0 3d ec ab 02 3e e6 bc 5c 3d
       -0.19049962 0.102037504 0.12760895 0.053891085
000370 40 45 18 3d c6 f5 61 3d d5 40 38 be 55 2d c0 3c
       0.037175417 0.05516603 -0.17993481 0.023459116
000380 36 5d 5b 3d c6 15 8a 3c c8 fe b8 3d ed 36 e0 3d
       0.05355569 0.016856086 0.09032971 0.10947976
000390 19 73 03 be 52 16 ae 3d aa 51 01 bd 7e 87 43 3d
       -0.12836875 0.08500351 -0.03157202 0.047736637
0003a0 b3 a6 8e bd 85 7b 90 bd a0 47 51 3c ec be f3 3c
       -0.06965389 -0.070548095 0.012773424 0.029754125
0003b0 c8 80 9a 3d 87 68 f7 3c 91 e3 bb bd db 3f 09 3d
       0.07544094 0.03020121 -0.09174264 0.033508163
0003c0 f8 bf 20 be 91 d8 05 be 6e 61 13 be 33 a0 f7 bd
       -0.1569823 -0.13070895 -0.14392635 -0.120911025
0003d0 1f fc 02 be 2b f8 13 be 15 af b6 3d 46 8b df 3d
       -0.12791489 -0.14450137 0.08920113 0.10915236
0003e0 27 b7 53 3b e2 ae 92 bb 63 ce 99 3d a8 dd a3 bd
       0.0032305212 -0.004476414 0.07510068 -0.08001262
0003f0 4d d2 09 3c de b6 65 bd 96 3d ba 3d 65 cf 79 bd
       0.008411956 -0.0560826 0.09093778 -0.060988802

onnx::LSTM_102 f4 [1, 1024]
000000 d1 a6 f5 3c 4c 0d 80 3d b7 6a 7c 3d 82 eb 05 3c
       0.02998677 0.06252536 0.06162521 0.008173825
000010 2f d2 d2 bc bb 89 57 3c 12 2b 01 3d ea 13 28 bc
       -0.025734989 0.013155396 0.031535216 -0.010258654
000020 14 cc c5 bb 9c b1 65 3d 97 56 8d 3c b9 57 be bc
       -0.006036291 0.056077585 0.017253203 -0.023235189
000030 89 60 0f 3d 04 bb a5 3b cb c8 aa bb 36 0b 2e bc
       0.035004172 0.0050576944 -0.0052119247 -0.01062279
000040 72 2b 70 bb 0f 89 bf 3b 26 b6 08 3c 9b e0 20 3d
       -0.003664699 0.005845196 0.008344209 0.0392767
000050 b3 13 21 3d 7c e0 38 3d 59 e9 c6 bc 6e b5 21 3d
       0.039325427 0.04513596 -0.02428119 0.039479665
000060 9f 9f 89 3c b2 ca 30 3d c4 ab d7 bb 5c 0f 8c 3d
       0.016799746 0.043162055 -0.0065817554 0.06838867
000070 b8 cb a2 bd b1 15 c0 3b 11 ef 9d 3c df 1b 21 bb
       -0.079490125 0.005861961 0.019279035 -0.0024583263
000080 0e 29 18 bc fd 44 d8 3a 0a e4 12 38 67 23 4f bc
       -0.009287132 0.0016500052 3.502149e-05 -0.012642718
000090 20 a6 2e 3d b1 67 6d 3c b8 f1 59 3c 7f 61 00 3d
       0.042638898 0.014490054 0.013302259 0.03134298
0000a0 48 44 ab bc a7 29 a1 bb 27 ca 3f bc 38 eb b5 3c
       -0.020906582 -0.0049182954 -0.011705912 0.022206888
0000b0 37 c2 99 3b a5 61 87 3b 9f fb 7b 3d 88 88 ca bb
       0.0046923417 0.004131513 0.06151926 -0.0061808266
0000c0 45 2e 95 3d 53 c7 a2 bc 68 6c 24 bc 0b 96 6e 3d
       0.07284216 -0.019870436 -0.010035612 0.05824856
0000d0 c3 2d d4 3a 6c ea 54 3d a9 6e 24 3d b8 2a fc bc
       0.0016187954 0.051981375 0.040144596 -0.030782089
0000e0 cd c1 de bc fb 37 16 3d be 6c 8f 3b 99 bc a9 bc
       -0.02719202 0.03667448 0.0043769768 -0.020719813
0000f0 f6 4a 51 3c 70 c1 82 bc a5 c0 8c bc db c3 fa bc
       0.01277422 -0.015961379 -0.017181704 -0.03061097
000100 69 e2 08 3d d7 9c a3 bc 36 a1 23 bb 0d 61 27 3c
       0.033419047 -0.019972248 -0.0024967915 0.01021601
000110 9e f6 09 3d 98 e9 14 bc f3 43 ce bc fa 8b 3c 3c
       0.033682458 -0.009088896 -0.025178885 0.011507982
000120 4e b4 5f bd c8 d1 9c bd 6b a3 29 bc 2b 6d 8c 3c
       -0.05461531 -0.076572 -0.010353903 0.0171419
000130 eb b0 92 3d 55 98 13 bc 35 81 00 3c e2 a8 33 3d
       0.07162651 -0.009008487 0.007843305 0.04386223
000140 c9 78 b9 bc a5 24 7e 3b 3d 6e ae 3b 32 bf f1 3c
       -0.022640603 0.0038779166 0.0053232 0.029510114
000150 35 c6 b3 bc 57 89 21 3c 6b dd 43 3d cb 4c 02 bc
       -0.021945098 0.0098594045 0.047818583 -0.007952879
000160 9c 76 03 3d ea a1 1c 3c 64 35 25 3d eb cb b5 3b
       0.032095537 0.009560088 0.04033412 0.0055479906
000170 07 f7 ca 3c 25 a2 75 bd dc 0d 2f 3b 41 86 06 3d
       0.024775995 -0.059969086 0.0026711142 0.03284288
000180 20 52 26 3b 5f 2b a4 3b f1 e7 90 3b 63 65 10 bd
       0.002537854 0.005010053 0.004422181 -0.03525294
000190 6a 18 e6 3b 98 40 18 3d e6 17 66 ba 14 9a 52 bb
       0.0070219534 0.037170976 -0.0008777365 -0.0032135295
0001a0 be a9 7e bc 91 34 01 bd bd a0 8c 3c f7 df a6 bb
       -0.015543399 -0.03154427 0.01716649 -0.0050926167
0001b0 6f aa 61 bc 3e e2 84 3b 60 ce 66 3d c9 3d 20 3d
       -0.013773545 0.0040552905 0.05634916 0.039121423
0001c0 c2 c3 40 bb 87 33 cb bc cc ab d9 3c 5c bc df 3c
       -0.0029413556 -0.024804844 0.026571177 0.027311496
0001d0 29 00 c1 bc 27 f9 10 bd fa 74 99 3b 11 c0 ba bb
       -0.023559647 -0.03539386 0.004683134 -0.0056991656
0001e0 6e e1 50 3d d3 36 03 3d d4 29 37 3d 01 1d 63 3d
       0.050996237 0.032034706 0.044717625 0.055447582
0001f0 8e 1e 7b bb 82 8b d5 bc 3a 24 26 bd 30 67 b7 bb
       -0.0038317773 -0.0260675 -0.040561892 -0.0055970177
000200 67 ab 2e 3c 63 1a 8d 3d 5c 4a 32 3d f1 76 4a bd
       0.010660983 0.068897985 0.043527946 -0.049429838
000210 9e 9e e9 bc 05 dc 17 3d 8d 25 06 3d 15 bd b7 3b
       -0.028518017 0.03707506 0.032750655 0.005607257
000220 27 eb 5a 3c af 8d 2e 3d 7d e1 ca 3c 66 d1 c5 bc
       0.013361729 0.04261559 0.024765724 -0.0241477
000230 b3 7d 58 bc d9 da 9c bc e5 06 2a 3d 25 8b 1d bd
       -0.013213563 -0.019147323 0.04151048 -0.038462777
000240 a7 32 54 3c c8 89 50 bc 31 37 fa 3c 02 5f 9f 3c
       0.01295153 -0.012728162 0.030543895 0.019454483
000250 a3 b5 62 3c 87 14 ba 3c f5 0c ce ba 8e 62 d7 3c
       0.013837251 0.022714866 -0.0015720414 0.026292112
000260 fe f9 58 3c cf 01 5d 3c 67 ad 21 3c 0a 73 ed 3c
       0.0132431965 0.013489201 0.0098680025 0.028985519
000270 e6 ce bc 3b ab dd 30 bc 1f f3 90 bc 34 83 7c bc
       0.005761969 -0.010795037 -0.017694054 -0.015412141
000280 82 71 16 3d 0b 59 3d 3d 06 6a 4b bd fe 22 84 3a
       0.036729343 0.046227496 -0.04966166 0.0010081229
000290 c7 c2 e4 3c 9f 89 ad bc a8 66 31 3c 47 f9 5b 3d
       0.027924908 -0.021183787 0.010827698 0.053704526
0002a0 00 8f e1 bc cd 93 e7 3c ae 1b b2 3b 88 2d 2d 3c
       -0.027534008 0.02826872 0.0054354286 0.0105699375
0002b0 79 97 99 bb e5 ff a7 3a 45 1e 39 3c 53 3c c6 3a
       -0.0046872464 0.0012817351 0.011298721 0.0015124179
0002c0 f0 04 27 bc 52 a1 47 3c 17 7c f1 3c f7 12 31 bc
       -0.010194048 0.012184458 0.029478116 -0.010807744
0002d0 2b 10 05 3d 7d 25 16 bd 85 02 fb bc d3 d5 f6 3a
       0.032486122 -0.036656845 -0.03064085 0.0018832035
0002e0 e5 cc 25 bd c1 9f 48 3c 4e 81 ee 3c 2b 64 ab 3c
       -0.040478606 0.01224512 0.029114392 0.020921787
0002f0 01 23 33 3c 65 29 ce bb c9 eb 5f bb 3b f1 f2 3b
       0.010933639 -0.0062915557 -0.0034167639 0.007414011
000300 29 2d 13 3d 09 9d 83 bb bb 7a 7f 3b cc f3 cd bb
       0.03593174 -0.004016523 0.0038983065 -0.0062851664
000310 4e 94 e1 3c 34 d0 1c 3b cf a0 aa 3b 17 a2 b7 bc
       0.027536537 0.002392781 0.005207158 -0.022416158
000320 55 0c 5c bd 02 5a bd bb 9b 08 eb bb bd 2a b7 3c
       -0.0537227 -0.005778552 -0.0071726567 0.022359246
000330 cc 66 18 3d 9c 5e dc 3c 35 09 a4 3c 62 c0 01 bd
       0.03720741 0.026900582 0.020023922 -0.03167761
000340 2d 04 d0 bb ab 04 42 3c ff 50 46 bb 38 b2 0e bd
       -0.006348154 0.011841933 -0.003026068 -0.03483793
000350 35 0f ff 3b fb 9a 0c 3c 58 c8 87 3c 7c b9 b3 bc
       0.0077837952 0.008581872 0.016575024 -0.021939032
000360 22 b2 56 3d da df 04 ba 46 52 d5 3c 21 7a d6 bb
       0.052415974 -0.0005068757 0.026040208 -0.0065453206
000370 2e ea d0 bb 06 52 6e 3c d4 84 54 bb 3b ef c9 bc
       -0.0063755726 0.014545923 -0.0032427805 -0.024650207
000380 7a e4 36 3d ba 31 43 37 13 e4 9b 3b 29 2b 38 bd
       0.044651486 1.1634484e-05 0.004757413 -0.044963036
000390 ba bb 51 3d 9e 1a 82 bc b8 89 c4 bc b4 d0 6b 3c
       0.05120442 -0.015881833 -0.02399145 0.01439302
0003a0 21 6c be bb dd 08 21 bd 56 dd 1d 3d f4 a5 d9 3c
       -0.00581123 -0.039315093 0.03854116 0.02656839
0003b0 2f 6d 46 bc 1c fc 0d 3d 7e 25 ae 3c e0 fc 7d 3c
       -0.012110992 0.03466426 0.021258112 0.015502185
0003c0 40 32 8f 3c 3a db d1 bb 29 d1 55 bc 35 8f 92 bc
       0.017480016 -0.0064043077 -0.013050356 -0.017890552
0003d0 c6 72 ef bc bc ff de bc 0c 3c 71 3b 4a de d9 3c
       -0.029229533 -0.027221553 0.0036809472 0.026595253
0003e0 b7 ef b8 bc 3e 47 49 3c f9 b4 e0 3c 33 ee eb b8
       -0.022575242 0.012285052 0.027430044 -0.00011250041
0003f0 a3 96 1b bd 79 74 31 bc d2 df 4c bc 99 df f9 bc
       -0.037985455 -0.010830992 -0.012504535 -0.030502127
