results/DroneAgentGoalRayGG4/DroneAgent/DroneAgent-1171418.pt (torch, 831363 bytes, 44 tensors)

network_body._body_endoder.seq_layers.0.weight f4 [128, 92]
0	0x3d716ac2	0.058939703
1	0xbe3086e5	-0.17238958
2	0xbdbdebab	-0.09273466
3	0x3e5cce2f	0.21563028
4	0x3c88705e	0.016655143
5	0x3db83a50	0.08995497
6	0x3d26b0a1	0.04069579
7	0x3dae0c1f	0.08498406
8	0xbd25cff4	-0.040481523
9	0xbd242c3b	-0.040081244
10	0x3d150652	0.03638298
11	0x3ddb3156	0.107027695
12	0xbe705ad4	-0.23472148
13	0xbde2d85b	-0.11076423
14	0xbdb8bcc2	-0.09020378
15	0xbd6c9618	-0.057760328
16	0xbdf17e14	-0.117916256
17	0x3c4ba5c6	0.01242966
18	0x3e83fcff	0.25778958
19	0xbd979cd0	-0.074029565
20	0x3e0c846e	0.13722393
21	0xbca44edd	-0.020057136
22	0x3cf38057	0.029724283
23	0xbd9d7367	-0.07688027
24	0xbd7b6b04	-0.061381355
25	0x3dcd3e8a	0.10021694
26	0x3e1112ef	0.14167379
27	0x3d682e93	0.05668504
28	0xbdc9db41	-0.098562725
29	0x3c735eb4	0.014854122
30	0x3c58cc06	0.013232237
31	0xbded0be8	-0.115745366
32	0xbd66309c	-0.0561987
33	0x3dd2aa41	0.102863796
34	0xbda60239	-0.08105893
35	0xbcd6437b	-0.026155224
36	0xbd3b5615	-0.04573639
37	0xbdaa1a22	-0.08305766
38	0x3d083799	0.033256147
39	0xbd7cb64f	-0.0616973
40	0x3db21fe0	0.08697486
41	0xbd0f10e8	-0.034928232
42	0x3cd1060e	0.025515582
43	0xbd2dea49	-0.04245976
44	0x3c8fdc6e	0.017561164
45	0xbd6130c5	-0.05497815
46	0xbe3a53ad	-0.18195982
47	0xbd70c7a9	-0.05878416
48	0x3d5d2d46	0.053998254
49	0x3e045274	0.12922078
50	0xbd1207c1	-0.035651926
51	0xbb9367c4	-0.004498454
52	0xbbf82029	-0.007572193
53	0x3cf700f0	0.030151814
54	0x3dcfafe7	0.101409726
55	0x3e224b44	0.15849024
56	0x3dce9dce	0.100886926
57	0xbd1e713a	-0.0386822
58	0x3e1429fd	0.14469142
59	0x3c60d145	0.013721769
60	0x3c39bac2	0.01133603
61	0xbddad81c	-0.10685751
62	0x3d832471	0.06403435
63	0x3e4c1141	0.19928457
64	0x3c4a0b2a	0.012331763
65	0x3e21f45d	0.15815873
66	0xbc702bb9	-0.014658862
67	0xbe764574	-0.24049932
68	0xbe0a2e18	-0.13494146
69	0x3e0e5420	0.13899279
70	0x3d9c2c77	0.076256685
71	0x3d136777	0.035987344
72	0x3cc9adcd	0.024619007
73	0xbe042c81	-0.12907602
74	0x3e640df6	0.2227095
75	0xbdd20d28	-0.102564156
76	0x3d97fb9a	0.07421036
77	0xbc88417e	-0.016632792
78	0x3db22a9b	0.086995326
79	0x3d25d237	0.04048368
80	0xbe33f9da	-0.1757578
81	0x3c87d078	0.016578898
82	0x3dcce3dc	0.10004398
83	0xbda27a12	-0.07933439
84	0xbe4bc4f7	-0.19899355
85	0xbcbf2e3a	-0.023337472
86	0x3ea3ba7c	0.31978214
87	0xbcf684db	-0.030092647
88	0xbdc88ce2	-0.09792496
89	0xbdeb07f5	-0.11476127
90	0xbc07a9d3	-0.008280235
91	0x3e44aa6b	0.19205634
92	0xbd976190	-0.073916554
93	0xbcab739a	-0.020929147
94	0x3db2596b	0.087084614
95	0xbe5dc327	-0.21656476
96	0xbd2bd930	-0.041955173
97	0xbe15ff98	-0.14648283
98	0xbd84e22d	-0.06488452
99	0x3d95d560	0.07316089
100	0x3c1bbebe	0.009505926
101	0xbb286ee2	-0.0025700857
102	0xbd43d035	-0.047805984
103	0xbe49a0da	-0.19690266
104	0x3d9996b0	0.074994445
105	0xbc0c035f	-0.008545726
106	0x3e3fb478	0.18721187
107	0x3d76ff05	0.0603018
108	0xbe05956e	-0.13045284
109	0xbe0fb226	-0.14032802
110	0x3cc6ba29	0.02425869
111	0x3de68177	0.11255162
112	0xbdc4d450	-0.09610808
113	0x3e702cad	0.23454542
114	0xbebeba8c	-0.372517
115	0xbe943ba3	-0.2895175
116	0xbd8358db	-0.06413432
117	0x3df8157c	0.12113473
118	0xbf3189d0	-0.6935091
119	0xbf2e8f3c	-0.6818731
120	0xbdca3ad8	-0.09874505
121	0xbe0c2694	-0.13686591
122	0x3dd3c830	0.10340917
123	0xbe11162a	-0.14168611
124	0xbcf53095	-0.029930392
125	0x3d779037	0.06044027
126	0xbdd1ee2f	-0.10250508
127	0x3b8cbb5b	0.0042947954
128	0x3dab5392	0.08365549
129	0x3e07e3e7	0.13270532
130	0xbe1a83fc	-0.1508941
131	0xbdc95e87	-0.09832483
132	0xbb56fd73	-0.0032804876
133	0x3b0224fc	0.001985847
134	0xbd45f2e3	-0.048327338
135	0xbd860c46	-0.0654531
136	0x3d9959d5	0.07487837
137	0xbcdab749	-0.026698725
138	0xbd941dd6	-0.07232253
139	0xbcecea5e	-0.028920349
140	0xbe4aa3e7	-0.19789086
141	0x3d7bcf60	0.061477065
142	0x3da6b6e3	0.081403516
143	0xbe1a1675	-0.15047629
144	0x3da4f9da	0.08055468
145	0xbd97e08c	-0.07415876
146	0xbdf7c09f	-0.120972864
147	0xbe531a79	-0.20615567
148	0xbc843ff9	-0.016143786
149	0xbe2f4e8d	-0.17119808
150	0xbe01bd62	-0.126699
151	0x3b9f7f3e	0.0048674634
152	0xbe5cd2b6	-0.21564755
153	0x3dfff65d	0.12498162
154	0x3d6361b1	0.055513088
155	0xbe220e6f	-0.15825818
156	0x3e0c7162	0.13715127
157	0xbcbe60ed	-0.023239577
158	0x3ec17690	0.37785769
159	0x3ec6d23c	0.3883227
160	0x3e0701ba	0.13184252
161	0xbe0903f7	-0.13380419
162	0xbe4bb343	-0.19892602
163	0x3e8d6426	0.2761547
164	0xbd8cfdae	-0.06884323
165	0xbe8532c7	-0.26015303
166	0x3cf6880a	0.030094165
167	0x3d009233	0.031389426
168	0xbd6d9dbf	-0.058011767
169	0x3e5fc8ae	0.21853897
170	0xbe4ed7a0	-0.20199442
171	0x3de10d4e	0.10988866
172	0x3de21c4c	0.110405535
173	0xbc6445cc	-0.0139326565
174	0x3e12902a	0.14312807
175	0xbe510704	-0.20412832
176	0x3e12768c	0.14303035
177	0xbe699e28	-0.22814238
178	0xbc94b944	-0.018154748
179	0x3d149d6f	0.036282953
180	0xbbe3b1a9	-0.006948669
181	0xbdcd3e51	-0.100216515
182	0xbeb4d427	-0.3531811
183	0x3f357d72	0.7089454
184	0x3de0269c	0.10944864
185	0xbe44952f	-0.19197534
186	0xbd71491d	-0.058907617
187	0x3d0db09f	0.034592267
188	0xbe586d32	-0.21135405
189	0x3e0ceb89	0.13761725
190	0x3d940929	0.0722831
191	0xbdd54baa	-0.104148224
192	0x3ddfe325	0.10931996
193	0x3cfd181f	0.03089529
194	0xbd26a099	-0.0406805
195	0x3ccded14	0.025137462
196	0x3da88078	0.082276285
197	0x3dca0bc5	0.09865526
198	0x3def98fd	0.11699102
199	0xbdc44bfb	-0.095848046
200	0xbc32da4f	-0.010916307
201	0x3c99a2eb	0.018754443
202	0x3e10a964	0.14127117
203	0xbd2d6000	-0.04232788
204	0xbc22d613	-0.009938735
205	0xbcda3dbc	-0.026640765
206	0x3e3cce4d	0.18438073
207	0xbc87212b	-0.016495308
208	0xbe21f745	-0.15816982
209	0xbc0c6f25	-0.008571421
210	0x3c8b8b1d	0.017034108
211	0xbd905f4b	-0.07049426
212	0x3d8cda27	0.06877547
213	0xbe043718	-0.12911642
214	0x3cca04da	0.024660517
215	0x3dca49bb	0.09877344
216	0x3e070b5c	0.13187927
217	0xbd2aab58	-0.041667312
218	0xbd827890	-0.06370652
219	0x3d9e23c0	0.077216625
220	0x3d5ad90c	0.05342965
221	0xbe47d0d6	-0.19513258
222	0xbcd8cf5b	-0.026466062
223	0xbd3f0425	-0.046634812
224	0xbd713ba9	-0.058894787
225	0xbe44d9c4	-0.19223696
226	0xbc6f86a5	-0.014619504
227	0x3dc51adb	0.09624263
228	0xbe316178	-0.17322338
229	0x3e51f0b7	0.20501982
230	0x3dd37cc7	0.10326534
231	0xbd1cc782	-0.038276203
232	0x3e22f504	0.15913779
233	0xbd770578	-0.06030795
234	0x3dd9bfde	0.10632299
235	0xbe61aa03	-0.2203751
236	0x3d121042	0.035660036
237	0xbd460d71	-0.048352662
238	0xbde8cf92	-0.11367716
239	0x3c2f0aab	0.010683696
240	0x3dc85bf3	0.09783163
241	0x3e1b97cb	0.15194623
242	0xbc26f65c	-0.010190573
243	0xbe31f3f2	-0.17378214
244	0x3c3d9de8	0.011573292
245	0xbe013b3f	-0.12620257
246	0xbd52c943	-0.05146147
247	0xbd7df907	-0.06200507
248	0xbab6fc4c	-0.0013960688
249	0xbd9d44a3	-0.07679107
250	0x3da79d5c	0.08184311
251	0x3be02228	0.0068400092
252	0xbe19dd54	-0.15025836
253	0xbaaf5600	-0.001337707
254	0x3e5d0a2d	0.21585913
255	0x3e1c5a15	0.15268739

network_body._body_endoder.seq_layers.0.bias f4 [128]
0	0x3c0cb6b7	0.0085884845
1	0xbd8d82a2	-0.06909682
2	0xbbeb28c5	-0.007176491
3	0xbdbd9997	-0.092578106
4	0x3d99b344	0.07504895
5	0xbdb1df7a	-0.08685203
6	0x3cbb63c1	0.022874715
7	0xbcff0aa2	-0.031133
8	0xbc059c48	-0.008154936
9	0x3d3a78bf	0.04552531
10	0x3aac8aa8	0.0013163881
11	0xbc590994	-0.0132469125
12	0xb9524f30	-0.0002005666
13	0x3df113d1	0.11771358
14	0xbddf6100	-0.10907173
15	0xbd49a785	-0.049232025
16	0xbcc0ad65	-0.023520181
17	0xbd667ce5	-0.056271452
18	0xbdd7605d	-0.10516427
19	0xbd2da21a	-0.04239092
20	0xbd9d85b8	-0.076915205
21	0x3bfa8cc2	0.007646174
22	0xbded51ac	-0.11587843
23	0x3c69e087	0.014274723
24	0xbc14ff93	-0.009094137
25	0xbd8dbfa0	-0.06921315
26	0xbdae9b35	-0.08525697
27	0x3c842d88	0.016134992
28	0xbd873310	-0.06601536
29	0xbd2d54dd	-0.04231726
30	0xbd01cf38	-0.03169176
31	0x3be41006	0.006959918
32	0x3a9dc3ce	0.0012036504
33	0xbb258f1d	-0.0025262304
34	0xbcaae937	-0.020863159
35	0xbdb082df	-0.08618712
36	0xbb7cb513	-0.0038560077
37	0xbd5ea36a	-0.054355063
38	0xbd031d0a	-0.032010116
39	0xbba2f710	-0.0049733
40	0xbdbc2785	-0.09187225
41	0xbd81fcce	-0.06347047
42	0xbd30de46	-0.043180726
43	0xbd501a53	-0.050806355
44	0x3d2be75f	0.0419687
45	0xbdabac5c	-0.08382484
46	0xbd8b9b1d	-0.06816695
47	0xbd2b6b00	-0.04185009
48	0x3db3e342	0.0878358
49	0xbdb2242b	-0.08698305
50	0xbd864bd8	-0.06557435
51	0xbc1075c4	-0.00881714
52	0xbd50b62a	-0.050954975
53	0xbd3c02fd	-0.045901287
54	0xbd1f11af	-0.038835224
55	0xbd52c068	-0.051453024
56	0x3ca0cf2e	0.019630041
57	0x3baae993	0.0052158325
58	0xbda2d1d8	-0.07950181
59	0x3d73eed8	0.05955395
60	0x3d340c61	0.043957118
61	0x3d9e6691	0.07734407
62	0xbd888482	-0.06665899
63	0xbd6b1431	-0.057392303
64	0x3b168145	0.0022965234
65	0xbd55c7b9	-0.052192423
66	0xbd78fd6b	-0.060788553
67	0xbd375c9f	-0.044766065
68	0x3da64f01	0.081205375
69	0x3c451da8	0.012030996
70	0xbc78ef6d	-0.015193802
71	0x3cf75238	0.030190572
72	0x3d21a6bd	0.039465655
73	0x3c81ef70	0.015861243
74	0xbd9ad96b	-0.075610004
75	0xbd201b78	-0.039088696
76	0xbe098ce0	-0.13432646
77	0xbd52bc37	-0.051449027
78	0x3d1330eb	0.035935324
79	0x3d1820e3	0.03714074
80	0x3d5a7687	0.053335693
81	0xbda87b68	-0.08226663
82	0xb9ab06d6	-0.00032620755
83	0x3c20c08e	0.009811534
84	0xbdae7ece	-0.0852028
85	0x3ba01add	0.004886015
86	0xbd14fcc5	-0.036373872
87	0x3cd5b6dd	0.026088173
88	0x3c8e97d3	0.01740638
89	0xbb21d93a	-0.0024696128
90	0x3d083831	0.033256713
91	0x3cab8dbe	0.020941611
92	0x3d795d6a	0.060880102
93	0x3c668183	0.014068964
94	0x3cff4a8f	0.031163482
95	0x3d04c4d9	0.03241429
96	0xbe02268b	-0.12710015
97	0xbb96eb41	-0.004605681
98	0xbdd19cce	-0.10234986
99	0xbe1b2d84	-0.15154082
100	0xbcaefd97	-0.021361155
101	0x3cbc2bc0	0.02297008
102	0x3c1380a3	0.009002837
103	0xbd8ffb1d	-0.07030318
104	0x3ce965e7	0.028490974
105	0xbd77a899	-0.06046352
106	0x3be0c882	0.00685984
107	0x3a563181	0.0008170829
108	0x3bbe781f	0.0058126594
109	0xbd5caa61	-0.053873423
110	0xbd252645	-0.0403197
111	0x3d9fe5f9	0.07807536
112	0xbc1ee096	-0.0096971
113	0xbbff430a	-0.007789974
114	0x3d92480d	0.07142649
115	0xbc4cf00e	-0.012508405
116	0xbdd3f739	-0.10349888
117	0xbd1976bb	-0.037466746
118	0xbd8c9a26	-0.06865339
119	0xbc54140a	-0.012944231
120	0x3d300e79	0.042982552
121	0xbd014bc7	-0.031566408
122	0xbd16e6f7	-0.03684136
123	0x3c6c3713	0.014417428
124	0xbd3a586c	-0.045494482
125	0x3c567cd4	0.013091285
126	0xbca9f014	-0.020744361
127	0x3c2fbb1c	0.010725763

network_body._body_endoder.seq_layers.2.weight f4 [128, 128]
0	0xbcd9bd9a	-0.026579667
1	0xbd8adca6	-0.067803666
2	0x3d37d4dd	0.044880737
3	0xbdac1cae	-0.08403908
4	0x3db49e3a	0.08819242
5	0x3d59853d	0.05310558
6	0x3d076a2d	0.03306024
7	0xbd8627e5	-0.06550578
8	0xbd9f40cf	-0.07776033
9	0xbcb04d4b	-0.021521231
10	0x3da269cc	0.079303354
11	0xbd5d5a18	-0.054041
12	0x3d8f75c0	0.07004881
13	0xbb663498	-0.0035126563
14	0x3c3d461f	0.011552363
15	0xbdb593b1	-0.088660605
16	0xbd5136bb	-0.051077586
17	0x3d898092	0.06713976
18	0x3b94ec13	0.004544744
19	0x3d098b38	0.033580035
20	0x3d900aa2	0.07033278
21	0x3dcc3409	0.099708624
22	0xbdae9d0d	-0.08526049
23	0x3cb5fc9c	0.02221518
24	0x3d8c804f	0.068604104
25	0xbc8827fa	-0.016620625
26	0x3e210b4b	0.15726964
27	0x3dc6865c	0.09693596
28	0xbdae9890	-0.08525193
29	0xbcd9a6c4	-0.026568778
30	0xbe047373	-0.12934665
31	0x3d15de28	0.036588818
32	0xbde9c700	-0.11414909
33	0x3c10f6be	0.00884789
34	0xbd8613db	-0.06546756
35	0xbcbb1d6a	-0.022841174
36	0xbf27cc76	-0.6554636
37	0xbcde47ac	-0.027133785
38	0x3d274fd1	0.040847603
39	0x3d97f202	0.07419206
40	0xbca6fbb0	-0.020383686
41	0xbdbe3259	-0.09286947
42	0x3d184f1a	0.037184812
43	0xbe076fdf	-0.13226269
44	0xbd81ece6	-0.06344013
45	0x3cf8b40e	0.030359294
46	0x3df3d859	0.119064994
47	0xbe0678f0	-0.13132071
48	0x3d850170	0.06494415
49	0xbd61f666	-0.055166624
50	0x3d825e98	0.063656986
51	0x3badc776	0.0053033186
52	0xbc98067a	-0.018557776
53	0x3e1e1b15	0.15440018
54	0x3dfcc95a	0.12343092
55	0xbe0d46af	-0.13796495
56	0x3e41d329	0.18928207
57	0x3c050e73	0.008121121
58	0x3e1033fd	0.14082332
59	0xbd52be0b	-0.05145077
60	0xbc89b559	-0.016810106
61	0xbd7b5943	-0.061364423
62	0xbd97384f	-0.07383787
63	0xbdcca7a0	-0.099929094
64	0x3cfdf66b	0.03100129
65	0xbde95b5a	-0.11394377
66	0xbd8347ee	-0.06410204
67	0x3ddb7661	0.10715938
68	0x3e034b9f	0.12821816
69	0x3d12f65c	0.035879478
70	0xbd1e0d3f	-0.03858685
71	0xbcc3c9da	-0.023899961
72	0xbd10e79d	-0.035377134
73	0xbc8a654b	-0.016894003
74	0xbdeda7fa	-0.116043046
75	0xbe142793	-0.14468221
76	0x3dd8b9a9	0.10582287
77	0x3d213dfd	0.039365757
78	0xbdfb6d8e	-0.12276755
79	0x3d46a165	0.04849376
80	0x3d9bb6aa	0.076032
81	0x3e1cf099	0.15326156
82	0x3e3941e3	0.1809154
83	0x3dc07b01	0.09398461
84	0xbdba7f52	-0.09106316
85	0xbdb3888d	-0.08766279
86	0x3defd460	0.11710429
87	0xbce3a7ca	-0.027789969
88	0x3d3831b0	0.04496926
89	0x3dc194a2	0.094521776
90	0x3d84ac6b	0.064781986
91	0x3e5214ed	0.20515795
92	0xbe842429	-0.25808838
93	0x3cd72e47	0.026267184
94	0x3d49527d	0.049150933
95	0x3d9a5a74	0.07536784
96	0x3d675e9d	0.056486715
97	0xbc70646c	-0.01467238
98	0x3de1b753	0.110212944
99	0xbda904ed	-0.08252893
100	0x3b14feb4	0.0022734823
101	0x3d15858c	0.036504313
102	0xbd522388	-0.051303416
103	0xbd66d1f4	-0.05635257
104	0xbc0d6ee2	-0.008632394
105	0xbd84611d	-0.064638354
106	0xbdfd7a8e	-0.12376891
107	0xbd0c58a1	-0.03426421
108	0x3d038960	0.032113433
109	0xbe66b923	-0.22531562
110	0xbcdd3024	-0.027000494
111	0xbdc1f44b	-0.09470423
112	0xbd96fbb3	-0.073722266
113	0xbc584e20	-0.01320222
114	0x3dd1a515	0.10236565
115	0xbc7047d2	-0.014665561
116	0x3d818811	0.06324781
117	0x3decc1cc	0.11560401
118	0x3e23a07d	0.1597919
119	0x3dadc3f5	0.084846415
120	0xbde09b9f	-0.10967182
121	0xbcafc686	-0.021456968
122	0x3e000735	0.1250275
123	0xbc001b44	-0.007819001
124	0xbe216419	-0.1576084
125	0xbdab3ce3	-0.083612226
126	0xbd9228b9	-0.071366735
127	0x3d6e140f	0.058124598
128	0xbd849b82	-0.06474973
129	0xbdc81984	-0.09770492
130	0xbdc711f6	-0.09720223
131	0x3cf2a1ca	0.029618163
132	0xbe28c2ba	-0.16480532
133	0xbe48bd20	-0.19603395
134	0xbe3fd81f	-0.18734787
135	0xbc88bd82	-0.016691927
136	0x3d7468bf	0.059670206
137	0xbe16a72e	-0.14712211
138	0x3e021a3f	0.12705325
139	0x3d81b1e8	0.06332761
140	0xbd9ec1ff	-0.077518456
141	0xbda5d936	-0.0809807
142	0xbe6e152e	-0.23250267
143	0x3c90bf69	0.017669396
144	0xbe01965f	-0.12655018
145	0x3d9aa502	0.07551004
146	0x3daec9fe	0.08534621
147	0xbb829b73	-0.003985816
148	0xbe3be0d1	-0.1834748
149	0xbc8b2211	-0.016984018
150	0xbd1a4339	-0.037661765
151	0xbd11ee25	-0.035627503
152	0xbd6e54c5	-0.05818631
153	0xbdf3c043	-0.119019054
154	0x3d284fdc	0.041091785
155	0x3e01f124	0.12689644
156	0xbe8551ea	-0.26039058
157	0x3e23fa6b	0.16013496
158	0xbe07d044	-0.13263041
159	0xbc0c5dd3	-0.008567291
160	0xbe32f618	-0.1747669
161	0xbc45c275	-0.012070288
162	0x3cf1f6f9	0.029536711
163	0x3dc0f674	0.09422007
164	0xbe0596be	-0.13045785
165	0xbd9c033d	-0.07617805
166	0xbdc30300	-0.095220566
167	0x3bd00cdd	0.0063491897
168	0x3d79566c	0.060873434
169	0x3d88655d	0.066599585
170	0xbbef4d7c	-0.007302938
171	0xbdbb615c	-0.09149429
172	0x3d8aaba4	0.06771019
173	0xbd0fea0a	-0.035135306
174	0xbd1392d5	-0.0360287
175	0xbd041e18	-0.032255262
176	0xbb108026	-0.0022049039
177	0xbe4080c7	-0.18799125
178	0xbdedc493	-0.11609759
179	0xbc5eedec	-0.01360653
180	0x3dccade7	0.09994107
181	0xbe21bf65	-0.15795667
182	0xbdfa6d98	-0.122279346
183	0xbe2b049b	-0.16700976
184	0xbdb921e8	-0.0903967
185	0x3cf9a46f	0.030473916
186	0xbe670682	-0.22561076
187	0x3b8a853f	0.00422731
188	0xbac4de39	-0.0015019841
189	0xbcf5bb54	-0.029996552
190	0x3bd24300	0.0064166784
191	0xbcfb41e0	-0.03067106
192	0xbce23962	-0.027615253
193	0xbda7487b	-0.081681214
194	0xbe25f0a9	-0.16205086
195	0x3c511c6f	0.012763127
196	0x3c3a5394	0.011372466
197	0xbc4d24cc	-0.01252098
198	0x3e88e356	0.26735944
199	0x391ab864	0.00014755275
200	0x3db1d2cb	0.08682784
201	0x3dce8026	0.10083036
202	0xbe19ef5a	-0.15032712
203	0x3e116985	0.14200409
204	0xbd67a754	-0.05655606
205	0xbe6684d9	-0.22511615
206	0x3e305b2b	0.17222278
207	0x3d6a630f	0.057223376
208	0xbe25d563	-0.16194682
209	0xbd437080	-0.04771471
210	0x3c0ff82c	0.008787196
211	0xbd0c4922	-0.034249432
212	0xbdabfebd	-0.08398197
213	0xbd388ffd	-0.045059193
214	0x3b2bafc0	0.0026197284
215	0x3cb6bf52	0.022308026
216	0x3ca4e8e1	0.020130577
217	0x3d854425	0.06507138
218	0x3d84c730	0.064833045
219	0xbd88f6df	-0.06687712
220	0xbe8ab54d	-0.27091447
221	0xbd8c6bd1	-0.06856502
222	0xbc77b088	-0.015117772
223	0xbdb4e03a	-0.0883183
224	0xbd84b32f	-0.06479489
225	0xbe0e68eb	-0.1390721
226	0xbd9651d7	-0.073398285
227	0xbdf0f54c	-0.11765537
228	0xbdac3158	-0.08407849
229	0x3d191bd7	0.037380066
230	0xbd3c9c1c	-0.046047315
231	0xbe22c13d	-0.15894027
232	0x3d094dce	0.033521466
233	0xbe47701a	-0.19476357
234	0x3d10a419	0.035312746
235	0x3e5f25c0	0.21791744
236	0xbd179940	-0.037011385
237	0xbc6ade37	-0.014335207
238	0xbd827117	-0.063692264
239	0xbcbadb3b	-0.022809615
240	0x3c4c7a3c	0.012480315
241	0xbe59d45a	-0.21272412
242	0x3e044edc	0.12920707
243	0xbe1d8978	-0.15384471
244	0xbdab8b07	-0.08376127
245	0x3b95fe24	0.004577415
246	0x3d2ed249	0.042681012
247	0x3c80a9a1	0.015705885
248	0x3cbc76bd	0.023005838
249	0xbdde9b07	-0.10869413
250	0x3e206ba6	0.15666065
251	0xbccdf517	-0.025141282
252	0xbd487bbb	-0.048946124
253	0xbdc7ec0e	-0.09761821
254	0x3cb20046	0.021728646
255	0xbc27b0a5	-0.010234986

network_body._body_endoder.seq_layers.2.bias f4 [128]
0	0xbd27319d	-0.0408188
1	0xbcaaa39d	-0.02082997
2	0xbe001dea	-0.12511411
3	0xbd719cdd	-0.058987487
4	0xbd12a649	-0.035803113
5	0xbd91a0d8	-0.07110757
6	0x3da35945	0.07976011
7	0xbd6b46d3	-0.05744059
8	0xbe63a83c	-0.22232145
9	0xbddf50ae	-0.1090406
10	0xbc964395	-0.018342772
11	0xbd8b998e	-0.068163976
12	0xbe0810cd	-0.13287659
13	0xbcfd5980	-0.030926466
14	0xbe408f72	-0.1880472
15	0xbcdc25d2	-0.026873503
16	0xbd78ca77	-0.06073996
17	0xbe204268	-0.15650332
18	0x3d8c2168	0.06842309
19	0xbd6834bb	-0.056690913
20	0xbd6721c6	-0.056428693
21	0xbcff19da	-0.031140257
22	0xbcad4daf	-0.021155206
23	0xbd68b199	-0.056809995
24	0xbbc430b5	-0.0059872516
25	0xbc2f6dc5	-0.010707323
26	0xbdcea2e0	-0.1008966
27	0xbc930baf	-0.017949907
28	0xbd14d7fe	-0.0363388
29	0xbdffef59	-0.12496824
30	0xbbf45a71	-0.0074570705
31	0xbd82e0af	-0.06390511
32	0xbd6ae342	-0.057345636
33	0xbc81bbe9	-0.015836673
34	0xbbc948de	-0.0061427196
35	0xbd0faaca	-0.035074987
36	0xbdaedbaa	-0.08537991
37	0xbd83ca61	-0.06435085
38	0xbd8299d7	-0.06376999
39	0xbd991ab2	-0.07475795
40	0xbd54bcd7	-0.051937904
41	0xbc80dab7	-0.015729291
42	0xbce9f692	-0.028559957
43	0xbd1c0734	-0.038092807
44	0xbdf65758	-0.12028378
45	0x3c12c812	0.008958833
46	0xbc8a4efe	-0.01688337
47	0xbdcc4bbe	-0.09975384
48	0xbd436e4a	-0.0477126
49	0xbe552808	-0.20816052
50	0xbd9fb604	-0.077983886
51	0x3d1f1600	0.03883934
52	0xbd062047	-0.032745626
53	0xbdc28832	-0.094986334
54	0x3c3e3feb	0.011611919
55	0xbbf38231	-0.0074312915
56	0xbd1d452c	-0.038396046
57	0x3ca12bc5	0.019674191
58	0xbe37eafc	-0.17960733
59	0xbde9f877	-0.11424344
60	0xbd881a0b	-0.06645592
61	0xbd558636	-0.052129947
62	0xbd673d86	-0.056455158
63	0xbd7fbde6	-0.06243696
64	0xbd8464bf	-0.06464528
65	0xbcef0b9e	-0.029180344
66	0xbdb5ab2f	-0.08870541
67	0x3aa30e13	0.0012440108
68	0xbe0cb349	-0.13740267
69	0xbcbceaea	-0.023061235
70	0xbd880243	-0.066410564
71	0xbda11fee	-0.07867418
72	0xbd2ef5be	-0.042714827
73	0xbdfeb7a3	-0.1243737
74	0xbd089139	-0.03334162
75	0x3cac27b1	0.02101502
76	0xbc54cd75	-0.012988438
77	0xbd1fa457	-0.038975086
78	0xbd5cc0e7	-0.053894904
79	0xbdd1a01a	-0.10235615
80	0xbde8b74d	-0.11363087
81	0xbd0419ae	-0.032251053
82	0xbcfc16ec	-0.030772649
83	0xbdb90a7a	-0.09035201
84	0xbd7d2d24	-0.061810628
85	0xbd6ec119	-0.05828962
86	0xbccddfe5	-0.025131175
87	0xbb681d8f	-0.003541801
88	0xbccf5d6e	-0.025313105
89	0xbc93e79a	-0.018054772
90	0xbcddc9d6	-0.027073782
91	0xbc2a0af4	-0.010378588
92	0xbd26149e	-0.040547006
93	0xbe3e3cbd	-0.18577857
94	0xbd615026	-0.055008076
95	0xbc108994	-0.008821864
96	0xbbbbe652	-0.0057342434
97	0xbd4c7653	-0.04991753
98	0xbe397f83	-0.18115048
99	0xbdbc8eb0	-0.09206903
100	0xbe26a6f1	-0.1627462
101	0xbe2a6cb3	-0.16643028
102	0x3a30f7b1	0.0006750776
103	0xbcca3a8b	-0.024686119
104	0xbc8a4e7f	-0.016883133
105	0xbda1308e	-0.07870589
106	0xbda6dad0	-0.08147204
107	0xbd358bf1	-0.04432291
108	0xbd6fe0be	-0.05856394
109	0xbd5f4b42	-0.05451513
110	0xbd8154ac	-0.06314978
111	0xbdb40940	-0.08790827
112	0xbdbeaf54	-0.09310785
113	0xbd0a1b4c	-0.03371744
114	0xbd998a68	-0.07497102
115	0xbe1fc85d	-0.15603776
116	0xbdce998b	-0.1008788
117	0xbcf09d5b	-0.029371908
118	0xbd2158c3	-0.03939129
119	0xbe262720	-0.16225863
120	0xbd3df451	-0.046375576
121	0xbd87b228	-0.066257775
122	0xbbf92537	-0.0076033133
123	0xbd0a52d1	-0.033770386
124	0xbd6d9849	-0.05800656
125	0xbdbfa738	-0.09358066
126	0xbd88b1a8	-0.0667451
127	0xbdc95cce	-0.09832154

action_model._continuous_distribution.log_sigma f4 [1, 4]
0	0xc10873f7	-8.528312
1	0xc11917c9	-9.568307
2	0xc116bc28	-9.420937
3	0xc10e4431	-8.891648

action_model._continuous_distribution.mu.weight f4 [4, 128]
0	0xbb43418a	-0.0029793703
1	0xbd046c6c	-0.03232996
2	0x3e0c17a0	0.13680887
3	0xbb1becff	-0.0023792384
4	0xba997139	-0.0011706717
5	0xbaf3bb7c	-0.0018595303
6	0xbe29d9c2	-0.16586974
7	0x3a80725d	0.0009799708
8	0xbc545987	-0.012960798
9	0x3cf9e650	0.03050533
10	0x3d01bc94	0.031673983
11	0xbc3d09f5	-0.0115380185
12	0xbc9bd1f3	-0.01902101
13	0x3db2cb40	0.08730173
14	0x3cc071e0	0.0234918
15	0x3d8d12f5	0.068883814
16	0x3bd5b00c	0.0065212306
17	0x3eab71f0	0.33485365
18	0x3c5ea1e8	0.013588406
19	0xbaa37c7c	-0.0012473012
20	0xbdf63af7	-0.120229654
21	0xbde2945a	-0.11063452
22	0x3d265056	0.040603958
23	0xbcf3ddbb	-0.029768815
24	0xbc077907	-0.008268601
25	0x3d9503c7	0.07276111
26	0x3d97bd53	0.074091576
27	0x3b5db71e	0.003383107
28	0xbce899cd	-0.02839365
29	0x3cc9c510	0.0246301
30	0x3c023db9	0.007949286
31	0x3ddde8df	0.10835432
32	0x3c36afba	0.011150295
33	0x3b89ac61	0.0042014574
34	0xbccb43a1	-0.024812521
35	0x3bc8d4df	0.006128892
36	0x3d99d172	0.07510652
37	0x3b8fb408	0.004385475
38	0x3b98fd19	0.0046688435
39	0x39f077bf	0.00045865585
40	0x39f8c017	0.00047445364
41	0xba329932	-0.0006812989
42	0x3da7490e	0.08168231
43	0xbb805552	-0.003916421
44	0xba8529ba	-0.001015953
45	0x3d118d18	0.035534948
46	0xbb861580	-0.0040919185
47	0xbd2fb985	-0.042901535
48	0xbe2872d5	-0.16450055
49	0x3c9ed4c4	0.019388564
50	0xbd6571f6	-0.056016885
51	0xbcd7478b	-0.026279232
52	0xbba1878b	-0.004929488
53	0x3dc20385	0.094733275
54	0xbd8ecb98	-0.06972426
55	0xbc1c083a	-0.009523446
56	0x3dda8106	0.106691405
57	0x3c206c6a	0.009791473
58	0x3c4aadb8	0.012370519
59	0xbdd8da62	-0.10588528
60	0x3c8f064a	0.017459054
61	0x3c4db9fb	0.012556548
62	0xba8faaf6	-0.0010960985
63	0xba9ae93b	-0.0011818776
64	0x3bf7a797	0.00755782
65	0x3d46ac93	0.048504423
66	0xbb035a64	-0.002004289
67	0x3b169cee	0.002298172
68	0x3c356fce	0.01107402
69	0xbbff97c1	-0.007800073
70	0xbe4c310c	-0.19940585
71	0x3c4aa31a	0.012367988
72	0x3ce0bbf6	0.027433377
73	0xbdc8c588	-0.09803301
74	0xbba736f4	-0.0051029865
75	0xba921152	-0.0011144078
76	0xbca3e125	-0.020004818
77	0xbc36c58a	-0.011155495
78	0xbcced507	-0.025248064
79	0xbd36393a	-0.04448817
80	0x3cdb1139	0.02674161
81	0x3d17d960	0.03707254
82	0xbcc947b4	-0.024570324
83	0x3b1d2ccc	0.0023983
84	0x3d8823b2	0.06647433
85	0x3d495aa5	0.04915871
86	0xbe2e4e75	-0.17022116
87	0xbdc7267b	-0.097241364
88	0x3c10754d	0.008817029
89	0x3de408dc	0.11134502
90	0x3bd152dc	0.0063880514
91	0x3b2d2f65	0.0026425954
92	0xbab8dfbe	-0.0014104766
93	0xbc92fdef	-0.01794335
94	0xbc7845e4	-0.015153382
95	0xbc49f19a	-0.012325669
96	0x3c72d35c	0.0148209
97	0xbec913a4	-0.39272797
98	0xbe978c69	-0.29599312
99	0xbd827a6a	-0.06371005
100	0x3bc33d62	0.005958245
101	0x3dadbf6b	0.08483776
102	0xbce67053	-0.028129732
103	0x3a82ffd7	0.0009994459
104	0xbd1edac5	-0.038782854
105	0x3de4977b	0.11161705
106	0x3d1c29c4	0.03812577
107	0xbba3507d	-0.00498396
108	0x3d8293e5	0.06375865
109	0xbbc153cb	-0.0058998815
110	0x3d80990b	0.06279191
111	0xbcb4f077	-0.022087319
112	0x3bda24f4	0.006657237
113	0xbcdc9d22	-0.026930396
114	0x3c959f41	0.018264415
115	0xbe56bb5a	-0.20969906
116	0x3bee48c0	0.007271856
117	0xbd48905f	-0.048965808
118	0xbbe9e5d6	-0.0071379943
119	0xbca0f65f	-0.019648729
120	0xbca32a7b	-0.019917717
121	0x3bd98a8f	0.006638832
122	0x3d418e65	0.04725494
123	0xbdee5e0e	-0.11639033
124	0xbbd7e1c8	-0.0065881945
125	0xbda06a7b	-0.078328095
126	0xbcfdb816	-0.030971568
127	0x3cfa1b36	0.030530553
128	0xbbaaab47	-0.005208406
129	0xba066e4a	-0.00051281287
130	0xbb3c2b46	-0.0028712316
131	0x3c19f75c	0.009397354
132	0xbb33ef22	-0.0027455767
133	0xb9bdd311	-0.00036206146
134	0xba98c95c	-0.001165669
135	0xba8a994c	-0.001057425
136	0x3d41ee60	0.047346473
137	0x3c00dec0	0.007865608
138	0xbc0a00c8	-0.008423038
139	0x3c068065	0.008209323
140	0xbcb72aa7	-0.022359205
141	0x3a182712	0.0005804162
142	0xbd098f0c	-0.033583686
143	0xbb6979cc	-0.0035625575
144	0xb9230aff	-0.00015548988
145	0xbaeec817	-0.001821759
146	0x3a2d64e4	0.000661446
147	0x3c30e2fa	0.010796303
148	0xb8d5da16	-0.00010197253
149	0xbae270f7	-0.0017276098
150	0x3b758843	0.0037465252
151	0xbc75f7e6	-0.015012717
152	0x3ae0bc69	0.0017145994
153	0xbbbfbe07	-0.0058515104
154	0x3bebf369	0.0072006476
155	0xbb771440	-0.003770128
156	0x3b4a3b8d	0.003085825
157	0xbbc7e6cf	-0.0061005126
158	0x3b7281a4	0.0037003541
159	0xbc0d0273	-0.008606541
160	0x3baa6678	0.0052002035
161	0x3c1cd8a7	0.009573138
162	0x3b9c8908	0.0047770776
163	0xbc1aa873	-0.0094395755
164	0xbc030ddd	-0.007998911
165	0xbacd4f9b	-0.0015663983
166	0x3bdb127b	0.0066855527
167	0x3a42ab50	0.000742604
168	0xbb896eda	-0.0041941227
169	0x3b797e54	0.0038069682
170	0x3c32fa86	0.010923987
171	0xbbc4f894	-0.006011078
172	0x3d2f4fdb	0.042800765
173	0x3b6d74a1	0.0036232846
174	0x39db31e2	0.000418081
175	0xbca67736	-0.020320516
176	0x3a0ecb62	0.00054471765
177	0xbc284e92	-0.010272639
178	0xbb2620b3	-0.002534908
179	0xbb1eaa47	-0.002421038
180	0xbb9b3760	-0.004736826
181	0xbc4c54d8	-0.0124714
182	0xb829adec	-4.0454717e-05
183	0x3a42ca55	0.00074306625
184	0x3a88705d	0.0010409463
185	0xba8508fc	-0.0010149772
186	0x3c702e49	0.014659473
187	0x3c1a2aae	0.00940959
188	0xbbf98f6f	-0.0076159756
189	0xbb067a83	-0.00205198
190	0x3cf3b843	0.029750949
191	0x3b929ce5	0.0044742697
192	0xba1169fb	-0.00055471034
193	0xbbd179f6	-0.0063927127
194	0x3d8a5dbc	0.0675616
195	0xbac4cf2e	-0.0015015358
196	0x3ce50c89	0.027960079
197	0xba3b0442	-0.00071341184
198	0xb8c8c534	-9.573475e-05
199	0x3c380f9b	0.011234189
200	0x3b7eb77d	0.0038866692
201	0x38bba56e	8.9476685e-05
202	0xbbe5dd6c	-0.007014921
203	0x3a8316a2	0.0010001252
204	0xbb9c813d	-0.0047761486
205	0x3b272217	0.0025502497
206	0xbb00415d	-0.001957021
207	0xbdb3e91c	-0.087846965
208	0xbcfac744	-0.030612595
209	0xbb39d749	-0.002835708
210	0xbbfad895	-0.007655213
211	0xb9fa87be	-0.00047784852
212	0x3b00db70	0.0019662045
213	0x3bddc4bf	0.0067678387
214	0x3b91fa1e	0.004454865
215	0x3b9ae395	0.004726837
216	0x3c20e013	0.009819048
217	0x3b9bd03a	0.004755047
218	0x3ba3e183	0.0050012483
219	0x3bf393ce	0.007433391
220	0xbb2bf2f2	-0.0026237336
221	0x3cf6d148	0.03012909
222	0xbce79ca8	-0.028272942
223	0x3c4b7b3f	0.012419521
224	0xbb0f1807	-0.002183439
225	0x3a8c6fb2	0.001071444
226	0xbc34dfd2	-0.011039691
227	0x3b5c41da	0.0033608587
228	0x3b77f08e	0.003783259
229	0x3c876c2e	0.016531076
230	0x3b2a0f98	0.0025949236
231	0x39efa6bb	0.00045709856
232	0x3b54b45f	0.0032456142
233	0xba424ce9	-0.0007411973
234	0xbc050ecd	-0.008121205
235	0xbabddbba	-0.0014485039
236	0x3c26e339	0.01018601
237	0x3c252678	0.010079972
238	0xbbc295df	-0.005938276
239	0xbd0611cb	-0.032731812
240	0x3b7bf772	0.003844705
241	0xbb2e04e0	-0.0026553199
242	0x3c84369c	0.016139321
243	0x3da266cc	0.07929763
244	0xbd2ff35f	-0.042956706
245	0xbb6663c9	-0.0035154691
246	0xbb42ce65	-0.0029725072
247	0xbce78e42	-0.028266076
248	0x3a9024be	0.0010997278
249	0xbb32923f	-0.0027247814
250	0xbc0dc3f4	-0.008652676
251	0x3bfd161b	0.0077235824
252	0x3a0f5535	0.0005467714
253	0x3b9b1f9d	0.004733993
254	0x3ccefe83	0.025267845
255	0xbcd99dc2	-0.026564483

action_model._continuous_distribution.mu.bias f4 [4]
0	0x3c87fecc	0.016600989
1	0xbc39fc9b	-0.01135173
2	0xbc5c56dd	-0.013448444
3	0x3d157853	0.036491703

exp_avg f4 [128, 92]
0	0x00000000	0.0
1	0x3c17783a	0.009244973
2	0xbbe96b3c	-0.007123379
3	0xbb58415b	-0.003299794
4	0x00000000	0.0
5	0x3c17783a	0.009244973
6	0xbbe934f7	-0.0071169096
7	0xbb616df7	-0.003439782
8	0x00000000	0.0
9	0x3c17783a	0.009244973
10	0xbbe934f7	-0.0071169096
11	0xbb628a1f	-0.003456719
12	0x00000000	0.0
13	0x3c17783a	0.009244973
14	0xbbe950ec	-0.0071202423
15	0xbb6af507	-0.0035851614
16	0x00000000	0.0
17	0x3c17783a	0.009244973
18	0xbbe950ec	-0.0071202423
19	0xbb6af507	-0.0035851614
20	0x00000000	0.0
21	0x38d25434	0.000100292644
22	0x3d2640df	0.04058921
23	0x3d272fc2	0.04081703
24	0x00000000	0.0
25	0x00000004	6e-45
26	0x3d263773	0.040580224
27	0x3d27404e	0.04083281
28	0x00000000	0.0
29	0x80000004	-6e-45
30	0x3d26376d	0.040580202
31	0x3d273ec9	0.04083136
32	0x00000000	0.0
33	0x00000004	6e-45
34	0x3d26376d	0.040580202
35	0x3d2749d7	0.040841904
36	0x00000000	0.0
37	0x00000004	6e-45
38	0x3d26376d	0.040580202
39	0x3d2749d7	0.040841904
40	0x00000000	0.0
41	0x3b4c5d6d	0.0031183616
42	0x3cbf8dbf	0.02338302
43	0x3d0904fd	0.033452023
44	0x00000000	0.0
45	0xb9d5c197	-0.00040770762
46	0x3d173027	0.036911156
47	0x3d0e9c7c	0.034817204
48	0x00000000	0.0
49	0x3c8b83fb	0.017030707
50	0x3ca39a25	0.019970963
51	0x3ce47516	0.027887862
52	0x00000000	0.0
53	0x80000004	-6e-45
54	0x3d0a4e6e	0.033766203
55	0x3d0a4e6e	0.033766203
56	0x00000000	0.0
57	0x3c49895a	0.012300814
58	0x3d17b46f	0.03703731
59	0x3cf7988d	0.030224109
60	0x00000000	0.0
61	0x3c4989aa	0.012300888
62	0x3c31a182	0.010841729
63	0x3c176577	0.0092405
64	0x00000000	0.0
65	0x3c4989aa	0.012300888
66	0x3c37e2b8	0.011223488
67	0x3c1bb5c2	0.009503784
68	0x00000000	0.0
69	0x3c4989aa	0.012300888
70	0xbbca35f3	-0.006170982
71	0x3c04aac3	0.008097353
72	0x00000000	0.0
73	0x3c4989aa	0.012300888
74	0xbbca35f3	-0.006170982
75	0x3c04aabb	0.008097346
76	0x3d0a4e6e	0.033766203
77	0x3bb1b2d7	0.0054229307
78	0x3c42b848	0.011884756
79	0x3d08c4fd	0.033390988
80	0xbf71f7c1	-0.9451867
81	0xbf40cb66	-0.7531036
82	0x3eb5daab	0.35518393
83	0x3e7c28a4	0.24624878
84	0x3cd310e9	0.0257649
85	0x3c9f6ea5	0.01946194
86	0xbcd02f23	-0.025413102
87	0xbcc6e301	-0.024278166
88	0xbc7d7af3	-0.015471208
89	0xbd731dda	-0.05935464
90	0xbe097b1a	-0.13425866
91	0xbdfa0f4e	-0.122099504
92	0x00000000	0.0
93	0xb886e2d9	-6.4318716e-05
94	0xb9c893fc	-0.0003825723
95	0xb989cb8f	-0.0002628234
96	0x00000000	0.0
97	0xb886e2d9	-6.4318716e-05
98	0xb9c9275c	-0.00038367033
99	0xb98a9802	-0.00026434666
100	0x00000000	0.0
101	0xb886e2d9	-6.4318716e-05
102	0xb9c9275c	-0.00038367033
103	0xb98a6a79	-0.0002640074
104	0x00000000	0.0
105	0xb886e2d9	-6.4318716e-05
106	0xb9c9265c	-0.00038366287
107	0xb98b2f3c	-0.00026547338
108	0x00000000	0.0
109	0xb886e2d9	-6.4318716e-05
110	0xb9c9265c	-0.00038366287
111	0xb98b2f3c	-0.00026547338
112	0x00000000	0.0
113	0xb5b6e50a	-1.3626716e-06
114	0x3a00c7c8	0.0004912582
115	0x3a8d273e	0.0010769141
116	0x00000000	0.0
117	0x80000004	-6e-45
118	0x3a00958d	0.00049050973
119	0x3a8fd05d	0.0010972131
120	0x00000000	0.0
121	0x80000004	-6e-45
122	0x3a009582	0.0004905091
123	0x3a8fb643	0.0010964352
124	0x00000000	0.0
125	0x80000004	-6e-45
126	0x3a009564	0.00049050734
127	0x3a9274f1	0.0011173767
128	0x00000000	0.0
129	0x80000004	-6e-45
130	0x3a009564	0.00049050734
131	0x3a9274f1	0.0011173767
132	0x00000000	0.0
133	0x3c0d10d3	0.008609968
134	0xbb533a00	-0.0032230616
135	0x3a856715	0.0010177816
136	0x00000000	0.0
137	0xb80269b6	-3.1092866e-05
138	0x3c08314b	0.008312534
139	0x3bbd39b4	0.005774701
140	0x00000000	0.0
141	0x3c3de17e	0.011589406
142	0xbbca7ed2	-0.006179669
143	0x391718e2	0.00014409752
144	0x00000000	0.0
145	0x80000004	-6e-45
146	0x38f31ad1	0.00011592138
147	0x38f31ad1	0.00011592138
148	0x00000000	0.0
149	0xb87174fd	-5.756783e-05
150	0x3c0606eb	0.00818036
151	0x3ad2b1cd	0.0016074717
152	0x00000000	0.0
153	0xb8718f99	-5.7592613e-05
154	0x38cdd938	9.815622e-05
155	0x38fcd778	0.000120564306
156	0x00000000	0.0
157	0xb8718f99	-5.7592613e-05
158	0xba2e7d15	-0.0006656212
159	0x38d061d1	9.9364326e-05
160	0x00000000	0.0
161	0xb8718f99	-5.7592613e-05
162	0xbb513ddd	-0.0031927743
163	0x38314d89	4.22723e-05
164	0x00000000	0.0
165	0xb8718f99	-5.7592613e-05
166	0xbb513ddd	-0.0031927743
167	0x38314d89	4.22723e-05
168	0x38f31ad1	0.00011592138
169	0xba2ae97a	-0.0006519776
170	0x3a97e1b6	0.0011587653
171	0x39b3c0a8	0.0003428508
172	0xbd7e6592	-0.062108584
173	0xbd2dbfb9	-0.04241917
174	0xbd059d74	-0.032620862
175	0xbdb90c9e	-0.0903561
176	0xba2e35dc	-0.0006645599
177	0xbb2472a5	-0.0025092748
178	0xbb1d1767	-0.0023970248
179	0xbb4ce538	-0.0031264555
180	0x3b1eed3f	0.0024250296
181	0xbbc54043	-0.0060196235
182	0xbb95bde0	-0.004569754
183	0x3c1d67bf	0.0096072545
184	0x00000000	0.0
185	0x39bcbdac	0.0003599947
186	0xbd623d8b	-0.055234473
187	0xbd60027a	-0.05468986
188	0x00000000	0.0
189	0x39bcbdac	0.0003599947
190	0xbd6224c9	-0.055210862
191	0xbd600eb7	-0.054701533
192	0x00000000	0.0
193	0x39bcbdac	0.0003599947
194	0xbd6224c9	-0.055210862
195	0xbd600fde	-0.054702632
196	0x00000000	0.0
197	0x39bcbdac	0.0003599947
198	0xbd622355	-0.055209477
199	0xbd601b5d	-0.054713596
200	0x00000000	0.0
201	0x39bcbdac	0.0003599947
202	0xbd622355	-0.055209477
203	0xbd601b5d	-0.054713596
204	0x00000000	0.0
205	0xb88e3c78	-6.782351e-05
206	0x3b2ae201	0.002607465
207	0xbbdcebad	-0.006741962
208	0x00000000	0.0
209	0x00000004	6e-45
210	0x3b2b1d8d	0.0026110143
211	0xbbde12b1	-0.0067771305
212	0x00000000	0.0
213	0x00000004	6e-45
214	0x3b2b1d87	0.002611013
215	0xbbddcca2	-0.006768779
216	0x00000000	0.0
217	0x00000004	6e-45
218	0x3b2b1d87	0.002611013
219	0xbbdedd21	-0.006801263
220	0x00000000	0.0
221	0x00000004	6e-45
222	0x3b2b1d87	0.002611013
223	0xbbdedd21	-0.006801263
224	0x00000000	0.0
225	0xbcb1fccc	-0.021726988
226	0xbceaf138	-0.028679475
227	0xbd1a5066	-0.03767433
228	0x00000000	0.0
229	0x39a7c8f9	0.00032002458
230	0xbd591e70	-0.053007543
231	0xbd5d0977	-0.053964105
232	0x00000000	0.0
233	0xbb58044d	-0.0032961548
234	0xbd41fe2b	-0.047361534
235	0xbd4f9445	-0.05067851
236	0x00000000	0.0
237	0x00000004	6e-45
238	0xbd57f4ea	-0.052723803
239	0xbd57f4ea	-0.052723803
240	0x00000000	0.0
241	0x3a082ea2	0.0005194937
242	0xbd5c1b4d	-0.053736974
243	0xbd5ac229	-0.05340782
244	0x00000000	0.0
245	0x3a082bcd	0.0005194515
246	0xbd604498	-0.054752916
247	0xbd5d30ac	-0.054001495
248	0x00000000	0.0
249	0x3a082bcd	0.0005194515
250	0xbd5f2d36	-0.054486476
251	0xbd5d139d	-0.053973783
252	0x00000000	0.0
253	0x3a082bcd	0.0005194515
254	0xbd5f91a4	-0.054582253
255	0xbd5e5eab	-0.0542895

exp_avg_sq f4 [128, 92]
0	0x00000000	0.0
1	0x3b944b43	0.0045255735
2	0x3ce10c6a	0.02747174
3	0x3da2ca81	0.07948781
4	0x00000000	0.0
5	0x3a9234a2	0.0011154602
6	0x3ce3e3ab	0.027818521
7	0x3da3ff5d	0.08007691
8	0x00000000	0.0
9	0x3a9236ea	0.0011155282
10	0x3ce425cb	0.027850052
11	0x3da3f6e8	0.08006078
12	0x00000000	0.0
13	0x3a923491	0.0011154582
14	0x3cd92ad9	0.02650969
15	0x3da39100	0.07986641
16	0x00000000	0.0
17	0x3a923491	0.0011154582
18	0x3cd92ad9	0.02650969
19	0x3da39100	0.07986641
20	0x00000000	0.0
21	0x3bdc3153	0.006719747
22	0x3dc404eb	0.095712505
23	0x3e08f790	0.13375688
24	0x00000000	0.0
25	0x32bc00cb	2.1886441e-08
26	0x3dcab88f	0.09898483
27	0x3e0c12df	0.13679074
28	0x00000000	0.0
29	0x30e9033a	1.6953898e-09
30	0x3dca63c6	0.098823115
31	0x3e0bf97e	0.13669392
32	0x00000000	0.0
33	0x302b0026	6.220965e-10
34	0x3dc8d7e8	0.09806806
35	0x3e0c5081	0.13702585
36	0x00000000	0.0
37	0x302b0026	6.220965e-10
38	0x3dc8d7e8	0.09806806
39	0x3e0c5081	0.13702585
40	0x00000000	0.0
41	0x3df8db26	0.12151174
42	0x3c83cb6c	0.01608821
43	0x3d19ad62	0.037518866
44	0x00000000	0.0
45	0x3b846ad8	0.004041057
46	0x3e1e750a	0.15474334
47	0x3e22517b	0.15851395
48	0x00000000	0.0
49	0x3bf87469	0.0075822365
50	0x3e0e5f36	0.13903508
51	0x3e1c69a5	0.15274675
52	0x00000000	0.0
53	0x35c169dc	1.441043e-06
54	0x3e282683	0.16420941
55	0x3e282692	0.16420963
56	0x00000000	0.0
57	0x3aff6c8b	0.0019487304
58	0x3e28adf9	0.16472615
59	0x3e23e77a	0.1600627
60	0x00000000	0.0
61	0x3b0805c5	0.0020755392
62	0x3e0d4a13	0.13797788
63	0x3e0f422c	0.13990086
64	0x00000000	0.0
65	0x3b081811	0.0020766298
66	0x3e0be40c	0.13661212
67	0x3e0c62ad	0.13709517
68	0x00000000	0.0
69	0x3b08060b	0.0020755555
70	0x3e042470	0.12904525
71	0x3e0b0278	0.1357516
72	0x00000000	0.0
73	0x3b08060b	0.0020755555
74	0x3e042470	0.12904525
75	0x3e0b0278	0.1357516
76	0x3e2826d5	0.16421063
77	0x3acebba7	0.0015772477
78	0x3c02c60a	0.0079817865
79	0x3e1da36c	0.15394372
80	0x4185384c	16.652489
81	0x4142dbc0	12.17865
82	0x4004b97a	2.0738206
83	0x3fce5519	1.611972
84	0x3cd0ae02	0.025473598
85	0x3ca29ab3	0.019849157
86	0x3d59f466	0.053211592
87	0x3d516df0	0.051130235
88	0x3c214a4e	0.009844376
89	0x3e0a7432	0.13520887
90	0x3ed1bf90	0.40966463
91	0x3e935012	0.28772026
92	0x00000000	0.0
93	0x3842b8c5	4.6425284e-05
94	0x3cdaa96f	0.02669212
95	0x3cdde5ec	0.027087174
96	0x00000000	0.0
97	0x364065ba	2.8669442e-06
98	0x3cdaa871	0.026691647
99	0x3cde04bd	0.027101869
100	0x00000000	0.0
101	0x36b6acfa	5.44416e-06
102	0x3cdab6aa	0.02669843
103	0x3cddff64	0.027099319
104	0x00000000	0.0
105	0x35e1565e	1.6788943e-06
106	0x3cda8142	0.026672963
107	0x3cde041d	0.02710157
108	0x00000000	0.0
109	0x35e1565e	1.6788943e-06
110	0x3cda8142	0.026672963
111	0x3cde041d	0.02710157
112	0x00000000	0.0
113	0x38828243	6.223146e-05
114	0x3a8d87d9	0.0010797932
115	0x3b29d148	0.0025912095
116	0x00000000	0.0
117	0x35cedf27	1.5413142e-06
118	0x3a92c876	0.0011198658
119	0x3b2d4595	0.002643918
120	0x00000000	0.0
121	0x32bbfec9	2.1885528e-08
122	0x3a9306be	0.0011217219
123	0x3b2c3a24	0.0026279772
124	0x00000000	0.0
125	0x35ac61d8	1.2843475e-06
126	0x3a91e670	0.0011131298
127	0x3b2e8e21	0.0026635008
128	0x00000000	0.0
129	0x35ac61d8	1.2843475e-06
130	0x3a91e670	0.0011131298
131	0x3b2e8e21	0.0026635008
132	0x00000000	0.0
133	0x3c67836b	0.014130454
134	0x3b85fa77	0.0040886956
135	0x3c08d4a4	0.008351479
136	0x00000000	0.0
137	0x389f7cdd	7.6049684e-05
138	0x3ca877df	0.020564971
139	0x3cc04c76	0.02347396
140	0x00000000	0.0
141	0x3ba0c3d6	0.004906158
142	0x3c64e0ea	0.013969639
143	0x3ca7a376	0.020463686
144	0x00000000	0.0
145	0x35f617f9	1.8335405e-06
146	0x3ce3acef	0.027792422
147	0x3ce3a864	0.027790256
148	0x00000000	0.0
149	0x36e9be06	6.9660628e-06
150	0x3cd7aeae	0.026328411
151	0x3cd3b050	0.025840908
152	0x00000000	0.0
153	0x37dc7657	2.628115e-05
154	0x3ce08b8f	0.027410297
155	0x3ce1afed	0.027549708
156	0x00000000	0.0
157	0x37e9d494	2.7874754e-05
158	0x3ce0aa81	0.027425053
159	0x3ce064bb	0.027391782
160	0x00000000	0.0
161	0x37c8f0f0	2.3954053e-05
162	0x3cc81cf0	0.024427861
163	0x3cddf0d7	0.02709238
164	0x00000000	0.0
165	0x37c8f0f0	2.3954053e-05
166	0x3cc81cf0	0.024427861
167	0x3cddf0d7	0.02709238
168	0x3ce3a7ca	0.027789969
169	0x39a03213	0.00030554886
170	0x3bb7a133	0.0056039332
171	0x3cb3456a	0.021883685
172	0x3f5e6c07	0.86883587
173	0x3f2e71f4	0.6814263
174	0x3f385ba7	0.7201485
175	0x3f1a25c1	0.6021386
176	0x3c9b32bb	0.018945089
177	0x3c8745ee	0.016512837
178	0x3bee7111	0.007276662
179	0x3bf3be83	0.0074384823
180	0x3aff3bbe	0.0019472761
181	0x3ccd8f29	0.025092678
182	0x3cf89cca	0.0303482
183	0x3c8c4d15	0.0171266
184	0x00000000	0.0
185	0x3a072af4	0.0005156242
186	0x3beec41c	0.0072865617
187	0x3c5fba1b	0.013655211
188	0x00000000	0.0
189	0x375895df	1.2909498e-05
190	0x3bf527dc	0.0074815582
191	0x3c62a30c	0.013832819
192	0x00000000	0.0
193	0x375735ca	1.2827522e-05
194	0x3bf66efc	0.0075205546
195	0x3c628d80	0.013827682
196	0x00000000	0.0
197	0x3754e147	1.2688636e-05
198	0x3bf61990	0.0075103715
199	0x3c62a2ee	0.013832791
200	0x00000000	0.0
201	0x3754e147	1.2688636e-05
202	0x3bf61990	0.0075103715
203	0x3c62a2ee	0.013832791
204	0x00000000	0.0
205	0x3a97220e	0.0011530535
206	0x3c67508a	0.014118323
207	0x3c92c975	0.017918328
208	0x00000000	0.0
209	0x360cd522	2.0985685e-06
210	0x3c7006e9	0.014650085
211	0x3c966b09	0.018361585
212	0x00000000	0.0
213	0x3323a271	3.8099135e-08
214	0x3c70534c	0.014668297
215	0x3c966039	0.01835643
216	0x00000000	0.0
217	0x34a14c4f	3.004411e-07
218	0x3c6fdd1d	0.01464012
219	0x3c96830a	0.018373031
220	0x00000000	0.0
221	0x34a14c4f	3.004411e-07
222	0x3c6fdd1d	0.01464012
223	0x3c96830a	0.018373031
224	0x00000000	0.0
225	0x3cb32704	0.02186919
226	0x3a273db8	0.0006379741
227	0x3b105089	0.002202066
228	0x00000000	0.0
229	0x3acb0f4f	0.0015492233
230	0x3cb05a0f	0.021527318
231	0x3cb5a77c	0.02217459
232	0x00000000	0.0
233	0x3ac798b4	0.0015228004
234	0x3caef973	0.021359181
235	0x3cba5300	0.022744656
236	0x00000000	0.0
237	0x36247ba1	2.4509866e-06
238	0x3cc54866	0.024082374
239	0x3cc547b6	0.024082046
240	0x00000000	0.0
241	0x3804d509	3.1669657e-05
242	0x3cc56b9f	0.02409917
243	0x3cc4682b	0.023975452
244	0x00000000	0.0
245	0x38b756f2	8.742315e-05
246	0x3cc4d729	0.024028378
247	0x3cc4b880	0.024013758
248	0x00000000	0.0
249	0x38b0d9a9	8.432876e-05
250	0x3cc49140	0.023995042
251	0x3cc48c0c	0.02399256
252	0x00000000	0.0
253	0x38b0cb2b	8.430177e-05
254	0x3cc47741	0.023982646
255	0x3cc493d0	0.023996264

exp_avg f4 [128]
0	0x3d0a4e71	0.033766214
1	0x38f31b78	0.000115922594
2	0xbd57f4ec	-0.05272381
3	0x39f5a938	0.0004685612
4	0x3c9c19a1	0.01905519
5	0xbaa8c222	-0.0012875239
6	0x3c7d464f	0.015458657
7	0x3c4383b4	0.011933256
8	0xba092fb9	-0.00052332465
9	0xbbdd8038	-0.0067596696
10	0x3d55764a	0.052114762
11	0x38940d23	7.059637e-05
12	0xbc8762e1	-0.016526641
13	0x3c6bf8ca	0.014402578
14	0xbca7267e	-0.020404097
15	0x3c828ca8	0.01593621
16	0x3c3de3e4	0.011589978
17	0xbd057b9a	-0.03258858
18	0xba95fa83	-0.0011442456
19	0x3a55788f	0.000814327
20	0x3c6d0b6a	0.014468053
21	0x3a833ceb	0.0010012662
22	0x3b3ed333	0.0029117584
23	0xbc8e755c	-0.017389946
24	0xba3499aa	-0.0006889353
25	0x3c5ebf27	0.013595379
26	0x3c268da8	0.010165609
27	0x3cb05559	0.021525072
28	0xbac32a9f	-0.0014890021
29	0xbb6e3d16	-0.0036352328
30	0xbd48e0d2	-0.04904253
31	0x3c238c68	0.009982206
32	0xbca3847d	-0.019960636
33	0xbc5dea02	-0.013544561
34	0x3c978b28	0.018498972
35	0x3b28f04d	0.0025777996
36	0xbcc13f61	-0.023589792
37	0xbb3fc2c4	-0.0029260376
38	0x3ac42b7a	0.001496657
39	0x3bc42186	0.0059854416
40	0xbb447266	-0.0029975413
41	0x3bea579b	0.0071515567
42	0x3c7ea103	0.015541318
43	0x3c007d42	0.007842364
44	0x3b578e31	0.003289115
45	0x3b9d5174	0.0048009697
46	0xbbe6e420	-0.0070462376
47	0xbbb1ec18	-0.005429756
48	0x3ca5e33c	0.020249955
49	0xbd143a2a	-0.036188282
50	0xbc2eab51	-0.010660962
51	0x3aee6373	0.0018187597
52	0xbc98053c	-0.018557183
53	0x3add5cc1	0.0016888605
54	0x3b1a9305	0.0023586166
55	0x3c11a785	0.008890037
56	0x3c8fe8d1	0.01756707
57	0x3acc6cef	0.001559643
58	0xbc077cd7	-0.00826951
59	0x3d2f1667	0.042745974
60	0x3d40a1c2	0.047029264
61	0x3c5d0590	0.013490096
62	0x3a202f48	0.0006110561
63	0x3bd9bfe4	0.0066451896
64	0x3d6c9e68	0.057768255
65	0xbaeff31f	-0.0018306709
66	0xbcf284cc	-0.029604338
67	0xbbd08967	-0.006364036
68	0x3d225988	0.039636165
69	0x3b872b9d	0.004125072
70	0xbda0bfa9	-0.07849056
71	0x3d564035	0.052307326
72	0xbcdf5f5f	-0.027267156
73	0x3ca21d9f	0.019789515
74	0xbaacee3c	-0.0013193558
75	0xbb03f43b	-0.0020134586
76	0x3c0a4a0a	0.008440504
77	0xbabe8e18	-0.0014538197
78	0xba7e6e35	-0.0009705753
79	0x3cc4b4f9	0.024012076
80	0xbc88bb60	-0.01669091
81	0x3c04ddc9	0.008109518
82	0x3d97262d	0.07380328
83	0x3cc9668f	0.024585037
84	0x3b8f789e	0.0043783924
85	0xbc13ee81	-0.009029032
86	0x3b6c0b98	0.0036017653
87	0xbd1bf83b	-0.038078528
88	0x3cd4466c	0.025912486
89	0x3c007899	0.007841253
90	0x3d0dc853	0.034614872
91	0xbac98057	-0.0015373331
92	0xbce9fb21	-0.02856213
93	0xbc16dcbb	-0.0092079
94	0x3ce9b44c	0.028528355
95	0x3d4c67bc	0.049903616
96	0x3a9455bb	0.0011317054
97	0x3cb610cb	0.022224804
98	0xbc11b80f	-0.008893981
99	0x3c52124a	0.012821743
100	0x3b42e4d3	0.002973844
101	0xbc2f1f71	-0.010688649
102	0x3bcd8801	0.0062723164
103	0xba7ee0cc	-0.00097228284
104	0xbd918b26	-0.071066186
105	0x3a855806	0.0010173328
106	0xbc626eeb	-0.01382039
107	0x3ccc1668	0.024913028
108	0xbda26bca	-0.079307154
109	0x3bdf29bf	0.0068103964
110	0xbce59139	-0.02802335
111	0xbd37ad6d	-0.044843126
112	0x3cae7af8	0.02129887
113	0x3c15d242	0.009144368
114	0x3c146483	0.009057167
115	0xbc71d074	-0.014759172
116	0x3a892118	0.0010462133
117	0xbadbc4f7	-0.0016767074
118	0x3cb5ec81	0.0222075
119	0xbb8b8c45	-0.004258665
120	0x3ca0d2f7	0.019631846
121	0xbba586b9	-0.0050514606
122	0x3c3c897a	0.011507386
123	0x3cfbf8ad	0.030758226
124	0xbbb8a867	-0.0056353095
125	0xbaad61a3	-0.001322795
126	0x3a61d6e4	0.000861509
127	0x3ca81f7f	0.020522831

exp_avg_sq f4 [128]
0	0x3e2826d4	0.16421062
1	0x3ce3a7ca	0.027789969
2	0x3cc548ef	0.024082629
3	0x39ed634b	0.00045278142
4	0x3e14aba9	0.14518608
5	0x3a74eb56	0.0009342929
6	0x3c1d5ed3	0.009605127
7	0x3bac9381	0.0052666073
8	0x3d8c0018	0.068359554
9	0x3d485883	0.048912536
10	0x3cd7bef8	0.026336178
11	0x3bd30d37	0.0064407843
12	0x3db402ff	0.08789634
13	0x3dcd1ae7	0.10014897
14	0x3bb03d4a	0.0053784
15	0x3bb96a7b	0.0056584454
16	0x3d2e1a90	0.0425058
17	0x3c92bb02	0.017911438
18	0x39dd6239	0.00042225586
19	0x3bedab07	0.007253054
20	0x3b7e52c3	0.0038806654
21	0x3d981de2	0.07427575
22	0x3bded155	0.0067998567
23	0x3c3d12e0	0.011540145
24	0x3d03e797	0.032203283
25	0x3cf54f5a	0.029945064
26	0x3bbd8b0b	0.0057843975
27	0x3daf4ea5	0.08559922
28	0x3a11cac2	0.00055615243
29	0x3d5c635c	0.053805694
30	0x3dc24a3d	0.09486816
31	0x3cf530c3	0.029930478
32	0x3db8b8f3	0.09019651
33	0x3b555dd8	0.0032557156
34	0x3c76183d	0.015020427
35	0x3add9047	0.001690396
36	0x3de699e3	0.1125982
37	0x3db53952	0.088488236
38	0x3d09a326	0.033602856
39	0x3c030fb0	0.007999346
40	0x3b2f2be6	0.0026729046
41	0x3a12663b	0.00055846915
42	0x3c04d45e	0.008107273
43	0x3b88889f	0.004166677
44	0x3c4354ae	0.011922045
45	0x3a4bf49f	0.0007780287
46	0x3b9c86d9	0.0047768173
47	0x3d45d6d9	0.048300598
48	0x3e41c0e9	0.18921246
49	0x3c7c6d89	0.015406975
50	0x3aef6aa1	0.0018266031
51	0x3bdabacf	0.0066751014
52	0x3b09102d	0.0020914183
53	0x3bd4c4cd	0.006493187
54	0x3bc6fe25	0.006072777
55	0x3b6b3d99	0.003589487
56	0x3d92372f	0.07139432
57	0x3c526f4d	0.012843919
58	0x3b8b2d96	0.0042473776
59	0x3df584fe	0.11988257
60	0x3d0d7723	0.034537446
61	0x3e1720f0	0.14758658
62	0x3d193a7a	0.037409283
63	0x3c205827	0.009786642
64	0x3df4c4d2	0.11951603
65	0x3a220d5d	0.0006181801
66	0x3af2ba53	0.0018518664
67	0x3d1c4e5b	0.038160663
68	0x3e1e4784	0.15456969
69	0x3d54fa4a	0.051996507
70	0x3d8e30de	0.069429144
71	0x3dd6d114	0.10489097
72	0x3cd0e516	0.025499862
73	0x3dc2a76e	0.09504591
74	0x3a317c0f	0.00067705003
75	0x3e2394c5	0.1597472
76	0x3ccef0f0	0.025261372
77	0x3bf670c2	0.007520766
78	0x3eb22280	0.34791946
79	0x3e1d9416	0.15388522
80	0x3d32ef03	0.04368497
81	0x3c765927	0.015035904
82	0x3e8b8622	0.27250773
83	0x3dc5f08d	0.09665022
84	0x3bf38122	0.0074311653
85	0x3ca6649e	0.02031165
86	0x39f28d89	0.0004626329
87	0x3bcb1053	0.0061970144
88	0x3d8354d1	0.06412662
89	0x3d55e349	0.05221871
90	0x3d22778e	0.039664797
91	0x3cf132ef	0.029443232
92	0x3e81e48b	0.25369677
93	0x3d3ba256	0.045809112
94	0x3e495fb0	0.19665408
95	0x3f3d679b	0.73986214
96	0x3ad8869f	0.0016519612
97	0x3d3279bb	0.043573122
98	0x3b94cc70	0.0045409724
99	0x3c00f9ea	0.007872084
100	0x3c0c83d6	0.008576354
101	0x3c5bdddd	0.013419596
102	0x3c29bf61	0.01036057
103	0x3a191819	0.00058400776
104	0x3e8a7c47	0.2704794
105	0x39cc4878	0.00038963906
106	0x3c46e12d	0.012138647
107	0x3c374c3f	0.011187612
108	0x3d19c6e8	0.037543207
109	0x3b8585c2	0.004074783
110	0x3bd3dbe9	0.0064654243
111	0x3daed143	0.08536007
112	0x3ceb38f8	0.028713688
113	0x3dc4876d	0.09596143
114	0x3d06908b	0.03285269
115	0x3c000dbd	0.007815775
116	0x3b68da43	0.0035530485
117	0x3b0946e7	0.0020946802
118	0x3b8d017e	0.0043031564
119	0x3c0b589e	0.008505015
120	0x3d7cde89	0.061735664
121	0x3c9c0791	0.019046577
122	0x3b3b3c80	0.0028569996
123	0x3db67b36	0.08910219
124	0x3b6128d4	0.003435661
125	0x3c9ba4ca	0.018999476
126	0x3ca8349f	0.020532904
127	0x3d5649d8	0.052316517
