results/DroneAgentMoveForwardnewTrainingFix/DroneAgent/DroneAgent-15210.pt (torch, 856301 bytes, 44 tensors)

network_body._body_endoder.seq_layers.0.weight f4 [128, 99]
0	0xbdb8b49c	-0.090188235
1	0xbd15a4db	-0.03653417
2	0x3daf9ce9	0.0857485
3	0xbe0365a7	-0.12831746
4	0xbc896cc0	-0.016775489
5	0x3deab5b1	0.11460436
6	0x3e122b63	0.14274363
7	0xbb9d4f3b	-0.004800705
8	0x3dab5b43	0.08367016
9	0xbde32d6e	-0.110926494
10	0xbe02effa	-0.12786856
11	0xbe3da535	-0.18520053
12	0xbd463cc9	-0.048397813
13	0xbd12ff4a	-0.035887994
14	0xbb824e0b	-0.0039765886
15	0x3e360ed0	0.17779088
16	0x3e0ece8e	0.13945982
17	0xba914b23	-0.0011085015
18	0x3d61ecc7	0.05515745
19	0x3e236186	0.15955171
20	0xbe29fa47	-0.1659938
21	0x3bd368a1	0.0064516817
22	0x3df068b2	0.11738719
23	0x3e2a8505	0.16652305
24	0x3d5e6930	0.054299533
25	0xbd8d1939	-0.068895765
26	0x3e55f98d	0.20895977
27	0xbdb88593	-0.09009852
28	0xbdd35d50	-0.10320532
29	0xbcfb4820	-0.03067404
30	0x3d380114	0.044922903
31	0x3dc0a5d6	0.09406631
32	0x3c816da3	0.01579935
33	0x3def1a40	0.11674929
34	0xbdb8c2d2	-0.09021534
35	0x3cf4db72	0.029889796
36	0xbe36e720	-0.17861605
37	0xbe37c002	-0.17944339
38	0xbd631029	-0.055435333
39	0xbde1bc40	-0.11022234
40	0x3d620936	0.055184565
41	0xbe15fea3	-0.14647917
42	0xbc1a6e24	-0.009425674
43	0x3d6ce382	0.057834156
44	0xbdc211fa	-0.09476085
45	0xbe5bcbff	-0.21464537
46	0x3b245362	0.0025074114
47	0xbe4a035f	-0.19727848
48	0xbd9129c3	-0.070880435
49	0x3c492725	0.012277399
50	0xbe13800f	-0.14404319
51	0x3d9c89d8	0.07643479
52	0xbe399750	-0.18124127
53	0xbcf39eab	-0.029738745
54	0xbe1b2521	-0.15150882
55	0x3e033d16	0.12816271
56	0x3c7be82e	0.01537518
57	0xbd14a731	-0.03629226
58	0x3d35217c	0.044221386
59	0xbc482b52	-0.01221736
60	0x3d3a1ddb	0.04543863
61	0x3e388dcc	0.18022841
62	0x3db3cc2e	0.087791786
63	0xbd950e5f	-0.07278132
64	0x3d53c873	0.051704835
65	0xbdb9406c	-0.090454906
66	0x3d15f710	0.03661257
67	0xbcb4570a	-0.02201416
68	0x3d96f341	0.07370616
69	0xbd5354e3	-0.051594626
70	0xbe2f72db	-0.17133658
71	0xbbde334d	-0.006781018
72	0x3c9870c7	0.018608464
73	0x3d50a4ee	0.05093854
74	0xbc9af987	-0.018917812
75	0xbe4abc4b	-0.1979839
76	0xbd2b93ad	-0.04188888
77	0x3d49e6af	0.049292263
78	0x3de8519c	0.11343691
79	0x3ddf3f46	0.1090074
80	0x3de31cc2	0.110894695
81	0x3c195505	0.009358649
82	0x3dcebc58	0.100945175
83	0xbe6b930c	-0.23005313
84	0x3e277d98	0.16356504
85	0x3c3404e1	0.010987491
86	0xbd938158	-0.07202405
87	0xbf20a70e	-0.62754905
88	0x3e333527	0.17500745
89	0x3e04e363	0.12977366
90	0x3e2d7ed5	0.16942914
91	0xbe0e15fa	-0.13875571
92	0x3dab25c9	0.08356816
93	0xbd3601d9	-0.044435356
94	0x3d755cf1	0.05990309
95	0xbdd36e72	-0.103238
96	0x3e09156e	0.13387081
97	0xbbea5609	-0.0071513695
98	0xbd970302	-0.073736206
99	0x3f4853e0	0.78252983
100	0xbc985a5b	-0.018597772
101	0xbe41496c	-0.18875664
102	0xbd7d8cc0	-0.061901808
103	0xbe98b221	-0.29823402
104	0xbf076e68	-0.5290284
105	0xbe21dd49	-0.1580707
106	0x3e0829e7	0.13297234
107	0xbafdf5e6	-0.0019375652
108	0x3c03aaca	0.008036325
109	0x3d93ff4e	0.0722643
110	0x3b44c815	0.0030026485
111	0xbea99b26	-0.3312618
112	0xbe1d3c2c	-0.15354985
113	0xbe05717a	-0.13031569
114	0x3ce81081	0.028328182
115	0xbd597af2	-0.053095765
116	0xbbf5b815	-0.007498751
117	0xbcf8da74	-0.030377604
118	0xbe4b18ca	-0.19833675
119	0x3e940ac0	0.28914452
120	0x3c110f88	0.008853801
121	0xbdbed434	-0.09317818
122	0x3f34a4b4	0.7056382
123	0x3c4d425b	0.012528027
124	0xbec02f01	-0.3753586
125	0xbe04fa8a	-0.12986198
126	0xbdddef17	-0.108366184
127	0xbd260e88	-0.0405412
128	0xbdf4e8b2	-0.119584456
129	0xbe8fcbf6	-0.28085297
130	0xbce689cc	-0.028141879
131	0xbdc70233	-0.09717216
132	0xbcf10a63	-0.029423898
133	0x3987d906	0.00025910902
134	0xbe185e88	-0.14879811
135	0xbde67fc0	-0.11254835
136	0xbdb260ea	-0.08709891
137	0x3cfdbf01	0.030974867
138	0xbe147ff3	-0.14501934
139	0xbebfbcc0	-0.37448692
140	0x3ce82286	0.028336775
141	0xbc885a0d	-0.016644502
142	0x3e3524b0	0.17689776
143	0xbe0b02d3	-0.13575296
144	0xbf14b362	-0.58086216
145	0xbd04c445	-0.03241374
146	0x3d11c1f1	0.035585348
147	0xbe164e66	-0.14678344
148	0xbe99111b	-0.29895863
149	0xbf386966	-0.72035825
150	0x3d46a733	0.048499297
151	0xbe40a4ca	-0.18812862
152	0xbe2c07b1	-0.16799809
153	0xbebfc8e6	-0.3745796
154	0xbe3a99aa	-0.1822268
155	0xbda7b46e	-0.08188711
156	0x3cf0b11b	0.029381325
157	0xbd9384ba	-0.0720305
158	0x3e1d441d	0.15358014
159	0xbd20fefc	-0.039305672
160	0xbe825bf1	-0.2546077
161	0xbde7c0f8	-0.11316103
162	0x3e3abe34	0.18236619
163	0xbcf6c01f	-0.030120907
164	0xbe750f19	-0.2393154
165	0xbe1bfdff	-0.1523361
166	0x3dbb5a2d	0.09148059
167	0xbb2178f0	-0.0024638735
168	0xbe129490	-0.14314485
169	0x3d4012e9	0.046893034
170	0xbe245bae	-0.16050598
171	0xbdc5d933	-0.09660568
172	0xbe988395	-0.2978789
173	0xbd13df07	-0.036101367
174	0x3c2f9566	0.010716772
175	0xbe582133	-0.21106414
176	0xbe3bfd4a	-0.18358341
177	0x3e257f9c	0.1616196
178	0xbe58f15f	-0.21185826
179	0xbe50e853	-0.20401125
180	0xbe8bcd31	-0.27304986
181	0xbd8d949c	-0.069131106
182	0xbe23098f	-0.15921615
183	0x3e04824d	0.12940331
184	0xbd0cd7b3	-0.034385394
185	0x3e511735	0.20419009
186	0xbe92588d	-0.28583184
187	0x3ce072c4	0.027398475
188	0xbedd2330	-0.43190908
189	0xbef1e61d	-0.47245875
190	0xbe8dd8d2	-0.27704483
191	0xbe80b5c5	-0.2513868
192	0xbe30b7e0	-0.17257643
193	0x3e838785	0.2568933
194	0xbe85f09e	-0.2616014
195	0x3e11e971	0.14249207
196	0xbe023728	-0.12716353
197	0xbd37c315	-0.04486378
198	0x3e2ca95e	0.16861483
199	0xbc84caf4	-0.016210057
200	0x3cbcb1a2	0.02303392
201	0x3e015f70	0.12634063
202	0xbd9bcacd	-0.076070406
203	0xbe456902	-0.19278339
204	0x3d993b70	0.0748204
205	0x3dd2bffc	0.10290524
206	0xbe146831	-0.14492871
207	0x3df93cc5	0.12169794
208	0xbe20deda	-0.15710011
209	0xbce1fce6	-0.027586412
210	0xbd864c4a	-0.0655752
211	0x3c3b4de1	0.011432142
212	0x3e350428	0.17677367
213	0xbe932b53	-0.2874399
214	0x3c669f42	0.014076056
215	0xbdd3c31a	-0.10339947
216	0xbd7cd890	-0.061729968
217	0xbdeacfe6	-0.11465435
218	0xbebc0241	-0.3672047
219	0x3e196d5a	0.1498312
220	0xbe293d2f	-0.16527246
221	0x3e0268d2	0.12735298
222	0x3cfb20bd	0.03065526
223	0x3d9f3e2c	0.0777553
224	0xbdcc5273	-0.099766634
225	0xbe704ede	-0.23467585
226	0x3ce47a24	0.027890272
227	0x3cdac941	0.026707293
228	0x3dc55094	0.0963451
229	0x3e07bb57	0.13255058
230	0xbd2827b9	-0.041053507
231	0xbe1f0c38	-0.15532005
232	0xbe6d2243	-0.23157601
233	0xbe57efff	-0.21087645
234	0x3d82c6ba	0.0638556
235	0xbe10e3fb	-0.14149468
236	0x3c4bd090	0.012439862
237	0xbd883f46	-0.066526935
238	0xbdaa4d85	-0.08315567
239	0xbdae61d9	-0.08514757
240	0xbdc5c414	-0.096565396
241	0x3d6e1820	0.058128476
242	0xbdbbd062	-0.09170605
243	0x3e61c040	0.22045994
244	0xbdabcbfe	-0.08388518
245	0xbdf698ba	-0.12040849
246	0x3d311d92	0.04324109
247	0xba538cd6	-0.00080699974
248	0xbda95c5c	-0.08269569
249	0x3e002bd6	0.12516722
250	0xbe036fd0	-0.12835622
251	0xbd9e3ff6	-0.07727043
252	0x3d382048	0.04495266
253	0x3e43f138	0.19134986
254	0xbe4df5c8	-0.2011329
255	0xbe024cbb	-0.12724583

network_body._body_endoder.seq_layers.0.bias f4 [128]
0	0xbd00f61b	-0.031484704
1	0xbdaadaf8	-0.08342546
2	0xbe1f69ab	-0.15567653
3	0x3c9831f1	0.018578501
4	0xbe184786	-0.14871034
5	0xbc1232fe	-0.00892329
6	0xbe0104aa	-0.12599435
7	0xbd46425b	-0.048403125
8	0xbd2ed65c	-0.042684898
9	0xbce3cdea	-0.027808148
10	0xbc851248	-0.016244069
11	0xbcf3032d	-0.0296646
12	0xbd5cdb02	-0.0539198
13	0xbc97cf92	-0.018531594
14	0xbc6563b1	-0.014000819
15	0xbb832da7	-0.004003245
16	0xbd372289	-0.04471067
17	0x3bcc2b7a	0.0062307687
18	0x3d7de193	0.061982702
19	0xbddb2363	-0.10700109
20	0xbe31e7b4	-0.17373544
21	0xbd37bb50	-0.04485637
22	0xbb91ee16	-0.004453431
23	0xbd8196ed	-0.06327615
24	0xbdb6cd64	-0.08925894
25	0xbd453f9d	-0.04815637
26	0xbc0ac7b1	-0.008470462
27	0xbd24c2ab	-0.040224712
28	0xbd999796	-0.07499616
29	0xbd981421	-0.07425714
30	0xbd79c485	-0.06097843
31	0xbd8166b2	-0.06318416
32	0xbd449a70	-0.047998846
33	0xbd4979a1	-0.04918826
34	0x3cab529c	0.020913415
35	0x3c9f22c7	0.019425763
36	0xbd8866f9	-0.066602655
37	0x3e0be541	0.13661672
38	0xbc6e617c	-0.014549609
39	0xbda40ed7	-0.08010643
40	0x3c7a2654	0.015267927
41	0x3e13200e	0.14367697
42	0xbdaab79d	-0.08335803
43	0xbcb07044	-0.021537907
44	0x39f0ec55	0.00045952448
45	0xbdd2e88a	-0.102982596
46	0x3d8526ba	0.06501527
47	0xbdeebfcc	-0.11657676
48	0x3cf506ba	0.029910434
49	0x3d5c6d37	0.053815093
50	0x3df6ecfb	0.12056919
51	0x3c3bc17d	0.011459705
52	0x3d4487d4	0.0479811
53	0xbdefd956	-0.117113754
54	0xbcd817b2	-0.026378486
55	0x3dd5045d	0.10401223
56	0xbd9922c2	-0.07477333
57	0x3b217e26	0.002464184
58	0xbd1f8a10	-0.038950026
59	0x3cd22e5d	0.025656873
60	0xbe13b3c3	-0.14424042
61	0xbdac76f2	-0.084211245
62	0xbc9afc75	-0.018919209
63	0xbd8fafef	-0.070159785
64	0x3d9ab784	0.07554534
65	0x3d861f31	0.06548918
66	0x3c43c444	0.011948649
67	0x3ca2a715	0.019855062
68	0xbd942a6c	-0.07234654
69	0x3d906bb1	0.070517905
70	0xbd141f0b	-0.036162417
71	0x3ca0b901	0.019619467
72	0xbd5ac5df	-0.05341136
73	0xbe355293	-0.17707281
74	0xbd87790f	-0.06614887
75	0xbd957538	-0.07297748
76	0xbd3a36be	-0.045462362
77	0x3d9f2f2c	0.07772669
78	0xbcae1b1a	-0.021253157
79	0x3c3008ef	0.010744317
80	0xbd2c915c	-0.042130813
81	0xbc805e16	-0.015669864
82	0xbdff9ef4	-0.1248149
83	0x3d75eac3	0.06003834
84	0xbc868021	-0.016418518
85	0xbd988839	-0.074478574
86	0x3e20c33d	0.15699477
87	0xbd8b7e6d	-0.06811223
88	0xbc4c46fb	-0.012468095
89	0x3dc381c3	0.095462345
90	0xbb5f571f	-0.0034079028
91	0xbc4d6250	-0.012535647
92	0xbd12408d	-0.03570609
93	0xbda2eb5d	-0.07955048
94	0x3d53b2f5	0.05168434
95	0xbcf6f9ea	-0.030148465
96	0xbcfba795	-0.030719558
97	0xbdbc2418	-0.09186572
98	0xbc8fa6ca	-0.017535586
99	0xbc9e073c	-0.019290559
100	0xbe33c665	-0.1755615
101	0x3d85817a	0.06518836
102	0xbd6873de	-0.056751125
103	0x3d9e08f2	0.0771655
104	0xbd851b55	-0.06499354
105	0x3ba90dc5	0.005159112
106	0x3c94fd9b	0.018187335
107	0x3d0f5db7	0.035001483
108	0xbd7b9712	-0.06142337
109	0xbdd98d3e	-0.10622643
110	0xbc71f164	-0.014767025
111	0xbd291fdd	-0.041290153
112	0x3d475676	0.04866644
113	0xbca14034	-0.019683935
114	0xbca1a564	-0.019732185
115	0xbdb46a20	-0.08809304
116	0x3d694411	0.05694968
117	0x3ce031ec	0.027367555
118	0xbd8bff8f	-0.06835853
119	0xbd2195d2	-0.03944952
120	0x3b8b0649	0.0042426926
121	0xbd7725c5	-0.060338754
122	0x3d1c5392	0.038165636
123	0x3d0bfa47	0.03417423
124	0x3d4881b7	0.04895183
125	0x3cb30509	0.021852987
126	0xbdba940b	-0.09110268
127	0x3cce037c	0.025148146

network_body._body_endoder.seq_layers.2.weight f4 [128, 128]
0	0xbceb4d9f	-0.028723536
1	0x3d8cc39d	0.06873248
2	0x3e85742a	0.2606519
3	0xbe81153f	-0.25211522
4	0xbe155ddf	-0.1458659
5	0x3c28934f	0.010289027
6	0xbed9bfda	-0.42529184
7	0xbe897d78	-0.26853538
8	0xbe7a12ad	-0.24421187
9	0x3ec0716e	0.3758654
10	0x3e901d83	0.28147516
11	0xbddf4f22	-0.10903765
12	0x3e88cd14	0.26718962
13	0xbe14b878	-0.14523494
14	0x3d0e14be	0.03468775
15	0xbc90924b	-0.017647883
16	0x3d612641	0.054968122
17	0xbe1aeea8	-0.15130103
18	0xbedda12f	-0.43287036
19	0x3cd53a28	0.026028708
20	0x3e6daf8b	0.23211496
21	0xbd80eebb	-0.06295534
22	0x3e9bda6e	0.30440086
23	0x3d92808f	0.07153427
24	0xbe040a4c	-0.12894553
25	0x3b2e1093	0.0026560172
26	0x3dec44c9	0.11536557
27	0xbe2dad3c	-0.16960615
28	0x3dac27b4	0.0840601
29	0x3e764d5d	0.24052949
30	0xbdc26e3f	-0.09493684
31	0xbd91f734	-0.071272284
32	0x3e114cc1	0.14189436
33	0xbe88e305	-0.26735702
34	0x3df4e4d3	0.11957707
35	0xbd758612	-0.059942313
36	0xbe273807	-0.16329966
37	0xbdcae144	-0.09906247
38	0x3c346a05	0.011011605
39	0x3e497d7e	0.19676778
40	0xbd00edf0	-0.031476915
41	0xbe1b6303	-0.15174489
42	0x3d8de15f	0.06927752
43	0xbe04a900	-0.12955093
44	0xbdec4294	-0.11536136
45	0xbee75484	-0.45181668
46	0xbed3ca7a	-0.41365415
47	0x3e383244	0.17987925
48	0xbd39e77d	-0.04538678
49	0xbde7a787	-0.1131125
50	0xbe3511c1	-0.17682554
51	0xbec3e06b	-0.38257155
52	0xbe159758	-0.14608514
53	0xbcd85788	-0.026408926
54	0x3cdb0ad7	0.026738567
55	0xbc65026e	-0.01397763
56	0x3e5740db	0.21020834
57	0x3e28d06b	0.16485755
58	0xbe2b8760	-0.1675086
59	0xbe602d78	-0.21892345
60	0xbe4d8fa9	-0.20074333
61	0xbe4940d8	-0.19653642
62	0xbe0e8588	-0.13918126
63	0x3e25e46a	0.16200414
64	0xbb2dd5c1	-0.0026525112
65	0xbe45e16a	-0.1932427
66	0x3d6f126b	0.058367174
67	0x3e07e12f	0.13269494
68	0xbe7afa89	-0.24509634
69	0xbe016c80	-0.12639046
70	0x3e31fbdc	0.17381233
71	0x3cd96cfa	0.026541222
72	0x3b4cb9c6	0.003123866
73	0xbcdce6f8	-0.026965603
74	0xbd8593b8	-0.06522316
75	0x3ddffb67	0.10936623
76	0xbdae2c53	-0.08504548
77	0xbe3f742c	-0.1869666
78	0xbe09fc91	-0.13475253
79	0xbdf2497c	-0.11830422
80	0x3e4e6fc0	0.20159817
81	0x3e3400a8	0.17578375
82	0xbeaa8299	-0.33302763
83	0x3d4e5824	0.050377026
84	0x3dc4f222	0.09616496
85	0xbd0e00f5	-0.03466888
86	0xbdb58080	-0.088624
87	0x3e8b5c10	0.27218676
88	0xbe3d7e43	-0.18505196
89	0xbec0ab47	-0.37630674
90	0xbe804d28	-0.25058866
91	0x3e012a32	0.12613752
92	0x3e37a9aa	0.17935815
93	0x3e3f86cc	0.18703765
94	0xbcbff5eb	-0.023432693
95	0x3cb4f446	0.022089135
96	0xbe50f442	-0.20405677
97	0x3c6b5981	0.014364601
98	0x3ddf5f50	0.10906851
99	0xbe59e595	-0.21278985
100	0x3e814549	0.25248173
101	0xbed2ed4d	-0.4119667
102	0xbe153e62	-0.14574578
103	0xbda65656	-0.08121936
104	0x3dfa6591	0.122264035
105	0x3db2b265	0.08725432
106	0x3b98059c	0.0046393406
107	0xbe94e696	-0.29082173
108	0x3d4672de	0.04844939
109	0x3e04329e	0.12909934
110	0xbe15ffb0	-0.14648318
111	0x3dcee712	0.10102667
112	0xbe0cab20	-0.13737154
113	0x3d423678	0.047415227
114	0xbde2f9a9	-0.11082775
115	0xbca4803e	-0.020080682
116	0xbe6fe417	-0.23426853
117	0xbea19e9b	-0.3156632
118	0x3d9e975a	0.07743712
119	0xbe4778f8	-0.1947974
120	0x3d04a825	0.032386918
121	0x3d5244da	0.051335193
122	0xbdc2762b	-0.09495195
123	0x3d5fc9c0	0.054635763
124	0xbd5b85b1	-0.053594295
125	0x3e29293e	0.16519639
126	0xbe219059	-0.1577772
127	0x3cc1e8e7	0.023670627
128	0xbd849019	-0.06472797
129	0xbcda9d01	-0.026686193
130	0xbe3a73f9	-0.18208303
131	0xbe8cab67	-0.2747452
132	0x3d04fdb1	0.0324685
133	0x3db32bc0	0.08748579
134	0xbe0e2fbb	-0.13885395
135	0x3e95c9b9	0.29255465
136	0x3d58a338	0.052890033
137	0x3d610c74	0.054943517
138	0x3c444ce3	0.011981222
139	0xbcb82e95	-0.02248315
140	0xbc4cb62a	-0.012494603
141	0xbe78b658	-0.24288309
142	0xbdbafff2	-0.09130849
143	0xbe7fcf2c	-0.24981374
144	0xbe16a6a5	-0.14712007
145	0x3d92e8f3	0.07173338
146	0x3e5683ad	0.20948668
147	0xbe0cc6d8	-0.13747728
148	0xbe89a6a1	-0.2688494
149	0xbe87358b	-0.26408038
150	0xbe472097	-0.19446026
151	0xbe297458	-0.16548288
152	0xbdd4a3d0	-0.10382807
153	0xbf4afcda	-0.7929207
154	0xbe47a825	-0.19497736
155	0x3e183fc2	0.14868072
156	0xbe1952eb	-0.14973037
157	0x3d0f5c86	0.035000347
158	0x3ddf9b32	0.10918273
159	0xbe50a462	-0.20375207
160	0x3e85fcd5	0.26169458
161	0x3e389a3a	0.18027583
162	0xbd1bf7ad	-0.038078
163	0x3dc51d6d	0.09624753
164	0x3e3ebf1d	0.18627591
165	0xbdff15aa	-0.12455304
166	0xbf1e4600	-0.6182556
167	0x3ea90b8a	0.33016616
168	0xbe5f3763	-0.21798472
169	0x3dbf11dc	0.09329578
170	0xbc9aa915	-0.018879453
171	0xbd279c8e	-0.040920787
172	0x3b10282d	0.0021996603
173	0xbe0aaa22	-0.13541463
174	0x3d2f763a	0.04283736
175	0xbe410818	-0.18850744
176	0xbd138b15	-0.03602131
177	0x3b3ca547	0.0028785036
178	0x3e316d42	0.17326835
179	0xbf1600e2	-0.585951
180	0xbef1141a	-0.4708565
181	0xbd71852e	-0.0589649
182	0xbcde1f4f	-0.027114538
183	0x3e35a823	0.1773992
184	0x3cbd0a49	0.023076193
185	0x3e0c5c53	0.13707094
186	0xbd9f0226	-0.07764082
187	0xbe8abb6b	-0.27096114
188	0x3d7cb6e6	0.061697863
189	0xbdae628c	-0.0851489
190	0xbef53a0b	-0.47895846
191	0xbe2db6f1	-0.16964318
192	0x3dba853c	0.09107444
193	0xbd989b43	-0.07451489
194	0xbd131b59	-0.035914753
195	0x3d0ee444	0.03488566
196	0x3df6d731	0.12052763
197	0x3d66916a	0.05629102
198	0xbd8a9012	-0.067657605
199	0xbedd20a3	-0.43188962
200	0x3dce421c	0.10071203
201	0xba8e818d	-0.0010872349
202	0x3ce71d03	0.028212076
203	0x3d189799	0.03725395
204	0xbd459bc9	-0.04824427
205	0x3d78fcb1	0.06078786
206	0x3e4463ec	0.19178742
207	0xbd3a2c67	-0.0454525
208	0xbc3a02e0	-0.0113532245
209	0x3e32816f	0.17432187
210	0xbf00c4e9	-0.5030046
211	0xbdb4ced0	-0.08828509
212	0x3d34b9f1	0.04412264
213	0x3e0391cc	0.12848586
214	0xbde80f73	-0.11331072
215	0xbdcc6d25	-0.09981755
216	0x3da7604f	0.08172666
217	0x3d7a1192	0.061051913
218	0x3e0450cb	0.12921445
219	0xbd0d929f	-0.034563657
220	0x3db1c6b4	0.08680478
221	0x3f1d5e0b	0.61471623
222	0x3cfb0d66	0.030646037
223	0xbeb90091	-0.36133245
224	0xbdd5269f	-0.10407757
225	0xba2f3260	-0.00066832267
226	0x3d1c6641	0.038183454
227	0xbdbe744d	-0.09299526
228	0xbe9c18bc	-0.3048762
229	0xbc38cf4d	-0.011279893
230	0x3e9a8e02	0.30186468
231	0x3d4f9938	0.05068323
232	0xbdc65ec9	-0.096860476
233	0xbdb00497	-0.085946254
234	0xbca32d43	-0.019919043
235	0xbd8c2a7c	-0.06844041
236	0xbe0eb163	-0.13934855
237	0xbd84f0e0	-0.06491256
238	0x3b9a54c6	0.004709813
239	0xbe65f079	-0.22455014
240	0xbe7772e0	-0.24164915
241	0xbe176979	-0.14786328
242	0xbeb1ca8f	-0.34724852
243	0xbd010466	-0.031498335
244	0xbdc78aa5	-0.09743241
245	0xbdb6616b	-0.089053
246	0xbe87aafe	-0.26497644
247	0xbd978bac	-0.07399687
248	0xbe3c2456	-0.18373236
249	0xbd1f749f	-0.038929578
250	0x3cd274bf	0.025690435
251	0xbe93d165	-0.28870693
252	0xbdea9d23	-0.11455753
253	0x3e2cc2a7	0.16871129
254	0x3f04d9a1	0.51894575
255	0xbe835e85	-0.2565805

network_body._body_endoder.seq_layers.2.bias f4 [128]
0	0xbe2e26dc	-0.17007011
1	0xbc26545b	-0.010151948
2	0x3c7f52a1	0.015583665
3	0xbe11f08e	-0.1425192
4	0xbd9f5da9	-0.07781536
5	0xbe1c405e	-0.15258929
6	0xbcdc2f5a	-0.026878048
7	0xbcaae032	-0.020858858
8	0x3c07803b	0.008270319
9	0xbe2665cc	-0.1624977
10	0x3cc87bba	0.02447306
11	0x3cb0170e	0.021495368
12	0x3cd3c20d	0.025849367
13	0x3d7c2982	0.061563022
14	0xbd8e3ee2	-0.06945588
15	0xbd525c48	-0.051357538
16	0xbe03c5c7	-0.12868415
17	0xbda6eadc	-0.081502646
18	0x3d992e31	0.074795134
19	0xbe1c6f7e	-0.15276906
20	0xbe0a27d8	-0.13491762
21	0xbc1ff58c	-0.009763133
22	0xbe730d3e	-0.2373552
23	0x3e026740	0.12734699
24	0xbdf707bc	-0.12062022
25	0xbdc531c8	-0.09628636
26	0xbe07f74a	-0.13277927
27	0xbbc6febc	-0.006072847
28	0x3c7c34c6	0.015393442
29	0x3d68ce2d	0.05683725
30	0xbe291066	-0.16510162
31	0x3d4b1f70	0.049590528
32	0xbe7526d1	-0.23940589
33	0xbd87ea8c	-0.06636533
34	0xbbdf1e82	-0.0068090567
35	0xbb773388	-0.0037719924
36	0xbd86b9f5	-0.06578437
37	0xbe373629	-0.17891754
38	0xbe74a1c0	-0.23889828
39	0x3caeb401	0.021326067
40	0xbe05f0e0	-0.13080168
41	0xbc8eeb82	-0.017446283
42	0xbe2a35fc	-0.16622156
43	0xbe5c1f79	-0.21496381
44	0xbd995f0d	-0.074888326
45	0xbc06fa01	-0.0082383165
46	0xbd0db46a	-0.034595884
47	0xbe00be5c	-0.12572616
48	0xbe59bfcc	-0.21264571
49	0xbd10ba63	-0.035334002
50	0x3d4aad85	0.049481887
51	0xbdc8fea3	-0.09814193
52	0xbdfc9b47	-0.12334304
53	0xbd43a111	-0.047761027
54	0x3e0edf73	0.13952427
55	0xbba791ce	-0.005113817
56	0xbdbcb8eb	-0.09214958
57	0xbc8996ce	-0.016795542
58	0xbe2bc500	-0.16774368
59	0xbd8056d1	-0.06266559
60	0xbe564892	-0.20926121
61	0xbde714d6	-0.11283271
62	0xbe811906	-0.25214404
63	0xbcd29e3b	-0.025710216
64	0xbe6204a6	-0.22072086
65	0xbdca1956	-0.09868114
66	0xbe711711	-0.23543955
67	0xbc39026d	-0.011292082
68	0x3ce725aa	0.028216202
69	0xbe101541	-0.14070608
70	0xbe250ea5	-0.16118868
71	0x3d525eaf	0.05135983
72	0x3b46dcd7	0.0030344033
73	0x3c94d9f9	0.018170344
74	0xbe34a98b	-0.176428
75	0xbe85b0e1	-0.2611151
76	0xbd23a9ae	-0.03995674
77	0xbe14691e	-0.14493224
78	0xbc0a1822	-0.008428605
79	0xbd900d92	-0.07033838
80	0xbc842080	-0.016128778
81	0x3d0917ac	0.03346984
82	0xbd88f3b7	-0.0668711
83	0x3c74cf8e	0.014942063
84	0xbe10e0a0	-0.14148188
85	0xbd5a7b71	-0.05334038
86	0xbe1b5b7f	-0.15171622
87	0xbe124d96	-0.14287409
88	0xbe0eff6f	-0.13964628
89	0xbe30979f	-0.17245339
90	0xbd800daf	-0.0625261
91	0xbe387962	-0.18015054
92	0xbd04040f	-0.032230433
93	0xbe82ea97	-0.25569603
94	0xbc259849	-0.010107108
95	0xbd268dd0	-0.040662587
96	0xbd339a8e	-0.043848567
97	0xbe790283	-0.24317364
98	0xbda982d6	-0.08276908
99	0xbe3f1810	-0.18661523
100	0xbbf92c15	-0.007604132
101	0xbddddc24	-0.10833004
102	0xbc73a081	-0.01486981
103	0xbe6ca34e	-0.23109171
104	0xbd79554f	-0.060872372
105	0xbe3d6bc5	-0.18498142
106	0xbd522e39	-0.051313613
107	0xbc7f983d	-0.015600261
108	0xbe0d6d7a	-0.13811293
109	0xbe60dfbc	-0.21960348
110	0xbc8020c5	-0.015640626
111	0xbe05646c	-0.13026589
112	0x3b2e7b07	0.0026623623
113	0xbe73ba20	-0.2380147
114	0xbdd457cf	-0.10368311
115	0xbe0a8398	-0.13526762
116	0xbe50cbf7	-0.20390306
117	0x3da0abc4	0.07845262
118	0xbdfbb532	-0.1229042
119	0x3c94b8eb	0.018154582
120	0xbd8eeb45	-0.06978468
121	0xbdb6ca9d	-0.08925364
122	0xbe5e134e	-0.21687052
123	0xbc3489bd	-0.0110191675
124	0xbdf54ec5	-0.11977915
125	0x3c2ffcc7	0.010741419
126	0x3da3c42c	0.07996401
127	0xbe3e7da7	-0.1860262

action_model._continuous_distribution.log_sigma f4 [1, 4]
0	0xc143436e	-12.203962
1	0xc144162c	-12.255413
2	0xc142780d	-12.154309
3	0xc140c6a7	-12.048499

action_model._continuous_distribution.mu.weight f4 [4, 128]
0	0x3eb05e0d	0.34446755
1	0x3d9cdeb9	0.076596685
2	0xbb38efe3	-0.0028219156
3	0xbcfa8962	-0.030583087
4	0x3b5a10bc	0.0033274135
5	0x3d47e83c	0.04880546
6	0x3cffef0a	0.031241912
7	0xbbfb2909	-0.007664804
8	0xbbf2f838	-0.007414844
9	0xbb82f8d3	-0.0039969473
10	0xbb399285	-0.0028316092
11	0x3a395f55	0.00070713955
12	0x3942eaaa	0.00018588701
13	0x39dfb3ea	0.0004266792
14	0x3c0bb584	0.008527163
15	0xbc62a4c0	-0.013833225
16	0xbc99ba39	-0.018765556
17	0x3bd6bdb9	0.0065533784
18	0xbc8f597b	-0.017498722
19	0xbce06cca	-0.027395625
20	0x39861826	0.00025576464
21	0xbe0ac30b	-0.13550965
22	0x3bd1401a	0.0063858153
23	0x38a75e63	7.9807614e-05
24	0xbc08dd54	-0.00835355
25	0x3b9235ec	0.0044619944
26	0xbc8a2ccd	-0.016867066
27	0x3a8b965c	0.0010649669
28	0xbd9d7a4e	-0.076893434
29	0xbcc61755	-0.024181047
30	0x3b2946a4	0.0025829459
31	0x3bb80615	0.0056159594
32	0x3b97c36d	0.004631451
33	0x3d42e8de	0.04758536
34	0x3b7bea19	0.0038439094
35	0xbb073039	-0.0020628108
36	0xbbe29e76	-0.0069158627
37	0x3d0691c5	0.03285386
38	0xbc6eb698	-0.014569901
39	0xbbd91db9	-0.0066258577
40	0xbc3029bc	-0.010752138
41	0x3c1be4b3	0.009514975
42	0xba91aab6	-0.0011113498
43	0x3e1932a0	0.14960718
44	0x3c745a36	0.014914086
45	0xbd0d33fe	-0.03447341
46	0x3a56cb8e	0.0008193784
47	0xbba60f16	-0.0050677164
48	0xbd2834ac	-0.041065857
49	0x3ce2c1a1	0.02768022
50	0x3c81c6fa	0.01584195
51	0xbc2d81f6	-0.010590067
52	0x3d0c0127	0.034180786
53	0xbb2484ff	-0.0025103686
54	0xbbcefe61	-0.0063169454
55	0x3b0ca68b	0.0021461572
56	0x3abe05d2	0.0014497584
57	0x3bd2d534	0.006434107
58	0x3d035b56	0.032069527
59	0xbbfe8699	-0.00776751
60	0x38630e7c	5.4134507e-05
61	0xbca91013	-0.020637548
62	0x3c151656	0.009099564
63	0x3b9bbfca	0.0047530876
64	0x3d1c9138	0.03822443
65	0x3b591111	0.0033121745
66	0x3bd06b60	0.0063604563
67	0x3b8afc7a	0.0042415233
68	0xba2d8c3c	-0.0006620323
69	0x3b05856a	0.002037371
70	0x3c558d4e	0.013034178
71	0x3c644ce4	0.013934348
72	0x3b90f2f7	0.004423495
73	0xbb699c33	-0.003564608
74	0xbdd30ea3	-0.10305526
75	0xbbeddf26	-0.0072592674
76	0xbb727ec6	-0.0037001832
77	0x3be96443	0.007122548
78	0xbba422ca	-0.00500903
79	0xbd9ba521	-0.07599855
80	0xbb4098ae	-0.002938788
81	0xba9eeb8b	-0.0012124641
82	0x3b32d956	0.0027290187
83	0x3be41970	0.00696104
84	0x3ba8dd13	0.005153307
85	0xbb77719a	-0.003775692
86	0xbbe87f01	-0.007095218
87	0xbc0f59ac	-0.008749407
88	0xbd66a687	-0.056311157
89	0x3e931494	0.28726637
90	0xbc34ce37	-0.011035494
91	0x38c5939a	9.421185e-05
92	0x3c1eb537	0.00968676
93	0xbea60bc3	-0.32430848
94	0xba643cec	-0.0008706588
95	0xba940f50	-0.0011296067
96	0x3b0b497a	0.0021253512
97	0x3d9319c4	0.07182649
98	0x3af805f2	0.001892267
99	0xbd0c9d08	-0.034329444
100	0x3c507cbf	0.012725054
101	0xbcca5d59	-0.024702715
102	0xbb0531d4	-0.002032389
103	0xbc95a320	-0.01826626
104	0x3d2566d0	0.040381253
105	0x3e13cb0f	0.1443293
106	0xbc68328c	-0.014172208
107	0x3b4500ee	0.0030060369
108	0xbc87b0e8	-0.016563848
109	0x3db22a60	0.08699489
110	0x3cbea27c	0.023270838
111	0xbbddd077	-0.0067692357
112	0xbb38dad2	-0.00282066
113	0xbd4c4537	-0.049870696
114	0x3c53ebd9	0.012934648
115	0xbdc63de9	-0.09679777
116	0xbc60d88e	-0.013723506
117	0xbaf17277	-0.0018420954
118	0x3c6417fb	0.013921733
119	0x3b561a87	0.003266962
120	0xbdc3463d	-0.09534881
121	0xbe386468	-0.18007052
122	0x3e8c3140	0.27381325
123	0xbbd352d2	-0.006449082
124	0x3c43292e	0.0119116735
125	0xbbb0113d	-0.0053731487
126	0x3d093a26	0.03350272
127	0x3b0e1504	0.0021680007
128	0x3e0abdea	0.13549009
129	0x3e8d1e75	0.275623
130	0x3d4be852	0.049782105
131	0x3b93a572	0.0045058066
132	0x3c62c493	0.013840812
133	0x3dd3d620	0.103435755
134	0xbbd05e90	-0.006358929
135	0xbc167353	-0.009182769
136	0xba72456a	-0.0009241911
137	0xba3e9df6	-0.0007271463
138	0xba5b68f1	-0.00083698245
139	0x3ab67cef	0.0013922731
140	0x3b582dd6	0.0032986305
141	0x3bb5b50c	0.005545264
142	0xbb2dbdb6	-0.0026510782
143	0xbc0ce612	-0.008599775
144	0xbdc12394	-0.09430614
145	0x3be54653	0.0069969087
146	0x3ac9df25	0.0015401585
147	0x3b52902b	0.0032129388
148	0xbd00f103	-0.031479847
149	0x3dccf2ab	0.10007223
150	0xbd1cf82a	-0.038322605
151	0x3bb836a4	0.005621748
152	0xbc8230af	-0.015892355
153	0x3b9a5ca4	0.0047107507
154	0xbb868510	-0.0041052178
155	0xba98e450	-0.0011664722
156	0xbda1d801	-0.079025276
157	0xbdcfbf60	-0.10143924
158	0xbade5ccf	-0.0016964915
159	0x3b1c99f1	0.0023895467
160	0xba3170d4	-0.0006768827
161	0x3e696763	0.22793345
162	0xba44bc72	-0.0007504887
163	0xba3f3062	-0.00072932814
164	0x3bacc2ee	0.005272261
165	0xbd0b92f9	-0.03407571
166	0x3ba0655f	0.004894897
167	0xbb12c2b0	-0.0022393875
168	0xbcfe4c83	-0.031042343
169	0xbaedabfa	-0.0018132918
170	0x3a6299ca	0.0008644132
171	0xbd038a6b	-0.032114428
172	0xbd8dfc88	-0.06932932
173	0x3af54c09	0.0018714677
174	0x3b18725e	0.0023261528
175	0xbb0e1ed9	-0.0021685867
176	0x3d18b5cc	0.03728275
177	0xbc2b5365	-0.0104568945
178	0x3b953f95	0.0045546987
179	0x3b449d4b	0.003000098
180	0x3d1fa83c	0.0389788
181	0xbd01c381	-0.031680588
182	0xbbb30f0a	-0.0054644393
183	0x3b88f872	0.0041800076
184	0x3ae10028	0.0017166184
185	0x3c362e74	0.011119474
186	0x3dba57d6	0.090987846
187	0xbc4e626a	-0.012596706
188	0x3bd97b15	0.006636987
189	0xb95049bd	-0.00019863895
190	0xbbb8cab4	-0.0056393985
191	0xbcd48c4e	-0.025945809
192	0x3c924bbe	0.017858382
193	0x3a461442	0.0007556119
194	0x3c7ee647	0.015557832
195	0x3c2e870f	0.010652318
196	0xbc32291f	-0.010874062
197	0x3b1912f8	0.0023357254
198	0xbb61fc20	-0.0034482554
199	0x3ccad39b	0.024759104
200	0x3c4e099a	0.012575531
201	0xba3b1bcc	-0.0007137626
202	0xbcb0f9de	-0.021603521
203	0x3bdf60ee	0.006816975
204	0xbd57828b	-0.05261473
205	0xbc3311e8	-0.010929562
206	0x3bce15e2	0.0062892297
207	0xbd8dba4a	-0.069202974
208	0xbb19f7d4	-0.0023493664
209	0x3a160bd6	0.00057238096
210	0x3a98514c	0.0011620908
211	0x3c604b17	0.013689778
212	0x3c047786	0.008085137
213	0xbb9242d7	-0.0044635343
214	0x3dddc914	0.10829368
215	0xbb81a3ab	-0.0039562783
216	0xbe44ce8e	-0.1921942
217	0x3e2b00ed	0.16699572
218	0xbc908da2	-0.01764566
219	0x3ca0e272	0.019639228
220	0xbbc14265	-0.0058978074
221	0xbe153a0c	-0.14572924
222	0xbb9138e5	-0.004431831
223	0x3ae8e8c3	0.0017769564
224	0xbb325665	-0.002721214
225	0x3ca42de6	0.020041417
226	0x39c812f2	0.00038161088
227	0x3d40e380	0.04709196
228	0xbc70e9e7	-0.014704204
229	0xbc8deb9b	-0.01732426
230	0xbb86fc67	-0.004119444
231	0xbbbcd19c	-0.005762292
232	0xbde33401	-0.11093903
233	0x3f270604	0.65243554
234	0xbc81296a	-0.015766818
235	0x3b45bf08	0.0030173678
236	0x3c8aa11a	0.016922522
237	0x3d4d0015	0.050048906
238	0xbd2b031c	-0.041751012
239	0x3b9e1f8c	0.004825538
240	0xbb147e42	-0.0022658263
241	0xbd353d72	-0.044248052
242	0x3c5a6742	0.013330283
243	0xbe46339c	-0.19355625
244	0xbdbeff40	-0.09326029
245	0xbb0bb74a	-0.0021318966
246	0x3c2d288d	0.01056875
247	0x38afd467	8.384213e-05
248	0xbebb4960	-0.36579418
249	0x3d52fd7b	0.05151127
250	0xbdd3e873	-0.103470705
251	0xba4078a7	-0.00073421974
252	0x3c890432	0.016725633
253	0xbc5e9bec	-0.013586979
254	0x3b8a05de	0.004212125
255	0x3b58aa3f	0.003306046

action_model._continuous_distribution.mu.bias f4 [4]
0	0x3d930802	0.07179262
1	0x3d0f44c0	0.034977674
2	0xbd0db2d7	-0.034594383
3	0xbc70e606	-0.014703279

exp_avg f4 [128, 99]
0	0x00000000	0.0
1	0xb1b4483d	-5.246902e-09
2	0xb77265a1	-1.4447986e-05
3	0x33f36dc5	1.1335536e-07
4	0xb80856e8	-3.2505865e-05
5	0x00000004	6e-45
6	0x00000000	0.0
7	0xb7709531	-1.4339851e-05
8	0x00000004	6e-45
9	0x37d49166	2.5340076e-05
10	0xb7723581	-1.4436781e-05
11	0x00000004	6e-45
12	0x33d02a88	9.693491e-08
13	0x80000004	-6e-45
14	0xb567bc19	-8.6327924e-07
15	0x30842089	9.613511e-10
16	0x8000004c	-1.06e-43
17	0xb7709964	-1.4340829e-05
18	0x00000004	6e-45
19	0xb6dbf93c	-6.5557233e-06
20	0xb770e995	-1.43595e-05
21	0x80000004	-6e-45
22	0x32a8b303	1.963918e-08
23	0x00000004	6e-45
24	0xb5bc651a	-1.4036516e-06
25	0x2d866498	1.5278709e-11
26	0x32f9b2d8	2.9068744e-08
27	0xb7711232	-1.4368956e-05
28	0x00000000	0.0
29	0xb6c41628	-5.8438345e-06
30	0x00000000	0.0
31	0x80000004	-6e-45
32	0xb7709531	-1.4339851e-05
33	0x00000000	0.0
34	0x364a3428	3.0130705e-06
35	0x2b8db774	1.0069571e-12
36	0x32f9b2d8	2.9068744e-08
37	0xb7711205	-1.4368915e-05
38	0x00000000	0.0
39	0xb73b442e	-1.1161943e-05
40	0x00000000	0.0
41	0x80000004	-6e-45
42	0xb7709531	-1.4339851e-05
43	0x00000000	0.0
44	0x365e51d0	3.31282e-06
45	0x80000004	-6e-45
46	0x32f9b2d8	2.9068744e-08
47	0xb7711205	-1.4368915e-05
48	0x00000000	0.0
49	0xb630f7d9	-2.637031e-06
50	0x80000004	-6e-45
51	0x32f9b2d8	2.9068744e-08
52	0xb7711205	-1.4368915e-05
53	0x00000000	0.0
54	0xb630f7ae	-2.6370212e-06
55	0xb567bc19	-8.6327924e-07
56	0xb7709531	-1.4339851e-05
57	0xb6dbf93c	-6.5557233e-06
58	0xb7709531	-1.4339851e-05
59	0xb5bc651a	-1.4036516e-06
60	0xb7709531	-1.4339851e-05
61	0xb6c41628	-5.8438345e-06
62	0xb7709531	-1.4339851e-05
63	0x364a3428	3.0130705e-06
64	0xb7709531	-1.4339851e-05
65	0xb73b442e	-1.1161943e-05
66	0xb7709531	-1.4339851e-05
67	0x365e51d0	3.31282e-06
68	0xb7709531	-1.4339851e-05
69	0xb630f7d9	-2.637031e-06
70	0xb7709531	-1.4339851e-05
71	0xb630f7ae	-2.6370212e-06
72	0xb7709531	-1.4339851e-05
73	0xb80856e8	-3.2505865e-05
74	0xb7727bf4	-1.4453184e-05
75	0x37d49166	2.5340076e-05
76	0xb7709531	-1.4339851e-05
77	0xb7709531	-1.4339851e-05
78	0xb7a43811	-1.9576431e-05
79	0x37ac12b1	2.0512702e-05
80	0xb802136c	-3.1012503e-05
81	0xb8908659	-6.891479e-05
82	0xb8739ea5	-5.8083464e-05
83	0x385c67df	5.2548825e-05
84	0x3861fd61	5.3880158e-05
85	0xb961cc79	-0.00021533844
86	0xb94bbdfa	-0.0001943036
87	0xb7fed848	-3.0379873e-05
88	0xb7e2af11	-2.7022821e-05
89	0x383caad7	4.49818e-05
90	0xb81e6d35	-3.7771842e-05
91	0xb7a03778	-1.9099316e-05
92	0x399118c1	0.00027674998
93	0xb9acb85a	-0.0003294375
94	0xb8631c61	-5.4147447e-05
95	0x357d62c6	9.439358e-07
96	0x359d4616	1.1717809e-06
97	0xb773c926	-1.4530762e-05
98	0xb9acb85a	-0.0003294375
99	0x00000000	0.0
100	0x30c81dbe	1.4560368e-09
101	0xbc2eedd3	-0.010676819
102	0xb265cb8d	-1.3375836e-08
103	0xb9c27846	-0.00037092174
104	0x80000004	-6e-45
105	0x00000000	0.0
106	0xbc2eeddf	-0.01067683
107	0x00000004	6e-45
108	0xbba56d9f	-0.0050484682
109	0xbc2eedbb	-0.010676797
110	0x00000004	6e-45
111	0xb3141754	-3.4480152e-08
112	0x00000004	6e-45
113	0xba9666a0	-0.0011474676
114	0xafed54ce	-4.3170306e-10
115	0x0000000f	2.1e-44
116	0xbc2eeddf	-0.01067683
117	0x00000004	6e-45
118	0xb9fe3207	-0.0004848393
119	0xbc2eedf7	-0.010676852
120	0x80000004	-6e-45
121	0x32c21d7a	2.2597977e-08
122	0x80000004	-6e-45
123	0xbabece3b	-0.0014557311
124	0x2b02a7d8	4.641821e-13
125	0xb150855a	-3.0343785e-09
126	0xbc2eeddc	-0.010676827
127	0x00000000	0.0
128	0xb9e7b77e	-0.00044196466
129	0x00000000	0.0
130	0x80000004	-6e-45
131	0xbc2eeddf	-0.01067683
132	0x00000000	0.0
133	0xbae5a3bf	-0.0017520114
134	0x28bf8e57	2.126699e-14
135	0xb150855a	-3.0343785e-09
136	0xbc2eeddc	-0.010676827
137	0x00000000	0.0
138	0xba667dd9	-0.00087925565
139	0x00000000	0.0
140	0x80000004	-6e-45
141	0xbc2eeddf	-0.01067683
142	0x00000000	0.0
143	0xbb0f0394	-0.00218222
144	0x00000004	6e-45
145	0xb150855a	-3.0343785e-09
146	0xbc2eeddc	-0.010676827
147	0x00000000	0.0
148	0xbac51d94	-0.0015038722
149	0x00000004	6e-45
150	0xb150855a	-3.0343785e-09
151	0xbc2eeddc	-0.010676827
152	0x00000000	0.0
153	0xbac51d94	-0.0015038722
154	0xba9666a0	-0.0011474676
155	0xbc2eeddf	-0.01067683
156	0xb9fe3207	-0.0004848393
157	0xbc2eeddf	-0.01067683
158	0xbabece3b	-0.0014557311
159	0xbc2eeddf	-0.01067683
160	0xb9e7b77e	-0.00044196466
161	0xbc2eeddf	-0.01067683
162	0xbae5a3bf	-0.0017520114
163	0xbc2eeddf	-0.01067683
164	0xba667dd9	-0.00087925565
165	0xbc2eeddf	-0.01067683
166	0xbb0f0394	-0.00218222
167	0xbc2eeddf	-0.01067683
168	0xbac51d94	-0.0015038722
169	0xbc2eeddf	-0.01067683
170	0xbac51d94	-0.0015038722
171	0xbc2eeddf	-0.01067683
172	0xb9c27846	-0.00037092174
173	0xbc2eedd2	-0.010676818
174	0xbba56d9f	-0.0050484682
175	0xbc2eeddf	-0.01067683
176	0xbc2eeddf	-0.01067683
177	0x3b839bb3	0.0040163635
178	0xbb8153cd	-0.0039467574
179	0xbc14e387	-0.00908745
180	0x3b64c017	0.0034904534
181	0x3b439459	0.002984306
182	0xbd90f7ca	-0.07078512
183	0xbd8f94b9	-0.070107885
184	0x3ca4fdd2	0.020140562
185	0x3c98f22a	0.01867016
186	0x3b40b662	0.0029405584
187	0x3b328015	0.0027236987
188	0xbb829302	-0.00398481
189	0x3b8acf74	0.004236156
190	0x3a186f81	0.0005814955
191	0xbcf0287b	-0.029316178
192	0xbbc6eadd	-0.0060704784
193	0xbc389d65	-0.0112679945
194	0xba9fafff	-0.0012183188
195	0xb800d796	-3.0718358e-05
196	0xbc2dc951	-0.01060708
197	0xbbc6eadd	-0.0060704784
198	0x00000000	0.0
199	0x30aabf20	1.2423449e-09
200	0xbaf7335a	-0.0018859908
201	0xb14736f7	-2.8989555e-09
202	0xb912d16f	-0.00014001665
203	0x00000004	6e-45
204	0x00000000	0.0
205	0xbaf7336a	-0.0018859927
206	0x80000004	-6e-45
207	0xba563c90	-0.00081724767
208	0xbaf7338e	-0.0018859969
209	0x80000004	-6e-45
210	0x319b5ec2	4.5218664e-09
211	0x80000004	-6e-45
212	0xb95627fb	-0.00020423524
213	0x2ef103c4	1.096008e-10
214	0x0000000c	1.7e-44
215	0xbaf7336a	-0.0018859927
216	0x00000004	6e-45
217	0xb8cd99f3	-9.803837e-05
218	0xbaf7329b	-0.0018859686
219	0x80000004	-6e-45
220	0xb2cc34bb	-2.3772705e-08
221	0x80000004	-6e-45
222	0xb988473b	-0.00025993012
223	0xaa1fcedb	-1.4193804e-13
224	0xb19e3eee	-4.6055595e-09
225	0xbaf73342	-0.001885988
226	0x00000000	0.0
227	0xb8ba7814	-8.8915374e-05
228	0x00000000	0.0
229	0x80000004	-6e-45
230	0xbaf7336a	-0.0018859927
231	0x00000000	0.0
232	0xb99ca7ea	-0.00029879744
233	0xaa1fceb4	-1.4193751e-13
234	0xb19e3eee	-4.6055595e-09
235	0xbaf73342	-0.001885988
236	0x00000000	0.0
237	0xb937db3a	-0.00017533908
238	0x00000000	0.0
239	0x80000004	-6e-45
240	0xbaf7336a	-0.0018859927
241	0x00000000	0.0
242	0xb9c39b20	-0.00037308875
243	0x00000004	6e-45
244	0xb19e3eee	-4.6055595e-09
245	0xbaf73342	-0.001885988
246	0x00000000	0.0
247	0xb98a6344	-0.0002639537
248	0x00000004	6e-45
249	0xb19e3eee	-4.6055595e-09
250	0xbaf73342	-0.001885988
251	0x00000000	0.0
252	0xb98a6344	-0.0002639537
253	0xb95627fb	-0.00020423524
254	0xbaf7336a	-0.0018859927
255	0xb8cd99f3	-9.803837e-05

exp_avg_sq f4 [128, 99]
0	0x00000000	0.0
1	0x36990a55	4.560958e-06
2	0x3e07193e	0.13193223
3	0x3ad714e9	0.001640943
4	0x3c64df9d	0.013969329
5	0x34cfd7a6	3.871366e-07
6	0x00000000	0.0
7	0x3e0878d9	0.1332735
8	0x35a683e1	1.2406346e-06
9	0x3d2096c8	0.039206296
10	0x3dfa6fc8	0.12228352
11	0x39155f4b	0.00014245247
12	0x3c29bf55	0.0103605585
13	0x38219f15	3.8533548e-05
14	0x3a4802e8	0.00076298276
15	0x3e0448c7	0.12918387
16	0x3921467e	0.00015380417
17	0x3b9245be	0.0044638803
18	0x37733ce5	1.4498107e-05
19	0x3a5dd75b	0.00084625714
20	0x3ddf8693	0.1091434
21	0x38c0e8e4	9.198653e-05
22	0x3cbf3ff0	0.023345917
23	0x2e957c95	6.797866e-11
24	0x3ab4f46f	0.0013805757
25	0x3c193d59	0.009353005
26	0x38ed9bcd	0.00011330061
27	0x3df90227	0.12158614
28	0x00000000	0.0
29	0x3a85d5bc	0.0010210793
30	0x00000000	0.0
31	0x38e2b014	0.00010809317
32	0x3e083380	0.13300896
33	0x00000000	0.0
34	0x3b305930	0.0026908629
35	0x3b8ae125	0.004238265
36	0x378f251e	1.7064212e-05
37	0x3e04127e	0.12897679
38	0x00000000	0.0
39	0x3b168268	0.0022965912
40	0x00000000	0.0
41	0x38913d32	6.925537e-05
42	0x3e083d0e	0.1330454
43	0x00000000	0.0
44	0x3bab6f79	0.0052317944
45	0x35d285a8	1.5685118e-06
46	0x38a3bff5	7.8082005e-05
47	0x3e084678	0.13308132
48	0x00000000	0.0
49	0x3c3ad739	0.011403852
50	0x35d285a8	1.5685118e-06
51	0x38a3bff5	7.8082005e-05
52	0x3e084678	0.13308132
53	0x00000000	0.0
54	0x3c3ad738	0.011403851
55	0x3a4802e8	0.00076298276
56	0x3e086e11	0.13323237
57	0x3a5dd75b	0.00084625714
58	0x3e086ed7	0.13323532
59	0x3ab4f46f	0.0013805757
60	0x3e08751b	0.13325922
61	0x3a85d5bc	0.0010210793
62	0x3e08751b	0.13325922
63	0x3b305930	0.0026908629
64	0x3e08751b	0.13325922
65	0x3b168268	0.0022965912
66	0x3e08751b	0.13325922
67	0x3bab6f79	0.0052317944
68	0x3e08751b	0.13325922
69	0x3c3ad739	0.011403852
70	0x3e08751b	0.13325922
71	0x3c3ad738	0.011403851
72	0x3e08751b	0.13325922
73	0x3c64df9d	0.013969329
74	0x3e071d5e	0.13194796
75	0x3d2096c8	0.039206296
76	0x3e0878ed	0.1332738
77	0x3e08751b	0.13325922
78	0x3ba85163	0.005136655
79	0x3bf764e0	0.007549867
80	0x3df716e3	0.12064912
81	0x3ccd8504	0.02508784
82	0x3c83c6e6	0.016086053
83	0x42b2d8a8	89.42316
84	0x42a0fce8	80.49396
85	0x3d1d20e1	0.038361434
86	0x3cf280a7	0.029602362
87	0x3b298b92	0.0025870544
88	0x3b21fb8c	0.0024716584
89	0x3b048def	0.00202262
90	0x3bd37ac8	0.0064538456
91	0x3a8340db	0.0010013835
92	0x3dab349a	0.08359642
93	0x3fb5a04b	1.4189543
94	0x3cae8cb3	0.021307325
95	0x3c71e66b	0.014764409
96	0x36a2a179	4.846774e-06
97	0x3df155d9	0.11783952
98	0x3fb5a04b	1.4189543
99	0x00000000	0.0
100	0x35d8de29	1.6157911e-06
101	0x3c16740f	0.009182944
102	0x37d08fcb	2.4862491e-05
103	0x3a79afe3	0.00095248054
104	0x322e0f1b	1.0131568e-08
105	0x00000000	0.0
106	0x3c16ef89	0.009212383
107	0x31981b80	4.4269086e-09
108	0x3b032154	0.0020008879
109	0x3c155eb6	0.009116819
110	0x35eafb79	1.7507547e-06
111	0x391cc6fa	0.00014951444
112	0x343f9a2b	1.7844347e-07
113	0x388018b0	6.108114e-05
114	0x3bbe7269	0.0058119786
115	0x36063730	1.999968e-06
116	0x3b67c559	0.003536543
117	0x34f240e2	4.512322e-07
118	0x38863dd0	6.4011314e-05
119	0x3c0e6653	0.008691388
120	0x35cb779b	1.5159488e-06
121	0x3a0c761e	0.0005358177
122	0x27da4128	6.0577797e-15
123	0x38febc8e	0.00012146785
124	0x39332f98	0.000170885
125	0x35deefc4	1.661007e-06
126	0x3c14ab95	0.0090741115
127	0x00000000	0.0
128	0x388da79f	6.754626e-05
129	0x00000000	0.0
130	0x35eee7f2	1.7799887e-06
131	0x3c16eb57	0.009211383
132	0x00000000	0.0
133	0x391924f3	0.00014604982
134	0x38cf0179	9.8708035e-05
135	0x34e5ec43	4.2826477e-07
136	0x3c15b5e5	0.009137605
137	0x00000000	0.0
138	0x3942a06f	0.00018561048
139	0x00000000	0.0
140	0x35c54eb7	1.4700553e-06
141	0x3c16ecac	0.0092117
142	0x00000000	0.0
143	0x3997ed7a	0.00028977898
144	0x330dee04	3.3045595e-08
145	0x35d0b0a6	1.5548619e-06
146	0x3c16c575	0.009202351
147	0x00000000	0.0
148	0x3a3acb31	0.0007125615
149	0x330dee04	3.3045595e-08
150	0x35d0b0a6	1.5548619e-06
151	0x3c16c575	0.009202351
152	0x00000000	0.0
153	0x3a3acb31	0.0007125615
154	0x388018b0	6.108114e-05
155	0x3c16eff5	0.009212484
156	0x38863dd0	6.4011314e-05
157	0x3c16ed5d	0.009211865
158	0x38febc8e	0.00012146785
159	0x3c16ef5f	0.009212344
160	0x388da79f	6.754626e-05
161	0x3c16ef5f	0.009212344
162	0x391924f3	0.00014604982
163	0x3c16ef5f	0.009212344
164	0x3942a06f	0.00018561048
165	0x3c16ef5f	0.009212344
166	0x3997ed7a	0.00028977898
167	0x3c16ef5f	0.009212344
168	0x3a3acb31	0.0007125615
169	0x3c16ef5f	0.009212344
170	0x3a3acb31	0.0007125615
171	0x3c16ef5f	0.009212344
172	0x3a79afe3	0.00095248054
173	0x3c166849	0.009180137
174	0x3b032154	0.0020008879
175	0x3c16ef96	0.009212395
176	0x3c16ef5f	0.009212344
177	0x39a335d7	0.00031129897
178	0x399d91b6	0.00030053937
179	0x3c0d128e	0.008610381
180	0x3a196bd1	0.0005852553
181	0x3a0122ad	0.00049261266
182	0x3fee282c	1.860601
183	0x3fc908aa	1.5705769
184	0x3b380152	0.002807696
185	0x3b2d4ac8	0.0026442278
186	0x395df3eb	0.00021167069
187	0x39493845	0.00019189816
188	0x38ef398d	0.00011407128
189	0x39bf4d80	0.000364881
190	0x3823aecb	3.9025017e-05
191	0x3b96aab8	0.004597988
192	0x3dd812a2	0.10550429
193	0x3aa4cfb1	0.0012574104
194	0x398fef27	0.00027453268
195	0x34390f03	1.7234929e-07
196	0x3c135a24	0.008993659
197	0x3dd812a2	0.10550429
198	0x00000000	0.0
199	0x34ddeff9	4.133906e-07
200	0x3b47071b	0.0030369225
201	0x381fadd6	3.807045e-05
202	0x39b5274f	0.00034552297
203	0x26304547	6.1156155e-16
204	0x00000000	0.0
205	0x3b4ac623	0.0030940853
206	0x22c5481e	5.3473314e-18
207	0x3a532bb4	0.00080555235
208	0x3b48a312	0.0030614776
209	0x335176b8	4.876958e-08
210	0x3827f957	4.004812e-05
211	0x32776ba3	1.4401766e-08
212	0x376eabde	1.4225921e-05
213	0x3b1d62fe	0.0024015303
214	0x348a75ea	2.5790297e-07
215	0x3a605211	0.0008557151
216	0x22a6eec2	4.5247185e-18
217	0x37c72dc1	2.3743954e-05
218	0x3b494bde	0.0030715386
219	0x35dfe566	1.6681558e-06
220	0x37a0918a	1.9141258e-05
221	0x318e003f	4.132772e-09
222	0x37cf862c	2.4738802e-05
223	0x34942132	2.75913e-07
224	0x34ca4b92	3.7680417e-07
225	0x3b4a6a5d	0.0030886151
226	0x00000000	0.0
227	0x37c5d6bd	2.3584225e-05
228	0x00000000	0.0
229	0x35f06286	1.7910068e-06
230	0x3b4a64cd	0.0030882836
231	0x00000000	0.0
232	0x383dff97	4.5299148e-05
233	0x3490055b	2.6825987e-07
234	0x34e01bb2	4.1743402e-07
235	0x3b4a6069	0.003088022
236	0x00000000	0.0
237	0x38aed20f	8.336093e-05
238	0x00000000	0.0
239	0x3601d009	1.934359e-06
240	0x3b4a5f65	0.0030879613
241	0x00000000	0.0
242	0x38a1ba98	7.711834e-05
243	0x07c3ef46	2.9480971e-34
244	0x3573972b	9.074453e-07
245	0x3b49e234	0.0030804994
246	0x00000000	0.0
247	0x39945251	0.0002829009
248	0x07c3ef46	2.9480971e-34
249	0x3573972b	9.074453e-07
250	0x3b49e234	0.0030804994
251	0x00000000	0.0
252	0x39945251	0.0002829009
253	0x376eabde	1.4225921e-05
254	0x3b4ac671	0.0030941034
255	0x37c72dc1	2.3743954e-05

exp_avg f4 [128]
0	0xb7709580	-1.4339923e-05
1	0xbc2eeddf	-0.01067683
2	0xbaf73365	-0.0018859921
3	0xbd82bd3e	-0.06383751
4	0x3b68c0da	0.003551534
5	0xbc483b02	-0.0122211
6	0x39ff80ce	0.00048733357
7	0x3c1eb001	0.009685517
8	0xbb7cc902	-0.0038571958
9	0x3c74ae48	0.01493413
10	0xbd178178	-0.036988705
11	0xbb87490b	-0.0041285804
12	0x3bc22d68	0.005925823
13	0x3bf8230f	0.0075725387
14	0xbc9c1035	-0.019050697
15	0x3e7bc45e	0.24586627
16	0x3babcfd9	0.005243283
17	0x3cf5492d	0.02994212
18	0xbd2ed490	-0.042683184
19	0x3a11af3c	0.0005557423
20	0xba68c240	-0.0008879043
21	0xbbf684a3	-0.0075231357
22	0xb9920d09	-0.00027857002
23	0x3b67d1b0	0.0035372786
24	0x3b3817b4	0.00280903
25	0xbbd5cec5	-0.006524893
26	0xbce2d94f	-0.027691511
27	0x3d36f4a8	0.044666916
28	0x3c385fe2	0.011253329
29	0xbbcf09a7	-0.0063182893
30	0x3c0042a0	0.007828385
31	0xbc4385b0	-0.011933729
32	0x3d6f80b6	0.058472358
33	0x3c892215	0.016739884
34	0x3e281f4b	0.16418187
35	0x3e81cd63	0.2535201
36	0xbb58b0e4	-0.003306442
37	0xbdd33e53	-0.10314622
38	0xbca15ee3	-0.019698566
39	0x3df0bdd2	0.11754955
40	0xbd14d690	-0.036337435
41	0xbdb9d404	-0.09073642
42	0x3d3ece8d	0.0465837
43	0xbc9b05b4	-0.018923618
44	0x3d38f470	0.04515499
45	0x3ac5742e	0.0015064531
46	0xbb9ee2a4	-0.004848795
47	0x3b9c981e	0.004778876
48	0xbd01807a	-0.031616665
49	0xbe2ea8f4	-0.17056638
50	0xbcdc05d6	-0.026858252
51	0x3d6f92c9	0.058489595
52	0x3caf9370	0.021432608
53	0xbc66afbe	-0.014079986
54	0x39a24396	0.00030949403
55	0xbd8969ee	-0.067096576
56	0xbb77f09b	-0.003783262
57	0xbd1a1adf	-0.037623283
58	0xbb72c78f	-0.0037045216
59	0xbd38a097	-0.045075025
60	0xbac4f9ad	-0.0015028022
61	0x3ca72f04	0.020408161
62	0x3c330de5	0.010928606
63	0x3b249105	0.0025110852
64	0xbcff928c	-0.031197809
65	0xbde1f04c	-0.11032161
66	0x3dc82b6b	0.09773906
67	0x3c39b225	0.011333977
68	0x3b86c660	0.0041130036
69	0xbe63e5a5	-0.22255571
70	0x3d016427	0.031589653
71	0xbd25f34f	-0.04051524
72	0x3b4cb92d	0.0031238303
73	0xbb2bd668	-0.0026220325
74	0xbb17edc3	-0.0023182489
75	0x3b1f268c	0.002428445
76	0xbb3bf5d8	-0.002868047
77	0xbc4aab11	-0.012369887
78	0x3af0fc98	0.0018385826
79	0xbda022cc	-0.07819137
80	0x3d19e832	0.037574954
81	0xbc8b3f02	-0.016997818
82	0x3cbd4d76	0.023108225
83	0x3a003e40	0.00048920885
84	0x3d17edee	0.03709214
85	0xbc502e4d	-0.0127063515
86	0x3df45a44	0.11931279
87	0x3c1d1cb6	0.009589365
88	0x3e5cbcfd	0.21556468
89	0xbe060ca3	-0.13090758
90	0xbe1940f3	-0.14966182
91	0xbba1a765	-0.004933285
92	0xbccdd374	-0.025125243
93	0xbcb31796	-0.021861833
94	0xbe126afa	-0.14298621
95	0x3b1afcc1	0.0023649188
96	0xbb97d711	-0.004633792
97	0x3baab0c2	0.0052090595
98	0x3da1c86b	0.07899555
99	0x3d1dfcf1	0.0385713
100	0x3b495e5f	0.0030726416
101	0x3d0f1fc9	0.034942422
102	0xbc4ab943	-0.012373271
103	0xbd1c81f9	-0.03820989
104	0xba00efc1	-0.00049185386
105	0x3c24fcf2	0.0100700725
106	0x3da6548e	0.08121596
107	0x3da7930b	0.08182343
108	0xbd23e0d7	-0.040009346
109	0xbbe5698a	-0.0070011066
110	0x3d2d6dad	0.042340923
111	0xbd5e5f36	-0.05429002
112	0xbe232226	-0.15930995
113	0x3a1ef774	0.0006064095
114	0x3d25ae78	0.04044959
115	0xbbcba8d0	-0.0062151924
116	0xbd9f28d7	-0.077714615
117	0xbceaa803	-0.028644567
118	0x3e0c0aa2	0.13675931
119	0x3b18de10	0.002332572
120	0xbe28f91a	-0.16501275
121	0x3bd74484	0.006569447
122	0xbe7958a9	-0.24350227
123	0xbc2c41e5	-0.010513757
124	0xbaf842f2	-0.001894085
125	0xbdb10d72	-0.086451426
126	0xbb33cc53	-0.002743502
127	0xbc73d2ab	-0.01488177

exp_avg_sq f4 [128]
0	0x3e08751c	0.13325924
1	0x3c16ef5e	0.009212343
2	0x3b4ac623	0.0030940853
3	0x3d957dae	0.07299362
4	0x3c6dba81	0.014509798
5	0x3e884761	0.26616958
6	0x3bc40361	0.005981848
7	0x3cadf9b5	0.021237234
8	0x3c085758	0.008321606
9	0x3c8e1fb7	0.017349107
10	0x3c20c5f8	0.009812824
11	0x3db6fa87	0.08934503
12	0x3cb7cd3b	0.022436729
13	0x3c9cfd12	0.019163642
14	0x3d2702da	0.040774204
15	0x3e3f7f49	0.18700899
16	0x3d201b62	0.039088614
17	0x3e3fcbb2	0.18730047
18	0x3e91bd78	0.28464866
19	0x39fc313d	0.0004810187
20	0x3bf6a259	0.0075266776
21	0x3aef0b5f	0.0018237642
22	0x3e813d85	0.25242248
23	0x3d7cefdb	0.06175218
24	0x3dcab0b4	0.09896985
25	0x3c993db2	0.018706176
26	0x3e4199d0	0.18906331
27	0x3bc40651	0.0059821983
28	0x3d13ca52	0.03608162
29	0x3dcfbeed	0.10143838
30	0x3cc2dd63	0.023787206
31	0x3ceacbe9	0.028661685
32	0x3cb6ee66	0.022330474
33	0x3ca1719f	0.0197075
34	0x3f109d8b	0.5649039
35	0x3f46345a	0.7742363
36	0x3d8ad8a3	0.067796014
37	0x3ed46730	0.41484976
38	0x3e1c9241	0.15290166
39	0x3d0cda27	0.034387734
40	0x3bea77cd	0.0071553946
41	0x3e638c4a	0.22221485
42	0x3d3c3747	0.045951154
43	0x3e033c17	0.12815891
44	0x3e278a0d	0.16361256
45	0x3d613533	0.054982375
46	0x3f212fe7	0.6296372
47	0x3b83ccc7	0.004022214
48	0x3ec0c0c2	0.37647063
49	0x3e3ec35f	0.18629216
50	0x3e74be3e	0.23900697
51	0x3e88fa1b	0.26753315
52	0x3e7348a2	0.23758176
53	0x3d6b2d31	0.057416145
54	0x3cb2c947	0.021824492
55	0x3efb08ee	0.4903025
56	0x3c601524	0.013676915
57	0x3e56a51e	0.20961425
58	0x3d67c22e	0.05658167
59	0x3e3eb8df	0.1862521
60	0x3cd96ba6	0.026540589
61	0x3b4b5f15	0.0031032015
62	0x3eb4163c	0.35173213
63	0x3e0bf74c	0.13668555
64	0x3f009229	0.5022302
65	0x3f2d2113	0.6762859
66	0x3e52bfd9	0.20580997
67	0x3e96705d	0.293826
68	0x3bd0d9da	0.006373626
69	0x3fad5d91	1.3544179
70	0x3cb782e1	0.022401275
71	0x3ed2e5da	0.41190988
72	0x3e3dd569	0.18538441
73	0x38153894	3.557706e-05
74	0x3cf0734a	0.02935185
75	0x3c7a48ae	0.015276117
76	0x3c81e081	0.015854122
77	0x3eb24156	0.34815472
78	0x3f4f1618	0.8089309
79	0x3e473e11	0.1945727
80	0x3e18ac0f	0.14909385
81	0x3e4bcc08	0.1990205
82	0x3a8fcbb8	0.0010970747
83	0x3fc2614a	1.518594
84	0x3f531928	0.8246026
85	0x3e8570ab	0.2606252
86	0x3e7fab05	0.24967583
87	0x3c7af5ea	0.01531742
88	0x3e840bad	0.25790158
89	0x3f5474fa	0.8299099
90	0x3f5b34c1	0.8562737
91	0x3dac4c29	0.08412964
92	0x3d7dde51	0.061979596
93	0x3c462694	0.012094159
94	0x3edb5ab8	0.4284265
95	0x3dde451a	0.10853024
96	0x3d449e9c	0.048002824
97	0x3c87a5f5	0.016558627
98	0x3d227309	0.039660487
99	0x3eb23f2d	0.34813824
100	0x3a3a4ef4	0.0007107102
101	0x3e0a9c79	0.13536252
102	0x3d5c9cf6	0.053860627
103	0x3ef68c6e	0.48154014
104	0x3c5a60b1	0.013328717
105	0x3ddb76ae	0.10715996
106	0x3ef1997c	0.47187412
107	0x3e2cff03	0.16894154
108	0x3cc02a9f	0.023457823
109	0x3cd6a2b2	0.026200626
110	0x3f5eb27b	0.8699109
111	0x3d24962e	0.040182285
112	0x3e25909b	0.16168444
113	0x3c64e4f6	0.013970604
114	0x3dd5c73a	0.1043839
115	0x39d716b3	0.00041024908
116	0x3ed7c61d	0.42143336
117	0x3f17773b	0.59166306
118	0x3e4961ee	0.19666263
119	0x3c748566	0.014924383
120	0x3eae1505	0.34000412
121	0x3d0f4604	0.03497888
122	0x3f1f18b2	0.6214706
123	0x3f1a4c47	0.6027264
124	0x3ed9ec6a	0.42563182
125	0x3cfc1e3d	0.030776137
126	0x3c84a2c8	0.016190901
127	0x3ac17784	0.001476035
