results/DroneAgentMoveingTrack/DroneAgent/DroneAgent-4799992.onnx (onnx, 676003 bytes, 10 tensors)

network_body._body_endoder.seq_layers.0.weight f4 [128, 141]
00000000: a108 803e 9827 7fbe 7b5f 9d3e 5f64 9fbe
00000010: 87be 11be 070e 333e 02ce 1dbd ff2f 59be
00000020: 0a29 9b3e 1094 2c3d 8e29 7f3d 4035 07bd
00000030: 10bb 133d af9d 963e 1280 66bd 66b6 0ebe
00000040: de8c 2fbd dbd4 b43c 5c0d 0a3e fc13 da3d
00000050: e353 d8bd ce60 593d 2b59 103d 73af 003f
00000060: 4193 59bd 86dc 5ebd 419b 4dbd 95f1 443e
00000070: 9806 7abe 429b bebd 618a 06be ac69 01be
00000080: bd68 aa3e 5a17 9ebd d351 8b3e 6f81 1dbe
00000090: 01aa 0ebd 6076 ee3d 00c7 fcbb a97c bcbd
000000a0: 0f39 d73c e727 ad3c 959a 03bd 1378 543e
000000b0: 55dc 46be ba42 7d3e a63b d0bd 0842 c3be
000000c0: c37b 133e bac6 1c3d 820c 2bbd ed5f 24bd
000000d0: 9688 013e a812 d63c 0357 11be 9dcc a43c
000000e0: bc34 943e bd52 a9bd 5c31 303d a763 e6bd
000000f0: 5523 60be 9d06 9f3d da62 b33e f38a 243e
00000100: 63d4 26be c974 54be 65c9 563e 2534 34bd
00000110: 7714 89be b5a8 17bd b568 063c 061d 54be
00000120: 7f13 d13c 78a9 83bd 0789 123d 0b1d d9be
00000130: cd23 633e a031 d63e 2c2e 7dbe 0376 22be
00000140: e8b7 af3e dff2 4b3d 9868 cdbe 5768 52bd
00000150: 56f6 b4bc 1d88 3abe e735 bfbd cc2a 163e
00000160: 998b acbd 4626 cabd 255e 173e ae71 813e
00000170: e90b 7bbe 17a5 f53c 6062 d4bd e379 c33d
00000180: 476b 183f 8f18 b2bc 41db 6b3b ce9c d6bd
00000190: 3d81 ecbd 6316 cf3e 439b e5bd ac57 a7be
000001a0: b8be 843d 1f30 49be 994c fa3c 12fd 583e
000001b0: 5dc4 b3be 471a 8cbe 52f7 1e3e b80c 023e
000001c0: 97fd 0bbe d100 f0bd 1ad4 003d 3459 86be
000001d0: 61fe cd3c 95f3 2bbf 29e4 b63e cba6 06bf
000001e0: a296 3cbf b7f5 0f3d ad29 63be cdc8 de3d
000001f0: c01f 193e b609 48be 483a 8e3e 70b6 0e3d
00000200: 75ca 953e 9891 4fbd dcb5 0ebd a6ec 82be
00000210: f6d1 8b3e b748 a8be c664 38bf a5f1 19bd
00000220: 6b6a 24be b884 afbe f13c acbf bf92 1e3e
00000230: b20d cf3e fcf3 a23c fd25 9f3d 611e 23bf
00000240: 9044 643e 86f9 dfbd 57da aa3e fbf7 7ebe
00000250: 31ba ff3b 7ad1 693e 8708 0cbf 3661 ae3e
00000260: c9b9 a1be 1fbe 6bbe dea0 cd3d 8662 ecbe
00000270: 7491 9f3e 3a4a 70be ee42 b6be b712 1bbe
00000280: a8b6 97be c65f b63e ee34 d9bd a426 a8be
00000290: 3b59 ea3d 0143 04be 6466 4a3e 85dd 0bbe
000002a0: 7fdc d9be 81b4 bcbe 871b cabe 6009 c73e
000002b0: 4f57 163d 32dd a03d e4e4 a3be d1e0 e3bd
000002c0: 404a d33e 4cf9 b0be 6533 eebe a88e 9ebe
000002d0: a954 2c3c a299 6e3e 713f 0ebe afc1 dbbd
000002e0: ec70 aabd f050 eb3d 43f7 11be 9a1e 873c
000002f0: da57 c8be 3bed 2d3e 88b9 18ba 755e 36be
00000300: 280c b1bc 7fd6 3ebe 3bc9 b2bc 7334 bd3c
00000310: 4db4 dd3b 3848 013d 9414 83be ba34 c63d
00000320: 8bf1 e3bc ef18 193e f159 8fbd 47c2 a8be
00000330: f1bc d4bd adf1 10be 2247 62be a741 c53d
00000340: 01e4 3fbc 6f72 fabc 0602 89be 40f3 e6bd
00000350: cc4e bbbe f25b c8bd 0a1f 8fbd 3e6c 8cbe
00000360: 259a f3bd 85be fcbd 2661 103e 504e 9cbe
00000370: 1296 13bc 2f73 9d3e b23a bcbe af94 70be
00000380: 4a28 04be 7152 34be e46d 0abe 1b90 d1bd
00000390: f91c 65be 9008 bcbd b5c4 23be 40d8 8a3e
000003a0: ba8c 043e c9bd cabe cf79 073e a5cb b9bc
000003b0: 418e 44be 8c62 503e 5293 21be 1d9a abbd
000003c0: aa9a f1bd 48b8 9d3d e340 bd3d 322c 1abd
000003d0: 5866 b53e 1d31 5b3e f290 02bf 407c 93bd
000003e0: 7eae 613d f595 b7bd 47dd 99bd 34a5 0d3d
000003f0: 9e86 57be 0386 7bbe 9903 193e bbff 17be
0.25006583 -0.24917448 0.30736908 -0.31131265 -0.14232837 0.1748582 -0.038526542 -0.21209715
0.30304748 0.04213339 0.06229549 -0.033009768 0.03606707 0.29417178 -0.05627448 -0.13936767
-0.04285895 0.022074154 0.13481659 0.10648343 -0.10562875 0.053070836 0.035241287 0.50267714
-0.053118948 -0.054409526 -0.05019689 0.19232781 -0.24416578 -0.09306957 -0.13138725 -0.12637967
0.33283034 -0.07719298 0.27210864 -0.15381406 -0.034830097 0.11643672 -0.0077141523 -0.092034645
0.026272325 0.021137191 -0.032129843 0.2074893 -0.19419987 0.24732485 -0.10167627 -0.38136315
0.1440268 0.038275458 -0.041759975 -0.040130544 0.1264976 0.026131943 -0.14193349 0.020117098
0.28946483 -0.08267734 0.043015823 -0.11249476 -0.21888478 0.07764933 0.35036355 0.1606863
-0.16291957 -0.20747675 0.20975263 -0.04399504 -0.26773426 -0.037026126 0.008203675 -0.20714197
0.025521992 -0.06428808 0.03577521 -0.4240497 0.22181626 0.41834736 -0.24724644 -0.1586533
0.34319997 0.049792167 -0.4011886 -0.051369037 -0.022090118 -0.18215986 -0.09336453 0.14664763
-0.08425064 -0.09870581 0.14782007 0.25282043 -0.24516262 0.029985948 -0.10370326 0.095447324
0.5953869 -0.021740226 0.003598884 -0.10479127 -0.11548088 0.40446767 -0.112112544 -0.32684076
0.06481689 -0.19647263 0.030554103 0.21190289 -0.3511075 -0.27363798 0.15524033 0.12700164
-0.13670956 -0.11718906 0.031452276 -0.26239932 0.025145711 -0.6716855 0.35720947 -0.52598256
-0.7366735 0.03514644 -0.22183867 0.108781435 0.14953518 -0.19534954 0.2777884 0.034841955
0.29256025 -0.05067596 -0.034841403 -0.25571173 0.27308625 -0.32867977 -0.7202877 -0.037583966
-0.1605622 -0.34280944 -1.3456098 0.15485667 0.40440136 0.019891731 0.077709176 -0.6371823
0.2229178 -0.10936265 0.33369705 -0.24899285 0.007804178 0.22833815 -0.5470051 0.3405854
-0.31587055 -0.23021744 0.100404486 -0.46168917 0.3116566 -0.23465815 -0.35597938 -0.15143858
-0.29631543 0.35619944 -0.10605799 -0.3284198 0.114428006 -0.12916185 0.19765621 -0.13658722
-0.42551038 -0.36856464 -0.39474127 0.3887434 0.036704358 0.0785469 -0.32010567 -0.11126865
0.41267586 -0.34565198 -0.46523586 -0.30968213 0.010518231 0.23300794 -0.13891388 -0.107303016
-0.083223194 0.11490047 -0.14254479 0.016494084 -0.39129525 0.16985027 -0.0005825986 -0.1780947
-0.021612242 -0.18636511 -0.02182447 0.023096299 0.0067658783 0.031563014 -0.25601637 0.096780255
-0.027825138 0.14950918 -0.06999577 -0.32960722 -0.103876 -0.14154692 -0.22097448 0.09631663
-0.011712075 -0.030572144 -0.26759356 -0.11276865 -0.36583555 -0.09783162 -0.06988342 -0.27426332
-0.11894635 -0.12341026 0.14099559 -0.30528498 -0.0090079475 0.3075194 -0.3676353 -0.23494218
-0.12905994 -0.17609574 -0.13518482 -0.10232564 -0.22374333 -0.09181321 -0.15993007 0.2711811
0.12944308 -0.3959792 0.1323006 -0.022680113 -0.1919489 0.20350093 -0.15778854 -0.08379004
-0.11797078 0.077011645 0.09240892 -0.037639804 0.35429645 0.21405454 -0.5100242 -0.07201433
0.05509805 -0.08964149 -0.075129084 0.034581378 -0.21047446 -0.2456284 0.14942779 -0.14843647

network_body._body_endoder.seq_layers.0.bias f4 [128]
00000000: e7a5 72bd 2b33 02be 8d24 873c 11ad 09bd
00000010: becd 81bb a244 2dbb 17dc b4bd 980d 2cbc
00000020: 1d4d fbbc 4a07 ea3c cc2f 5c3d 7e52 f5bd
00000030: 1a33 a4bd 6806 2cbc 98a4 7a3c d5a9 74bd
00000040: a8fc b5bc ba06 2e3e 1758 743c f357 adbd
00000050: ada9 963d a887 9a3d 9ef0 c8bd 8760 273d
00000060: 47e8 4d3d ddae 61bd 2d95 22bd 4491 e8bd
00000070: ae87 bbbb a94c 77bd 3bd1 973d e6ee b33c
00000080: e270 fc3c e3ff 1ebd 40b2 a8bd c4d7 aabd
00000090: 5b34 9d3d 17e7 0d3e 58b7 33bd 9b3e e9bd
000000a0: 9341 13be 7ec3 ab3d 9f3f ba3c 58d5 4fbe
000000b0: faef 1abe d729 0e3e eeb6 ee3a f691 253d
000000c0: 3540 c1bd 346d 033d 3600 99bd 06b9 32be
000000d0: 042e 10bc e21b 5a3d 45a5 8d3c e939 83bd
000000e0: e826 403d 6c0a 1cbd caf8 ccbd e0c6 7cbd
000000f0: 19e4 293c ec87 c5bd f68e 9cbd 50c9 7ebd
00000100: b931 a13d a227 43bd 6c4d 973d 6bc5 2f3d
00000110: 86eb 9bbd 4136 0c3c 1d92 9cbd 21d0 e53c
00000120: 1b09 a8bc ed92 fa3c 601e acbd 76f0 13bc
00000130: be2d 013d b9db c3bb 7d25 b73c ad3f 1ebe
00000140: 3db7 24bd 7daf 893d 633d 6cbc bc9e 9bbd
00000150: 2655 bfbc 2c44 d03c 4824 9fbc 3119 203d
00000160: 039f 973d 66b6 943c 0f0e ccbc 4ccf efbc
00000170: 8697 4c3d cb5a b3bb 9751 333b 0165 1abc
00000180: 570d 3e3d 20fc 503d 7154 22bd abf8 0ebc
00000190: 79f7 fabd c3bb 30bd 8b82 adbd d498 5c3c
000001a0: 74ad c1bd b09d a4bd 5a95 9ebd 2581 863c
000001b0: 2078 c13d eefa be3b ed7e b43d 68ac 8cbd
000001c0: d5ad 10bd 20f5 96bd c3cb 503d aa2f b7bd
000001d0: b323 193e 0c97 933d f8e1 183d e209 afbd
000001e0: 25a5 57bd f215 31bd 740f 81bd 2ebb 4f3c
000001f0: c785 9fbb a771 f1bc c473 413d 51e8 893c
-0.059240248 -0.12714832 0.016496921 -0.033612315 -0.003961294 -0.0026438613 -0.08831041 -0.010501288
-0.030676419 0.028567929 0.05375652 -0.11978625 -0.08017559 -0.010499574 0.015298031 -0.059732277
-0.022215202 0.16994753 0.01491358 -0.084640406 0.07356582 0.075454056 -0.09811519 0.04086354
0.050270345 -0.055098403 -0.039693046 -0.11355832 -0.0057229614 -0.060375843 0.074129544 0.021964502
0.030815545 -0.03881825 -0.082371235 -0.08341935 0.07676002 0.13857685 -0.043876022 -0.11388894
-0.14380483 0.083868966 0.022735415 -0.20296228 -0.15130606 0.13883148 0.0018212476 0.040422402
-0.09436075 0.032086566 -0.07470743 -0.17453393 -0.0088000335 0.053249247 0.01729072 -0.0640753
0.046912104 -0.038095877 -0.1000839 -0.0617131 0.010369324 -0.09645066 -0.07644455 -0.062203705
0.07870812 -0.04764522 0.07387814 0.04291288 -0.07613282 0.008557857 -0.076450564 0.028053345
-0.020512154 0.030587638 -0.08404231 -0.009029498 0.031537764 -0.0059771207 0.022356743 -0.15453978
-0.040213812 0.06722925 -0.014418933 -0.075986356 -0.023356032 0.025423132 -0.01942648 0.039086524
0.07403376 0.01815338 -0.024909047 -0.029273652 0.04994919 -0.00547347 0.0027361864 -0.009423495
0.04639944 0.051021695 -0.03963131 -0.008726279 -0.12254233 -0.043147814 -0.08472165 0.013464171
-0.09456912 -0.08037889 -0.0774333 0.016419003 0.0944674 0.005828253 0.08813272 -0.068688214
-0.03532203 -0.07370973 0.050975572 -0.08944638 0.14955024 0.07206544 0.037324876 -0.08546807
-0.05264773 -0.04323382 -0.063017756 0.012678904 -0.0048682424 -0.029473139 0.047229543 0.01683441

network_body._body_endoder.seq_layers.2.weight f4 [128, 128]
00000000: f600 a9be dc33 5dbe 5df1 a63e 879f 023d
00000010: 369d 69bc 34cc d7bd e1c0 6dbe 9e71 b7bd
00000020: 222e 73be d47d e2be ce6d 233e e506 2e3e
00000030: b1b1 13be da35 973e 3913 c6bb 945d 0f3e
00000040: cc4b 86be acde df3d a3a6 7bbe 21cf 41bf
00000050: 338e 983e 35e8 1b3f 5899 d63e 1794 3cbf
00000060: c403 1b3f 72dc 89be babb 22be 1c1a 9e3c
00000070: 8ab6 b33d f8d9 07bf 3f01 96be 807d a03e
00000080: e7a9 86bd 8108 813e b4c8 8cbe 2f3a 693e
00000090: 8961 843e 46c8 2abe 8f5d 8a3e f780 07be
000000a0: fd80 93be 1420 bd3d e9b6 fbbd bc68 533e
000000b0: 57dc 1c3e e3ba 9e3d 25fc 32bf d2c7 32bf
000000c0: 69fb b8bd 810c 7f3e 6f97 093f d956 c3bd
000000d0: f3dc 9d3d ed46 4d3e 2822 7d3e fca0 c2be
000000e0: 419e 95bc e2ee 5fbc 5021 dc3e f298 2f3e
000000f0: bad8 5c3c f9a9 4dbe 9a0a 58be 13f7 b5be
00000100: e1ac 503e 6292 dbbd 2fcd c8be 2ce8 10bf
00000110: ca2b bf3d 5245 bd3e ee45 c4be 5ece 66be
00000120: bc88 a83c 92db d53e 97f2 d1bd 8486 1bbd
00000130: 0a64 45be dea9 343e a261 c73d 9386 dd3e
00000140: 54aa b1bd 9b18 72be 8d90 a9be cae8 133d
00000150: 9371 8d3e 0616 61be ff89 a53d d842 e6bd
00000160: eea3 193e 79e0 ef3d 1535 963e 847a 1abe
00000170: 8f37 0cbf 5a57 ebbe bc40 c8be cc00 4bbe
00000180: 9880 f3be 14b2 2bbe b3f1 553e 940e 03bf
00000190: 6131 54be 8116 973b 165f d7be fe61 073d
000001a0: 30a8 973d fbb5 8bbe 1fde 7bbe f208 433d
000001b0: 56c9 b8bd db74 483e 4864 2cbe 9c25 01bf
000001c0: e8a7 cebd bbd4 c5bc f81a c2be 13c3 95bd
000001d0: 7734 44be d5c8 0a3e 3178 d93c 0202 e8be
000001e0: 2372 db3c 90f1 3fbd ca31 6dbe 5f68 863e
000001f0: 5375 efbe 2fe9 23bd 7cda 073e 4ee5 c3be
00000200: cab5 f7be 1b44 0d3e 3d3d fd3d 401e ba3e
00000210: 19de 27be 9e38 283e 4b79 e0be 0d47 87be
00000220: 9f14 503a f6dd e639 beb0 e83d f29c b1bd
00000230: deb7 c1be b7ce 4d3e 7d76 7fbe eefe b5be
00000240: 77c0 f8be d6a7 e4be e7d7 fe3d 7cd5 d2bd
00000250: 0ca6 1e3e ee2b 8abe eb1b 29bf 26ad 37be
00000260: 3cb6 d33d 9bad 96bd 59a4 3ebe be71 763d
00000270: dd5e a0be e7be d63c e675 adbd f66a 21be
00000280: 0dc6 b5bd 08a2 9fbc e36c efbe b347 85be
00000290: 4269 86bd 8c47 27be 8a39 1b3f 12a0 21bf
000002a0: 4263 ba3d 7da8 c8bc e40e b6be 069d 733e
000002b0: c8a2 8bbe c9b2 143e 556d 873e f86b ca3d
000002c0: c871 a2bd 6094 223d a2b3 0f3e d68a d0be
000002d0: 4a0b d6be b199 05bf f731 66be 7a1d 09bc
000002e0: 18e3 d63d d6a1 293d f70f 33bd 8f3c 08be
000002f0: d33b 2d3d 1a5b 00bd 20e3 cbbe 0b8c 27bc
00000300: 54c9 99be c337 8fbe 46ea a7be f045 95be
00000310: f222 d93d a2c7 953e a0a0 403e 1905 b43d
00000320: 82f7 b0bd 7e57 75bd ca54 06bf 3a80 083d
00000330: 5efe 8f3b 14ab ae3e 0954 94bc 8402 54be
00000340: 81ec 403e 10a7 90be b49a 3d3e bfb2 b1be
00000350: 2770 5cbe 32c0 813d fc96 1c3d 5f0e 98bd
00000360: a4bb babe 3813 87be bf63 503e 8474 61be
00000370: d080 eebe 5b87 f63d a89a d1bd 5038 eabc
00000380: 8f19 fd3a 1b3e 193e f8a6 77bd b1dc d5be
00000390: 342d 8bbe 2ef5 cfbc 5ce0 3ebf 47c8 ebbe
000003a0: 2dc4 21be adc6 583e a8b8 97be 767f a8be
000003b0: 0dc6 ab3e 5cb6 36bd 54a9 73be 0ebd 343e
000003c0: 2d55 71be 6213 aabe f7ed 923d 5ace 12be
000003d0: b76e a23e 1855 a13e 1b2a 38be 57d7 2fbe
000003e0: d25e 2ebe 49c1 7c3e eda2 bd3e b783 f93d
000003f0: b0ad 65be 4b20 cdbc e220 803e 67e6 d23d
-0.33008546 -0.21601814 0.3260602 0.03189042 -0.014258673 -0.105369955 -0.23218109 -0.08957218
-0.23748067 -0.44236624 0.15959856 0.16994818 -0.14423253 0.29533273 -0.006044772 0.14000541
-0.26229703 0.10931143 -0.24575286 -0.7570668 0.2979599 0.60901195 0.41913867 -0.7366347
0.6055262 -0.26926 -0.15891925 0.01929956 0.08775051 -0.5306697 -0.29297826 0.3134575
-0.06575375 0.252018 -0.27496874 0.22776102 0.25855663 -0.16677961 0.27024505 -0.1323279
-0.28809348 0.09234634 -0.12290747 0.20645422 0.15318428 0.077504896 -0.6991599 -0.6983615
-0.09032328 0.24907114 0.53746694 -0.09538049 0.07708158 0.20046587 0.24720061 -0.38013446
-0.018263938 -0.013667794 0.42994165 0.17148188 0.013479406 -0.2008437 -0.21097794 -0.35540065
0.20378448 -0.1072128 -0.39219043 -0.56604266 0.09334524 0.3696695 -0.38334602 -0.2253966
0.020573013 0.4176908 -0.102513485 -0.03797008 -0.19276443 0.17642924 0.09735419 0.43266734
-0.08675066 -0.23642199 -0.33118096 0.036110677 0.27625713 -0.21981058 0.08082961 -0.11243218
0.1500394 0.11712737 0.29337373 -0.15085799 -0.54772276 -0.4596508 -0.39111888 -0.19824523
-0.47559047 -0.1676715 0.20892982 -0.5119412 -0.20721962 0.004610837 -0.42064732 0.033052437
0.07405126 -0.27287278 -0.24596451 0.047615953 -0.09022777 0.19575827 -0.1683513 -0.5044801
-0.10090619 -0.02414929 -0.379112 -0.07312598 -0.19160639 0.13553174 0.02654657 -0.45314032
0.026787823 -0.04686123 -0.23163524 0.26251504 -0.467692 -0.040017303 0.13266939 -0.38260883
-0.48380882 0.13795511 0.12365196 0.36351204 -0.16393317 0.16427848 -0.4384254 -0.26421395
0.0007937643 0.00044034392 0.11361836 -0.08672513 -0.37835592 0.20098387 -0.24947543 -0.35546058
-0.4858434 -0.446593 0.12443524 -0.10294625 0.1549303 -0.2698664 -0.66058224 -0.17937145
0.10337493 -0.07357331 -0.18617381 0.060167067 -0.31322375 0.026214076 -0.08469753 -0.15763459
-0.08875666 -0.019486442 -0.4676276 -0.26031265 -0.06563045 -0.16335887 0.6063467 -0.6313487
0.09100963 -0.024494404 -0.35558236 0.23790368 -0.2727263 0.14521326 0.264506 0.09883875
-0.07931858 0.039692283 0.14033368 -0.40730923 -0.41805488 -0.5218764 -0.22479998 -0.008368844
0.104925334 0.041414104 -0.043716397 -0.13304351 0.04229338 -0.03133688 -0.3982172 -0.01022626
-0.30036414 -0.2797223 -0.32795924 -0.2915492 0.106023684 0.2925387 0.18811274 0.08790035
-0.08640958 -0.059897892 -0.5247313 0.03332541 0.0043943366 0.34114897 -0.018106477 -0.20704085
0.18840219 -0.2825246 0.18516046 -0.34706685 -0.21527158 0.063354865 0.038229927 -0.07424616
-0.36471283 -0.2638185 0.2035055 -0.22017103 -0.4658265 0.12037536 -0.102345765 -0.028591305
0.0019309985 0.14965098 -0.06046197 -0.41769937 -0.27182925 -0.025385465 -0.74561095 -0.46051237
-0.15797491 0.21169539 -0.2963307 -0.32909745 0.33549538 -0.044607505 -0.23795062 0.17650244
-0.23567648 -0.33217913 0.071742944 -0.1433653 0.31725094 0.31510234 -0.17984812 -0.1717199
-0.17028359 0.24683107 0.37038365 0.12183326 -0.22429538 -0.025039813 0.25025088 0.10297852

network_body._body_endoder.seq_layers.2.bias f4 [128]
00000000: 4ba1 6abb 133d 85bd 6161 febc 8d7b 91bc
00000010: ae8d 5fbd af61 273d d92c 06be a63a efbd
00000020: ceed 8b3d 62d9 c53b 83db 91bd 6a89 87be
00000030: 6860 15bd 39eb 1b3c 52de c9bd 4835 2dbe
00000040: 1138 763d bda2 3cbe 9a9d 00be 31d2 68bd
00000050: 3e5b a7bd d802 30be 5b09 15bc 7b7c a2bb
00000060: 0e78 1fbe 872b 23bd 98dc 7ebd ec71 b8bd
00000070: b3d6 10be e039 ff3c 54fa f4bd cf80 97bc
00000080: 8dcf abbc 2ba9 18be c406 04bd c329 98bd
00000090: 36ed c9bd c911 64be a666 36be 0fe6 66bd
000000a0: 5603 9bbb 5341 183d b058 30be cfc7 d63c
000000b0: f7a7 c2bd 806e a33d e695 233d ee11 f03b
000000c0: 022d d3bd d580 70bd 6f17 12bc 1ca2 91bd
000000d0: 6a3f e3bd 8d65 34bd 65f2 0ebe 57cb 67bb
000000e0: c6bf c8bc 0c95 113c 1135 9c3d 1961 1bbe
000000f0: 27bd b6bc 2ff4 b03d bdc5 17be 779e 5fbe
00000100: 2d0d 033c 9166 07be 7ab5 84be b453 f9bd
00000110: aba1 b5bd 0ffd a3bd b14a e73d e1c3 703c
00000120: 0b06 e2bd b32c e5bc 06a3 6dbe 4685 25be
00000130: 0ded 99bc 48c6 ae3d 04aa 843c e56e 06be
00000140: 608c 00be f362 04be df27 4cbd 5f0f 6fbe
00000150: 3555 74be 0b1b 313d 4cb8 c3bd cd92 bfbd
00000160: eef2 edbc fb20 d43b cba2 bc3d ca05 36bd
00000170: 1993 8c3a 30b3 b1bd b7bc e2bd 4a97 343e
00000180: 8602 40bc ddca a8bd 3f29 c13d 3bd7 d73d
00000190: 7324 bebd 3e1a 40be 8336 5ebd 4ef3 f3bd
000001a0: 0fb2 24be f327 cbbd da3b 81bd bff5 86bc
000001b0: e9cb ec3c 0942 32be 4795 6e3d cd3f 09be
000001c0: 08d7 0bbd 19d9 02bd ab50 43bd 6d21 183e
000001d0: f93f 27bd 1b3e 153e e805 b9bd 4dd6 f5bc
000001e0: 861e 40be 7459 dfbd 68f5 3abe 66ad 0cbb
000001f0: 51f6 e4bd a582 1fbe 21f4 c7bd b62f ccbd
-0.0035801705 -0.065057896 -0.031052293 -0.017759109 -0.054578476 0.040864643 -0.13103046 -0.11681108
0.06832467 0.006037877 -0.07121947 -0.26472026 -0.036468893 0.009516531 -0.09856857 -0.16914856
0.060112063 -0.18421455 -0.1256012 -0.05684108 -0.081717 -0.17188585 -0.009096469 -0.004958687
-0.15573141 -0.039836433 -0.062222093 -0.09006104 -0.14144401 0.031155527 -0.11961809 -0.018494038
-0.020972991 -0.14908282 -0.032233015 -0.074298404 -0.098596975 -0.2227241 -0.17812595 -0.056371745
-0.0047306223 0.037171673 -0.17221332 0.026218323 -0.09504693 0.079800606 0.039937876 0.007326356
-0.10311319 -0.058716614 -0.00891672 -0.07110998 -0.1109608 -0.04404216 -0.13959654 -0.0035369003
-0.024505507 0.008885633 0.07627309 -0.15173759 -0.022306992 0.08640324 -0.14821525 -0.21837793
0.007998747 -0.1322272 -0.25919706 -0.12174168 -0.08868726 -0.080072515 0.11293543 0.014695139
-0.11036309 -0.027975416 -0.2320672 -0.16164121 -0.018789792 0.08533913 0.016194351 -0.1312824
-0.12553549 -0.12928371 -0.04984271 -0.23345707 -0.23860629 0.04323868 -0.09556636 -0.09354172
-0.029046502 0.006473658 0.09210738 -0.044439115 0.0010724991 -0.086767554 -0.11071151 0.17635837
-0.011719352 -0.08241818 0.09431695 0.10539099 -0.09284296 -0.1876001 -0.054251205 -0.11911641
-0.16083549 -0.09919729 -0.06310244 -0.016474603 0.028905826 -0.17408003 0.05824783 -0.13403244
-0.034140617 -0.03194532 -0.047684353 0.14856501 -0.040832493 0.14574473 -0.0903433 -0.030009413
-0.18761644 -0.10905734 -0.18257678 -0.0021465658 -0.111797936 -0.1557718 -0.09763361 -0.09970038

action_model._continuous_distribution.log_sigma f4 [1, 4]
00000000: 5337 a740 7e1a a740 af88 bb40 ae87 aa40
5.2255034 5.221984 5.860435 5.3290625

action_model._continuous_distribution.mu.weight f4 [4, 128]
00000000: 3012 a2bf 3af1 c2bf 6333 a0bf 7c8a ab3f
00000010: db66 4f40 b64d 0540 c809 3e40 0b60 1e3f
00000020: b837 a1c0 60ac 9b3f c1e2 9140 5275 3ac0
00000030: 82df 0ec0 96ca 533f abe5 8d40 e56b 44c0
00000040: f9a8 cabf 4f95 3840 d627 273f 83bc 7dbf
00000050: dcad be3c fbe2 e940 907f 3340 4226 b1bf
00000060: 9e07 7cc0 a664 5440 6fb0 8ac0 185b 2340
00000070: 98f2 26c0 39b6 bc3f 7a35 46c0 477d 1740
00000080: 42f3 03c0 a413 653f 1d35 97bf 4da0 86c0
00000090: 6b9f f73f b174 ebbe 0226 67bf d1c9 f6bf
000000a0: f118 24c0 eb44 b2bc 29b0 a4bf d02f 473f
000000b0: 034a 87c0 5f76 413f be34 2340 adfc 5cc0
000000c0: 4ce4 b03f 696a 7cc0 a2a4 9ec0 4c75 d33f
000000d0: 515a 24c0 9d32 bbbb c28f 9ebf c1c4 2540
000000e0: 9f46 0fbf 998b 32bf 1a6c aa3f 148f 03c0
000000f0: dc66 55c0 5846 30c0 b3f9 b83f 09c6 64bf
00000100: 3fb2 f43f a65f 76c0 096c 2bc0 5267 293e
00000110: eba9 b4c0 7208 8ebf 4af0 cc3e 2253 20c0
00000120: 8429 7640 eb1e 22c0 684c 04bf d7cd cabf
00000130: fc42 6940 2670 37c0 3a4e c4bf 4a29 3ec0
00000140: 259f 4540 9f03 9dc0 354b 4240 6026 a73e
00000150: c257 49c0 0bc8 4740 f7b6 483f d602 06c0
00000160: 31b2 8e40 4546 7d40 bf11 1040 6dce 63c0
00000170: dd5a 293e dc64 2640 ca1a 3b40 977d 5040
00000180: 61a6 edbd 246a ca3c 5cfd 2640 032b 66c0
00000190: c614 17c0 4b8d 0f40 f6d0 423e c35c b2c0
000001a0: 3525 a640 8cfe 5e3f 4de4 16bf 3964 a43f
000001b0: 6210 2640 72bc 60c0 b128 88bf 7e83 8240
000001c0: 4250 9bc0 0c5c e13f 1947 84be 1c7b 0ec0
000001d0: 814b 6dbf 050a 2c40 51c9 56c0 519f a73e
000001e0: 488f 5140 dc3b a13e c80e 3640 0c35 1f3f
000001f0: 506c 5f3f 780c 87bf f072 4fc0 867a 16c0
00000200: e47c 583f f8e6 9d3f 48a8 bbbd 78ba 81c0
00000210: cbd4 4340 3bb8 59bf fc5f 5bbe 0024 bc3f
00000220: d0d0 1cc0 a927 49c0 a87c 22bf 82db 44c0
00000230: bebf 0abf 0e77 2440 5cf6 8e3c 5f74 bd3f
00000240: f5f7 fabf 29bb 1040 b8ce ca3f 02ef 08c0
00000250: a5f1 913f 833d 5fbf 2b86 293f 25f7 97c0
00000260: 3bfe 29c0 2e09 9440 066d 57c0 bd20 3940
00000270: db88 d6bd 037b 2940 55da 7840 de52 f0bf
00000280: 64c8 6dbe 1b8b eabe 6c0d c040 fcb8 b43f
00000290: 0f37 a1c0 fdae b9c0 ab88 5940 776a 9a40
000002a0: ac50 d03f 769b a93f 3b72 9ec0 d77f a040
000002b0: a4ee 31c0 ee79 debf a89a 1f3f 0159 0ec0
000002c0: 6d0c 3640 bdf3 4ac0 9c28 3240 9161 e7bf
000002d0: 797e 8f40 26c0 983f 725a b63f 56fb a9c0
000002e0: 9a65 8a3f 95ac 2ebf 3b54 b5c0 8fb7 9cc0
000002f0: b615 b2be 9906 083f 1582 2ec0 3076 593f
00000300: 7178 5040 2b11 6540 f4f8 0f40 3c6f 70bf
00000310: d97f 423f 6f7d 39be 6857 b4be b6bf 3c3f
00000320: 2c3c 80c0 627a 6040 bacd debe 548b c23d
00000330: 67f0 99bf 71fa 47c0 ff91 bc40 86b2 8ec0
00000340: a9c7 7a40 2ee6 cabf d84d ffbe 7d3c 8540
00000350: 9f86 8ebf a213 0440 1f50 6340 65e9 88bf
00000360: 89b2 92c0 e284 1340 ccde 803f 6382 77bf
00000370: e332 88c0 5d60 cdc0 797b 37bf b45f 58c0
00000380: 1429 1040 98d2 593f 1afd 883f a4a9 65bf
00000390: 675e 84bf 7ab5 ad40 5dda bc3f 0075 0140
000003a0: 1011 c53f f530 12be 7e3c 303f 71e4 d03f
000003b0: 4a62 c53f 48ed 5640 fee4 d0be 15ab 1c3e
000003c0: e50c 203f 0e43 ca3d 7d4e bbc0 4287 183d
000003d0: 7ed2 2e40 ffbf 5f40 0943 a53f dc48 8bbf
000003e0: 687e 0d3f a446 83c0 a911 67c0 e4f1 a2c0
000003f0: de7a d43f 09b1 a0be 2b73 a5bd 94fa a540
-1.26618 -1.5229867 -1.2515682 1.3401637 3.2406528 2.082868 2.969347 0.618653
-5.0380516 1.216198 4.55893 -2.9134107 -2.2323918 0.82730997 4.4342856 -3.0690854
-1.5832816 2.884113 0.6529516 -0.9911577 0.023276262 7.3089576 2.8046608 -1.38398
-3.937965 3.318643 -4.3340373 2.552435 -2.6085567 1.474311 -3.097014 2.3670213
-2.0617223 0.89483094 -1.1813084 -4.207068 1.9345526 -0.45987466 -0.9029237 -1.928034
-2.5640223 -0.021761378 -1.286626 0.7780733 -4.2277846 0.75571245 2.5500941 -3.452922
1.3819671 -3.9439948 -4.957597 1.6520171 -2.5680125 -0.0057128207 -1.2387621 2.590134
-0.55967134 -0.6974426 1.331424 -2.0556078 -3.334403 -2.7542934 1.4451202 -0.8936468
1.9116896 -3.849588 -2.678469 0.1654332 -5.645742 -1.1096327 0.40027076 -2.505074
3.846284 -2.533137 -0.51679087 -1.5844067 3.6447134 -2.86622 -1.5336373 -2.97127
3.0878384 -4.906692 3.0358403 0.32646465 -3.1459813 3.1215847 0.7840418 -2.093923
4.459252 3.957414 2.2510831 -3.5594742 0.16538568 2.599906 2.92351 3.2576654
-0.11604 0.024708815 2.6092138 -3.5963752 -2.360643 2.2429988 0.19025025 -5.5738235
5.192042 0.8710716 -0.5894211 1.2843086 2.59475 -3.5115018 -1.0637418 4.0785513
-4.853547 1.7606215 -0.25835493 -2.226264 -0.92693335 2.6881115 -3.3560374 0.32738736
3.2743702 0.31490982 2.8446522 0.6219032 0.87274647 -1.055068 -3.2413902 -2.3512282
0.8456557 1.2336111 -0.091629565 -4.0540123 3.0598629 -0.8504674 -0.21423334 1.4698486
-2.450245 -3.1430457 -0.6347146 -3.0758977 -0.54198825 2.5697665 0.017451458 1.4801139
-1.960692 2.2614233 1.5844336 -2.1395879 1.1401869 -0.87203234 0.6622035 -4.748919
-2.656142 4.6261206 -3.3660293 2.8926232 -0.10475322 2.648133 3.888326 -1.8775289
-0.23220974 -0.45809254 6.0016384 1.4118953 -5.037971 -5.802611 3.3989666 4.825496
1.6274619 1.3250568 -4.951444 5.0156054 -2.7801905 -1.738096 0.6234536 -2.2241824
2.8445084 -3.1711266 2.7837286 -1.807665 4.4841886 1.1933639 1.4246352 -5.3119307
1.0812256 -0.6823209 -5.666532 -4.897407 -0.3478219 0.5313507 -2.7266896 0.84945965
3.2573512 3.5791728 2.24957 -0.9391973 0.7597633 -0.18114255 -0.35222936 0.7373003
-4.007345 3.5074697 -0.43516332 0.09499231 -1.202649 -3.1246607 5.892822 -4.4592924
3.9184363 -1.5851495 -0.49864078 4.163634 -1.1134833 2.0636983 3.5517652 -1.0696226
-4.584294 2.3049855 1.0067992 -0.9668333 -4.2562118 -6.418013 -0.7167278 -3.3808413
2.2525072 0.85086966 1.070224 -0.89711976 -1.0341309 5.428403 1.4754139 2.022766
1.5395832 -0.14276488 0.68842304 1.6319715 1.542062 3.3582325 -0.40799707 0.15299638
0.62519675 0.09876071 -5.853331 0.037238367 2.7315974 3.4960935 1.2911083 -1.088161
0.55271006 -4.102373 -3.610453 -5.0920277 1.6599996 -0.31385067 -0.08078607 5.186838

action_model._continuous_distribution.mu.bias f4 [4]
00000000: 13b0 e03f 5e40 573e 5ff5 403e db76 303f
1.7553734 0.21020648 0.18843602 0.6893136

onnx::LSTM_102 f4 [1, 512, 128]
00000000: 2ac9 c83d 6c79 8abd 3fa6 93bd b234 943d
00000010: 005e cdbe 368a 983e a791 2dbe 4e88 f4bc
00000020: 122d 16bd 7167 d6bd 6c0f e13e 292f aa3e
00000030: 8d93 6f3c 47cd 9ebe f86d 63be c9b2 973e
00000040: bb59 f83d f157 833d ec9c cfbd 1e53 733d
00000050: f3d5 85bd ab7f 84be 62cc dabc d996 b83e
00000060: b041 d83d c044 a2be 0efe 3d3f e2f9 933d
00000070: 64d5 11be 3964 313e 56de 1abd d548 7a3e
00000080: bb6d 633e e40a 3e3e a9bf 8e3d 2a80 8c3e
00000090: 1bfc 5a3d f67c 023e abcd 173f cad3 273e
000000a0: 2059 e63d a63c 5abe 18e7 6b3e 0b71 e83e
000000b0: 9727 debc d968 d33e 2cc7 39bd a42e f4bd
000000c0: d50a 07be 465a 153e ebe6 7fbd 2d3d 9e3d
000000d0: 4519 423e acc6 153f 638d 2f3d c635 933e
000000e0: df09 f63d 9044 ba3e 84c8 183f 72d1 223e
000000f0: 0192 febd 4ced 85be 5943 dc3e 1854 473e
00000100: 680c 3b3c 6768 333e da11 383f c8ec 443e
00000110: 2bf5 933d d782 0d3f 8219 acbd f9ba 3cbc
00000120: d8c2 3cbd c69f babd 89a2 bb3e e13a 1abe
00000130: 8e19 573c e1d3 90bd e6bd c83e ef9f 8d3e
00000140: 0dc8 763c cf68 6b3e 39ce 873d c916 843e
00000150: cf88 d03e 9e4e fe3d 5b32 253e 692b 423e
00000160: e6cf a13e 4bd2 163f 6d30 a2bd dff4 2d3d
00000170: 7584 a63d 5252 073f b8de ae3c 5e82 14be
00000180: efd7 e73d 80a9 aa3d f6d0 96bd b53c d93e
00000190: 2926 c8bc 12ac ce3e 9f0f 513d ee7f ad3e
000001a0: 462b 09be 78ee cfbc 317b 0cbd baf9 df3e
000001b0: 0302 863e 1faf a43e 56c3 c93e be5e ea3e
000001c0: 4bc4 453e 57f4 ec3e 75a0 cb3d 91af 083d
000001d0: 0811 7dbc b000 d83e 51e9 aa3d aeab 99bd
000001e0: 8dff c13d 719f 43be 5b27 ff3d f0c2 2a3e
000001f0: b055 5ebe d7d6 4d3e 9273 8fbd 806f 1dbe
00000200: e587 9fbd a97e 483e 2f88 b73d 0d9a 553f
00000210: 11e1 92bc f043 493e 0711 f33e 464e 71bd
00000220: 4dc4 993d 885d d13e 49f3 1f3e 1db5 4cbd
00000230: 55d2 3d3e 0772 ac3d e373 ef3c b23a 11be
00000240: c277 b13b 5c0f 393e efae 773d 30e2 1c3e
00000250: 7937 823e 06a4 46be a21d b2bb cfe1 333e
00000260: 3185 32bf 547e 023f 967f c23d 3942 103e
00000270: 4bb5 2fbe 3ed8 88bd 8307 1c3e d102 3a3e
00000280: 3ef6 883e 93e2 053f d85c 623e ab78 ea3c
00000290: e79e b63e baeb 94be a881 fa3c f9e1 c43e
000002a0: 2f51 413e b957 283e 74fd 9c3d f280 333e
000002b0: 5427 8b3e deee 933e 7f60 37be 884b 9a3e
000002c0: a071 ca3e b587 773e a0d4 253e b5e2 793e
000002d0: 7af1 b13d 9433 3e3f bafe c0be 0169 993e
000002e0: d35a f5bc 1e3f e93e ab9d a53c a87c 913d
000002f0: 60e6 62be c9cb 75be 1284 41be 074d 40be
00000300: 2fad 2d3e ba1e 503d 14cd 053e a34b b53e
00000310: 3b10 bb3e 5ca3 d9be 01ae 39bd 6006 93bd
00000320: 400f a13e 829a 943e 557b 51be bfcf 3e3e
00000330: c909 e3bd fa81 3a3e dbf3 523f 03a1 a93e
00000340: 4c5d bfbd f387 db3d 7a40 9c3e f619 143e
00000350: 68ae 6a3e cad0 323e 8fe4 cfbd 4729 21be
00000360: 3eac f03e 60af 5c3e aaa2 713e 5068 9abd
00000370: 53dc 01be 62af 0a3d ac44 633e 0b42 383e
00000380: 8616 22bc cd0e 3a3e c0bd fc3e 95e3 093f
00000390: c6ef 043d 0bf4 7bbe e1a8 96bd aef1 eb3e
000003a0: 91dc 53be a1d6 b6be 0940 d73e af0a 0d3c
000003b0: d407 993e d724 fc3e 0132 41be 6a2a fd3e
000003c0: f8d9 d03c 546d a4be 803c c53e 26b3 29be
000003d0: a87c aabe 6e00 47be a614 7abd 693f dabd
000003e0: b4ed 6cbe 9c81 ad3e 2dd8 703e a897 c7be
000003f0: 9725 d33e ce6f 4ebd 2634 e7bd 38ff e03e
0.09803994 -0.06761441 -0.07209443 0.07236613 -0.4011078 0.29792947 -0.16950093 -0.029850151
-0.036664076 -0.10468949 0.43957078 0.33239105 0.014622581 -0.3101599 -0.22209918 0.2962859
0.1212649 0.06413258 -0.10137352 0.05940544 -0.06534948 -0.25878653 -0.026708785 0.36052588
0.10559404 -0.31693077 0.7421578 0.07225396 -0.14241558 0.17323388 -0.037809692 0.24441846
0.22209828 0.18558842 0.0697015 0.2744153 0.053463083 0.12742981 0.592982 0.16389385
0.11247468 -0.21312198 0.23037374 0.45398745 -0.027118487 0.4129093 -0.04535596 -0.119229585
-0.13187726 0.14585218 -0.06247608 0.07726512 0.18954952 0.58506274 0.042859446 0.28751963
0.120136015 0.36380434 0.5968096 0.1590021 -0.12430192 -0.26157606 0.43020132 0.19465673
0.011416532 0.17520295 0.7190224 0.1923095 0.072244965 0.5527777 -0.08403303 -0.011519187
-0.046084255 -0.091125056 0.36647442 -0.15061523 0.013128651 -0.07071663 0.3920738 0.27661082
0.015062344 0.229892 0.06631131 0.25798634 0.40729377 0.12417339 0.1613249 0.18961872
0.31603926 0.5891463 -0.07919393 0.042469855 0.08130733 0.52859986 0.021346435 -0.14502856
0.11320483 0.08333111 -0.07364075 0.42429128 -0.024432259 0.40365654 0.051040288 0.33886665
-0.13395414 -0.025382265 -0.034297172 0.43745214 0.2617341 0.32164857 0.39406842 0.45775408
0.19313161 0.46280167 0.09942714 0.03337056 -0.015445955 0.42188025 0.08345283 -0.075034484
0.094725706 -0.19103791 0.12458678 0.16675925 -0.21712375 0.20101486 -0.07004465 -0.15374565
-0.07789592 0.19579567 0.08961522 0.8343819 -0.017929586 0.19654822 0.47473928 -0.058912538
0.075081445 0.4089167 0.1562015 -0.04997741 0.18537267 0.084201865 0.029230064 -0.14182547
0.0054158876 0.18072265 0.060469564 0.15320659 0.25432947 -0.19398507 -0.0054356614 0.17566608
-0.69734484 0.5097401 0.09496991 0.14087762 -0.17159002 -0.0668187 0.1523724 0.18165137
0.26750368 0.5229885 0.2210573 0.028621992 0.35668108 -0.29086095 0.030579403 0.38453653
0.18878625 0.16439714 0.0766553 0.17529657 0.27178442 0.2889318 -0.17907904 0.3013575
0.39539814 0.24172862 0.16194391 0.24402888 0.08688636 0.7429745 -0.3769434 0.29962924
-0.029950535 0.45555967 0.020216784 0.071038544 -0.22158194 -0.24003519 -0.18898037 -0.18779384
0.16960596 0.050810553 0.13066512 0.3540927 0.3653582 -0.42507446 -0.04533196 -0.0717895
0.31456947 0.2902413 -0.20457204 0.18633936 -0.11085851 0.18213645 0.82403344 0.33130655
-0.09343967 0.1071929 0.30517942 0.14463028 0.22918093 0.17462459 -0.10151016 -0.15738402
0.4700641 0.21551275 0.23597208 -0.07539427 -0.12681703 0.033858664 0.22194165 0.17993943
-0.009893065 0.18169709 0.49363518 0.5386289 0.03245523 -0.24604814 -0.0735643 0.46082824
-0.20689608 -0.35710624 0.42041042 0.008608504 0.29888785 0.49246857 -0.18866731 0.49446422
0.02549456 -0.3211466 0.3852272 -0.16572246 -0.3329823 -0.19433758 -0.061054848 -0.10656626
-0.23137552 0.33887947 0.23519965 -0.38982892 0.41239616 -0.050399594 -0.112892434 0.43944716

onnx::LSTM_103 f4 [1, 512, 128]
00000000: af43 0bbe 5cc7 b73b 1d01 33be e5e8 183f
00000010: 2d17 d3bd da7a fc3e 0613 083f 4c5e aa3e
00000020: 9c79 9ebe 0557 9cbe 8f32 193e 7b51 8fbe
00000030: 4174 123c f117 73be b856 033e 8e6e b3be
00000040: bb7b 28be 3bc4 84bd 70c0 613e b6ae d83e
00000050: 4ab1 9e3e 353a 343e ec27 363e 6354 16be
00000060: 5a52 11be dd21 a4be d197 88bc 8d3c d5bd
00000070: a81f bd3d 8747 883d 2a6f a33e ef20 91be
00000080: a2b4 babe 8703 263e 17d9 7a3e eccb 6ebe
00000090: c72e 5f3e 4874 acbe 010b 9dbe 233f 9cbd
000000a0: c839 14be 7479 223e 33dd e83d fbeb 22be
000000b0: a41c 4bbe 0783 14bf e31d 5c3e 2587 f3be
000000c0: 3af1 3f3c 8486 7c3c 2d46 13be f176 1e3e
000000d0: 72b8 d4bd 6093 f4bd 06f4 c53e b62f d4bd
000000e0: 10dd 003c 5363 0a3e c7cf 95bd 1383 3fbe
000000f0: d416 03be bdf4 f53e 1b22 563e 9fda 72be
00000100: a87f f8be 2dea 8c3b 5290 61bd f248 7cbe
00000110: d1ba 9fbd 6617 ba3d 5732 fcbc 1b48 873e
00000120: 775e e53d cada 873d 5ae4 8bbe 5a1a 63bd
00000130: 1e6d 01be f8f0 9cbe df4e f03e ae8c f23c
00000140: 87d3 23be 2a47 3a3e a85c 4a3e 8662 493f
00000150: e976 03be 15cd 173f 5f90 0abe 58da 88be
00000160: 7ca9 8e3e cc0e cb3e 560b 0dbe 17ed f43e
00000170: 20bb fc3c 9b87 c53e e55e 2d3e 867a 1ebe
00000180: 1017 903e 099d f53e 20cd 923d a3fc 2ebe
00000190: 85ea 993e 8c39 62be ea44 d83d d705 35be
000001a0: c34a e43e 301c 673e 7de5 09bf 92be de3d
000001b0: 0a1d 413e d9e4 153e e221 783d dc88 89be
000001c0: db5f 2c3e b77a 783e 3772 373f ef9d eebe
000001d0: c7fd 2abe d99f b93d cde7 083e 5dca 45be
000001e0: 7578 7f3e 94c5 5abe 6e2e 323e fb5b 963e
000001f0: 4d72 0a3f 7f34 b2bd 1092 cdbe 67fa 21be
00000200: 00dd b2bd 06c2 653e f663 6dbe a71f 323f
00000210: 5a17 9bbe af9f ac3d 65ae b83c 2d03 d0bd
00000220: 92a5 da3e 4305 91be 3c88 09be ce0c afbc
00000230: 4ca4 a2be 9f9a 7cbd 6e12 a8be 0fd7 48bd
00000240: 0442 133e b068 d23e 2fa1 b33e 1528 6a3d
00000250: 15f7 8f3e 1c24 ffbd 8abe 24be d310 87bd
00000260: 8880 debe aa45 2a3f e677 a73e 669f d43e
00000270: 8326 5cbe a593 993d 074f debe 4efa d63c
00000280: 7f1e 463e edcb e33c 492e 03bf af9d ba3d
00000290: 18bc d93d ffea fe3d 9348 f6bc fb82 a53d
000002a0: 89d5 92be 44ef 2cbe 7c29 50bd 9e0a c53e
000002b0: 46da 79bd 5e1f e7be a051 91bc fc0d 9bbd
000002c0: c230 34bd 8a6a 883d e40a c1be 1a18 773e
000002d0: 67a2 503c 9f30 8c3d f56f c6be 2be9 70bc
000002e0: de99 ed3d 2633 40be af22 26be 9fec adbd
000002f0: 63d7 673e f470 b7be 20cd a93e dfb4 99be
00000300: ef0c d73d 0b8d 103f 9e9b ba3d c259 753d
00000310: 79af 5fbd 018f 4c3e da58 96bd 1646 563d
00000320: 9108 93be cbbf b33e 0afc 203f 1122 25be
00000330: 30c4 b23e ad1a 59be 3adc 5f3d 4366 dfbd
00000340: ed2a bb3d 7ed7 62be 4d3f 4bbe c61b 56be
00000350: 0651 3c3d b8c7 8d3e d7c5 b7bb 74c8 08be
00000360: be45 633c 6f74 02bf 08a1 92bd 7d2f 58be
00000370: 4a11 c53c d3ef 91be 4a51 b8bc f5c1 3e3d
00000380: 1748 b83d 0f43 e73d 25ce 383d ca9f 2dbd
00000390: 2011 933e b432 cf3d b579 f4bd a7a3 b3bd
000003a0: 5ea9 bcbd 3b7c 3abe c1bb 6b3c f584 1c3d
000003b0: a672 663d 91a8 de3d 5466 26bf 308b 9fbe
000003c0: fa02 1a3b 5d91 c13e 21a0 7ebd 66a1 223c
000003d0: d1cf 583e fdb2 b4bd d309 cabd 0cfd 4b3e
000003e0: 700b 88be c141 d6be 76de f03c 4e15 ddbd
000003f0: 3ba3 aa3d bf78 353e 9464 a2bd eada 91be
-0.13600038 0.0056084823 -0.17480893 0.5973037 -0.10307155 0.49312478 0.5315403 0.33275068
-0.30952156 -0.3053514 0.14960693 -0.27991852 0.00893885 -0.23739602 0.1282605 -0.35045284
-0.1645345 -0.064827405 0.22046065 0.42320794 0.30994636 0.17600329 0.17788666 -0.14680628
-0.14191571 -0.32057086 -0.016673954 -0.1041194 0.092345536 0.06654268 0.3192075 -0.2834544
-0.36465937 0.16212283 0.24496876 -0.23319978 0.21795188 -0.33682466 -0.30672458 -0.0762923
-0.14475167 0.15866643 0.113703154 -0.15910332 -0.19835144 -0.5801243 0.21495776 -0.47564045
0.011715228 0.01541293 -0.14382239 0.1547506 -0.10386743 -0.11942172 0.38662738 -0.10360663
0.007865205 0.13514452 -0.07315021 -0.18702345 -0.12801677 0.48038283 0.20911448 -0.2371621
-0.48534894 0.004300377 -0.055069275 -0.24637201 -0.07799304 0.09086494 -0.030785723 0.264222
0.11199658 0.066335276 -0.27322656 -0.055445053 -0.12639281 -0.30652595 0.46935174 0.029608097
-0.1599866 0.1819121 0.19761908 0.7866596 -0.1283833 0.59297305 -0.13531636 -0.26729083
0.2786368 0.39659727 -0.13773856 0.47837135 0.030850947 0.3858002 0.1693073 -0.15476426
0.28142595 0.4797137 0.07168031 -0.17088561 0.30061737 -0.22092265 0.10560019 -0.17678009
0.4458829 0.22569346 -0.53865796 0.10876192 0.18858734 0.1463808 0.06057919 -0.26862228
0.16833441 0.24265562 0.71658653 -0.4660487 -0.16698371 0.09063692 0.13369675 -0.19315477
0.24948294 -0.21364433 0.17400524 0.2936705 0.5408066 -0.08701419 -0.401505 -0.15818177
-0.08733559 0.22437295 -0.23182663 0.6957955 -0.30291253 0.08428895 0.022544095 -0.10156856
0.42704445 -0.28324327 -0.13430876 -0.02136841 -0.31765974 -0.061670896 -0.3282656 -0.04903322
0.14380652 0.41095495 0.3508391 0.05716713 0.28118196 -0.12458059 -0.1608831 -0.06595006
-0.43457437 0.6651255 0.32708663 0.4152786 -0.21499066 0.07498864 -0.43419668 0.026242401
0.19347571 0.0278072 -0.512425 0.09112107 0.10631579 0.12447166 -0.030063903 0.08081623
-0.2867854 -0.16888148 -0.050820813 0.38484663 -0.060999177 -0.4514112 -0.017739117 -0.07571027
-0.04399181 0.06660946 -0.3770362 0.24130288 0.012734032 0.06845211 -0.3875729 -0.014704029
0.116016135 -0.18769512 -0.16224168 -0.084923975 0.22640757 -0.35828364 0.3316431 -0.30020806
0.10500514 0.56465214 0.09111713 0.059900053 -0.054610703 0.19976427 -0.07341166 0.052312933
-0.28717473 0.35107264 0.6288458 -0.16126277 0.34915304 -0.21201582 0.054653384 -0.10908177
0.09139047 -0.22152516 -0.19848366 -0.20909032 0.045975707 0.27691436 -0.005608301 -0.13357717
0.013871608 -0.50958914 -0.071596205 -0.21111865 0.024056096 -0.28503284 -0.0224997 0.04657169
0.08998125 0.11292087 0.04511847 -0.042388715 0.28724003 0.10117093 -0.11937276 -0.087714486
-0.09211992 -0.18211453 0.014388026 0.038212735 0.05626168 0.10871995 -0.6499989 -0.3116088
0.002350031 0.37806216 -0.06216443 0.009926176 0.21173026 -0.08823202 -0.09865155 0.19920748
-0.26571226 -0.4184704 0.029402953 -0.10795079 0.08331915 0.17721842 -0.0792934 -0.2848733

onnx::LSTM_104 f4 [1, 1024]
00000000: 5607 813e 9765 253e 91cc a93d 8abd 443e
00000010: bc6e b33d f57f ac3d 0f2d 843e 31f1 c5bb
00000020: a481 d33d 307a 9d3d b148 803c 932e 2d3e
00000030: c555 3a3e 9f70 8d3e 273c 343e 3dbd 263e
00000040: 08e0 053e bf16 aebd c909 2c3d 32fa 873c
00000050: 4e45 9a3d 9ce2 8e3e fee2 823e b093 9fbd
00000060: e023 953e 69ac f8bd 7bc6 353e 0dfd b1bd
00000070: 44f0 343e b40d d73d f8f5 353e d48c 933d
00000080: 2430 cb3e a6d4 6b3e 2e2d 8a3e 20e9 243e
00000090: ede7 f03d 2691 8b3e e616 883e 1ee7 8c3e
000000a0: 2b05 a53c 24d9 603e a448 743e e58f 893e
000000b0: 3dc6 9d3d 9cbe 61be bb18 f23d ffc3 3c3e
000000c0: a003 223e 7d40 373e dc13 333e 622c 193e
000000d0: 7511 ba3e 8886 e93d e9c7 e03d 8202 773e
000000e0: 4d16 033e fe02 e83e 8f09 bb3e ea07 1a3e
000000f0: 9b14 103d 8b6f e73d a1b9 893d 1199 e03d
00000100: 247b b13d abf9 023e 558d 03be 4652 03be
00000110: 437f 843e 10d5 4e3e 99b5 af3e 558e 1dbe
00000120: 8f64 0e3e 992a c13d 34d9 163c 4f4a 263e
00000130: a3ee 6e3e ac8f d33d 6eb8 223e 21e5 a9bd
00000140: 1ab7 e73c 43be 863c a97c a53e f8b6 273e
00000150: 98cc 7d3e dd74 b13e 8874 7a3e 9d63 d73d
00000160: 6a58 fb3a 9163 a03e cd24 af3d e353 c93d
00000170: fcb4 cc3d fdf3 be3e 11b5 0e3e f8d3 4b3e
00000180: b450 3f3d e52d f03d 6c5c f6bc 19c8 f23e
00000190: 930e bd3d 8944 8a3d 5888 753d 0827 8c3e
000001a0: 4137 323d af75 243e 663b 93bc 1ba8 5d3e
000001b0: 08a7 a73d 7787 e03d 19b5 cabd 1b59 0d3e
000001c0: b51d 273d 07a0 f0bd 6baf a33e e94e 333e
000001d0: 9d8c 463e 0d3f 793e 9391 443d 1f8d 283e
000001e0: 7230 b03d ace4 0a3e 9045 293e c389 9d3e
000001f0: 44e9 b13b 891b b13e 21fb cc3d 3d05 cdbc
00000200: f832 bc3d 6873 1d3d 28fe 8b3d 20a5 8a3e
00000210: 5652 af3e e24f 28be 77d4 b33e b248 80bd
00000220: fee5 f53d 38ef 353e 0c24 313e 8bc6 d8bd
00000230: 26f3 96bb 5a98 953e fffc 6b3e e93a 61bd
00000240: 750d a43d 1ca2 693d 26ef 51bc 2d1d 80bd
00000250: a5cc ed3c 86ca ab3d 3a68 993e a2cf 223e
00000260: 1b5f 173e 3e7e 6dbc 9246 6a3e 0cf6 8ebc
00000270: 7bde 973e 9cb5 bc3d 5538 873e 7608 013c
00000280: 3ebd 163e 576e 8e3d f27b 9f3e 114f 9c3e
00000290: 0511 393d 147d b73e c9af 303e 51dd a83e
000002a0: 122f 00bb 7356 6f3e 1a1d 7d3e a352 9f3d
000002b0: f292 393c 42a9 6dbd 780f 203e cd15 ec3d
000002c0: 7be9 873d 0bc0 893e abe4 9e3c 4f23 7c3e
000002d0: 4f33 333e 4ec3 113e c7ba 79bd d811 0c3e
000002e0: 91b5 4e3e bf5e da3d 5a9b d63d dbf8 f53d
000002f0: c808 3d3d 7801 ae3e f297 8a3d 1fda 273e
00000300: e171 8b3e fe4b 9e3e 1c2b 0abe 6940 603e
00000310: 1046 563e 8edd 9bbd 652e 4e3e 5c76 fb3d
00000320: a3ad e43c 8786 273e c48e 93bd c189 2d3e
00000330: b8f0 bb3e fe5c 373c 6cd5 983e d9d7 973e
00000340: a564 8e3e a175 273d 98fe c53d 9321 38bd
00000350: 640d 143e 582b e23d 1cd0 143e dc10 8c3e
00000360: 3aea 84bd 6a88 413e 827e 163e 0c14 ad3e
00000370: d5aa 43bd 998c ae3e 6ebf 2a3e e238 903e
00000380: 67e4 c53e 1bc0 043e d255 5f3e 7049 7b3e
00000390: 934f f3bd f713 5cbd fe7d f73d 8006 7f3d
000003a0: 82c5 803e 2427 513e 6b6e 1dbd 20f6 603e
000003b0: 5c1f bc3d 14f9 d23d 00b2 a73c 14cf 143e
000003c0: 538e 163e 3e49 b13e 7de5 573e afc6 ac3e
000003d0: 3c51 093e 0eea 063e 8724 c9bb 70a3 6f3e
000003e0: 6962 23bc ad6a 9b3d b054 6f3d 9b7e b93e
000003f0: a51d b83d 784a bbbb d8d4 913e a03d 6b3e
0.2520091 0.16152035 0.08290971 0.19212928 0.08761355 0.08422843 0.25815627 -0.006040715
0.10327461 0.07689321 0.015659662 0.16912298 0.18196781 0.27624986 0.17601071 0.16283126
0.13073742 -0.08500432 0.04200152 0.016598795 0.0753275 0.27907264 0.25563806 -0.07791841
0.29128933 -0.1214226 0.17751496 -0.08690844 0.17669779 0.105006605 0.17769611 0.07204595
0.39685166 0.23030338 0.26987594 0.16104555 0.11762986 0.27259177 0.2657997 0.27520078
0.020144066 0.21957833 0.23855835 0.26867595 0.077038266 -0.22045368 0.11821123 0.18434142
0.15821695 0.17895694 0.17488045 0.14958337 0.36341444 0.11402613 0.1097563 0.2412205
0.12801476 0.45314783 0.3653073 0.15042081 0.0351759 0.11300572 0.06724859 0.10966695
0.08666065 0.12790553 -0.12846883 -0.12824354 0.25878343 0.20198464 0.34318236 -0.15386327
0.13905548 0.09431953 0.009207059 0.16239284 0.2333322 0.103301376 0.15890667 -0.08295656
0.028285552 0.016448146 0.3232167 0.16378391 0.24785078 0.34659472 0.24458516 0.105170466
0.001917613 0.31325963 0.08551941 0.09830453 0.099954575 0.37295523 0.13936259 0.19905078
0.046707824 0.11727504 -0.030073367 0.47418287 0.092312954 0.06751353 0.05994448 0.27373528
0.043509725 0.16060518 -0.01797266 0.21646158 0.081861556 0.10963338 -0.09897823 0.13803522
0.040799815 -0.11749273 0.3196977 0.1751057 0.19389577 0.24340458 0.047990393 0.16460083
0.0860299 0.13563794 0.16530442 0.30769166 0.0054294188 0.3459132 0.100088365 -0.025026912
0.09189409 0.038440138 0.06835586 0.27079105 0.34242505 -0.16436723 0.35123035 -0.062638655
0.12006758 0.17767036 0.17298907 -0.10584744 -0.0046066223 0.29217798 0.23045729 -0.05498782
0.08010379 0.057039365 -0.012813365 -0.06255565 0.029028246 0.08388238 0.2996233 0.15899518
0.14782374 -0.0144954305 0.22878483 -0.017451309 0.29661927 0.09214327 0.26410165 0.007875552
0.14720628 0.069546394 0.3114925 0.30529073 0.045182247 0.35837615 0.17254557 0.3298135
-0.0019559306 0.23372822 0.24718133 0.077794336 0.011326538 -0.058022745 0.15630901 0.11527596
0.0663633 0.2690433 0.019396147 0.24622844 0.17500041 0.14234659 -0.06096914 0.13678682
0.2018645 0.10662603 0.1047885 0.12010356 0.046150953 0.33985496 0.067672625 0.163918
0.2723532 0.30917352 -0.13493007 0.2189957 0.20925164 -0.076106176 0.20134886 0.12278435
0.027914828 0.16359912 -0.07204965 0.1694708 0.3670709 0.011191605 0.29850328 0.29656866
0.2781116 0.040883664 0.096677005 -0.044953894 0.14458233 0.110434234 0.14532512 0.27356613
-0.06489988 0.18899694 0.14696696 0.33804357 -0.04777034 0.34091642 0.16674587 0.28168398
0.3865082 0.12963907 0.21810082 0.24539733 -0.11880412 -0.053729977 0.12084578 0.06226206
0.25150687 0.20425087 -0.03843538 0.21968889 0.09185669 0.10301414 0.02047062 0.14532119
0.1470273 0.34626192 0.21083637 0.33745334 0.13409895 0.13175222 -0.0061383876 0.2340219
-0.009972193 0.07588706 0.058430374 0.36229405 0.08990029 -0.0057156645 0.284827 0.22972727
