results/DroneAgentSingleTwo2/DroneAgent/DroneAgent-5000002.onnx (onnx, 755437 bytes, 10 tensors)

network_body._body_endoder.seq_layers.0.weight f4 [128, 296]
000000 aa 49 b8 3d 74 5a 15 3d 29 66 d8 bd e3 9c 8d 3d
       0.08998425 0.036463216 -0.105663605 0.069146894
000010 2e 95 26 3c 0e 0c cb bd 7a e8 85 3b d0 af 56 3d
       0.010167403 -0.099144086 0.0040865513 0.05241376
000020 53 4e c9 3d 97 be a1 3d e1 50 a3 3d a5 ee 16 3d
       0.09829392 0.0789768 0.07974411 0.036848683
000030 06 55 61 3d 33 cf ce 3d 4b 9c d2 3b 6b b5 27 3d
       0.055012725 0.10098114 0.006427323 0.040944498
000040 8d 0e 24 be e6 4a c2 3d fd 45 8e 3c eb c4 65 bd
       -0.16021176 0.09486942 0.017367357 -0.056096
000050 af 42 1a 3c 69 38 1f 3d 5b 5c c8 bd f4 d0 af bd
       0.009415313 0.038872156 -0.097832404 -0.085847765
000060 fc 34 b8 3d 0b 00 8b bd a7 04 9c bd 10 aa 25 bd
       0.08994481 -0.067871176 -0.07618075 -0.040445387
000070 ba 96 ec 3c a7 48 15 3d a7 25 0e 3c 68 36 f7 3c
       0.028880466 0.03644624 0.008675969 0.03017731
000080 7d d8 ea 3c 39 f1 18 bd 72 07 e0 3c 29 c9 62 bc
       0.028667683 -0.037339423 0.0273473 -0.013841906
000090 33 08 af 3c b7 78 8a 3d 57 e4 ef 3c 20 02 27 3d
       0.021366214 0.06761306 0.029283686 0.04077351
0000a0 37 c9 8b bd 36 b7 d5 3b 69 81 07 3e b1 7d 88 bd
       -0.06825488 0.0065220846 0.1323296 -0.06664599
0000b0 23 40 d7 bb 48 2f 0f bd c5 55 31 bd f1 2a 83 bc
       -0.006568925 -0.0349572 -0.043294687 -0.016011687
0000c0 1a 70 d2 bc 47 1f 98 bc b8 83 18 3d 9f 81 9f bc
       -0.02568822 -0.018569602 0.03723499 -0.019470988
0000d0 83 24 05 3c 8f a0 da bc ad f8 e6 3d 39 81 07 bc
       0.008126381 -0.026687888 0.112779 -0.008270555
0000e0 01 f5 08 3d 1f 1c 69 bd 94 68 69 3d 12 27 17 bb
       0.03343678 -0.056911584 0.0569845 -0.002306406
0000f0 e0 26 ca bd e7 e0 97 3d 24 34 d1 3c 49 66 82 bc
       -0.09870696 0.074159436 0.025537558 -0.015917914
000100 e8 a6 01 bd 25 18 e6 3c df aa 72 3d 60 0c cc bc
       -0.031653315 0.028087685 0.059244987 -0.024908245
000110 12 45 70 bd 91 11 82 3d 13 1c 04 bc be 9a 01 3d
       -0.05865962 0.06351007 -0.008063334 0.031641714
000120 4b e0 61 bc 78 7a 00 bd 86 aa a8 3c 93 00 2a bd
       -0.013786386 -0.031366795 0.020589124 -0.041504454
000130 2d 3d 87 3d 57 0e 3a 3d 8e c2 17 3d 12 f0 53 bc
       0.06603465 0.04542383 0.037050776 -0.012935655
000140 d0 0c a3 bd 05 50 62 bc b3 b4 13 3c 2a 54 fc bc
       -0.07961428 -0.013813023 0.00901525 -0.030801851
000150 cc e3 34 bc eb d3 d3 3c 44 9b 8d 3c 2b 93 03 be
       -0.011040639 0.025857886 0.01728595 -0.12849109
000160 24 cc d2 bc 14 91 d0 bd 73 81 59 bd 26 d8 c5 3c
       -0.025732107 -0.101839215 -0.053101968 0.02415092
000170 b4 56 0d 3c bc 21 2f bc 2c 76 80 bd 01 f2 4b 3d
       0.008626629 -0.010689195 -0.062725395 0.04979134
000180 79 6e 89 3c 25 01 0a 3e 3a 16 64 bc 16 25 ea 3c
       0.01677631 0.13476999 -0.013921315 0.028582137
000190 08 67 07 bc 8a a4 f0 bd fb 78 dd bd e3 5a 8a 3d
       -0.008264311 -0.11750133 -0.10814091 0.067556165
0001a0 f5 f4 95 bd 65 7c 92 3d c3 db 1a bb c9 6d a2 bc
       -0.073221125 0.071526326 -0.0023629523 -0.01982774
0001b0 f2 c6 a3 bc e3 47 3c 3c 4e 24 33 3d 35 32 f3 3c
       -0.019992325 0.0114917485 0.043735795 0.029687027
0001c0 d0 0b 70 bc e7 f0 c5 bd 72 74 4b 3c e0 11 8a bd
       -0.014651254 -0.09665089 0.012417899 -0.06741691
0001d0 17 a2 aa bb 04 de 6c bc 24 cb 9c bc 63 29 e3 bc
       -0.005207311 -0.0144572295 -0.019139834 -0.027729696
0001e0 4b 9d a6 bd cb 6d 59 bb 6a b4 77 3d 55 7d 86 bd
       -0.0813547 -0.0033177014 0.06047479 -0.06566874
0001f0 58 62 5b 3c fe 44 bc 3b 6e dd 1c bd 67 6f e6 ba
       0.013390146 0.005745529 -0.03829711 -0.0017580808
000200 d5 3d f7 3c 63 de a2 3c 71 3b e3 3d 72 6f 25 bd
       0.030180851 0.019881433 0.11095322 -0.040389486
000210 dc 76 f8 3d 74 12 6c 3d 38 b4 ae bd a5 c6 a2 bd
       0.121320456 0.057634786 -0.08530468 -0.07948045
000220 af c9 6a bb 15 ec 72 bd 25 8a 88 bc 19 8d 07 3e
       -0.003582578 -0.059307177 -0.016667435 0.13237418
000230 9b cb 31 bb 8d 05 c3 bd b2 00 b7 3c 81 6e 52 bd
       -0.0027129415 -0.09522543 0.022339199 -0.051374916
000240 ea bc a7 3c dd 46 92 3d b5 1f a7 bb 38 92 1b 3b
       0.020475823 0.07142422 -0.0051002153 0.0023738276
000250 87 52 25 bd b4 0a b6 bd 57 67 9d bd f1 73 ae bb
       -0.040361907 -0.0888876 -0.07685726 -0.00532388
000260 90 06 e9 ba 27 91 b2 bc 8f 86 b8 bc 31 a0 6c 3d
       -0.0017778445 -0.02179773 -0.0225251 0.057769958
000270 43 43 7a bd 5f f9 db 3d 3b 93 06 3d c3 7e 71 3d
       -0.061099302 0.10740923 0.032855254 0.05895878
000280 50 01 82 bd ae 67 91 bd 65 a9 5b 3c ae 2f 32 3d
       -0.063479066 -0.070998535 0.013407086 0.043502502
000290 a3 b2 c7 bc 4b c5 b5 bd e1 0f d9 ba 57 af 07 bd
       -0.024377173 -0.08875521 -0.0016560518 -0.0331262
0002a0 89 6b 93 3d a6 a9 ff bc 7e 8e 53 3d 01 19 96 3d
       0.07198245 -0.031208824 0.051649563 0.07328988
0002b0 29 c9 68 3d 2a 20 7e bd d3 63 af 3c 67 d0 c7 3d
       0.056832466 -0.062042393 0.021409905 0.097565465
0002c0 86 99 aa bd 18 42 a2 3d 57 4f b6 3a 6e 72 f9 3d
       -0.083300635 0.07922763 0.0013909143 0.12180029
0002d0 57 a8 83 3d 49 90 f5 3d 95 8c 70 3d 9a 45 e7 bb
       0.06428593 0.11990411 0.05872782 -0.0070578577
0002e0 1c 92 17 be 51 69 7e bd 6e 7f 0a 3d 87 10 77 bd
       -0.1480183 -0.062112156 0.033812933 -0.060318496
0002f0 3b 58 12 3c 23 ba 86 3c cc fe cc 3d c4 dd 61 bd
       0.008932169 0.016446179 0.10009536 -0.055143133
000300 d0 18 a5 3d 8e f2 62 3b d8 6c 3d 3d 23 14 cb 3d
       0.08061373 0.0034629437 0.04624638 0.0991595
000310 24 a6 75 3c 48 c8 c7 3a 37 8c 80 bc 29 6f b8 bc
       0.014993224 0.0015242184 -0.01569186 -0.022513943
000320 93 26 23 3d 6e c4 5c 3d be c9 82 bd 19 3b c8 bd
       0.03983171 0.053898267 -0.063861355 -0.09776897
000330 b9 29 f1 bd fe 69 15 bc d3 dc 57 bd 89 20 11 3b
       -0.11775536 -0.009119509 -0.05270083 0.0022144637
000340 c6 a4 a1 bd e2 0f 4a bd bb 0c a3 bd b1 a1 5b bd
       -0.07892756 -0.049331553 -0.079614125 -0.053620998
000350 ed 69 82 bd 5b ab 58 bd 1e c5 d7 3d 2a 8c 52 3d
       -0.0636786 -0.052897792 0.10535644 0.051403202
000360 cf b6 1a bd 02 8b 45 bd d5 42 ad 3c 79 15 4e bd
       -0.037771996 -0.04822827 0.021150032 -0.050313447
000370 5e 99 d4 bd 66 5f 62 3d f5 2a c3 3c 2e dd c4 bc
       -0.10380815 0.05526676 0.023824194 -0.024031248
000380 a8 fd 77 3d 1c 00 be 3c bb 4d 83 bc 90 a6 c3 3b
       0.06054464 0.023193412 -0.016028276 0.0059707835
000390 a9 40 5e bd 2e e6 5d 3d b0 73 62 bd c5 b8 e4 3c
       -0.054260883 0.054174595 -0.05528611 0.027920136
0003a0 55 2b 9e 3b e6 c5 6b bd cd cc 24 bd 1e 03 45 bd
       0.004826943 -0.057561778 -0.040234376 -0.048098676
0003b0 7e 87 19 3d ad c1 76 3c 48 23 08 3d 0f 18 e6 bc
       0.03748273 0.015060824 0.03323677 -0.028087644
0003c0 08 a1 99 3d 5f 0f 1a bd db 6a a9 bd 19 0c 3d bd
       0.075014174 -0.037612315 -0.08272334 -0.046154115
0003d0 8b af 5e bc d9 62 75 3d 41 15 e3 bb 99 96 8e 3b
       -0.013591657 0.05990872 -0.006930024 0.0043514487
0003e0 95 65 3a bc d7 04 2a 3d a0 f0 9c bc 11 ab c8 bc
       -0.011376758 0.041508522 -0.019157708 -0.024495633
0003f0 29 6b 88 3d 49 97 7b 3c a3 70 6a 3d 19 db 5a bd
       0.06661064 0.015355893 0.057236325 -0.053431604

network_body._body_endoder.seq_layers.0.bias f4 [128]
000000 14 1f 09 3b 66 62 47 3c fe 7d 4f 3c 94 83 a1 3b
       0.0020923065 0.012169456 0.012664316 0.0049290154
000010 36 6f 43 3b 01 ae 33 3c 3f 6d eb 3b 86 6e b6 3a
       0.0029820926 0.010966779 0.007184654 0.0013918437
000020 d6 58 1d 3a 90 04 1d bc be c1 e8 39 83 5a 44 bb
       0.00060023123 -0.009583607 0.00044394837 -0.0029961176
000030 ef e3 e6 ba aa 81 26 bb d2 f1 ac 3a 02 00 ea 39
       -0.0017615537 -0.0025406876 0.0013194627 0.00044631964
000040 30 75 98 3b 14 da 18 ba 48 b1 0a 3c 08 49 6f bb
       0.0046526417 -0.0005830836 0.008465119 -0.0036512036
000050 bb 45 7b 3a 55 c4 00 ba 31 8a 4c 3b 4d af 21 3c
       0.0009585281 -0.0004912068 0.0031210298 0.009868455
000060 c2 c5 16 3c a1 0a 4a 39 4a 9a 64 ba 88 0d 60 39
       0.009202423 0.00019268181 -0.00087205006 0.00021367345
000070 d3 a2 e7 bb 8b 38 d4 ba 7e 8b 72 ba 42 02 1c 3a
       -0.0070689707 -0.0016191168 -0.00092523533 0.0005951264
000080 3b d4 46 3b ef 45 22 3c 71 a3 92 bb ea e1 72 3c
       0.0030338902 0.009904369 -0.00447505 0.01482437
000090 c7 83 6a 3c 7d ac 99 3b 1b 17 8a 3b 1c e2 40 bb
       0.014313645 0.0046897517 0.00421418 -0.0029431647
0000a0 d4 9a 78 3c 48 25 fb 3a 16 e7 a7 bb 98 4a 9b 3b
       0.015173633 0.0019160891 -0.005123983 0.004739117
0000b0 10 a7 08 3b 19 6c 65 3b 4a 1d f7 bb 57 1f 05 bb
       0.002085153 0.0035007058 -0.0075413333 -0.002031287
0000c0 f2 ab 57 3b 7f 8d e2 3b b9 ab e9 bb d2 5f c3 3b
       0.0032908884 0.0069138403 -0.0071310666 0.0059623504
0000d0 ba fb 0b 3c 92 73 b5 3b 31 9c 86 3b d7 ad 9c ba
       0.008543903 0.0055374587 0.004107975 -0.0011953664
0000e0 22 18 e4 39 5d fc 2e 3c 0c 0d 08 bc fc 8a 0e 3c
       0.0004350553 0.010680285 -0.008303892 0.008700129
0000f0 f6 d5 d9 3b d9 b5 71 3c 4f eb 9c 3b 67 fb e5 3b
       0.0066478206 0.0147528285 0.004788793 0.007018495
000100 2c 28 16 3c c9 81 cb bb 26 73 cd bb 3a 06 03 3c
       0.009164851 -0.00621054 -0.0062698303 0.00799709
000110 c5 a7 22 3c 56 f5 fc 3b d6 16 d2 3b 2b 41 1a ba
       0.009927695 0.007719676 0.0064114137 -0.00058843446
000120 c0 25 89 ba e4 1c 89 3c 02 6e 11 ba d1 d5 1b bc
       -0.0010463521 0.016737409 -0.00055477035 -0.009511427
000130 24 37 d2 3a fc 0a 5a 3b f6 ab 20 3b c8 39 0c bb
       0.0016038162 0.0033270707 0.002451656 -0.0021396745
000140 b8 a9 28 bb 40 9c 19 bc c6 6f 06 bc 2a fd 0e 3b
       -0.0025735926 -0.009375632 -0.00820536 0.0021818378
000150 7d a7 ab ba 10 9e e4 bb af 8c c0 3a dd 0b 07 3c
       -0.001309618 -0.0069768503 0.0014690364 0.0082425745
000160 b7 3a 2e 3c 9d e4 74 bb 43 c9 e0 3b 7c fd a2 3b
       0.010634116 -0.003736771 0.0068599298 0.0049740653
000170 64 5a 12 3b ae 10 11 3b 6f 2d 03 bc a0 f7 2d 3c
       0.002233171 0.0022135186 -0.008006438 0.01061812
000180 34 f5 b5 3a eb d5 82 3a f4 73 27 3c 53 7c 88 bb
       0.001388228 0.0009981965 0.0102205165 -0.004165211
000190 37 27 09 3c 83 ad 02 3a 98 8c 07 bb 06 5e 09 bb
       0.008371166 0.00049849617 -0.0020683166 -0.0020960583
0001a0 34 b0 f5 3b 1e 6e 35 3c bc f3 aa 3b b5 d2 0b ba
       0.0074978117 0.011073617 0.0052170437 -0.0005333827
0001b0 e8 84 58 3c d0 5c 6a 3c c7 57 3e 3b b5 4c f1 3b
       0.013215281 0.014304355 0.0029044019 0.0073638805
0001c0 ee d5 43 3b b6 43 2a 3c bf a8 78 3b ce 8a e5 3b
       0.002988215 0.01039212 0.0037942377 0.007005072
0001d0 9d e6 30 3c 83 8e c2 bb 91 22 24 bb 9b 2e 1c 3c
       0.01079717 -0.005937399 -0.0025045017 0.009532596
0001e0 5c 66 de ba f2 94 9d bb b1 cc 5b 3b 49 3c 66 39
       -0.0016967761 -0.0048090154 0.0033538754 0.00021956967
0001f0 d4 c3 90 3a 45 93 90 b9 0e d5 84 3c e4 b1 e6 b8
       0.001104469 -0.00027575545 0.016214874 -0.00011000389

network_body._body_endoder.seq_layers.2.weight f4 [128, 128]
000000 14 c3 9f bd 7b 13 ff bd 6f 88 71 b9 a6 8c 7d bc
       -0.0780088 -0.124548875 -0.00023034376 -0.015475428
000010 09 d8 db bd 7a 6c 98 3e de c1 81 bd 0b 82 56 bc
       -0.10734565 0.2977026 -0.06335805 -0.013092528
000020 ce 91 08 3e 85 b9 49 bc 48 10 03 be 14 86 2a be
       0.1333687 -0.012312298 -0.1279918 -0.16652709
000030 19 a8 7a 3d 22 e0 50 bd 24 b9 c8 bb ff c7 af 3d
       0.061195467 -0.050995 -0.006125586 0.08583068
000040 c4 50 d5 3d e7 71 4c bb f5 5e 50 bd 57 48 bd 3d
       0.104157954 -0.003119582 -0.050871808 0.09242313
000050 a8 b3 9f bd b9 b1 b2 3d d0 6b 98 3d ff 81 86 3c
       -0.077979386 0.08725304 0.074424386 0.016419409
000060 12 5e 00 be 2e d4 26 bc 6b 92 4e bd 2c ac d8 bd
       -0.12535885 -0.0101824235 -0.050432604 -0.10579714
000070 96 64 aa bd 06 08 6c 3e e5 73 b0 3c 0a 3e a0 bd
       -0.083199665 0.23049936 0.021539638 -0.07824333
000080 33 54 a7 bd 4c 58 6c 3d e6 7a b3 3d f9 3f cd bd
       -0.081703566 0.057701394 0.087636754 -0.100219674
000090 ec df c1 bb a3 81 30 be d8 4f af bc 21 08 d4 bd
       -0.005916586 -0.17236952 -0.021400377 -0.10353113
0000a0 3f de d9 bd d4 cc 11 3d e8 76 c0 bc 8b 55 51 3e
       -0.10638093 0.03559573 -0.023494199 0.20442788
0000b0 ba 2a 2e 3c 91 d0 a7 bb 50 60 3c 3d 04 50 80 3b
       0.010630304 -0.0051212986 0.04599029 0.0039157886
0000c0 75 e2 3a bc 13 6f 03 3d be 7f 9c bc 52 6d eb bd
       -0.011406531 0.03208835 -0.019103881 -0.114954606
0000d0 c2 5a 31 3c 3e b6 65 3d 0d a3 a4 3d 65 ea 07 3d
       0.010824861 0.056082003 0.08038912 0.03318252
0000e0 b7 78 6e 3e f0 ec 3a 3c 5c d7 1e 3d ea e7 14 be
       0.23288237 0.011409029 0.0387796 -0.14541593
0000f0 08 30 9e bd 64 5b d6 bc 76 72 32 3c 38 d7 21 3d
       -0.07724005 -0.026166625 0.010891547 0.03951189
000100 b4 8d 87 bd 4d 51 7b 3d 4d 06 0d 3e fc 8c 19 bd
       -0.066188246 0.06135683 0.13771935 -0.03748797
000110 1d 6d cd bd 00 ff a8 3c 2b b4 06 bd fb 5b 10 bc
       -0.10030577 0.020629406 -0.032886665 -0.008810992
000120 2c 05 b1 3d 5d 85 ac bd 05 5b ed bd 4a da 9e 3d
       0.086435646 -0.084238745 -0.11589626 0.07756479
000130 0e c4 e4 bd e5 81 69 3c ea 11 2a bd ea e8 db bb
       -0.11170207 0.014252161 -0.04152099 -0.006711115
000140 ab 6e 36 3e bb 58 a9 3c 7f 81 11 be 27 f9 d8 bc
       0.17815654 0.020672193 -0.14209555 -0.026485993
000150 d2 35 53 bd 79 30 21 be a2 7f 98 3d 41 ce f7 3d
       -0.051565 -0.15741147 0.07446219 0.12099887
000160 4a 05 4e bd 60 ec 13 be 00 9a 17 bd 22 d3 45 bb
       -0.050298013 -0.14445639 -0.0370121 -0.003018566
000170 88 48 de bd 9e 24 1e 3d 37 ce 51 bd ed 78 1e be
       -0.10853678 0.03860914 -0.051222052 -0.15475817
000180 59 ac 91 bd 90 64 e0 3c 57 fb 0c 3d 80 16 53 3e
       -0.07112951 0.027391702 0.034419384 0.20614052
000190 96 88 d0 3d 97 1c 22 3e 03 9a 0b be aa ee e1 3d
       0.10182302 0.15831219 -0.1363297 0.1103185
0001a0 a9 63 b5 bd 6f 53 16 3d 0a a9 e5 3c 31 13 b3 bd
       -0.08856899 0.036700662 0.028034706 -0.08743895
0001b0 35 0a 26 be b9 cf 0d 3e 53 13 f6 3d 01 d0 98 3d
       -0.16214831 0.13848771 0.120154046 0.074615486
0001c0 1a 32 74 3d 80 ad 31 bd 5f 38 1f bd 6d 09 85 bd
       0.059618093 -0.043378353 -0.03887212 -0.064959385
0001d0 f2 fe 83 3d 04 6b 88 3d d6 2a 37 3b 6d 87 ed bc
       0.06445111 0.066610366 0.0027949116 -0.02899524
0001e0 ca 8e c9 bd 53 98 7e 3d 0b e4 28 3d f5 95 dd bd
       -0.09841688 0.062156986 0.041233104 -0.10819618
0001f0 93 6b 60 bd 07 11 bf 3a f0 54 a3 3d d3 2d 49 3a
       -0.05479009 0.0014577218 0.07975185 0.000767437
000200 11 4e 59 3c 9c 73 24 be 24 b1 4e 3b 4d 38 89 3d
       0.013263241 -0.16059726 0.003153869 0.06700192
000210 7b 4d 95 bd 56 ac c5 bd 9c e4 4d 3c 40 e6 3e 3e
       -0.07290169 -0.09652011 0.012566712 0.18642521
000220 e2 22 14 be 23 a7 96 3d c2 5c 0b bd a1 a7 7f bd
       -0.14466432 0.073560975 -0.034024008 -0.062415723
000230 e5 6d 43 3e 14 81 0d bd 0e af 9c 3c dc 6c 02 3e
       0.1908489 -0.034546927 0.019126441 0.12736839
000240 25 4a eb bc f4 d6 71 3c 81 2f a0 3d 45 d9 0c bc
       -0.028721878 0.0147607215 0.07821561 -0.008596723
000250 2d 8b ee bc d2 ed 60 3d 1b 87 fb 3d 1e d9 55 3d
       -0.029119099 0.054914303 0.12281629 0.052209012
000260 63 29 05 3e 78 52 dc bc b9 d1 e0 bc 8f 60 f8 3d
       0.13004069 -0.026894793 -0.027443754 0.12127792
000270 bc 54 44 3c b7 7c 6f 3d 9a 6e 83 bd c2 4e 95 3d
       0.011983093 0.058468547 -0.0641758 0.072904125
000280 8d d0 91 bd 71 bf 15 3e bc 7e 5b 3d 55 c5 02 bd
       -0.07119856 0.1462381 0.05358766 -0.03192647
000290 f1 83 b5 3d cf dc 0a 3c 8e b5 3c bc 7e 28 42 bd
       0.088630565 0.008475496 -0.011517895 -0.047401898
0002a0 dd 2f 77 bd 51 bb 84 bb e4 2e f0 3d 10 da c3 bd
       -0.06034838 -0.00405065 0.11727694 -0.095630765
0002b0 02 fb 4a bd 1e ee c6 bd 31 af d3 3d d7 f6 63 3e
       -0.049555786 -0.09713386 0.103361495 0.2226213
0002c0 a5 15 2f be b4 b4 46 bd 23 46 0e 3b 0f 02 be bc
       -0.170981 -0.048512176 0.0021709285 -0.023194341
0002d0 3f b5 11 bd 11 10 80 3c 61 13 d6 3d f8 07 ff bc
       -0.03557324 0.015632661 0.10452915 -0.03113173
0002e0 fe e6 2c be 32 f4 43 3e 68 3b c7 3d 11 82 10 be
       -0.16884992 0.19136122 0.09728128 -0.14112116
0002f0 34 33 18 be 1a 01 e4 bc a2 33 90 bd f1 90 d6 bd
       -0.14863282 -0.027832557 -0.07041098 -0.10476864
000300 d4 97 c5 3d 0d d4 90 bc de df 28 3d eb 0c 08 3e
       0.096480995 -0.017679239 0.04122912 0.13286178
000310 17 8d b6 3d 13 f8 dd 3d 92 e3 90 3d 97 7a 5a bd
       0.089136295 0.10838332 0.070746556 -0.053339567
000320 0a d8 c5 bc 50 a0 50 3d 66 d0 65 3d fd 9f b0 bd
       -0.024150867 0.050934136 0.056106947 -0.08624265
000330 90 ce cf 3d 04 0a 2f bd 66 0c 07 3e 57 25 1a bd
       0.101468205 -0.04273416 0.13188323 -0.037633266
000340 3a b7 4a bd 82 71 02 be d0 4c 00 3d 08 24 b8 bd
       -0.049491145 -0.12738612 0.031323254 -0.089912474
000350 5f d2 01 bd 87 96 eb 3c 21 02 a6 bd 97 0a fe bd
       -0.031694766 0.0287583 -0.08105875 -0.124043636
000360 11 0f 2d 3e d3 c5 c1 3c 0e 72 a5 3d 42 e5 99 3d
       0.16900279 0.0236539 0.08078395 0.075144306
000370 74 11 3e 3c 0b df 12 bd 53 5e 86 bd 3c f7 66 bd
       0.011600841 -0.03585724 -0.0656096 -0.056388125
000380 07 62 40 3d 8d eb 0b bd 65 f3 78 3d 45 52 66 3d
       0.046968486 -0.034160186 0.060778994 0.056230802
000390 d6 ff 5a 3c 6a 36 95 3d 7d a0 71 bc 84 6f 83 3d
       0.01336666 0.07285769 -0.014747736 0.06417754
0003a0 fa 8c f2 bd d9 83 8a 3d 28 02 56 3c 91 f8 50 3d
       -0.118432954 0.06763429 0.0130620375 0.0510183
0003b0 95 00 50 3d c3 09 5c 3d c1 41 11 be 7d 08 95 bc
       0.050781805 0.053720247 -0.1418524 -0.018192524
0003c0 22 e6 bd bc 56 64 a1 3d 23 6d 55 bd 50 77 f5 bc
       -0.023181025 0.07880466 -0.052106034 -0.02996412
0003d0 92 13 19 3a 6a 05 91 bd 95 81 fd 3b 78 e3 f9 bc
       0.0005839403 -0.07081111 0.0077363946 -0.030503973
0003e0 62 03 02 3e e5 8d 8c bd 96 52 2a 3e 8a 17 3c bd
       0.12696603 -0.06863002 0.16633067 -0.045920886
0003f0 b5 ec f3 3c 46 63 3a 3e a2 63 a8 3b 51 24 6c be
       0.029775957 0.18201932 0.0051388303 -0.23060729

network_body._body_endoder.seq_layers.2.bias f4 [128]
000000 6a 74 41 3b 93 be 81 bb 2d 37 34 3b 78 98 1c bb
       0.002951885 -0.003959486 0.0027498708 -0.002389459
000010 68 dd 2d bb 37 8b 3a bb 8f d5 14 3c 9b 3d 29 3c
       -0.0026529673 -0.0028464326 0.009084119 0.010329629
000020 c0 16 f7 3b 3e ef 09 bb 1c 37 0b bc 49 44 45 ba
       0.007540554 -0.002104714 -0.008497026 -0.0007525129
000030 8d 8d 3d 3b 52 82 58 3b a7 94 bc 3b cc 58 59 3b
       0.0028923482 0.0033036661 0.0057550254 0.00331645
000040 8c da 3e bb 45 b2 50 3c af 9a 0b 3c 26 15 12 bb
       -0.0029121963 0.012737815 0.008520766 -0.0022290437
000050 70 ae b6 3b 8e 00 b1 3a 4e 1c 08 3b 13 90 f5 3a
       0.005574994 0.0013504194 0.0020768824 0.0018734954
000060 a9 90 88 3b f3 8c 31 bc 46 8b ab 3b 91 57 d3 ba
       0.0041676355 -0.010836828 0.0052351085 -0.0016124119
000070 ec a3 18 3c c3 d3 8b 3b 53 ad 0a bb 14 cb 8a ba
       0.009316426 0.0042671873 -0.0021160438 -0.0010589086
000080 7f 28 9c 3b bf 44 a8 ba 0c 35 73 3b 64 80 ed bb
       0.0047655697 -0.0012837871 0.0037110476 -0.0072479714
000090 5c d2 59 3c 27 3b 88 3c 4f 64 19 3c 21 0c 9e 3b
       0.0132947825 0.016629769 0.009362294 0.004823223
0000a0 e1 a6 27 bc 5f bc 63 ba 24 4c 18 3b 27 27 42 3c
       -0.010232658 -0.0008687432 0.0023238743 0.011850155
0000b0 ad fd b4 3b aa e2 97 ba c2 4e 6f 3b 90 98 18 3c
       0.0055234046 -0.0011587937 0.003651545 0.0093137175
0000c0 b4 12 1b 3b 75 94 06 3c c3 04 6d bb 3e 2f af 3a
       0.002366227 0.008214106 -0.0036166168 0.001336552
0000d0 79 18 f4 3b ca 82 c8 3b 2f 48 03 bc 35 c9 be bb
       0.0074492064 0.006119107 -0.008012815 -0.0058223256
0000e0 73 bb dc 3b 64 e9 16 3a 7c 68 45 3c 97 a6 d0 3b
       0.006736213 0.0005756824 0.012048837 0.0063675153
0000f0 26 ea 83 3b 92 fa 53 3c 84 e6 15 3a 82 e1 7a 39
       0.0040257154 0.012938159 0.00057182484 0.00023925866
000100 33 73 df ba 96 91 7e 3b 72 9a 63 3c 25 8f 9f 3b
       -0.0017047882 0.00388441 0.013891803 0.004869359
000110 92 e4 6d bb ff d0 93 bb 80 3c a1 3b ea 0c 26 3c
       -0.0036299569 -0.0045109983 0.0049205422 0.010134915
000120 54 62 87 39 04 49 98 3b 86 eb 59 3c 90 65 ad 3b
       0.00025822467 0.004647376 0.013300782 0.005291648
000130 bb 1c 71 3b 4a 3c 62 3c 08 68 b3 bb 5f 8b d0 3b
       0.0036790806 0.013808319 -0.005475048 0.0063642706
000140 c1 fd a3 3a a9 4b 36 3b 94 70 f7 3b 2d a4 91 3b
       0.0012511538 0.0027816093 0.007551262 0.00444462
000150 0d d3 bf 3b 64 14 f9 39 62 6e ad bb f2 22 66 bc
       0.0058540166 0.00047508173 -0.0052926997 -0.014046418
000160 8a b7 ac 3a 85 db 4f 39 74 d2 46 3a 56 bf e1 3b
       0.0013177257 0.00019822836 0.00075844605 0.006889264
000170 21 26 3d 3c 21 a4 31 ba cd a6 09 3b 10 49 1e 3c
       0.011544735 -0.0006776471 0.0021003962 0.009660974
000180 a8 22 5e bb 6a e7 a6 bb 6f a5 09 3c a2 11 60 bb
       -0.0033895168 -0.0050935047 0.008401259 -0.0034190197
000190 9d 8e 9f 3b 90 a7 5a b9 e6 c4 c6 3b 48 b7 92 3c
       0.0048692957 -0.00020852522 0.0060659526 0.017909661
0001a0 a1 67 4f 3c b4 11 c3 b9 bd 33 ef b8 b9 15 2a 3c
       0.012658984 -0.00037206488 -0.00011406045 0.010381156
0001b0 14 26 d3 3b 48 23 31 3c 01 c2 18 3c 89 01 86 bb
       0.0064437483 0.010811634 0.009323598 -0.0040895385
0001c0 09 db 0a 3a 98 57 52 bb 82 11 41 3b fe ff 0b 3c
       0.0005296921 -0.0032095667 0.0029459898 0.00854492
0001d0 10 18 0f 3c a7 75 ee ba 7c e1 46 3b 0f 22 40 bb
       0.008733764 -0.0018193022 0.0030346802 -0.0029317176
0001e0 74 a6 1b 3c d1 c9 f9 bb 66 f8 69 bb 20 de 31 39
       0.009500135 -0.0076229353 -0.0035701036 0.00016962783
0001f0 99 53 df 3b 76 e3 87 b9 73 06 ea bb 54 11 ad 3b
       0.0068153855 -0.00025918678 -0.007141882 0.0052816067

action_model._continuous_distribution.log_sigma f4 [1, 4]
000000 d1 76 94 3e 2f 01 0d 3f 87 b9 cf 3e 9a 1d e6 3e
       0.289969 0.5507993 0.40571234 0.4494446

action_model._continuous_distribution.mu.weight f4 [4, 128]
000000 5d 2c b0 bc 6d a4 fb 3d fc 80 f4 3d 9c c2 fb 3d
       -0.021505529 0.12287221 0.11938664 0.12292978
000010 95 ae ce 3c 82 f5 2c be f4 b8 10 3e 9d fc eb bc
       0.025229732 -0.16890529 0.14133054 -0.028806979
000020 a6 c7 b9 bd 93 ba 0e 3e 32 15 e1 bd 10 57 a6 bc
       -0.09071283 0.1393836 -0.10990371 -0.020305187
000030 cb 16 0f 3e a4 be 54 3d de c9 a8 3d 88 b1 d9 bd
       0.13973539 0.05193962 0.08241628 -0.106295645
000040 2e 85 a4 bd 49 f7 15 3e 8a bb 3f 3d 3f 95 ea 3d
       -0.080332145 0.14645113 0.04680971 0.11454248
000050 fd 6f bb bc 46 e0 78 bd 39 40 2a bd 6e fb 1b be
       -0.022880549 -0.06076076 -0.041565154 -0.15232632
000060 8f 8b 26 3e f0 a3 19 be c9 5c a0 bd b5 9a 4b bd
       0.16264175 -0.15003943 -0.07830197 -0.049708087
000070 cb fa 47 be da b4 f5 3d 0b 44 0d 3e 8c 46 39 3e
       -0.19529264 0.11997385 0.13795488 0.18093318
000080 89 0b 81 bd 1c 92 9e bb 6e 04 d8 3d d5 f1 d5 bd
       -0.06301028 -0.004839195 0.1054772 -0.104465164
000090 e8 02 c8 bc c5 f5 d7 3d 77 cd c0 ba a4 de 0b 3d
       -0.024415448 0.10544924 -0.0014709671 0.034147874
0000a0 78 78 97 bd 9e b5 ad bb 55 ab 15 be 20 8d e4 bd
       -0.073960245 -0.0053011915 -0.14616139 -0.1115973
0000b0 a3 2d 7d 3d 6d 71 aa bd 7f f0 c8 bc 9a c0 ae 3d
       0.0618111 -0.083224155 -0.02452874 0.085328296
0000c0 55 52 0a 3e 51 40 f9 bc a2 3d 16 3e 10 67 6e 3d
       0.1350797 -0.030426176 0.14671949 0.058203757
0000d0 06 e7 c5 3d f6 90 d3 3d 93 3d 6d 3d a1 2b fa bd
       0.09663205 0.103303835 0.05792005 -0.12215353
0000e0 c8 8a ae bc 88 d9 32 3e 75 69 13 3c 3e 73 7f 3d
       -0.02130641 0.17465794 0.008997311 0.062365763
0000f0 53 e2 1b be 24 c9 2e 3d 52 36 3f be 9d ee 18 be
       -0.15223055 0.04267229 -0.18673065 -0.14934774
000100 6f 0b b3 bd a1 fa 9a 3d 47 99 2e bd 58 12 fa 3d
       -0.08742415 0.07567335 -0.042626645 0.1221053
000110 fb 2e 0d be c5 b1 da 3d e1 62 c3 3d f1 11 7f 3d
       -0.13787453 0.10678438 0.09540344 0.06227297
000120 4a 8b fb bd 55 87 85 bd 5e 13 b3 3d db 7d 3c 3e
       -0.12282427 -0.06519953 0.087439284 0.18407385
000130 c0 12 04 be 16 ce 19 be 93 b9 94 3c 07 cf 10 be
       -0.12897778 -0.15020022 0.018154895 -0.14141475
000140 29 24 97 3d 81 fd 11 3e 94 de 8f bd 4f 7c 47 bc
       0.07379944 0.1425686 -0.07024875 -0.012175634
000150 91 5b c7 bd 61 26 18 3e 98 a5 70 bd ec e2 88 bd
       -0.09734262 0.1485839 -0.058751673 -0.06683907
000160 06 80 d7 3d 77 61 99 bc 03 21 15 be 46 64 2c 3e
       0.105224654 -0.018723233 -0.14563374 0.16835126
000170 41 c9 fd bd a8 c0 19 3e 73 68 ad bd 6c 05 96 3c
       -0.12391902 0.15014899 -0.08467188 0.018313132
000180 7a db f0 3a 48 00 ba 3d e7 2c 3f be e6 1b 08 be
       0.0018375956 0.09082085 -0.18669473 -0.13291892
000190 f5 e3 a7 3d 30 bb 60 bd 97 a6 ef 3d ce d4 e8 bd
       0.08197776 -0.054866016 0.11701696 -0.11368714
0001a0 ea fb 00 3d 82 49 1b be d2 0e f3 3d e8 3e a1 bd
       0.031490244 -0.1516476 0.11868061 -0.078733265
0001b0 72 e9 09 be 56 1f 94 3d 8f 42 1e be 34 21 f0 3c
       -0.13467959 0.07232539 -0.15455078 0.029312707
0001c0 d3 4d 14 3e d6 c3 c8 bd 86 50 f0 bd 3e 3b 20 3e
       0.14482813 -0.09802978 -0.117341086 0.15647599
0001d0 05 94 0d 3e 64 07 33 3d 38 40 53 3d 2b e2 1d 3e
       0.13825996 0.04370822 0.051574916 0.15418307
0001e0 76 bb e7 3d f1 47 0e be ab ab 9a 3d 0d d1 29 3e
       0.11315052 -0.13894631 0.07552274 0.16583653
0001f0 f7 aa c0 3c a7 40 d4 3d 61 69 79 3d dc 9a 22 3e
       0.023519022 0.10363894 0.060891513 0.15879387
000200 a6 13 0e 3d 77 58 b1 3c d2 46 12 3e aa e7 40 bd
       0.034686707 0.021648629 0.14284828 -0.047095932
000210 ad b2 66 bd df af 39 bd ce e3 60 3c f1 58 b2 bd
       -0.056322742 -0.04533374 0.013726188 -0.087083705
000220 d0 29 0c bd 1f b7 a8 bc 30 fe 8e bd f1 c8 d8 3b
       -0.034219563 -0.020595131 -0.06982076 0.006615751
000230 67 6b d7 3c 42 fa 5a 3d 94 80 d1 bc eb 31 bd bd
       0.02629633 0.05346132 -0.025574006 -0.09238037
000240 f7 05 a4 3d ca c9 c8 bc 1b 35 73 bc 03 67 9c 3d
       0.0800895 -0.024510283 -0.014844204 0.076368354
000250 1c 58 10 bd 52 05 2e bd a8 0c 9c bd 0e f2 29 3d
       -0.035240278 -0.042485543 -0.076196015 0.041490607
000260 9d 85 a2 bb f6 45 99 bb f4 a2 ab 3d b3 7d 60 3c
       -0.0049597756 -0.0046775294 0.0838069 0.013701844
000270 08 02 79 3d 96 57 ea 3d 1f eb 37 bd a3 d0 fd bd
       0.060792953 0.11442487 -0.044901963 -0.1239331
000280 88 ce 93 bd 24 5c 94 bd 58 3e 00 bc 9a ec 2c bd
       -0.07217127 -0.07244137 -0.007827364 -0.04221783
000290 a8 cf 21 be b7 65 0a 3d 21 3e 93 bd 86 45 7d bd
       -0.15801871 0.03378841 -0.071895845 -0.06183388
0002a0 36 92 9c bd b0 aa 2c bd b3 f6 e7 3d d6 fa e3 bd
       -0.07645075 -0.042154968 0.11326351 -0.111318275
0002b0 27 0a 33 3d 0d a1 ae bc 61 65 b6 bc bc 0a 88 3b
       0.043710854 -0.02131703 -0.022265138 0.0041516703
0002c0 7c bd 36 3c 3d 95 8c bd 77 85 6e bd 80 63 ed bc
       0.011153575 -0.068644024 -0.05823275 -0.02897811
0002d0 25 52 1d 3e 34 5f 5b 3e ed ef af 3d c8 4a 1c 3c
       0.15363367 0.21423036 0.08590684 0.009539314
0002e0 03 c8 bd bd a0 f7 84 3d a5 fc 76 bd c9 a9 fe 3b
       -0.09266665 0.06492543 -0.060299534 0.007771705
0002f0 d3 a3 82 ba 58 60 00 bd aa f4 a4 bd 15 bc 88 3c
       -0.0009967036 -0.03134188 -0.080544785 0.016691247
000300 ef da 1b bd 47 1a 58 bc 92 2d 33 bb 4c 66 39 be
       -0.03805059 -0.013189859 -0.0027340394 -0.1810543
000310 1e b9 f2 bc 6e d8 be 3b ae f6 c4 3d bd 34 90 3c
       -0.029629286 0.0058241403 0.09617363 0.017603273
000320 f3 2e ea 3c 68 7d a8 bd 4d 21 89 bd 4d 84 b4 bd
       0.02858684 -0.08227044 -0.06695805 -0.08814297
000330 f1 2a 36 3d 48 8b 4e be f5 a9 91 3c 39 1d 3a bd
       0.044474546 -0.20170319 0.017781237 -0.045438025
000340 9c a9 85 bb ae 57 d2 3d 01 4a ec 3b 7c 69 cf 3c
       -0.004079057 0.1027063 0.0072109704 0.025318854
000350 da e3 3b 3c 52 e7 c2 3c 2a f3 8f 3c 80 89 c6 bd
       0.011467898 0.023791943 0.017572004 -0.09694195
000360 f6 ba 9f 3b 25 41 85 3d 62 cc bb 3d 56 ef 1e bb
       0.0048745824 0.06506566 0.09169842 -0.0024251542
000370 1b 24 de bc 50 f6 0d 3d e1 11 c2 bd b3 fc a9 bb
       -0.027116826 0.03465873 -0.094760664 -0.005187595
000380 0e 40 38 bc 6c ba 73 3c 42 9c 48 bd c4 67 f1 3d
       -0.011245741 0.014875989 -0.048977144 0.1178737
000390 7a c8 67 3d 2a 2d be 3b db 92 44 3d 36 9e c6 3d
       0.056587674 0.005803724 0.047991615 0.09698145
0003a0 75 87 cb bc 64 b4 e2 bc 93 d3 62 3d a9 83 32 bd
       -0.024844864 -0.027673908 0.055377554 -0.043582592
0003b0 76 e1 ab 3a 37 b5 6d bd 04 45 c7 bd fd 95 04 3e
       0.0013113457 -0.058034148 -0.097299606 0.12947841
0003c0 ab 16 1f 3d ca 5c 74 bd 92 b0 33 3e de 03 c5 3d
       0.038839977 -0.059658803 0.17547825 0.09619878
0003d0 29 0e 0a 3d a6 30 08 3e 5e 3f d5 3d 7a 8c 7f 3d
       0.03370491 0.13299808 0.10412477 0.06238983
0003e0 8c 7b 94 bd 18 99 46 bc 8d cd 7a 3d 15 5f 4a 3d
       -0.07250127 -0.012121461 0.061231185 0.049407084
0003f0 c4 9f 8a 3d d8 94 95 3d 8c 54 80 bd 08 25 fb bb
       0.06768754 0.0730378 -0.06266126 -0.0076643266

action_model._continuous_distribution.mu.bias f4 [4]
000000 8a ff ae 3d 39 20 2a bb c8 40 05 bb 8a 08 11 3d
       0.08544834 -0.0025959148 -0.0020332802 0.035408534

onnx::LSTM_104 f4 [1, 512, 128]
000000 f1 21 08 be de 35 19 3e 57 c3 cf bd 99 42 3b bd
       -0.13294198 0.14961955 -0.1014468 -0.04571781
000010 42 d7 fc bb c2 2d e5 3d 91 fa f9 bd 93 1f ec 3d
       -0.0077160904 0.11190368 -0.12205995 0.1152946
000020 ba 7e ea bd 1b 3f 9a bd ac 60 ca bd 0c 20 41 bd
       -0.114499524 -0.07531568 -0.0988172 -0.047149703
000030 7a c8 2b 3b 84 e7 7b 3d 3a a1 e1 bd b9 ad 25 3d
       0.0026212023 0.061500087 -0.1101708 0.040448878
000040 fb c2 61 3d 3e aa 62 bc 4b 72 f4 bd 6a c7 0f be
       0.05511759 -0.013834534 -0.11935862 -0.14040914
000050 88 2f 23 3d 93 34 08 3d ed ec 09 be 68 fd ec 3d
       0.03984025 0.033253264 -0.13469286 0.11571771
000060 ae 17 ab bb 53 b4 03 be a7 3b 84 3c ef 43 ec 3d
       -0.0052213287 -0.12861757 0.016141726 0.11536395
000070 a7 7e c9 3d 77 a0 f5 3d d9 23 bf 3d ef d6 ee bd
       0.0983861 0.11993497 0.09333009 -0.11662089
000080 c9 ad b6 3d 5d c8 12 3e 98 f3 d4 3d ff c0 18 3b
       0.08919866 0.14334245 0.10398024 0.0023308394
000090 84 2b 97 3d a5 cb c1 3d b6 84 55 bd 09 6f 7b 3c
       0.07381347 0.0946267 -0.052128516 0.015346297
0000a0 9b 90 e9 3d 95 f8 06 3e ae f1 c2 3d fd 36 d5 bd
       0.114045344 0.13180764 0.09518753 -0.10410879
0000b0 00 a0 99 3b 58 9d cd 3d 6f 47 c6 bd ea 15 24 be
       0.004688263 0.100397766 -0.096815936 -0.16023985
0000c0 c8 59 93 3d 7c 89 16 3c 5f 7d 12 be f0 23 9e bc
       0.07194859 0.009188052 -0.14305638 -0.019304246
0000d0 34 7f 0e be 3f 70 9e 3d 25 ea 72 3d 96 d2 d8 3c
       -0.13915712 0.07736253 0.05930533 0.026467603
0000e0 62 53 d9 bd 29 f5 34 3d a6 77 74 3c 6c 6a 80 3d
       -0.10611607 0.044179115 0.014921105 0.06270298
0000f0 20 a1 ef 3d c3 cb 34 3d 7a ac 91 bb 21 a5 ed bd
       0.11700654 0.044139635 -0.0044456096 -0.116037615
000100 51 fe 44 3d 5b ce d8 3d 7c 5f cc bd 67 3c ea 3d
       0.048094098 0.10586234 -0.0997915 0.11437302
000110 65 4d 5f 3d ff 03 8a 3c 77 7d 6e 3d 9f a3 18 3d
       0.05451717 0.016847609 0.05822512 0.037265416
000120 9f 1d 1a bd 68 ab 0b be 94 aa 58 3d ab 71 0f be
       -0.037625905 -0.13639605 0.05289705 -0.14008205
000130 66 89 4a 3d 84 18 ec 3d e5 92 b6 bd 82 76 43 bd
       0.04944744 0.115281135 -0.08914737 -0.04772044
000140 a3 3d c3 bd 49 a2 df 3d 6a 29 ed 3d 0a 47 d1 bd
       -0.09533241 0.10919625 0.11580165 -0.10218628
000150 a3 1e 1e be 3c 40 0f be 4c c4 b8 bb 1a 62 1a be
       -0.15441374 -0.13989347 -0.005638635 -0.15076485
000160 f3 c9 16 3e ad b5 9f 3d 83 ac 19 be ed b8 e4 3d
       0.14725475 0.07798324 -0.15007214 0.11168084
000170 29 5b 84 bc d5 f9 5b bd 87 94 dd 3b d0 a7 a7 3d
       -0.01615675 -0.053705055 0.0067620906 0.081863046
000180 12 3c 8f bd bf dd da 3c ce 5c 22 3d ba 8d e0 bd
       -0.069938794 0.026717065 0.039639287 -0.10964532
000190 88 c9 37 bb b6 0e 0b be fb 18 b9 3d 94 16 6b bc
       -0.0028043706 -0.1357983 0.09037968 -0.014348645
0001a0 f6 55 86 bd d3 3e f8 bb ff 64 aa 3d ee 1f d1 bd
       -0.065593645 -0.0075758486 0.08320045 -0.10211168
0001b0 83 88 07 be ec 0d 0a be f2 d0 61 bd 7f 1f 50 bd
       -0.13235669 -0.13481873 -0.055130906 -0.050811287
0001c0 20 3b 16 3e 06 6f f7 bb 0f fa c6 3d 85 df 16 be
       0.14670992 -0.007551077 0.09715664 -0.14733703
0001d0 7d 66 ec 3c 1c 17 bf bc 9f a7 48 3d 0b a8 ae bd
       0.028857464 -0.02332645 0.04898798 -0.085281454
0001e0 bc 1d ca bd e2 7c 00 3e 12 a9 05 3e 8d 48 78 bd
       -0.09868953 0.12547639 0.13052776 -0.060616065
0001f0 b9 a5 28 3c ce d8 1b be f8 7c a3 bc eb 46 0c 3d
       0.010293418 -0.15219423 -0.01995705 0.03424732
000200 7f 41 6d 3d 9b 57 2b 3e 74 0f 80 3d a3 2f c2 bd
       0.05792379 0.16732638 0.062529474 -0.09481742
000210 2a 1b 3e 3e ec 20 3f 3b 48 3b e7 3d dd 7c 37 bd
       0.1856505 0.002916391 0.11290604 -0.044796813
000220 e6 c7 94 bd d5 ff 1b be 48 db 4e 3d 57 04 a4 3d
       -0.0726469 -0.15234311 0.05050209 0.0800864
000230 ea 0f e6 bc 59 d0 2d 3e e3 c1 62 3d 9d aa d0 bd
       -0.02808376 0.1697401 0.055360686 -0.10188792
000240 92 32 e2 bc 8e b2 b7 bd 13 6c ef bd cc d4 13 be
       -0.027612004 -0.089696035 -0.116905354 -0.14436644
000250 04 53 c4 bd 3b 40 a7 3c c1 89 13 be 46 06 9b 3c
       -0.095861465 0.02041637 -0.14408018 0.01892389
000260 a4 a0 f2 3a 2e e0 47 3e 47 bb 2a bc 7b 26 0d be
       0.0018511009 0.19519112 -0.010420627 -0.1378421
000270 68 22 ab bd 9e 54 d0 3c b8 27 74 3b 7f a9 91 3d
       -0.08356172 0.025430974 0.003725512 0.07112407
000280 cd 2a 9b 39 c5 3f 1a bd ec bb f9 3d 78 63 b5 bd
       0.00029595793 -0.03765847 0.121940464 -0.08856863
000290 ea cf ed 3d 93 45 9c bd 1a bf 21 3c 2b 8c d8 3d
       0.11611922 -0.07630458 0.009872222 0.1057361
0002a0 24 a2 cf 3d 76 78 ad 3d cd a1 17 3e 25 7e cc bd
       0.10138348 0.08470242 0.14807816 -0.09984998
0002b0 60 83 70 3b a3 81 19 bc 23 91 92 3d ef 51 47 3d
       0.00366994 -0.009369287 0.07156589 0.048662122
0002c0 9f 9e cd bd 3b 9a 6a bd c4 cc b3 3d 9f 54 9a bd
       -0.1004002 -0.057275992 0.0877929 -0.075356714
0002d0 05 27 88 bd ca fc 50 3c c1 a9 ab 3d 4e 2b 2f be
       -0.066480674 0.012755582 0.08381987 -0.17106363
0002e0 02 b7 25 3e 32 c2 ff 3d 0d 5f 17 be 1f 67 33 ba
       0.16183093 0.12488212 -0.14782353 -0.00068436743
0002f0 e9 4f f1 bc 00 f9 9c 3d 67 34 f1 3d f7 29 07 3e
       -0.02945705 0.076646805 0.11777573 0.13199602
000300 f8 27 7e bd cd e3 0f 3e f9 68 3a bd 00 43 fe 3d
       -0.062049836 0.14051743 -0.045510266 0.12415123
000310 4e f1 9a 3d 54 01 19 3e dc af ea 3d 51 06 f5 3d
       0.075655565 0.14941913 0.11459324 0.119640954
000320 2d fe f4 3b 83 c2 6f bc c9 53 d4 3c 2e 4c 8b bd
       0.007476589 -0.014633778 0.025918858 -0.068016395
000330 0d bd c7 3d bb b4 91 3d 63 c4 95 3d f8 e5 f9 3d
       0.097528554 0.0711455 0.073128484 0.12202066
000340 16 30 46 bd 77 77 7c bd 56 18 09 3c b7 b1 51 3d
       -0.048385702 -0.061637368 0.008367619 0.051194873
000350 3d d5 1f 3e d0 dd d3 3d e6 25 71 bc 64 bc 04 be
       0.15608688 0.10345042 -0.014718508 -0.1296249
000360 45 0f 76 3d b2 76 cf bd ac 28 03 3e 90 0e 9d bd
       0.060073156 -0.10130061 0.12808484 -0.07668793
000370 4b 2c db bd 26 9b 1f 3d 33 85 1b be 65 cf cd 3d
       -0.107018076 0.03896632 -0.1518753 0.10049323
000380 97 13 a6 3d 2d 65 da 3c e2 f5 c1 bd f7 db b0 3c
       0.08109205 0.026659572 -0.094707265 0.021589262
000390 3f 9d aa 3d 94 f2 17 3e 29 a5 0d be 15 34 d3 3d
       0.083307736 0.1483863 -0.13832535 0.10312668
0003a0 9c e2 84 3d bd 79 4f 3d f0 db 6c 3d 39 6c 63 3d
       0.06488535 0.050653208 0.057826936 0.05552313
0003b0 18 a8 ae bd 75 66 a2 3b d2 16 52 bd 01 54 98 bd
       -0.08528155 0.0049560615 -0.051291294 -0.074378975
0003c0 2c c3 a7 3a 9e 60 90 3d af 14 3d bd 1d 3d 1a 3e
       0.0012799255 0.07049678 -0.046162304 0.15062375
0003d0 5b 46 d9 3d 78 1f 49 3b f5 7d 0e bd bb e5 de bd
       0.10609122 0.0030688923 -0.03478809 -0.10883661
0003e0 97 02 fa 3d ab e0 03 be 91 e9 00 3e 43 fa 23 bc
       0.12207525 -0.12878673 0.12589099 -0.0100083975
0003f0 fb 60 9f bd f1 02 de bd df 6a 02 3e 69 3a ad 3d
       -0.077821694 -0.10840405 0.1273608 0.084584065

onnx::LSTM_105 f4 [1, 512, 128]
000000 74 5d 2d bc af 92 85 bd a8 ca 5c 3c 13 f1 20 3e
       -0.010581363 -0.06522118 0.013476051 0.15716963
000010 78 6d 07 3e e9 ad 00 bd 29 47 b4 bd 3c fe ee bd
       0.13225353 -0.031415854 -0.08802635 -0.11669585
000020 15 52 d0 bd 2e 2a 5d 3d 08 11 6a bd 34 6f 66 bd
       -0.10171906 0.053995304 -0.05714515 -0.056258395
000030 23 59 f4 bd 4e bb ae bd 2c 55 8e 3d 10 00 07 3e
       -0.11931064 -0.08531819 0.06949839 0.13183618
000040 1e f3 be 3d 10 b8 17 3e 2f a8 ad 3d 32 f3 10 3d
       0.09323715 0.14816308 0.08479344 0.03538818
000050 26 0e c9 3d 67 a4 cf bd a0 e1 ff 39 87 32 18 3e
       0.09817152 -0.10138779 0.00048805494 0.14863025
000060 c6 12 8e 3c 40 a5 0e be 5b 36 a8 3c 44 2e fa bc
       0.017342936 -0.13930225 0.020533731 -0.03053964
000070 ed fc 1e 3d d7 17 cd bc 74 3d 1c be 20 3e 0c 3e
       0.038815428 -0.025035782 -0.15257818 0.13695574
000080 5d 15 f2 bd bf 83 fa 3a 96 a1 ff 3d b9 96 77 bd
       -0.11820481 0.001911275 0.12481992 -0.060446475
000090 4e 8d c4 3d 4c 55 34 bd 17 71 86 bd 0c 4e db 3d
       0.09597264 -0.044026658 -0.06564539 0.10708246
0000a0 1d 71 54 3d 4a e9 06 be 83 72 94 3d 95 ff 84 3d
       0.051865686 -0.1317493 0.07248404 0.06494061
0000b0 f8 6f 56 3d e5 91 82 bd ae d1 f2 bd a6 ff e6 bc
       0.052352875 -0.063754834 -0.118563995 -0.028198075
0000c0 55 f6 16 3d b2 ee 01 be f3 5d 8f bb 61 7a 7d bd
       0.036856014 -0.12688711 -0.0043752133 -0.061884288
0000d0 7b 7e 0b bd 7f 11 28 be 5b 44 ce bd 69 c1 29 3d
       -0.034056168 -0.16412924 -0.100716315 0.041444216
0000e0 82 44 df bc 23 a1 50 3b 5a 8e 3c 3d ca 3e 12 be
       -0.027254347 0.0031834326 0.046034195 -0.14281765
0000f0 59 49 38 bd e3 65 4f bd 8f de bc 3c 03 ff 05 3e
       -0.044991825 -0.050634276 0.023055343 0.1308556
000100 56 3f 8c 3c 5d 38 1b be da c4 9d bd 8b 75 4a bd
       0.017120045 -0.1515822 -0.07703562 -0.049428504
000110 ad ec a4 bc d2 a7 96 bc 39 06 c0 3d 85 98 57 bd
       -0.020132387 -0.01839057 0.09376187 -0.05263569
000120 7d 3d 04 3e 60 b4 3a bd 23 dd b7 bd f9 e5 3e 3c
       0.12914081 -0.045582175 -0.08977725 0.011651509
000130 61 6c 92 bd ab c5 86 3c 2c 59 82 3d 7c 21 95 3d
       -0.07149578 0.016451677 0.063646644 0.07281777
000140 2f fc 0b bb 61 52 ed 3d ad 1f 82 bd 9a d0 f1 bd
       -0.002136003 0.11587978 -0.06353698 -0.11807366
000150 71 c4 1b 3e 88 1d d7 bd fd c6 c0 bd b1 91 0b 3e
       0.15211655 -0.105036795 -0.09412954 0.13629796
000160 49 56 ab 3d 71 f1 59 3d b7 78 21 3d 5c 91 6a 3c
       0.08366067 0.053208772 0.039421763 0.014316883
000170 41 ae 8c 3d 40 9c 0e 3e 70 d3 04 3e d8 c3 d9 bc
       0.06869174 0.13926792 0.12971282 -0.026582643
000180 50 0d 2c bd d3 ed ac bc e8 cc f4 3c 4f f1 ff 3d
       -0.042004883 -0.021109497 0.029882863 0.12497198
000190 bb 66 b8 3d 5c f6 8d 3d bf 20 ce bd 87 4b e0 bd
       0.09003969 0.06931755 -0.100648396 -0.10951906
0001a0 2a aa 43 bd a4 8f 08 3d 93 27 71 3d c3 45 62 3d
       -0.047769703 0.03334011 0.05887563 0.05524231
0001b0 54 c0 b9 bd b9 2e 4b bd e8 f0 09 3c c1 3e 89 3d
       -0.09069887 -0.049605105 0.008419253 0.067014225
0001c0 c0 42 05 3e 8a 9f b4 3d 72 36 5f bd 8c 46 a7 3c
       0.13013744 0.08819492 -0.054495282 0.020419382
0001d0 9e c5 f7 3c e3 b7 0e bb 8f dc 0d 3e ca d5 c4 3d
       0.030245598 -0.0021777085 0.13853668 0.096110895
0001e0 ed cc b2 3d 3e 23 f6 bc 15 3c a0 bd d3 00 bc bd
       0.08730493 -0.030046102 -0.0782396 -0.09179845
0001f0 61 b1 fc bd de 2e 40 bd 48 76 50 bd af ad 58 3d
       -0.1233852 -0.046919696 -0.05089405 0.052900013
000200 76 7f 1a 3d 04 41 51 bd 8d d6 0e be d8 7a 6d bd
       0.037719212 -0.051087394 -0.13949032 -0.05797848
000210 6c 27 fb 3d 42 2b 9b bd 67 0a 38 bd b7 cf 52 3c
       0.122633785 -0.0757661 -0.044931795 0.012866906
000220 08 cd 77 3d bd 53 2e bc 58 41 ff 3d d0 8e 85 3d
       0.060498267 -0.010640082 0.12463635 0.0652138
000230 33 0d 79 3c 1b 97 b9 3d 53 62 e2 bc d3 38 5e bd
       0.015200901 0.09062024 -0.027634775 -0.05425341
000240 cf 0d b9 bd a2 4b ad bd 0c 8b 7c bd 60 2f 84 bd
       -0.09035837 -0.084616914 -0.061656043 -0.064543486
000250 2d cf d8 bd 17 8b ee bb 30 50 27 bd e5 42 8f bc
       -0.10586391 -0.0072797644 -0.040847957 -0.017487952
000260 58 b8 09 3c 7a af 08 be 24 65 23 3c c2 98 bf bd
       0.008405767 -0.13348189 0.009972844 -0.09355308
000270 68 3f 10 bd 50 a0 a4 3c 13 68 65 3d c9 ff 63 3d
       -0.03521672 0.020095974 0.056007456 0.055663858
000280 de 4b ab 3c 4c c4 ff bc dc d8 3c bd 56 4f aa 3c
       0.0209102 -0.031221531 -0.04610525 0.020789783
000290 70 0f a9 bd dd 57 fd bd 4f ea 84 3d e8 06 2a 3e
       -0.082548976 -0.12370274 0.06490003 0.16604197
0002a0 00 18 2b 3d 0d 57 f4 bd 37 1b 52 bd be ff d4 bd
       0.041770935 -0.11930666 -0.051295485 -0.104003415
0002b0 11 15 06 be 78 17 c1 bd e1 75 97 38 3e b1 9c 3d
       -0.13093974 -0.094283044 7.222198e-05 0.07650994
0002c0 4f c3 09 3c 9f 49 da bc 5e ca 0c ba 9f 66 42 3d
       0.008408382 -0.026646433 -0.0005370731 0.04746115
0002d0 be 9f 96 bd 93 47 02 be 97 67 0a be 65 64 37 bd
       -0.07354687 -0.12722616 -0.13516079 -0.044773478
0002e0 ad 14 aa bc 51 3d ad bc cd 80 d6 bb 43 2f 00 bd
       -0.020761812 -0.021147402 -0.006546116 -0.031295072
0002f0 27 d6 e0 bd 34 62 a4 bd ab 16 eb 3d 87 e6 02 3e
       -0.10978346 -0.08026543 0.11478933 0.12783252
000300 11 ac 8d 3d c3 b9 a9 3d 18 7c 05 3e 81 1d 84 3c
       0.06917585 0.08287384 0.1303562 0.01612735
000310 ae 23 e4 3a aa 17 5b bd 89 7e 57 bd 3a af 88 bd
       0.0017405653 -0.053489365 -0.052610908 -0.06674047
000320 52 a2 97 bd 19 b6 ff bd 85 ff c2 3d 03 aa 08 be
       -0.07404007 -0.12485904 0.09521393 -0.13346104
000330 bb 17 93 3d d7 4b 81 3d 31 0e 3a 3d ab 22 1a bc
       0.071822606 0.063132934 0.04542369 -0.00940768
000340 1a 74 96 bd 46 e2 1a 3d af 90 31 3d 8c 44 bc 3d
       -0.07346363 0.037813447 0.04335087 0.09192762
000350 f9 a0 61 bd 65 ad 27 3c 7a c1 4e bc 31 10 27 3d
       -0.055085156 0.010234212 -0.012619371 0.040786926
000360 76 93 28 3e 2d 6e 14 3d d8 c9 0d 3d 7b b0 18 bd
       0.16462502 0.036237884 0.03461632 -0.03727768
000370 0d 9a 06 be 1b 80 30 bd fa 14 b0 3d 8e 7f 9d 3d
       -0.13144703 -0.04309092 0.08597751 0.07690345
000380 ba 45 df 3d a1 23 5a bd bd 16 09 be 2e 44 a0 3d
       0.10901971 -0.053256635 -0.1338758 0.07825504
000390 4f dd 9f 3d 27 8f c4 3d d2 f5 02 bd 64 d5 75 bd
       0.07805883 0.09597617 -0.031972714 -0.06001796
0003a0 87 c4 a5 3d 4a fe 8d bb 5c 4d 30 3e 4e 98 03 bc
       0.08094125 -0.004333292 0.1721701 -0.008031918
0003b0 50 21 cb bb a8 c7 53 3d 27 cb dc bd 23 4a c4 bd
       -0.0061990395 0.05170408 -0.10780936 -0.09584453
0003c0 7c bc 09 3e 96 7f 5e 3d b5 79 a1 3d bb d0 67 3d
       0.13450807 0.054320894 0.07884542 0.056595545
0003d0 1c d2 2e 3e bc 5c dc bd 1f 51 d4 3d ad 53 f8 bd
       0.17072338 -0.10759875 0.10367035 -0.12125335
0003e0 ef 2b 23 3e d6 c4 d7 bd f5 1e fb 3d 81 c9 87 bd
       0.15934728 -0.1053559 0.12261764 -0.06630231
0003f0 80 aa cc bd b5 33 07 bc 15 20 84 3d cc e1 eb 3d
       -0.09993458 -0.008252074 0.06451432 0.11517677

onnx::LSTM_106 f4 [1, 1024]
000000 d5 f8 0f 3c fe 4d ad 3c d1 63 ea 3c 4d d5 8e 3b
       0.0087873535 0.021155354 0.02861205 0.0043589235
000010 4d ff a2 3c f1 e2 af 3c 4e cb 1b b9 57 32 66 3c
       0.019897128 0.021470519 -0.00014857689 0.014050088
000020 39 b2 a7 3c 64 46 2a bb f5 fe b4 3a 4c 21 3a 3c
       0.020470725 -0.0025981897 0.0013808893 0.011360478
000030 a4 8e 40 bc 3f d9 35 3c 86 0d e2 3b 45 81 8b 3c
       -0.011752758 0.011099159 0.006898585 0.017029414
000040 34 d3 cc 3b a3 2c 04 39 1f 80 04 3b e9 10 89 3a
       0.0062507633 0.0001260513 0.0020217968 0.001045731
000050 16 28 ba 3c d7 8f 92 3c 2e 60 85 3c 68 9f e0 3a
       0.022724193 0.017890854 0.016281214 0.001713735
000060 c7 0c 04 3d 85 ab 06 3d 01 c4 8b 3c 7f 8b 86 3c
       0.032238748 0.032878418 0.017061235 0.016423939
000070 11 7b 04 3d 50 0d bc 3c 52 40 8c 3c 59 af 49 3c
       0.032343928 0.022955567 0.017120514 0.012309873
000080 a3 0a c6 39 ff 7a 6a 3c d2 25 c4 3c e0 4b ca 39
       0.00037773428 0.014311551 0.023943815 0.00038584974
000090 11 04 23 3c 47 cc 39 3d ae 17 93 3b ea d6 ee 3b
       0.0099497 0.04536083 0.004488907 0.0072888033
0000a0 b4 a2 1f 3c 48 39 0e 3c 65 86 90 3c e4 70 c6 3c
       0.009743381 0.008680649 0.01764221 0.024223752
0000b0 3b 64 68 3c d1 f4 c1 3b d9 cf 89 3c c9 f5 3d 3c
       0.014184053 0.005919077 0.016822742 0.011594244
0000c0 cf 71 d2 3a 1d 9d 39 3c b2 df df 3c a9 45 73 3b
       0.0016055646 0.011328963 0.027328346 0.0037120378
0000d0 1e b1 04 3d 53 31 12 3d ae 41 ed bb c0 5f 91 3c
       0.032395475 0.03569157 -0.0072404956 0.017745852
0000e0 93 a8 05 3d 5b bb c1 3c 47 1e 30 bc 20 64 dc bb
       0.032631468 0.023648908 -0.010749406 -0.006725803
0000f0 8d 53 8b bc b2 77 54 3c 0e 8a 1a 3c 22 84 56 3c
       -0.017007614 0.012967991 0.009432329 0.013093026
000100 dd 89 d3 3c d6 30 6c bb c1 b2 33 3c 04 a1 de 3c
       0.025822574 -0.003603985 0.010967911 0.027176388
000110 7e 20 ea 3b 4e 92 88 3b 5d c0 5f 3c 0b 8b 74 3c
       0.0071449867 0.0041678315 0.013656703 0.014925729
000120 36 1c 09 3c bb da 41 3b 01 e1 9d 3c 96 7c da 3c
       0.008368542 0.0029579836 0.01927233 0.026670735
000130 dd 17 46 3b 30 9c 82 3c 3b 36 8a 3b ee db 30 bc
       0.0030226626 0.015943617 0.0042178906 -0.010794623
000140 6e d1 4c 3c 56 12 0c 3d 6a 90 d0 3b e2 bb 2a 3b
       0.012501104 0.034197174 0.0063648717 0.0026051928
000150 f8 e0 55 3c c9 84 9e 3c 14 c3 31 3a c1 7c 66 3c
       0.013054125 0.019350426 0.0006781083 0.01406783
000160 42 a1 8a 3b f1 60 01 3a eb 5a c5 ba 47 b3 90 bc
       0.004230649 0.0004935405 -0.0015057003 -0.017663611
000170 27 63 a6 3c d6 1a 4f 3c 8c 40 df bb b9 d2 4d 3b
       0.020310951 0.0126406755 -0.0068131145 0.0031406118
000180 51 62 1f 3b 43 15 1c bc 94 f6 71 3c fd 46 78 3b
       0.0024320076 -0.009526554 0.014768261 0.003788411
000190 3a c1 f2 3c 47 8e 92 3c f1 a6 e6 3b 0b 09 00 3c
       0.029633153 0.017890109 0.007038944 0.007814656
0001a0 c3 51 11 3c ab 97 c7 3c 03 4d 26 3c a4 3d a9 bc
       0.008869591 0.024364313 0.010150197 -0.020659275
0001b0 9b 02 81 bb 8f 63 c4 3b a0 4e a7 3b 0f 6b 7d 3c
       -0.003937078 0.0059933136 0.0051058084 0.015467419
0001c0 b0 a5 ef 3c 64 34 7f 3b 5e 25 f3 3c d6 1e 94 3c
       0.02925381 0.003894114 0.029680904 0.01808111
0001d0 72 dc 12 3d fc 0f 52 bb 46 03 07 3d 47 03 c6 bb
       0.035854764 -0.0032052984 0.032962106 -0.006042871
0001e0 e9 cd 8d b9 e9 99 a5 3b cb dd dd 3c 96 96 a2 ba
       -0.0002704703 0.005053748 0.027083298 -0.0012404497
0001f0 1d 01 0e 3c 6e 56 bf 3b 83 98 e5 3b ef e7 a3 3b
       0.008667258 0.0058391606 0.007006706 0.005002014
000200 cd 40 b4 bb 76 48 24 3c 61 61 19 3d 87 33 a2 3c
       -0.005500889 0.010027042 0.037446383 0.01979996
000210 de 60 8e 3c eb c8 30 3d e1 a4 fe 3c e7 41 29 3d
       0.017380174 0.04316036 0.03108448 0.041322615
000220 46 f5 f5 3c b6 b5 8c 3c 02 13 4a 3c fd 08 05 3d
       0.030024182 0.01717649 0.012333633 0.032479275
000230 e6 11 0a 3d 22 6e 95 3c ab 5c b6 39 5f 3c 12 3d
       0.033708476 0.018240992 0.00034782788 0.035702106
000240 48 15 9b 3c 4a b0 c7 3c 67 96 f8 3b 68 cd 44 3d
       0.018931046 0.024376053 0.0075862887 0.048047453
000250 a9 00 e9 3b d2 7a 93 3c 88 a7 9d 3c 6c 6e e5 3c
       0.0071106744 0.018002901 0.019244924 0.028006755
000260 6c 17 db 3c c1 b9 42 3d 12 88 48 3d e6 7c 8f 3c
       0.026744567 0.04754043 0.04895789 0.01751561
000270 26 a2 0a 3d 34 01 0f 3d 81 08 29 3d fa fc 8f 3c
       0.033846043 0.034913257 0.041267876 0.017576683
000280 01 d2 af 3c 8b 6c 39 3c 88 62 71 3d 53 e7 d8 3c
       0.021462442 0.011317383 0.058931857 0.026477491
000290 2e b0 2a 3d 72 0f fd 3c 14 9d ad ba 24 f1 d8 3b
       0.041671924 0.030891154 -0.0013245665 0.006620543
0002a0 d2 52 d9 3c 50 07 89 3c 69 df e0 3c 47 9a fa 3c
       0.02652875 0.01672712 0.02745028 0.030591143
0002b0 73 64 1c 3d 09 69 00 3d d1 48 92 3c 7d 48 d8 3c
       0.038181733 0.03135017 0.017856987 0.026401753
0002c0 86 c2 a8 bb a3 cf f4 3b c5 84 06 3d 80 04 05 3c
       -0.005150142 0.0074710413 0.032841463 0.008118749
0002d0 ff 13 03 3d 30 47 2f 3d e6 c8 bd 3c ea e0 d8 3c
       0.03200149 0.0427925 0.023167085 0.026474435
0002e0 39 54 cc 3c 87 e0 70 3d 4d 1e ce 3c cc 87 99 3b
       0.024942504 0.058807876 0.025160933 0.0046853777
0002f0 31 27 a4 3c d5 03 96 3c 63 9b ad 3c 77 1f b1 3c
       0.02003822 0.018312374 0.021192258 0.021621449
000300 f1 60 c6 3c ff 9f 25 bb e3 89 f0 3c 23 42 53 3d
       0.024216147 -0.0025272367 0.029362625 0.051576745
000310 51 4d 07 3c b2 b4 ff 3c 9e 69 1d 3d b9 dc 31 3c
       0.00825818 0.031214092 0.038430803 0.010855847
000320 c4 a0 22 3d 98 3d 1b 3d a6 5b 8b 3c 8a dd 0e 3d
       0.0397041 0.037900537 0.017011475 0.034879245
000330 ac 92 f4 3c 1f c6 19 3d 55 e6 ba ba bf 2c 41 3c
       0.029855095 0.03754246 -0.0014259318 0.011790453
000340 f9 d9 01 3d 67 68 47 3d f3 0f 21 3d 0b 46 b2 bb
       0.031702016 0.04868355 0.03932185 -0.0054404787
000350 98 89 3a 3c 55 0f aa 3c be a2 27 3d da 5e ca 3c
       0.011385344 0.020759264 0.040926687 0.024703432
000360 a1 78 dc 3c 33 2a 2b 3c 84 ce a0 3c de 1c 07 3d
       0.02691299 0.010447073 0.019629724 0.032986514
000370 86 b1 1e 3d e0 12 12 3d ac 96 ae 3c c7 f9 0f bc
       0.03874352 0.03566253 0.02131208 -0.008787579
000380 a9 55 31 3c e9 17 e1 3b 69 a6 94 3c 7d c6 8b 3c
       0.010823646 0.0068693054 0.018145757 0.01706242
000390 b1 35 14 3d f2 7e 17 bc b4 1d 05 3d 52 43 a9 3c
       0.036184017 -0.009246575 0.03249903 0.020661984
0003a0 06 e7 37 3c 9f 77 0d 3d da c3 a7 3c f2 66 bd 3c
       0.011224514 0.034537908 0.020479131 0.023120377
0003b0 26 dd 1c 3b c3 ff ad 3c da c2 0c 3d 7a 6f bf 3c
       0.0023935526 0.02124012 0.034365512 0.023368586
0003c0 dc 04 87 3b 61 88 ae 3b 0f b9 13 3d 98 20 ff 3c
       0.0041204523 0.005326316 0.036065158 0.031143472
0003d0 c8 05 4f 3d 9a 4a 09 3d 59 0d d4 3c bd 32 1f 3d
       0.050542623 0.03351841 0.02588527 0.038866747
0003e0 28 ae f5 3c fe c6 4f 3d 01 d0 f8 3c 11 74 8f 3c
       0.02999027 0.050726883 0.030372621 0.0175114
0003f0 c3 82 61 bb 4a 69 9f 3c 95 8e ec 3c f4 7c e2 3a
       -0.0034410215 0.019459385 0.028876582 0.001727967
